saved_models/dqn_best_model_episode_9151.pt (torch, 87371 bytes, 24 tensors)

fc1.weight f4 [64, 4]
-0.14652361 0.19499536 0.40770122 -0.020554015 -0.092254005 0.35276377 -0.37812042 -0.055012107
-0.40323263 0.0347515 -0.1473493 0.123128615 -0.42030793 0.06265047 0.08508268 0.45225212
0.47665954 -0.28265986 -0.43870115 0.14768825 0.24305244 -0.17118785 -0.362128 0.035629686
-0.48556364 0.4701196 -0.4462744 -0.11671843 0.4390934 0.46844804 0.30176404 -0.3963829
-0.26999503 0.39105377 0.0075556566 0.035744894 -0.483873 -0.2584151 -0.24181676 -0.011515021
0.0071639037 -0.3864296 -0.2510112 -0.36443532 0.31467766 0.22996968 0.10330893 -0.15110329
0.2468234 -0.23835056 0.35051057 0.04047254 -0.47581685 0.039266914 -0.42683226 -0.24778098
0.11209626 -0.49008316 -0.4504162 0.2048362 0.08867776 0.38105807 0.077294886 0.054226145
0.39578745 0.2982523 -0.08080135 0.107346624 0.32451588 0.38838652 0.15418273 -0.47927642
-0.37016356 -0.38718724 -0.13559943 -0.46448028 0.0063473973 -0.06655895 -0.07620789 0.3631012
0.19612491 0.066561066 -0.15707476 0.38042182 0.09165867 -0.1543185 0.20638864 -0.24785332
0.3420219 0.41559508 0.12140118 -0.06700694 0.14031675 0.14618891 -0.113293804 0.04137628
-0.05020254 -0.36412632 0.42734355 -0.32500306 -0.30420482 0.37874526 -0.38574332 -0.069851756
-0.44053233 0.036553927 0.2929023 0.22683762 0.49713066 -0.13204424 -0.47506207 -0.42329365
-0.44532043 0.08574691 0.11207318 -0.480726 0.19579238 -0.2602729 0.2997085 -0.35474017
0.32801273 -0.36357945 -0.21988292 0.2664503 0.06790278 -0.08672598 0.2610816 0.009993666
0.29824582 0.41882136 0.46923497 -0.30254743 -0.37979427 0.18288308 -0.46779054 0.31005442
-0.30824637 0.06014031 0.0010345356 0.11402293 -0.19480176 0.41203642 -0.46146953 -0.03216679
0.114135444 0.49655724 0.28383026 -0.30219358 -0.26898053 -0.21544503 -0.052650053 0.16223736
0.34096152 -0.033186417 0.42698509 0.07971864 -0.11265442 0.24480316 0.32101652 -0.16487676
0.31289512 0.4655874 0.22677404 0.09074857 0.4152045 0.4610777 -0.354996 -0.2472085
-0.46304035 -0.42736006 -0.3182286 -0.19840306 0.0015488361 -0.48546225 0.3792751 -0.27844834
-0.13911515 -0.48530698 -0.42931533 -0.37387496 -0.17932993 -0.4713847 0.02492863 -0.031976044
0.27046803 0.11325282 0.042390328 0.027734928 0.094640575 0.47742668 0.25887102 -0.42009813
0.385719 0.36732733 0.12312677 0.34257677 -0.42047668 0.4900246 0.15622121 0.08227199
-0.24475855 0.08770635 0.30895993 -0.39102885 0.16483153 0.46516964 0.41988492 -0.39524734
0.010341985 0.12983035 -0.29023275 0.024873946 0.3488067 0.29346263 -0.44972137 0.44432637
0.08592398 0.3608514 -0.38844076 0.14193524 0.04830692 0.17936899 -0.41806144 -0.067070946
0.0014163916 0.4621649 -0.11581687 0.22805087 0.12503843 0.41957757 0.4461042 -0.18547828
0.36375022 0.17456174 -0.17507324 0.41337794 0.3185603 -0.19595534 0.08088493 -0.100791566
-0.1793908 -0.12378177 0.26987758 -0.44219828 0.41327384 -0.17234385 0.20881525 -0.37787002
-0.40848944 -0.41792506 0.44998235 0.03161694 -0.35818887 -0.13361628 -0.029395044 0.27693442
00000000: 490a 16be ddac 473e 37be d03e e560 a8bc
00000010: abef bcbd 749d b43e 0099 c1be 6054 61bd
00000020: 8274 cebe 9757 0e3d bce2 16be db2a fc3d
00000030: 9a32 d7be e44e 803d d43f ae3d 978d e73e
00000040: b80c f43e cbb8 90be 709d e0be 973b 173e
00000050: bde2 783e de4b 2fbe d768 b9be 6ff0 113d
00000060: cc9b f8be 84b3 f03e 147e e4be 120a efbd
00000070: dad0 e03e 6cd8 ef3e d180 9a3e b3f2 cabe
00000080: ca3c 8abe 3338 c83e 7195 f73b 3d69 123d
00000090: 34be f7be fc4e 84be d09e 77be 80a9 3cbc
000000a0: 2ebf ea3b 1ada c5be 8a84 80be 4497 babe
000000b0: 6e1d a13e 2c7d 6b3e a293 d33d d2ba 1abe
000000c0: 46bf 7c3e 2b12 74be 1f76 b33e 89c6 253d
000000d0: 449e f3be 58d6 203d c289 dabe 4cba 7dbe
000000e0: b992 e53d 2eec fabe f49c e6be 95c0 513e
000000f0: af9c b53d 0b1a c33e c84c 9e3d 3c1c 5e3d
00000100: a7a4 ca3e 87b4 983e 2e7b a5bd 8cd8 db3d
00000110: f226 a63e 99da c63e 14e2 1d3e b863 f5be
00000120: 1486 bdbe 683d c6be 94da 0abe 5cd0 edbe
00000130: d4fd cf3b 0f50 88bd e212 9cbd 67e8 b93e
00000140: f8d4 483e 2b51 883d 35d8 20be a6c6 c23e
00000150: 8ab7 bb3d ab05 1ebe 8b57 533e 43cd 7dbe
00000160: 7f1d af3e e1c8 d43e 2fa1 f83d ef3a 89bd
00000170: 32af 0f3e 8cb2 153e 9506 e8bd 2d7a 293d
00000180: 2ea1 4dbd c46e babe c6cc da3e cd66 a6be
00000190: bcc0 9bbe e6ea c13e 2680 c5be 700e 8fbd
000001a0: 748d e1be 92b9 153d 4af7 953e 1f48 683e
000001b0: e987 fe3e 9b36 07be 563b f3be f2b9 d8be
000001c0: 0a01 e4be 139c af3d a086 e53d b821 f6be
000001d0: cc7d 483e 7d42 85be 6473 993e 81a0 b5be
000001e0: 49f1 a73e 1627 babe fd28 61be 2c6c 883e
000001f0: 9d10 8b3d 649d b1bd 7dac 853e 79bc 233c
00000200: adb3 983e c16f d63e 913f f03e 7fe7 9abe
00000210: 6574 c2be b445 3b3e 3e82 efbe 74bf 9e3e
00000220: 78d2 9dbe b055 763d 4199 873a db84 e93d
00000230: 1d7a 47be 70f6 d23e bc45 ecbe 53c1 03bd
00000240: d8bf e93d c03c fe3e 3352 913e 1eb9 9abe
00000250: d1b7 89be 9f9d 5cbe 95a7 57bd 8d21 263e
00000260: 8292 ae3e 7bee 07bd ca9d da3e 8743 a33d
00000270: 5cb7 e6bd aead 7a3e 475c a43e 74d5 28be
00000280: ca33 a03e 7961 ee3e 7437 683e 63da b93d
00000290: af95 d43e 6012 ec3e 09c2 b5be 3a24 7dbe
000002a0: a013 edbe f0ce dabe dcee a2be 2c2a 4bbe
000002b0: 5102 cb3a 828e f8be 5930 c23e c890 8ebe
000002c0: 3474 0ebe 287a f8be 38cf dbbe 8a6c bfbe
000002d0: 44a2 37be 5659 f1be 2037 cc3c 50f9 02bd
000002e0: c97a 8a3e 18f1 e73d 7ba1 2d3d 5c34 e33c
000002f0: ebd2 c13d 4571 f43e be8a 843e 1a17 d7be
00000300: f67c c53e 5412 bc3e e329 fc3d 3966 af3e
00000310: b848 d7be 81e4 fa3e 74f8 1f3e 387e a83d
00000320: fca1 7abe 639f b33d ff2f 9e3e ef34 c8be
00000330: 99c9 283e b72a ee3e 28fb d63e dc5d cabe
00000340: 6e71 293c 3ff2 043e 6399 94be 72c4 cb3c
00000350: cb96 b23e bc40 963e e141 e6be bf7e e33e
00000360: e9f8 af3d 84c1 b83e b5e1 c6be 7957 113e
00000370: 7add 453d 81ac 373e 260c d6be 7e5c 89bd
00000380: 37a6 b93a e1a0 ec3e 6531 edbd 2b86 693e
00000390: 130a 003e dfd2 d63e c567 e43e 05ee 3dbe
000003a0: 783d ba3e 50c0 323e 6646 33be 46a6 d33e
000003b0: 561a a33e 84a8 48be 00a7 a53d cf6b cebd
000003c0: 39b2 37be 4c81 fdbd 652d 8a3e d067 e2be
000003d0: a198 d33e e87a 30be aad3 553e 2e78 c1be
000003e0: 8725 d1be 46fa d5be 1664 e63e c480 013d
000003f0: 8864 b7be b5d2 08be e0cd f0bc 59ca 8d3e

fc1.bias f4 [64]
0.3186238 0.24382448 0.46916768 -0.20129237 -0.43277758 0.3426223 -0.23760666 0.35579753
0.31814793 -0.3010887 -0.08778427 0.01667739 0.06077743 0.41304165 -0.46304715 -0.4476711
-0.26013932 -0.43580112 0.17656815 0.40529847 0.116979696 -0.08695532 -0.50390834 -0.17917328
0.22930759 0.3720702 0.25633088 -0.36072564 0.13645588 -0.44970348 -0.08979585 -0.03301208
-0.030190278 -0.2380015 0.36002734 0.1964255 0.27116632 -0.1305296 0.13772127 0.31970915
0.4976037 -0.023405878 -0.44112992 -0.36519462 0.35492718 0.19895571 0.41419485 -0.37026525
0.4893918 0.16625725 0.15984073 0.11267383 -0.13416564 -0.1784124 -0.16927288 0.3112341
-0.3303879 -0.24627016 -0.13287273 0.3871093 0.44440323 0.06264107 -0.35062683 -0.23118977
00000000: a922 a33e 20ad 793e bf36 f03e 961f 4ebe
00000010: 0695 ddbe 316c af3e 294f 73be 182b b63e
00000020: 49e4 a23e 4c28 9abe 3dc8 b3bd 069f 883c
00000030: c1f1 783d 327a d33e 8414 edbe 2535 e5be
00000040: fb30 85be 5321 dfbe 48ce 343e 4883 cf3e
00000050: 0d93 ef3d a115 b2bd 2300 01bf 3379 37be
00000060: 9ccf 6a3e fc7f be3e cd3d 833e 08b1 b8be
00000070: 17bb 0b3e 893f e6be e3e6 b7bd ad37 07bd
00000080: 9a51 f7bc aab6 73be 8155 b83e c423 493e
00000090: 50d6 8a3e 8da9 05be ce06 0d3e ebb0 a33e
000000a0: eac5 fe3e afbd bfbc c8db e1be cafa babe
000000b0: 04b9 b53e 0cbb 4b3e 5911 d43e 6893 bdbe
000000c0: 9091 fa3e 573f 2a3e 4aad 233e 89c1 e63d
000000d0: b862 09be bdb1 36be df55 2dbe 135a 9f3e
000000e0: 9a28 a9be 3f2e 7cbe ca0f 08be 3133 c63e
000000f0: d288 e33e f649 803d 5c85 b3be 03bd 6cbe

fc2.weight f4 [64, 64]
-0.08764806 0.08988936 -0.108886346 -0.026559964 -0.016258746 -0.03456166 0.0996314 -0.004449507
0.10746834 0.016023993 0.11104432 0.06446048 -0.08508371 0.07758558 -0.08345729 0.071442574
-0.072013356 -0.041149918 -0.08590981 0.0060328944 -0.120909795 0.12236212 0.050108045 0.06928401
0.06287828 -0.10260399 -0.062921375 -0.05027033 -0.039238606 -0.08443928 -0.04502295 -0.071437806
-0.04241137 -0.056546334 0.0065715346 -0.08939296 -0.042296223 0.00043860078 -0.09408026 0.045730446
0.010101466 -0.045158666 0.03952585 -0.06054014 0.028159693 0.025215343 0.03946895 -0.01450804
0.05972521 0.033721875 0.078380585 0.035840884 0.056019753 0.023369644 0.03947168 0.0048786146
-0.0944198 0.024723887 -0.08721345 -0.123091295 -0.06749364 0.087089494 0.11554134 0.09388316
0.021817476 0.07201908 -0.02370494 -0.09453782 0.12095615 0.04359525 -0.010231504 -0.107265405
0.068350285 0.11845985 -0.0512547 0.023243789 -0.097160004 -0.09751335 -0.112879 -0.039672703
0.011305308 0.009645194 0.08857736 0.0969087 -0.0356523 0.051530883 -0.058627047 0.0641735
-0.08429826 -0.05013416 0.091312654 -0.03851825 0.07693711 -0.10656377 -0.015941491 0.07146995
0.10227845 -0.02894007 -0.0931368 -0.10315198 0.023589613 0.036112346 0.048886582 -0.062376957
-0.02090798 -0.05217986 0.036519304 -0.04598898 -0.08542532 0.07097453 0.05262414 0.07637444
0.10926863 0.095647566 0.10840147 -0.033338025 -0.01344333 -0.063817956 -0.015827717 -0.02702326
0.13268606 0.025037145 0.08587899 0.11927548 0.11367096 -0.03363949 -0.1268771 -0.006340515
-0.03435165 -0.117081404 0.11895949 -0.1030115 -0.12415738 0.09958313 -0.08505441 0.054763116
-0.12124101 0.102728724 0.069954485 0.0024230052 0.11863812 -0.01607716 -0.11224215 -0.029141106
0.08051726 -0.09253182 0.03417203 -0.012232646 -0.06355923 0.043725856 -0.112669855 0.05927851
0.028306996 -0.0991695 0.03921309 -0.025906919 -0.06958027 0.031023858 0.017830351 0.12038688
0.1155976 -0.033451974 -0.053251814 0.04616827 -0.078819506 0.056339845 -0.105738215 -0.03507891
0.11438667 -0.064990155 -0.05504489 -0.03769037 0.112904 -0.10562484 -0.09591622 -0.042807907
-0.09891887 0.10063692 0.0976569 0.10895077 0.05366355 -0.022230564 -0.1135898 0.12250902
0.095483 0.027044363 0.021188201 -0.11623449 0.068552084 7.779833e-07 -0.11356063 0.01674724
0.0012765974 -0.09576997 -0.031423807 -0.039503917 -0.075543 0.081196204 0.022700176 0.102852315
-0.024573594 -0.11633678 -0.04386565 -0.048301414 0.08867276 0.11295158 0.093314424 0.025803253
-0.0059688836 -0.09341614 -0.0420873 0.0927767 -0.011888489 0.024384692 -0.11123863 0.08516164
0.12437388 -0.030281395 -0.10892856 -0.12153965 0.04995595 0.1039011 -0.07624151 -0.008049786
-0.0045765936 -0.09120996 0.0418797 -0.1026126 -0.08581224 -0.014551729 -0.07095903 -0.022169545
-0.11564557 0.021282032 0.086449206 -0.095381245 0.10425362 0.0022681355 -0.11908311 0.09892431
-0.11977948 0.078472316 -0.087983474 -0.08797142 0.043528095 0.06681302 0.018853232 -0.04667236
0.024812311 0.053103283 -0.012305275 -0.11343759 0.09900993 -0.057329014 -0.00254111 -0.10590884
00000000: d380 b3bd ea17 b83d ceff debd 4894 d9bc
00000010: 1031 85bc 8790 0dbd 8c0b cc3d 2ccd 91bb
00000020: 5c18 dc3d c044 833c 346b e33d db03 843d
00000030: 5e40 aebd 30e5 9e3d a8eb aabd 7c50 923d
00000040: bd7b 93bd d18c 28bd 7cf1 afbd 96af c53b
00000050: 8e9f f7bd fe98 fa3d 183e 4d3d c6e4 8d3d
00000060: 54c6 803d 0a22 d2bd ecdc 80bd 43e8 4dbd
00000070: a9b8 20bd 80ee acbd fc69 38bd fc4d 92bd
00000080: 8bb7 2dbd 219d 67bd 0756 d73b a813 b7bd
00000090: ce3e 2dbd 00f4 e539 27ad c0bd d94f 3b3d
000000a0: 9f80 253c 4bf8 38bd dce5 213d f0f8 77bd
000000b0: 28af e63c 6890 ce3c 32aa 213d 21b3 6dbc
000000c0: 6ca2 743d f31f 0a3d 0086 a03d e4cd 123d
000000d0: f874 653d b271 bf3c 0ead 213d c9dc 9f3b
000000e0: 2b5f c1bd c089 ca3c f79c b2bd 4a17 fcbd
000000f0: 1b3a 8abd fa5b b23d f0a0 ec3d d045 c03d
00000100: 90ba b23c bd7e 933d dd30 c2bc 0b9d c1bd
00000110: dcb7 f73d ef90 323d 0aa2 27bc f7ad dbbd
00000120: 3cfb 8b3d 149b f23d 73f0 51bd c269 be3c
00000130: d3fb c6bd 14b5 c7bd 1b2d e7bd d87f 22bd
00000140: e639 393c e006 1e3c 0c68 b53d 1278 c63d
00000150: 2508 12bd 0c12 533d ea22 70bd 656d 833d
00000160: 91a4 acbd 7a59 4dbd 2102 bb3d 50c5 1dbd
00000170: 3491 9d3d 1b3e dabd bb97 82bc d65e 923d
00000180: 5d77 d13d ba13 edbc 82be bebd 5841 d3bd
00000190: 013f c13c 8aea 133d 4c3d 483d fb7e 7fbd
000001a0: 3647 abbc 8dba 55bd 4495 153d f15e 3cbd
000001b0: 78f3 aebd 185b 913d 698c 573d 346a 9c3d
000001c0: 3bc8 df3d dfe2 c33d 9701 de3d 748d 08bd
000001d0: 6a41 5cbc fdb2 82bd 21a9 81bc e25f ddbc
000001e0: dbde 073e b31a cd3c 53e1 af3d b446 f43d
000001f0: 52cc e83d 90c9 09bd 12ec 01be 18c4 cfbb
00000200: 51b4 0cbd 60c8 efbd 08a1 f33d b1f7 d2bd
00000210: 3946 febd 3df2 cb3d 0231 aebd 4a4f 603d
00000220: 354d f8bd 7063 d23d 4c44 8f3d 48cb 1e3b
00000230: 8bf8 f23d 40b4 83bc 36df e5bd 54b9 eebc
00000240: 3ce6 a43d 5381 bdbd f8f7 0b3d 706b 48bc
00000250: 572b 82bd e219 333d 74bf e6bd 06ce 723d
00000260: 13e4 e73c 6119 cbbd e89d 203d bf3a d4bc
00000270: 1a80 8ebd bf25 fe3c f510 923c 668d f63d
00000280: 6fbe ec3d f004 09bd 931e 5abd f11a 3d3d
00000290: 1f6c a1bd 9cc4 663d 478d d8bd e7ae 0fbd
000002a0: 8f43 ea3d 8f19 85bd c076 61bd 3861 1abd
000002b0: 363a e73d d651 d8bd b96f c4bd 5857 2fbd
000002c0: fa95 cabd bb1a ce3d 5700 c83d 9521 df3d
000002d0: 50ce 5b3d df1c b6bc c5a1 e8bd 02e6 fa3d
000002e0: 978c c33d 248c dd3c e192 ad3c 590c eebd
000002f0: 0965 8c3d 9bd6 5035 7a92 e8bd 8231 893c
00000300: 8053 a73a 0c23 c4bd 40b6 00bd dcce 21bd
00000310: 4ab6 9abd 324a a63d b8f5 b93c 3ca4 d23d
00000320: 904e c9bc fa41 eebd 78ac 33bd b4d7 45bd
00000330: 109a b53d 2853 e73d a21b bf3d 5861 d33c
00000340: a096 c3bb f650 bfbd bc63 2cbd b601 be3d
00000350: f0c7 42bc 68c2 c73c 14d1 e3bd 3a69 ae3d
00000360: bcb7 fe3d b010 f8bc f015 dfbd c8e9 f8bd
00000370: 9c9e 4c3d 1aca d43d 8224 9cbd 40e3 03bc
00000380: 40f7 95bb 4acc babd 0c8a 2b3d 8e26 d2bd
00000390: 54be afbd 606a 6ebc f852 91bd e89c b5bc
000003a0: 96d7 ecbd a857 ae3c 480c b13d 3e57 c3bd
000003b0: ec82 d53d 00a5 143b d8e1 f3bd d498 ca3d
000003c0: f24e f5bd 18b6 a03d ae30 b4bd 5c2a b4bd
000003d0: 844a 323d 44d5 883d 1872 9a3c 842b 3fbd
000003e0: 3043 cb3c d482 593d 109c 49bc f851 e8bd
000003f0: b8c5 ca3d d4d1 6abd c088 26bb bce6 d8bd

fc2.bias f4 [64]
0.036259938 -0.0007363953 -0.04056661 -0.10204841 -0.08843872 -0.05494651 0.015206088 -0.119747415
0.08626328 0.00045696867 0.027278364 -0.0036472033 0.034264326 0.09852379 -0.04637681 -0.07476134
0.05479511 0.044580426 0.1201536 0.03541912 -0.104399234 -0.08971079 -0.055817004 0.08020311
-0.09820418 0.046145007 -0.06710522 -0.065528974 0.05715554 -0.10914046 0.008739725 0.09783823
0.10873361 0.014862014 0.014624644 -0.0045254026 -0.05434117 -0.11277228 0.07355071 0.07152259
-0.04254502 -0.06626149 -0.06503956 -0.05666546 0.02217865 -0.10204983 -0.02522468 0.11050158
-0.11452074 -0.095693335 0.11290266 -0.08579686 0.0125546595 0.004649475 0.08935952 0.12087987
-0.07095673 -0.10865037 0.03658981 -0.039568648 -0.10557959 0.020793878 0.01942432 -0.016567338
00000000: 4d85 143d a70a 41ba 2c29 26bd c2fe d0bd
00000010: 5c1f b5bd 970f 61bd f522 793c 223e f5bd
00000020: cdaa b03d 4c95 ef39 e076 df3c eb05 6fbb
00000030: c058 0c3d d7c6 c93d 9cf5 3dbd 791c 99bd
00000040: d670 603d f799 363d 1713 f63d a413 113d
00000050: 44cf d5bd 4aba b7bd 5fa0 64bd 8741 a43d
00000060: 461f c9bd 8c02 3d3d 766e 89bd 0e34 86bd
00000070: ed1b 6a3d 0985 dfbd 1031 0f3c 695f c83d
00000080: baaf de3d ce7f 733c 349c 6f3c d449 94bb
00000090: d994 5ebd 27f5 e6bd c1a1 963d 707a 923d
000000a0: b043 2ebd 1bb4 87bd 7633 85bd 0b1a 68bd
000000b0: 00b0 b53c 80ff d0bd fda3 cebc a74e e23d
000000c0: da89 eabd defa c3bd 8339 e73d 44b6 afbd
000000d0: 0fb2 4d3c a05a 983b 2002 b73d de8f f73d
000000e0: c351 91bd 1684 debd 32df 153d bc12 22bd
000000f0: 1d3a d8bd ec57 aa3c c01f 9f3c 3ab8 87bc

fc3.weight f4 [6, 64]
0.019585477 0.016991895 0.06957198 -0.039349437 0.02213497 -0.001965632 0.12685801 0.016550109
0.04051425 0.06110236 0.10071662 0.04421666 -0.12156288 0.05485504 0.12699194 -0.0722278
-0.061687708 0.102674164 0.052347112 -0.028133895 0.10807168 -0.11133937 0.102908045 -0.03806281
-0.019856058 -0.025575776 -0.120522216 0.052548245 -0.055260625 -0.11352549 0.07295996 -0.00012466311
-0.021512639 0.1113612 -0.08747198 -0.0952056 0.04260054 -0.0010886453 -0.015603965 -0.0069946637
0.021570755 -0.05750289 0.06832479 -0.113571726 -0.025943771 0.0006914051 0.05545557 0.06646932
0.043580014 0.10017929 0.021434415 0.011888583 -0.033354487 -0.037349656 0.07112155 0.0074630016
0.10704332 0.07696536 0.018209469 0.0614326 0.01687121 0.0821126 -0.05280064 0.09377831
-0.07706175 0.13148592 0.048619233 -0.001333639 -0.09991184 0.049994696 0.05678954 -0.11834788
-0.006718354 0.0688025 -0.0676872 0.027362501 -0.091381885 0.04836587 -0.12270051 -0.08063983
0.0861103 0.1111873 0.09815821 -0.08269736 0.07881011 0.019529887 -0.04691754 -0.11911408
0.019051401 -0.1019076 0.10487501 0.009131432 -0.049876522 0.08590686 -0.03180547 -0.042874485
-0.040268563 0.084691025 0.101541534 0.08860568 0.035795987 0.086620696 0.06821978 -0.081996836
0.019643072 -0.06414762 0.03317993 -0.019994853 -0.05743882 0.082307294 0.047387384 0.06723889
-0.028513463 0.040620375 -0.13648853 -0.11625357 -0.07241228 0.06801872 -0.08133244 0.07699507
-0.0037751694 -0.042194366 0.114689596 0.042459592 0.053560525 -0.023725413 -0.07997566 0.12347547
-0.12383009 -0.061133727 -0.098468706 -0.035656452 -0.0960748 -0.034123674 0.08330787 -0.07709743
0.035867177 0.037452295 -0.1163964 -0.053208757 0.023971718 0.118762545 -0.035579465 -0.002053923
0.034764454 0.088587694 0.023564318 0.016550172 0.09196284 0.012981909 0.079875045 0.025061922
-0.06453412 -0.05535246 -0.019639133 -0.04576634 -0.088623375 -0.054973967 -0.0236765 -0.11311656
0.11998751 0.07100509 0.086378194 0.11357909 -0.048319492 -0.11756723 -0.049794007 -0.100506626
-0.11187933 -0.09341855 0.09366305 -0.0957185 -0.10484472 0.041191157 0.088992134 -0.023628058
-0.06376838 0.104831874 0.022883859 -0.07918421 0.12135466 -0.0063210675 0.009436826 -0.10075435
-0.029877683 0.094744444 0.058230508 0.086413205 -0.090619124 -0.03911301 0.062166493 0.09181458
0.07614517 -0.094156906 -0.037205454 0.0784128 -0.10872586 -0.057409726 -0.06216318 -0.12452081
0.07428793 -0.065744095 0.07767166 0.009038985 0.06078842 -0.07743778 0.04994416 -0.091819756
0.07896477 0.022849422 0.10680589 0.07552755 -0.095493004 0.042673998 0.11130466 0.09337337
-0.09855666 0.09911864 -0.00019471082 -0.033846363 0.06580843 0.10932279 0.053808764 -0.082753554
-0.054006353 -0.08733759 -0.10298404 -0.07328694 -0.051360123 0.053023502 -0.09431515 0.05076595
0.056826245 -0.010555592 0.11076224 -0.06533103 -0.025972322 -0.09185397 0.021234382 -0.034159318
0.11923078 -0.032936055 0.09335286 -0.06853015 -0.06608613 -0.10362167 -0.07010866 -0.06870585
0.11360799 0.111598656 0.030752294 -0.1229419 0.116444424 0.1142149 -0.109448 0.061059926
00000000: b971 a03c 9632 8b3c c17b 8e3d e02c 21bd
00000010: 6654 b53c d5d1 00bb 11e7 013e 1894 873c
00000020: 45f2 253d 7846 7a3d 8444 ce3d 871c 353d
00000030: f6f5 f8bd aeaf 603d 2d0a 023e 2bec 93bd
00000040: 40ac 7cbd d546 d23d ed69 563d 0e79 e6bc
00000050: af54 dd3d e505 e4bd 74c1 d23d c0e7 1bbd
00000060: 2ca9 a2bc 4a84 d1bc 5ad4 f6bd d43c 573d
00000070: f758 62bd 0d80 e8bd 086c 953d 00b8 02b9
00000080: 463b b0bc 5711 e43d 8224 b3bd 27fb c2bd
00000090: e77d 2e3d e0b0 8eba c6a7 7fbc 7e33 e5bb
000000a0: 27b5 b03c 2688 6bbd deed 8b3d 4b98 e8bd
000000b0: 0888 d4bc 693f 353a 6125 633d 1121 883d
000000c0: f580 323d cd2a cd3d 3a97 af3c 55c8 423c
000000d0: b79e 08bd f4fb 18bd 2da8 913d 328c f43b
000000e0: 8739 db3d 04a0 9d3d 062c 953c c0a0 7b3d
000000f0: 7e35 8a3c a72a a83d 7c45 58bd d80e c03d
00000100: 8dd2 9dbd 3fa4 063e f624 473d 80cd aeba
00000110: 949e ccbd 3dc7 4c3d 269c 683d 6060 f2bd
00000120: a325 dcbb 53e8 8c3d 969f 8abd 5327 e03c
00000130: 6d26 bbbd 4a1b 463d 684a fbbd 7f26 a5bd
00000140: 995a b03d 2bb6 e33d 2c07 c93d 3c5d a9bd
00000150: 3267 a13d 24fd 9f3c 9b2c 40bd 15f2 f3bd
00000160: af11 9c3c efb4 d0bd b6c8 d63d 009c 153c
00000170: 534b 4cbd f0ef af3d 7446 02bd 289d 2fbd
00000180: a6f0 24bd 7d72 ad3d 02f5 cf3d e576 b53d
00000190: d09e 123d 3166 b13d d0b6 8b3d f5ed a7bd
000001a0: 82ea a03c d45f 83bd aee7 073d 3fcc a3bc
000001b0: f844 6bbd ba90 a83d 4619 423d 8bb4 893d
000001c0: 1195 e9bc 8d61 263d a6c3 0bbe 5a16 eebd
000001d0: e44c 94bd 664d 8b3d 9f91 a6bd 97af 9d3d
000001e0: d568 77bb 00d4 2cbd 61e2 ea3d 1cea 2d3d
000001f0: 4862 5b3d cc5b c2bc 47ca a3bd b5e0 fc3d
00000200: a19a fdbd 5c67 7abd f6a9 c9bd 800c 12bd
00000210: ddc2 c4bd 44c5 0bbd 519d aa3d 42e5 9dbd
00000220: 76e9 123d 9467 193d 3c61 eebd 6df1 59bd
00000230: 5660 c43c c739 f33d c6bb 11bd 1c9b 06bb
00000240: 2c65 0e3d 776d b53d f509 c13c 3a94 873c
00000250: 0357 bc3d 13b2 543c 8795 a33d a94e cd3c
00000260: 772a 84bd 43b9 62bd 3fe2 a0bc 7c75 3bbd
00000270: 2c80 b5bd 622c 61bd 38f5 c1bc a8a9 e7bd
00000280: 03bc f53d 1e6b 913d 0de7 b03d 279c e83d
00000290: a9ea 45bd 16c7 f0bd cdf4 4bbd 6bd6 cdbd
000002a0: fd20 e5bd 3a52 bfbd 6ad2 bf3d 1008 c4bd
000002b0: d4b8 d6bd 0fb8 283d 8241 b63d a18f c1bc
000002c0: ff98 82bd 18b2 d63d ee76 bb3c 552b a2bd
000002d0: cb88 f83d f520 cfbb eb9c 1a3c 4c58 cebd
000002e0: 0bc2 f4bc 6009 c23d 1d83 6e3d 68f9 b03d
000002f0: 8596 b9bd f734 20bd 4ba2 7e3d 4809 bc3d
00000300: 00f2 9b3d 56d5 c0bd bf64 18bd e496 a03d
00000310: aaab debd 7626 6bbd d29e 7ebd c404 ffbd
00000320: 4524 983d d7a4 86bd 5212 9f3d 4018 143c
00000330: 47fd 783d b397 9ebd 3f92 4c3d ff0b bcbd
00000340: 48b8 a13d b62e bb3c 0cbd da3d 30ae 9a3d
00000350: d691 c3bd eeca 2e3d b3f3 e33d 8a3a bf3d
00000360: 13d8 c9bd b7fe ca3d 4a2b 4cb9 7ca2 0abd
00000370: 92c6 863d a0e4 df3d 9466 5c3d b27a a9bd
00000380: c435 5dbd 0dde b2bd 4ce9 d2bd 7717 96bd
00000390: fe5e 52bd 2c2f 593d 4d28 c1bd f5ef 4f3d
000003a0: a3c2 683d 5df1 2cbc 50d7 e23d 46cc 85bd
000003b0: e8c3 d4bc ef1d bcbd baf3 ad3c a4ea 0bbd
000003c0: 442f f43d f5e7 06bd c92f bf3d 8959 8cbd
000003d0: 2a58 87bd 9937 d4bd 2195 8fbd a7b5 8cbd
000003e0: 4eab e83d d68d e43d 3cec fb3c f6c8 fbbd
000003f0: 6a7a ee3d 80e9 e93d 4626 e0bd f919 7a3d

fc3.bias f4 [6]
-0.014206199 0.11560962 -0.042377952 0.08561661 0.12472583 0.08745176
00000000: 1ec1 68bc bdc4 ec3d 8194 2dbd c357 af3d
00000010: 4270 ff3d e919 b33d

fc1.weight f4 [64, 4]
-0.14647305 0.19505294 0.40763968 -0.02092079 -0.09224683 0.35276064 -0.37810725 -0.055378668
-0.40325746 0.034624748 -0.14742729 0.12275277 -0.42063883 0.062393747 0.084755614 0.4520234
0.47676718 -0.2825932 -0.43844274 0.14725885 0.24319606 -0.17092012 -0.362324 0.03586863
-0.48549923 0.47022435 -0.44661298 -0.116717555 0.43916914 0.46853495 0.30172437 -0.39665002
-0.26993752 0.39111328 0.007582221 0.03517776 -0.483873 -0.2584151 -0.24181676 -0.011515021
0.0071639037 -0.3864296 -0.2510112 -0.36443532 0.31469885 0.2299648 0.103273384 -0.15099148
0.24693611 -0.23820728 0.35047385 0.039966874 -0.47581685 0.039266914 -0.42683226 -0.24778098
0.11209608 -0.49018073 -0.45042345 0.2047352 0.08869242 0.38113442 0.077303 0.053785812
0.3957501 0.29820594 -0.08077919 0.10753991 0.32451418 0.38836312 0.15433417 -0.4794095
-0.37016356 -0.38718724 -0.13559943 -0.46448028 0.0063002547 -0.06667519 -0.07631128 0.3629781
0.19608454 0.06652266 -0.15700066 0.38051933 0.09168223 -0.1542532 0.20628563 -0.24785316
0.34185097 0.4154566 0.12117128 -0.06655191 0.14017744 0.14608996 -0.11336102 0.041688584
-0.0502625 -0.36416012 0.42725438 -0.32509744 -0.3041747 0.37873507 -0.3854984 -0.06955323
-0.44093695 0.03632501 0.2925289 0.22659525 0.49711522 -0.13204518 -0.47510442 -0.4229633
-0.44532043 0.08574691 0.11207318 -0.480726 0.1960854 -0.2599275 0.29999277 -0.35493708
0.32816848 -0.36342728 -0.21963796 0.26672837 0.06818215 -0.08638022 0.26137605 0.00968199
0.29831672 0.41887873 0.46932304 -0.30265918 -0.380232 0.18244253 -0.4678941 0.30986005
-0.3084539 0.059927255 0.001052813 0.11394369 -0.19484766 0.41198704 -0.46160293 -0.03245744
0.11402738 0.49647644 0.28364098 -0.3020551 -0.2690758 -0.215219 -0.052744377 0.16227214
0.3408118 -0.03330632 0.4268233 0.08016092 -0.11268503 0.24475531 0.32102546 -0.1653391
0.31287724 0.46560368 0.22672476 0.09040713 0.41514137 0.46099812 -0.35514992 -0.24667212
-0.46304035 -0.42736006 -0.3182286 -0.19840306 0.001552903 -0.48546225 0.37928325 -0.2784263
-0.13911515 -0.48530698 -0.42931533 -0.37387496 -0.17932993 -0.4713847 0.02492863 -0.031976044
0.2704453 0.11326077 0.042392354 0.027512396 0.09473018 0.47753498 0.25898424 -0.4204793
0.38575134 0.36739975 0.123312704 0.34284088 -0.4205945 0.48991933 0.15610722 0.082828596
-0.24493912 0.08753687 0.30877405 -0.39143908 0.16491793 0.46528783 0.42008257 -0.39596465
0.010482351 0.12990615 -0.28998613 0.02490705 0.34879744 0.2934136 -0.4499167 0.44452906
0.085905656 0.36084962 -0.3882811 0.14155976 0.04827702 0.17937946 -0.41821024 -0.067370005
0.0014181077 0.4621666 -0.115654066 0.22802924 0.12518084 0.41967726 0.44641387 -0.1855017
0.3638296 0.17457435 -0.17512146 0.41317925 0.31845033 -0.19615209 0.08086605 -0.10099596
-0.1793908 -0.12378177 0.26987758 -0.44219828 0.41325137 -0.17239179 0.20853321 -0.37746885
-0.40834045 -0.41792506 0.4502034 0.031848513 -0.35829085 -0.13322954 -0.029543834 0.27698818
00000000: 08fd 15be f5bb 473e 26b6 d03e 1462 abbc
00000010: e8eb bcbd 0b9d b43e 4697 c1be bed4 62bd
00000020: c377 cebe aed2 0d3d 2ef7 16be ce65 fb3d
00000030: f95d d7be 9690 7f3d 5a94 ad3d 9c6f e73e
00000040: d41a f43e 0eb0 90be 917b e0be 06cb 163e
00000050: 6308 793e af05 2fbe 8882 b9be fcea 123d
00000060: 5b93 f8be 3fc1 f03e 75aa e4be 9d09 efbd
00000070: c7da e03e d0e3 ef3e 9e7b 9a3e b615 cbbe
00000080: 4035 8abe 0040 c83e 4874 f83b 8e16 103d
00000090: 34be f7be fc4e 84be d09e 77be 80a9 3cbc
000000a0: 2ebf ea3b 1ada c5be 8a84 80be 4497 babe
000000b0: 3520 a13e e47b 6b3e ff80 d33d 839d 1abe
000000c0: d2dc 7c3e 9cec 73be 4f71 b33e 4eb4 233d
000000d0: 449e f3be 58d6 203d c289 dabe 4cba 7dbe
000000e0: a192 e53d f8f8 fabe e79d e6be 1ba6 513e
000000f0: 5fa4 b53d 0d24 c33e 0951 9e3d 834e 5c3d
00000100: c29f ca3e 73ae 983e 8f6f a5bd e23d dc3d
00000110: b926 a63e 88d7 c63e c709 1e3e 2975 f5be
00000120: 1486 bdbe 683d c6be 94da 0abe 5cd0 edbe
00000130: 5e72 ce3b 018d 88bd 1749 9cbd 44d8 b93e
00000140: 63ca 483e 083d 883d c8c4 20be 6ed3 c23e
00000150: e5c3 bb3d 8df4 1dbe 8a3c 533e 38cd 7dbe
00000160: 1707 af3e bab6 d43e a628 f83d 5e4c 88bd
00000170: ad8a 0f3e 9b98 153e d329 e8bd a6c1 2a3d
00000180: 0de0 4dbd 3273 babe 16c1 da3e 2c73 a6be
00000190: c9bc 9bbe 90e9 c13e 0c60 c5be ed71 8ebd
000001a0: 7dc2 e1be 89c9 143d 59c6 953e 9608 683e
000001b0: e385 fe3e da36 07be e340 f3be a58e d8be
000001c0: 0a01 e4be 139c af3d a086 e53d b821 f6be
000001d0: 9cca 483e 3815 85be a798 993e 50ba b5be
000001e0: b305 a83e 2413 babe c6e8 60be 9f90 883e
000001f0: 15a3 8b3d 1de8 b0bd 15d3 853e 36a1 1e3c
00000200: f8bc 983e 4677 d63e 1c4b f03e 25f6 9abe
00000210: c5ad c2be 37d2 3a3e d18f efbe faa5 9e3e
00000220: abed 9dbe 4876 753d 8bfe 893a 4f5b e93d
00000230: 2586 47be f7ef d23e 3857 ecbe 18f2 04bd
00000240: 3087 e93d 2932 fe3e 6439 913e f7a6 9abe
00000250: 4ec4 89be 5f62 5cbe 7d0a 58bd ab2a 263e
00000260: e27e ae3e 356c 08bd 9588 da3e 692b a43d
00000270: 69c7 e6bd 23a1 7a3e 735d a43e a74e 29be
00000280: 7231 a03e 9b63 ee3e 892a 683e 6027 b93d
00000290: 698d d43e f207 ec3e 36d6 b5be 9e97 7cbe
000002a0: a013 edbe f0ce dabe dcee a2be 2c2a 4bbe
000002b0: c78a cb3a 828e f8be 6a31 c23e e48d 8ebe
000002c0: 3474 0ebe 287a f8be 38cf dbbe 8a6c bfbe
000002d0: 44a2 37be 5659 f1be 2037 cc3c 50f9 02bd
000002e0: ce77 8a3e 43f5 e73d 9ba3 2d3d ad61 e13c
000002f0: e601 c23d 777f f43e 9599 843e 1049 d7be
00000300: 3381 c53e d21b bc3e 5f8b fc3d d788 af3e
00000310: 2a58 d7be b5d6 fa3e 92da 1f3e 0aa2 a93d
00000320: 52d1 7abe 8846 b33d a217 9e3e b46a c8be
00000330: 3fe0 283e 353a ee3e 1015 d73e e1bb cabe
00000340: 2bbe 2b3c 1e06 053e 1079 94be df09 cc3c
00000350: 9495 b23e 4f3a 963e 7b5b e6be 5099 e33e
00000360: 4eef af3d 48c1 b83e c8cc c6be 0bf5 103e
00000370: 20be 453d 40af 373e a71f d6be 49f9 89bd
00000380: ccdf b93a 1aa1 ec3e 0adc ecbd 7f80 693e
00000390: 682f 003e f0df d63e 5c90 e43e 28f4 3dbe
000003a0: e047 ba3e 9ec3 323e 0a53 33be 3b8c d33e
000003b0: ec0b a33e 18dc 48be 1a9d a53d f8d6 cebd
000003c0: 39b2 37be 4c81 fdbd 652d 8a3e d067 e2be
000003d0: af95 d33e 7987 30be bb89 553e 9943 c1be
000003e0: 0012 d1be 46fa d5be 0f81 e63e 9673 023d
000003f0: e671 b7be 536d 08be e905 f2bc 65d1 8d3e

fc1.bias f4 [64]
0.31856394 0.24369751 0.46884206 -0.20157334 -0.43285707 0.34301782 -0.23750687 0.35576543
0.317967 -0.3010887 -0.08778427 0.016814083 0.060711373 0.41304165 -0.46313062 -0.44777864
-0.2600135 -0.43588376 0.17656815 0.4052103 0.116896756 -0.087079935 -0.5039431 -0.17932062
0.22922605 0.37214693 0.25600234 -0.3606625 0.13645588 -0.44960824 -0.08955894 -0.032908384
-0.030083133 -0.23838419 0.35989928 0.1963578 0.27108923 -0.13051683 0.13769118 0.31967407
0.49742085 -0.02323972 -0.44112992 -0.3651869 0.35492718 0.19895571 0.41416925 -0.3703563
0.4893599 0.1663585 0.15964521 0.11252843 -0.13409892 -0.17842455 -0.1693967 0.31123748
-0.33044833 -0.24610472 -0.13272262 0.3868861 0.44440323 0.06263596 -0.35041398 -0.23115507
00000000: d01a a33e d78b 793e 110c f03e 3e69 4ebe
00000010: 719f ddbe 08a0 af3e 0035 73be e326 b63e
00000020: 92cc a23e 4c28 9abe 3dc8 b3bd b0bd 893c
00000030: 7dac 783d 327a d33e 751f edbe 3e43 e5be
00000040: 7d20 85be 282c dfbe 48ce 343e b977 cf3e
00000050: 9167 ef3d f756 b2bd 6a02 01bf d39f 37be
00000060: 3cba 6a3e 0b8a be3e bd12 833e c1a8 b8be
00000070: 17bb 0b3e 0d33 e6be ad6a b7bd f1ca 06bd
00000080: e770 f6bc fc1a 74be b844 b83e 0512 493e
00000090: 35cc 8a3e 34a6 05be ebfe 0c3e 52ac a33e
000000a0: f2ad fe3e 3a61 bebc c8db e1be c7f9 babe
000000b0: 04b9 b53e 0cbb 4b3e fe0d d43e 579f bdbe
000000c0: 618d fa3e e259 2a3e 097a 233e 4e75 e63d
000000d0: 3a51 09be edb4 36be 5476 2dbe 855a 9f3e
000000e0: 8630 a9be e002 7cbe 70e8 07be ef15 c63e
000000f0: d288 e33e 4847 803d 7669 b3be eab3 6cbe

fc2.weight f4 [64, 64]
-0.08764806 0.08988936 -0.108886346 -0.026559964 -0.016258746 -0.03456166 0.0996314 -0.004449507
0.10746834 0.016023993 0.11104432 0.06446048 -0.08508371 0.07758558 -0.08345729 0.071442574
-0.072013356 -0.041149918 -0.08590981 0.0060328944 -0.120909795 0.12236212 0.050108045 0.06928401
0.06287828 -0.10260399 -0.062921375 -0.05027033 -0.039238606 -0.08443928 -0.04502295 -0.071437806
-0.04241137 -0.056546334 0.0065715346 -0.08939296 -0.042296223 0.00043860078 -0.09408026 0.045730446
0.010101466 -0.045158666 0.03952585 -0.06054014 0.028159693 0.025215343 0.03946895 -0.01450804
0.05972521 0.033721875 0.078380585 0.035840884 0.056019753 0.023369644 0.03947168 0.0048786146
-0.0944198 0.024723887 -0.08721345 -0.123091295 -0.06749364 0.087089494 0.11554134 0.09388316
0.02188628 0.07197578 -0.02386666 -0.09452444 0.12102156 0.043556157 -0.01026394 -0.10725339
0.06833581 0.11845985 -0.0512547 0.02325341 -0.097074315 -0.09751335 -0.11296693 -0.039662786
0.011305769 0.009660763 0.08857736 0.09686829 -0.03567929 0.051718462 -0.058616165 0.06416715
-0.08446547 -0.050169017 0.09130098 -0.038546856 0.07693711 -0.10626734 -0.016151313 0.07164182
0.102299824 -0.029130405 -0.09319736 -0.10321333 0.023603762 0.03597279 0.048918214 -0.06233682
-0.020902183 -0.052186154 0.036519304 -0.045997992 -0.08542532 0.07097453 0.052624762 0.07639512
0.109269 0.095648505 0.10859064 -0.033316955 -0.013506554 -0.06383939 -0.01585209 -0.027078426
0.13268012 0.025063097 0.085868075 0.11931292 0.11367096 -0.033606473 -0.12689756 -0.0064698826
-0.0343499 -0.117081404 0.11895949 -0.10301079 -0.12415738 0.09958313 -0.08505441 0.054765344
-0.12124101 0.102728724 0.069954485 0.0024252383 0.118640505 -0.01607716 -0.11224215 -0.029139468
0.08051922 -0.09253012 0.03417203 -0.012230873 -0.063557394 0.043725856 -0.11266788 0.059280306
0.028306996 -0.0991695 0.039214153 -0.025906919 -0.06958027 0.031023858 0.01783344 0.12038914
0.11559969 -0.033451974 -0.053251814 0.04616827 -0.078817606 0.056339845 -0.10573607 -0.035077173
0.11438858 -0.064990155 -0.05504489 -0.03769037 0.112904 -0.10562484 -0.095914096 -0.042806603
-0.09891696 0.1006373 0.0976569 0.108952835 0.05366355 -0.02222884 -0.1135898 0.12250902
0.09548426 0.027046273 0.021190107 -0.11623122 0.068552084 5.5514106e-06 -0.11356063 0.01674724
0.0012765974 -0.09576997 -0.031423807 -0.039503917 -0.075543 0.081196204 0.022700176 0.102852315
-0.024573594 -0.11633678 -0.04386565 -0.048301414 0.08867276 0.11295158 0.093314424 0.025803253
-0.0059688836 -0.09341614 -0.0420873 0.0927767 -0.011888489 0.024384692 -0.11123863 0.08516164
0.12437388 -0.030281395 -0.10892856 -0.12153965 0.04995595 0.1039011 -0.07624151 -0.008049786
-0.0045765936 -0.09120996 0.0418797 -0.1026126 -0.08581224 -0.014551729 -0.07095903 -0.022169545
-0.11564557 0.021282032 0.086449206 -0.095381245 0.10425362 0.0022681355 -0.11908311 0.09892431
-0.11977948 0.078472316 -0.087983474 -0.08797142 0.043528095 0.06681302 0.018853232 -0.04667236
0.024812311 0.053103283 -0.012305275 -0.11343759 0.09900993 -0.057329014 -0.00254111 -0.10590884
00000000: d380 b3bd ea17 b83d ceff debd 4894 d9bc
00000010: 1031 85bc 8790 0dbd 8c0b cc3d 2ccd 91bb
00000020: 5c18 dc3d c044 833c 346b e33d db03 843d
00000030: 5e40 aebd 30e5 9e3d a8eb aabd 7c50 923d
00000040: bd7b 93bd d18c 28bd 7cf1 afbd 96af c53b
00000050: 8e9f f7bd fe98 fa3d 183e 4d3d c6e4 8d3d
00000060: 54c6 803d 0a22 d2bd ecdc 80bd 43e8 4dbd
00000070: a9b8 20bd 80ee acbd fc69 38bd fc4d 92bd
00000080: 8bb7 2dbd 219d 67bd 0756 d73b a813 b7bd
00000090: ce3e 2dbd 00f4 e539 27ad c0bd d94f 3b3d
000000a0: 9f80 253c 4bf8 38bd dce5 213d f0f8 77bd
000000b0: 28af e63c 6890 ce3c 32aa 213d 21b3 6dbc
000000c0: 6ca2 743d f31f 0a3d 0086 a03d e4cd 123d
000000d0: f874 653d b271 bf3c 0ead 213d c9dc 9f3b
000000e0: 2b5f c1bd c089 ca3c f79c b2bd 4a17 fcbd
000000f0: 1b3a 8abd fa5b b23d f0a0 ec3d d045 c03d
00000100: db4a b33c 0a68 933d 0484 c3bc 0896 c1bd
00000110: 27da f73d f167 323d 162a 28bc aaa7 dbbd
00000120: a5f3 8b3d 149b f23d 73f0 51bd ef7d be3c
00000130: e6ce c6bd 14b5 c7bd 355b e7bd 7275 22bd
00000140: d53b 393c 2d48 1e3c 0c68 b53d e262 c63d
00000150: 7224 12bd bdd6 533d 8117 70bd 116a 833d
00000160: 3bfc acbd 077e 4dbd 02fc ba3d 4fe3 1dbd
00000170: 3491 9d3d b1a2 d9bd c24f 84bc f2b8 923d
00000180: 9282 d13d e3a2 eebc 42de bebd 8361 d3bd
00000190: ad5c c13c 3458 133d 775e 483d e554 7fbd
000001a0: 0e3b abbc 26c1 55bd 4495 153d 6468 3cbd
000001b0: 78f3 aebd 185b 913d 108d 573d 0b75 9c3d
000001c0: 6dc8 df3d 5de3 c33d c564 de3d 5c77 08bd
000001d0: 984a 5dbc 3abe 82bd 3edc 81bc 93d3 ddbc
000001e0: 4cdd 073e 2051 cd3c 9adb af3d 555a f43d
000001f0: 52cc e83d f1a6 09bd 6ff1 01be 4f01 d4bb
00000200: 7bb2 0cbd 60c8 efbd 08a1 f33d 52f7 d2bd
00000210: 3946 febd 3df2 cb3d 0231 aebd a051 603d
00000220: 354d f8bd 7063 d23d 4c44 8f3d bff0 1e3b
00000230: cbf9 f23d 40b4 83bc 36df e5bd e5b5 eebc
00000240: 43e7 a43d 6e80 bdbd f8f7 0b3d 0064 48bc
00000250: 612a 82bd e219 333d 6bbe e6bd e8cf 723d
00000260: 13e4 e73c 6119 cbbd 059f 203d bf3a d4bc
00000270: 1a80 8ebd bf25 fe3c 6f17 923c 958e f63d
00000280: 88bf ec3d f004 09bd 931e 5abd f11a 3d3d
00000290: 206b a1bd 9cc4 663d 278c d8bd 15ad 0fbd
000002a0: 8f44 ea3d 8f19 85bd c076 61bd 3861 1abd
000002b0: 363a e73d d651 d8bd 9c6e c4bd fa55 2fbd
000002c0: fa94 cabd ee1a ce3d 5700 c83d aa22 df3d
000002d0: 50ce 5b3d 4219 b6bc c5a1 e8bd 02e6 fa3d
000002e0: 408d c33d 2590 dd3c e096 ad3c a20a eebd
000002f0: 0965 8c3d 4146 ba36 7a92 e8bd 8231 893c
00000300: 8053 a73a 0c23 c4bd 40b6 00bd dcce 21bd
00000310: 4ab6 9abd 324a a63d b8f5 b93c 3ca4 d23d
00000320: 904e c9bc fa41 eebd 78ac 33bd b4d7 45bd
00000330: 109a b53d 2853 e73d a21b bf3d 5861 d33c
00000340: a096 c3bb f650 bfbd bc63 2cbd b601 be3d
00000350: f0c7 42bc 68c2 c73c 14d1 e3bd 3a69 ae3d
00000360: bcb7 fe3d b010 f8bc f015 dfbd c8e9 f8bd
00000370: 9c9e 4c3d 1aca d43d 8224 9cbd 40e3 03bc
00000380: 40f7 95bb 4acc babd 0c8a 2b3d 8e26 d2bd
00000390: 54be afbd 606a 6ebc f852 91bd e89c b5bc
000003a0: 96d7 ecbd a857 ae3c 480c b13d 3e57 c3bd
000003b0: ec82 d53d 00a5 143b d8e1 f3bd d498 ca3d
000003c0: f24e f5bd 18b6 a03d ae30 b4bd 5c2a b4bd
000003d0: 844a 323d 44d5 883d 1872 9a3c 842b 3fbd
000003e0: 3043 cb3c d482 593d 109c 49bc f851 e8bd
000003f0: b8c5 ca3d d4d1 6abd c088 26bb bce6 d8bd

fc2.bias f4 [64]
0.036259938 -0.00081479445 -0.04056458 -0.10204841 -0.08830434 -0.054840483 0.0150108235 -0.119747415
0.08632163 0.00042308588 0.027278364 -0.0035102863 0.03421989 0.098364234 -0.0464179 -0.074777454
0.05479511 0.044535197 0.12004619 0.035278562 -0.10448681 -0.089723274 -0.055839207 0.08023899
-0.098341204 0.046277054 -0.067023054 -0.065528974 0.057340622 -0.109419055 0.008739725 0.09783823
0.10865428 0.01464232 0.014387939 -0.004428159 -0.05449635 -0.11277228 0.07343809 0.07165176
-0.042420894 -0.06611864 -0.06503956 -0.05655093 0.02217865 -0.10176526 -0.025349582 0.11061665
-0.11463098 -0.09585508 0.11237368 -0.085753426 0.012510129 0.004649475 0.08924874 0.12083228
-0.07087139 -0.10865037 0.036508776 -0.039568648 -0.10538686 0.020946166 0.01923183 -0.01672546
00000000: 4d85 143d ee97 55ba 0c27 26bd c2fe d0bd
00000010: e8d8 b4bd 6aa0 60bd f5ef 753c 223e f5bd
00000020: 65c9 b03d a0d1 dd39 e076 df3c d50c 66bb
00000030: 282a 0c3d 3073 c93d b220 3ebd ec24 99bd
00000040: d670 603d 8a6a 363d c7da f53d 4180 103d
00000050: 2efd d5bd d6c0 b7bd a7b7 64bd 5754 a43d
00000060: 1d67 c9bd 028d 3d3d 6243 89bd 0e34 86bd
00000070: 00de 6a3d 1917 e0bd 1031 0f3c 695f c83d
00000080: 2386 de3d 57e6 6f3c 64bb 6b3c 171a 91bb
00000090: 9137 5fbd 27f5 e6bd b666 963d 28be 923d
000000a0: 88c1 2dbd 3669 87bd 7633 85bd f3a1 67bd
000000b0: 00b0 b53c 4e6a d0bd eda9 cfbc fb8a e23d
000000c0: a6c3 eabd ab4f c4bd 2c24 e63d 7e9f afbd
000000d0: 49f7 4c3c a05a 983b 0bc8 b63d ea76 f73d
000000e0: 0525 91bd 1684 debd 3a8a 153d bc12 22bd
000000f0: 11d5 d7bd 4b97 ab3c 128c 9d3c d503 89bc

fc3.weight f4 [6, 64]
0.019585477 0.017098509 0.06957198 -0.039349437 0.022249818 -0.0017374158 0.12661901 0.016550109
0.040278543 0.061235126 0.10071662 0.044224974 -0.1214563 0.054972205 0.12699194 -0.0722278
-0.061687708 0.10275416 0.052440174 -0.027997486 0.10819362 -0.1112541 0.10302304 -0.038512073
-0.019856058 -0.02546181 -0.12042848 0.052548245 -0.05510017 -0.11352549 0.07295996 -0.00012466311
-0.021586666 0.11111777 -0.08747198 -0.0952056 0.04260054 -0.0010886453 -0.015502943 -0.0068873744
0.021570755 -0.057385903 0.06832479 -0.113564044 -0.025943771 0.0006914051 0.05558654 0.06649761
0.043661844 0.10030247 0.021241719 0.011998507 -0.03330861 -0.037349656 0.07118831 0.0074630016
0.10712866 0.07696536 0.018209469 0.0614326 0.016986813 0.08215342 -0.05266615 0.09387194
-0.07706175 0.13159068 0.048619233 -0.001333639 -0.09986681 0.050140675 0.056630753 -0.11834788
-0.0067793652 0.06894601 -0.0676872 0.027170604 -0.09128012 0.048432894 -0.12270051 -0.08063983
0.0861103 0.11125207 0.09813938 -0.082619675 0.07890686 0.01961796 -0.046740796 -0.11927696
0.018932505 -0.10192731 0.10496588 0.009131432 -0.049787685 0.08590686 -0.03180547 -0.042874485
-0.040313788 0.084411055 0.10131294 0.08860568 0.035795987 0.086620696 0.06832114 -0.08194992
0.019643072 -0.06405632 0.03317993 -0.019874277 -0.05743882 0.082307294 0.047508355 0.06725703
-0.028423984 0.040694773 -0.13667546 -0.11615624 -0.07234242 0.06801872 -0.081283 0.07699507
-0.0036219275 -0.042194366 0.114689596 0.042459592 0.053615775 -0.02360293 -0.079934835 0.123551734
-0.12383009 -0.061139584 -0.098468706 -0.035656452 -0.09607112 -0.034184407 0.083159305 -0.07709743
0.034906045 0.03744317 -0.1163964 -0.053163234 0.023964314 0.11874665 -0.035579465 -0.002053923
0.034764454 0.088584326 0.023553614 0.01652867 0.0919507 0.0129862325 0.07988192 0.025774043
-0.06453412 -0.05538639 -0.019645827 -0.04576634 -0.08864241 -0.054973967 -0.0236765 -0.11311656
0.11956526 0.07081196 0.086378194 0.11357909 -0.048319492 -0.11756723 -0.04978754 -0.10051627
-0.11187933 -0.09341825 0.09366305 -0.09564541 -0.10484472 0.041191157 0.08898435 -0.02361542
-0.063770786 0.104824714 0.022456592 -0.07919438 0.12136743 -0.0063210675 0.009450511 -0.10075435
-0.029899977 0.094744444 0.058230508 0.086413205 -0.0906157 -0.039124586 0.062149864 0.091819346
0.07614517 -0.09403231 -0.037205454 0.0784128 -0.108585596 -0.057228778 -0.062843196 -0.12452081
0.074197955 -0.06554399 0.07767166 0.009115559 0.060925968 -0.07734282 0.049749818 -0.091838434
0.07896477 0.023032771 0.10691115 0.07568807 -0.09535215 0.042808674 0.111512095 0.092772156
-0.098811105 0.09916395 -7.276903e-05 -0.033846363 0.065954365 0.10911586 0.053808764 -0.082753554
-0.054150186 -0.08793135 -0.10298404 -0.073461935 -0.051391855 0.053023502 -0.094179876 0.05087032
0.05665895 -0.010383873 0.11076224 -0.065213986 -0.025972322 -0.092018984 0.021380547 -0.03404107
0.11939391 -0.03278361 0.0922893 -0.06834648 -0.06597901 -0.10362167 -0.07000454 -0.06886325
0.11373293 0.111598656 0.030752294 -0.1229419 0.11659774 0.114345245 -0.10931391 0.06116633
00000000: b971 a03c 2c12 8c3c c17b 8e3d e02c 21bd
00000010: 4045 b63c 00ba e3ba 6aa8 013e 1894 873c
00000020: 1dfb 243d afd1 7a3d 8444 ce3d 3f25 353d
00000030: 15be f8bd 892a 613d 2d0a 023e 2bec 93bd
00000040: 40ac 7cbd c670 d23d 82cb 563d fc5a e5bc
00000050: 9e94 dd3d 31d9 e3bd befd d23d d6be 1dbd
00000060: 2ca9 a2bc 4995 d0bc 35a3 f6bd d43c 573d
00000070: b7b0 61bd 0d80 e8bd 086c 953d 00b8 02b9
00000080: 85d6 b0bc b791 e33d 8224 b3bd 27fb c2bd
00000090: e77d 2e3d e0b0 8eba 0e00 7ebc 7caf e1bb
000000a0: 27b5 b03c 7b0d 6bbd deed 8b3d 4494 e8bd
000000b0: 0888 d4bc 693f 353a b6ae 633d e62f 883d
000000c0: c3d6 323d 626b cd3d 1d03 ae3c 6395 443c
000000d0: 9c6e 08bd f4fb 18bd 2dcb 913d 328c f43b
000000e0: 4566 db3d 04a0 9d3d 062c 953c c0a0 7b3d
000000f0: ee27 8b3c 0d40 a83d 76b8 57bd ef3f c03d
00000100: 8dd2 9dbd b5bf 063e f624 473d 80cd aeba
00000110: f886 ccbd 4f60 4d3d a6f5 673d 6060 f2bd
00000120: 7025 debb 9133 8d3d 969f 8abd e394 de3c
00000130: 12f1 babd 9261 463d 684a fbbd 7f26 a5bd
00000140: 995a b03d 20d8 e33d 4dfd c83d 8134 a9bd
00000150: eb99 a13d d8b5 a03c 4773 3fbd 7b47 f4bd
00000160: 5718 9b3c 44bf d0bd 5af8 d63d 009c 153c
00000170: 2cee 4bbd f0ef af3d 7446 02bd 289d 2fbd
00000180: 1220 25bd b4df ac3d 297d cf3d e576 b53d
00000190: d09e 123d 3166 b13d f4eb 8b3d 5cd5 a7bd
000001a0: 82ea a03c f62f 83bd aee7 073d 61cf a2bc
000001b0: f844 6bbd ba90 a83d 1f98 423d 0ebe 893d
000001c0: 6ad9 e8bc 90af 263d a7f4 0bbe 53e3 edbd
000001d0: 4328 94bd 664d 8b3d b477 a6bd 97af 9d3d
000001e0: dc5d 6dbb 00d4 2cbd 61e2 ea3d 1cea 2d3d
000001f0: 379c 5b3d ef5a c1bc e0b4 a3bd b108 fd3d
00000200: a19a fdbd 806d 7abd f6a9 c9bd 800c 12bd
00000210: efc0 c4bd f304 0cbd 6d4f aa3d 42e5 9dbd
00000220: a4f9 0e3d 025e 193d 3c61 eebd b1c1 59bd
00000230: cf50 c43c 7231 f33d c6bb 11bd 1c9b 06bb
00000240: 2c65 0e3d b36b b53d 82f3 c03c 2267 873c
00000250: a650 bc3d 35c4 543c 2299 a33d 1624 d33c
00000260: 772a 84bd d7dc 62bd 49f0 a0bc 7c75 3bbd
00000270: 278a b5bd 622c 61bd 38f5 c1bc a8a9 e7bd
00000280: a2de f43d dc05 913d 0de7 b03d 279c e83d
00000290: a9ea 45bd 16c7 f0bd 05ee 4bbd 79db cdbd
000002a0: fd20 e5bd 1152 bfbd 6ad2 bf3d bee1 c3bd
000002b0: d4b8 d6bd 0fb8 283d 6d3d b63d 2075 c1bc
000002c0: 429a 82bd 57ae d63d e3f6 b73c aa30 a2bd
000002d0: 7d8f f83d f520 cfbb 51d6 1a3c 4c58 cebd
000002e0: ccf0 f4bc 6009 c23d 1d83 6e3d 68f9 b03d
000002f0: b994 b9bd 1a41 20bd db90 7e3d c80b bc3d
00000300: 00f2 9b3d 0394 c0bd bf64 18bd e496 a03d
00000310: 2062 debd b968 6abd efb3 80bd c404 ffbd
00000320: 19f5 973d ed3b 86bd 5212 9f3d 6d59 153c
00000330: 828d 793d ea65 9ebd 77c6 4b3d ca15 bcbd
00000340: 48b8 a13d 39af bc3c 3cf4 da3d 5902 9b3d
00000350: fd47 c3bd 2658 2f3d 7460 e43d 54ff bd3d
00000360: 7a5d cabd 7816 cb3d 939b 98b8 7ca2 0abd
00000370: 1513 873d 2378 df3d 9466 5c3d b27a a9bd
00000380: 96cc 5dbd 5a15 b4bd 4ce9 d2bd 3673 96bd
00000390: 4480 52bd 2c2f 593d 61e1 c0bd 665d 503d
000003a0: 3713 683d 1f21 2abc 50d7 e23d e98e 85bd
000003b0: e8c3 d4bc 7374 bcbd 4226 af3c a66e 0bbd
000003c0: cb84 f43d 1b48 06bd 2c02 bd3d 3df9 8bbd
000003d0: 0120 87bd 9937 d4bd 8a5e 8fbd 2d08 8dbd
000003e0: cfec e83d d68d e43d 3cec fb3c f6c8 fbbd
000003f0: ccca ee3d d72d ea3d f9df dfbd 8c89 7a3d

fc3.bias f4 [6]
-0.014182318 0.115607575 -0.04253158 0.08558414 0.124634586 0.08731354
00000000: f45c 68bc aac3 ec3d 9835 2ebd bd46 af3d
00000010: 6b40 ff3d 71d1 b23d
