saved_models/dqn_best_model_episode_4492.pt (torch, 87371 bytes, 24 tensors)

fc1.weight f4 [64, 4]
000000 87 23 46 3d ae d0 19 be c1 c0 d1 3e 1a 12 2c 3e
       0.048373725 -0.15021011 0.40967372 0.1680378
000010 44 eb 23 3e c9 42 61 be 66 3f 0e be a8 eb 80 3d
       0.16007715 -0.21998133 -0.13891372 0.06294948
000020 14 03 92 3e 2d 17 40 3e e4 84 f6 be 9a 3a 4f 3e
       0.28517973 0.18758841 -0.48148263 0.20237198
000030 4b ac 77 be 13 16 a8 be f7 9c cc be 2a ee 4c 3e
       -0.24186818 -0.3282934 -0.39963505 0.20012727
000040 23 c3 c1 be 6a de dd 3b 86 f1 44 3e 81 27 dd 3e
       -0.3784419 0.0067708986 0.19232759 0.43194202
000050 62 4c 5b 3e 42 82 91 3e 0b 9e b7 b9 0c 7e 12 be
       0.21415856 0.2841969 -0.0003502223 -0.14305896
000060 7e a3 f8 be 10 14 e0 be 6c df 3e be 88 cc 76 be
       -0.48562235 -0.43765306 -0.18639916 -0.2410146
000070 35 8b dc 3e b0 25 94 be e6 75 b4 3d 07 7a d4 3e
       0.43074957 -0.28935003 0.0881155 0.4149935
000080 be e0 2d 3d 5d 55 b9 3d e7 c9 b9 3e 7f fe af be
       0.04245066 0.09049485 0.36286852 -0.34373853
000090 76 88 e1 be 5c 03 fd be 00 d4 1c bd d8 54 74 be
       -0.44049424 -0.49416625 -0.038288116 -0.2386049
0000a0 20 1b e4 3e 09 a0 f4 3e 7f 24 c2 b9 09 4a d0 3e
       0.44551945 0.47778347 -0.00037029755 0.40681484
0000b0 f0 55 b9 3d 23 aa 25 bd 66 46 53 3d 24 15 b9 3d
       0.090495944 -0.04044546 0.05158081 0.090372354
0000c0 56 8b c4 be 0c ba f0 be 94 ba 82 be ba 06 b2 be
       -0.38387555 -0.47016943 -0.25532973 -0.34770757
0000d0 d2 70 4a 3e 04 fb 8a be d4 33 eb 3d 6f 26 9c be
       0.197696 -0.27144635 0.11484495 -0.30498073
0000e0 04 91 38 bd 10 9f bf be c5 21 9e 3c 84 57 a8 3e
       -0.045060173 -0.37426043 0.019303212 0.3287927
0000f0 21 a1 a8 3e 8f 92 bf 3e 88 63 bb be 75 14 84 3e
       0.32935432 0.37416503 -0.36599374 0.25796857
000100 b1 66 58 be d3 35 a3 3e d4 bf 1e be 3a 74 d8 3e
       -0.21132924 0.31877002 -0.15502864 0.42276174
000110 f3 84 8c bd 78 33 45 bd 89 f6 b2 3e f8 5c 6e be
       -0.068612956 -0.048144788 0.34953716 -0.23277652
000120 b4 96 8f be 00 0f 76 3c 86 e3 ba be ca f6 bc be
       -0.28044665 0.015018225 -0.36501712 -0.36907035
000130 72 3d 96 3e c6 93 64 be 95 30 9d 3e 98 ee 81 bb
       0.29343754 -0.22321996 0.30701128 -0.00396521
000140 00 fc b9 3d a1 51 8c 3d d5 a6 a0 3e f4 24 06 be
       0.09081268 0.06851507 0.31377283 -0.13100034
000150 6c 6f ae be 95 d8 80 3e b2 e5 43 3d 92 5e ef bd
       -0.34069383 0.2516524 0.047826476 -0.1168796
000160 37 da 80 bd 91 f2 34 3e 70 b5 e1 be ff 59 21 be
       -0.06291621 0.17670657 -0.44083738 -0.15756987
000170 0c 27 84 be 18 5d 74 be d4 b9 27 3e 7c b3 a2 be
       -0.2581104 -0.23863637 0.16379482 -0.3177756
000180 e1 04 95 3d 3f 83 e4 3e dc 12 2b 3e e7 ab cf bd
       0.07276321 0.44631383 0.16706413 -0.1014021
000190 e4 2a 75 be 00 0a 98 3c 18 b0 b7 3d a0 58 13 be
       -0.23942143 0.018559456 0.08969134 -0.14389277
0001a0 93 21 83 3e ca 49 16 bc 4c ce 10 3e 2c 0c a9 3e
       0.25611553 -0.009172866 0.14141196 0.330171
0001b0 bf 92 38 be e4 47 86 3e a4 ef 8a be 74 30 98 bd
       -0.18024729 0.26226723 -0.27135956 -0.07431117
0001c0 53 7d c3 bd 94 f8 46 be a9 78 c4 be 9e c6 fb 3e
       -0.09545388 -0.19430763 -0.38373306 0.4917497
0001d0 f8 7d 47 be 8c 06 a4 be 9e b3 bd be 18 c5 86 bd
       -0.19481647 -0.32036245 -0.370511 -0.065805614
0001e0 8e 4e d2 3d 3a b7 1f be e0 41 27 3e f1 a4 99 3d
       0.10268889 -0.15597239 0.16333723 0.07502163
0001f0 6f 2f 82 be 03 f3 0f 3e bd 79 f0 b8 b6 9e 23 3e
       -0.25426814 0.14057545 -0.00011466767 0.15978512
000200 3a fe 98 be d4 db f7 3e 7c ff ae 3e fc a0 e8 3e
       -0.2988146 0.48409903 0.34179294 0.4543532
000210 e8 82 cd be 18 a1 6c be 94 9f 31 3e 2c c4 83 be
       -0.40138936 -0.23108327 0.1734603 -0.25735605
000220 d2 0d e4 be 87 23 cb 3e ac e5 26 bd da b1 49 bd
       -0.44541794 0.39675543 -0.040746376 -0.049241878
000230 86 3e c3 3e 8c a4 c6 3c 58 bd be 3b df c0 32 be
       0.3813364 0.024248384 0.0058209114 -0.17456387
000240 26 17 ef bc 41 6c 01 3f 72 be e9 bd 0c 3c de 3d
       -0.029185843 0.5055581 -0.11413278 0.10851297
000250 63 b0 93 be 15 bc bb be 8f f0 51 be 46 b3 cf 3e
       -0.2884551 -0.36666933 -0.20501922 0.40566462
000260 db f7 09 be f2 48 f7 3e a7 37 c7 3e 07 fd 87 bd
       -0.13473456 0.4829784 0.38909647 -0.06640058
000270 03 25 ec 3e 05 32 db bd fd e3 81 3e 29 74 da be
       0.46121988 -0.107029 0.25369254 -0.42666748
000280 1b 17 37 3e 6c f1 8a be a0 69 7c 3e 0e bd 70 3e
       0.17879908 -0.27137315 0.24649668 0.23509619
000290 ad 88 71 3d 9f d8 72 3a 0a f7 ea 3a ef aa f3 3e
       0.058968235 0.00092638464 0.0017926407 0.4759135
0002a0 64 bf 00 3e 82 a2 12 3e f8 e2 ef be 41 5b 2b 3e
       0.1257301 0.14319804 -0.4685285 0.1673403
0002b0 00 9b c0 3e 45 35 d6 be 92 b5 d3 be ee b9 13 3d
       0.37618256 -0.41837516 -0.41349465 0.03606599
0002c0 07 81 71 be 0d b3 4d 3e ae 05 b2 be 02 03 d6 bc
       -0.23584376 0.20087834 -0.34769958 -0.026124481
0002d0 54 c7 32 be 20 94 c7 bd e8 6f f5 bd 34 dd 0f be
       -0.1745885 -0.097450495 -0.11984235 -0.14049226
0002e0 39 b8 ac 3e 1a f2 69 be 65 0c 84 bd f9 a3 2c 3e
       0.337343 -0.2284626 -0.064476766 0.16859426
0002f0 76 4b 9b 3e e3 99 06 be c7 6d e2 3d 9f da 0b be
       0.3033101 -0.1314464 0.110560946 -0.13657616
000300 b0 c1 41 3e 18 6b bd 3e e4 2f 5c 3e 62 8b 87 3e
       0.18921542 0.3699577 0.21502644 0.26473528
000310 f7 41 28 3e c3 55 f1 3e 56 20 e1 be 91 21 22 3e
       0.16431414 0.47135743 -0.43969983 0.15833117
000320 41 e9 b8 3e f5 d8 d8 be 09 f5 2b be 4e c2 15 3c
       0.3611546 -0.42353025 -0.16792692 0.009140564
000330 1f 86 f5 be 3d d2 dc 3e 62 c3 43 be 77 46 9e 3e
       -0.4795389 0.4312915 -0.19117501 0.30913135
000340 a1 38 d8 3d f2 6a c0 3e fb 28 e8 bd 11 71 61 3e
       0.10557676 0.37581593 -0.113359414 0.22015788
000350 fd 99 ea be 64 bf 9e be 78 72 b3 3e 50 99 08 3e
       -0.4582061 -0.31005394 0.3504827 0.13339734
000360 c0 cb f6 3e d4 d1 b6 be 86 35 b5 bc fb 57 ba 3e
       0.48202324 -0.3570696 -0.022120249 0.3639525
000370 c7 e5 40 3e 81 d6 04 bd ea de dc 3d b8 35 33 3e
       0.18837653 -0.03243113 0.10784705 0.17500961
000380 e9 d6 d6 3e 05 09 fc bc 54 45 74 3e c3 f9 47 3d
       0.41960838 -0.03076602 0.23854572 0.048822176
000390 9a 5a 39 3e 30 8d 5f be 0f 1e b6 be 9b 7c a1 be
       0.18100968 -0.21831203 -0.35569808 -0.3154038
0003a0 3d f6 4d 3e d5 65 84 be 3b e8 8b 3e 26 b6 c2 3e
       0.20113464 -0.25858942 0.27325615 0.38029593
0003b0 eb 24 7d be af 38 39 3e 55 b0 8c 3d 49 1a 9e 3e
       -0.24721114 0.1808803 0.0686957 0.3087943
0003c0 64 8d f2 3e c5 8c ee be fa e9 ee be 02 38 34 3e
       0.47373497 -0.46591774 -0.46662885 0.1759949
0003d0 b4 81 12 be 2e 67 7d be 5f 98 28 3e 59 17 81 bc
       -0.1430729 -0.24746391 0.16464375 -0.015758203
0003e0 42 c3 f5 3e bf b7 5a be 47 d6 72 3e 36 00 01 3f
       0.48000532 -0.21359156 0.23714553 0.50390947
0003f0 18 97 9c bd 12 f2 ae be c2 8f 86 be 40 dd 02 be
       -0.07646006 -0.3416906 -0.26281554 -0.12779713

fc1.bias f4 [64]
000000 c3 bd 3f be 45 81 8c be 33 f9 94 3c 14 d7 d2 3e
       -0.18724732 -0.27442375 0.018185234 0.41179717
000010 16 5e cd 3e e3 f0 dc be 80 b3 fe 3b 94 7d 64 be
       0.40110844 -0.43152532 0.007772863 -0.22313529
000020 a9 6c 9e be 80 19 5e 3d 3e 88 c2 be 10 ff ce be
       -0.30942276 0.054223537 -0.3799457 -0.40428972
000030 cc dc e2 be 80 42 2c be 35 fc a3 3d 0a c0 d5 be
       -0.4430908 -0.16822243 0.08007089 -0.41748077
000040 0f 8f d2 3e 07 9e 73 be d4 2c 77 3e c1 a0 f3 3e
       0.4112477 -0.23790751 0.24138194 0.47583583
000050 d6 3e bb be 10 70 65 bd cf 75 fc be 58 2c d7 3d
       -0.36571378 -0.056015074 -0.4930863 0.10506505
000060 0f 83 cb 3e 20 a5 29 bd 29 64 93 3e ed 23 ba 3d
       0.39748427 -0.04141724 0.28787354 0.090888835
000070 69 93 36 be 58 79 f2 be 6a ef 7d bd 53 b5 c6 be
       -0.1782967 -0.47358203 -0.0619959 -0.38810214
000080 8a 8a f3 be a0 28 2b bd 75 97 ac be ff 7a 8c 3e
       -0.47566634 -0.04178679 -0.33709303 0.2743759
000090 4a ba ce 3e 3d ff 67 be 9e 26 de bd d6 3c 94 3e
       0.40376502 -0.2265596 -0.108472094 0.28952664
0000a0 f6 5c cf 3c 1a 58 39 be 12 91 fc be 41 f1 a7 3e
       0.025312882 -0.18100014 -0.4932943 0.3280125
0000b0 6c ab e9 be fc 02 1e be 19 f6 46 bd 52 8d a1 be
       -0.45638597 -0.15430826 -0.04857454 -0.3155313
0000c0 e2 85 ec be 79 25 e3 be 81 30 69 3c 76 c0 c5 be
       -0.46195894 -0.44364527 0.014232756 -0.386234
0000d0 40 56 b0 bd b9 49 70 3e 1a b0 be 3d 9e ac b6 3e
       -0.08610201 0.23465623 0.093109325 0.3567857
0000e0 24 17 2f 3d 88 6c 14 be c0 bb d2 be 1d 1c b7 3e
       0.042746678 -0.14494526 -0.41158867 0.35763636
0000f0 6d f9 f8 be 9a 37 6a be e7 d9 bf be 18 e5 ab bd
       -0.48627797 -0.22872773 -0.37470934 -0.083933055

fc2.weight f4 [64, 64]
000000 11 de 96 bd 43 e7 cd 3d 99 93 e7 3d 49 ed 84 3c
       -0.073665746 0.10053875 0.11307449 0.016226428
000010 f4 9f fe 3d 14 f2 44 3d 08 60 e0 bd 89 0f 60 bd
       0.124328524 0.048082426 -0.109558165 -0.054702315
000020 bd 8c c6 3d b8 67 f4 bd df 8a 7a 3d 24 78 d2 bc
       0.096948124 -0.11933845 0.061167594 -0.025692053
000030 6c 25 5e bd d4 e3 55 bd 20 f8 bd 3d c7 df 53 3d
       -0.054234907 -0.052219227 0.09275842 0.051727083
000040 9a b6 1e 3d c1 8f b4 3d 10 49 c9 3c 30 16 9f 3d
       0.03874836 0.088164814 0.024570972 0.07767904
000050 3a 76 ff bb 20 ac e9 bc 6d 9b 2b 3d 38 bf 96 3d
       -0.007796076 -0.028524458 0.041896272 0.07360691
000060 92 88 97 3a d0 91 41 3d c7 0c ca 3d 01 81 23 bb
       0.0011561087 0.0472582 0.09865718 -0.0024948718
000070 5a b1 99 bc c4 08 79 3d 92 5b eb bd be d3 bf 3d
       -0.018761326 0.060799375 -0.11492075 0.093665585
000080 51 4b 1d bd 74 3b f3 bd 1a ee e2 bd 27 5a dd 3c
       -0.038401905 -0.11876574 -0.110805705 0.027020527
000090 91 e9 fc 3d c6 ba c0 3d 79 4f ed 3d 66 1c 51 bc
       0.12349237 0.09410624 0.11587424 -0.012763118
0000a0 de f1 e1 3d 62 9d 90 3d 34 8c 90 bc 5a 69 2e bd
       0.11032461 0.070612684 -0.017644979 -0.04258094
0000b0 e5 02 02 bd 5c 18 a8 3d 0a 71 50 3c 26 3d 34 bd
       -0.03174104 0.08207771 0.012722263 -0.04400363
0000c0 ba ae f3 bd 79 3d c8 bc e3 59 dc 3d 08 50 9c 3d
       -0.11898561 -0.024443375 0.10759332 0.07632452
0000d0 62 6d 8a bd 88 35 6b bd 7c ca 78 3d 69 da d0 bd
       -0.06759144 -0.0574241 0.06073998 -0.101979084
0000e0 ce 66 51 3c fc ee 8b bd 1c cb 8b bd d4 a7 94 bd
       0.012780858 -0.06832692 -0.068258494 -0.07258573
0000f0 1a a8 06 3e 91 10 10 3d 0f 86 7e bd f0 3f bb 3c
       0.13150063 0.03517205 -0.062139567 0.022857636
000100 bc 19 87 3d 5a 62 84 3d 87 de 9d 3b 6d 8c 35 bd
       0.06596705 0.064640716 0.004817787 -0.044323374
000110 99 6d 58 bd 9d 74 7b 3d b8 79 ba 3c 8a f9 dc 3c
       -0.052838895 0.061390508 0.022763118 0.026974458
000120 5b 2e 9b 3d 50 b8 fd bc b8 56 d4 3b ad e9 22 bd
       0.07577201 -0.030971676 0.0064800642 -0.03977363
000130 80 49 25 bd aa 23 da 3d ed fa 3b 3d 7a 0c 12 bd
       -0.0403533 0.10651334 0.0458936 -0.03565643
000140 9d ea 6a bd 4f 8c b1 bd 00 54 ee ba f5 64 55 bd
       -0.05735265 -0.0866934 -0.0018182993 -0.052098233
000150 76 d5 d0 3c 3e 90 45 bd 61 7a e4 3d 54 23 f2 bd
       0.025492411 -0.048233263 0.111561544 -0.118231446
000160 fa 96 5b 3c 20 ea 5e bc 6b 56 f0 3d 1b 60 36 bd
       0.013402695 -0.013605624 0.11735233 -0.044525247
000170 68 05 48 3d 64 0c 33 3d 08 fa 85 3d 56 22 9f 3c
       0.04883328 0.04371299 0.0654183 0.019425552
000180 4c 58 ff 3b fc 68 9d 3d c7 f6 b6 bd 06 83 b0 bd
       0.007792508 0.0768604 -0.08933788 -0.08618741
000190 c3 72 38 bb d1 3b 1d 3d b2 47 41 3d 36 83 4c bd
       -0.0028144575 0.038387123 0.047187515 -0.04992982
0001a0 f5 f1 a0 3c 43 72 dd bd 66 4f 0d bc d9 21 82 3d
       0.019646624 -0.10812809 -0.008624887 0.06354112
0001b0 87 12 b0 bc 80 57 a6 3a 46 f4 6c bd f6 5e 5c bd
       -0.02149321 0.0012690872 -0.057850145 -0.0538015
0001c0 56 06 92 3c 31 3f 91 3c 3f 34 6b bd 4a 67 79 3d
       0.017825287 0.017730327 -0.057422873 0.06088952
0001d0 fc 00 b4 3d c9 ba 9d bc 14 a1 ce 3d e3 35 8c bd
       0.0878925 -0.019254105 0.10089317 -0.068462156
0001e0 fb 5b 7a 3d 56 5d b3 bd 89 6d a2 bd d2 c2 c5 3d
       0.061122876 -0.08758037 -0.079310484 0.096563
0001f0 fe 96 c5 3b 10 4b 90 3d e4 db 05 bd d0 1f 42 3d
       0.0060299626 0.07045567 -0.032680407 0.04739362
000200 f3 1a fd bd 33 18 de 3d 02 75 d0 bd 7d 0a b8 bc
       -0.12358656 0.108444594 -0.101785675 -0.022465939
000210 f8 03 f2 bc c8 03 c2 bd 9c a9 d1 bd f0 e5 3b 3d
       -0.029542908 -0.094733775 -0.102374285 0.045873582
000220 10 b4 cc bd 0a d2 cf 3d 38 17 b3 3d 60 5e b1 3d
       -0.09995282 0.10147484 0.08744663 0.08660579
000230 6a 23 e2 bd 1e 20 7a bd fd 3c 21 3d 6e ae ec bc
       -0.11041911 -0.061065786 0.039364804 -0.028891768
000240 93 8c b6 3d ac d9 1b bc 24 69 8e 3d dc 09 a8 3d
       0.08913531 -0.009512346 0.06953648 0.082050055
000250 71 bb 18 3d 37 9c d6 3d 7b e8 9a 3d fe a8 c5 bd
       0.037288133 0.10479014 0.075638734 -0.09651373
000260 7a d8 57 3d 1e 60 83 bd 8b 78 93 bd c4 59 0b bc
       0.052696683 -0.06414817 -0.07200726 -0.0085052885
000270 1a 42 db 3d d0 46 96 bc ab d6 5f bd 18 1e d4 3c
       0.10705967 -0.018344313 -0.054648083 0.025893256
000280 bc e5 cf 3c 58 c6 f6 3d 72 a3 98 bd c7 a4 ea 3d
       0.0253781 0.1204955 -0.0745305 0.1145721
000290 1e 1d d3 3d b5 7b 58 bd 7f 9e c0 3d 8f 96 b1 3d
       0.10308288 -0.05285235 0.09405231 0.08671295
0002a0 ef 94 28 3c c4 cc bb bd d0 be 39 bd 48 9c 92 3d
       0.010289415 -0.09169915 -0.04534799 0.071587145
0002b0 8a d0 44 bc c8 2c 35 bd 57 24 b9 3d d1 61 66 ba
       -0.01201261 -0.04423216 0.090401344 -0.00087883795
0002c0 71 2b 8c bd be 73 80 3d df 43 92 bd 9b 4b 7a 3d
       -0.06844223 0.06272076 -0.07141852 0.06110726
0002d0 cc 1f 23 3d 9a 2e db bd 02 1a 90 bc 4d 29 3d 3d
       0.039825246 -0.10702248 -0.017590526 0.046181966
0002e0 d8 16 f9 3d 2a 81 da 3d 3b 5e 9b 3d 7d 68 01 bd
       0.1216256 0.10669167 0.075863324 -0.03159379
0002f0 59 c2 95 bd df e4 78 bd 91 96 ab 3d ce b8 a8 bd
       -0.073124595 -0.060765143 0.08378328 -0.08238374
000300 83 1f 3c 3d cb e2 04 3e 92 1c d5 3d 2a bf 6f bd
       0.04592849 0.1297714 0.1040584 -0.058531918
000310 0d 01 df 3d ed ab ce 3d 58 a9 8e bd e6 80 36 bc
       0.10888872 0.10091386 -0.069658935 -0.01113913
000320 43 02 b2 3d 82 85 e3 bd f9 62 79 3d ee a7 ad 3d
       0.08691838 -0.11109449 0.060885403 0.08479296
000330 dc e5 6f 3d 66 0d d3 bd 34 1f 94 bd f7 06 f6 3d
       0.05856882 -0.1030529 -0.07232514 0.12013047
000340 39 64 41 bd 0d 37 41 bd a2 78 eb 3d 30 cc 09 bd
       -0.04721472 -0.04717164 0.11497618 -0.033641994
000350 cc 27 d0 3d 53 6f d1 3c 52 cc ec bb 78 a7 cf 3d
       0.10163841 0.025565779 -0.0072265053 0.10139364
000360 a7 26 6d bd 46 c2 da bd ce 9b 8a 3d 29 65 8f 3d
       -0.05789819 -0.10681586 0.06767999 0.07001717
000370 d1 bc c8 3c 70 03 c3 3d 67 0b 91 3d e0 af 2a 3c
       0.024504097 0.0952214 0.07082253 0.010417908
000380 7a 16 48 3c 50 89 1b 3c a4 79 60 bd ee 5b ac bd
       0.01221239 0.009493187 -0.054803506 -0.08415972
000390 98 67 cd bd 71 ce a7 bc ec 25 26 bd f3 c5 98 3c
       -0.100295246 -0.020484181 -0.04056351 0.018649077
0003a0 1d dc 84 bb 37 36 17 bd 9b db 38 bd 93 96 dc 3d
       -0.00405456 -0.036916938 -0.045131307 0.10770907
0003b0 eb 64 63 3d 80 0d c3 3c 48 7d 45 3d cd 93 bf 3d
       0.055516165 0.023810148 0.04821518 0.09354363
0003c0 2a 42 a8 bd 7c 78 a6 bd d0 3e 9c 3d 2f d6 ba 3d
       -0.08215745 -0.08128449 0.07629168 0.091228835
0003d0 b1 5e 9e 3d e5 b1 e5 3d 3f 98 87 bd 9a 4a 06 3d
       0.07732905 0.11215571 -0.066208355 0.03278599
0003e0 2f 40 c9 bc a4 ba 90 bb 13 5a d0 bb 80 ea da 3d
       -0.024566738 -0.0044167805 -0.006358394 0.106892586
0003f0 f8 60 9a bd b0 ee b8 3d 0b 30 8e bd 10 74 92 3c
       -0.075380266 0.09029901 -0.06942757 0.017877609

fc2.bias f4 [64]
000000 cf 0e 9f 3d f4 f5 fa bd a2 a8 9e 3d b6 35 71 bb
       0.077664964 -0.12253943 0.07747008 -0.0036805696
000010 59 37 dd bc 60 9d a6 bb 90 93 c2 3c ac ed a7 3d
       -0.02700393 -0.0050846785 0.023752004 0.08199629
000020 1a 91 c9 bd a4 19 86 3d 2a 2a 82 3d 24 b6 a2 3d
       -0.09842129 0.06547859 0.063556984 0.07944897
000030 d5 aa ae 3b 37 3f db 3b 5f 79 51 3d c6 24 af 3c
       0.0053304234 0.0066908854 0.05114114 0.02137984
000040 96 15 49 bd f7 53 2b bd da ef b9 3d 30 c7 d2 3d
       -0.04909285 -0.041828122 0.09078951 0.10291898
000050 aa 44 bc bd 74 d3 f2 3d 50 20 a5 bd cb 47 f2 3d
       -0.09192784 0.11856738 -0.08062804 0.118301
000060 ef be 55 bd 17 4f 3f 3d 81 84 69 3d 69 29 63 3d
       -0.05218404 0.046706285 0.05701113 0.055459414
000070 ed fa e6 bc b2 17 d2 3d b0 e4 a7 bd 22 3a 2a 3d
       -0.028195823 0.10258426 -0.081979156 0.041559346
000080 02 74 c5 bd b5 b5 bc 3d 15 17 c0 bd 6b 8e 86 bd
       -0.09641267 0.09214345 -0.093794025 -0.06570133
000090 df 4a f5 bb 8f 6b bb 3c 88 e5 d9 bd c6 0f b5 bd
       -0.007485732 0.022878436 -0.10639483 -0.08840899
0000a0 47 40 b4 3d 3f ee 23 bb 32 ca ce 3b 1f 75 8b bb
       0.088013224 -0.0025013832 0.0063107247 -0.0042559053
0000b0 0f 4d 4c 3c 0a 72 8c bc fc e0 8c bd bd 8a 60 3d
       0.012469544 -0.017144222 -0.0687885 0.05481981
0000c0 50 a6 aa 3d 8b d5 73 bd 60 d7 3b bd 0f 65 31 3d
       0.08332503 -0.059529822 -0.045859694 0.043309268
0000d0 5d 31 bb bd 08 e7 3a bd da 6c d9 bd 6e 94 e3 3d
       -0.09140275 -0.045630485 -0.10616465 0.11112295
0000e0 61 91 d4 3d 76 34 9b 3d c4 14 a6 3c 9d 04 48 3d
       0.10379291 0.075783655 0.020273574 0.048832525
0000f0 f0 ac e7 bc 6e 2a 24 3c 8e bb 71 3d 8f 02 b3 3d
       -0.028280705 0.010019882 0.059016757 0.087407224

fc3.weight f4 [6, 64]
000000 11 61 9e 3d d1 9c c6 bd 1e d8 cb 3d bc e2 40 bd
       0.07733358 -0.09697879 0.099533305 -0.04709123
000010 ea bb bf bd 6c a9 33 3d e0 db 97 bc 7d e4 53 3d
       -0.09362014 0.043862745 -0.018537462 0.051731575
000020 e3 01 67 bd ea 53 39 bd 7d bf 99 3d c0 04 26 3b
       -0.056398284 -0.045246042 0.075072266 0.002533242
000030 94 cf 72 bd 01 d5 e8 3a 3f 04 84 bd 6b 01 f4 3d
       -0.059279993 0.0017763675 -0.064461224 0.11914333
000040 d0 9b 91 bd d9 59 a3 bd a0 e9 3c bd 37 1d d9 bd
       -0.07109797 -0.079761215 -0.04612124 -0.106012754
000050 50 9f cf bd b6 a5 8a 3d 56 fc e2 3d 3c d6 81 bd
       -0.10137808 0.06769888 0.110832855 -0.0633969
000060 a3 31 ed bd 1e a0 f9 bc a6 d0 87 3d 4c dd ce bd
       -0.11581733 -0.030471858 0.066315934 -0.10100803
000070 73 1b ec 3d 4b a2 63 3d 70 85 3a bc 31 d7 65 bc
       0.11528673 0.055574697 -0.011384353 -0.014028356
000080 34 8b 85 3c 39 d6 27 bc 79 2e 0a 3d b4 8a 07 be
       0.016301729 -0.010243946 0.033735726 -0.13236505
000090 29 1a ca bc 58 3b f8 3c 78 f1 d4 3c 90 dd d2 3d
       -0.024670677 0.030301735 0.025994048 0.10296166
0000a0 c7 98 f8 bd 9d 24 dc 3d 0c d5 07 3d e5 e4 ae 3d
       -0.12138515 0.10749171 0.03316216 0.08539752
0000b0 11 8a 44 3d 4d 4e 8f 3d 74 64 19 3d da 78 00 3e
       0.047983233 0.069973566 0.037449315 0.12546101
0000c0 0a 85 04 3d 54 02 0e 3b a4 31 8b bd 87 14 ba 3d
       0.03235344 0.0021668868 -0.067965776 0.090859465
0000d0 b1 5f bf bd 65 c3 e3 3d 8d 79 ca bd e0 c2 6b 3c
       -0.093444236 0.11121253 -0.09886465 0.014389724
0000e0 74 db 83 bd 40 80 c4 3b 70 1d af bd af 73 f8 3d
       -0.06438342 0.005996734 -0.08550537 0.1213144
0000f0 46 4a e2 3d 5d fc fa bd 68 ff c7 3d 36 e3 0a bd
       0.11049323 -0.12255166 0.09765512 -0.03390809
000100 29 77 d3 bc 7a 36 c8 3c b0 3f 01 3e c3 b3 ec bc
       -0.025813656 0.024440039 0.12621951 -0.02889431
000110 c5 64 39 3d 38 79 16 3d 76 36 b8 3d a0 3e 98 bd
       0.045262117 0.036736697 0.089947626 -0.0743382
000120 b9 73 9e bd 8b 8b c9 bb 27 37 ef 3d 00 91 cf ba
       -0.07736916 -0.006150668 0.11680441 -0.001583606
000130 e9 e6 e5 bc 41 62 c6 bd 24 c5 02 bd e7 45 31 bd
       -0.028064208 -0.09686709 -0.03192629 -0.043279555
000140 1f 83 2d bd 19 4c f1 3c 08 b3 eb bd 68 82 63 3c
       -0.042361375 0.029455232 -0.11508757 0.013886072
000150 12 ee 97 bd 8a 76 d9 bc 9d 87 a2 3d b6 8d 04 bd
       -0.07418455 -0.026545782 0.079360224 -0.03236171
000160 cf e1 8a 39 ec 0e 89 bd e5 8f 41 bd 26 36 47 bd
       0.00026489652 -0.06692299 -0.04725637 -0.048635624
000170 6e 4b aa 3d 75 65 35 bd 08 ef e6 bc ea bc e2 bc
       0.08315168 -0.04428621 -0.02819015 -0.027677972
000180 d8 b1 06 bd f2 ac f6 bd 13 5e 11 3d 0f 72 f3 3d
       -0.03288445 -0.120447055 0.035490107 0.11886989
000190 6a 6e b2 bd 7d 16 dd bc a0 ab dc bd f4 52 5f bd
       -0.08712466 -0.026988262 -0.10774922 -0.05452247
0001a0 5c 76 fd 3d ce da 8b 3d 2c ae 5c bd 12 3a d4 3d
       0.12376091 0.06828843 -0.05387704 0.103626385
0001b0 99 2d 88 bd 6b 0c a2 3d 60 8b a0 3d a8 8f d2 bb
       -0.06649322 0.07912525 0.07839084 -0.0064258166
0001c0 83 09 ed 3d 8f e1 b0 3d e8 c9 c0 3d 2b 5d 1e 3c
       0.1157408 0.08636772 0.094135106 0.009665768
0001d0 ff 3a fa bc cc 70 a1 bc 52 5a ab 3d 14 65 de 3d
       -0.03054571 -0.019707106 0.083668366 0.10859123
0001e0 9f 2d 96 3c 1c d4 ee bd 70 cb 3b 3d e9 4a d1 3c
       0.0183323 -0.116615504 0.04584831 0.025548415
0001f0 7e 8c db 3d a2 7a 51 bd b3 fd 4b 3d 0f 4d 57 bd
       0.10720156 -0.051142342 0.049802493 -0.052563723
000200 e3 c8 ba 3d 26 90 50 3c 20 7a c0 3b e1 14 90 3d
       0.09120347 0.01272968 0.0058739334 0.07035232
000210 03 3d 8f bd 68 0b 88 bd aa ba a6 bd 5e 76 a1 3d
       -0.06994059 -0.066428006 -0.08141072 0.07883905
000220 59 a8 da bd 0a 93 95 3d eb 39 af 3d cc 34 e9 bd
       -0.10676641 0.07303436 0.08555969 -0.11387023
000230 e8 ec 2f 3d ee 92 fd 3c 4d c0 e0 bd 7d bd bb 3d
       0.04295054 0.03095385 -0.109741785 0.091670014
000240 f7 7c df 3d a7 a7 b6 bd ec c6 5a 3d 8c 2d ea 3d
       0.10912507 -0.08918696 0.053412363 0.114344686
000250 be 1b cf 3d 02 c8 e2 bd 64 e6 a5 3d 17 19 63 3d
       0.10112713 -0.11073305 0.08100584 0.05544385
000260 1a 7b d2 bd 4e ab d5 bd 27 50 f6 bc 9e 2c 14 3d
       -0.10277386 -0.104330644 -0.030067516 0.036175363
000270 c9 81 33 3d 1a b8 77 3d 4a c2 fd 3d a5 6a 60 3d
       0.043824945 0.060478307 0.12390573 0.054789204
000280 0c 7e de bb 55 f8 3e bc 49 f5 1a 3d 9b 40 6d 3d
       -0.0067899283 -0.011655887 0.03783158 0.05792294
000290 c1 1d 11 bd fe 81 bb bc 78 63 0b bd 7a 72 bb 3d
       -0.035428766 -0.022889134 -0.034030408 0.09152694
0002a0 66 ac c1 bc 24 e3 09 3d 3f f8 da bd 06 3c c5 bc
       -0.023641776 0.033663884 -0.106918804 -0.024076473
0002b0 45 e9 3a 3b 82 b3 39 bd 59 b1 d9 3d 45 d4 b6 3d
       0.0028520387 -0.045337208 0.106295295 0.08927206
0002c0 dd b9 28 bd fe 38 a5 3c 00 62 10 bb a9 bb d8 3b
       -0.041192878 0.020168778 -0.0022031069 0.0066141677
0002d0 1f e5 55 bc 72 27 9a 3c 75 53 b3 3d 66 9d fc 3d
       -0.013055115 0.018817637 0.087561525 0.12334709
0002e0 44 19 e8 bd 30 e6 15 3d 33 14 ab 3c a3 f0 f2 bd
       -0.11332944 0.036596477 0.020883655 -0.11862304
0002f0 70 a2 df 3c 3c 00 b7 3d 65 eb f0 3d e1 66 c0 bd
       0.027299136 0.089355916 0.11763648 -0.093946226
000300 27 d7 a9 3d ae e7 c2 bd 54 ac 34 bc d0 28 1d 3d
       0.0829299 -0.09516846 -0.011027414 0.038369
000310 44 37 00 3d 76 e2 e3 bd e6 4e b7 bd cd f5 bd bd
       0.031302705 -0.11127178 -0.089505956 -0.092753984
000320 03 c5 f5 bc d8 ed 32 3d 5d 8f 42 3b 9a 9f c6 bd
       -0.03000117 0.043683857 0.0029687502 -0.0969841
000330 9d ff 64 bc 45 e6 d0 3d e9 9c 4b bc e7 0d e0 3d
       -0.013976959 0.102001704 -0.012427547 0.10940152
000340 35 80 99 3d c9 1c c9 bd fc d5 eb bd 05 d6 8c 3c
       0.07495157 -0.098199435 -0.11515424 0.017191896
000350 0c 3c b7 bd 27 48 00 3d dd e2 d7 3d d1 dd 1a bd
       -0.08947 0.03131881 0.105413176 -0.037809197
000360 24 3d e8 3c 05 04 84 3d 30 df 3f 3d 94 55 e3 bd
       0.028349467 0.06446079 0.046843708 -0.11100307
000370 52 2e b3 bd 4d 96 2c 3d b8 45 c4 bc a5 49 ee bd
       -0.08749069 0.042135525 -0.023959026 -0.1163514
000380 94 1c 86 bc 7e 04 7e bc 03 11 92 3d a8 4a 05 bd
       -0.016371049 -0.015504001 0.07132151 -0.0325419
000390 e4 aa 6d bd 5a c0 4a 3d 18 77 3d bd b2 ff 84 bd
       -0.058024302 0.049499847 -0.046256155 -0.064940825
0003a0 8c 40 ba 3d e0 00 a3 bc f5 97 b9 3d 62 89 cb bd
       0.090943426 -0.019897878 0.09062187 -0.09938313
0003b0 c2 41 d4 bd af 00 06 3b 69 fc 2a bd 9b de 42 3c
       -0.10364105 0.0020447185 -0.041744623 0.011893894
0003c0 5a 30 9d bc 13 ae 8d 3b 02 ad de bd ff 74 bc bd
       -0.019188095 0.00432373 -0.10872842 -0.09202003
0003d0 51 b5 a6 bd af f3 09 bd bd 34 aa 3d b6 97 b0 bd
       -0.08140052 -0.03367966 0.0831084 -0.086226866
0003e0 8a 1d 20 3b 3a 67 fa bd d7 14 c5 bd 1e e0 47 bc
       0.002443167 -0.1222672 -0.096231155 -0.01219943
0003f0 c4 c5 a9 bd c7 42 e9 bb 0b 46 6c bc 24 47 81 bd
       -0.08289674 -0.007118556 -0.014420996 -0.06312397

fc3.bias f4 [6]
000000 de 2d 01 3e d2 f8 5a bd 89 3b 0e bd 13 59 62 3d
       0.12615153 -0.05345995 -0.034724746 0.05526073
000010 22 b8 e9 3d b1 ac d4 bd
       0.11412074 -0.10384501

fc1.weight f4 [64, 4]
000000 df 8a 42 3d 7d 5b 1b be e0 b6 d0 3e bc 88 2c 3e
       0.04749572 -0.15171619 0.40764523 0.16849035
000010 02 ee 24 3e 9d 01 61 be 57 1f 0f be 50 39 7f 3d
       0.16106418 -0.21973272 -0.13976799 0.062310517
000020 de 25 92 3e 81 2b 40 3e f7 c2 f5 be c7 4e 50 3e
       0.28544515 0.18766595 -0.4800031 0.20342551
000030 81 0f 79 be 23 ca a8 be b5 f0 cc be e5 02 4b 3e
       -0.2432232 -0.32966718 -0.40027395 0.19825323
000040 ce 71 c2 be 30 5d b1 3b e9 e0 43 3e 7d f4 dc 3e
       -0.3797745 0.00541272 0.19128765 0.4315528
000050 8f ea 5a 3e ff 01 91 3e 94 93 17 bb 91 83 14 be
       0.2137854 0.28321835 -0.0023128735 -0.14503314
000060 7e a3 f8 be 10 14 e0 be 6c df 3e be 88 cc 76 be
       -0.48562235 -0.43765306 -0.18639916 -0.2410146
000070 89 41 dc 3e dd 5f 94 be 0f 5a b3 3d 9d 38 d4 3e
       0.4301875 -0.28979388 0.08757412 0.41449443
000080 04 c0 2d 3d 95 ef b8 3d d7 e6 b9 3e 72 cb b0 be
       0.04241945 0.09030072 0.3630893 -0.34530216
000090 76 88 e1 be 5c 03 fd be 00 d4 1c bd d8 54 74 be
       -0.44049424 -0.49416625 -0.038288116 -0.2386049
0000a0 1e f1 e3 3e 0a e5 f4 3e 95 1b 88 3a 1c 1a d0 3e
       0.44519895 0.47830993 0.0010384197 0.4064492
0000b0 3f 4e b9 3d 93 d4 29 bd 31 91 51 3d 5a 4a b9 3d
       0.090481274 -0.041462492 0.051163856 0.090473846
0000c0 56 8b c4 be 0c ba f0 be 94 ba 82 be ba 06 b2 be
       -0.38387555 -0.47016943 -0.25532973 -0.34770757
0000d0 6e ee 49 3e c5 1e 8b be 39 30 ea 3d da d1 9b be
       0.1971986 -0.27171913 0.11434979 -0.30433542
0000e0 ad fc 3c bd 44 6c bf be 10 bc 9b 3c e7 76 a8 3e
       -0.046139408 -0.37387288 0.019010574 0.32903215
0000f0 cf df a8 3e a3 93 bf 3e f9 a3 bb be a0 fc 83 3e
       0.32983252 0.37417325 -0.3664854 0.25778675
000100 89 41 58 be cf 55 a3 3e 01 ca 1f be 90 d5 d8 3e
       -0.2111875 0.31901404 -0.15604402 0.42350435
000110 10 8a 8e bd 3c 10 4c bd 80 65 b2 3e 8e 5e 6e be
       -0.06959927 -0.04982017 0.34843063 -0.23278257
000120 b4 96 8f be 00 0f 76 3c 86 e3 ba be ca f6 bc be
       -0.28044665 0.015018225 -0.36501712 -0.36907035
000130 2e 0e 96 3e 2c 18 65 be c1 e8 9d 3e c5 6f 8a bb
       0.29307693 -0.22372502 0.3084164 -0.0042247497
000140 4c 9d b9 3d 87 99 8b 3d d1 53 a0 3e 60 4c 07 be
       0.09063205 0.068163924 0.31313947 -0.13212729
000150 ce 22 ae be 5d 1c 81 3e 5f 0d 45 3d f8 7f ee bd
       -0.3401093 0.25216952 0.048108455 -0.11645502
000160 1f 34 80 bd 07 65 35 3e 9e b0 e1 be b8 77 21 be
       -0.06259941 0.1771432 -0.4408006 -0.15768325
000170 0c 27 84 be 18 5d 74 be d4 b9 27 3e 7c b3 a2 be
       -0.2581104 -0.23863637 0.16379482 -0.3177756
000180 d0 5e 95 3d 6d ba e4 3e 0b 10 2b 3e ea f2 cc bd
       0.07293475 0.44673482 0.16705339 -0.1000727
000190 e4 2a 75 be 00 0a 98 3c 18 b0 b7 3d a0 58 13 be
       -0.23942143 0.018559456 0.08969134 -0.14389277
0001a0 2b fd 82 3e fc 1f 21 bc 83 a3 10 3e d5 c6 a8 3e
       0.25583777 -0.009834286 0.14124875 0.32964197
0001b0 f4 9a 39 be ea d2 85 3e ac 88 8a be 3e 4d 98 bd
       -0.18125516 0.26137477 -0.27057397 -0.07436608
0001c0 ee 51 c4 bd b6 4d 47 be e2 8d c4 be da 77 fb 3e
       -0.09585939 -0.19463238 -0.38389498 0.49114877
0001d0 f8 7d 47 be 8c 06 a4 be 9e b3 bd be 18 c5 86 bd
       -0.19481647 -0.32036245 -0.370511 -0.065805614
0001e0 96 4a d1 3d b5 0d 20 be cb 1e 26 3e 74 6b 9c 3d
       0.10219304 -0.15630229 0.16222684 0.076376826
0001f0 35 1a 82 be cc cc 0f 3e 45 31 0a 39 83 1c 23 3e
       -0.2541062 0.14042968 0.0001317906 0.15928845
000200 87 ed 98 be bd ea f7 3e aa 49 af 3e 72 63 e8 3e
       -0.2986872 0.4842128 0.3423589 0.4538837
000210 e8 82 cd be 18 a1 6c be 94 9f 31 3e 2c c4 83 be
       -0.40138936 -0.23108327 0.1734603 -0.25735605
000220 91 f9 e3 be 72 48 cb 3e bc a6 23 bd 44 9f 46 bd
       -0.44526342 0.3970371 -0.039953932 -0.04849173
000230 51 b3 c3 3e 3f 2a cc 3c f2 7d cd 3b f7 34 34 be
       0.38222745 0.024922488 0.0062711174 -0.1759833
000240 94 46 ee bc 56 31 01 3f a4 32 ea bd 73 ca dd 3d
       -0.029086389 0.50465906 -0.1143544 0.1082963
000250 0e 41 93 be 07 4a bb be df 9d 51 be 56 5c d0 3e
       -0.2876057 -0.36579916 -0.2047038 0.40695447
000260 72 1f 0a be a4 0d f7 3e 6f e9 c7 3e e9 d8 88 bd
       -0.13488558 0.48252594 0.39045283 -0.06681997
000270 36 f9 eb 3e f5 60 dd bd 55 17 82 3e 53 8e da be
       0.4608857 -0.10809509 0.25408426 -0.4268671
000280 17 8f 36 3e 7d 28 8b be 51 83 7d 3e cd 5c 70 3e
       0.17828022 -0.27179328 0.24757124 0.234729
000290 c0 21 71 3d db 0b 13 3a cb d8 17 3b 41 bd f2 3e
       0.058870077 0.00056093716 0.002316999 0.47410014
0002a0 2b fa 00 3e 5f 7d 12 3e 94 e6 f0 be f4 ae 2b 3e
       0.12595432 0.14305638 -0.47050917 0.16765958
0002b0 11 dd c0 3e 7a b3 d6 be 0d f1 d3 be 7e 06 13 3d
       0.3766866 -0.41933805 -0.41394845 0.035894863
0002c0 8b d3 71 be 45 59 4d 3e 99 19 b2 be b7 f3 da bc
       -0.23615853 0.20053585 -0.34785154 -0.02672754
0002d0 54 c7 32 be 20 94 c7 bd e8 6f f5 bd 34 dd 0f be
       -0.1745885 -0.097450495 -0.11984235 -0.14049226
0002e0 b9 7c ac 3e ec e1 6a be 89 71 85 bd b3 df 2c 3e
       0.33688906 -0.22937745 -0.06515796 0.1688221
0002f0 fa 1c 9b 3e 94 4a 07 be d0 b0 e0 3d 7e 86 0e be
       0.30295545 -0.13212043 0.10971224 -0.13918492
000300 e6 f0 40 3e 93 dd bc 3e bf 11 5d 3e d8 ea 87 3e
       0.18841895 0.36887798 0.21588801 0.2654636
000310 b4 6c 28 3e 87 68 f1 3e fb e9 e1 be 54 ba 21 3e
       0.16447717 0.4715006 -0.44123825 0.15793735
000320 72 4e b9 3e 86 54 d8 be ef 9a 2b be 17 df 10 3c
       0.36192662 -0.42251986 -0.16758321 0.008842251
000330 6b 4f f6 be fb 23 dc 3e 59 8c 44 be 15 42 9e 3e
       -0.48107466 0.429962 -0.19194163 0.30909792
000340 11 56 d8 3d 8d 8f c0 3e b8 d1 e9 bd 7d 35 62 3e
       0.10563291 0.3760952 -0.11416954 0.22090717
000350 18 31 ea be 38 5d 9e be ac cd b3 3e 09 f9 09 3e
       -0.4574058 -0.30930495 0.35117853 0.13473906
000360 26 ae f6 3e a0 1e b7 be 56 b2 be bc 8e ab ba 3e
       0.4817974 -0.35765553 -0.023278397 0.3645901
000370 aa 1f 41 3e b9 77 07 bd 6d 9c df 3d ea 3d 33 3e
       0.18859735 -0.03307316 0.10918508 0.17504087
000380 be 19 d7 3e 8c 2d f3 bc cf 77 74 3e 99 3c 49 3d
       0.42011827 -0.029684804 0.23873828 0.049130056
000390 a6 62 39 3e 41 bf 5f be e6 3c b5 be 27 0e a2 be
       0.18104038 -0.21850301 -0.35398024 -0.31651422
0003a0 fa 06 4e 3e 02 4a 84 be e1 b2 8b 3e 81 ec c2 3e
       0.20119849 -0.25837713 0.2728491 0.38071063
0003b0 00 1c 7e be fa 7b 38 3e 1f 7a 8c 3d 56 27 9e 3e
       -0.24815369 0.18016043 0.0685923 0.30889386
0003c0 56 80 f2 3e eb 71 ee be be 50 ef be 75 10 35 3e
       0.47363538 -0.46571288 -0.4674129 0.17682059
0003d0 4b 39 12 be 2e 67 7d be 89 a3 28 3e 21 2a 81 bc
       -0.14279668 -0.24746391 0.16468634 -0.015767159
0003e0 4a a1 f5 3e b0 9a 5b be 06 18 73 3e 72 e5 00 3f
       0.47974616 -0.21445727 0.23739633 0.50350106
0003f0 18 97 9c bd 12 f2 ae be c2 8f 86 be 40 dd 02 be
       -0.07646006 -0.3416906 -0.26281554 -0.12779713

fc1.bias f4 [64]
000000 73 ec 3f be 98 5b 8c be a0 da 96 3c 85 d8 d1 3e
       -0.18742542 -0.2741363 0.018414795 0.40985504
000010 3c f4 cc 3e 72 71 dd be 80 b3 fe 3b fa 5a 65 be
       0.40030086 -0.43250614 0.007772863 -0.22397986
000020 72 cb 9e be 80 19 5e 3d 87 92 c2 be cf 83 cf be
       -0.3101459 0.054223537 -0.38002416 -0.4053025
000030 cc dc e2 be 4f f0 2b be 65 9d a3 3d a8 9d d5 be
       -0.4430908 -0.16790889 0.07989005 -0.41721845
000040 d9 df d2 3e 25 db 74 be d4 2c 77 3e c0 1b f3 3e
       0.41186407 -0.23911722 0.24138194 0.4748211
000050 7d d8 bb be a8 db 62 bd 7e 22 fc be 58 2c d7 3d
       -0.36688605 -0.05538526 -0.49245065 0.10506505
000060 99 e9 cb 3e 20 a5 29 bd 0e bf 92 3e d9 9c b7 3d
       0.39826658 -0.04141724 0.28661388 0.08965463
000070 4f 2e 37 be 58 79 f2 be a3 2f 7b bd 3a e7 c6 be
       -0.17888759 -0.47358203 -0.061324727 -0.38848287
000080 b3 d2 f3 be a0 28 2b bd b4 6c ac be 0e b9 8c 3e
       -0.47621688 -0.04178679 -0.33676684 0.27484936
000090 21 6e ce 3e ce aa 66 be be 5b de bd 37 d0 93 3e
       0.40318397 -0.22526094 -0.10857342 0.28869793
0000a0 35 6e d0 3c 97 c5 3a be b3 80 fc be e4 e0 a7 3e
       0.025443176 -0.18239437 -0.4931694 0.32788765
0000b0 db dd e9 be fc 02 1e be 6b 27 4a bd 64 5a a2 be
       -0.45677075 -0.15430826 -0.049354 -0.31709588
0000c0 c5 f5 ec be aa 71 e3 be 35 4e 76 3c 60 7f c6 be
       -0.46281257 -0.44422656 0.015033294 -0.38769054
0000d0 48 95 ae bd 1c ad 71 3e da aa bf 3d 7b 32 b6 3e
       -0.08524567 0.23601192 0.09358759 0.3558539
0000e0 5a cd 31 3d 2c 3e 15 be ad e0 d2 be ca ba b6 3e
       0.04340873 -0.14574498 -0.4118704 0.35689384
0000f0 76 ed f8 be dc 30 6a be 22 4b c0 be 18 e5 ab bd
       -0.48618668 -0.22870201 -0.37557322 -0.083933055

fc2.weight f4 [64, 64]
000000 1d 62 95 bd c3 4e cd 3d 8d b6 e6 3d e3 d6 76 3c
       -0.07294104 0.10024788 0.112652875 0.015065881
000010 d3 ea fb 3d cb a6 44 3d 08 60 e0 bd 4f 6a 60 bd
       0.123006485 0.04801063 -0.109558165 -0.054788884
000020 b7 ea c7 3d b8 67 f4 bd 85 ce 79 3d ca eb ce bc
       0.09761565 -0.11933845 0.060987968 -0.025258917
000030 6c 25 5e bd 1e 61 54 bd 80 01 bb 3d 42 b7 52 3d
       -0.054234907 -0.05185043 0.091311455 0.0514443
000040 43 5a 1b 3d ff a1 b3 3d 10 49 c9 3c 38 56 9f 3d
       0.037927877 0.08771133 0.024570972 0.07780117
000050 8f 12 f0 bb a1 71 ed bc 60 98 29 3d 38 bf 96 3d
       -0.007326431 -0.028984847 0.04140508 0.07360691
000060 84 fd 86 3a d0 91 41 3d 4d a3 c9 3d 2f 99 51 bb
       0.0010298942 0.0472582 0.098456 -0.0031982174
000070 96 92 a3 bc c4 08 79 3d b0 c5 ea bd 2f 97 bd 3d
       -0.019967359 0.060799375 -0.11463487 0.092573516
000080 66 44 1f bd 74 3b f3 bd e0 b7 e3 bd 25 9d dc 3c
       -0.03888359 -0.11876574 -0.11119056 0.026930401
000090 59 2e fc 3d f5 72 be 3d 2a 53 ed 3d 8e 16 50 bc
       0.123135276 0.0929927 0.11588128 -0.01270069
0000a0 b0 fa e1 3d 0e ed 8e 3d 46 15 96 bc 7e ef 2f bd
       0.11034143 0.06978808 -0.01832069 -0.042953007
0000b0 fc 2d 04 bd 5c 18 a8 3d 99 11 4e 3c 1d 89 33 bd
       -0.032270417 0.08207771 0.012577438 -0.043831933
0000c0 3e dc f3 bd 73 2d cb bc 8e 22 dc 3d 08 a3 9a 3d
       -0.11907242 -0.024801945 0.10748778 0.07550627
0000d0 d4 05 8b bd 44 16 6e bd 0a 13 78 3d 0f 3c d1 bd
       -0.06788221 -0.058126703 0.060565032 -0.102165334
0000e0 c4 6e 51 3c cb 02 8d bd 53 99 8b bd 64 ef 96 bd
       0.012782756 -0.06885298 -0.06816354 -0.07369879
0000f0 1b 6b 06 3e 88 f3 0d 3d 04 a7 7e bd f0 3f bb 3c
       0.13126795 0.034656078 -0.062170997 0.022857636
000100 39 e0 86 3d 9d ac 85 3d 88 92 9f 3b 0d 3a 30 bd
       0.06585736 0.06527064 0.004869763 -0.04302411
000110 a3 8a 54 bd dd e5 79 3d b8 79 ba 3c 9b fd de 3c
       -0.051890027 0.06101023 0.022763118 0.027220538
000120 76 03 99 3d 50 b8 fd bc bf bc cb 3b 4a 8a 23 bd
       0.07471363 -0.030971676 0.0062175686 -0.039926805
000130 80 49 25 bd ee da da 3d a0 44 40 3d 1d c0 12 bd
       -0.0403533 0.10686289 0.046940446 -0.035827745
000140 4e 01 6a bd ad d5 b1 bd 00 54 ee ba a2 0b 55 bd
       -0.05713015 -0.086833335 -0.0018182993 -0.052013047
000150 c3 9a ca 3c 76 c9 44 bd 57 67 e4 3d 54 23 f2 bd
       0.024732 -0.04804369 0.11152523 -0.118231446
000160 38 c1 52 3c 20 ea 5e bc 51 56 f0 3d 07 07 36 bd
       0.01286345 -0.013605624 0.117352135 -0.044440296
000170 16 16 4d 3d 64 0c 33 3d cc b9 86 3d 3d 99 a7 3c
       0.05006989 0.04371299 0.06578407 0.020458812
000180 3b 76 f0 3b fc 68 9d 3d 82 7f b7 bd 39 a6 b0 bd
       0.007338313 0.0768604 -0.08959867 -0.086254545
000190 27 67 59 bb 7b 55 22 3d 64 34 3c 3d e8 bf 4c bd
       -0.0033173056 0.0396323 0.0459484 -0.049987704
0001a0 39 fd a4 3c 4c a3 dc bd e3 2d 0b bc 00 44 83 3d
       0.020140277 -0.10773334 -0.008494827 0.06409454
0001b0 5a ec ac bc 80 57 a6 3a f7 af 6b bd 30 6b 5c bd
       -0.021108795 0.0012690872 -0.05754086 -0.05381316
0001c0 53 1b 8e 3c 26 ef 8e 3c 0c 63 69 bd d2 4d 7b 3d
       0.017347014 0.01744802 -0.056979224 0.061353512
0001d0 b8 47 b3 3d db e9 97 bc 9e 52 cf 3d c1 23 8c bd
       0.08753914 -0.018544128 0.1012318 -0.06842757
0001e0 09 d9 79 3d 89 23 b2 bd 51 9c a1 bd 3a e1 c6 3d
       0.060997996 -0.08698184 -0.07891143 0.09710927
0001f0 89 b4 d4 3b 8a 36 91 3d dd 96 05 bd d0 1f 42 3d
       0.006491248 0.070904806 -0.032614578 0.04739362
000200 e6 b2 fb bd 76 29 df 3d 0d 62 d1 bd 5a d2 be bc
       -0.122899815 0.1089658 -0.1022378 -0.023293663
000210 d1 8b fa bc be 59 c2 bd 9c a9 d1 bd ab 9d 3c 3d
       -0.030584248 -0.09489773 -0.102374285 0.0460488
000220 94 65 cb bd 0a d2 cf 3d 3e 98 b2 3d 46 cf b2 3d
       -0.09931484 0.10147484 0.08720444 0.087309405
000230 6a 23 e2 bd ae 3a 77 bd 3b 08 1c 3d 45 98 ef bc
       -0.11041911 -0.060358696 0.038093787 -0.029247412
000240 c0 cf b4 3d d4 c3 2a bc 24 69 8e 3d be 91 a8 3d
       0.08828688 -0.010422666 0.06953648 0.08230923
000250 20 da 1a 3d d2 b5 d6 3d 27 c9 98 3d fe a8 c5 bd
       0.037805676 0.10483898 0.07460242 -0.09651373
000260 ee 6f 56 3d 1e 60 83 bd 28 be 93 bd 8f f1 1e bc
       0.05235284 -0.06414817 -0.07214004 -0.009701147
000270 2b 4e d9 3d d0 46 96 bc 06 d7 5d bd 63 21 cd 3c
       0.106106125 -0.018344313 -0.05416014 0.025040334
000280 9f 48 cf 3c 58 c6 f6 3d 61 89 98 bd 46 7e ea 3d
       0.025303183 0.1204955 -0.07448078 0.11449866
000290 3d bd d1 3d 1c 06 5c bd 68 7d c0 3d 9d d2 b1 3d
       0.102411725 -0.053716764 0.09398919 0.086827494
0002a0 b0 8d 2d 3c e8 da bc bd d5 cc 3c bd 25 20 93 3d
       0.010592863 -0.092214406 -0.04609378 0.071838655
0002b0 da 3a 4a bc c8 2c 35 bd 84 62 b9 3d 3a 24 18 ba
       -0.012343133 -0.04423216 0.090519935 -0.0005803738
0002c0 75 8a 8c bd 6b b2 7e 3d b6 6c 91 bd b9 c5 78 3d
       -0.06862346 0.06218187 -0.07100813 0.060735438
0002d0 97 30 21 3d e2 ac dc bd 68 41 8f bc 9f b0 3c 3d
       0.03935298 -0.10775162 -0.017487243 0.046066877
0002e0 7f 35 f9 3d 88 61 db 3d 4a 34 9c 3d 69 e0 02 bd
       0.12168407 0.10711962 0.07627161 -0.031952295
0002f0 3a eb 94 bd de 89 7a bd 1f e7 ab 3d ce b8 a8 bd
       -0.072714284 -0.061166637 0.08393692 -0.08238374
000300 0e 00 3e 3d 66 e1 04 3e 35 39 d4 3d 53 7f 6b bd
       0.04638677 0.12976608 0.10362474 -0.057494473
000310 11 04 e0 3d 0d 87 cd 3d 58 a9 8e bd 2e de 35 bc
       0.109382756 0.100355245 -0.069658935 -0.011100335
000320 88 06 b1 3d 82 85 e3 bd eb 20 77 3d 1b 7a ad 3d
       0.08643824 -0.11109449 0.060334127 0.084705554
000330 dc e5 6f 3d 11 46 d2 bd 76 fd 92 bd e1 e4 f4 3d
       0.05856882 -0.1026727 -0.0717725 0.11957718
000340 db ae 44 bd ff 44 45 bd a2 78 eb 3d 5d a9 09 bd
       -0.048018318 -0.048161503 0.11497618 -0.033608783
000350 78 26 cf 3d 91 f7 cb 3c 99 bf fa bb 78 a7 cf 3d
       0.10114759 0.024898322 -0.0076522348 0.10139364
000360 43 2d 70 bd 46 c2 da bd 0b 05 8a 3d 7d 59 8e 3d
       -0.058636915 -0.10681586 0.06739243 0.06950662
000370 01 3a d0 3c 70 03 c3 3d f4 fd 91 3d 3e 9e 38 3c
       0.025418283 0.0952214 0.07128516 0.011268197
000380 1a 38 2f 3c 50 89 1b 3c f9 d0 64 bd ee e5 ac bd
       0.010694528 0.009493187 -0.055863354 -0.08442293
000390 bf 4b cf bd eb 03 9f bc 11 e1 2b bd f9 b6 97 3c
       -0.10121869 -0.019411048 -0.041962687 0.018519865
0003a0 66 ab 6d bb ea 7e 18 bd 0e 5a 3b bd 26 9a dc 3d
       -0.0036265492 -0.03723041 -0.04574018 0.10771589
0003b0 86 81 62 3d 80 0d c3 3c dd c3 45 3d 01 80 bf 3d
       0.055299304 0.023810148 0.048282493 0.09350587
0003c0 ae a5 a9 bd 2b f8 a7 bd 55 71 9c 3d a2 3a ba 3d
       -0.08283554 -0.08201631 0.07638804 0.090932146
0003d0 f5 dc 9c 3d 85 2f e7 3d 70 6c 87 bd d3 56 05 3d
       0.07659332 0.112883605 -0.0661248 0.032553505
0003e0 82 71 cb bc eb 3c 99 bb a3 08 c4 bb fc 0c da 3d
       -0.024834398 -0.0046764514 -0.005982475 0.10647008
0003f0 19 7a 9a bd 25 b9 b9 3d c9 68 8e bd 10 74 92 3c
       -0.075428195 0.09068517 -0.0695358 0.017877609

fc2.bias f4 [64]
000000 09 29 9d 3d f4 d0 f9 bd 11 61 9c 3d 08 ec 7c bb
       0.076738425 -0.12198058 0.076357014 -0.0038592834
000010 49 48 e0 bc 60 9d a6 bb 90 93 c2 3c 5c 36 a6 3d
       -0.027378218 -0.0050846785 0.023752004 0.08115837
000020 58 58 c7 bd b2 b7 82 3d d0 18 81 3d 24 b6 a2 3d
       -0.09733647 0.06382693 0.06303561 0.07944897
000030 a5 5e c2 3b f3 74 c8 3b 79 90 54 3d ab 29 a8 3c
       0.0059316927 0.006117457 0.051895592 0.020527681
000040 8b ec 4c bd 09 75 26 bd da ef b9 3d 25 08 d3 3d
       -0.050030272 -0.040638957 0.09078951 0.10304288
000050 aa 44 bc bd f9 67 f1 3d d6 f2 a4 bd cd 04 f3 3d
       -0.09192784 0.11787409 -0.0805413 0.1186615
000060 65 2b 53 bd 68 44 3f 3d 2d 6c 67 3d 3d e7 68 3d
       -0.051555056 0.046696097 0.05649965 0.05686115
000070 57 70 e9 bc cb 45 cf 3d b0 e4 a7 bd f3 de 2a 3d
       -0.02849595 0.10120734 -0.081979156 0.041716527
000080 78 cf c6 bd 7e 10 be 3d c0 e2 c0 bd 6e 79 84 bd
       -0.0970754 0.092804894 -0.09418249 -0.064684734
000090 5e c4 ed bb 69 07 bd 3c 88 e5 d9 bd c6 0f b5 bd
       -0.007256075 0.023074823 -0.10639483 -0.08840899
0000a0 cf 1b b4 3d bf 69 02 bb 31 60 ba 3b 27 d3 9a bb
       0.087943666 -0.0019899455 0.0056877364 -0.0047248784
0000b0 8f 49 52 3c c2 07 98 bc e3 d0 8b bd 49 c8 5c 3d
       0.012834921 -0.018558387 -0.06826951 0.053901944
0000c0 ab 17 a9 3d 7c 01 77 bd 60 d7 3b bd 6e d8 32 3d
       0.082564674 -0.06030415 -0.045859694 0.043663435
0000d0 13 7a b8 bd a0 b8 3a bd c9 69 da bd 6e 94 e3 3d
       -0.09007659 -0.04558623 -0.10664708 0.11112295
0000e0 9e ab d5 3d 76 34 9b 3d 3a df a9 3c d4 af 47 3d
       0.10433124 0.075783655 0.020736326 0.048751667
0000f0 f0 ac e7 bc 60 06 2a 3c 84 e8 6c 3d 23 8a b4 3d
       -0.028280705 0.0103774965 0.05783893 0.0881541

fc3.weight f4 [6, 64]
000000 16 4a 9e 3d 52 f0 c5 bd a6 d0 cb 3d e4 4e 40 bd
       0.077289745 -0.09664978 0.09951906 -0.046950236
000010 11 d7 c0 bd 6c a9 33 3d e0 db 97 bc 56 6d 53 3d
       -0.09416021 0.043862745 -0.018537462 0.051617943
000020 b0 21 67 bd 8d eb 3b bd 09 d9 99 3d c0 04 26 3b
       -0.05642861 -0.045878936 0.07512099 0.002533242
000030 b7 d9 72 bd b8 5f f1 3a bf 89 84 bd bb d3 f3 3d
       -0.05928966 0.0018415367 -0.064715855 0.11905619
000040 18 b6 92 bd c0 44 a3 bd a0 e9 3c bd c8 00 d9 bd
       -0.07163638 -0.079720974 -0.04612124 -0.10595852
000050 50 9f cf bd 89 85 8a 3d fc 2c e3 3d 9f 63 82 bd
       -0.10137808 0.06763751 0.110925645 -0.063666575
000060 20 0a ed bd 1e a0 f9 bc 90 5a 89 3d a2 7b cf bd
       -0.11574197 -0.030471858 0.067067266 -0.10131003
000070 f9 c7 ec 3d f6 92 64 3d 70 85 3a bc 97 03 68 bc
       0.11561579 0.055804215 -0.011384353 -0.014161012
000080 99 2e 80 3c 7b 59 21 bc f5 72 0a 3d b4 30 07 be
       0.01564722 -0.009847994 0.033801038 -0.13202173
000090 3c 65 c8 bc 33 52 f9 3c 78 f1 d4 3c 90 dd d2 3d
       -0.024462335 0.030434703 0.025994048 0.10296166
0000a0 f5 e4 f8 bd c5 f0 dc 3d ab 71 07 3d d9 2f af 3d
       -0.12153045 0.10788111 0.033067387 0.08554048
0000b0 e0 57 44 3d 2d 71 8f 3d 61 21 1b 3d 84 66 00 3e
       0.047935367 0.070040084 0.03787363 0.12539107
0000c0 dc 25 06 3d c7 d5 16 3b a4 31 8b bd 72 25 b9 3d
       0.03275095 0.0023015605 -0.067965776 0.09040345
0000d0 35 f5 bf bd 75 10 e5 3d 07 98 ca bd e0 c2 6b 3c
       -0.093729414 0.111847796 -0.09892278 0.014389724
0000e0 55 c5 81 bd 40 80 c4 3b 47 55 ae bd 51 9d f8 3d
       -0.06336466 0.005996734 -0.08512359 0.12139381
0000f0 46 4a e2 3d b8 26 fb bd 95 3e c8 3d 98 c5 10 bd
       0.11049323 -0.122632444 0.097775616 -0.03534469
000100 bf 96 d4 bc 3a 04 c8 3c 19 51 01 3e 7a f2 eb bc
       -0.025950788 0.024416078 0.12628593 -0.028802145
000110 3a 2f 38 3d 38 79 16 3d 76 36 b8 3d 81 92 98 bd
       0.044966914 0.036736697 0.089947626 -0.074498184
000120 c0 6b 9e bd e5 d3 d4 bb 89 52 ef 3d 00 91 cf ba
       -0.077353954 -0.0064949864 0.11685664 -0.001583606
000130 13 0e e8 bc dc 1b c6 bd b3 c7 00 bd 63 19 33 bd
       -0.028327024 -0.096732825 -0.031440448 -0.043725383
000140 9d 29 2f bd 55 a3 f1 3c 08 b3 eb bd 0f 5f 61 3c
       -0.042764295 0.029496828 -0.11508757 0.013755574
000150 12 ee 97 bd 49 94 d9 bc 38 10 a3 3d 82 9c 06 bd
       -0.07418455 -0.026559966 0.07962078 -0.0328641
000160 9f 3d 78 39 ec 0e 89 bd 9f 5a 40 bd 58 20 49 bd
       0.00023674079 -0.06692299 -0.046961423 -0.04910311
000170 a3 e9 ab 3d 85 95 35 bd 08 ef e6 bc a5 2e e3 bc
       0.08394172 -0.044332046 -0.02819015 -0.027732203
000180 26 fe 06 bd f4 a8 f6 bd e6 2e 10 3d 13 44 f3 3d
       -0.03295722 -0.12043944 0.035200976 0.118782185
000190 8b 40 b1 bd 08 23 de bc a0 ab dc bd f4 52 5f bd
       -0.08654889 -0.027116314 -0.10774922 -0.05452247
0001a0 d4 7d fd 3d 9f 23 8d 3d c7 44 5a bd c7 88 d4 3d
       0.123775154 0.0689156 -0.053288247 0.10377651
0001b0 bb bc 88 bd 79 75 a1 3d 65 27 a2 3d 12 ef c8 bb
       -0.066766225 0.07883734 0.0791767 -0.006132015
0001c0 a4 b3 ed 3d 93 1d b0 3d e8 c9 c0 3d 48 1a 1f 3c
       0.11606529 0.08599391 0.094135106 0.009710856
0001d0 db 4f fc bc d8 19 a2 bc ea 07 ac 3d 14 65 de 3d
       -0.030799797 -0.019787714 0.08399947 0.10859123
0001e0 1d e5 9a 3c 1c d4 ee bd 53 1f 3e 3d 99 ec ce 3c
       0.018908078 -0.116615504 0.04641659 0.025259303
0001f0 7e 8c db 3d cf c9 51 bd 31 e9 4c 3d e5 2d 58 bd
       0.10720156 -0.05121785 0.050027076 -0.052778143
000200 dc 62 ba 3d 6a 2d 4c 3c 7a a3 ba 3b 34 d1 90 3d
       0.09100887 0.012461999 0.0056957575 0.07071152
000210 6c 34 8e bd 68 0b 88 bd aa ba a6 bd 76 65 a1 3d
       -0.069435924 -0.066428006 -0.08141072 0.0788068
000220 c0 93 da bd b5 3f 94 3d 0a b2 af 3d cc 34 e9 bd
       -0.10672712 0.07238714 0.0857888 -0.11387023
000230 49 74 2e 3d 73 31 00 3d 35 32 e0 bd 77 d1 ba 3d
       0.042591367 0.03129716 -0.10947076 0.091219835
000240 67 61 e0 3d d0 d8 b6 bd ec c6 5a 3d 02 f3 e9 3d
       0.10956078 -0.089280725 0.053412363 0.11423303
000250 be 1b cf 3d 51 44 e3 bd 6f 78 a5 3d c6 b7 61 3d
       0.10112713 -0.11097015 0.080796115 0.0551069
000260 98 11 d2 bd 4e ab d5 bd 1c 35 f9 bc 09 e8 12 3d
       -0.10257262 -0.104330644 -0.030420832 0.035865817
000270 75 c8 36 3d b6 ae 76 3d 4a c2 fd 3d 23 b5 60 3d
       0.044624764 0.06022521 0.12390573 0.054860245
000280 33 65 d0 bb f2 22 3f bc 5f fe 19 3d aa 58 6c 3d
       -0.00635972 -0.011666046 0.037596103 0.057701744
000290 22 17 0f bd d2 07 be bc 78 63 0b bd 7a 72 bb 3d
       -0.03493417 -0.023197088 -0.034030408 0.09152694
0002a0 aa cf c3 bc a6 52 09 3d ca 4f d9 bd 27 8a c0 bc
       -0.023902733 0.033526085 -0.10610922 -0.023503376
0002b0 1c f6 36 3b e9 98 3a bd d3 39 db 3d 93 f4 b7 3d
       0.0027917689 -0.045555983 0.107043885 0.08982196
0002c0 4d e7 27 bd b5 10 a1 3c 00 62 10 bb 38 6f d8 3b
       -0.04099207 0.019661287 -0.0022031069 0.006605055
0002d0 95 65 54 bc 8d e9 98 3c 85 28 b3 3d 66 9d fc 3d
       -0.012963672 0.018666053 0.08747963 0.12334709
0002e0 26 a2 e8 bd 30 e6 15 3d e7 4d b6 3c 0c b8 f3 bd
       -0.11359052 0.036596477 0.022253944 -0.119003385
0002f0 70 a2 df 3c a5 61 b7 3d 40 b4 f0 3d ee c9 c0 bd
       0.027299136 0.08954171 0.1175313 -0.09413515
000300 9d e5 a8 3d 9b f9 c2 bd cc 08 39 bc a9 3b 1b 3d
       0.0824692 -0.09520265 -0.011293601 0.037898693
000310 b5 17 00 3d 76 e2 e3 bd e6 4e b7 bd 29 bc be bd
       0.03127261 -0.11127178 -0.089505956 -0.093132325
000320 9b 9c f6 bc 62 34 2f 3d f3 1c 23 3b 9a 9f c6 bd
       -0.030103972 0.042774566 0.0024889081 -0.0969841
000330 48 42 68 bc 1c 35 d0 3d 03 71 45 bc 4e 80 df 3d
       -0.014175959 0.1016638 -0.01205087 0.10913144
000340 b1 36 99 3d 31 4b c9 bd fc d5 eb bd b5 2f 8c 3c
       0.07481135 -0.09828795 -0.11515424 0.017112592
000350 0c 3c b7 bd 18 43 fe 3c e1 e1 d7 3d 63 77 1c bd
       -0.08947 0.031037852 0.1054113 -0.038199794
000360 38 6e e4 3c bf ff 83 3d b6 9f 40 3d a1 2b e4 bd
       0.027884588 0.06445264 0.047027312 -0.11141134
000370 da d4 b4 bd e8 28 2b 3d b8 45 c4 bc a5 49 ee bd
       -0.08829661 0.041787058 -0.023959026 -0.1163514
000380 48 d6 85 bc 8a 5c 82 bc 5a bc 91 3d 6b e6 05 bd
       -0.016337529 -0.015913267 0.07116003 -0.032690447
000390 a1 15 6c bd de 90 4a 3d 18 77 3d bd b2 ff 84 bd
       -0.057637814 0.049454562 -0.046256155 -0.064940825
0003a0 05 81 b9 3d a8 ae a4 bc 03 37 b9 3d b9 35 cd bd
       0.09057812 -0.020102814 0.09043696 -0.100200124
0003b0 08 eb d4 bd 20 84 e6 3a 64 cd 2c bd 3e 01 3f 3c
       -0.10396391 0.0017586984 -0.042188063 0.011658011
0003c0 36 d2 9b bc 17 97 8a 3b 02 ad de bd eb 5f bc bd
       -0.019021135 0.004229437 -0.10872842 -0.091979824
0003d0 d8 fd a6 bd 28 52 0a bd 9a c9 a9 3d b6 97 b0 bd
       -0.081538856 -0.033769757 0.082904056 -0.086226866
0003e0 16 23 15 3b 3a 67 fa bd 68 97 c6 bd a8 23 4b bc
       0.0022756509 -0.1222672 -0.09696847 -0.012398638
0003f0 c4 c5 a9 bd d6 43 e9 bb 9a 02 61 bc 1f b4 81 bd
       -0.08289674 -0.0071186824 -0.01373353 -0.063331835

fc3.bias f4 [6]
000000 64 2f 00 3e da a2 5b bd db 1a 10 bd 15 91 5f 3d
       0.12518078 -0.053622104 -0.03518186 0.05458172
000010 ab a8 e7 3d 84 71 d6 bd
       0.11311468 -0.1047087
