saved_models/dqn_best_model_episode_140.pt (torch, 87339 bytes, 24 tensors)

fc1.weight f4 [64, 4]
0	0x3e8b9c98	0.2726791
1	0x3db323c5	0.08747057
2	0xbe9ebca9	-0.3100331
3	0xbe6dff69	-0.23241962
4	0xbec3d683	-0.38249597
5	0x3e3efdb9	0.18651475
6	0xbe512d20	-0.2042737
7	0xbef1987a	-0.47186643
8	0x3ea7e243	0.32789811
9	0x3eb2dac2	0.34932524
10	0x3ea3cb01	0.31990817
11	0x3e80487a	0.25055295
12	0x3ea6b0ea	0.3255685
13	0xbec5afc1	-0.38610652
14	0x3c9ee3a3	0.019395655
15	0x3e2b5ca2	0.16734555
16	0xbcf74740	-0.030185342
17	0xbe90cefc	-0.28282917
18	0xbdba83b0	-0.09107149
19	0xbe903962	-0.2816878
20	0xbee6b88a	-0.45062667
21	0x3e19a3f8	0.15003955
22	0x3e94cb23	0.2906123
23	0x3ec3faaa	0.3827718
24	0xbe4b62bb	-0.19861881
25	0x3e8357d5	0.25652948
26	0xbea3fe0d	-0.32029763
27	0xbd0953c8	-0.033527166
28	0x3e89a150	0.26880884
29	0x3eae3d42	0.3403111
30	0xbe5b1f60	-0.21398687
31	0x3eb564f4	0.35428584
32	0x3eca3afe	0.39498132
33	0xbef47343	-0.47744188
34	0x3e9a42ef	0.3012919
35	0xbd18760d	-0.037221957
36	0x3e1ffdf6	0.15624222
37	0x3e94cfd6	0.29064816
38	0x3d1f839f	0.038943883
39	0xbde3490c	-0.11097917
40	0xbefc4706	-0.49272937
41	0xbe67704e	-0.22601435
42	0xbeb1ec47	-0.34750578
43	0x3e22b880	0.15890694
44	0xbe9c26fa	-0.30498487
45	0xbd75d6c0	-0.060019255
46	0xbe523460	-0.20527792
47	0xbd8bb748	-0.068220675
48	0x3d8fba57	0.070179634
49	0xbefc5a72	-0.49287754
50	0x3eca7c2f	0.3954787
51	0x3e1b3e36	0.1516045
52	0x3eca0056	0.3945338
53	0xbe53aaa7	-0.20670567
54	0xbdaa3f88	-0.08312899
55	0xbe7c0ea9	-0.24614967
56	0x3eba299e	0.36359876
57	0x3d9bfb4d	0.07616291
58	0xbe12269c	-0.14272541
59	0x3edd87e5	0.43267742
60	0xbee51c03	-0.44747934
61	0x3e55cb6e	0.20878384
62	0x3e1d5fcd	0.15368576
63	0xbdcdab0c	-0.1004239
64	0x3da74f9f	0.081694834
65	0x3e1367ec	0.14395112
66	0xbd6dadca	-0.058027066
67	0xbdbee00a	-0.09320076
68	0x3ea82b56	0.32845563
69	0xbe00b523	-0.12569098
70	0xbedd78ac	-0.43256128
71	0xbe11a310	-0.1422236
72	0xbe94ea91	-0.2908521
73	0x3ed2aa68	0.41145635
74	0xbdaf27c1	-0.08552504
75	0xbd6964d6	-0.05698093
76	0x3ee29a06	0.44258136
77	0xbebbcda1	-0.3668032
78	0x3eeea1e0	0.46607876
79	0xbd19101b	-0.037368875
80	0x3e00ea55	0.1258939
81	0xbe78516c	-0.2424981
82	0xbef53164	-0.47889245
83	0xbe916474	-0.28396952
84	0x3ea8b6d6	0.32951993
85	0x3e80debd	0.25169936
86	0xbedcacff	-0.43100736
87	0xbde86805	-0.11347965
88	0xbec93c29	-0.3930371
89	0x3e332bc4	0.17497164
90	0x3dc01d41	0.0938058
91	0xbdb20a0a	-0.08693321
92	0xbeafdfd3	-0.34350452
93	0x3e83742c	0.2567457
94	0xbe091523	-0.1338697
95	0xbe6b8dfc	-0.23003381
96	0x3ea1d060	0.3160429
97	0x3dd12670	0.102124095
98	0x3e0636a1	0.13106777
99	0x3eb4c666	0.35307616
100	0xbd55a75a	-0.052161552
101	0x3ef92a1d	0.48664942
102	0xbe3e2538	-0.18568885
103	0xbe920664	-0.285205
104	0x3e3ee0a2	0.18640378
105	0xbe87e571	-0.26542237
106	0x3db1b00b	0.08676156
107	0xbd50087e	-0.05078935
108	0xbc83805b	-0.016052416
109	0xbef764d0	-0.483191
110	0xbda932b1	-0.08261622
111	0x3e715f57	0.23571526
112	0x3e564715	0.20925553
113	0xbd6795ba	-0.056539275
114	0xbe514009	-0.20434584
115	0x3d95ea8b	0.07320126
116	0xbe113c1c	-0.14183086
117	0x3cbbe389	0.022935646
118	0xbe0d7fc0	-0.13818264
119	0xbea8e074	-0.32983744
120	0x3e8fc20f	0.28077742
121	0x3b946ebc	0.004529802
122	0x3efee188	0.49781442
123	0xbeeb5f91	-0.4597135
124	0xbebb499e	-0.36579603
125	0x3ec174ce	0.37784427
126	0x3e83fbfb	0.25778183
127	0xbd99ab32	-0.07503356
128	0xbe703ad6	-0.23459944
129	0xbcfbf35e	-0.030755695
130	0xbd1b939d	-0.037982572
131	0x3e1a5886	0.15072832
132	0xbd9f67c7	-0.07783466
133	0xbdf386c0	-0.11890936
134	0x3e0441f9	0.12915792
135	0x3d326ab0	0.043558776
136	0x3e4f78b2	0.20260885
137	0xbecd13da	-0.40054208
138	0xbe9999c5	-0.3000013
139	0xbe822e7c	-0.2542609
140	0xbefdd122	-0.49573618
141	0x3ec507d4	0.38482535
142	0x3d879611	0.0662042
143	0x3ee84813	0.45367488
144	0xbea2d006	-0.31799334
145	0xbdfb7310	-0.12277806
146	0x3e9ca936	0.30597848
147	0xbdf28748	-0.11842209
148	0x3e9d0e9b	0.30675206
149	0xbeaed659	-0.3414791
150	0xbed38d1f	-0.41318604
151	0x3de6e404	0.11273959
152	0x3efc673c	0.49297512
153	0xbecb54d1	-0.39713147
154	0xbec6ff17	-0.38866493
155	0xbea9b0c2	-0.33142668
156	0x3e922e84	0.28551114
157	0x3ec07194	0.37586653
158	0xbd3c0432	-0.04590244
159	0x3ed050a5	0.40686527
160	0x3dd2708b	0.10275372
161	0xbe9a0105	-0.30078903
162	0x3ec2ad68	0.38022923
163	0x3eabfcef	0.3359141
164	0x3cefc671	0.029269429
165	0xbe01da55	-0.12680943
166	0xbe3d98ce	-0.18515322
167	0x3ec7d162	0.39026934
168	0xbe63faa1	-0.22263576
169	0x3d071325	0.032977242
170	0xbe7b93a7	-0.24568044
171	0x3eebabcd	0.4602951
172	0xbe61f3bc	-0.22065634
173	0xbe195b2c	-0.14976186
174	0x3dc8bf90	0.09802163
175	0xbeb60ef4	-0.35558283
176	0x3d8f4685	0.069958724
177	0xbefd026c	-0.4941591
178	0xbe30b04b	-0.1725475
179	0xbed28764	-0.4111892
180	0xbe7a1ca8	-0.24424994
181	0x3ef09660	0.46989727
182	0xbe8b5ab7	-0.27217647
183	0xbe5fd3a9	-0.21858086
184	0x3eb85248	0.36000276
185	0x3e4c0c0c	0.1992647
186	0xbd45362f	-0.048147377
187	0x3c0bb50a	0.00852705
188	0x3ee5f5cd	0.44914094
189	0x3ec8718a	0.39149123
190	0x3ea1dd5f	0.31614205
191	0x3e9039b5	0.28169027
192	0x3e1b300b	0.15155046
193	0xbecf43fe	-0.4048156
194	0xbee8b42c	-0.4544996
195	0xbe655d09	-0.22398771
196	0xbe729fbe	-0.2369375
197	0xbd15c4ad	-0.036564518
198	0xbd86608f	-0.06561386
199	0x3e8cb662	0.27482897
200	0x3ea70268	0.32619023
201	0x3c691d16	0.014228126
202	0xbdd0c5fa	-0.10194011
203	0xbd3a3910	-0.045464575
204	0x3e29256f	0.16518186
205	0x3ea4aaf2	0.3216167
206	0xbec58f6a	-0.3858598
207	0x3ecf6a56	0.40510815
208	0x3e919215	0.28431764
209	0xbee716a6	-0.45134467
210	0xbed8e41a	-0.42361528
211	0xbee19faf	-0.4406714
212	0xbef711d6	-0.48255795
213	0xbe893c86	-0.26803988
214	0xbd30a700	-0.043128014
215	0xbe9eb4c8	-0.309973
216	0xbe12a5bc	-0.14321035
217	0xbc843673	-0.016139245
218	0x3eda31b5	0.42616048
219	0xbef44f18	-0.47716594
220	0x3ef7cdfa	0.48399335
221	0x3c2d1eaa	0.010566393
222	0x3ea3ae06	0.31968707
223	0xbeae0c42	-0.33993727
224	0xbebe3c3f	-0.3715534
225	0x3e62a895	0.22134621
226	0xbe1aa670	-0.15102553
227	0xbea1b466	-0.31582946
228	0x3e585e06	0.21129617
229	0xbefd46c1	-0.49468043
230	0x3d87ceec	0.06631264
231	0xbee96730	-0.45586538
232	0x3e19fd4e	0.15038034
233	0x3ed90c85	0.42392364
234	0x3de44604	0.11146167
235	0x3ecae1e5	0.3962547
236	0x3e14ee6e	0.14544079
237	0x3c9a5c1c	0.01884275
238	0x3da580d6	0.08081214
239	0x3eb10794	0.34576094
240	0x3ecf69ea	0.40510494
241	0x3da29783	0.07939055
242	0x3ed758c3	0.42059907
243	0x3e8012c7	0.25014326
244	0xbec030ec	-0.37537324
245	0xbe5c24dc	-0.21498436
246	0xbee373fa	-0.4442442
247	0x3bc359a2	0.005961613
248	0xbe313f20	-0.17309237
249	0xbe375edc	-0.1790728
250	0xbd4fef70	-0.050765455
251	0xbea5267e	-0.3225593
252	0xbe0805ea	-0.13283506
253	0x3e84a884	0.25909817
254	0xbd4665af	-0.048436817
255	0x3df543f7	0.11975854

fc1.bias f4 [64]
0	0x3d9c5579	0.0763349
1	0x3e293f2a	0.16528001
2	0xbeed50bc	-0.46350658
3	0x3ec14234	0.3774582
4	0x3e6b5b5c	0.2298407
5	0xbd2431c4	-0.040086523
6	0xbe516880	-0.2045002
7	0x3e5ce83b	0.21572964
8	0x3eb6c35c	0.35695922
9	0xbdf49628	-0.119427025
10	0xbedd563c	-0.43229854
11	0xbe9418f8	-0.289253
12	0xbeec7618	-0.46183848
13	0x3e06cb4e	0.13163492
14	0xbe488a8d	-0.19584103
15	0xbec8704f	-0.39148185
16	0x3e4a2eee	0.19744465
17	0xbe2870ac	-0.16449231
18	0x3de5e5f9	0.112255044
19	0x3eb73ee8	0.3579018
20	0x3c1b81ab	0.0094913645
21	0x3eefb3de	0.46816915
22	0xbe059b59	-0.13047542
23	0x3e1e4bc0	0.15458584
24	0xbed38df1	-0.4131923
25	0xbeaa6b23	-0.33284864
26	0x3e450cd9	0.19243182
27	0x3e9ebf95	0.3100554
28	0xbef209a1	-0.4727297
29	0x3ed0943b	0.4073809
30	0xbe47d6d5	-0.19515546
31	0x3eda6e26	0.42662162
32	0x3ec028a1	0.37530997
33	0x3d490f15	0.04908665
34	0xbed32df2	-0.4124599
35	0x3e107678	0.14107692
36	0xbea49350	-0.3214364
37	0x3e89ad86	0.268902
38	0xbed33355	-0.412501
39	0x3eb03b6b	0.34420332
40	0x3d47556b	0.048665445
41	0xbec7ccf6	-0.3902356
42	0x3efe5627	0.49675104
43	0x3ebc770a	0.3680957
44	0xbd7fb497	-0.062428083
45	0xbec4730b	-0.3836902
46	0x3e54fc30	0.20799327
47	0x3eb8aa26	0.36067313
48	0x3e22930a	0.15876403
49	0xbd134332	-0.035952754
50	0x3ed59710	0.41716814
51	0xbe527a78	-0.2055453
52	0x3ea0c3ac	0.31399286
53	0xbe40d014	-0.18829376
54	0x3ece15e7	0.40251085
55	0xbde65502	-0.11246683
56	0xbe91197d	-0.2833976
57	0x3d10fcb2	0.03539724
58	0xbe61d5c7	-0.22054206
59	0xbed85556	-0.42252606
60	0x3eab3249	0.33436802
61	0x3ea9afe6	0.33142012
62	0x3eecaac7	0.46224043
63	0xbeb5e236	-0.35524148

fc2.weight f4 [64, 64]
0	0xbd037690	-0.032095492
1	0x3c59b380	0.013287425
2	0xbd04983c	-0.032371745
3	0xbd577ef8	-0.05261132
4	0x3d1ae7f0	0.03781885
5	0xbd210914	-0.0393153
6	0x3c46d870	0.012136564
7	0xbd361e8c	-0.044462726
8	0xbd598fdc	-0.05311571
9	0xbdc402dc	-0.09570858
10	0xbcd42958	-0.02589862
11	0xbdaaa692	-0.08332552
12	0xbdc53926	-0.09630041
13	0x3d9a4a6a	0.075337246
14	0x3da57164	0.08078268
15	0x3d5960ac	0.05307071
16	0xbd9e494c	-0.07728824
17	0xbd2af8f0	-0.04174131
18	0xbcfca888	-0.03084208
19	0x3d84aaca	0.06477888
20	0x3d0b3cac	0.033993408
21	0xbdcbfe90	-0.09960663
22	0x3d2628f4	0.0405664
23	0x3cc9f2f0	0.024651974
24	0xbdaed41c	-0.085365504
25	0x3dd21f76	0.10259907
26	0x3c7b73a0	0.015347391
27	0x3c565390	0.013081446
28	0xbca01d40	-0.019545197
29	0x3dba4506	0.090951964
30	0xbda1b93a	-0.07896657
31	0xbc0c5d00	-0.008567095
32	0xbd7a0578	-0.06104037
33	0x3dc7d6ce	0.097577676
34	0xbda529c4	-0.08064607
35	0xbdb94800	-0.09046936
36	0x3bcac440	0.0061879456
37	0xbd12fde0	-0.035886645
38	0xb9d7d400	-0.00041165948
39	0xbd85dce8	-0.06536275
40	0x3c41f0f0	0.011837229
41	0xbce538f0	-0.027981251
42	0x3cce8418	0.025209472
43	0xbde52e40	-0.11190462
44	0xbb598280	-0.0033189356
45	0xbda9be32	-0.0828823
46	0xbdbc1052	-0.091828
47	0xbc6f0750	-0.014589146
48	0x3cad0188	0.021118894
49	0xbd9efcc2	-0.077630535
50	0xbc52e630	-0.012872264
51	0xbdf5e852	-0.12007202
52	0x3dde46ac	0.10853323
53	0xbd1f3618	-0.038869947
54	0xbd1451e0	-0.036210895
55	0x3d9f443e	0.07776688
56	0xbdd9eb7e	-0.1064062
57	0xbdf8a12c	-0.12140116
58	0xbccbb990	-0.024868757
59	0x3ce555f8	0.027995095
60	0x3da48344	0.080328494
61	0xbdc71f64	-0.09722784
62	0xbd852f4a	-0.0650316
63	0xbd7a6000	-0.06112671
64	0x3db7ceba	0.08974977
65	0xbdfa44f2	-0.122201815
66	0xbd9e2c8e	-0.07723342
67	0xbd233f6c	-0.039855406
68	0xbdc63c6c	-0.09679493
69	0x3d6608c8	0.05616072
70	0xbda2c19e	-0.07947086
71	0x3d848e6a	0.06472476
72	0x3d8be550	0.06830847
73	0x3db00fae	0.08596741
74	0x3c1154b0	0.008870289
75	0xbdd517ac	-0.10404906
76	0x3d2be180	0.0419631
77	0xbdd8d028	-0.10586578
78	0x3dcce8a2	0.10005309
79	0x3dd2b73c	0.102888554
80	0xbde0782a	-0.109604195
81	0xbd57fb9c	-0.052730188
82	0xbdac36c4	-0.08408883
83	0x3d47f040	0.048813105
84	0xbd1cdd50	-0.038296998
85	0x3d4ea9f0	0.050455034
86	0xbd2f701c	-0.042831525
87	0x3da77f56	0.08178584
88	0xbdda1794	-0.106490284
89	0xbdb1d83c	-0.086838216
90	0xbce04240	-0.02737534
91	0xbbf2afa0	-0.00740619
92	0x3c7548a0	0.014970928
93	0xbdb9ca8c	-0.09071836
94	0x3de5356e	0.111918315
95	0x3d9c00b2	0.0761732
96	0xbde13de4	-0.10998133
97	0x3b6658c0	0.0035148114
98	0x3cf8d910	0.030376941
99	0xbdac9e9e	-0.08428691
100	0xbdd414e0	-0.10355544
101	0xbcb824c0	-0.022478461
102	0xbcee1cf8	-0.029066548
103	0xbd245408	-0.0401192
104	0x3d195998	0.03743896
105	0xbd9e7c80	-0.0773859
106	0xbdb3bef2	-0.08776654
107	0xbc67c950	-0.014147118
108	0x3cf3b268	0.029748157
109	0xbda89122	-0.08230807
110	0xbd8e84c2	-0.06958915
111	0xbd9ed77e	-0.077559456
112	0xbd881fc8	-0.06646687
113	0x3df9ceda	0.12197657
114	0xbce68cf8	-0.028143391
115	0x3c9f8ad0	0.01947537
116	0x3c4db2d0	0.012554839
117	0x3da5ee88	0.08102137
118	0xbdaafa0a	-0.083484724
119	0xbd8b50b4	-0.06802502
120	0x3c8dc520	0.01730591
121	0x3dacbe72	0.08434762
122	0xbdfe074e	-0.12403737
123	0x394f0c00	0.00019745529
124	0xbd1d01ac	-0.038331673
125	0x3ce4bf10	0.027923137
126	0x3c9abe68	0.01888962
127	0x3d55b290	0.052172244
128	0x3df83c42	0.12120868
129	0x3d9443aa	0.072394684
130	0x3db371e2	0.08761956
131	0xbd16e3e3	-0.036838423
132	0x3c1ad130	0.009449288
133	0x3dda2a0e	0.106525525
134	0xbdb34426	-0.08753233
135	0xbc9c8a8c	-0.019109033
136	0x3cad8d1b	0.021185448
137	0x3cba1792	0.022716317
138	0x3cccedf1	0.025015803
139	0xbdd33568	-0.10312921
140	0xbde3d1e6	-0.11124019
141	0xbd8e2028	-0.06939727
142	0xbd96593c	-0.07341239
143	0xbc7bed5b	-0.015376414
144	0x3c6c2ef7	0.014415494
145	0xbd96e862	-0.07368542
146	0xbd98a10f	-0.074525945
147	0xbd41b286	-0.047289394
148	0xbc360cc0	-0.011111438
149	0xbdccb27f	-0.09994983
150	0x3c72ec01	0.0148267755
151	0xbc4510b2	-0.012027906
152	0x3daf16ed	0.085492946
153	0x3dfa914b	0.12234744
154	0xbdb47d98	-0.088130176
155	0x3d5c721f	0.05381977
156	0xbdfa726a	-0.12228854
157	0x3d46632b	0.048434418
158	0x3ce7859f	0.028261958
159	0x3cb3c430	0.021944135
160	0xbdb9afa2	-0.090667024
161	0xbc8b3095	-0.01699094
162	0x3d8a7de8	0.06762296
163	0xbd8333be	-0.064063534
164	0xbc5b3090	-0.013378277
165	0x3d683ac0	0.056696653
166	0x3dc06cb3	0.09395733
167	0x3bc1730f	0.0059036086
168	0x3ca8d88f	0.020611076
169	0x3dd7cf91	0.10537637
170	0x3cf8afc9	0.030357258
171	0xbd4ba7dd	-0.049720634
172	0x3dfe04b4	0.12403241
173	0xbbc50c15	-0.006013403
174	0x3dbacbea	0.09120925
175	0xbd013d9e	-0.031552903
176	0xbdd48cd0	-0.1037842
177	0x3db618ce	0.0889145
178	0x3cefbc99	0.029264735
179	0xbdc209e7	-0.09474545
180	0xbd85fc26	-0.06542234
181	0xbca24fe0	-0.019813478
182	0x3da738b4	0.08165112
183	0xbdc1729c	-0.09445688
184	0x3df14bc9	0.11782033
185	0x3d97fce4	0.07421282
186	0x3cd1f3a4	0.025628872
187	0xbdf889f2	-0.12135686
188	0xbccbe575	-0.024889687
189	0xbd77cc73	-0.060497712
190	0x3dd656e4	0.10465792
191	0xbc9aa5e8	-0.018877938
192	0xbd9e0483	-0.07715704
193	0x3db912ab	0.09036764
194	0xbddce9e8	-0.107868016
195	0x3d821a25	0.06352643
196	0x3d32cc3c	0.043651804
197	0x3db88c0a	0.09011085
198	0x3dc71f1f	0.09722733
199	0x3d527e6c	0.051390097
200	0xbbfcb707	-0.0077122482
201	0x3cb4dd3c	0.022078149
202	0x3ce79c26	0.0282727
203	0x3caa9708	0.02082397
204	0x3d163de1	0.036680106
205	0x3dc8d14d	0.09805546
206	0xbdb7ff30	-0.0898422
207	0x3bbd0413	0.005768308
208	0x3d728ebc	0.059218153
209	0xbdf32b21	-0.118734606
210	0xbdcfc4ad	-0.10144935
211	0x3cc6107c	0.024177782
212	0xbcfd5783	-0.030925518
213	0xbde5117f	-0.11184978
214	0x3db66dae	0.089076385
215	0x3c12396e	0.008924825
216	0x3c0f9dad	0.00876562
217	0x3dc60f36	0.0967087
218	0x3d6ff004	0.058578506
219	0x3da51139	0.080599256
220	0xbdf7d95f	-0.12102007
221	0x3d9622b8	0.07330841
222	0x3d6579c1	0.056024317
223	0xbce18d4f	-0.027533202
224	0xbd2b244b	-0.04178266
225	0xbdfcba11	-0.12340177
226	0xbd338a81	-0.04383326
227	0xbd510114	-0.05102642
228	0xbc8cef98	-0.017204091
229	0x3d109fed	0.035308767
230	0xbdfa6617	-0.12226503
231	0xbb33ee47	-0.0027455257
232	0xbd93b4a8	-0.07212192
233	0xbd74e482	-0.059788235
234	0x3d12de05	0.035856266
235	0xbde5b8b6	-0.112168714
236	0x3d44fc70	0.048092306
237	0xbde29cde	-0.11065076
238	0xbdf7b0bf	-0.120942585
239	0x3d90b069	0.070648976
240	0xbd208bbd	-0.039195765
241	0x3db202b2	0.0869192
242	0x3c93a9c7	0.018025292
243	0xbd9b47cb	-0.07582053
244	0x3cc2acf1	0.023764106
245	0x3df86696	0.12128942
246	0x3dcb4bd1	0.0992657
247	0x3daedc67	0.08538132
248	0x3bf11b68	0.0073580034
249	0xbd87807d	-0.06616304
250	0xbb36734b	-0.0027839716
251	0xbc409259	-0.011753642
252	0x3da02fb4	0.07821599
253	0x3c796d7c	0.015223857
254	0x3d988b13	0.07448401
255	0xbdf98737	-0.12183993

fc2.bias f4 [64]
0	0xbc772ba0	-0.015086085
1	0xbd5ba984	-0.05362846
2	0x3dde9620	0.10868478
3	0x3df3f73e	0.11912392
4	0x3bc41e34	0.005985046
5	0x3c8b4484	0.017000444
6	0x3de268ae	0.11055122
7	0xbb5329c1	-0.0032220932
8	0xbca3c410	-0.01999095
9	0x3de00a2b	0.109394394
10	0xbde3a0f9	-0.111146875
11	0xbd5a60fd	-0.05331515
12	0x3d73ff57	0.059569683
13	0x3c05e4d5	0.008172234
14	0x3deb485a	0.11488409
15	0x3d8c241a	0.06842823
16	0x3c9e916d	0.019356454
17	0x3dc901f1	0.098148234
18	0xbca161f8	-0.019700035
19	0x3c3f5569	0.011678078
20	0x3dc81de6	0.09771328
21	0xbd2b338d	-0.04179721
22	0x3d83c464	0.06433943
23	0x3decd504	0.11564067
24	0x3d8566f8	0.0651378
25	0xbdb027d8	-0.086013496
26	0x3c8ea3a0	0.017412007
27	0xbd9edfd7	-0.07757538
28	0x3d0ebe98	0.034849733
29	0xbd63d197	-0.055619802
30	0x3bc33194	0.005956838
31	0xbd336764	-0.043799773
32	0xbdd7a141	-0.105288036
33	0x3d9cb4fc	0.076517075
34	0xbd940ca6	-0.07228975
35	0x3bcee576	0.006313975
36	0x3d965a13	0.07341399
37	0x3da87b25	0.08226613
38	0x3c84ca4c	0.016209744
39	0x3d4ff71b	0.050772768
40	0xbdb28769	-0.08717234
41	0x3d6d8ddc	0.057996616
42	0xbbcc1060	-0.006227538
43	0xbd99d250	-0.07510817
44	0xbd0fd01c	-0.035110578
45	0xbdb4f9b5	-0.0883669
46	0x3c8e6ca6	0.017385792
47	0x3d13edde	0.03611552
48	0x3bcc6109	0.0062371534
49	0xbcb5dca0	-0.022199929
50	0x3ded388b	0.1158305
51	0xbdeb3e62	-0.11486508
52	0xbd33f5d6	-0.04393562
53	0x3d6aad0f	0.057293948
54	0x3d34d95c	0.044152603
55	0x3cb93e4e	0.022612717
56	0xbdf27486	-0.11838631
57	0xbd088767	-0.033332255
58	0xbcecee80	-0.02892232
59	0xbcd44b30	-0.025914758
60	0xbde7abbc	-0.113120526
61	0x3d786876	0.060646497
62	0x3dfc7456	0.12326877
63	0x3cc9c360	0.024629295

fc3.weight f4 [6, 64]
0	0xbd9a3d9e	-0.07531284
1	0x3c558680	0.013032556
2	0xbd4a70e3	-0.049424063
3	0x3d8e7852	0.06956543
4	0x3d7d4b02	0.06183911
5	0x3cb12b6f	0.021627156
6	0xbd53582a	-0.05159775
7	0x3dcc8646	0.09986548
8	0x3dbb532c	0.09146723
9	0x3cf44445	0.02981771
10	0x3dba301f	0.090912096
11	0x3d9621af	0.073306434
12	0x3dee38b6	0.116319105
13	0xbdbe2e25	-0.09286145
14	0xbdf7cf07	-0.12100034
15	0xbd2777fd	-0.040885914
16	0x3d017cb5	0.03161307
17	0x3d2dd669	0.042440806
18	0x3d08c65c	0.033392295
19	0xbd80d4b8	-0.06290573
20	0xbcc9ff46	-0.024657857
21	0x3da78e20	0.08181405
22	0xbd4b22ad	-0.049593616
23	0x3dda9a4c	0.10673961
24	0xbd4e9973	-0.05043931
25	0x3dc4dcec	0.0961245
26	0x3c8dbde8	0.017302468
27	0xbc85feb2	-0.0163568
28	0x3d8f9a41	0.070118435
29	0x3cbd641e	0.023119029
30	0xbd92aab6	-0.07161467
31	0xbdf4dd76	-0.11956303
32	0xbd952530	-0.072824836
33	0x3dbe7528	0.092996895
34	0xbd4a0674	-0.04932256
35	0x3bc902f7	0.0061343866
36	0xbdda3c6c	-0.10656056
37	0xbc18cd65	-0.009326314
38	0x3dab9a9c	0.08379099
39	0x3de5f5f1	0.1122855
40	0x3c83fc98	0.016111657
41	0xbd8a638e	-0.0675727
42	0xbca37b98	-0.019956395
43	0x3d49b584	0.049245372
44	0xbd1da7f7	-0.038490262
45	0x3df10483	0.11768439
46	0x3d783115	0.060593683
47	0x3dece86a	0.11567767
48	0x3cf04623	0.029330319
49	0xbd78cda0	-0.060742974
50	0xbd9013be	-0.070350155
51	0xbd9e0674	-0.077160746
52	0x3bcc99b2	0.006243908
53	0xbbaad715	-0.005213628
54	0xbde53bea	-0.11193068
55	0xbd2593e9	-0.04042426
56	0x3dc382a5	0.09546403
57	0x3d77a2af	0.06045788
58	0x3deebdc7	0.11657291
59	0x3cccf2c8	0.02501811
60	0xbc8cf098	-0.017204568
61	0xbc11752c	-0.008878034
62	0xba88c03c	-0.0010433267
63	0xbdda6fcc	-0.10665855
64	0x3d187478	0.03722045
65	0x3cdcd178	0.026955351
66	0x3bad9737	0.005297567
67	0xbc8e3bfb	-0.017362585
68	0xbd0d2c49	-0.03446606
69	0x3d01d058	0.031692833
70	0x3d7a927a	0.061174847
71	0x3d8da82a	0.069168404
72	0xbda87ad2	-0.08226551
73	0xbdbcedd3	-0.09225049
74	0x3d964f6b	0.073393665
75	0xbdaabd62	-0.08336903
76	0xbca54e81	-0.020179035
77	0xbd83ba99	-0.06432075
78	0x3d3a350a	0.04546074
79	0xbdb101ea	-0.08642943
80	0x3d43bade	0.047785632
81	0x3d8a109c	0.06741449
82	0x3d731b58	0.05935225
83	0xbddf5962	-0.1090572
84	0xbdcf0868	-0.10109025
85	0xbd39ffa8	-0.04540983
86	0xbda0d380	-0.078528404
87	0xbd9d1738	-0.07670444
88	0xbda09762	-0.07841374
89	0xbd0585b3	-0.03259821
90	0xbd748920	-0.059701085
91	0x3d48c9f2	0.049020715
92	0x3a951706	0.0011374659
93	0x3dc5a47d	0.09650514
94	0xbd3ddaa2	-0.046351083
95	0xbd47fe2c	-0.04882638
96	0x3db5e3c5	0.08881334
97	0x3dcb73a2	0.099341646
98	0xbdc5de44	-0.096615344
99	0x3da5b0ea	0.08090384
100	0x3d9e2827	0.07722502
101	0x3df4f754	0.119612366
102	0xbcbe80f9	-0.023254858
103	0x3d704910	0.058663428
104	0x3de8e3b3	0.11371555
105	0xbdc73258	-0.09726399
106	0xbd126aec	-0.0357465
107	0x3da79e44	0.08184484
108	0xbd90c2d0	-0.070684075
109	0xbbfebe79	-0.007774171
110	0x3d3cdb15	0.04610737
111	0x3de5c715	0.112196125
112	0x3d904234	0.07043877
113	0x3d23733c	0.039904818
114	0x3bc39885	0.0059691095
115	0x3d9c9184	0.076449424
116	0x3dd640d7	0.10461586
117	0x3be10482	0.0068669925
118	0x3d7a1fc2	0.061065443
119	0x3df8ab30	0.121420264
120	0x3c1542b9	0.009110146
121	0x3c6fd86b	0.014639
122	0xbcdfbae9	-0.027310805
123	0xbc95d038	-0.018287763
124	0xbd78fec8	-0.060789853
125	0x3d189953	0.037255596
126	0xbcc71388	-0.024301305
127	0xbda86126	-0.082216546
128	0xbdac52ce	-0.08414231
129	0xbdbc9e54	-0.09209886
130	0xbd88e8d5	-0.06685034
131	0xbdf3fca8	-0.11913425
132	0x3d620900	0.055184364
133	0xbde00882	-0.10939123
134	0x3cb3766e	0.021907058
135	0x3d91fe84	0.07128623
136	0x3d52e0e2	0.051483996
137	0x3dcb65ce	0.09931527
138	0x3df1de31	0.11809958
139	0x3d2237e5	0.039604086
140	0x3d992559	0.074778266
141	0x3cacbbc7	0.021085633
142	0x3ae59e53	0.0017518498
143	0x3cef4c2e	0.02921113
144	0x3cdc0248	0.026856557
145	0xbdd88942	-0.10573055
146	0x3c003840	0.007825911
147	0x3d22d2d4	0.039751843
148	0xbd50ff98	-0.051025003
149	0xbd5fd650	-0.054647744
150	0x3dcc268e	0.09968291
151	0xbd344f7c	-0.044021115
152	0xbda4e203	-0.08050921
153	0x3d6263a1	0.055270795
154	0xbd09e0b0	-0.033661544
155	0x3d96da38	0.07365841
156	0x3caeb9af	0.021328775
157	0xbd91fb44	-0.07128003
158	0x3d62c929	0.055367623
159	0x3dd3fce2	0.10350968
160	0x3dcc4ae9	0.099752255
161	0xbda38be5	-0.07985667
162	0xbca0f858	-0.01964967
163	0x3da711b7	0.08157676
164	0xbd821a09	-0.06352622
165	0x3d5ac313	0.053408694
166	0x3da4c9d0	0.08046305
167	0xbd559281	-0.05214167
168	0xbd062a5c	-0.03275524
169	0xbdc46208	-0.095890105
170	0x3d40e8b0	0.047096908
171	0x3de915b6	0.11381094
172	0x3c896052	0.016769562
173	0xbd5e21c6	-0.054231428
174	0xbd863aaf	-0.06554162
175	0x3db889c3	0.09010651
176	0x3dba1ebe	0.09087895
177	0xbdaaf9b0	-0.08348405
178	0x3d01c10c	0.031678244
179	0xbc167db0	-0.00918524
180	0x3ddfd8c7	0.10930019
181	0x3d1f8483	0.038944732
182	0xbb95800a	-0.0045623826
183	0xbd8df698	-0.069318
184	0x3dc29951	0.09501899
185	0xbddf30aa	-0.10897954
186	0x3c0142ac	0.007889431
187	0x3d13627c	0.035982594
188	0xbdc62582	-0.09675123
189	0xbd1bd2cc	-0.03804283
190	0x3cb6db15	0.022321263
191	0xbdd35ab8	-0.103200376
192	0x3df5e224	0.120060235
193	0x3d0f18f8	0.03493592
194	0x3d2c6fd6	0.042098843
195	0xbdf90529	-0.12159187
196	0xbd5ab31a	-0.05339346
197	0x3c38db90	0.0112828165
198	0x3dc3883e	0.095474705
199	0xbd088dbc	-0.033338293
200	0xbde2f379	-0.11081595
201	0xbcec13a2	-0.028817955
202	0xbd869256	-0.0657088
203	0xbde5fb4e	-0.11229573
204	0xbd6651c2	-0.056230314
205	0xbd6074ac	-0.054798767
206	0x3dede947	0.1161676
207	0x3cf4482c	0.02981957
208	0xbdf8fe9f	-0.1215794
209	0xbd4dfef2	-0.050291963
210	0x3dab151c	0.08353636
211	0x3d176de0	0.03697002
212	0xbdbab4a4	-0.09116486
213	0xbd93243a	-0.07184644
214	0xbdbaa6ee	-0.091138706
215	0xbbc4c160	-0.0060044974
216	0x3dea2ab6	0.11433928
217	0x3bf75b30	0.007548712
218	0x3debfbda	0.11522646
219	0x3d061bab	0.03274123
220	0x3d6a099d	0.057138074
221	0xbda1543d	-0.07877395
222	0x3c5107bc	0.012758192
223	0x3d277b54	0.0408891
224	0x3dc85ca7	0.09783297
225	0x3df6828b	0.12036618
226	0x3df45028	0.11929351
227	0x3db94f58	0.09048337
228	0x3d985091	0.07437242
229	0xbcaba748	-0.02095379
230	0xbdb349d5	-0.08754317
231	0x3cd3814c	0.02581849
232	0x3d1344cf	0.035954293
233	0x3c7e7e70	0.015533075
234	0x3df5fc1a	0.12010975
235	0x3d92a256	0.071598694
236	0xbde72693	-0.11286654
237	0xbd86abc3	-0.0657573
238	0xbc82c98c	-0.015965246
239	0x3da9f019	0.08297748
240	0x3dc40ab8	0.09572357
241	0x3dc08b3e	0.09401558
242	0x3bc8bff4	0.006126398
243	0xbd08da94	-0.033411577
244	0x3dd2bf13	0.10290351
245	0xbd779d07	-0.060452487
246	0x3dde3e56	0.108517334
247	0x3d995e39	0.07488675
248	0x3b3e1b82	0.0029008095
249	0x3d11bb15	0.035578806
250	0x3c146de8	0.009059407
251	0x3b27fcc0	0.0025632828
252	0xbc43c760	-0.01194939
253	0xbd083288	-0.033251315
254	0xbc893aae	-0.016751613
255	0xbdf437a2	-0.119246736

fc3.bias f4 [6]
0	0x3d5a5bbb	0.053310137
1	0xbd1581ef	-0.036500867
2	0xbc7edcb6	-0.015555551
3	0xbdf57c54	-0.11986604
4	0x3d0e3a3c	0.034723505
5	0xbd9289bd	-0.07155178

fc1.weight f4 [64, 4]
0	0x3e8c320a	0.27381927
1	0x3db551e0	0.08853507
2	0xbe9e443e	-0.3091144
3	0xbe6e5818	-0.23275793
4	0xbec3f372	-0.38271672
5	0x3e3ec49c	0.18629688
6	0xbe512d20	-0.2042737
7	0xbef1987a	-0.47186643
8	0x3ea7de14	0.3278662
9	0x3eb2f620	0.34953403
10	0x3ea3b0f4	0.31970942
11	0x3e805e52	0.2507196
12	0x3ea63a08	0.3246615
13	0xbec62f10	-0.3870778
14	0x3c995fe0	0.018722475
15	0x3e2b7fac	0.16747922
16	0xbcf74740	-0.030185342
17	0xbe90cefc	-0.28282917
18	0xbdba83b0	-0.09107149
19	0xbe903962	-0.2816878
20	0xbee6e640	-0.45097542
21	0x3e19316c	0.14960259
22	0x3e94ab56	0.2903697
23	0x3ec3aa72	0.38215977
24	0xbe4bf6d8	-0.19918382
25	0x3e83109c	0.2559861
26	0xbea42020	-0.3205576
27	0xbd093bf0	-0.033504426
28	0x3e890c1e	0.26767057
29	0x3eada800	0.33917236
30	0xbe5c2088	-0.21496785
31	0x3eb5360e	0.35392803
32	0x3ecabdb6	0.39597863
33	0xbef3f71a	-0.4764946
34	0x3e9ac18a	0.30225784
35	0xbd15f540	-0.03661084
36	0x3e1ea348	0.15491974
37	0x3e942570	0.28934813
38	0x3d1a3790	0.037650645
39	0xbde4d930	-0.11174238
40	0xbefc4706	-0.49272937
41	0xbe674d28	-0.22588027
42	0xbeb1d034	-0.3472916
43	0x3e22ec84	0.15910536
44	0xbe9c26fa	-0.30498487
45	0xbd75d6c0	-0.060019255
46	0xbe523460	-0.20527792
47	0xbd8bb748	-0.068220675
48	0x3d911978	0.07084936
49	0xbefc1326	-0.4923336
50	0x3ecad69c	0.3961686
51	0x3e1be0fc	0.15222543
52	0x3ecaa1ce	0.39576572
53	0xbe5270ec	-0.20550889
54	0xbda7d320	-0.08194566
55	0xbe7b66fc	-0.24551004
56	0x3ebaac8c	0.36459768
57	0x3d9e2658	0.07722157
58	0xbe113ae0	-0.14182615
59	0x3eddb856	0.433047
60	0xbee535ee	-0.44767708
61	0x3e558ccc	0.20854491
62	0x3e1d2a44	0.15348154
63	0xbdce12b8	-0.10062164
64	0x3da95778	0.082686365
65	0x3e145cb8	0.14488494
66	0xbd6a1d20	-0.057156682
67	0xbdbf3dc8	-0.09337956
68	0x3ea793bc	0.327299
69	0xbe01dec8	-0.1268264
70	0xbeddee26	-0.43345755
71	0xbe122774	-0.14272863
72	0xbe9570d4	-0.29187644
73	0x3ed22c16	0.4104926
74	0xbdb12df8	-0.08651346
75	0xbd6ad710	-0.057334006
76	0x3ee21208	0.44154382
77	0xbebc5894	-0.3678633
78	0x3eee33d4	0.46523917
79	0xbd1a8800	-0.037727356
80	0x3e01e724	0.1268583
81	0xbe777198	-0.24164426
82	0xbef4d846	-0.47821254
83	0xbe914ca8	-0.28378797
84	0x3ea808bc	0.32819164
85	0x3e8034c2	0.2504025
86	0xbedd56ae	-0.43230194
87	0xbdea4778	-0.11439413
88	0xbec93244	-0.39296162
89	0x3e333750	0.17501569
90	0x3dc049e8	0.093890965
91	0xbdb1def0	-0.086851
92	0xbeb0340c	-0.3441471
93	0x3e832262	0.2561217
94	0xbe0989f8	-0.13431537
95	0xbe6b9d10	-0.23009133
96	0x3ea1284c	0.31476057
97	0x3dce9168	0.10086328
98	0x3e04f0b8	0.12982452
99	0x3eb45c14	0.352265
100	0xbd5aa230	-0.05337733
101	0x3ef88c4e	0.48544544
102	0xbe3f25e8	-0.18666804
103	0xbe923398	-0.28554988
104	0x3e3dd8e0	0.18539762
105	0xbe885f72	-0.2663532
106	0x3dafd280	0.085850716
107	0xbd51d800	-0.051231384
108	0xbc838d40	-0.016058564
109	0xbef7831a	-0.4834221
110	0xbda8e1f0	-0.08246219
111	0x3e716600	0.23574066
112	0x3e578f44	0.21050745
113	0xbd628670	-0.05530399
114	0xbe502594	-0.20326835
115	0x3d975fb8	0.07391304
116	0xbe113c1c	-0.14183086
117	0x3cbcd040	0.02304852
118	0xbe0d7fc0	-0.13818264
119	0xbea8e074	-0.32983744
120	0x3e9064c0	0.28201866
121	0x3bbc2780	0.0057420135
122	0x3eff7c92	0.49899727
123	0xbeeb5856	-0.45965832
124	0xbebaa564	-0.36454308
125	0x3ec21810	0.37908983
126	0x3e849dc2	0.2590161
127	0xbd988ef8	-0.07449144
128	0xbe6fbddc	-0.2341227
129	0xbcf836c0	-0.030299544
130	0xbd1a4fd0	-0.03767377
131	0x3e1ad53c	0.15120405
132	0xbda01218	-0.07815951
133	0xbdf3b9c8	-0.11900669
134	0x3e03fa4c	0.1288845
135	0x3d309b30	0.04311675
136	0x3e4f070c	0.20217532
137	0xbecd33b6	-0.40078515
138	0xbe99da22	-0.30049235
139	0xbe8228ae	-0.2542166
140	0xbefe5ec2	-0.4968167
141	0x3ec479f4	0.38374293
142	0x3d85eac8	0.065389216
143	0x3ee81e9c	0.45335853
144	0xbea2d006	-0.31799334
145	0xbdfb7310	-0.12277806
146	0x3e9ca936	0.30597848
147	0xbdf28748	-0.11842209
148	0x3e9d78e0	0.30756283
149	0xbeae7bb2	-0.34078747
150	0xbed3321e	-0.41249174
151	0x3de7de50	0.113216996
152	0x3efd03d4	0.49416983
153	0xbecabeca	-0.39598686
154	0xbec678a4	-0.38763916
155	0xbea9889a	-0.3311203
156	0x3e921c42	0.28537184
157	0x3ec0793c	0.37592494
158	0xbd3cd420	-0.046100736
159	0x3ed0643c	0.40701473
160	0x3dd39d40	0.103327274
161	0xbe99d626	-0.30046195
162	0x3ec2e202	0.38063055
163	0x3eac119c	0.33607185
164	0x3cf2c0a0	0.029632866
165	0xbe017ebc	-0.12646002
166	0xbe3da608	-0.18520367
167	0x3ec7d160	0.39026928
168	0xbe63eecc	-0.22259063
169	0x3d0729e0	0.03299892
170	0xbe7b7ce0	-0.24559355
171	0x3eebcff0	0.4605708
172	0xbe61f3bc	-0.22065634
173	0xbe19789c	-0.14987415
174	0x3dc8bf90	0.09802163
175	0xbeb60ef4	-0.35558283
176	0x3d8f6b58	0.07002896
177	0xbefce5e8	-0.49394155
178	0xbe30a0e4	-0.17248875
179	0xbed28764	-0.4111892
180	0xbe78c9f4	-0.24295789
181	0x3ef13e1e	0.47117704
182	0xbe8ab7be	-0.2709331
183	0xbe5f7478	-0.21821773
184	0x3eb86f30	0.3602233
185	0x3e4c4074	0.19946462
186	0xbd44fb50	-0.048091233
187	0x3c006080	0.007835507
188	0x3ee54ae6	0.44783705
189	0x3ec7c76e	0.3901934
190	0x3ea13b5a	0.31490594
191	0x3e8ffc78	0.28122306
192	0x3e1bc2d0	0.15211034
193	0xbecf1230	-0.40443563
194	0xbee8784a	-0.45404273
195	0xbe6546e8	-0.2239033
196	0xbe72e71c	-0.23720974
197	0xbd165520	-0.036702275
198	0xbd86c558	-0.06580609
199	0x3e8c896e	0.274486
200	0x3ea78eec	0.32726228
201	0x3c7b4a80	0.015337586
202	0xbdcec6c0	-0.10096502
203	0xbd3754b0	-0.0447585
204	0x3e2a72e8	0.16645396
205	0x3ea54e56	0.32286328
206	0xbec4ee7a	-0.38463193
207	0x3ecfc2d6	0.40578336
208	0x3e911486	0.2833597
209	0xbee77614	-0.45207274
210	0xbed94646	-0.42436427
211	0xbee1ca66	-0.4409973
212	0xbef711d6	-0.48255795
213	0xbe893c86	-0.26803988
214	0xbd30a700	-0.043128014
215	0xbe9eb4c8	-0.309973
216	0xbe1223ac	-0.1427142
217	0xbc82e2c0	-0.015977263
218	0x3eda7256	0.42665356
219	0xbef42a82	-0.4768868
220	0x3ef84d36	0.48496407
221	0x3c3aeec0	0.0114094615
222	0x3ea411c8	0.32044816
223	0xbeadfa78	-0.33980155
224	0xbebe1ff8	-0.37133765
225	0x3e62e214	0.22156554
226	0xbe1ab4b8	-0.15108001
227	0xbea1aa20	-0.31575108
228	0x3e57e774	0.21084386
229	0xbefd74fe	-0.4950332
230	0x3d875588	0.06608111
231	0xbee97760	-0.45598888
232	0x3e18eed8	0.14934862
233	0x3ed88094	0.42285597
234	0x3de28b38	0.1106171
235	0x3eca7848	0.39544892
236	0x3e13a7e8	0.1441952
237	0x3c906ca0	0.017629921
238	0x3da34068	0.07971269
239	0x3eb0a602	0.34501654
240	0x3ecebd14	0.4037863
241	0x3d9fed98	0.07808989
242	0x3ed6b0bc	0.41931713
243	0x3e7f36c4	0.24923235
244	0xbec030ec	-0.37537324
245	0xbe5c24dc	-0.21498436
246	0xbee373fa	-0.4442442
247	0x3bc8fc00	0.0061335564
248	0xbe313f20	-0.17309237
249	0xbe377db4	-0.17919046
250	0xbd4fef70	-0.050765455
251	0xbea5267e	-0.3225593
252	0xbe06dc6c	-0.13170022
253	0x3e8536c6	0.2601835
254	0xbd41c7b0	-0.047309577
255	0x3df590b8	0.119904935

fc1.bias f4 [64]
0	0x3d9e88b0	0.07740915
1	0x3e290bec	0.16508454
2	0xbeed383e	-0.46331972
3	0x3ec0cd6c	0.37656724
4	0x3e6b5b5c	0.2298407
5	0xbd26a910	-0.040688574
6	0xbe51ec60	-0.20500326
7	0x3e5bafcc	0.2145378
8	0x3eb74a48	0.3579886
9	0xbdf74e88	-0.120755255
10	0xbedd3c3c	-0.43210018
11	0xbe9418f8	-0.289253
12	0xbeec170c	-0.46111333
13	0x3e080e5c	0.13286728
14	0xbe476dd4	-0.1947549
15	0xbec88ca6	-0.39169806
16	0x3e4b2230	0.1983726
17	0xbe29a4e8	-0.16566813
18	0x3de3e580	0.11127758
19	0x3eb6abc6	0.35677928
20	0x3c2aeec0	0.010432899
21	0x3eef044c	0.46682966
22	0xbe05971c	-0.13045925
23	0x3e1db074	0.15399343
24	0xbed43848	-0.4144919
25	0xbeab0b60	-0.33407116
26	0x3e43fee4	0.19140202
27	0x3e9ec15a	0.3100689
28	0xbef162ae	-0.471456
29	0x3ed0a304	0.4074937
30	0xbe4692a0	-0.1939187
31	0x3edb12c4	0.42787755
32	0x3ec06504	0.3757707
33	0x3d475780	0.04866743
34	0xbed363ec	-0.41287172
35	0x3e0f5a20	0.13999224
36	0xbea49350	-0.3214364
37	0x3e8a23a6	0.26980323
38	0xbed2981a	-0.4113167
39	0x3eb041e8	0.34425282
40	0x3d49a250	0.04922706
41	0xbec7b2ae	-0.3900351
42	0x3efe62ae	0.49684662
43	0x3ebc6854	0.36798346
44	0xbd7f6c20	-0.062358975
45	0xbec3ca54	-0.38240302
46	0x3e54f274	0.20795614
47	0x3eb7fbea	0.35934383
48	0x3e2320ac	0.15930432
49	0xbd14a680	-0.0362916
50	0x3ed62ce4	0.41831124
51	0xbe512af8	-0.20426548
52	0x3ea0445e	0.3130216
53	0xbe40d014	-0.18829376
54	0x3ece4bc2	0.40292174
55	0xbde482d0	-0.11157763
56	0xbe90fba0	-0.28316975
57	0x3d0f1300	0.03493023
58	0xbe630008	-0.2216798
59	0xbed8f94e	-0.42377704
60	0x3eaa83fa	0.33303815
61	0x3ea9c668	0.33159184
62	0x3eec9b5e	0.46212286
63	0xbeb54e96	-0.3541152

fc2.weight f4 [64, 64]
0	0xbd037690	-0.032095492
1	0x3c59b380	0.013287425
2	0xbd04983c	-0.032371745
3	0xbd577ef8	-0.05261132
4	0x3d1ae7f0	0.03781885
5	0xbd210914	-0.0393153
6	0x3c46d870	0.012136564
7	0xbd361e8c	-0.044462726
8	0xbd598fdc	-0.05311571
9	0xbdc402dc	-0.09570858
10	0xbcd42958	-0.02589862
11	0xbdaaa692	-0.08332552
12	0xbdc53926	-0.09630041
13	0x3d9a4a6a	0.075337246
14	0x3da57164	0.08078268
15	0x3d5960ac	0.05307071
16	0xbd9e494c	-0.07728824
17	0xbd2af8f0	-0.04174131
18	0xbcfca888	-0.03084208
19	0x3d84aaca	0.06477888
20	0x3d0b3cac	0.033993408
21	0xbdcbfe90	-0.09960663
22	0x3d2628f4	0.0405664
23	0x3cc9f2f0	0.024651974
24	0xbdaed41c	-0.085365504
25	0x3dd21f76	0.10259907
26	0x3c7b73a0	0.015347391
27	0x3c565390	0.013081446
28	0xbca01d40	-0.019545197
29	0x3dba4506	0.090951964
30	0xbda1b93a	-0.07896657
31	0xbc0c5d00	-0.008567095
32	0xbd7a0578	-0.06104037
33	0x3dc7d6ce	0.097577676
34	0xbda529c4	-0.08064607
35	0xbdb94800	-0.09046936
36	0x3bcac440	0.0061879456
37	0xbd12fde0	-0.035886645
38	0xb9d7d400	-0.00041165948
39	0xbd85dce8	-0.06536275
40	0x3c41f0f0	0.011837229
41	0xbce538f0	-0.027981251
42	0x3cce8418	0.025209472
43	0xbde52e40	-0.11190462
44	0xbb598280	-0.0033189356
45	0xbda9be32	-0.0828823
46	0xbdbc1052	-0.091828
47	0xbc6f0750	-0.014589146
48	0x3cad0188	0.021118894
49	0xbd9efcc2	-0.077630535
50	0xbc52e630	-0.012872264
51	0xbdf5e852	-0.12007202
52	0x3dde46ac	0.10853323
53	0xbd1f3618	-0.038869947
54	0xbd1451e0	-0.036210895
55	0x3d9f443e	0.07776688
56	0xbdd9eb7e	-0.1064062
57	0xbdf8a12c	-0.12140116
58	0xbccbb990	-0.024868757
59	0x3ce555f8	0.027995095
60	0x3da48344	0.080328494
61	0xbdc71f64	-0.09722784
62	0xbd852f4a	-0.0650316
63	0xbd7a6000	-0.06112671
64	0x3db7ceba	0.08974977
65	0xbdfa44f2	-0.122201815
66	0xbd9e2c8e	-0.07723342
67	0xbd233f6c	-0.039855406
68	0xbdc63c6c	-0.09679493
69	0x3d6608c8	0.05616072
70	0xbda2c19e	-0.07947086
71	0x3d848e6a	0.06472476
72	0x3d8be550	0.06830847
73	0x3db00fae	0.08596741
74	0x3c1154b0	0.008870289
75	0xbdd517ac	-0.10404906
76	0x3d2be180	0.0419631
77	0xbdd8d028	-0.10586578
78	0x3dcce8a2	0.10005309
79	0x3dd2b73c	0.102888554
80	0xbde0782a	-0.109604195
81	0xbd57fb9c	-0.052730188
82	0xbdac36c4	-0.08408883
83	0x3d47f040	0.048813105
84	0xbd1cdd50	-0.038296998
85	0x3d4ea9f0	0.050455034
86	0xbd2f701c	-0.042831525
87	0x3da77f56	0.08178584
88	0xbdda1794	-0.106490284
89	0xbdb1d83c	-0.086838216
90	0xbce04240	-0.02737534
91	0xbbf2afa0	-0.00740619
92	0x3c7548a0	0.014970928
93	0xbdb9ca8c	-0.09071836
94	0x3de5356e	0.111918315
95	0x3d9c00b2	0.0761732
96	0xbde13de4	-0.10998133
97	0x3b6658c0	0.0035148114
98	0x3cf8d910	0.030376941
99	0xbdac9e9e	-0.08428691
100	0xbdd414e0	-0.10355544
101	0xbcb824c0	-0.022478461
102	0xbcee1cf8	-0.029066548
103	0xbd245408	-0.0401192
104	0x3d195998	0.03743896
105	0xbd9e7c80	-0.0773859
106	0xbdb3bef2	-0.08776654
107	0xbc67c950	-0.014147118
108	0x3cf3b268	0.029748157
109	0xbda89122	-0.08230807
110	0xbd8e84c2	-0.06958915
111	0xbd9ed77e	-0.077559456
112	0xbd881fc8	-0.06646687
113	0x3df9ceda	0.12197657
114	0xbce68cf8	-0.028143391
115	0x3c9f8ad0	0.01947537
116	0x3c4db2d0	0.012554839
117	0x3da5ee88	0.08102137
118	0xbdaafa0a	-0.083484724
119	0xbd8b50b4	-0.06802502
120	0x3c8dc520	0.01730591
121	0x3dacbe72	0.08434762
122	0xbdfe074e	-0.12403737
123	0x394f0c00	0.00019745529
124	0xbd1d01ac	-0.038331673
125	0x3ce4bf10	0.027923137
126	0x3c9abe68	0.01888962
127	0x3d55b290	0.052172244
128	0x3df9fba8	0.12206203
129	0x3d9509c2	0.07277252
130	0x3db526cc	0.088452905
131	0xbd16a418	-0.036777586
132	0x3c1ad130	0.009449288
133	0x3dda54e0	0.1066072
134	0xbdb18a3a	-0.08668943
135	0xbc958f98	-0.018256947
136	0x3caf4f20	0.021400034
137	0x3cc11158	0.02356784
138	0x3ccc7718	0.024959132
139	0xbdd33568	-0.10312921
140	0xbde3d672	-0.111248866
141	0xbd8cc1d4	-0.06872907
142	0xbd94a692	-0.07258333
143	0xbc7b07c0	-0.015321672
144	0x3c7a3340	0.015271008
145	0xbd9554b4	-0.072915465
146	0xbd96d2e8	-0.07364446
147	0xbd3f9d74	-0.04678102
148	0xbc360cc0	-0.011111438
149	0xbdcaefce	-0.0990902
150	0x3c738280	0.014862657
151	0xbc382890	-0.01124014
152	0x3db0c4ee	0.08631311
153	0x3dfc5c2c	0.12322268
154	0xbdb476da	-0.08811732
155	0x3d5c2868	0.053749472
156	0xbdf8e03c	-0.12152144
157	0x3d45e4cc	0.0483139
158	0x3cede5b8	0.029040202
159	0x3cbac760	0.022800148
160	0xbdb9e8d0	-0.090776086
161	0xbc8b4430	-0.017000288
162	0x3d8a7de8	0.06762296
163	0xbd81b11a	-0.063326076
164	0xbc5b3090	-0.013378277
165	0x3d67ac84	0.056561008
166	0x3dc0a21e	0.094059214
167	0x3bdd2ae0	0.006749496
168	0x3ca8dd50	0.020613343
169	0x3dd7ae94	0.10531345
170	0x3cf8a2d0	0.030351073
171	0xbd4c2640	-0.049841166
172	0x3dfe04b4	0.12403241
173	0xbba7fee0	-0.005126819
174	0x3dbc84a0	0.09204984
175	0xbcfba530	-0.030718416
176	0xbdd48cd0	-0.1037842
177	0x3db5f5f0	0.088847995
178	0x3cf686a8	0.030093506
179	0xbdc04690	-0.09388459
180	0xbd85fc26	-0.06542234
181	0xbca24fe0	-0.019813478
182	0x3da7a8fc	0.08186528
183	0xbdbfccde	-0.09365247
184	0x3df26cf2	0.11837186
185	0x3d97fce4	0.07421282
186	0x3cd8e3e0	0.026475847
187	0xbdf6eabc	-0.12056491
188	0xbcc54800	-0.024082184
189	0xbd7829e4	-0.060586825
190	0x3dd617b6	0.10453741
191	0xbc937ec8	-0.01800479
192	0xbd9bf290	-0.076146245
193	0x3db9516a	0.090487316
194	0xbddabd3c	-0.10680625
195	0x3d848370	0.06470382
196	0x3d32cc3c	0.043651804
197	0x3dba1d3c	0.09087607
198	0x3dc75dea	0.097347096
199	0x3d56dc4c	0.052456185
200	0xbbd6c2a0	-0.006553963
201	0x3cbd0c10	0.02307704
202	0x3ce8bce0	0.028410375
203	0x3caa9708	0.02082397
204	0x3d1a30c8	0.037644178
205	0x3dcb0538	0.09913105
206	0xbdb5bf06	-0.088743255
207	0x3bc0f440	0.005888492
208	0x3d76a208	0.06021312
209	0xbdf10f6e	-0.11770521
210	0xbdce811c	-0.100832194
211	0x3ccf5c10	0.025312454
212	0xbcfbc870	-0.030735224
213	0xbde2fc02	-0.11083223
214	0x3db6ac6a	0.08919604
215	0x3c142fd0	0.0090446025
216	0x3c2178c0	0.009855449
217	0x3dc7dd18	0.09758967
218	0x3d748e84	0.059706226
219	0x3da6b330	0.08139646
220	0xbdf5b60a	-0.11997612
221	0x3d966174	0.073428065
222	0x3d69b304	0.05705549
223	0xbcdbbca8	-0.026823357
224	0xbd284ea0	-0.041090608
225	0xbdfb5134	-0.12271348
226	0xbd322390	-0.043490946
227	0xbd4de1e4	-0.050264254
228	0xbc8cef98	-0.017204091
229	0x3d149ec0	0.03628421
230	0xbdf845e2	-0.12122704
231	0xbadb0c80	-0.0016712099
232	0xbd91735a	-0.0710208
233	0xbd716ad4	-0.05893977
234	0x3d1633ac	0.036670372
235	0xbde579f0	-0.11204898
236	0x3d45dfd8	0.048309177
237	0xbde14428	-0.10999328
238	0xbdf586ea	-0.119886234
239	0x3d92e456	0.07172458
240	0xbd1f6a64	-0.03891982
241	0x3db366f8	0.08759874
242	0x3c9c7f28	0.019103602
243	0xbd992af8	-0.07478899
244	0x3cc78850	0.024356991
245	0x3df86696	0.12128942
246	0x3dccdd7a	0.10003181
247	0x3db10072	0.08642663
248	0x3bf506e0	0.007477626
249	0xbd8610f4	-0.06546202
250	0xbae29f80	-0.0017289966
251	0xbc2e3660	-0.010633081
252	0x3da272e4	0.0793207
253	0x3c7b0ae0	0.015322417
254	0x3d98c9d6	0.07460372
255	0xbdf7ee86	-0.121060416

fc2.bias f4 [64]
0	0xbc772ba0	-0.015086085
1	0xbd5ba984	-0.05362846
2	0x3de04cc6	0.10952143
3	0x3df65916	0.120287105
4	0x3b9b23e0	0.0047345012
5	0x3c8c1840	0.017101407
6	0x3de25420	0.11051202
7	0xbb5b5140	-0.0033465177
8	0xbca34ad8	-0.01993315
9	0x3de07866	0.10960464
10	0xbde4acb4	-0.11165753
11	0xbd57d1a4	-0.052690163
12	0x3d79000c	0.06079106
13	0x3c05ad10	0.008158937
14	0x3de8dad4	0.11369863
15	0x3d8c5786	0.06852631
16	0x3ca528c0	0.020161033
17	0x3dcb31dc	0.09921619
18	0xbca161f8	-0.019700035
19	0x3c414be0	0.011797875
20	0x3dcacff8	0.09902948
21	0xbd267450	-0.040638268
22	0x3d844b44	0.06459668
23	0x3decd504	0.11564067
24	0x3d848500	0.0647068
25	0xbdb2d85a	-0.08732672
26	0x3c8ea3a0	0.017412007
27	0xbd9eea02	-0.07759477
28	0x3d0f3988	0.034966975
29	0xbd646658	-0.055761665
30	0x3bc581e0	0.006027445
31	0xbd336764	-0.043799773
32	0xbdda4210	-0.10657132
33	0x3d9bfec6	0.076169536
34	0xbd940ca6	-0.07228975
35	0x3ba43400	0.0050110817
36	0x3d9442cc	0.07239303
37	0x3da59e10	0.08086789
38	0x3c8a6940	0.01689589
39	0x3d529f78	0.051421613
40	0xbdb41270	-0.08792579
41	0x3d6d8ddc	0.057996616
42	0xbbcc1060	-0.006227538
43	0xbd99d250	-0.07510817
44	0xbd11ead8	-0.035624355
45	0xbdb2bcc6	-0.08727412
46	0x3c958358	0.018251106
47	0x3d0ee708	0.034888297
48	0x3ba0b7a0	0.0049047023
49	0xbcb5dca0	-0.022199929
50	0x3dec60da	0.115419105
51	0xbdeb3e62	-0.11486508
52	0xbd396a40	-0.045267344
53	0x3d6b7814	0.057487562
54	0x3d32e7d0	0.043678105
55	0x3cbaaf78	0.022788748
56	0xbdf3c426	-0.11902647
57	0xbd0dc040	-0.034607172
58	0xbce278e8	-0.027645543
59	0xbcd44b30	-0.025914758
60	0xbde7abbc	-0.113120526
61	0x3d7b987c	0.061424717
62	0x3dfa0298	0.12207526
63	0x3cc9c360	0.024629295

fc3.weight f4 [6, 64]
0	0xbd9a3d9e	-0.07531284
1	0x3c558680	0.013032556
2	0xbd4f587c	-0.050621495
3	0x3d8e2502	0.069406524
4	0x3d7daf94	0.061935022
5	0x3cb01b38	0.021497354
6	0xbd5335e0	-0.05156505
7	0x3dcc8646	0.09986548
8	0x3dbaab4e	0.09114705
9	0x3cf47bb8	0.02984415
10	0x3dbb96e6	0.09159641
11	0x3d9695d0	0.07352793
12	0x3deec17a	0.116579965
13	0xbdbe2d86	-0.09286027
14	0xbdfa34f2	-0.1221713
15	0xbd2c348c	-0.0420423
16	0x3d028ce8	0.03187266
17	0x3d2e22fc	0.042513832
18	0x3d08c65c	0.033392295
19	0xbd80d4b8	-0.06290573
20	0xbcc89820	-0.024486601
21	0x3da6f224	0.081516534
22	0xbd4996b0	-0.049215972
23	0x3dda9a4c	0.10673961
24	0xbd4e2ccc	-0.05033569
25	0x3dc5303a	0.09628339
26	0x3c8dbde8	0.017302468
27	0xbc871fd0	-0.016494662
28	0x3d8d8492	0.069100514
29	0x3cbe8060	0.023254573
30	0xbd941c02	-0.072319046
31	0xbdf4dd76	-0.11956303
32	0xbd95152c	-0.07279429
33	0x3dbef2e0	0.093236685
34	0xbd4a0674	-0.04932256
35	0x3bc9ee20	0.00616242
36	0xbdda6222	-0.106632486
37	0xbc0f3ff0	-0.008743271
38	0x3dabc414	0.08387008
39	0x3de3f116	0.11129968
40	0x3c817f88	0.015807882
41	0xbd8a638e	-0.0675727
42	0xbca37b98	-0.019956395
43	0x3d49b584	0.049245372
44	0xbd1bf254	-0.0380729
45	0x3df1653e	0.117868885
46	0x3d7900a0	0.06079161
47	0x3ded6610	0.115917325
48	0x3cf1c010	0.029510528
49	0xbd78cda0	-0.060742974
50	0xbd8f9124	-0.07010105
51	0xbd9e0674	-0.077160746
52	0x3bcdf600	0.006285429
53	0xbba98540	-0.0051733553
54	0xbde4fdb6	-0.11181204
55	0xbd2a5a5c	-0.04159008
56	0x3dc408b6	0.09571974
57	0x3d79108c	0.060806796
58	0x3deecb82	0.1165991
59	0x3cccf2c8	0.02501811
60	0xbc8cf098	-0.017204568
61	0xbc0bda30	-0.008535907
62	0xbaa17b80	-0.0012320131
63	0xbdda6fcc	-0.10665855
64	0x3d187478	0.03722045
65	0x3cdcd178	0.026955351
66	0x3b908540	0.004410416
67	0xbc91d5c0	-0.01780212
68	0xbd120358	-0.03564772
69	0x3d01d058	0.031692833
70	0x3d791f50	0.060820878
71	0x3d8d5d6a	0.06902583
72	0xbda8fd40	-0.082514286
73	0xbdbdad06	-0.09261517
74	0x3d93ef24	0.07223347
75	0xbdab8a0e	-0.08375941
76	0xbcaee508	-0.021349445
77	0xbd847b9c	-0.06468889
78	0x3d35b6a0	0.044363618
79	0xbdb27656	-0.08713977
80	0x3d3ee8ac	0.046608612
81	0x3d87adaa	0.06624921
82	0x3d731b58	0.05935225
83	0xbddf5962	-0.1090572
84	0xbdd0838a	-0.10181339
85	0xbd3e4d4c	-0.046460435
86	0xbda2c886	-0.07948403
87	0xbd9d1738	-0.07670444
88	0xbda17536	-0.07883684
89	0xbd0a6d1c	-0.03379546
90	0xbd748920	-0.059701085
91	0x3d4871b4	0.04893656
92	0x39fe8c00	0.00048550963
93	0x3dc4e550	0.096140504
94	0xbd400758	-0.046882004
95	0xbd47fe2c	-0.04882638
96	0x3db3714c	0.08761844
97	0x3dcb0188	0.099124014
98	0xbdc5de44	-0.096615344
99	0x3da33e98	0.07970923
100	0x3d9bb1ce	0.07602273
101	0x3df2adce	0.11849557
102	0xbcc806f0	-0.02441737
103	0x3d6dc4f0	0.058049142
104	0x3de7e5d0	0.1132313
105	0xbdc73258	-0.09726399
106	0xbd126aec	-0.0357465
107	0x3da79e44	0.08184484
108	0xbd933d78	-0.071894586
109	0xbc129030	-0.00894551
110	0x3d3b2b78	0.045695752
111	0x3de349a4	0.1109803
112	0x3d8dc7f2	0.06922902
113	0x3d23733c	0.039904818
114	0x3bb67f80	0.0055693984
115	0x3d9c9184	0.076449424
116	0x3dd3d63c	0.10343596
117	0x3bd56080	0.006511748
118	0x3d7543dc	0.05987917
119	0x3df6ef30	0.1205734
120	0x3c01c600	0.007920742
121	0x3c5c03e0	0.013428658
122	0xbce91ec0	-0.028457046
123	0xbc95d038	-0.018287763
124	0xbd78fec8	-0.060789853
125	0x3d1496a0	0.03627646
126	0xbcd09ba8	-0.025464848
127	0xbda86126	-0.082216546
128	0xbdac52ce	-0.08414231
129	0xbdbc9e54	-0.09209886
130	0xbd8aa148	-0.06769043
131	0xbdf55f42	-0.119810596
132	0x3d5d3120	0.054001927
133	0xbde00882	-0.10939123
134	0x3cb16498	0.021654412
135	0x3d91fe84	0.07128623
136	0x3d52398c	0.051324412
137	0x3dcadefc	0.09905812
138	0x3def7f80	0.116942406
139	0x3d209a34	0.03920956
140	0x3d96bf22	0.073606744
141	0x3caab078	0.0208361
142	0x3a2cdb00	0.0006593913
143	0x3ce95578	0.028483137
144	0x3cd26ea8	0.02568753
145	0xbddaea98	-0.106892765
146	0x3c003840	0.007825911
147	0x3d22d2d4	0.039751843
148	0xbd547bc8	-0.05187586
149	0xbd6433bc	-0.0557134
150	0x3dca047e	0.09864138
151	0xbd344f7c	-0.044021115
152	0xbda5a5ca	-0.080882624
153	0x3d5d87f4	0.054084733
154	0xbd09e0b0	-0.033661544
155	0x3d966706	0.07343869
156	0x3ca8a1e8	0.020585015
157	0xbd930fcc	-0.071807474
158	0x3d612d40	0.054974794
159	0x3dd3fce2	0.10350968
160	0x3dc9e04a	0.09857233
161	0xbda40330	-0.080084205
162	0xbca0f858	-0.01964967
163	0x3da4a4b2	0.08039226
164	0xbd848c4e	-0.064720735
165	0x3d55d7b4	0.052207664
166	0x3da26bf4	0.07930747
167	0xbd582f00	-0.052779198
168	0xbd079d88	-0.033109218
169	0xbdc46208	-0.095890105
170	0x3d40e8b0	0.047096908
171	0x3de915b6	0.11381094
172	0x3c7f08d0	0.015566066
173	0xbd62ea94	-0.055399492
174	0xbd876630	-0.066112876
175	0x3db60fd4	0.08889738
176	0x3db7a8e8	0.08967763
177	0xbdaaf9b0	-0.08348405
178	0x3cfeaef8	0.031089291
179	0xbc167db0	-0.00918524
180	0x3ddd6f9e	0.10812305
181	0x3d1e5dc4	0.03866364
182	0xbbbc1060	-0.0057392567
183	0xbd8f7926	-0.07005529
184	0x3dc02a46	0.09383063
185	0xbde1a7f4	-0.11018363
186	0x3bdd2160	0.0067483634
187	0x3d13627c	0.035982594
188	0xbdc62582	-0.09675123
189	0xbd1fa794	-0.038978174
190	0x3cad5268	0.021157458
191	0xbdd35ab8	-0.103200376
192	0x3df5e224	0.120060235
193	0x3d0f18f8	0.03493592
194	0x3d289f50	0.041167557
195	0xbdf9c7cc	-0.12196311
196	0xbd5fc8fc	-0.054635033
197	0x3c38db90	0.0112828165
198	0x3dc32cd8	0.09530038
199	0xbd088dbc	-0.033338293
200	0xbde35586	-0.11100297
201	0xbced9408	-0.02900125
202	0xbd8911bc	-0.06692836
203	0xbde6a266	-0.11261444
204	0xbd6b55bc	-0.05745481
205	0xbd615f38	-0.05502245
206	0x3deb7230	0.11496389
207	0x3cee25b8	0.02907072
208	0xbdfb8212	-0.12280668
209	0xbd5302b0	-0.051516235
210	0x3dab151c	0.08353636
211	0x3d176de0	0.03697002
212	0xbdbc1c8e	-0.09185134
213	0xbd95746c	-0.07297596
214	0xbdbca264	-0.09210661
215	0xbbc4c160	-0.0060044974
216	0x3de9a32c	0.11408076
217	0x3bce61a0	0.006298259
218	0x3debfbda	0.11522646
219	0x3d0512d8	0.032488674
220	0x3d671924	0.05642046
221	0xbda1da44	-0.07902959
222	0x3c4948c0	0.012285411
223	0x3d277b54	0.0408891
224	0x3dc5cd5a	0.09658308
225	0x3df62c2a	0.120201424
226	0x3df45028	0.11929351
227	0x3db6be4a	0.089230135
228	0x3d95bac0	0.0731101
229	0xbcb5a910	-0.022175342
230	0xbdb5c5be	-0.08875607
231	0x3ccdb1b8	0.025109157
232	0x3d11c748	0.03559044
233	0x3c7e7e70	0.015533075
234	0x3df5fc1a	0.12010975
235	0x3d92a256	0.071598694
236	0xbde9baa2	-0.114125505
237	0xbd892fba	-0.06698556
238	0xbc85bdb8	-0.016325817
239	0x3da75902	0.08171274
240	0x3dc1757e	0.09446238
241	0x3dc08b3e	0.09401558
242	0x3bbcce20	0.0057618767
243	0xbd08da94	-0.033411577
244	0x3dd032d0	0.10165942
245	0xbd792c58	-0.060833305
246	0x3ddbb482	0.107277885
247	0x3d97ab90	0.0740577
248	0x3ad92c00	0.0016568899
249	0x3d0c8fc8	0.034316808
250	0x3c00b040	0.007854521
251	0x3b27fcc0	0.0025632828
252	0xbc43c760	-0.01194939
253	0xbd0c27e0	-0.034217715
254	0xbc9351b8	-0.017983302
255	0xbdf437a2	-0.119246736

fc3.bias f4 [6]
0	0x3d59b9fc	0.053155884
1	0xbd1a7384	-0.03770782
2	0xbc8932d8	-0.016747877
3	0xbdf80a5a	-0.121113494
4	0x3d090a84	0.033457294
5	0xbd951fb8	-0.072814405
