saved_models/dqn_best_model_episode_242.pt (torch, 87339 bytes, 24 tensors)

fc1.weight f4 [64, 4]
0	0x3e8b4c76	0.27206773
1	0x3db21143	0.08694699
2	0xbe9efbdb	-0.31051525
3	0xbe6df3c5	-0.23237522
4	0xbec3922a	-0.38197452
5	0x3e3f860a	0.18703476
6	0xbe512d20	-0.2042737
7	0xbef1987a	-0.47186643
8	0x3ea7fc5e	0.32809728
9	0x3eb2dc21	0.3493357
10	0x3ea3df31	0.3200622
11	0x3e8049fd	0.2505645
12	0x3ea71de2	0.32639986
13	0xbec53c70	-0.38522673
14	0x3ca2f16b	0.019890508
15	0x3e2b7a1c	0.167458
16	0xbcf74740	-0.030185342
17	0xbe90cefc	-0.28282917
18	0xbdba83b0	-0.09107149
19	0xbe903962	-0.2816878
20	0xbee67fac	-0.4501928
21	0x3e1a0fbf	0.15045069
22	0x3e94ed53	0.29087314
23	0x3ec4465f	0.3833494
24	0xbe4b5b8f	-0.19859146
25	0x3e8357c4	0.25652897
26	0xbea3f700	-0.32024384
27	0xbd09686e	-0.033546858
28	0x3e8a0d8f	0.2696347
29	0x3eaea933	0.34113464
30	0xbe5a6025	-0.21325739
31	0x3eb57fc5	0.35449043
32	0x3ec9f74c	0.39446485
33	0xbef4a768	-0.4778397
34	0x3e99fe71	0.30076936
35	0xbd19b9a0	-0.03753054
36	0x3e20da23	0.15708213
37	0x3e9536bb	0.2914332
38	0x3d22d841	0.039757017
39	0xbde1edef	-0.1103171
40	0xbefc53f9	-0.49282816
41	0xbe677242	-0.2260218
42	0xbeb1e72e	-0.3474669
43	0x3e22b28e	0.15888426
44	0xbe9c26fa	-0.30498487
45	0xbd75d6c0	-0.060019255
46	0xbe523460	-0.20527792
47	0xbd8bb748	-0.068220675
48	0x3d8e6789	0.069533415
49	0xbefc9a62	-0.49336535
50	0x3eca245b	0.39480862
51	0x3e1ab4d3	0.15108041
52	0x3ec99b10	0.39376116
53	0xbe545945	-0.20737179
54	0xbdabb0c2	-0.08383323
55	0xbe7c7d25	-0.24657114
56	0x3eb9dcc6	0.3630125
57	0x3d9a83c8	0.075446665
58	0xbe12b964	-0.14328533
59	0x3edd7276	0.4325139
60	0xbee5189b	-0.44745335
61	0x3e55ddf6	0.20885453
62	0x3e1d7a9a	0.153788
63	0xbdcd43be	-0.100226864
64	0x3da647d4	0.08119169
65	0x3e13118c	0.14362162
66	0xbd6f5031	-0.058426086
67	0xbdbea96a	-0.09309657
68	0x3ea890db	0.32923016
69	0xbe000343	-0.12501244
70	0xbedd1fb0	-0.43188238
71	0xbe11204e	-0.1417248
72	0xbe94a0ca	-0.29028922
73	0x3ed2e511	0.4119039
74	0xbdade509	-0.084909506
75	0xbd689bd9	-0.056789253
76	0x3ee2ef59	0.44323233
77	0xbebb7737	-0.3661439
78	0x3eeeeb1c	0.4666375
79	0xbd18a7ce	-0.037269406
80	0x3dff8ae5	0.12477664
81	0xbe792de9	-0.2433392
82	0xbef59e8f	-0.47972533
83	0xbe919556	-0.28434247
84	0x3ea93115	0.3304526
85	0x3e81504f	0.25256583
86	0xbedc3c85	-0.43014923
87	0xbde6a755	-0.11262385
88	0xbec9453b	-0.3931063
89	0x3e330f9a	0.1748642
90	0x3dbfff2e	0.093748435
91	0xbdb2543c	-0.08707473
92	0xbeafa598	-0.34306026
93	0x3e83aac5	0.25716224
94	0xbe08e630	-0.1336906
95	0xbe6b8246	-0.22998914
96	0x3ea23995	0.31684557
97	0x3dd2b3c8	0.10288197
98	0x3e070394	0.13184959
99	0x3eb51de7	0.35374376
100	0xbd52a4db	-0.05142675
101	0x3ef98755	0.48736063
102	0xbe3d841f	-0.18507431
103	0xbe91db87	-0.284878
104	0x3e3fbf5b	0.1872534
105	0xbe87861a	-0.264695
106	0x3db3273e	0.08747719
107	0xbd4e58c1	-0.05037761
108	0xbc81ad0e	-0.01582959
109	0xbef74c8c	-0.48300588
110	0xbda925cc	-0.08259162
111	0x3e717530	0.2357986
112	0x3e556e84	0.2084294
113	0xbd6ab80b	-0.057304423
114	0xbe51f816	-0.20504794
115	0x3d9522e2	0.07282044
116	0xbe113c1c	-0.14183086
117	0x3cbb1ba8	0.022840336
118	0xbe0d7fc0	-0.13818264
119	0xbea8e074	-0.32983744
120	0x3e8f67c7	0.28008863
121	0x3b80eadf	0.003934249
122	0x3efe8c64	0.49716485
123	0xbeeb8a42	-0.4600392
124	0xbebba8d6	-0.3665225
125	0x3ec1162f	0.37712237
126	0x3e839f9f	0.2570772
127	0xbd9a5ebb	-0.075376
128	0xbe7084b5	-0.23488124
129	0xbcfda025	-0.030960152
130	0xbd1cc89d	-0.038277257
131	0x3e19f23b	0.1503381
132	0xbd9e7c14	-0.0773851
133	0xbdf303b7	-0.11865943
134	0x3e04b76b	0.12960593
135	0x3d34d912	0.044152327
136	0x3e500855	0.20315678
137	0xbeccefe6	-0.40026778
138	0xbe995332	-0.29946285
139	0xbe8239ac	-0.25434625
140	0xbefd78ee	-0.49506325
141	0x3ec55cd4	0.38547385
142	0x3d88be43	0.066769145
143	0x3ee87c89	0.45407513
144	0xbea2d006	-0.31799334
145	0xbdfb7310	-0.12277806
146	0x3e9ca6f3	0.30596122
147	0xbdf29046	-0.11843924
148	0x3e9cd2a4	0.30629456
149	0xbeaef88a	-0.34173995
150	0xbed3d347	-0.4137213
151	0x3de64390	0.11243355
152	0x3efbff7c	0.49218357
153	0xbecbab0b	-0.39778933
154	0xbec756ac	-0.38933313
155	0xbea9db92	-0.3317533
156	0x3e9239fd	0.28559867
157	0x3ec05f37	0.37572643
158	0xbd3b5b09	-0.045741115
159	0x3ed03d04	0.4067155
160	0x3dd0c6d4	0.101941735
161	0xbe9a4263	-0.30128774
162	0x3ec263c7	0.3796675
163	0x3eabf821	0.33587745
164	0x3ceb08c6	0.028690707
165	0xbe024e45	-0.1272517
166	0xbe3dbd18	-0.18529165
167	0x3ec7b249	0.39003208
168	0xbe63e4fa	-0.22255316
169	0x3d076bad	0.033061672
170	0xbe7b8c7c	-0.2456531
171	0x3eeba710	0.46025896
172	0xbe61f3bc	-0.22065634
173	0xbe194d79	-0.1497096
174	0x3dc8bf90	0.09802163
175	0xbeb60ef4	-0.35558283
176	0x3d900a3c	0.07033202
177	0xbefcecc9	-0.49399403
178	0xbe30977f	-0.17245291
179	0xbed26cc5	-0.4109861
180	0xbe7ae2af	-0.24500535
181	0x3ef03571	0.46915773
182	0xbe8bb206	-0.2728426
183	0xbe6029da	-0.21890965
184	0x3eb88386	0.36037844
185	0x3e4c8c3b	0.19975369
186	0xbd4433a9	-0.04790083
187	0x3c144309	0.009049186
188	0x3ee6686a	0.45001537
189	0x3ec8dc1e	0.39230436
190	0x3ea244c1	0.3169308
191	0x3e90906e	0.2823519
192	0x3e1a6215	0.15076478
193	0xbecf8b62	-0.40536028
194	0xbee9014d	-0.45508805
195	0xbe6599ac	-0.22421902
196	0xbe722f05	-0.23650749
197	0xbd14c1c7	-0.036317613
198	0xbd85dd8d	-0.06536398
199	0x3e8ceb89	0.2752345
200	0x3ea6c5d7	0.32572815
201	0x3c61054d	0.013734174
202	0xbdd1c943	-0.10243466
203	0xbd3c8f3b	-0.046035033
204	0x3e2853c1	0.164382
205	0x3ea44c03	0.32089242
206	0xbec5f242	-0.3866139
207	0x3ecf3429	0.40469483
208	0x3e922a53	0.28547916
209	0xbee697ca	-0.4503768
210	0xbed87478	-0.4227636
211	0xbee16ed1	-0.4402986
212	0xbef711d6	-0.48255795
213	0xbe893c86	-0.26803988
214	0xbd30a700	-0.043128014
215	0xbe9eb4c8	-0.309973
216	0xbe1330b6	-0.1437405
217	0xbc854bf5	-0.01627157
218	0x3ed9e96e	0.42560905
219	0xbef47751	-0.4774728
220	0x3ef78ffc	0.4835204
221	0x3c28f608	0.010312565
222	0x3ea377e8	0.3192742
223	0xbeae2940	-0.34015846
224	0xbebe5e38	-0.37181258
225	0x3e626424	0.22108513
226	0xbe1ac004	-0.1511231
227	0xbea1b466	-0.31582946
228	0x3e59115f	0.21198033
229	0xbefd1af4	-0.49434626
230	0x3d889fd5	0.066711105
231	0xbee942b5	-0.45558706
232	0x3e1ae730	0.15127254
233	0x3ed9796d	0.42475453
234	0x3de59c4b	0.11211451
235	0x3ecb4fac	0.39709222
236	0x3e15b725	0.14620645
237	0x3ca01efa	0.01954602
238	0x3da718a2	0.08158995
239	0x3eb16463	0.346469
240	0x3ecfd93d	0.40595427
241	0x3da43556	0.080179855
242	0x3ed7c2a3	0.42140684
243	0x3e807c03	0.25094613
244	0xbec0434f	-0.37551352
245	0xbe5c24dc	-0.21498436
246	0xbee373fa	-0.4442442
247	0x3bbc932d	0.0057548494
248	0xbe313f20	-0.17309237
249	0xbe374080	-0.17895699
250	0xbd4fef70	-0.050765455
251	0xbea5267e	-0.3225593
252	0xbe08a1b0	-0.13342929
253	0x3e84624d	0.25856248
254	0xbd4939bc	-0.049127325
255	0x3df52681	0.11970235

fc1.bias f4 [64]
0	0x3d9b3ee3	0.07580354
1	0x3e29c360	0.16578436
2	0xbeed50a6	-0.46350592
3	0x3ec1b06d	0.37829915
4	0x3e6b5b5c	0.2298407
5	0xbd21dfc2	-0.039520033
6	0xbe517516	-0.20454821
7	0x3e5dce84	0.2166081
8	0x3eb67f05	0.35643783
9	0xbdf2d0e9	-0.11856253
10	0xbedd598d	-0.43232384
11	0xbe9418f8	-0.289253
12	0xbeecd124	-0.46253312
13	0x3e06033a	0.13087168
14	0xbe4944ba	-0.19655123
15	0xbec85e09	-0.39134243
16	0x3e49cf0f	0.19707893
17	0xbe279f4f	-0.16369365
18	0x3de6d3eb	0.11270889
19	0x3eb7a095	0.35864702
20	0x3c092683	0.008370998
21	0x3ef032e7	0.46913835
22	0xbe05bd24	-0.13060433
23	0x3e1ebc38	0.15501487
24	0xbed31efa	-0.4123457
25	0xbeaa08bd	-0.33209792
26	0x3e45fc01	0.19334413
27	0x3e9ed60e	0.31022686
28	0xbef2792c	-0.47358072
29	0x3ed087c5	0.40728584
30	0xbe4886f0	-0.19582725
31	0x3eda0dd3	0.42588672
32	0x3ebff969	0.37494972
33	0x3d4b59d0	0.0496462
34	0xbed2e858	-0.4119289
35	0x3e112f02	0.14178088
36	0xbea49598	-0.3214538
37	0x3e8964b4	0.26834643
38	0xbed39e5a	-0.4133175
39	0x3eb02d12	0.34409386
40	0x3d44388c	0.04790549
41	0xbec80870	-0.39068937
42	0x3efe5b2d	0.49678937
43	0x3ebc7ddf	0.36814782
44	0xbd7e20c0	-0.06204295
45	0xbec4d62a	-0.38444644
46	0x3e559afd	0.20859905
47	0x3eb92048	0.3615744
48	0x3e21c941	0.15799429
49	0xbd1178cf	-0.035515603
50	0x3ed54acf	0.41658637
51	0xbe534c5e	-0.206346
52	0x3ea15a81	0.31514362
53	0xbe40d014	-0.18829376
54	0x3ecdd05c	0.40198028
55	0xbde714f6	-0.11283295
56	0xbe913c0d	-0.28366128
57	0x3d13d9ae	0.036096267
58	0xbe60d7b1	-0.2195728
59	0xbed7ebb1	-0.42172006
60	0x3eaba447	0.3352377
61	0x3ea9945f	0.3312101
62	0x3eecb9f4	0.4623562
63	0xbeb62d52	-0.35581452

fc2.weight f4 [64, 64]
0	0xbd037690	-0.032095492
1	0x3c59b380	0.013287425
2	0xbd04983c	-0.032371745
3	0xbd577ef8	-0.05261132
4	0x3d1ae7f0	0.03781885
5	0xbd210914	-0.0393153
6	0x3c46d870	0.012136564
7	0xbd361e8c	-0.044462726
8	0xbd598fdc	-0.05311571
9	0xbdc402dc	-0.09570858
10	0xbcd42958	-0.02589862
11	0xbdaaa692	-0.08332552
12	0xbdc53926	-0.09630041
13	0x3d9a4a6a	0.075337246
14	0x3da57164	0.08078268
15	0x3d5960ac	0.05307071
16	0xbd9e494c	-0.07728824
17	0xbd2af8f0	-0.04174131
18	0xbcfca888	-0.03084208
19	0x3d84aaca	0.06477888
20	0x3d0b3cac	0.033993408
21	0xbdcbfe90	-0.09960663
22	0x3d2628f4	0.0405664
23	0x3cc9f2f0	0.024651974
24	0xbdaed41c	-0.085365504
25	0x3dd21f76	0.10259907
26	0x3c7b73a0	0.015347391
27	0x3c565390	0.013081446
28	0xbca01d40	-0.019545197
29	0x3dba4506	0.090951964
30	0xbda1b93a	-0.07896657
31	0xbc0c5d00	-0.008567095
32	0xbd7a0578	-0.06104037
33	0x3dc7d6ce	0.097577676
34	0xbda529c4	-0.08064607
35	0xbdb94800	-0.09046936
36	0x3bcac440	0.0061879456
37	0xbd12fde0	-0.035886645
38	0xb9d7d400	-0.00041165948
39	0xbd85dce8	-0.06536275
40	0x3c41f0f0	0.011837229
41	0xbce538f0	-0.027981251
42	0x3cce8418	0.025209472
43	0xbde52e40	-0.11190462
44	0xbb598280	-0.0033189356
45	0xbda9be32	-0.0828823
46	0xbdbc1052	-0.091828
47	0xbc6f0750	-0.014589146
48	0x3cad0188	0.021118894
49	0xbd9efcc2	-0.077630535
50	0xbc52e630	-0.012872264
51	0xbdf5e852	-0.12007202
52	0x3dde46ac	0.10853323
53	0xbd1f3618	-0.038869947
54	0xbd1451e0	-0.036210895
55	0x3d9f443e	0.07776688
56	0xbdd9eb7e	-0.1064062
57	0xbdf8a12c	-0.12140116
58	0xbccbb990	-0.024868757
59	0x3ce555f8	0.027995095
60	0x3da48344	0.080328494
61	0xbdc71f64	-0.09722784
62	0xbd852f4a	-0.0650316
63	0xbd7a6000	-0.06112671
64	0x3db7ceba	0.08974977
65	0xbdfa44f2	-0.122201815
66	0xbd9e2c8e	-0.07723342
67	0xbd233f6c	-0.039855406
68	0xbdc63c6c	-0.09679493
69	0x3d6608c8	0.05616072
70	0xbda2c19e	-0.07947086
71	0x3d848e6a	0.06472476
72	0x3d8be550	0.06830847
73	0x3db00fae	0.08596741
74	0x3c1154b0	0.008870289
75	0xbdd517ac	-0.10404906
76	0x3d2be180	0.0419631
77	0xbdd8d028	-0.10586578
78	0x3dcce8a2	0.10005309
79	0x3dd2b73c	0.102888554
80	0xbde0782a	-0.109604195
81	0xbd57fb9c	-0.052730188
82	0xbdac36c4	-0.08408883
83	0x3d47f040	0.048813105
84	0xbd1cdd50	-0.038296998
85	0x3d4ea9f0	0.050455034
86	0xbd2f701c	-0.042831525
87	0x3da77f56	0.08178584
88	0xbdda1794	-0.106490284
89	0xbdb1d83c	-0.086838216
90	0xbce04240	-0.02737534
91	0xbbf2afa0	-0.00740619
92	0x3c7548a0	0.014970928
93	0xbdb9ca8c	-0.09071836
94	0x3de5356e	0.111918315
95	0x3d9c00b2	0.0761732
96	0xbde13de4	-0.10998133
97	0x3b6658c0	0.0035148114
98	0x3cf8d910	0.030376941
99	0xbdac9e9e	-0.08428691
100	0xbdd414e0	-0.10355544
101	0xbcb824c0	-0.022478461
102	0xbcee1cf8	-0.029066548
103	0xbd245408	-0.0401192
104	0x3d195998	0.03743896
105	0xbd9e7c80	-0.0773859
106	0xbdb3bef2	-0.08776654
107	0xbc67c950	-0.014147118
108	0x3cf3b268	0.029748157
109	0xbda89122	-0.08230807
110	0xbd8e84c2	-0.06958915
111	0xbd9ed77e	-0.077559456
112	0xbd881fc8	-0.06646687
113	0x3df9ceda	0.12197657
114	0xbce68cf8	-0.028143391
115	0x3c9f8ad0	0.01947537
116	0x3c4db2d0	0.012554839
117	0x3da5ee88	0.08102137
118	0xbdaafa0a	-0.083484724
119	0xbd8b50b4	-0.06802502
120	0x3c8dc520	0.01730591
121	0x3dacbe72	0.08434762
122	0xbdfe074e	-0.12403737
123	0x394f0c00	0.00019745529
124	0xbd1d01ac	-0.038331673
125	0x3ce4bf10	0.027923137
126	0x3c9abe68	0.01888962
127	0x3d55b290	0.052172244
128	0x3df74ac6	0.12074809
129	0x3d9393b4	0.072059065
130	0x3db275cd	0.08713875
131	0xbd171a9f	-0.036890622
132	0x3c1ad130	0.009449288
133	0x3dd9f5a8	0.10642558
134	0xbdb426c8	-0.087964594
135	0xbca07f5f	-0.019591985
136	0x3cacc547	0.021090163
137	0x3cb620f8	0.022232518
138	0x3ccbe00c	0.024887107
139	0xbdd33568	-0.10312921
140	0xbde3d4c9	-0.1112457
141	0xbd8ed0c5	-0.069734134
142	0xbd974e3e	-0.073879704
143	0xbc7bd090	-0.015369549
144	0x3c6458e3	0.013937208
145	0xbd97a26f	-0.074040286
146	0xbd99a7b2	-0.075026885
147	0xbd430f6a	-0.047622122
148	0xbc360cc0	-0.011111438
149	0xbdcdab42	-0.100424305
150	0x3c738c8d	0.014865053
151	0xbc4c7481	-0.012478949
152	0x3dae1ddf	0.08501791
153	0x3df990ae	0.121857986
154	0xbdb4719e	-0.08810733
155	0x3d5c2e78	0.053755254
156	0xbdfb2e12	-0.122646466
157	0x3d46d21e	0.048540227
158	0x3ce3cfa7	0.027808977
159	0x3caf89b7	0.021427972
160	0xbdb9e140	-0.09076166
161	0xbc8b9cbc	-0.01704251
162	0x3d8a7de8	0.06762296
163	0xbd843047	-0.06454521
164	0xbc5731fd	-0.013134477
165	0x3d682069	0.056671534
166	0x3dc06cb3	0.09395733
167	0x3bb19b93	0.005420157
168	0x3ca83e54	0.020537533
169	0x3dd7a280	0.10529041
170	0x3cf7e9ec	0.03026291
171	0xbd4b38ab	-0.04961459
172	0x3dfe04b4	0.12403241
173	0xbbd4e222	-0.0064966837
174	0x3db9d34f	0.09073507
175	0xbd03365b	-0.03203426
176	0xbdd48cd0	-0.1037842
177	0x3db5e4a6	0.08881502
178	0x3cebf87f	0.028805016
179	0xbdc304f9	-0.09522433
180	0xbd85fc26	-0.06542234
181	0xbca24fe0	-0.019813478
182	0x3da6b210	0.081394315
183	0xbdc262bf	-0.094914906
184	0x3df0935d	0.11746857
185	0x3d97fce4	0.07421282
186	0x3ccdf1b4	0.025139667
187	0xbdf982de	-0.12183164
188	0xbccfc581	-0.025362732
189	0xbd779d37	-0.060452666
190	0x3dd68e7b	0.10476395
191	0xbc9eb365	-0.019372651
192	0xbd9f2aab	-0.0777181
193	0x3db8dc82	0.090264335
194	0xbdde4646	-0.10853247
195	0x3d8063b8	0.0626902
196	0x3d32cc3c	0.043651804
197	0x3db752fe	0.089513764
198	0x3dc6e8e8	0.09712392
199	0x3d4fd9d8	0.05074486
200	0xbc0ba4e4	-0.0085232
201	0x3cb01e00	0.02149868
202	0x3ce615c4	0.02808655
203	0x3caa9708	0.02082397
204	0x3d12b1bb	0.03581403
205	0x3dc76910	0.09736836
206	0xbdb96ef2	-0.09054364
207	0x3bb99373	0.0056633293
208	0x3d70419d	0.058656324
209	0xbdf457ef	-0.119308345
210	0xbdd0871a	-0.101820186
211	0x3cbfb0cc	0.023399733
212	0xbcfd7945	-0.030941615
213	0xbde63ea2	-0.11242415
214	0x3db637aa	0.08897336
215	0x3c1087dd	0.008821455
216	0x3c0402e3	0.008057329
217	0x3dc52eda	0.09628077
218	0x3d6c8a7d	0.05774926
219	0x3da3afdf	0.07992529
220	0xbdf91975	-0.12163059
221	0x3d95ecac	0.07320532
222	0x3d62ba14	0.05535324
223	0xbce5351c	-0.027979426
224	0xbd2d96d5	-0.042380173
225	0xbdfe003f	-0.12402391
226	0xbd357c28	-0.044307858
227	0xbd53759d	-0.051625837
228	0xbc8ec523	-0.017427986
229	0x3d0d99ec	0.03457062
230	0xbdfbb918	-0.12291163
231	0xbb5f7982	-0.0034099524
232	0xbd957e95	-0.07299534
233	0xbd779a88	-0.060450107
234	0x3d104083	0.035217773
235	0xbde5eeeb	-0.112272106
236	0x3d4411aa	0.04786841
237	0xbde34c52	-0.11098541
238	0xbdf9029b	-0.121587
239	0x3d8f4cf1	0.06997097
240	0xbd2145b0	-0.0393731
241	0x3db0c64f	0.08631574
242	0x3c8e325b	0.017357996
243	0xbd9c744a	-0.07639368
244	0x3cbe0527	0.023195816
245	0x3df86696	0.12128942
246	0x3dc9bb79	0.09850211
247	0x3dad7ede	0.084714636
248	0x3bedbd45	0.0072552287
249	0xbd88f422	-0.0668719
250	0xbb60fb3d	-0.0034329437
251	0xbc4cef22	-0.012508186
252	0x3d9eb621	0.07749582
253	0x3c77a97d	0.015116093
254	0x3d9854e8	0.074380696
255	0xbdfa633e	-0.1222596

fc2.bias f4 [64]
0	0xbc772ba0	-0.015086085
1	0xbd5ba984	-0.05362846
2	0x3ddd924c	0.108189195
3	0x3df26050	0.118347764
4	0x3bdf49dd	0.006814225
5	0x3c8a4eaf	0.016883222
6	0x3de213e1	0.11038948
7	0xbb5f0c07	-0.0034034268
8	0xbca3c8c2	-0.01999319
9	0x3de04a4b	0.1095167
10	0xbde2c279	-0.11072249
11	0xbd5cf24e	-0.053942017
12	0x3d713de8	0.05889693
13	0x3c073904	0.00825334
14	0x3decc5b7	0.115611486
15	0x3d8c10d3	0.068391465
16	0x3c999371	0.018747063
17	0x3dc77651	0.09739364
18	0xbca161f8	-0.019700035
19	0x3c3da3b7	0.011574677
20	0x3dc5ab78	0.09651846
21	0xbd2e281e	-0.042518727
22	0x3d82f62d	0.063946106
23	0x3decd504	0.11564067
24	0x3d865d81	0.06560803
25	0xbdae4e25	-0.08510999
26	0x3c8ea3a0	0.017412007
27	0xbd9f19b3	-0.077685736
28	0x3d0ea8ff	0.034829136
29	0xbd642890	-0.055702746
30	0x3bc243b6	0.005928482
31	0xbd336764	-0.043799773
32	0xbdd5d248	-0.104404986
33	0x3d9dece5	0.077112
34	0xbd940ca6	-0.07228975
35	0x3bea7a4e	0.007155693
36	0x3d97b6e3	0.0740793
37	0x3daaaac6	0.08333354
38	0x3c828c7c	0.015936129
39	0x3d4de406	0.05026629
40	0xbdb14bdf	-0.086570494
41	0x3d6d8ddc	0.057996616
42	0xbbcc1060	-0.006227538
43	0xbd99d250	-0.07510817
44	0xbd0ef60c	-0.034902617
45	0xbdb6216d	-0.08893094
46	0x3c884e6d	0.016638959
47	0x3d17a23e	0.03701996
48	0x3be97e4a	0.0071256505
49	0xbcb5dca0	-0.022199929
50	0x3dee3d39	0.11632771
51	0xbdeb3e62	-0.11486508
52	0xbd306602	-0.043066032
53	0x3d69b2f6	0.057055436
54	0x3d3642ce	0.044497304
55	0x3cb65267	0.02225609
56	0xbdf1486b	-0.11781391
57	0xbd053e09	-0.032529864
58	0xbcf2ffb4	-0.029662944
59	0xbcd44b30	-0.025914758
60	0xbde7abbc	-0.113120526
61	0x3d76973d	0.060202826
62	0x3dfddde8	0.12395841
63	0x3cc9c360	0.024629295

fc3.weight f4 [6, 64]
0	0xbd9a3d9e	-0.07531284
1	0x3c558680	0.013032556
2	0xbd47d29d	-0.04878484
3	0x3d8f02d3	0.069829606
4	0x3d7df343	0.06199957
5	0x3cb1ad37	0.02168904
6	0xbd5270c3	-0.05137707
7	0x3dcc440a	0.09973915
8	0x3dbb8b9a	0.09157486
9	0x3cf5640e	0.029954936
10	0x3db8fec7	0.0903297
11	0x3d964fde	0.07339452
12	0x3dee1605	0.11625294
13	0xbdbd6da5	-0.09249429
14	0xbdf56f7c	-0.119841546
15	0xbd24a442	-0.04019571
16	0x3d01279c	0.031531915
17	0x3d2e8a29	0.04261223
18	0x3d08c65c	0.033392295
19	0xbd80d4b8	-0.06290573
20	0xbccaed80	-0.024771452
21	0x3da862bb	0.08221956
22	0xbd4b71d2	-0.049669094
23	0x3dda9a4c	0.10673961
24	0xbd4d8e1b	-0.05018435
25	0x3dc4f333	0.09616699
26	0x3c8dbde8	0.017302468
27	0xbc8414b2	-0.01612315
28	0x3d910cb3	0.070825
29	0x3cbca7da	0.023029257
30	0xbd91cdc1	-0.071193226
31	0xbdf4dd76	-0.11956303
32	0xbd94beef	-0.0726298
33	0x3dbe0a6d	0.09279332
34	0xbd4a0674	-0.04932256
35	0x3bd069b2	0.006360256
36	0xbdd99599	-0.106242366
37	0xbc21eff8	-0.009883873
38	0x3dabe5d9	0.08393449
39	0x3de71398	0.11283034
40	0x3c8735d9	0.016505169
41	0xbd8a638e	-0.0675727
42	0xbca37b98	-0.019956395
43	0x3d49b584	0.049245372
44	0xbd1ebc5a	-0.038753845
45	0x3df113c3	0.117713474
46	0x3d785eda	0.060637332
47	0x3decdc0d	0.11565409
48	0x3cf08022	0.029357973
49	0xbd78cda0	-0.060742974
50	0xbd9076f6	-0.0705394
51	0xbd9e0674	-0.077160746
52	0x3bd45a19	0.006480467
53	0xbba49d62	-0.0050236443
54	0xbde507f1	-0.11183155
55	0xbd225493	-0.039631438
56	0x3dc36c47	0.09542137
57	0x3d76fc74	0.06029935
58	0x3def1dd5	0.11675612
59	0x3cccf2c8	0.02501811
60	0xbc8cf098	-0.017204568
61	0xbc17c7d9	-0.009263956
62	0xba12b247	-0.00055960234
63	0xbdda6fcc	-0.10665855
64	0x3d187478	0.03722045
65	0x3cdcd178	0.026955351
66	0x3bb56ef9	0.0055369106
67	0xbc8ae239	-0.016953574
68	0xbd0a1c06	-0.03371813
69	0x3d01d058	0.031692833
70	0x3d7a0430	0.06103915
71	0x3d8d7cd7	0.06908577
72	0xbda8312a	-0.08212502
73	0xbdbd4329	-0.092413254
74	0x3d9825ed	0.07429109
75	0xbdaa25e3	-0.083080076
76	0xbc9f2a68	-0.0194294
77	0xbd83cc83	-0.06435492
78	0x3d3cfd1e	0.04613983
79	0xbdb0a7c2	-0.08625747
80	0x3d46c99e	0.04853212
81	0x3d8b86ee	0.06812845
82	0x3d731b58	0.05935225
83	0xbddf5962	-0.1090572
84	0xbdcdaa1b	-0.10042211
85	0xbd379568	-0.04482022
86	0xbd9f8495	-0.0778896
87	0xbd9d1738	-0.07670444
88	0xbda0ac5f	-0.07845377
89	0xbd0256b5	-0.03182097
90	0xbd748920	-0.059701085
91	0x3d48c9f8	0.049020737
92	0x3aa96e50	0.0012926552
93	0x3dc6a056	0.096985504
94	0xbd3d8abc	-0.046274886
95	0xbd47fe2c	-0.04882638
96	0x3db770b7	0.089570455
97	0x3dcc2149	0.09967286
98	0xbdc5de44	-0.096615344
99	0x3da73f55	0.081663765
100	0x3d9fbff7	0.07800286
101	0x3df71021	0.12063623
102	0xbcb8b4f0	-0.022547215
103	0x3d70c48c	0.05878119
104	0x3de932e1	0.113866575
105	0xbdc73258	-0.09726399
106	0xbd126aec	-0.0357465
107	0x3da79e44	0.08184484
108	0xbd8f0b69	-0.06984598
109	0xbbe688f3	-0.0070353686
110	0x3d3e9e82	0.046537884
111	0x3de774cb	0.11301573
112	0x3d91e7d0	0.07124293
113	0x3d23733c	0.039904818
114	0x3bd35fa8	0.006450612
115	0x3d9c9184	0.076449424
116	0x3dd7c589	0.10535724
117	0x3bea05da	0.007141811
118	0x3d7d3501	0.061818127
119	0x3df91839	0.12162823
120	0x3c220fc5	0.009891455
121	0x3c7d6a2a	0.015467206
122	0xbcda22bf	-0.026627896
123	0xbc95d038	-0.018287763
124	0xbd78fec8	-0.060789853
125	0x3d1bd754	0.03804715
126	0xbcc1685f	-0.023609338
127	0xbda86126	-0.082216546
128	0xbdac52ce	-0.08414231
129	0xbdbc9e54	-0.09209886
130	0xbd88071c	-0.06641981
131	0xbdf2e300	-0.11859703
132	0x3d6548fc	0.055977806
133	0xbddfe4c3	-0.10932305
134	0x3cb639c4	0.022244342
135	0x3d9227af	0.07136475
136	0x3d53a700	0.051672935
137	0x3dcc2b48	0.09969193
138	0x3df3b2c3	0.118993305
139	0x3d247bd6	0.04015716
140	0x3d9ab7ad	0.075545646
141	0x3cb0256d	0.021502221
142	0x3b28b2b2	0.0025741276
143	0x3cf2ed1d	0.02965408
144	0x3ce258c4	0.027630217
145	0xbdd6fddc	-0.104976386
146	0x3c003840	0.007825911
147	0x3d22d2d4	0.039751843
148	0xbd4e3308	-0.050341636
149	0xbd5d618c	-0.054048106
150	0x3dcd9273	0.100376986
151	0xbd344f7c	-0.044021115
152	0xbda408ab	-0.08009466
153	0x3d65bd07	0.056088474
154	0xbd09e0b0	-0.033661544
155	0x3d96e814	0.07368484
156	0x3cb293e6	0.02179904
157	0xbd9106c1	-0.07081366
158	0x3d645b23	0.055750977
159	0x3dd3fce2	0.10350968
160	0x3dcdf375	0.10056201
161	0xbda2bbb9	-0.079459615
162	0xbca0f858	-0.01964967
163	0x3da8bcc1	0.08239127
164	0xbd806630	-0.06269491
165	0x3d5f0852	0.054451294
166	0x3da65170	0.08121002
167	0xbd545880	-0.051842213
168	0xbd045119	-0.032303903
169	0xbdc46208	-0.095890105
170	0x3d40e8b0	0.047096908
171	0x3de915b6	0.11381094
172	0x3c9049a0	0.017613232
173	0xbd5afd32	-0.053464122
174	0xbd855798	-0.06510848
175	0x3dba490e	0.09095965
176	0x3dbbd775	0.091719545
177	0xbdaaf9b0	-0.08348405
178	0x3d0465cd	0.032323647
179	0xbc167db0	-0.00918524
180	0x3de1776f	0.11009108
181	0x3d20c1b4	0.03924723
182	0xbb76ccf9	-0.0037658794
183	0xbd8ce5d7	-0.06879776
184	0x3dc43fdb	0.09582492
185	0xbddd7609	-0.10813529
186	0x3c0d1d29	0.008612909
187	0x3d13627c	0.035982594
188	0xbdc62582	-0.09675123
189	0xbd189f45	-0.037261266
190	0x3cbd2868	0.023090556
191	0xbdd35ab8	-0.103200376
192	0x3df5e224	0.120060235
193	0x3d0f18f8	0.03493592
194	0x3d2dea58	0.042459816
195	0xbdf7faaf	-0.12108361
196	0xbd575414	-0.052570418
197	0x3c38db90	0.0112828165
198	0x3dc3fa0f	0.09569179
199	0xbd07e32f	-0.033175644
200	0xbde2c182	-0.11072065
201	0xbce9c07b	-0.028534165
202	0xbd848588	-0.064707816
203	0xbde4f14c	-0.11178836
204	0xbd62f611	-0.05541045
205	0xbd5f415b	-0.054505687
206	0x3def744d	0.116921045
207	0x3cf6c83a	0.030124772
208	0xbdf7513a	-0.120760396
209	0xbd4ac942	-0.04950834
210	0x3dab151c	0.08353636
211	0x3d176de0	0.03697002
212	0xbdb8da79	-0.09026045
213	0xbd91cea5	-0.071194924
214	0xbdb91b17	-0.0903837
215	0xbbc4c160	-0.0060044974
216	0x3deb007f	0.11474704
217	0x3c0997e8	0.008398034
218	0x3debfbda	0.11522646
219	0x3d0693ca	0.032855786
220	0x3d6b508d	0.057449866
221	0xbd9ff13c	-0.07809684
222	0x3c599668	0.013280489
223	0x3d277b54	0.0408891
224	0x3dca12ce	0.09866868
225	0x3df807cb	0.121108614
226	0x3df45028	0.11929351
227	0x3dbb064e	0.09132062
228	0x3d9a135e	0.07523225
229	0xbca1f0d8	-0.019768164
230	0xbdb1b2be	-0.086766705
231	0x3cd5897a	0.02606653
232	0x3d1549eb	0.036447447
233	0x3c7e7e70	0.015533075
234	0x3df5fc1a	0.12010975
235	0x3d92a256	0.071598694
236	0xbde54828	-0.11195403
237	0xbd8502b3	-0.064946555
238	0xbc7b8a4c	-0.015352797
239	0x3dabc570	0.083872676
240	0x3dc5da77	0.096608095
241	0x3dc08b3e	0.09401558
242	0x3be46506	0.0069700507
243	0xbd08da94	-0.033411577
244	0x3dd46857	0.10371464
245	0xbd75f427	-0.060047295
246	0x3ddff155	0.10934702
247	0x3d9a4b0f	0.075338475
248	0x3b765601	0.0037587883
249	0x3d156c8e	0.03648048
250	0x3c20c478	0.009812467
251	0x3b27fcc0	0.0025632828
252	0xbc43c760	-0.01194939
253	0xbd03f4ea	-0.03221599
254	0xbc82ee75	-0.015982846
255	0xbdf437a2	-0.119246736

fc3.bias f4 [6]
0	0x3d5bfbe0	0.053707004
1	0xbd12577e	-0.03572797
2	0xbc7184e1	-0.014741153
3	0xbdf3bd7f	-0.11901378
4	0x3d11457f	0.035466667
5	0xbd90d3a6	-0.07071619

fc1.weight f4 [64, 4]
0	0x3e8c320a	0.27381927
1	0x3db551e0	0.08853507
2	0xbe9e443e	-0.3091144
3	0xbe6e5818	-0.23275793
4	0xbec3f372	-0.38271672
5	0x3e3ec49c	0.18629688
6	0xbe512d20	-0.2042737
7	0xbef1987a	-0.47186643
8	0x3ea7de14	0.3278662
9	0x3eb2f620	0.34953403
10	0x3ea3b0f4	0.31970942
11	0x3e805e52	0.2507196
12	0x3ea63a08	0.3246615
13	0xbec62f10	-0.3870778
14	0x3c995fe0	0.018722475
15	0x3e2b7fac	0.16747922
16	0xbcf74740	-0.030185342
17	0xbe90cefc	-0.28282917
18	0xbdba83b0	-0.09107149
19	0xbe903962	-0.2816878
20	0xbee6e640	-0.45097542
21	0x3e19316c	0.14960259
22	0x3e94ab56	0.2903697
23	0x3ec3aa72	0.38215977
24	0xbe4bf6d8	-0.19918382
25	0x3e83109c	0.2559861
26	0xbea42020	-0.3205576
27	0xbd093bf0	-0.033504426
28	0x3e890c1e	0.26767057
29	0x3eada800	0.33917236
30	0xbe5c2088	-0.21496785
31	0x3eb5360e	0.35392803
32	0x3ecabdb6	0.39597863
33	0xbef3f71a	-0.4764946
34	0x3e9ac18a	0.30225784
35	0xbd15f540	-0.03661084
36	0x3e1ea348	0.15491974
37	0x3e942570	0.28934813
38	0x3d1a3790	0.037650645
39	0xbde4d930	-0.11174238
40	0xbefc4706	-0.49272937
41	0xbe674d28	-0.22588027
42	0xbeb1d034	-0.3472916
43	0x3e22ec84	0.15910536
44	0xbe9c26fa	-0.30498487
45	0xbd75d6c0	-0.060019255
46	0xbe523460	-0.20527792
47	0xbd8bb748	-0.068220675
48	0x3d911978	0.07084936
49	0xbefc1326	-0.4923336
50	0x3ecad69c	0.3961686
51	0x3e1be0fc	0.15222543
52	0x3ecaa1ce	0.39576572
53	0xbe5270ec	-0.20550889
54	0xbda7d320	-0.08194566
55	0xbe7b66fc	-0.24551004
56	0x3ebaac8c	0.36459768
57	0x3d9e2658	0.07722157
58	0xbe113ae0	-0.14182615
59	0x3eddb856	0.433047
60	0xbee535ee	-0.44767708
61	0x3e558ccc	0.20854491
62	0x3e1d2a44	0.15348154
63	0xbdce12b8	-0.10062164
64	0x3da95778	0.082686365
65	0x3e145cb8	0.14488494
66	0xbd6a1d20	-0.057156682
67	0xbdbf3dc8	-0.09337956
68	0x3ea793bc	0.327299
69	0xbe01dec8	-0.1268264
70	0xbeddee26	-0.43345755
71	0xbe122774	-0.14272863
72	0xbe9570d4	-0.29187644
73	0x3ed22c16	0.4104926
74	0xbdb12df8	-0.08651346
75	0xbd6ad710	-0.057334006
76	0x3ee21208	0.44154382
77	0xbebc5894	-0.3678633
78	0x3eee33d4	0.46523917
79	0xbd1a8800	-0.037727356
80	0x3e01e724	0.1268583
81	0xbe777198	-0.24164426
82	0xbef4d846	-0.47821254
83	0xbe914ca8	-0.28378797
84	0x3ea808bc	0.32819164
85	0x3e8034c2	0.2504025
86	0xbedd56ae	-0.43230194
87	0xbdea4778	-0.11439413
88	0xbec93244	-0.39296162
89	0x3e333750	0.17501569
90	0x3dc049e8	0.093890965
91	0xbdb1def0	-0.086851
92	0xbeb0340c	-0.3441471
93	0x3e832262	0.2561217
94	0xbe0989f8	-0.13431537
95	0xbe6b9d10	-0.23009133
96	0x3ea1284c	0.31476057
97	0x3dce9168	0.10086328
98	0x3e04f0b8	0.12982452
99	0x3eb45c14	0.352265
100	0xbd5aa230	-0.05337733
101	0x3ef88c4e	0.48544544
102	0xbe3f25e8	-0.18666804
103	0xbe923398	-0.28554988
104	0x3e3dd8e0	0.18539762
105	0xbe885f72	-0.2663532
106	0x3dafd280	0.085850716
107	0xbd51d800	-0.051231384
108	0xbc838d40	-0.016058564
109	0xbef7831a	-0.4834221
110	0xbda8e1f0	-0.08246219
111	0x3e716600	0.23574066
112	0x3e578f44	0.21050745
113	0xbd628670	-0.05530399
114	0xbe502594	-0.20326835
115	0x3d975fb8	0.07391304
116	0xbe113c1c	-0.14183086
117	0x3cbcd040	0.02304852
118	0xbe0d7fc0	-0.13818264
119	0xbea8e074	-0.32983744
120	0x3e9064c0	0.28201866
121	0x3bbc2780	0.0057420135
122	0x3eff7c92	0.49899727
123	0xbeeb5856	-0.45965832
124	0xbebaa564	-0.36454308
125	0x3ec21810	0.37908983
126	0x3e849dc2	0.2590161
127	0xbd988ef8	-0.07449144
128	0xbe6fbddc	-0.2341227
129	0xbcf836c0	-0.030299544
130	0xbd1a4fd0	-0.03767377
131	0x3e1ad53c	0.15120405
132	0xbda01218	-0.07815951
133	0xbdf3b9c8	-0.11900669
134	0x3e03fa4c	0.1288845
135	0x3d309b30	0.04311675
136	0x3e4f070c	0.20217532
137	0xbecd33b6	-0.40078515
138	0xbe99da22	-0.30049235
139	0xbe8228ae	-0.2542166
140	0xbefe5ec2	-0.4968167
141	0x3ec479f4	0.38374293
142	0x3d85eac8	0.065389216
143	0x3ee81e9c	0.45335853
144	0xbea2d006	-0.31799334
145	0xbdfb7310	-0.12277806
146	0x3e9ca936	0.30597848
147	0xbdf28748	-0.11842209
148	0x3e9d78e0	0.30756283
149	0xbeae7bb2	-0.34078747
150	0xbed3321e	-0.41249174
151	0x3de7de50	0.113216996
152	0x3efd03d4	0.49416983
153	0xbecabeca	-0.39598686
154	0xbec678a4	-0.38763916
155	0xbea9889a	-0.3311203
156	0x3e921c42	0.28537184
157	0x3ec0793c	0.37592494
158	0xbd3cd420	-0.046100736
159	0x3ed0643c	0.40701473
160	0x3dd39d40	0.103327274
161	0xbe99d626	-0.30046195
162	0x3ec2e202	0.38063055
163	0x3eac119c	0.33607185
164	0x3cf2c0a0	0.029632866
165	0xbe017ebc	-0.12646002
166	0xbe3da608	-0.18520367
167	0x3ec7d160	0.39026928
168	0xbe63eecc	-0.22259063
169	0x3d0729e0	0.03299892
170	0xbe7b7ce0	-0.24559355
171	0x3eebcff0	0.4605708
172	0xbe61f3bc	-0.22065634
173	0xbe19789c	-0.14987415
174	0x3dc8bf90	0.09802163
175	0xbeb60ef4	-0.35558283
176	0x3d8f6b58	0.07002896
177	0xbefce5e8	-0.49394155
178	0xbe30a0e4	-0.17248875
179	0xbed28764	-0.4111892
180	0xbe78c9f4	-0.24295789
181	0x3ef13e1e	0.47117704
182	0xbe8ab7be	-0.2709331
183	0xbe5f7478	-0.21821773
184	0x3eb86f30	0.3602233
185	0x3e4c4074	0.19946462
186	0xbd44fb50	-0.048091233
187	0x3c006080	0.007835507
188	0x3ee54ae6	0.44783705
189	0x3ec7c76e	0.3901934
190	0x3ea13b5a	0.31490594
191	0x3e8ffc78	0.28122306
192	0x3e1bc2d0	0.15211034
193	0xbecf1230	-0.40443563
194	0xbee8784a	-0.45404273
195	0xbe6546e8	-0.2239033
196	0xbe72e71c	-0.23720974
197	0xbd165520	-0.036702275
198	0xbd86c558	-0.06580609
199	0x3e8c896e	0.274486
200	0x3ea78eec	0.32726228
201	0x3c7b4a80	0.015337586
202	0xbdcec6c0	-0.10096502
203	0xbd3754b0	-0.0447585
204	0x3e2a72e8	0.16645396
205	0x3ea54e56	0.32286328
206	0xbec4ee7a	-0.38463193
207	0x3ecfc2d6	0.40578336
208	0x3e911486	0.2833597
209	0xbee77614	-0.45207274
210	0xbed94646	-0.42436427
211	0xbee1ca66	-0.4409973
212	0xbef711d6	-0.48255795
213	0xbe893c86	-0.26803988
214	0xbd30a700	-0.043128014
215	0xbe9eb4c8	-0.309973
216	0xbe1223ac	-0.1427142
217	0xbc82e2c0	-0.015977263
218	0x3eda7256	0.42665356
219	0xbef42a82	-0.4768868
220	0x3ef84d36	0.48496407
221	0x3c3aeec0	0.0114094615
222	0x3ea411c8	0.32044816
223	0xbeadfa78	-0.33980155
224	0xbebe1ff8	-0.37133765
225	0x3e62e214	0.22156554
226	0xbe1ab4b8	-0.15108001
227	0xbea1aa20	-0.31575108
228	0x3e57e774	0.21084386
229	0xbefd74fe	-0.4950332
230	0x3d875588	0.06608111
231	0xbee97760	-0.45598888
232	0x3e18eed8	0.14934862
233	0x3ed88094	0.42285597
234	0x3de28b38	0.1106171
235	0x3eca7848	0.39544892
236	0x3e13a7e8	0.1441952
237	0x3c906ca0	0.017629921
238	0x3da34068	0.07971269
239	0x3eb0a602	0.34501654
240	0x3ecebd14	0.4037863
241	0x3d9fed98	0.07808989
242	0x3ed6b0bc	0.41931713
243	0x3e7f36c4	0.24923235
244	0xbec030ec	-0.37537324
245	0xbe5c24dc	-0.21498436
246	0xbee373fa	-0.4442442
247	0x3bc8fc00	0.0061335564
248	0xbe313f20	-0.17309237
249	0xbe377db4	-0.17919046
250	0xbd4fef70	-0.050765455
251	0xbea5267e	-0.3225593
252	0xbe06dc6c	-0.13170022
253	0x3e8536c6	0.2601835
254	0xbd41c7b0	-0.047309577
255	0x3df590b8	0.119904935

fc1.bias f4 [64]
0	0x3d9e88b0	0.07740915
1	0x3e290bec	0.16508454
2	0xbeed383e	-0.46331972
3	0x3ec0cd6c	0.37656724
4	0x3e6b5b5c	0.2298407
5	0xbd26a910	-0.040688574
6	0xbe51ec60	-0.20500326
7	0x3e5bafcc	0.2145378
8	0x3eb74a48	0.3579886
9	0xbdf74e88	-0.120755255
10	0xbedd3c3c	-0.43210018
11	0xbe9418f8	-0.289253
12	0xbeec170c	-0.46111333
13	0x3e080e5c	0.13286728
14	0xbe476dd4	-0.1947549
15	0xbec88ca6	-0.39169806
16	0x3e4b2230	0.1983726
17	0xbe29a4e8	-0.16566813
18	0x3de3e580	0.11127758
19	0x3eb6abc6	0.35677928
20	0x3c2aeec0	0.010432899
21	0x3eef044c	0.46682966
22	0xbe05971c	-0.13045925
23	0x3e1db074	0.15399343
24	0xbed43848	-0.4144919
25	0xbeab0b60	-0.33407116
26	0x3e43fee4	0.19140202
27	0x3e9ec15a	0.3100689
28	0xbef162ae	-0.471456
29	0x3ed0a304	0.4074937
30	0xbe4692a0	-0.1939187
31	0x3edb12c4	0.42787755
32	0x3ec06504	0.3757707
33	0x3d475780	0.04866743
34	0xbed363ec	-0.41287172
35	0x3e0f5a20	0.13999224
36	0xbea49350	-0.3214364
37	0x3e8a23a6	0.26980323
38	0xbed2981a	-0.4113167
39	0x3eb041e8	0.34425282
40	0x3d49a250	0.04922706
41	0xbec7b2ae	-0.3900351
42	0x3efe62ae	0.49684662
43	0x3ebc6854	0.36798346
44	0xbd7f6c20	-0.062358975
45	0xbec3ca54	-0.38240302
46	0x3e54f274	0.20795614
47	0x3eb7fbea	0.35934383
48	0x3e2320ac	0.15930432
49	0xbd14a680	-0.0362916
50	0x3ed62ce4	0.41831124
51	0xbe512af8	-0.20426548
52	0x3ea0445e	0.3130216
53	0xbe40d014	-0.18829376
54	0x3ece4bc2	0.40292174
55	0xbde482d0	-0.11157763
56	0xbe90fba0	-0.28316975
57	0x3d0f1300	0.03493023
58	0xbe630008	-0.2216798
59	0xbed8f94e	-0.42377704
60	0x3eaa83fa	0.33303815
61	0x3ea9c668	0.33159184
62	0x3eec9b5e	0.46212286
63	0xbeb54e96	-0.3541152

fc2.weight f4 [64, 64]
0	0xbd037690	-0.032095492
1	0x3c59b380	0.013287425
2	0xbd04983c	-0.032371745
3	0xbd577ef8	-0.05261132
4	0x3d1ae7f0	0.03781885
5	0xbd210914	-0.0393153
6	0x3c46d870	0.012136564
7	0xbd361e8c	-0.044462726
8	0xbd598fdc	-0.05311571
9	0xbdc402dc	-0.09570858
10	0xbcd42958	-0.02589862
11	0xbdaaa692	-0.08332552
12	0xbdc53926	-0.09630041
13	0x3d9a4a6a	0.075337246
14	0x3da57164	0.08078268
15	0x3d5960ac	0.05307071
16	0xbd9e494c	-0.07728824
17	0xbd2af8f0	-0.04174131
18	0xbcfca888	-0.03084208
19	0x3d84aaca	0.06477888
20	0x3d0b3cac	0.033993408
21	0xbdcbfe90	-0.09960663
22	0x3d2628f4	0.0405664
23	0x3cc9f2f0	0.024651974
24	0xbdaed41c	-0.085365504
25	0x3dd21f76	0.10259907
26	0x3c7b73a0	0.015347391
27	0x3c565390	0.013081446
28	0xbca01d40	-0.019545197
29	0x3dba4506	0.090951964
30	0xbda1b93a	-0.07896657
31	0xbc0c5d00	-0.008567095
32	0xbd7a0578	-0.06104037
33	0x3dc7d6ce	0.097577676
34	0xbda529c4	-0.08064607
35	0xbdb94800	-0.09046936
36	0x3bcac440	0.0061879456
37	0xbd12fde0	-0.035886645
38	0xb9d7d400	-0.00041165948
39	0xbd85dce8	-0.06536275
40	0x3c41f0f0	0.011837229
41	0xbce538f0	-0.027981251
42	0x3cce8418	0.025209472
43	0xbde52e40	-0.11190462
44	0xbb598280	-0.0033189356
45	0xbda9be32	-0.0828823
46	0xbdbc1052	-0.091828
47	0xbc6f0750	-0.014589146
48	0x3cad0188	0.021118894
49	0xbd9efcc2	-0.077630535
50	0xbc52e630	-0.012872264
51	0xbdf5e852	-0.12007202
52	0x3dde46ac	0.10853323
53	0xbd1f3618	-0.038869947
54	0xbd1451e0	-0.036210895
55	0x3d9f443e	0.07776688
56	0xbdd9eb7e	-0.1064062
57	0xbdf8a12c	-0.12140116
58	0xbccbb990	-0.024868757
59	0x3ce555f8	0.027995095
60	0x3da48344	0.080328494
61	0xbdc71f64	-0.09722784
62	0xbd852f4a	-0.0650316
63	0xbd7a6000	-0.06112671
64	0x3db7ceba	0.08974977
65	0xbdfa44f2	-0.122201815
66	0xbd9e2c8e	-0.07723342
67	0xbd233f6c	-0.039855406
68	0xbdc63c6c	-0.09679493
69	0x3d6608c8	0.05616072
70	0xbda2c19e	-0.07947086
71	0x3d848e6a	0.06472476
72	0x3d8be550	0.06830847
73	0x3db00fae	0.08596741
74	0x3c1154b0	0.008870289
75	0xbdd517ac	-0.10404906
76	0x3d2be180	0.0419631
77	0xbdd8d028	-0.10586578
78	0x3dcce8a2	0.10005309
79	0x3dd2b73c	0.102888554
80	0xbde0782a	-0.109604195
81	0xbd57fb9c	-0.052730188
82	0xbdac36c4	-0.08408883
83	0x3d47f040	0.048813105
84	0xbd1cdd50	-0.038296998
85	0x3d4ea9f0	0.050455034
86	0xbd2f701c	-0.042831525
87	0x3da77f56	0.08178584
88	0xbdda1794	-0.106490284
89	0xbdb1d83c	-0.086838216
90	0xbce04240	-0.02737534
91	0xbbf2afa0	-0.00740619
92	0x3c7548a0	0.014970928
93	0xbdb9ca8c	-0.09071836
94	0x3de5356e	0.111918315
95	0x3d9c00b2	0.0761732
96	0xbde13de4	-0.10998133
97	0x3b6658c0	0.0035148114
98	0x3cf8d910	0.030376941
99	0xbdac9e9e	-0.08428691
100	0xbdd414e0	-0.10355544
101	0xbcb824c0	-0.022478461
102	0xbcee1cf8	-0.029066548
103	0xbd245408	-0.0401192
104	0x3d195998	0.03743896
105	0xbd9e7c80	-0.0773859
106	0xbdb3bef2	-0.08776654
107	0xbc67c950	-0.014147118
108	0x3cf3b268	0.029748157
109	0xbda89122	-0.08230807
110	0xbd8e84c2	-0.06958915
111	0xbd9ed77e	-0.077559456
112	0xbd881fc8	-0.06646687
113	0x3df9ceda	0.12197657
114	0xbce68cf8	-0.028143391
115	0x3c9f8ad0	0.01947537
116	0x3c4db2d0	0.012554839
117	0x3da5ee88	0.08102137
118	0xbdaafa0a	-0.083484724
119	0xbd8b50b4	-0.06802502
120	0x3c8dc520	0.01730591
121	0x3dacbe72	0.08434762
122	0xbdfe074e	-0.12403737
123	0x394f0c00	0.00019745529
124	0xbd1d01ac	-0.038331673
125	0x3ce4bf10	0.027923137
126	0x3c9abe68	0.01888962
127	0x3d55b290	0.052172244
128	0x3df9fba8	0.12206203
129	0x3d9509c2	0.07277252
130	0x3db526cc	0.088452905
131	0xbd16a418	-0.036777586
132	0x3c1ad130	0.009449288
133	0x3dda54e0	0.1066072
134	0xbdb18a3a	-0.08668943
135	0xbc958f98	-0.018256947
136	0x3caf4f20	0.021400034
137	0x3cc11158	0.02356784
138	0x3ccc7718	0.024959132
139	0xbdd33568	-0.10312921
140	0xbde3d672	-0.111248866
141	0xbd8cc1d4	-0.06872907
142	0xbd94a692	-0.07258333
143	0xbc7b07c0	-0.015321672
144	0x3c7a3340	0.015271008
145	0xbd9554b4	-0.072915465
146	0xbd96d2e8	-0.07364446
147	0xbd3f9d74	-0.04678102
148	0xbc360cc0	-0.011111438
149	0xbdcaefce	-0.0990902
150	0x3c738280	0.014862657
151	0xbc382890	-0.01124014
152	0x3db0c4ee	0.08631311
153	0x3dfc5c2c	0.12322268
154	0xbdb476da	-0.08811732
155	0x3d5c2868	0.053749472
156	0xbdf8e03c	-0.12152144
157	0x3d45e4cc	0.0483139
158	0x3cede5b8	0.029040202
159	0x3cbac760	0.022800148
160	0xbdb9e8d0	-0.090776086
161	0xbc8b4430	-0.017000288
162	0x3d8a7de8	0.06762296
163	0xbd81b11a	-0.063326076
164	0xbc5b3090	-0.013378277
165	0x3d67ac84	0.056561008
166	0x3dc0a21e	0.094059214
167	0x3bdd2ae0	0.006749496
168	0x3ca8dd50	0.020613343
169	0x3dd7ae94	0.10531345
170	0x3cf8a2d0	0.030351073
171	0xbd4c2640	-0.049841166
172	0x3dfe04b4	0.12403241
173	0xbba7fee0	-0.005126819
174	0x3dbc84a0	0.09204984
175	0xbcfba530	-0.030718416
176	0xbdd48cd0	-0.1037842
177	0x3db5f5f0	0.088847995
178	0x3cf686a8	0.030093506
179	0xbdc04690	-0.09388459
180	0xbd85fc26	-0.06542234
181	0xbca24fe0	-0.019813478
182	0x3da7a8fc	0.08186528
183	0xbdbfccde	-0.09365247
184	0x3df26cf2	0.11837186
185	0x3d97fce4	0.07421282
186	0x3cd8e3e0	0.026475847
187	0xbdf6eabc	-0.12056491
188	0xbcc54800	-0.024082184
189	0xbd7829e4	-0.060586825
190	0x3dd617b6	0.10453741
191	0xbc937ec8	-0.01800479
192	0xbd9bf290	-0.076146245
193	0x3db9516a	0.090487316
194	0xbddabd3c	-0.10680625
195	0x3d848370	0.06470382
196	0x3d32cc3c	0.043651804
197	0x3dba1d3c	0.09087607
198	0x3dc75dea	0.097347096
199	0x3d56dc4c	0.052456185
200	0xbbd6c2a0	-0.006553963
201	0x3cbd0c10	0.02307704
202	0x3ce8bce0	0.028410375
203	0x3caa9708	0.02082397
204	0x3d1a30c8	0.037644178
205	0x3dcb0538	0.09913105
206	0xbdb5bf06	-0.088743255
207	0x3bc0f440	0.005888492
208	0x3d76a208	0.06021312
209	0xbdf10f6e	-0.11770521
210	0xbdce811c	-0.100832194
211	0x3ccf5c10	0.025312454
212	0xbcfbc870	-0.030735224
213	0xbde2fc02	-0.11083223
214	0x3db6ac6a	0.08919604
215	0x3c142fd0	0.0090446025
216	0x3c2178c0	0.009855449
217	0x3dc7dd18	0.09758967
218	0x3d748e84	0.059706226
219	0x3da6b330	0.08139646
220	0xbdf5b60a	-0.11997612
221	0x3d966174	0.073428065
222	0x3d69b304	0.05705549
223	0xbcdbbca8	-0.026823357
224	0xbd284ea0	-0.041090608
225	0xbdfb5134	-0.12271348
226	0xbd322390	-0.043490946
227	0xbd4de1e4	-0.050264254
228	0xbc8cef98	-0.017204091
229	0x3d149ec0	0.03628421
230	0xbdf845e2	-0.12122704
231	0xbadb0c80	-0.0016712099
232	0xbd91735a	-0.0710208
233	0xbd716ad4	-0.05893977
234	0x3d1633ac	0.036670372
235	0xbde579f0	-0.11204898
236	0x3d45dfd8	0.048309177
237	0xbde14428	-0.10999328
238	0xbdf586ea	-0.119886234
239	0x3d92e456	0.07172458
240	0xbd1f6a64	-0.03891982
241	0x3db366f8	0.08759874
242	0x3c9c7f28	0.019103602
243	0xbd992af8	-0.07478899
244	0x3cc78850	0.024356991
245	0x3df86696	0.12128942
246	0x3dccdd7a	0.10003181
247	0x3db10072	0.08642663
248	0x3bf506e0	0.007477626
249	0xbd8610f4	-0.06546202
250	0xbae29f80	-0.0017289966
251	0xbc2e3660	-0.010633081
252	0x3da272e4	0.0793207
253	0x3c7b0ae0	0.015322417
254	0x3d98c9d6	0.07460372
255	0xbdf7ee86	-0.121060416

fc2.bias f4 [64]
0	0xbc772ba0	-0.015086085
1	0xbd5ba984	-0.05362846
2	0x3de04cc6	0.10952143
3	0x3df65916	0.120287105
4	0x3b9b23e0	0.0047345012
5	0x3c8c1840	0.017101407
6	0x3de25420	0.11051202
7	0xbb5b5140	-0.0033465177
8	0xbca34ad8	-0.01993315
9	0x3de07866	0.10960464
10	0xbde4acb4	-0.11165753
11	0xbd57d1a4	-0.052690163
12	0x3d79000c	0.06079106
13	0x3c05ad10	0.008158937
14	0x3de8dad4	0.11369863
15	0x3d8c5786	0.06852631
16	0x3ca528c0	0.020161033
17	0x3dcb31dc	0.09921619
18	0xbca161f8	-0.019700035
19	0x3c414be0	0.011797875
20	0x3dcacff8	0.09902948
21	0xbd267450	-0.040638268
22	0x3d844b44	0.06459668
23	0x3decd504	0.11564067
24	0x3d848500	0.0647068
25	0xbdb2d85a	-0.08732672
26	0x3c8ea3a0	0.017412007
27	0xbd9eea02	-0.07759477
28	0x3d0f3988	0.034966975
29	0xbd646658	-0.055761665
30	0x3bc581e0	0.006027445
31	0xbd336764	-0.043799773
32	0xbdda4210	-0.10657132
33	0x3d9bfec6	0.076169536
34	0xbd940ca6	-0.07228975
35	0x3ba43400	0.0050110817
36	0x3d9442cc	0.07239303
37	0x3da59e10	0.08086789
38	0x3c8a6940	0.01689589
39	0x3d529f78	0.051421613
40	0xbdb41270	-0.08792579
41	0x3d6d8ddc	0.057996616
42	0xbbcc1060	-0.006227538
43	0xbd99d250	-0.07510817
44	0xbd11ead8	-0.035624355
45	0xbdb2bcc6	-0.08727412
46	0x3c958358	0.018251106
47	0x3d0ee708	0.034888297
48	0x3ba0b7a0	0.0049047023
49	0xbcb5dca0	-0.022199929
50	0x3dec60da	0.115419105
51	0xbdeb3e62	-0.11486508
52	0xbd396a40	-0.045267344
53	0x3d6b7814	0.057487562
54	0x3d32e7d0	0.043678105
55	0x3cbaaf78	0.022788748
56	0xbdf3c426	-0.11902647
57	0xbd0dc040	-0.034607172
58	0xbce278e8	-0.027645543
59	0xbcd44b30	-0.025914758
60	0xbde7abbc	-0.113120526
61	0x3d7b987c	0.061424717
62	0x3dfa0298	0.12207526
63	0x3cc9c360	0.024629295

fc3.weight f4 [6, 64]
0	0xbd9a3d9e	-0.07531284
1	0x3c558680	0.013032556
2	0xbd4f587c	-0.050621495
3	0x3d8e2502	0.069406524
4	0x3d7daf94	0.061935022
5	0x3cb01b38	0.021497354
6	0xbd5335e0	-0.05156505
7	0x3dcc8646	0.09986548
8	0x3dbaab4e	0.09114705
9	0x3cf47bb8	0.02984415
10	0x3dbb96e6	0.09159641
11	0x3d9695d0	0.07352793
12	0x3deec17a	0.116579965
13	0xbdbe2d86	-0.09286027
14	0xbdfa34f2	-0.1221713
15	0xbd2c348c	-0.0420423
16	0x3d028ce8	0.03187266
17	0x3d2e22fc	0.042513832
18	0x3d08c65c	0.033392295
19	0xbd80d4b8	-0.06290573
20	0xbcc89820	-0.024486601
21	0x3da6f224	0.081516534
22	0xbd4996b0	-0.049215972
23	0x3dda9a4c	0.10673961
24	0xbd4e2ccc	-0.05033569
25	0x3dc5303a	0.09628339
26	0x3c8dbde8	0.017302468
27	0xbc871fd0	-0.016494662
28	0x3d8d8492	0.069100514
29	0x3cbe8060	0.023254573
30	0xbd941c02	-0.072319046
31	0xbdf4dd76	-0.11956303
32	0xbd95152c	-0.07279429
33	0x3dbef2e0	0.093236685
34	0xbd4a0674	-0.04932256
35	0x3bc9ee20	0.00616242
36	0xbdda6222	-0.106632486
37	0xbc0f3ff0	-0.008743271
38	0x3dabc414	0.08387008
39	0x3de3f116	0.11129968
40	0x3c817f88	0.015807882
41	0xbd8a638e	-0.0675727
42	0xbca37b98	-0.019956395
43	0x3d49b584	0.049245372
44	0xbd1bf254	-0.0380729
45	0x3df1653e	0.117868885
46	0x3d7900a0	0.06079161
47	0x3ded6610	0.115917325
48	0x3cf1c010	0.029510528
49	0xbd78cda0	-0.060742974
50	0xbd8f9124	-0.07010105
51	0xbd9e0674	-0.077160746
52	0x3bcdf600	0.006285429
53	0xbba98540	-0.0051733553
54	0xbde4fdb6	-0.11181204
55	0xbd2a5a5c	-0.04159008
56	0x3dc408b6	0.09571974
57	0x3d79108c	0.060806796
58	0x3deecb82	0.1165991
59	0x3cccf2c8	0.02501811
60	0xbc8cf098	-0.017204568
61	0xbc0bda30	-0.008535907
62	0xbaa17b80	-0.0012320131
63	0xbdda6fcc	-0.10665855
64	0x3d187478	0.03722045
65	0x3cdcd178	0.026955351
66	0x3b908540	0.004410416
67	0xbc91d5c0	-0.01780212
68	0xbd120358	-0.03564772
69	0x3d01d058	0.031692833
70	0x3d791f50	0.060820878
71	0x3d8d5d6a	0.06902583
72	0xbda8fd40	-0.082514286
73	0xbdbdad06	-0.09261517
74	0x3d93ef24	0.07223347
75	0xbdab8a0e	-0.08375941
76	0xbcaee508	-0.021349445
77	0xbd847b9c	-0.06468889
78	0x3d35b6a0	0.044363618
79	0xbdb27656	-0.08713977
80	0x3d3ee8ac	0.046608612
81	0x3d87adaa	0.06624921
82	0x3d731b58	0.05935225
83	0xbddf5962	-0.1090572
84	0xbdd0838a	-0.10181339
85	0xbd3e4d4c	-0.046460435
86	0xbda2c886	-0.07948403
87	0xbd9d1738	-0.07670444
88	0xbda17536	-0.07883684
89	0xbd0a6d1c	-0.03379546
90	0xbd748920	-0.059701085
91	0x3d4871b4	0.04893656
92	0x39fe8c00	0.00048550963
93	0x3dc4e550	0.096140504
94	0xbd400758	-0.046882004
95	0xbd47fe2c	-0.04882638
96	0x3db3714c	0.08761844
97	0x3dcb0188	0.099124014
98	0xbdc5de44	-0.096615344
99	0x3da33e98	0.07970923
100	0x3d9bb1ce	0.07602273
101	0x3df2adce	0.11849557
102	0xbcc806f0	-0.02441737
103	0x3d6dc4f0	0.058049142
104	0x3de7e5d0	0.1132313
105	0xbdc73258	-0.09726399
106	0xbd126aec	-0.0357465
107	0x3da79e44	0.08184484
108	0xbd933d78	-0.071894586
109	0xbc129030	-0.00894551
110	0x3d3b2b78	0.045695752
111	0x3de349a4	0.1109803
112	0x3d8dc7f2	0.06922902
113	0x3d23733c	0.039904818
114	0x3bb67f80	0.0055693984
115	0x3d9c9184	0.076449424
116	0x3dd3d63c	0.10343596
117	0x3bd56080	0.006511748
118	0x3d7543dc	0.05987917
119	0x3df6ef30	0.1205734
120	0x3c01c600	0.007920742
121	0x3c5c03e0	0.013428658
122	0xbce91ec0	-0.028457046
123	0xbc95d038	-0.018287763
124	0xbd78fec8	-0.060789853
125	0x3d1496a0	0.03627646
126	0xbcd09ba8	-0.025464848
127	0xbda86126	-0.082216546
128	0xbdac52ce	-0.08414231
129	0xbdbc9e54	-0.09209886
130	0xbd8aa148	-0.06769043
131	0xbdf55f42	-0.119810596
132	0x3d5d3120	0.054001927
133	0xbde00882	-0.10939123
134	0x3cb16498	0.021654412
135	0x3d91fe84	0.07128623
136	0x3d52398c	0.051324412
137	0x3dcadefc	0.09905812
138	0x3def7f80	0.116942406
139	0x3d209a34	0.03920956
140	0x3d96bf22	0.073606744
141	0x3caab078	0.0208361
142	0x3a2cdb00	0.0006593913
143	0x3ce95578	0.028483137
144	0x3cd26ea8	0.02568753
145	0xbddaea98	-0.106892765
146	0x3c003840	0.007825911
147	0x3d22d2d4	0.039751843
148	0xbd547bc8	-0.05187586
149	0xbd6433bc	-0.0557134
150	0x3dca047e	0.09864138
151	0xbd344f7c	-0.044021115
152	0xbda5a5ca	-0.080882624
153	0x3d5d87f4	0.054084733
154	0xbd09e0b0	-0.033661544
155	0x3d966706	0.07343869
156	0x3ca8a1e8	0.020585015
157	0xbd930fcc	-0.071807474
158	0x3d612d40	0.054974794
159	0x3dd3fce2	0.10350968
160	0x3dc9e04a	0.09857233
161	0xbda40330	-0.080084205
162	0xbca0f858	-0.01964967
163	0x3da4a4b2	0.08039226
164	0xbd848c4e	-0.064720735
165	0x3d55d7b4	0.052207664
166	0x3da26bf4	0.07930747
167	0xbd582f00	-0.052779198
168	0xbd079d88	-0.033109218
169	0xbdc46208	-0.095890105
170	0x3d40e8b0	0.047096908
171	0x3de915b6	0.11381094
172	0x3c7f08d0	0.015566066
173	0xbd62ea94	-0.055399492
174	0xbd876630	-0.066112876
175	0x3db60fd4	0.08889738
176	0x3db7a8e8	0.08967763
177	0xbdaaf9b0	-0.08348405
178	0x3cfeaef8	0.031089291
179	0xbc167db0	-0.00918524
180	0x3ddd6f9e	0.10812305
181	0x3d1e5dc4	0.03866364
182	0xbbbc1060	-0.0057392567
183	0xbd8f7926	-0.07005529
184	0x3dc02a46	0.09383063
185	0xbde1a7f4	-0.11018363
186	0x3bdd2160	0.0067483634
187	0x3d13627c	0.035982594
188	0xbdc62582	-0.09675123
189	0xbd1fa794	-0.038978174
190	0x3cad5268	0.021157458
191	0xbdd35ab8	-0.103200376
192	0x3df5e224	0.120060235
193	0x3d0f18f8	0.03493592
194	0x3d289f50	0.041167557
195	0xbdf9c7cc	-0.12196311
196	0xbd5fc8fc	-0.054635033
197	0x3c38db90	0.0112828165
198	0x3dc32cd8	0.09530038
199	0xbd088dbc	-0.033338293
200	0xbde35586	-0.11100297
201	0xbced9408	-0.02900125
202	0xbd8911bc	-0.06692836
203	0xbde6a266	-0.11261444
204	0xbd6b55bc	-0.05745481
205	0xbd615f38	-0.05502245
206	0x3deb7230	0.11496389
207	0x3cee25b8	0.02907072
208	0xbdfb8212	-0.12280668
209	0xbd5302b0	-0.051516235
210	0x3dab151c	0.08353636
211	0x3d176de0	0.03697002
212	0xbdbc1c8e	-0.09185134
213	0xbd95746c	-0.07297596
214	0xbdbca264	-0.09210661
215	0xbbc4c160	-0.0060044974
216	0x3de9a32c	0.11408076
217	0x3bce61a0	0.006298259
218	0x3debfbda	0.11522646
219	0x3d0512d8	0.032488674
220	0x3d671924	0.05642046
221	0xbda1da44	-0.07902959
222	0x3c4948c0	0.012285411
223	0x3d277b54	0.0408891
224	0x3dc5cd5a	0.09658308
225	0x3df62c2a	0.120201424
226	0x3df45028	0.11929351
227	0x3db6be4a	0.089230135
228	0x3d95bac0	0.0731101
229	0xbcb5a910	-0.022175342
230	0xbdb5c5be	-0.08875607
231	0x3ccdb1b8	0.025109157
232	0x3d11c748	0.03559044
233	0x3c7e7e70	0.015533075
234	0x3df5fc1a	0.12010975
235	0x3d92a256	0.071598694
236	0xbde9baa2	-0.114125505
237	0xbd892fba	-0.06698556
238	0xbc85bdb8	-0.016325817
239	0x3da75902	0.08171274
240	0x3dc1757e	0.09446238
241	0x3dc08b3e	0.09401558
242	0x3bbcce20	0.0057618767
243	0xbd08da94	-0.033411577
244	0x3dd032d0	0.10165942
245	0xbd792c58	-0.060833305
246	0x3ddbb482	0.107277885
247	0x3d97ab90	0.0740577
248	0x3ad92c00	0.0016568899
249	0x3d0c8fc8	0.034316808
250	0x3c00b040	0.007854521
251	0x3b27fcc0	0.0025632828
252	0xbc43c760	-0.01194939
253	0xbd0c27e0	-0.034217715
254	0xbc9351b8	-0.017983302
255	0xbdf437a2	-0.119246736

fc3.bias f4 [6]
0	0x3d59b9fc	0.053155884
1	0xbd1a7384	-0.03770782
2	0xbc8932d8	-0.016747877
3	0xbdf80a5a	-0.121113494
4	0x3d090a84	0.033457294
5	0xbd951fb8	-0.072814405
