saved_models/dqn_best_model_episode_103.pt (torch, 87147 bytes, 24 tensors)

fc1.weight f4 [64, 4]
000000 5c 38 85 be a1 9d e0 bd 5d 76 cf 3e bc d4 66 be
       -0.2601956 -0.10967565 0.40519992 -0.22542089
000010 8b 63 17 be 2d ea 74 be bd f5 98 3e 1a 44 22 3e
       -0.14784066 -0.23917456 0.29874983 0.15846291
000020 b0 1d e9 3d 9b 48 d6 3e b3 9c a4 be 4e 50 c3 3d
       0.113826156 0.4185227 -0.32150802 0.09536801
000030 b2 c3 31 3d 72 64 93 be 08 8c ee be 42 c8 c4 be
       0.04339952 -0.2878757 -0.4659121 -0.38434035
000040 29 2b f7 3b da 17 66 be 34 e6 e1 3e 26 da 83 3d
       0.007542987 -0.22470036 0.44120944 0.06438093
000050 d3 9d 9c bd 8b 11 c4 3d ba 88 71 3e 7c 70 6a bd
       -0.0764729 0.095736586 0.23587313 -0.05723618
000060 5b 41 4f bd 98 63 e4 3c 88 ff 01 3e c0 69 4d be
       -0.050599437 0.027879521 0.12695134 -0.20059872
000070 76 43 ba 3d 77 c6 c6 be bf 4a 70 3d 66 4a fd be
       0.090948984 -0.38823292 0.058665033 -0.49470824
000080 bd 8c 8b 3e e2 ca 9a be 1c 9e c6 3e 5c a0 cb be
       0.27255812 -0.30232912 0.38792503 -0.39770782
000090 0e fd 95 be 98 5d 9e be d0 90 ae 3d a0 2b 28 bd
       -0.29294628 -0.3093078 0.085237145 -0.04105723
0000a0 5a d7 da 3e f7 88 d3 3e 52 24 f2 be f4 f8 c8 be
       0.42742425 0.41315433 -0.47293335 -0.39252436
0000b0 2d 16 25 3e 0c 9e b8 be 67 07 d6 be 2e c5 89 3e
       0.1612174 -0.3605808 -0.41802523 0.2690825
0000c0 f1 4f 1c be cc 5e 95 3e 04 f8 76 bd 11 68 94 3e
       -0.1526487 0.29173887 -0.06029512 0.28985646
0000d0 9a 35 d4 3e 42 18 fd 3e 28 ab f1 be 74 8e f3 3e
       0.41447145 0.4943257 -0.47200894 0.4756962
0000e0 46 0b e5 3e 09 56 ce be 49 b1 d4 3e b3 01 01 3d
       0.44735163 -0.40300015 0.41541508 0.03149576
0000f0 e6 94 f5 3d 00 de 25 be a1 ce f3 be bf 9d 8f 3e
       0.11991291 -0.16197968 -0.47618583 0.28050038
000100 af 80 b0 3e eb af 85 be a4 5f a3 3d ed c0 b3 3b
       0.34473178 -0.26110777 0.079772264 0.005485645
000110 05 d8 e8 3e 97 5d 4f be 5a be 71 3e 0b f6 ce be
       0.4547731 -0.20250545 0.2360777 -0.4042209
000120 6e 4d ab 3d 41 b7 9e 3d 0f 24 de 3e 56 31 0b be
       0.08364378 0.07749797 0.43386886 -0.13593039
000130 16 52 83 bc 40 c0 d4 bd e1 9e 9f bd f3 36 97 3e
       -0.016030353 -0.10388231 -0.077939756 0.2953411
000140 4e 03 f0 bd 38 64 aa be 3d 95 87 3e 01 9e be bd
       -0.1171938 -0.33279586 0.26481047 -0.093074806
000150 ab a8 5b 3d 6c 78 d0 be b4 2f 4f be 5a 28 83 be
       0.05362765 -0.40716875 -0.20233041 -0.25616723
000160 ea 2c 95 be cc aa b8 be 68 ce de be 26 53 e4 be
       -0.2913583 -0.36067808 -0.4351685 -0.44594687
000170 2b a7 85 be 53 36 6d 3e f9 44 ed be 4b 0b 77 be
       -0.26104102 0.23165254 -0.46341684 -0.24125402
000180 81 c3 7f 3e 32 0e ba 3d 6c 74 d4 3e bc 63 9b 3e
       0.24976923 0.09084739 0.41495073 0.3034953
000190 95 2a ba 3e 7b ce 20 3d a3 2c 31 3e d0 86 df be
       0.36360613 0.039259415 0.17302184 -0.4365754
0001a0 52 c7 9c 3e e2 66 eb 3d 47 b2 de be 7d c6 a0 3e
       0.3062082 0.11494233 -0.4349539 0.31401435
0001b0 bc 1e 2f be 60 ae a2 3d 26 c7 d0 be ce dd e3 be
       -0.17101568 0.07943416 -0.40776938 -0.4450516
0001c0 38 5d 22 be cc 24 4f be dc 03 1e 3e 40 b5 51 be
       -0.15855873 -0.2022888 0.1543116 -0.20479298
0001d0 f4 ea 57 be 6c c7 d6 be 0f a9 d1 39 d9 e6 8c 3e
       -0.21085721 -0.41949022 0.00039989545 0.27519873
0001e0 0f 9b 27 bc 36 ec b6 be ff 63 93 3e 20 4b 18 be
       -0.01022984 -0.3572709 0.28787228 -0.14872408
0001f0 c5 63 8e 3e 49 50 96 bd fa 5c 10 be 7d eb 1f 3e
       0.27810493 -0.07339532 -0.14097968 0.15617175
000200 7c 2a ff 3d 4f 77 5a be bb 19 f4 bd 37 88 1b be
       0.12459275 -0.21334575 -0.1191897 -0.1518868
000210 ff 86 e4 be 6a 2f f4 3e 40 57 ee 3e c4 04 21 3e
       -0.44634244 0.47692424 0.4655094 0.15724474
000220 e9 bf 86 3e a5 76 e2 3d 4d d0 a8 be 11 17 da be
       0.2631829 0.11057786 -0.3297142 -0.42595723
000230 2a f0 91 be 2a 03 e1 3e db 11 55 be fe 2d 9b 3d
       -0.28503543 0.43947726 -0.20807593 0.07577132
000240 99 e3 99 be d6 e5 f6 be c6 e1 d0 3e dd e9 cf 3e
       -0.30056456 -0.48222226 0.4079725 0.4060811
000250 39 f9 68 be 1b 6f 79 be c2 ba ab bd f4 a8 79 3e
       -0.22751321 -0.2435879 -0.083852306 0.24380857
000260 ba 2c 7d 3d 1e 31 df 3e a7 08 98 3d 7a c1 ae 3e
       0.061810233 0.4359216 0.07423525 0.34131986
000270 cd 5d 18 be e6 41 47 3d 3f b0 c6 bd 50 98 be 3e
       -0.14879532 0.04864683 -0.09701585 0.3722558
000280 5a 42 e0 be 15 50 b9 be da bb d2 3d d4 8c 9d 3e
       -0.43800622 -0.3619391 0.10289736 0.30771506
000290 a6 38 b1 3e 9b 2c da bd 40 b3 cf be 34 c3 90 3d
       0.34613532 -0.10653039 -0.40566444 0.07068482
0002a0 9c 9e a4 be 5e dc ab be 80 27 82 bd c8 74 8a bd
       -0.3215226 -0.33566564 -0.0635519 -0.067605555
0002b0 e7 f9 34 bd 9f e7 b4 3d 1f 69 8c 3e 6a 07 2d 3e
       -0.044183638 0.08833241 0.2742395 0.1689736
0002c0 73 a3 b3 3d 80 a7 a5 3d a3 65 ed be 4b a8 b3 3e
       0.0877141 0.08088589 -0.46366605 0.35089335
0002d0 76 72 8a 3d 63 a6 1c 3e a5 fa c9 3e ff cd 90 be
       0.06760113 0.15297846 0.3944904 -0.28282163
0002e0 dc 78 fd 3e 45 91 2b bd b5 ad a2 3e 29 1d e5 bb
       0.4950627 -0.041886587 0.31773153 -0.0069920016
0002f0 4c 71 e8 3d bf e6 88 3e 70 02 e4 be bd b6 cf 3e
       0.11349735 0.26738545 -0.4453311 0.40569106
000300 11 5b 59 be c6 c2 a9 3e 12 46 3b 3e 76 6a d6 be
       -0.21226145 0.33156413 0.18288448 -0.41878098
000310 60 53 d7 3e 2d 37 04 3e 5e 92 f3 be 58 fc 97 3e
       0.42055798 0.12911673 -0.47572607 0.2968471
000320 14 af 2c 3e 00 d5 1b be f0 a9 85 3e ac ba fe be
       0.16863662 -0.15217972 0.26106215 -0.49751794
000330 ea 33 08 3e 18 74 95 3e ad a1 57 be 65 02 13 3c
       0.13301054 0.29190135 -0.21057768 0.008972739
000340 5d 3b 69 3d 36 91 89 3e 95 50 e8 3e d3 e1 fe 3e
       0.05694138 0.268686 0.4537398 0.49781665
000350 fa 80 a1 3e 34 49 70 be 3f 7c c8 be d0 88 cd be
       0.31543714 -0.23465425 -0.39157292 -0.40143442
000360 0c 92 df 3b 07 e7 b1 bd e9 ec ca be 76 c4 8d 3d
       0.00682283 -0.08686643 -0.39633873 0.069222376
000370 99 12 c5 3e cd dd b5 3e 67 57 5d 3e 58 69 f2 be
       0.3849075 0.35520783 0.21615373 -0.47345996
000380 48 d3 6f 3e 38 49 1b 3e d0 62 e1 be 61 a1 91 be
       0.23420441 0.1516465 -0.440207 -0.28443435
000390 0b 56 b2 3e 31 55 e1 3e d8 f9 6e be d4 df 32 3d
       0.3483127 0.44010308 -0.23337495 0.04367049
0003a0 86 9a e8 be 58 ef 72 be 64 bd 5e 3e a4 40 c9 be
       -0.45430392 -0.23724115 0.21751934 -0.3930713
0003b0 e6 54 0c 3c 1a 85 f1 3d 2f 68 d6 3e 1d b1 fd bd
       0.008565163 0.11792965 0.4187636 -0.12387297
0003c0 1e 6a 61 3c 77 81 62 3e 6f eb fa be ce 33 d7 3e
       0.01375821 0.221197 -0.49007747 0.4203171
0003d0 32 e7 d2 be c8 44 91 3e 4f d0 d4 3e 38 21 dc be
       -0.41192013 0.28372788 0.41565177 -0.42994094
0003e0 9f ce e5 3e eb a5 e9 3e 8b 43 ac be 9a 60 1a 3e
       0.44884202 0.45634398 -0.3364528 0.15075913
0003f0 c0 75 30 bd a8 da f7 3e be 26 e4 be dd 00 cc bd
       -0.043081045 0.4840901 -0.44560808 -0.09961102

fc1.bias f4 [64]
000000 d0 7c e6 3e 17 57 74 3e ba 35 c8 3d ad 92 d7 be
       0.450171 0.23861347 0.097758725 -0.42104092
000010 5b 62 dc be 5b b5 1a be 77 5c 29 3e 9f d2 64 be
       -0.4304379 -0.15108244 0.16539179 -0.2234597
000020 ad 3e f9 be c6 d0 ad be 6a ed dc bd 6e 49 5b bc
       -0.4868063 -0.33948344 -0.10787471 -0.013384206
000030 5d f4 a9 3e 59 f5 b1 3d 32 ed c1 bd 43 ec 46 be
       0.33194247 0.086893745 -0.094690695 -0.19426064
000040 28 8b 26 bc 49 00 a0 3e bd e5 98 3e 5a 92 19 3e
       -0.010165013 0.31250218 0.29862776 0.14997235
000050 4e 5b 34 be 44 be d1 be 42 12 d0 3e 3f 49 ee be
       -0.17612955 -0.40965474 0.4063893 -0.46540257
000060 f3 2b d8 3e 55 32 83 be 3d a0 ec 3e fc 65 ca be
       0.4222103 -0.25624338 0.46216002 -0.39530933
000070 30 2e 8d bd e5 3e e2 be 67 8c ea be e7 0e aa 3e
       -0.06893575 -0.4418861 -0.45810243 0.33214495
000080 8e ca be 3c d8 60 e6 be 28 f6 ae 3e b2 0e ad 3e
       0.023289945 -0.4499576 0.34172177 0.33800274
000090 4f b0 00 3c 1d e7 d1 3d 7c 7c 48 be 4c 69 c5 3d
       0.007854535 0.102491595 -0.19578737 0.096392244
0000a0 76 56 6d be b0 1f e3 be e0 40 b1 be 32 ce 24 3d
       -0.23177513 -0.44360113 -0.34619808 0.040235706
0000b0 4f 72 93 be 53 45 c1 3e 2a 41 98 be 6d ed 2b be
       -0.28798148 0.37748203 -0.29737216 -0.1678979
0000c0 e2 17 49 3e 84 3e 17 bd 01 b4 1d be a3 62 ce be
       0.19638017 -0.036924854 -0.15400697 -0.4030963
0000d0 6f 04 ce 3c 8e 01 97 be a9 e4 03 be ee 0c 1a 3e
       0.025148598 -0.29493374 -0.12880196 0.15043995
0000e0 db 85 1d be 45 c8 ca be 90 7d 92 be 28 a8 6e bd
       -0.15383093 -0.3960592 -0.28611422 -0.058265835
0000f0 34 a1 d9 be 20 32 ed 3d ea a7 26 be 13 51 8a 3e
       -0.425058 0.11581826 -0.16274992 0.2701498

fc2.weight f4 [64, 64]
000000 76 ef 90 3d a0 a2 26 bd 84 4a 15 bd 5a 2f f2 3d
       0.070769235 -0.040682435 -0.036448017 0.11825438
000010 9a cb d3 3d 7c d6 cc 3d 48 5a fe 3c 82 ff ea bd
       0.10341568 0.10001847 0.031048909 -0.114745155
000020 a4 54 75 bd 3a 58 fd 3d 18 92 b4 bc 98 9d f0 3d
       -0.059895173 0.123703435 -0.02204232 0.117488086
000030 9a bd ff bd d0 6b 93 bd f2 1b c4 3d bc 14 2f bd
       -0.124873355 -0.07198298 0.09575643 -0.042744383
000040 6c 50 5f bd 40 fe e0 bb d4 3e f9 bd f6 fb 82 3d
       -0.054520056 -0.0068662465 -0.12170187 0.06395714
000050 48 01 bd bd 4e a8 a1 bd 88 90 08 bd 34 33 3a bd
       -0.0922876 -0.0789343 -0.03334096 -0.045458987
000060 4a ae f9 bd b6 2b 9a bd b8 04 50 bd 10 ed de bc
       -0.12191446 -0.075278684 -0.05078575 -0.02721265
000070 1c be 9e bd 0e 8a bd 3d 48 99 92 bd 9e 5e 81 bd
       -0.07751104 0.092548475 -0.07158142 -0.06316875
000080 f6 36 c2 3d e2 59 c1 bd a0 ae 87 bd 94 34 1f 3d
       0.09483139 -0.09440972 -0.06625104 0.0388685
000090 e8 7e 9a bc cc fa af 3d ac fc e1 bd c2 6b ac 3d
       -0.018859342 0.085927576 -0.110345215 0.08418991
0000a0 50 c9 76 3d 40 74 0d bd e8 20 aa 3d f8 8a 2e bd
       0.06025058 -0.034534693 0.083070576 -0.042613
0000b0 34 a0 c2 bd 44 e8 fe 3d 34 73 e5 3d 60 bd e2 3d
       -0.095032126 0.12446645 0.11203614 0.11071277
0000c0 84 da 61 3d 78 77 f4 bc 5c 42 1d bd 40 7b fd 3b
       0.055140033 -0.029842123 -0.038393363 0.00773564
0000d0 30 eb b1 bc e4 a3 47 3d bc ba 41 bd 54 f2 23 bd
       -0.021718591 0.048740283 -0.047297224 -0.040026024
0000e0 c0 31 aa bd 3c 53 38 3d c0 e8 cc 3c fc 0d c2 3d
       -0.0831027 0.045001253 0.025013328 0.094753236
0000f0 de d6 e9 bd 90 d2 dd bd b4 e2 a1 bd 40 d4 81 bb
       -0.11417936 -0.10831177 -0.07904568 -0.0039620697
000100 a3 fb 50 3d e0 3f 32 3d bd 78 e1 bd 74 41 6e 3d
       0.05102123 0.043517947 -0.11009357 0.05816789
000110 44 1d 8e bd eb a4 8d 3d e9 09 65 3d a0 22 f7 bc
       -0.06939176 0.06916221 0.055917654 -0.030167878
000120 5e d6 2c bd 4a 1a 97 3d 28 98 43 3d 08 44 4b 3d
       -0.042196624 0.07378061 0.04775253 0.049625427
000130 29 1c e7 3d 4e 44 fd bd dc dd 7c 3c f6 fe dd bd
       0.11284668 -0.12366544 0.015433755 -0.108396456
000140 a2 ac c7 bc f3 94 bd bd cb 01 d1 bd 14 88 57 3d
       -0.02437431 -0.092569254 -0.1020542 0.05262001
000150 d4 00 bd bd 88 31 dc bc 2c 7e 8e 3d c2 98 83 3d
       -0.092286736 -0.026879087 0.06957659 0.064256206
000160 06 50 0f 3d fe 65 61 bc cf 2f 4e bd 80 25 06 bc
       0.034988426 -0.013757227 -0.050338563 -0.008187652
000170 0c 49 27 3d 64 74 54 bd 98 d6 fe 3c 4b c5 a1 bc
       0.040841147 -0.05186881 0.031108186 -0.019747397
000180 28 10 ca bd 53 10 5e bd 3e 1a f2 bc 5e 80 8a bd
       -0.09866363 -0.054214787 -0.029553529 -0.06762765
000190 00 89 f4 3b 20 27 9a 3d 80 56 f4 3d eb 9a ea 3b
       0.0074626207 0.07526994 0.11930561 0.007159581
0001a0 bc 55 52 bd 6f 6a 85 3c 08 80 d0 bd 87 9d b3 bd
       -0.051351294 0.016286103 -0.1018067 -0.0877028
0001b0 62 94 ec 3c a9 e1 19 bd bd 15 0d bd ba 4c d4 bb
       0.028879348 -0.037568722 -0.03444456 -0.006478873
0001c0 7c 23 9c 3d f6 35 3d bd ea 36 b2 ba 1d 9d 38 3c
       0.076239556 -0.04619404 -0.0013596688 0.0112679275
0001d0 54 5c 74 bd ad fe 56 bd f2 f4 97 3d ce c9 4b 3d
       -0.059658363 -0.05248897 0.074197665 0.049753003
0001e0 2b 8e 87 3d d6 7d f3 3d 00 1e f1 39 5f c4 9b bc
       0.06618913 0.11889236 0.00045989454 -0.019014535
0001f0 c9 7b 3d bd 11 f2 22 bd dc 69 d5 3c 46 dd dd 3d
       -0.04626063 -0.039781634 0.026051454 0.1083322
000200 b0 79 38 3c 40 f4 03 bd c0 6b 8d 3d e6 8f dc bd
       0.011259481 -0.032215357 0.06905317 -0.10769634
000210 ec 30 bf 3d e0 69 9b bb 96 10 f3 bd 1c 01 2c 3d
       0.09335503 -0.004742846 -0.11868398 0.041993245
000220 50 c4 bd bd 08 18 68 bd 00 d7 15 ba b0 8a 22 3d
       -0.09265959 -0.056663543 -0.00057159364 0.039683044
000230 74 c1 98 3d e0 b0 e4 bd 74 24 77 3d 00 8a f1 39
       0.07458773 -0.11166549 0.0603375 0.0004606992
000240 0c 1c 06 3d 40 ff ee bd 50 4d 7a 3c 14 ca 76 3d
       0.03274159 -0.11669779 0.015277222 0.06025131
000250 ce 6a aa 3d 6e b8 8a bd 8c 5a 69 bd 8e 45 aa 3d
       0.083211526 -0.067734584 -0.056971118 0.08314048
000260 c2 b8 a6 3d ce 8a ee bd d6 9d a2 bd 34 ba 64 3d
       0.081407085 -0.11647569 -0.07940261 0.05584164
000270 f0 54 34 bd 40 3f 4b 3d c0 e2 76 3b 16 f5 e8 bd
       -0.044026315 0.049620867 0.0037671775 -0.113748714
000280 a0 35 d5 bc 84 e4 66 bd b8 5d cf bd 00 08 71 3a
       -0.026026547 -0.056370273 -0.10125297 0.00091946125
000290 5e 87 b3 3d 1c 7c c6 bd 84 12 99 bd 74 e4 65 3d
       0.087660536 -0.09691641 -0.07474235 0.056126073
0002a0 60 4f 54 bc b8 25 b5 3d ec ea dc bd 28 32 b4 bd
       -0.012958378 0.08845085 -0.10786995 -0.08798629
0002b0 c8 f0 d1 3d b6 5c 98 bd 50 96 14 3c 96 ee e5 bd
       0.102510035 -0.07439558 0.00906904 -0.11227147
0002c0 f6 cf de bd c8 56 49 bd 40 7a 06 3b 90 89 e3 bc
       -0.10879509 -0.049155027 0.0020519644 -0.027775556
0002d0 32 83 da bd b2 00 9d 3d f0 d7 12 bd 06 03 82 bd
       -0.10669555 0.07666148 -0.035850465 -0.06348233
0002e0 8c 22 9a bd ae 47 d7 3d b8 3a e7 bc 00 59 d6 3b
       -0.075261205 0.10511719 -0.028226241 0.0065413713
0002f0 9a 9b 9e bd 10 48 83 3c 44 03 5c 3d 64 c8 07 bd
       -0.077445224 0.016025573 0.05371405 -0.03315009
000300 fe fd f8 bc 22 8b 60 3d 2a b3 c7 bc f4 23 41 bd
       -0.03039455 0.054820187 -0.024377424 -0.04715343
000310 10 fe a2 3b cc 3d fe 3d 9a 6c ef bc 30 7b 36 3d
       0.0049741343 0.124141306 -0.02922659 0.044551075
000320 85 76 b3 3d e8 c7 f3 3c 5f 60 dc 3c 49 d4 02 3d
       0.0876284 0.029758409 0.026901422 0.031940732
000330 02 1e b4 bd 5b 97 c7 3d 06 8b b8 bd cb 39 d3 bc
       -0.08794786 0.09745666 -0.090108916 -0.025784394
000340 9f 4f 93 bd 92 fa c8 bd cb 75 17 bd a3 81 b0 bc
       -0.07192921 -0.098134175 -0.03697757 -0.02154619
000350 58 5e d5 3d 66 67 89 3d a0 3e 0c bc fe c2 bb 3b
       0.10418385 0.06709175 -0.008559853 0.005730032
000360 e6 84 95 3c 89 dc 89 bd 5c 44 2a bc a0 a4 ec 3b
       0.018251847 -0.06731517 -0.010392275 0.0072217733
000370 90 51 fb bd b4 8f 34 bd 1c 40 59 3d cf b2 0f bd
       -0.12271416 -0.04408236 0.053039655 -0.035082635
000380 cf 81 f7 bd a1 01 bc 3d e5 45 bd bd 49 bc 81 3c
       -0.12085306 0.09179998 -0.09241847 0.015836852
000390 24 99 3c bd 79 e4 83 3d e1 50 a3 bd 62 e6 ff 3d
       -0.046044484 0.06440062 -0.07974411 0.12495114
0003a0 4f 54 b3 3d c5 b6 c6 bd 1a e2 aa bd 7a 5e cc bc
       0.08756315 -0.09702829 -0.08343907 -0.024947394
0003b0 30 56 bd 3d f2 9c b9 bd 7b 74 cb bd 55 b2 13 bd
       0.092449546 -0.09063138 -0.09934326 -0.036058743
0003c0 d3 03 55 3c 4c b8 b4 39 58 36 fe bc 5c d0 84 bd
       0.0130014 0.00034469587 -0.031031772 -0.06485054
0003d0 0f ae b5 3d 76 6a a0 3d 63 02 8f bd f4 f7 55 3d
       0.0887109 0.07832806 -0.06982877 0.05223842
0003e0 5a db f2 38 00 45 d1 3d 78 5d 5b bd 91 ef c6 3d
       0.00011580317 0.10218239 -0.053555936 0.097136624
0003f0 47 77 32 bd 7c 06 82 3d ae 9f f4 3d 13 5d 11 3d
       -0.043570783 0.06348893 0.11944519 0.035489153

fc2.bias f4 [64]
000000 b8 f9 58 bd 29 2c 8f 3d e8 2d 5d bd 69 16 9a bd
       -0.052972525 0.06990845 -0.053998858 -0.07523806
000010 80 df 97 3c fa e9 f4 3d df 0e ce bd 59 20 a0 3c
       0.01853919 0.1195869 -0.1006143 0.019546675
000020 12 11 9f bd d8 11 88 3b 6e ed 0a 3d da fa c5 bd
       -0.07766928 0.0041525178 0.033917837 -0.09666987
000030 c6 cc b5 3d 81 83 c6 3c 4d bb c2 3d d1 19 60 bd
       0.08876948 0.024232628 0.09508381 -0.05471212
000040 51 f0 4b bc 73 dc c2 bd 19 5f b4 3c 62 02 c6 bc
       -0.012447433 -0.095147036 0.022018002 -0.024171058
000050 0d e5 76 bc c8 67 02 3d 3f 41 80 3d 70 bb 4f 3b
       -0.015069258 0.031837255 0.06262445 0.0031697415
000060 d1 d5 fe 3d a1 48 2b bc df 3c b6 3d b1 4a de 3d
       0.12443126 -0.010454328 0.08898329 0.1085409
000070 ca 38 f6 bd fd 93 a9 bd e6 3d d3 bd 75 98 f8 3d
       -0.120225504 -0.0828018 -0.103145406 0.12138454
000080 56 4b f4 bd f2 3f af 3d d7 fe 35 3c 3f 25 ef bd
       -0.11928432 0.085571185 0.011108122 -0.11677026
000090 8d f5 aa bd e5 f9 f2 3d 4f e8 74 3d 32 08 0d bd
       -0.08347616 0.1186407 0.05979186 -0.034431644
0000a0 43 9f 35 bd db ff 10 3d 2a ad 97 3d a4 ba f9 bd
       -0.044341337 0.035400253 0.07406075 -0.12193802
0000b0 b1 1c 2e 3d 5e c4 c1 bd 81 f1 76 3d 40 da 7c bc
       0.04250783 -0.09461282 0.06028891 -0.015432894
0000c0 42 39 d2 3d ca 3b e7 bd dd 57 d4 3c c9 cb 42 bd
       0.10264827 -0.11290701 0.025920803 -0.047557626
0000d0 33 8e ef bd 3a 1a 9c bd a2 a7 8a bd e2 3c 0d 3d
       -0.11697044 -0.0762219 -0.06770255 0.03448189
0000e0 28 27 9c 3d 99 68 e4 3d 47 80 b6 bc f1 74 fd bb
       0.07624656 0.11152763 -0.022277964 -0.007734888
0000f0 d6 0d 61 bd 74 02 c9 bd 06 2c 84 3d 2e af 1f bb
       -0.054944836 -0.09814921 0.06453709 -0.002436589

fc3.weight f4 [6, 64]
000000 78 28 b9 3c d5 9a b4 3d d8 37 9d bc d8 27 a2 bd
       0.022602305 0.08818594 -0.019191667 -0.07917756
000010 de 26 ae bd 57 50 94 3b 9e 1c 73 bd c7 22 86 bd
       -0.08503507 0.004526179 -0.059353463 -0.06549602
000020 6a 6b 47 bd f4 d2 ef bd 44 3d 8e bd 03 cb 5e 3d
       -0.048686422 -0.11710158 -0.06945279 0.054392826
000030 0a 11 0c 3d 04 5b fc bb bf f8 1c 3b d9 25 da bd
       0.034195937 -0.0077012796 0.0023951975 -0.1065175
000040 14 6c d5 3d 4c d1 88 3b c9 05 a3 3d b6 fa ef bd
       0.10421005 0.0041753408 0.07960088 -0.11717741
000050 29 68 a0 3d c5 11 d3 3d 97 ab e7 3d 07 b8 29 bd
       0.07832367 0.10306124 0.11312025 -0.041435268
000060 44 99 e3 bd e0 08 a9 bd 32 f6 81 bd 83 71 fa 3d
       -0.111132175 -0.08253646 -0.06345786 0.12228682
000070 a4 42 b7 3d 9e b2 c1 3d 28 41 eb 3c 8a d0 ec bc
       0.089482576 0.09457897 0.028717592 -0.028908033
000080 07 cb 05 bc cd b8 ab 3d df 60 b3 bd 71 4a 04 bd
       -0.008166081 0.08384857 -0.08758711 -0.032297555
000090 44 bf a4 bd f1 da cc bc 6a 98 85 3d c0 ad ac bd
       -0.080442935 -0.025006743 0.06523211 -0.08431578
0000a0 c3 d6 4d 3d 5b ba c7 3d b6 f0 d4 bd 51 bf 23 bc
       0.05025364 0.09752341 -0.103974745 -0.009994344
0000b0 a8 3f 6e bd f8 16 ce bd d1 13 0b 3d 1e 50 f1 3d
       -0.058166176 -0.10062975 0.033954445 0.11782859
0000c0 78 e7 96 bc 2c c3 75 bd 45 16 de bc 05 9f 04 bd
       -0.01842092 -0.060000584 -0.027110228 -0.032378215
0000d0 fd d7 11 bb 9c cf e1 3d f0 ba 24 3c 98 7b 84 3b
       -0.0022253983 0.110259265 0.010054335 0.004043054
0000e0 9a fb 2c 3d b5 f7 ca bc 10 5c fc bd d0 f4 fe 3d
       0.042232133 -0.024776319 -0.12322247 0.12449038
0000f0 c9 c6 dc bd 5f c0 8d 3d da 2a ad bc 94 29 a8 3d
       -0.10780103 0.069214575 -0.021138597 0.082110554
000100 b8 dc ff bc 85 62 05 bd c8 d9 9c bd 36 0e b2 3d
       -0.031233177 -0.03256466 -0.07658726 0.08694117
000110 82 ee f5 bd 20 27 96 bd 88 17 a0 3d ef 23 05 3d
       -0.120083824 -0.07331681 0.07816988 0.032504972
000120 8e fa f6 bc 35 60 80 3d bf bd c9 bc be e8 03 3d
       -0.03014877 0.0626835 -0.02462661 0.032204382
000130 92 df 9a bd cf 07 de 3d fa 4e ca 3d 48 a9 3e bd
       -0.07562174 0.10841333 0.09878345 -0.046548158
000140 f1 b3 ce 3d 55 d8 a6 bc 3b e0 0a bd 05 a7 e8 3d
       0.10092915 -0.020366827 -0.03390525 0.113599814
000150 59 e3 82 3d 55 28 24 bd 20 c7 49 bd e2 c9 e6 3d
       0.063910194 -0.040077526 -0.049262166 0.11268975
000160 e3 9f d3 3d ed c7 f6 bc 74 be da bc 71 da 91 bc
       0.1033323 -0.030124629 -0.026702143 -0.017804356
000170 6c de d3 bd cf 33 f2 bd 5a 3e 83 3d 06 5c d1 bd
       -0.10345158 -0.11826288 0.06408377 -0.1022263
000180 53 f1 7d 3d 40 ba c0 3d 08 5e 78 bd ac 9f cd ba
       0.061997723 0.09410524 -0.06063655 -0.0015687845
000190 6f 49 b0 3d d7 f0 a0 bd 64 9a 15 bd 1d a3 11 3d
       0.08607756 -0.078584366 -0.03652419 0.035555948
0001a0 82 9a 80 bc fa 1e 95 bd 41 a1 de bd 64 70 e4 3d
       -0.015698675 -0.07281299 -0.108706005 0.11154249
0001b0 19 21 b9 3d e1 46 ae 3c 14 60 a9 bd 2c 9e 2b bd
       0.09039516 0.021274032 -0.082702786 -0.04189889
0001c0 75 3f f4 3b c4 dd e9 3d c9 c6 8e bd c9 1a 5c 3b
       0.0074538537 0.114192516 -0.06971509 0.00335853
0001d0 96 5b f9 bd 29 33 16 bd b0 0d fd 3d f3 bf a2 bc
       -0.12175672 -0.036669884 0.12356126 -0.01986692
0001e0 e8 69 df 3b b3 95 0c 3d 6e b7 22 3d a9 2b f9 3d
       0.006818045 0.03432245 0.039725713 0.12166531
0001f0 40 5a b7 bd 5a 5e 64 bb 27 32 24 3d dc c6 63 3d
       -0.08952761 -0.0034846277 0.04008689 0.05560957
000200 28 6a b6 bd 9f 45 c6 bd bc 5c 50 3d d0 56 1a bd
       -0.089069664 -0.09681248 0.05086969 -0.037680447
000210 10 ba 61 3d c2 fa 12 bd 53 c8 ca 3d d1 fd 8a 3d
       0.055109084 -0.035883673 0.0990149 0.06786693
000220 f6 71 9a bd da b2 f1 bc 91 10 4b 3d 06 d8 b7 bc
       -0.075412676 -0.029504228 0.049576346 -0.022441875
000230 b1 8b 36 3d 39 90 66 bc 56 a4 f4 3d 99 52 f8 bd
       0.044566814 -0.014072471 0.11945407 -0.12125129
000240 7d a8 65 bd ce 53 70 3c fa 16 a9 3d c4 f4 a4 bd
       -0.056068886 0.014668418 0.082563356 -0.08054498
000250 ae ca 1c 3d 32 b3 16 bd 77 61 64 bc c9 70 93 bd
       0.038279228 -0.036791988 -0.013939253 -0.071992464
000260 39 6b b5 bd 50 72 8a bd 67 e1 20 3d 57 cb 53 3d
       -0.08858342 -0.06760085 0.03927746 0.05170759
000270 2a c1 8f bd aa 0d 18 bd 77 fd ba bb 5b bf cb 3d
       -0.07019265 -0.037122406 -0.005706485 0.099486075
000280 fc 22 9c bd 8f f4 99 3c 23 30 31 3c 01 52 3f bd
       -0.0762386 0.018793372 0.010814699 -0.046709064
000290 83 42 fa bd bb 6f fc bd cb 0b 08 3d 07 bc 07 3c
       -0.12219717 -0.123259984 0.03321437 0.008284575
0002a0 08 f9 69 3d 0d c6 cb bd 99 34 a6 3d 34 5e a0 bd
       0.05712226 -0.099498846 0.08115501 -0.07830468
0002b0 bf 00 76 3d ba bb d5 bd 05 2d c9 3a 28 85 1c bd
       0.060059305 -0.104361966 0.00153485 -0.038212925
0002c0 8a 94 08 3d 70 c1 4a bd 79 dd ce bd 5c 23 6b 3d
       0.033344783 -0.049500883 -0.10100836 0.05740677
0002d0 cb 74 6d 3d ba da a5 3d 50 e1 53 bd 31 0c 94 bd
       0.05797271 0.080983594 -0.051728547 -0.07228888
0002e0 61 d6 1a bd 62 c7 06 bd 19 6d 9c bd 64 15 8d 3d
       -0.037802104 -0.03290499 -0.07637996 0.068888456
0002f0 ba 79 dc bd a3 2e 27 bd e0 12 ea bd a7 6d 40 bd
       -0.10765405 -0.04081596 -0.11429381 -0.046979573
000300 28 3a ca bc eb bd bc bd de ae ef bd eb e5 c6 3d
       -0.024685934 -0.092159115 -0.11703275 0.09711822
000310 38 b9 c2 3c ce 68 d1 3d 04 76 b0 bd 6b 2c c8 39
       0.02376996 0.10225068 -0.0861626 0.00038180067
000320 ab fd d7 3d 7d c8 89 bd dc 09 8b 3c 16 18 d0 bd
       0.1054643 -0.06727693 0.016972475 -0.10160844
000330 37 e5 d1 3d 4b 61 85 3d 44 e5 5a bc a5 79 99 3d
       0.102487974 0.06512698 -0.013360325 0.07493905
000340 96 32 81 bd 34 f7 c3 3c 3f 6d 27 3d b0 7a 52 3d
       -0.063084766 0.023921587 0.04087567 0.051386535
000350 3b 4e 84 bc 0e da f5 3d e2 fc d4 bd 1e fe 5b bd
       -0.016150584 0.12004481 -0.10399796 -0.053709142
000360 91 41 fc 3c 3e 9b 74 bc 42 be 17 bd cf 74 e2 3d
       0.030792983 -0.014929591 -0.03704668 0.11057436
000370 10 35 c1 3c 84 a4 29 3d b1 af e3 bd d4 a0 9d 3d
       0.023584872 0.04141666 -0.11117495 0.07696691
000380 b6 95 bc bd a1 e2 da bd d5 6b 8a bd a4 25 8d bd
       -0.092082426 -0.10687757 -0.067588486 -0.06891945
000390 73 a9 95 3d a5 46 b7 3d 31 32 50 bd e2 93 7b 3d
       0.073077105 0.08949021 -0.050829116 0.06142033
0003a0 24 27 a6 bd e5 af bd 3d 37 06 bc bd 38 94 ca bd
       -0.08112934 0.09262065 -0.09180873 -0.09891552
0003b0 f0 6a 63 bd 97 8f 2a 3c 4e 30 e8 3c e0 1b 7e bd
       -0.055521905 0.010410211 0.028343346 -0.062038302
0003c0 c0 12 2f bb 10 af fa 3d b3 46 99 3c ec c8 c2 3c
       -0.0026714057 0.12240422 0.01871047 0.023777448
0003d0 38 32 4e bd 91 bc 9a bd 44 25 4a 3d 5d d7 13 3d
       -0.05034086 -0.075554974 0.049351946 0.03609406
0003e0 bb 7e 2b bd 1e 56 8d 3d 88 bf ab bd f0 47 7f bd
       -0.041868906 0.06901191 -0.08386141 -0.062324464
0003f0 54 4d be bd 79 91 60 bd 9a fc c0 bc c9 98 97 bb
       -0.09292093 -0.054826234 -0.02355795 -0.0046263677

fc3.bias f4 [6]
000000 75 c0 26 3d 54 1c 8e 3d 3b 46 69 3d 84 d8 ce 3d
       0.040710885 0.06938997 0.056951743 0.10099891
000010 16 d7 bc bc af 7b ee 3d
       -0.02305178 0.116446845

fc1.weight f4 [64, 4]
000000 e0 34 85 be 10 c5 e0 bd 1c 76 cf 3e 54 db 66 be
       -0.26016903 -0.10975087 0.40519798 -0.22544605
000010 44 c4 17 be 10 5f 75 be 74 c8 98 3e 9c d5 21 3e
       -0.14820963 -0.23962045 0.29840434 0.15804142
000020 c8 9e e7 3d de fb d5 3e e2 fc a4 be d8 fe c2 3d
       0.11309582 0.41793722 -0.32224184 0.09521264
000030 a0 9e 31 3d 72 64 93 be 08 8c ee be 42 c8 c4 be
       0.043364167 -0.2878757 -0.4659121 -0.38434035
000040 80 da 05 3c 48 84 65 be f0 35 e2 3e b8 fa 84 3d
       0.00816977 -0.22413743 0.44181776 0.06493133
000050 a0 c3 9a bd 90 f5 c5 3d 18 68 72 3e 00 c0 69 bd
       -0.07556844 0.09665978 0.23672521 -0.05706787
000060 00 97 4e bd 80 dd e7 3c 00 9f 01 3e 6c b1 4d be
       -0.050436974 0.028303862 0.1265831 -0.20087212
000070 08 c1 b9 3d 10 e4 c6 be 20 5f 6f 3d ce 5a fd be
       0.09070021 -0.38845873 0.058440328 -0.4948334
000080 20 c7 8b 3e 78 a9 9a be 4a d7 c6 3e 86 8a cb be
       0.27300358 -0.3020742 0.38836128 -0.39754122
000090 0e fd 95 be 98 5d 9e be d0 90 ae 3d a0 2b 28 bd
       -0.29294628 -0.3093078 0.085237145 -0.04105723
0000a0 06 05 db 3e 8a ba d3 3e 02 ea f1 be 10 bf c8 be
       0.4277727 0.41353256 -0.47248846 -0.3920827
0000b0 10 a6 24 3e 6a ba b8 be 4c 32 d6 be c6 fb 89 3e
       0.16078973 -0.36079723 -0.41835248 0.269499
0000c0 ec 07 1d be ca ff 94 3e 60 6e 79 bd 44 71 94 3e
       -0.15335053 0.29101402 -0.060896277 0.28992665
0000d0 de aa d4 3e f0 83 fd 3e 30 4b f1 be d8 c8 f3 3e
       0.4153661 0.49514723 -0.47127676 0.4761417
0000e0 1c 49 e5 3e fe 28 ce be aa e8 d4 3e 90 87 02 3d
       0.4478234 -0.4026565 0.4158376 0.031867564
0000f0 08 b5 f5 3d 68 07 26 be 8a 0c f4 be 04 58 8f 3e
       0.119974196 -0.16213763 -0.47665817 0.27996838
000100 7c 03 b0 3e 4c 2d 86 be 58 8b a1 3d 00 57 9c 3b
       0.34377658 -0.26206434 0.07887906 0.0047711134
000110 be 72 e8 3e a4 32 50 be a4 1e 71 3e 7c 33 cf be
       0.4540004 -0.20331818 0.23546845 -0.40468967
000120 48 c6 a9 3d 20 2e 9d 3d 10 bd dd 3e 9c 0b 0b be
       0.08289772 0.07674813 0.43308306 -0.13578647
000130 00 62 85 bc a0 8b d5 bd c8 38 a0 bd ec 0b 97 3e
       -0.016282082 -0.10427022 -0.0782333 0.29501283
000140 20 3e f0 bd 38 64 aa be ba 84 87 3e a8 e4 be bd
       -0.117305994 -0.33279586 0.2646845 -0.093209565
000150 00 d7 5b 3d 6c 78 d0 be 90 1d 4f be 5a 28 83 be
       0.053671837 -0.40716875 -0.20226121 -0.25616723
000160 ea 2c 95 be cc aa b8 be 68 ce de be 26 53 e4 be
       -0.2913583 -0.36067808 -0.4351685 -0.44594687
000170 40 5d 85 be d4 c9 6d 3e d0 2b ed be d0 20 77 be
       -0.26047707 0.23221523 -0.4632249 -0.2413361
000180 a4 a9 7f 3e c0 4a b9 3d 18 aa d4 3e b4 bc 9b 3e
       0.24967057 0.090474606 0.4153602 0.30417407
000190 be 6a ba 3e 80 df 21 3d d4 3c 31 3e 80 9a df be
       0.36409563 0.039519787 0.1730836 -0.43672562
0001a0 9a 40 9d 3e e8 4d ed 3d 72 47 de be 8a d0 a0 3e
       0.3071335 0.11587125 -0.43413883 0.31409103
0001b0 bc 1e 2f be 60 ae a2 3d 26 c7 d0 be ce dd e3 be
       -0.17101568 0.07943416 -0.40776938 -0.4450516
0001c0 38 5d 22 be cc 24 4f be dc 03 1e 3e 40 b5 51 be
       -0.15855873 -0.2022888 0.1543116 -0.20479298
0001d0 1c bd 57 be 6c c2 d6 be 00 8c 21 3a 2a ea 8c 3e
       -0.21068233 -0.41945207 0.0006162524 0.27522403
0001e0 80 bf 24 bc 2a f6 b6 be 68 7c 93 3e b8 18 18 be
       -0.010055423 -0.35734683 0.28805852 -0.1485318
0001f0 30 fe 8d 3e 58 dd 97 bd 48 1c 11 be 68 7d 1f 3e
       0.27732992 -0.07415265 -0.14170945 0.15575182
000200 1c 11 00 3e 04 0d 5a be 98 5c f3 bd 9c 57 1b be
       0.12506527 -0.21294028 -0.11882895 -0.15170139
000210 c8 35 e4 be 28 78 f4 3e 22 ae ee 3e 74 6e 21 3e
       -0.44572282 0.47747922 0.46617228 0.15764791
000220 ee 50 86 3e 88 23 e1 3d c2 31 a9 be 5a 43 da be
       0.2623362 0.10993105 -0.33045775 -0.4262951
000230 9e 78 91 be 5a 7c e1 3e d4 b2 54 be 18 4c 9c 3d
       -0.28412336 0.44040185 -0.20771343 0.07631701
000240 f2 c1 99 be ee a5 f6 be 50 f2 d0 3e 42 2a d0 3e
       -0.3003078 -0.4817347 0.4080987 0.4065724
000250 fc 05 69 be b0 b9 79 be 28 2a ac bd 7c 81 79 3e
       -0.22756189 -0.2438724 -0.08406478 0.243658
000260 88 76 80 3d 0a a5 df 3e 20 bd 99 3d 58 da ae 3e
       0.06272608 0.43680602 0.07506776 0.34150958
000270 c4 84 18 be 40 4a 46 3d b0 eb c6 bd 5c 85 be 3e
       -0.14894396 0.048410654 -0.097129226 0.3721112
000280 54 40 e0 be 42 6c b9 be 58 8c d2 3d 82 79 9d 3e
       -0.43799078 -0.36215407 0.10280675 0.30756766
000290 52 b9 b1 3e 60 29 d8 bd 5a 3c cf be a0 ea 91 3d
       0.347117 -0.10554767 -0.40475732 0.07124829
0002a0 9c 9e a4 be 5e dc ab be 80 27 82 bd c8 74 8a bd
       -0.3215226 -0.33566564 -0.0635519 -0.067605555
0002b0 b0 4a 38 bd 88 3a b3 3d 84 2e 8c 3e 7c 0d 2d 3e
       -0.044993103 0.08751398 0.2737924 0.16899675
0002c0 c0 08 b2 3d c8 01 a4 3d 06 bd ed be 76 aa b3 3e
       0.08693075 0.08008152 -0.46433276 0.3509099
0002d0 f8 31 8b 3d 3c cc 1c 3e 00 29 ca 3e d2 d0 90 be
       0.0679664 0.15312284 0.39484406 -0.28284317
0002e0 b4 f3 fc 3e 60 ca 2f bd b8 3a a2 3e 80 a1 f0 bb
       0.4940468 -0.04291761 0.31685424 -0.007343471
0002f0 10 20 ea 3d 60 5e 89 3e aa df e3 be 82 e3 cf 3e
       0.11431897 0.26829815 -0.4450658 0.40603262
000300 24 7c 58 be 54 35 aa 3e 7c a5 3b 3e 3a 5c d6 be
       -0.21141106 0.3324381 0.18324846 -0.41867238
000310 76 c9 d6 3e ec 23 03 3e e0 0f f4 be 4e 95 97 3e
       0.41950577 0.12806672 -0.47668362 0.29606098
000320 04 ae 2d 3e 50 d6 1a be 32 22 86 3e c4 9b fe be
       0.16960913 -0.15120816 0.26197964 -0.49728215
000330 50 30 07 3e c8 f1 94 3e 34 65 58 be 80 65 0c 3c
       0.13202024 0.29090714 -0.21132356 0.008569121
000340 f0 47 6d 3d 30 14 8a 3e fe c9 e8 3e 4e 40 ff 3e
       0.057929933 0.26968527 0.45466608 0.49853748
000350 7c 01 a2 3e 94 47 6f be fc 08 c8 be 10 5e cd be
       0.31641757 -0.23367149 -0.39069355 -0.40110826
000360 00 92 e5 3b 78 7e b1 bd bc cb ca be f8 49 8e 3d
       0.00700593 -0.086667 -0.39608562 0.06947702
000370 72 8d c5 3e b4 5d b6 3e f4 e2 5d 3e 4e 74 f2 be
       0.38584477 0.35618365 0.21668607 -0.47354358
000380 64 a6 70 3e 40 01 1c 3e fe fb e0 be 1e 8d 91 be
       0.23500973 0.15234852 -0.43942255 -0.28427976
000390 38 db b2 3e d6 da e1 3e ac fe 6d be 90 da 35 3d
       0.34932876 0.4411227 -0.23241681 0.04439789
0003a0 86 9a e8 be 58 ef 72 be 64 bd 5e 3e a4 40 c9 be
       -0.45430392 -0.23724115 0.21751934 -0.3930713
0003b0 00 14 0b 3c 88 95 f0 3d 06 c5 d6 3e 50 a1 fc bd
       0.008488655 0.11747271 0.41947192 -0.123354554
0003c0 80 24 71 3c f4 74 63 3e 20 7d fa be 56 70 d7 3e
       0.014718175 0.22212583 -0.48923588 0.42077893
0003d0 f6 6d d2 be b6 bf 91 3e 40 2e d5 3e c4 0a dc be
       -0.4109952 0.28466576 0.41636848 -0.42976964
0003e0 86 be e5 3e d6 76 e9 3e 4a 54 ac be 40 35 1a 3e
       0.4487192 0.45598477 -0.33658057 0.15059376
0003f0 d0 4f 2c bd d6 5f f8 3e 2c ac e3 be b8 b2 ca bd
       -0.042068303 0.48510617 -0.44467294 -0.09897369

fc1.bias f4 [64]
000000 04 76 e6 3e d0 e6 73 3e d8 e2 c6 3d e2 96 d7 be
       0.45011914 0.23818517 0.09711236 -0.42107302
000010 60 0c dc be 4c c5 19 be f8 aa 29 3e 58 0d 65 be
       -0.4297819 -0.15016669 0.16569126 -0.22368371
000020 da ff f8 be c6 d0 ad be a8 30 dc bd 80 49 5f bc
       -0.486327 -0.33948344 -0.10751468 -0.013628364
000030 14 9a a9 3e 70 d0 b3 3d 40 ec c0 bd 34 43 47 be
       0.33125365 0.08779991 -0.09420061 -0.1945923
000040 c0 4a 36 bc 9e 97 9f 3e be 86 98 3e f0 3c 19 3e
       -0.01112622 0.31170362 0.297903 0.14964652
000050 54 7c 34 be d4 ba d1 be 42 12 d0 3e 5e ff ed be
       -0.17625552 -0.4096285 0.4063893 -0.46483892
000060 38 26 d8 3e 68 ff 82 be 44 19 ed 3e fc 65 ca be
       0.4221666 -0.25585485 0.4630834 -0.39530933
000070 30 2e 8d bd 18 3a e2 be 84 74 ea be 2a a7 a9 3e
       -0.06893575 -0.44184947 -0.4579202 0.3313535
000080 00 93 c2 3c d0 0f e6 be 40 8e ae 3e 18 88 ad 3e
       0.023751736 -0.4493394 0.34092903 0.33892894
000090 c0 4a 08 3c 28 9e d1 3d 08 91 47 be 28 1d c5 3d
       0.008318603 0.10235244 -0.19488919 0.09624702
0000a0 c8 79 6d be aa 9e e2 be e0 40 b1 be 60 78 21 3d
       -0.23190987 -0.44261676 -0.34619808 0.03942144
0000b0 88 d8 93 be de 5a c1 3e d6 c7 98 be 70 03 2b be
       -0.28876138 0.3776464 -0.29839963 -0.1670053
0000c0 68 fb 49 3e 70 9a 1b bd c8 b3 1c be 3c e5 ce be
       0.1972481 -0.03798908 -0.15302956 -0.40409267
0000d0 80 47 d6 3c da 7f 96 be f0 99 03 be 28 0a 1b 3e
       0.02615714 -0.29394418 -0.12851691 0.15140593
0000e0 b0 b6 1c be a6 41 ca be 90 7d 92 be f0 30 6f bd
       -0.15304065 -0.3950321 -0.28611422 -0.05839628
0000f0 e0 22 d9 be 28 1b ef 3d 54 e9 26 be e4 d6 8a 3e
       -0.4240942 0.116751015 -0.16299945 0.27117074

fc2.weight f4 [64, 64]
000000 76 ef 90 3d a0 a2 26 bd 84 4a 15 bd 5a 2f f2 3d
       0.070769235 -0.040682435 -0.036448017 0.11825438
000010 9a cb d3 3d 7c d6 cc 3d 48 5a fe 3c 82 ff ea bd
       0.10341568 0.10001847 0.031048909 -0.114745155
000020 a4 54 75 bd 3a 58 fd 3d 18 92 b4 bc 98 9d f0 3d
       -0.059895173 0.123703435 -0.02204232 0.117488086
000030 9a bd ff bd d0 6b 93 bd f2 1b c4 3d bc 14 2f bd
       -0.124873355 -0.07198298 0.09575643 -0.042744383
000040 6c 50 5f bd 40 fe e0 bb d4 3e f9 bd f6 fb 82 3d
       -0.054520056 -0.0068662465 -0.12170187 0.06395714
000050 48 01 bd bd 4e a8 a1 bd 88 90 08 bd 34 33 3a bd
       -0.0922876 -0.0789343 -0.03334096 -0.045458987
000060 4a ae f9 bd b6 2b 9a bd b8 04 50 bd 10 ed de bc
       -0.12191446 -0.075278684 -0.05078575 -0.02721265
000070 1c be 9e bd 0e 8a bd 3d 48 99 92 bd 9e 5e 81 bd
       -0.07751104 0.092548475 -0.07158142 -0.06316875
000080 f6 36 c2 3d e2 59 c1 bd a0 ae 87 bd 94 34 1f 3d
       0.09483139 -0.09440972 -0.06625104 0.0388685
000090 e8 7e 9a bc cc fa af 3d ac fc e1 bd c2 6b ac 3d
       -0.018859342 0.085927576 -0.110345215 0.08418991
0000a0 50 c9 76 3d 40 74 0d bd e8 20 aa 3d f8 8a 2e bd
       0.06025058 -0.034534693 0.083070576 -0.042613
0000b0 34 a0 c2 bd 44 e8 fe 3d 34 73 e5 3d 60 bd e2 3d
       -0.095032126 0.12446645 0.11203614 0.11071277
0000c0 84 da 61 3d 78 77 f4 bc 5c 42 1d bd 40 7b fd 3b
       0.055140033 -0.029842123 -0.038393363 0.00773564
0000d0 30 eb b1 bc e4 a3 47 3d bc ba 41 bd 54 f2 23 bd
       -0.021718591 0.048740283 -0.047297224 -0.040026024
0000e0 c0 31 aa bd 3c 53 38 3d c0 e8 cc 3c fc 0d c2 3d
       -0.0831027 0.045001253 0.025013328 0.094753236
0000f0 de d6 e9 bd 90 d2 dd bd b4 e2 a1 bd 40 d4 81 bb
       -0.11417936 -0.10831177 -0.07904568 -0.0039620697
000100 7c 4a 51 3d e0 3f 32 3d 02 c7 df bd 74 41 6e 3d
       0.051096424 0.043517947 -0.109266296 0.05816789
000110 44 1d 8e bd 5c 30 8f 3d 28 a1 67 3d a0 22 f7 bc
       -0.06939176 0.06991646 0.056550175 -0.030167878
000120 5c 48 2b bd 4a 1a 97 3d 68 fe 46 3d 08 44 4b 3d
       -0.041817054 0.07378061 0.048582464 0.049625427
000130 dc c2 e8 3d 2c 91 fb bd b8 3b 84 3c f6 fe dd bd
       0.113652915 -0.12283549 0.016141757 -0.108396456
000140 58 2b c1 bc f2 e5 bb bd 82 51 cf bd 4c d7 57 3d
       -0.023580238 -0.09174718 -0.10122968 0.052695557
000150 d4 00 bd bd 88 31 dc bc 2c 7e 8e 3d 90 53 84 3d
       -0.092286736 -0.026879087 0.06957659 0.06461251
000160 18 b6 12 3d 40 cd 53 bc 94 c7 4a bd 80 25 06 bc
       0.03581819 -0.012927353 -0.04950674 -0.008187652
000170 0c 49 27 3d 64 74 54 bd 98 d6 fe 3c 40 f0 9a bc
       0.040841147 -0.05186881 0.031108186 -0.018913388
000180 28 10 ca bd e4 42 5b bd d0 49 eb bc ce e7 88 bd
       -0.09866363 -0.05353059 -0.02872172 -0.06684838
000190 00 89 f4 3b 20 27 9a 3d 66 07 f6 3d 80 8b eb 3b
       0.0074626207 0.07526994 0.1201313 0.0071882606
0001a0 bc 55 52 bd 60 27 8c 3c 08 80 d0 bd b8 f5 b1 bd
       -0.051351294 0.01710862 -0.1018067 -0.08689445
0001b0 b0 4f f3 3c ec 80 16 bd 24 af 09 bd 60 36 b9 bb
       0.029701084 -0.036744043 -0.033614293 -0.005652234
0001c0 7a c4 9d 3d 48 cc 39 bd 00 ac 33 ba 10 31 46 3c
       0.077034906 -0.045360833 -0.0006853938 0.012096658
0001d0 44 fb 70 bd bc c4 53 bd f2 f4 97 3d 48 2f 4f 3d
       -0.058833376 -0.051701292 0.074197665 0.0505822
0001e0 0a 41 89 3d a2 30 f5 3d 00 1e f1 39 e0 10 95 bc
       0.06701858 0.119721666 0.00045989454 -0.018196523
0001f0 14 26 3a bd c8 06 21 bd 78 37 dc 3c 5e 8b df 3d
       -0.04544647 -0.039313108 0.026881918 0.10915254
000200 b0 79 38 3c 40 f4 03 bd c0 6b 8d 3d e6 8f dc bd
       0.011259481 -0.032215357 0.06905317 -0.10769634
000210 ec 30 bf 3d e0 69 9b bb 96 10 f3 bd 1c 01 2c 3d
       0.09335503 -0.004742846 -0.11868398 0.041993245
000220 50 c4 bd bd 08 18 68 bd 00 d7 15 ba b0 8a 22 3d
       -0.09265959 -0.056663543 -0.00057159364 0.039683044
000230 74 c1 98 3d e0 b0 e4 bd 74 24 77 3d 00 8a f1 39
       0.07458773 -0.11166549 0.0603375 0.0004606992
000240 0c 1c 06 3d 40 ff ee bd 50 4d 7a 3c 14 ca 76 3d
       0.03274159 -0.11669779 0.015277222 0.06025131
000250 ce 6a aa 3d 6e b8 8a bd 8c 5a 69 bd 8e 45 aa 3d
       0.083211526 -0.067734584 -0.056971118 0.08314048
000260 c2 b8 a6 3d ce 8a ee bd d6 9d a2 bd 34 ba 64 3d
       0.081407085 -0.11647569 -0.07940261 0.05584164
000270 f0 54 34 bd 40 3f 4b 3d c0 e2 76 3b 16 f5 e8 bd
       -0.044026315 0.049620867 0.0037671775 -0.113748714
000280 a0 35 d5 bc 84 e4 66 bd b8 5d cf bd 00 08 71 3a
       -0.026026547 -0.056370273 -0.10125297 0.00091946125
000290 5e 87 b3 3d 1c 7c c6 bd 84 12 99 bd 74 e4 65 3d
       0.087660536 -0.09691641 -0.07474235 0.056126073
0002a0 60 4f 54 bc b8 25 b5 3d ec ea dc bd 28 32 b4 bd
       -0.012958378 0.08845085 -0.10786995 -0.08798629
0002b0 c8 f0 d1 3d b6 5c 98 bd 50 96 14 3c 96 ee e5 bd
       0.102510035 -0.07439558 0.00906904 -0.11227147
0002c0 f6 cf de bd c8 56 49 bd 40 7a 06 3b 90 89 e3 bc
       -0.10879509 -0.049155027 0.0020519644 -0.027775556
0002d0 32 83 da bd b2 00 9d 3d f0 d7 12 bd 06 03 82 bd
       -0.10669555 0.07666148 -0.035850465 -0.06348233
0002e0 8c 22 9a bd ae 47 d7 3d b8 3a e7 bc 00 59 d6 3b
       -0.075261205 0.10511719 -0.028226241 0.0065413713
0002f0 9a 9b 9e bd 10 48 83 3c 44 03 5c 3d 64 c8 07 bd
       -0.077445224 0.016025573 0.05371405 -0.03315009
000300 18 55 fa bc 8c 48 60 3d 48 8e ce bc f4 23 41 bd
       -0.030558154 0.054756686 -0.02521433 -0.04715343
000310 e0 d8 99 3b f4 bb fc 3d 50 76 f4 bc 30 7b 36 3d
       0.004695043 0.12340537 -0.029841572 0.044551075
000320 86 d2 b1 3d e8 c7 f3 3c 30 56 d5 3c 74 03 03 3d
       0.08682732 0.029758409 0.026042074 0.031985715
000330 72 91 b5 bd 14 d0 c5 3d a4 63 ba bd 20 68 d3 bc
       -0.08865632 0.096588284 -0.09101036 -0.025806487
000340 c4 34 95 bd 3c de ca bd 00 24 1b bd 28 fa b0 bc
       -0.07285455 -0.09905669 -0.03787613 -0.021603659
000350 10 26 d5 3d 66 67 89 3d a0 3e 0c bc c0 ed bf 3b
       0.104076505 0.06709175 -0.008559853 0.0058571994
000360 28 07 8e 3c 2a b3 8b bd 10 b8 38 bc a0 a4 ec 3b
       0.017337397 -0.06821282 -0.011274353 0.0072217733
000370 90 51 fb bd 48 18 34 bd 1c 40 59 3d 4c 7d 13 bd
       -0.12271416 -0.04396847 0.053039655 -0.036008164
000380 f4 e4 f7 bd 5e 4c bb 3d ea 0c bf bd a0 48 7b 3c
       -0.12104216 0.09145425 -0.09328635 0.015337139
000390 e4 aa 3c bd da 15 84 3d 84 11 a5 bd d2 cb ff 3d
       -0.04606141 0.0644948 -0.080599815 0.124900475
0003a0 7c 83 b3 3d 2a 90 c8 bd 1a e2 aa bd 60 89 d3 bc
       0.08765313 -0.09793122 -0.08343907 -0.025822341
0003b0 22 d1 bb 3d ac 69 bb bd 9a 55 cd bd c0 19 17 bd
       0.09170748 -0.09151015 -0.10026093 -0.03688979
0003c0 70 f4 49 3c 00 f2 0d ba 88 a0 02 bd f8 8a 86 bd
       0.012326345 -0.0005414784 -0.031891376 -0.06569475
0003d0 20 db b3 3d 26 a8 9e 3d 98 b7 8e bd d4 60 52 3d
       0.08782029 0.077469155 -0.069686115 0.051361874
0003e0 00 50 40 ba ac 7f cf 3d 78 5d 5b bd 40 23 c5 3d
       -0.00073361397 0.10131773 -0.053555936 0.09625864
0003f0 28 5c 35 bd 20 06 82 3d 54 d7 f2 3d 34 30 0e 3d
       -0.04427734 0.063488245 0.11857477 0.03471394

fc2.bias f4 [64]
000000 b8 f9 58 bd 64 df 90 3d e8 2d 5d bd b8 ec 9b bd
       -0.052972525 0.070738584 -0.053998858 -0.0761351
000010 c0 41 97 3c 20 e3 f2 3d a4 fd cb bd e8 ef a6 3c
       0.01846397 0.11859727 -0.099604875 0.020378068
000020 0a cb a0 bd 20 6d 9a 3b f4 66 0e 3d 2c 77 c4 bd
       -0.07851227 0.0047127157 0.034766153 -0.09593043
000030 4a 91 b4 3d b8 8c c5 3c e8 be c0 3d 10 1b 60 bd
       0.08816774 0.024114951 0.094114125 -0.05471331
000040 30 d4 44 bc 54 fc c4 bd 48 eb ac 3c 20 fb bd bc
       -0.01201348 -0.0961844 0.021108285 -0.023191035
000050 a0 79 71 bc 1c 9f 01 3d b4 df 81 3d 00 68 39 3b
       -0.01473847 0.03164588 0.06341496 0.0028290749
000060 68 df ff 3d 90 ef 1a bc 60 59 b7 3d ca f0 dd 3d
       0.12493783 -0.00945653 0.08952594 0.108369425
000070 ca 38 f6 bd c8 bc ab bd 7e c4 d2 bd 12 d1 f6 3d
       -0.120225504 -0.083856165 -0.10291384 0.12051596
000080 3a 34 f2 bd ee 76 af 3d f0 49 46 3c 20 fc ed bd
       -0.11826368 0.08567606 0.012102589 -0.11620355
000090 38 34 ac bd 20 28 f1 3d d4 d8 78 3d d8 d7 10 bd
       -0.084083974 0.11775231 0.06075366 -0.035362095
0000a0 c0 a1 35 bd 08 f5 0c 3d 28 c1 99 3d fc a6 f7 bd
       -0.04434371 0.034413368 0.07507545 -0.120923966
0000b0 2c 6e 2d 3d 8e 9d c1 bd 7c fb 78 3d 40 da 7c bc
       0.042341396 -0.09453879 0.06078671 -0.015432894
0000c0 92 d6 d1 3d ca 3b e7 bd b8 f3 cc 3c e4 bd 46 bd
       0.10246004 -0.11290701 0.025018558 -0.048520938
0000d0 d4 99 ed bd 24 eb 9b bd a2 a7 8a bd f0 44 10 3d
       -0.11601606 -0.07613209 -0.06770255 0.035221994
0000e0 30 15 9b 3d b0 d2 e4 3d f0 6b ae bc 60 28 04 bc
       0.075724006 0.11172998 -0.021291703 -0.008066267
0000f0 58 5a 5f bd 1c 07 c7 bd 2c 36 86 3d 00 e9 02 bb
       -0.054529518 -0.09718153 0.06553301 -0.0019975305

fc3.weight f4 [6, 64]
000000 78 28 b9 3c fa fc b2 3d d8 37 9d bc 80 0a a4 bd
       0.022602305 0.08739658 -0.019191667 -0.08009815
000010 de 26 ae bd 80 ca 77 3b 78 eb 76 bd c2 0c 88 bd
       -0.08503507 0.0037809908 -0.060283154 -0.06643058
000020 88 af 4a bd 6a 96 f0 bd 6a f8 8f bd fc f9 5a 3d
       -0.049483806 -0.11747439 -0.07029803 0.05346106
000030 84 36 08 3d 00 e0 06 bc 00 4d be 3a 70 4f db bd
       0.033255115 -0.008232117 0.0014518797 -0.10708511
000040 f0 85 d3 3d 40 5d 56 3b d6 18 a1 3d 2c c9 f1 bd
       0.10328281 0.003270939 0.07866065 -0.118059486
000050 e4 90 9f 3d ce 99 d2 3d 62 2a e6 3d e0 31 2d bd
       0.077913076 0.10283242 0.11238553 -0.042283893
000060 0e 85 e4 bd 76 e7 aa bd 4e 99 83 bd 74 da f9 3d
       -0.11158191 -0.08344929 -0.06425725 0.1219987
000070 a4 42 b7 3d 02 cb bf 3d 60 15 e8 3c f0 4c f3 bc
       0.089482576 0.093648925 0.028330505 -0.029699773
000080 60 ee 14 bc d0 f3 aa 3d 64 43 b5 bd 34 af 05 bd
       -0.009090036 0.08347285 -0.08850744 -0.03263779
000090 d4 b3 a6 bd 08 92 d4 bc 7a af 83 3d d0 9f ae bd
       -0.08139768 -0.02594854 0.06429954 -0.085265756
0000a0 b8 fc 49 3d 32 cc c5 3d 2e cd d6 bd c0 eb 32 bc
       0.049313277 0.09658088 -0.10488354 -0.010920465
0000b0 a8 3f 6e bd 24 fd cf bd 84 89 07 3d 1e 50 f1 3d
       -0.058166176 -0.101557046 0.03309013 0.11782859
0000c0 78 e7 96 bc 2c c3 75 bd 60 b8 e5 bc d4 8a 08 bd
       -0.01842092 -0.060000584 -0.028042018 -0.03333552
0000d0 80 51 43 bb c4 e4 df 3d f0 ba 24 3c 00 48 50 3b
       -0.0029803216 0.109323055 0.010054335 0.0031781197
0000e0 d4 29 2a 3d 80 d6 ce bc a0 0b fe bd 18 c8 fe 3d
       0.041543797 -0.025248766 -0.12404561 0.124405086
0000f0 8c 9c dd bd 04 d9 8b 3d 60 10 b4 bc fc 62 a6 3d
       -0.108208746 0.06828502 -0.021980464 0.081243485
000100 b8 dc ff bc 2c fd 02 bd c8 d9 9c bd 14 ea b1 3d
       -0.031233177 -0.031979725 -0.07658726 0.08687225
000110 82 ee f5 bd 88 b7 94 bd 98 05 9f 3d 00 95 02 3d
       -0.120083824 -0.07261568 0.07764739 0.03188038
000120 08 e9 f8 bc 70 65 7f 3d 00 e4 ce bc b4 dc 01 3d
       -0.030384555 0.062352598 -0.025255203 0.03170462
000130 76 10 9c bd 8c 70 dd 3d f2 1f c9 3d c0 88 3d bd
       -0.07620327 0.10812482 0.09820546 -0.046272993
000140 a2 1f ce 3d f0 22 a6 bc 20 92 0d bd 4e 3a e9 3d
       0.10064627 -0.020280331 -0.034563184 0.11388074
000150 e0 d2 81 3d 88 41 25 bd 10 37 4c bd d4 3c e5 3d
       0.06339049 -0.0403457 -0.0498572 0.11193243
000160 4a fb d3 3d 80 40 fb bc 40 51 d6 bc a8 34 94 bc
       0.10350664 -0.030670404 -0.02616179 -0.018091515
000170 6c de d3 bd 66 9c f3 bd 94 9f 83 3d a4 ad cf bd
       -0.10345158 -0.11895065 0.064269215 -0.10140541
000180 dc c6 7b 3d 74 7d c0 3d 7c 10 7b bd 80 78 bc ba
       0.061468944 0.09398928 -0.061295018 -0.0014379174
000190 4e 23 af 3d 28 da a1 bd e8 fa 17 bd 44 73 0f 3d
       0.08551656 -0.07902938 -0.037104517 0.035022035
0001a0 68 51 84 bc 96 1a 96 bd ec f3 de bd 86 4f e3 3d
       -0.016152099 -0.073292896 -0.10886368 0.11099152
0001b0 7c de b8 3d c8 1a ad 3c 1e cd aa bd 2c 9e 2b bd
       0.090268105 0.021130934 -0.08339904 -0.04189889
0001c0 a0 d1 f0 3b c4 dd e9 3d 36 24 90 bd 00 b4 3f 3b
       0.007349208 0.114192516 -0.07038157 0.0029251575
0001d0 3a 4d f9 bd 94 29 18 bd b0 0d fd 3d 38 b6 a7 bc
       -0.12172933 -0.037149027 0.12356126 -0.02047263
0001e0 80 98 d0 3b f8 ad 0a 3d f4 d8 24 3d f2 d1 f8 3d
       0.0063658357 0.033857316 0.040245965 0.12149419
0001f0 f8 60 b8 bd 60 a8 83 bb e8 f0 25 3d 5c 47 65 3d
       -0.0900287 -0.0040178746 0.04051295 0.055976257
000200 28 6a b6 bd e2 bf c7 bd bc 5c 50 3d b8 b0 1d bd
       -0.089069664 -0.097533956 0.05086969 -0.03849861
000210 10 ba 61 3d cc 00 16 bd b2 1d c9 3d 2c 50 89 3d
       0.055109084 -0.036621854 0.09820117 0.06704745
000220 72 2e 9c bd d8 31 f2 bc 14 28 48 3d c8 85 be bc
       -0.07626046 -0.029564783 0.048866346 -0.023257151
000230 54 2a 33 3d 60 a1 6b bc 42 f1 f2 3d 0a 77 f9 bd
       0.04374154 -0.0143817365 0.118624225 -0.12180908
000240 08 f5 68 bd a0 19 63 3c fe 68 a7 3d 82 8f a6 bd
       -0.056874305 0.01386109 0.081743225 -0.08132841
000250 34 a9 1d 3d 7c 1d 18 bd d0 1f 6f bc 4e 04 95 bd
       0.038491443 -0.037137493 -0.014594987 -0.07276212
000260 90 46 b6 bd c6 16 8c bd 04 f1 1d 3d ec 7e 52 3d
       -0.089001775 -0.06840281 0.03855993 0.051390573
000270 2a c1 8f bd 68 87 1b bd 80 76 c5 bb f2 26 ca 3d
       -0.07019265 -0.03797093 -0.006026089 0.098707095
000280 56 cd 9d bd d0 ef 97 3c a0 d2 23 3c ac b1 40 bd
       -0.0770518 0.018546969 0.009998947 -0.04704444
000290 94 ef fb bd 44 20 fe bd ac ba 04 3d a0 6a f4 3b
       -0.12301555 -0.12408498 0.032404587 0.0074589998
0002a0 fc 9f 66 3d 64 78 cd bd 14 92 a4 3d f8 07 a2 bd
       0.056304917 -0.10032728 0.08035675 -0.07911676
0002b0 74 ae 75 3d ae 5d d7 bd 00 c7 47 3a 28 85 1c bd
       0.059980825 -0.10515915 0.0007620901 -0.038212925
0002c0 3c 42 08 3d 70 c1 4a bd 98 97 d0 bd 7c a8 67 3d
       0.03326629 -0.049500883 -0.10185164 0.056557164
0002d0 90 a0 6a 3d 78 2e a4 3d 50 e1 53 bd 08 99 95 bd
       0.05728203 0.08016676 -0.051728547 -0.07304579
0002e0 24 bb 1d bd 54 4f 07 bd ea e7 9d bd 0c f3 8c 3d
       -0.03850855 -0.033034638 -0.0771025 0.06882295
0002f0 54 6e dc bd d4 7e 2a bd f8 a5 eb bd 7c 95 43 bd
       -0.10763231 -0.04162486 -0.115062654 -0.04774998
000300 28 3a ca bc 76 6c be bd de ae ef bd 56 ed c4 3d
       -0.024685934 -0.09298031 -0.11703275 0.09615581
000310 38 b9 c2 3c 52 c0 cf 3d a4 64 b2 bd 00 30 13 ba
       0.02376996 0.10144104 -0.08710602 -0.00056147575
000320 2a 4e d6 3d 90 be 8a bd b8 37 84 3c 1e 08 d2 bd
       0.10464127 -0.06774628 0.01613985 -0.102554545
000330 2e f1 cf 3d a2 51 84 3d b0 93 6a bc b0 57 98 3d
       0.10153423 0.06460883 -0.014317438 0.074386
000340 be 22 83 bd 40 13 bc 3c 34 66 23 3d 48 b9 4e 3d
       -0.06403111 0.022958398 0.03989239 0.050469667
000350 98 04 88 bc 70 6d f5 3d cc 9d d6 bd 20 df 5f bd
       -0.016603753 0.11983764 -0.10479316 -0.054656148
000360 10 51 f9 3c 08 e2 81 bc 6c 05 1b bd e6 2a e2 3d
       0.030434161 -0.01585485 -0.037846968 0.110433385
000370 10 35 c1 3c 50 ab 25 3d 2a 26 e4 bd 3e 8e 9b 3d
       0.023584872 0.04044658 -0.11140092 0.0759549
000380 2c 81 be bd 10 46 db bd 06 57 8c bd 24 a2 8d bd
       -0.09301981 -0.10706723 -0.06852536 -0.069156915
000390 92 ac 93 3d 02 4e b5 3d a8 0f 54 bd 1c a2 77 3d
       0.072106495 0.088527694 -0.051772743 0.060457334
0003a0 ca 1c a8 bd 5e b7 bb 3d 48 f1 bd bd b8 80 cc bd
       -0.08208616 0.09165834 -0.09274536 -0.09985489
0003b0 f0 6a 63 bd 30 10 1b 3c 78 c4 e0 3c e0 1b 7e bd
       -0.055521905 0.009464309 0.027437434 -0.062038302
0003c0 c0 12 2f bb 10 af fa 3d a0 7c 91 3c 58 c2 ba 3c
       -0.0026714057 0.12240422 0.017759621 0.022797748
0003d0 b0 5d 51 bd 84 ae 9c bd 44 25 4a 3d e4 29 10 3d
       -0.051114738 -0.07650474 0.049351946 0.0351962
0003e0 40 05 2f bd 30 7e 8c 3d 70 73 ad bd f0 47 7f bd
       -0.042729616 0.06860006 -0.084692836 -0.062324464
0003f0 d0 32 bf bd 3c 6d 64 bd 88 48 c8 bc 00 66 b5 bb
       -0.093358636 -0.055768237 -0.024448648 -0.005535841

fc3.bias f4 [6]
000000 c4 da 22 3d 44 e9 8c 3d f0 e0 65 3d d4 df cc 3d
       0.039759412 0.068804294 0.05612272 0.10003629
000010 60 b1 c3 bc b2 65 ec 3d
       -0.02388829 0.11542834
