saved_models/dqn_best_model_episode_269.pt (torch, 87339 bytes, 24 tensors)

fc1.weight f4 [64, 4]
0.059864346 0.046333116 -0.4598687 0.038313445 -0.033721562 0.23728465 0.46976027 -0.34246278
0.41584253 -0.35160285 0.2280926 -0.11776381 -0.3610205 0.4431547 -0.35528216 -0.07746065
-0.41714275 0.1502084 0.35203952 -0.36491868 -0.14990547 0.2156527 -0.2827516 -0.012757713
-0.30458882 0.32531086 -0.07820819 -0.118803866 0.16576268 0.056762666 0.4656958 -0.21146888
-0.102872975 0.4424573 0.1445817 -0.20365481 0.44922766 0.49540797 -0.35932663 -0.49064875
0.12176265 -0.22061545 0.22341664 0.46483833 0.3898443 -0.35823777 -0.19770457 0.2175539
-0.35098332 0.27270925 -0.43651566 -0.1795174 -0.46646956 0.34266484 -0.4291799 0.13404115
0.38700947 0.1351123 0.39358512 -0.030682288 -0.2498981 0.021870753 0.09552863 0.27065045
-0.057114482 0.47450298 -0.25129867 -0.37104216 -0.05311465 0.0411547 -0.03537313 -0.44349378
0.22827502 -0.28070632 -0.4123879 0.09704952 -0.08256205 0.12173618 0.2030614 0.10589171
-0.34339187 -0.25480753 0.47600254 0.07550023 -0.15422004 0.38705277 -0.45648453 0.47896737
-0.42752704 -0.47023836 0.06088346 0.4714951 -0.31454632 -0.031040624 0.32671762 0.2559778
-0.017338324 0.31050143 0.14847639 0.1845011 0.1686508 -0.2415666 -0.031959184 -0.47074223
0.47303006 0.3464177 -0.17832981 -0.19007729 -0.07694832 0.068962745 -0.027025903 0.1402155
0.36220273 -0.2379451 0.4561947 -0.38739485 -0.38920265 -0.090906456 0.20274577 0.13071844
-0.44929683 -0.18993996 0.38544562 0.22513318 -0.06970751 -0.41614318 -0.3051613 -0.44206625
0.32867834 0.21428809 0.37941062 -0.13680893 0.18703364 -0.13998017 -0.24615185 0.19524883
0.20386705 0.07764528 0.21651506 0.15197763 0.30537283 -0.17269902 0.34046513 0.10217762
-0.050282855 -0.27632475 0.112867065 -0.11769403 0.31267637 0.050957832 0.32990873 0.1332683
-0.40676567 0.26198664 -0.43416548 0.1339541 -0.17100802 -0.49085608 0.07086408 0.33312938
0.07140019 0.08795988 -0.2350858 0.41530702 0.069333814 -0.46498078 -0.4243574 0.29137683
-0.17447822 -0.3750586 0.42144623 -0.036790904 0.3956855 -0.31595123 -0.43699613 -0.42176455
-0.25848535 -0.4708493 0.27194422 0.44364983 -0.21697602 -0.34712 -0.44918528 0.47254243
0.42897666 0.28043973 -0.2541761 0.45350826 -0.040333517 0.29539862 -0.33702546 -0.11971861
0.033879336 0.32410938 0.15151317 0.3539651 0.46335027 0.034468032 0.18779285 -0.023433236
0.0003323432 -0.071755104 0.3957055 0.056257024 -0.37937433 -0.021490276 -0.4786554 -0.48419398
-0.13525763 -0.18584532 -0.056391593 0.14687432 -0.17718029 -0.4533283 0.09475011 -0.26498204
0.12992027 0.08181026 0.4209528 -0.25227422 0.056251332 -0.4798108 -0.45194808 0.25358933
-0.25591838 -0.1669903 -0.25179 0.09582487 -0.42792693 -0.17858529 0.3305847 0.055815313
0.092561565 -0.18095994 0.18058604 -0.36271402 -0.05018499 -0.031144861 -0.26502353 0.4526645
0.1798582 0.09533451 0.021876305 -0.014546933 0.47433043 -0.4121888 0.04915936 0.06702852
-0.2005726 -0.15387954 0.20481318 0.20841348 0.26134217 0.18389659 0.45524272 0.36547327
00000000: 5134 753d cbc7 3d3d e973 ebbe 8fee 1c3d
00000010: 9f1f 0abd bffa 723e 6b84 f03e 4857 afbe
00000020: 50e9 d43e 4a05 b4be 1b91 693e 272e f1bd
00000030: aed7 b8be 2ce5 e23e 8be7 b5be b0a3 9ebd
00000040: bc93 d5be 3bd0 193e 863e b43e 9fd6 babe
00000050: d280 19be 10d4 5c3e d1c4 90be ba05 51bc
00000060: 11f3 9bbe 258f a63e 9e2b a0bd 714f f3bd
00000070: b1bd 293e f87f 683d ae6f ee3e 4c8b 58be
00000080: 11af d2bd c389 e23e 3a0d 143e e38a 50be
00000090: 2b01 e63e 1da6 fd3e a9f9 b7be 5036 fbbe
000000a0: b25e f93d 04e9 61be 55c7 643e 4aff ed3e
000000b0: ac99 c73e f16a b7be 1173 4abe 73c6 5e3e
000000c0: 16b4 b3be 8ca0 8b3e fb7e dfbe 69d3 37be
000000d0: 19d5 eebe c471 af3e 78bd dbbe 1542 093e
000000e0: 1b26 c63e e15a 0a3e fd83 c93e 6c59 fbbc
000000f0: 4ae5 7fbe 4b2a b33c 84a4 c33d b292 8a3e
00000100: e0f0 69bd 0ef2 f23e 38aa 80be 3df9 bdbe
00000110: bf8e 59bd d591 283d 6ae3 10bd 9e11 e3be
00000120: edc0 693e bdb8 8fbe 8224 d3be e6c1 c63d
00000130: 4b16 a9bd d150 f93d 54ef 4f3e c1dd d83d
00000140: 0fd1 afbe 2276 82be 9bb6 f33e dd9f 9a3d
00000150: dceb 1dbe c82b c63e 57b8 e9be 363b f53e
00000160: d3e4 dabe 15c3 f0be ef60 793d ce67 f13e
00000170: 370c a1be e848 febc 8847 a73e 860f 833e
00000180: 1a09 8ebc 0bfa 9e3e 320a 183e dbed 3c3e
00000190: ccb2 2c3e 3c5d 77be a2e7 02bd 2005 f1be
000001a0: ff30 f23e a95d b13e 179c 36be 9fa3 42be
000001b0: 1597 9dbd 573c 8d3d 6d65 ddbc a794 0f3e
000001c0: a372 b93e e1a7 73be 5a92 e93e 9e58 c6be
000001d0: 9245 c7be 2a2d babd 969c 4f3e 0edb 053e
000001e0: 3c0a e6be 9f7f 42be 2159 c53e 5089 663e
000001f0: d0c2 8ebd b810 d5be 1a3e 9cbe 8256 e2be
00000200: 8748 a83e 566e 5b3e 1c42 c23e a417 0cbe
00000210: bf85 3f3e f656 0fbe 3b0f 7cbe 4fef 473e
00000220: 86c2 503e 7d04 9f3d 20b6 5d3e 06a0 1b3e
00000230: d459 9c3e 03d8 30be 7251 ae3e 8042 d13d
00000240: 65f5 4dbd 707a 8dbe d926 e73d 9109 f1bd
00000250: 1e17 a03e 29b9 503d cce9 a83e 7c77 083e
00000260: 9743 d0be 1d23 863e f04a debe 432b 093e
00000270: ba1c 2fbe 7d51 fbbe 3021 913d ef8f aa3e
00000280: 433a 923d 4f24 b43d 55ba 70be 1fa3 d43e
00000290: e3fe 8d3d f611 eebe 6045 d9be 582f 953e
000002a0: 6baa 32be ae07 c0be cdc7 d73e 0fb2 16bd
000002b0: 4a97 ca3e 5cc4 a1be f5bd dfbe 86f1 d7be
000002c0: 3158 84be 2913 f1be 463c 8b3e 1226 e33e
000002d0: f62e 5ebe b6b9 b1be 9dfb e5be 15f1 f13e
000002e0: d4a2 db3e cc95 8f3e 5f23 82be 3c32 e83e
000002f0: c234 25bd 7d3e 973e 9a8e acbe 082f f5bd
00000300: 0fc5 0a3d aaf1 a53e 4526 1b3e ea3a b53e
00000310: 3f3c ed3e 5a2e 0d3d c54c 403e 0ff7 bfbc
00000320: 593e ae39 57f4 92bd e999 ca3e c46d 663d
00000330: 5a3d c2be 600c b0bc 5212 f5be 46e8 f7be
00000340: fa80 0abe 3c4e 3ebe dffa 66bd 3966 163e
00000350: c06e 35be a61a e8be 580c c23d baab 87be
00000360: d209 053e 238c a73d 2087 d73e 162a 81be
00000370: cc67 663d c3a9 f5be bd65 e7be 76d6 813e
00000380: bc07 83be 81ff 2abe 9eea 80be d43f c43d
00000390: 3d19 dbbe 10df 36be 6642 a93e 999e 643d
000003a0: eb90 bd3d 904d 39be 8ceb 383e a7b5 b9be
000003b0: c78e 4dbd 8223 ffbc 2ab1 87be a4c3 e73e
000003c0: bf2c 383e bd3e c33d f035 b33c 4256 6ebc
000003d0: 70db f23e 690a d3be 535b 493d 4046 893d
000003e0: e762 4dbe 9992 1dbe 8cba 513e 586a 553e
000003f0: a4ce 853e 634f 3c3e 9315 e93e 501f bb3e

fc1.bias f4 [64]
0.37082636 0.31819344 0.0818399 0.50184244 0.3998756 -0.36903387 0.008996564 -0.23498385
-0.40838537 -0.22291724 -0.47770613 -0.1819182 -0.2615114 0.19460982 0.48985654 -0.3542757
-0.3508678 0.46479055 -0.048291083 -0.27636874 0.08931897 0.32781038 0.35041326 0.4620626
0.38046837 -0.3531431 0.060268935 -0.08661171 -0.4813639 -0.018383136 -0.44602367 -0.4138739
0.032272667 0.12642014 0.09817885 -0.09245986 0.2851167 -0.08672631 -0.03053103 -0.092041664
0.002625504 -0.003246624 0.20608431 -0.06976845 0.06693567 0.38893467 0.046546947 0.1328103
-0.47777998 0.33798462 -0.25223306 -0.2367599 -0.062059004 -0.10146934 -0.1379644 0.18463494
-0.28718522 -0.44503015 0.45716736 0.1439312 -0.43808776 0.3129945 -0.4009723 -0.11400816
00000000: f4dc bd3e 40ea a23e ad9b a73d bf78 003f
00000010: 7fbc cc3e 02f2 bcbe 5366 133c 9b9f 70be
00000020: e317 d1be 6b44 64be e695 f4be c448 3abe
00000030: d2e4 85be cc47 473e 7ace fa3e a063 b5be
00000040: f2a4 b3be 07f9 ed3e dfcc 45bd 3480 8dbe
00000050: ddec b63d c3d6 a73e 5e69 b33e 7893 ec3e
00000060: c0cc c23e 2ccf b4be 8fdc 763d 7b61 b1bd
00000070: 5475 f6be 3b98 96bc 375d e4be 48e7 d3be
00000080: 5830 043d 4874 013e fe11 c93d 985b bdbd
00000090: d1fa 913e 909d b1bd 361c fabc 5780 bcbd
000000a0: a610 2c3b 50c5 54bb c407 533e c3e2 8ebd
000000b0: 9215 893d 7222 c73e 03a8 3e3d 6cff 073e
000000c0: 949f f4be 520c ad3e b124 81be 3071 72be
000000d0: 9531 7ebd 28cf cfbd 8a46 0dbe f110 3d3e
000000e0: f109 93be feda e3be d711 ea3e b362 133e
000000f0: 0a4d e0be d140 a03e 3e4c cdbe 1c7d e9bd

fc2.weight f4 [64, 64]
-0.08577109 -0.11603428 0.059030067 0.047554784 0.05154641 0.06286633 0.0009272003 -0.03002711
-0.07329717 0.021832714 0.11538861 0.08642685 0.0019408911 0.042846486 -0.056783188 0.060752667
0.052601945 -0.104858264 -0.06291805 0.08740798 0.00608708 0.06138776 -0.037614226 -0.039389744
0.030585518 0.04790379 -0.022440428 0.09815849 -0.09483447 -0.107315935 0.10318191 0.058622018
0.013264405 -0.12424164 -0.087177545 -0.049380444 0.002728595 0.10317698 -0.08929378 0.016835913
-0.02436327 0.0023560312 0.06579705 -0.10787199 0.025359519 0.11101059 -0.09485884 -0.047423843
-0.05810066 0.048981495 -0.12525022 -0.046361998 0.021061374 -0.0888596 -0.10987247 0.066930294
0.11644664 0.03327406 0.04810533 -0.025810996 -0.0024966814 0.060859527 -0.108932205 0.09750036
0.011588622 0.018046677 0.114797376 0.049345985 0.00102103 -0.02090325 0.012929725 -0.08684258
-0.088599816 -0.123161174 -0.09258875 -0.031911403 0.070322834 0.024037205 -0.09815972 -0.024337795
-0.059856623 0.03784353 0.030705037 -0.07082652 0.02360225 0.105418704 -0.0059568137 0.08758217
-0.048510037 0.004153577 0.014935819 0.041786604 0.04938606 -0.017404413 0.025186198 -0.080054805
0.10020048 -0.056167085 -0.085048616 0.04437637 -0.058188424 0.06398357 -0.0345951 -0.02730115
0.02745268 0.059841793 -0.08252399 0.08808317 0.08601227 -0.096775346 -0.050379787 0.10877738
0.05300861 -0.062005166 0.0073080678 -0.107791826 0.029509114 0.09304507 0.0379905 -0.0014275995
0.06747131 -0.019375164 0.097137555 0.065237686 -0.027336916 0.096057296 -0.111077026 -0.069808766
-0.010894597 -0.10579491 0.07346773 -0.12362106 -0.05669874 -0.092725545 -0.0028663129 -0.05419591
-0.07127917 -0.09221095 0.02964592 -0.026086777 0.05690494 0.060396478 0.023958772 0.06440224
-0.11984086 0.06432806 0.040532693 0.095181525 -0.09438722 -0.050033987 -0.0133726895 0.059984148
0.016136333 -0.0036451072 0.11558607 -0.10819566 0.046171635 0.020645916 -0.11069536 0.11958653
0.044160232 -0.11213067 -0.092739284 0.08503239 -0.113054916 -0.09742764 -0.09409091 0.10486843
0.09537469 -0.098549664 0.11376342 -0.09498793 -0.10292786 -0.050045088 0.0028934777 0.09080331
0.010358527 -0.1008082 0.07501075 -0.11507125 0.10361828 -0.045603216 0.095806316 -0.07866348
0.08645302 0.10923381 -0.057632238 -0.09918931 -0.033469513 -0.0781479 -0.06445363 0.0025339127
-0.0102537535 -0.090203725 -0.043038554 0.10566025 0.046637774 0.06438756 -0.08366397 0.08352001
-0.083927155 0.070475735 -0.108963616 0.10783619 -0.032672986 -0.07039433 0.07276639 0.055801377
-0.099443555 0.06913525 0.017802581 -0.03563513 0.05799593 0.06861271 -0.04509338 -0.050806616
-0.11104785 -0.09888153 -0.03187109 -0.015035857 -0.078356974 -0.023419008 0.0017510206 0.022400826
-0.09004129 0.104591556 0.013381145 0.0682661 0.075666025 -0.107078806 0.042476147 -0.095271
-0.12488909 0.113264866 0.046324413 -0.04167566 -0.10952924 -0.07332664 0.06719845 -0.08844159
-0.07365024 -0.12108037 -0.06987263 -0.049171582 -0.009260491 -0.004020229 0.1099799 -0.11799557
-0.10069044 -0.015945554 -0.07262153 -0.02289653 0.09809695 0.10803714 -0.08277817 0.11534156
00000000: c1a8 afbd 61a3 edbd 83c9 713d cec8 423d
00000010: 5422 533d 10c0 803d 5c0f 733a 6afb f5bc
00000020: d41c 96bd 85da b23c dd50 ec3d 8f00 b13d
00000030: 8065 fe3a cc7f 2f3d 7d95 68bd cad7 783d
00000040: 2375 573d eebf d6bd 2edb 80bd f402 b33d
00000050: 2176 c73b bb71 7b3d 6011 1abd 2457 21bd
00000060: 7b8e fa3c c436 443d fdd4 b7bc 5207 c93d
00000070: 9338 c2bd 75c8 dbbd 0a51 d33d a41d 703d
00000080: f252 593c 6772 febd 248a b2bd 2643 4abd
00000090: 3ad2 323b 744e d33d a8df b6bd 78eb 893c
000000a0: 7b95 c7bc a567 1a3b 9bc0 863d fdeb dcbd
000000b0: c4be cf3c 8559 e33d 5a45 c2bd 813f 42bd
000000c0: f5fa 6dbd d2a0 483d 9841 00be 14e6 3dbd
000000d0: e788 ac3c 06fc b5bd d104 e1bd c012 893d
000000e0: 937b ee3d 614a 083d 180a 453d 9571 d3bc
000000f0: 5d9f 23bb d747 793d d917 dfbd 45ae c73d
00000100: 34de 3d3c a0d6 933c e31a eb3d 041f 4a3d
00000110: 15d4 853a 4b3d abbc 33d7 533c 86da b1bd
00000120: d273 b5bd ed3b fcbd 2c9f bdbd 88b5 02bd
00000130: 6b05 903d ace9 c43c f707 c9bd 0e60 c7bc
00000140: 382c 75bd d101 1b3d 2189 fb3c 7f0d 91bd
00000150: 8159 c13c c3e5 d73d 6031 c3bb 485e b33d
00000160: 76b2 46bd bb1a 883b 5eb5 743c 6e28 2b3d
00000170: 0a49 4a3d b393 8ebc 4953 ce3c c6f3 a3bd
00000180: e935 cd3d 750f 66bd f82d aebd ffc3 353d
00000190: fc56 6ebd d109 833d 97b3 0dbd a9a6 dfbc
000001a0: 71e4 e03c ab1c 753d 5602 a9bd f364 b43d
000001b0: 3327 b03d 2732 c6bd 095b 4ebd adc6 de3d
000001c0: 8e1f 593d 21f9 7dbd 8478 ef3b f6c1 dcbd
000001d0: 19bd f13c 6a8e be3d ed9b 1b3d 4a1e bbba
000001e0: 662e 8a3d aab8 9ebc 0ef0 c63d 569b 853d
000001f0: abf1 dfbc b0b9 c43d 5a7c e3bd e6f7 8ebd
00000200: 407f 32bc 00ab d8bd 4076 963d 0a2d fdbd
00000210: f03c 68bd e4e6 bdbd c0d8 3bbb 88fc 5dbd
00000220: d0fa 91bd 18d9 bcbd 00dc f23c f0b3 d5bc
00000230: 2815 693d 4c62 773d 3045 c43c 52e5 833d
00000240: 206f f5bd 6ebe 833d 9c05 263d 88ee c23d
00000250: 164e c1bd 70f0 4cbd 2019 5bbc f0b1 753d
00000260: 5830 843c c0e2 6ebb 64b8 ec3d b095 ddbd
00000270: 781e 3d3d a021 a93c 40b4 e2bd c8e9 f43d
00000280: 5ce1 343d c4a4 e5bd 18ee bdbd 7625 ae3d
00000290: 5689 e7bd 2488 c7bd bcb2 c0bd 42c5 d63d
000002a0: ce53 c33d 68d4 c9bd ccfc e83d 0889 c2bd
000002b0: d8cb d2bd 14fc 4cbd 80a0 3d3b 16f7 b93d
000002c0: d0b6 293c 8874 cebd 3c9f 993d 7aaa ebbd
000002d0: d235 d43d 70ca 3abd 1a36 c43d 521a a1bd
000002e0: 480e b13d fab5 df3d c80f 6cbd c423 cbbd
000002f0: 5417 09bd 020c a0bd 4400 84bd 0010 263b
00000300: 5cff 27bc bbbc b8bd 3249 30bd 6764 d83d
00000310: 4007 3f3d a0dd 833d 0458 abbd 8a0c ab3d
00000320: 00e2 abbd 9555 903d 5128 dfbd 38d9 dc3d
00000330: 1cd4 05bd e72a 90bd 8c06 953d fc8f 643d
00000340: 10a9 cbbd c896 8d3d b8d6 913c 24f6 11bd
00000350: 248d 6d3d d284 8c3d d6b3 38bd 991a 50bd
00000360: 0e6d e3bd 6682 cabd 438b 02bd f558 76bc
00000370: 9f79 a0bd 38d9 bfbc 8082 e53a f081 b73c
00000380: 9167 b8bd 1934 d63d 973c 5b3c 19cf 8b3d
00000390: caf6 9a3d 224c dbbd 78fb 2d3d 711d c3bd
000003a0: dac5 ffbd 69f7 e73d abbe 3d3d 19b4 2abd
000003b0: de50 e0bd 472c 96bd 579f 893d dd20 b5bd
000003c0: f0d5 96bd fcf8 f7bd 6219 8fbd 2468 49bd
000003d0: 50b9 17bc 20bc 83bb 243d e13d a9a7 f1bd
000003e0: ca36 cebd 40a0 82bc 99ba 94bd 8191 bbbc
000003f0: 0ee7 c83d 9342 dd3d 9a87 a9bd 3238 ec3d

fc2.bias f4 [64]
-0.10270338 0.08284283 -0.10566461 0.035446215 0.075726114 -0.030220382 -0.043339953 0.079099394
0.018857028 0.083732285 0.06846937 0.0957551 -0.079490036 -0.1232474 -0.05699469 0.06436804
-0.110244706 0.07139547 -0.044618975 -0.08344305 0.014992058 -0.09225585 -0.027263021 -0.008625789
0.033863787 0.1241675 0.076600105 -0.108705215 -0.043709703 -0.08291543 0.086227216 -0.0918564
0.1054609 0.050942723 0.06339262 -0.09458016 0.0842096 -0.10874145 -0.11610013 0.033222474
-0.00056869886 -0.08634374 0.024777237 -0.012644242 -0.04792681 -0.07486968 0.008203921 -0.092660904
-0.03987439 0.060678832 0.120137066 -0.10257888 -0.00028880473 0.0016398773 0.07347811 -0.017543023
-0.013187015 0.013744319 0.08242948 0.0959996 0.04107999 0.054099802 -0.077908956 -0.03657287
00000000: 2656 d2bd 80a9 a93d b066 d8bd 0d30 113d
00000010: 4b16 9b3d bc90 f7bc 3c85 31bd ddfe a13d
00000020: 0e7a 9a3c d57b ab3d ab39 8c3d 401b c43d
00000030: accb a2bd 2269 fcbd 4473 69bd 64d3 833d
00000040: fac7 e1bd ca37 923d 63c2 36bd 31e4 aabd
00000050: 40a1 753c a3f0 bcbd b356 dfbc 2e53 0dbc
00000060: c1b4 0a3d 884b fe3d 84e0 9c3d d7a0 debd
00000070: f208 33bd 91cf a9bd e597 b03d 351f bcbd
00000080: e2fb d73d 51a9 503d fdd3 813d 3eb3 c1bd
00000090: 1576 ac3d d6b3 debd e8c5 edbd 4a14 083d
000000a0: bc14 15ba fdd4 b0bd a2f9 ca3c cb29 4fbc
000000b0: e74e 44bd 4655 99bd bd69 063c 00c5 bdbd
000000c0: 5453 23bd 5e8a 783d 6c0a f63d e014 d2bd
000000d0: b76a 97b9 27f1 d63a b17b 963d 63b6 8fbc
000000e0: 5a0e 58bc da2f 613c cad0 a83d 709b c43d
000000f0: 7e43 283d c197 5d3d bb8e 9fbd 6fcd 15bd

fc3.weight f4 [6, 64]
-0.097289 0.008812942 -0.11086707 -0.006516124 0.008283174 -0.09370086 -0.029463692 0.021752756
0.061084952 0.051271845 -0.060799096 0.0064186477 -0.010069975 0.085173786 0.060344696 -0.020761818
0.08264468 0.08427201 0.060637638 -0.072085656 0.0093575865 0.038652383 0.1018015 0.036549028
0.023695007 0.098933384 -0.05387948 -0.010040269 -0.04963478 -0.111363664 0.0029423276 0.010557675
0.1230905 -0.030741522 0.03597697 0.015908156 0.028170928 0.12486088 0.045892395 0.057221644
0.08386883 -0.06954461 -0.028326675 -0.045935508 0.08492577 0.109594345 -0.07159061 0.08633327
-0.028443411 0.06378633 0.018941147 -0.051098265 -0.09767444 -0.042300873 -0.11598638 0.08440662
-0.079090536 0.0123931905 -0.12087835 -0.0999003 -0.079726726 0.019544778 0.024506975 -0.109774806
-0.047335 0.08693125 -0.108425125 0.0596119 -0.056673378 0.011077447 0.084982276 -0.043645456
-0.12266579 -0.07248893 0.071452595 -0.0093987975 -0.04483061 -0.0044327546 -0.04343186 0.10885285
0.020954775 -0.08302379 0.050329972 -0.003874992 0.091563895 0.04820321 0.10819757 0.03884907
0.008597641 0.085296206 0.10482596 0.044595145 0.057961904 -0.08048456 -0.08282947 0.06816479
0.106928185 -0.11553446 0.050695527 0.01928304 -0.027039062 0.08609736 0.040859483 0.123566285
-0.045697488 -0.04070339 -0.11757277 -0.06328044 0.120659314 -0.038350537 0.0805947 -0.034327555
-0.06527817 -0.013593073 -0.008842153 0.11991068 -0.05641306 -0.101674214 -0.09265609 0.10951471
0.0905315 0.08297702 -0.024167895 0.0024790815 -0.08490421 0.038457546 -0.05098677 -0.059768073
-0.07740207 -0.048306752 -0.013132617 0.09228748 -0.09825023 -0.09383267 0.051055953 0.08023651
0.0060478947 0.03873075 -0.07821054 -0.016675595 0.07103976 -0.0017115384 -0.10918534 0.043795794
-0.07672711 -0.013645286 -0.013177815 0.121388726 0.11071448 0.108802706 0.079665594 -0.11079493
-0.07332557 0.087028086 0.023000572 0.002321096 -0.03596292 0.11466366 0.06882365 -0.012734854
0.006716356 -0.045059543 -0.06889222 0.05015618 -0.06067316 -0.12391471 -0.08487055 -0.019447291
0.10494963 0.004301857 -0.079337016 0.101953015 0.03259316 0.03166561 -0.03989494 0.09163606
0.005248904 0.07937286 0.018134737 0.07748854 0.014958564 0.08455052 0.06012534 0.07531959
-0.118173346 0.022426147 0.06799093 0.042959347 0.04101628 -0.08427394 -0.08847904 0.06954795
-0.1090021 -0.12092724 0.059580192 -0.04152219 -0.029485127 -0.075856045 0.055452496 0.01987081
0.03231002 -0.009703124 -0.026944375 0.04618606 -0.11505827 -0.108323574 0.049751207 -0.11723305
0.111471444 -0.046617642 0.07317381 -0.039969884 0.11940348 0.07381715 -0.11948565 0.015267376
-0.103474006 0.08443894 -0.12208381 0.070747614 0.075228 -0.099596955 -0.120738596 -0.0020897686
0.013722565 -0.09856342 0.046214785 0.043798666 -0.05369012 0.030097036 -0.04004633 -0.052671585
-0.0828071 -0.02559354 0.06524562 -0.08188707 -0.06789309 -0.076931104 -0.08952364 -0.065090835
0.09426898 0.04728048 -0.054460287 -0.07849702 0.09937528 0.10081187 0.08060869 -0.025482839
-0.0048178905 -0.0071615092 -0.08916174 0.046992227 0.051416468 0.0028647007 0.0937015 -0.0879125
00000000: 753f c7bd 2864 103c 460e e3bd 3685 d5bb
00000010: 26b6 073c 3de6 bfbd d75d f1bc d632 b23c
00000020: 3734 7a3d 6d02 523d 7908 79bd 8553 d23b
00000030: 89fc 24bc 986f ae3d 002c 773d b014 aabc
00000040: 9d41 a93d ce96 ac3d 2c5f 783d a5a1 93bd
00000050: 9050 193c f651 1e3d 4e7d d03d 6fb4 153d
00000060: 081c c23c 969d ca3d bbb0 5cbd f17f 24bc
00000070: d74d 4bbd a212 e4bd 11d4 403b 19fa 2c3c
00000080: df16 fc3d a5d5 fbbc 965c 133d d251 823c
00000090: b8c6 e63c 10b7 ff3d aaf9 3b3d 3e61 6a3d
000000a0: 6cc3 ab3d 686d 8ebd 580d e8bc df26 3cbd
000000b0: 90ed ad3d 0073 e03d 199e 92bd 7fcf b03d
000000c0: 2802 e9bc 68a2 823d 772a 9b3c 6a4c 51bd
000000d0: 8909 c8bd ae43 2dbd 448a edbd 61dd ac3d
000000e0: 38fa a1bd cf0c 4b3c 128f f7bd 8798 ccbd
000000f0: c447 a3bd 5f1c a03c dac2 c83c 9dd1 e0bd
00000100: 58e2 41bd 0309 b23d fe0d debd 9c2b 743d
00000110: 5822 68bd 2e7e 353c 300b ae3d 94c5 32bd
00000120: 3438 fbbd 1375 94bd bd55 923d 6afd 19bc
00000130: 4da0 37bd a440 91bb 9be5 31bd 3eee de3d
00000140: 59a9 ab3c 6008 aabd cd26 4e3d 94f3 7dbb
00000150: da85 bb3d bb70 453d b096 dd3d 3420 1f3d
00000160: 1fdd 0c3c c7af ae3d feae d63d 66a9 363d
00000170: 7669 6d3d 17d5 a4bd 7fa2 a9bd fb99 8b3d
00000180: 2afd da3d 559d ecbd 1da6 4f3d 77f7 9d3c
00000190: 0681 ddbc d053 b03d 465c 273d 5210 fd3d
000001a0: 4a2d 3bbd 99b8 26bd fec9 f0bd 2d99 81bd
000001b0: 3b1c f73d 7415 1dbd d60e a53d 0d9b 0cbd
000001c0: 90b0 85bd 7bb5 5ebc adde 10bc bb93 f53d
000001d0: 6111 67bd 923a d0bd 7ac2 bdbd 4049 e03d
000001e0: 9468 b93d dbef a93d c0fb c5bc 1678 223b
000001f0: 42e2 adbd a985 1d3d 81d7 50bd 5ecf 74bd
00000200: fa84 9ebd 4ddd 45bd 302a 57bc 3801 bd3d
00000210: 6b37 c9bd 582b c0bd 0c20 513d 0a53 a43d
00000220: 6b2d c63b 23a4 1e3d d92c a0bd 429b 88bc
00000230: 4b7d 913d b355 e0ba 909c dfbd 3863 333d
00000240: 1a23 9dbd 7a90 5fbc c3e7 57bc a79a f83d
00000250: 46be e23d f4d3 de3d b727 a33d 74e8 e2bd
00000260: b72b 96bd c83b b23d b26b bc3c 871d 183b
00000270: db4d 13bd c8d4 ea3d 6af3 8c3d d9a5 50bc
00000280: e114 dc3b 5b90 38bd 5d17 8dbd 9170 4d3d
00000290: 6b84 78bd ffc6 fdbd 9cd0 adbd ed4f 9fbc
000002a0: d5ef d63d 98f6 8c3b 727b a2bd becc d03d
000002b0: 6880 053d ccb3 013d e068 23bd b0ab bb3d
000002c0: 00ff ab3b 3d8e a23d 4d8f 943c 50b2 9e3d
000002d0: c414 753c d328 ad3d fd45 763d 2841 9a3d
000002e0: de04 f2bd 0ab7 b73c d43e 8b3d 24f6 2f3d
000002f0: b000 283d d197 acbd 8034 b5bd 286f 8e3d
00000300: 7e3c dfbd b3a8 f7bd 5c0a 743d 2c13 2abd
00000310: cb8a f1bc 6a5a 9bbd 2822 633d 1cc8 a23c
00000320: 8357 043d daf9 1ebc 73ba dcbc 982d 3d3d
00000330: aca3 ebbd c0d8 ddbd ecc7 4b3d e217 f0bd
00000340: 244b e43d 24f2 3ebd 27dc 953d 76b7 23bd
00000350: d089 f43d 722d 973d e4b4 f4bd 0424 7a3c
00000360: 2eea d3bd 53ee ac3d 1407 fabd 20e4 903d
00000370: 2311 9a3d 7df9 cbbd cc45 f7bd 80f4 08bb
00000380: 9cd4 603c 9edb c9bd b74b 3d3d 3b66 333d
00000390: 2cea 5bbd 0f8e f63c 9f07 24bd 29be 57bd
000003a0: c596 a9bd 8ba9 d1bc 7f9f 853d 68b4 a7bd
000003b0: 880b 8bbd 0e8e 9dbd 2c58 b7bd 584e 85bd
000003c0: 1810 c13d 2da9 413d c011 5fbd 0cc3 a0bd
000003d0: 4485 cb3d 7476 ce3d 2b16 a53d 63c1 d0bc
000003e0: 65df 9dbb 18ab eabb 6e9a b6bd ec7a 403d
000003f0: 139a 523d b4bd 3b3b 92e6 bf3d 780b b4bd

fc3.bias f4 [6]
0.1253195 -0.12086324 -0.08801095 0.03125643 -0.03594986 -0.11410935
00000000: c153 003e 2587 f7bd 163f b4bd be06 003d
00000010: 2940 13bd 2ab2 e9bd

fc1.weight f4 [64, 4]
0.061483562 0.048024595 -0.45867968 0.03772998 -0.031661272 0.23928773 0.47169453 -0.34148252
0.41670614 -0.35105228 0.22932649 -0.11713511 -0.36321735 0.44095296 -0.35715598 -0.07813418
-0.41715097 0.1501841 0.35201603 -0.36490214 -0.14809251 0.21752983 -0.28159177 -0.012638271
-0.30279297 0.3272333 -0.077287674 -0.118468344 0.16594946 0.057058036 0.465329 -0.21147305
-0.10389793 0.44110537 0.14421618 -0.2046215 0.44705582 0.49323028 -0.36114 -0.4917543
0.12110907 -0.22127128 0.22363478 0.4653486 0.38776028 -0.3602786 -0.19968492 0.21694249
-0.3525725 0.27110666 -0.4372177 -0.17952716 -0.4654966 0.34366852 -0.42871803 0.13446587
0.3873675 0.13597703 0.39407974 -0.030548573 -0.25037205 0.021440923 0.095193684 0.27095753
-0.056195915 0.47527862 -0.2505852 -0.37112546 -0.05517137 0.039117455 -0.037168086 -0.4436339
0.22938508 -0.27982712 -0.41151243 0.097848356 -0.08356321 0.12073231 0.20206326 0.10601413
-0.34325206 -0.25497198 0.47613317 0.075755775 -0.15631527 0.38493538 -0.45811385 0.47991478
-0.42688352 -0.46963072 0.061345577 0.47215974 -0.3131529 -0.029873192 0.32794857 0.2572028
-0.019500017 0.3082993 0.14679939 0.18364847 0.16760474 -0.2423864 -0.033066273 -0.47129875
0.47263944 0.34626156 -0.17923778 -0.18972194 -0.07886237 0.067086816 -0.028391302 0.13945925
0.36431748 -0.23585474 0.4581123 -0.38658905 -0.389997 -0.09179771 0.20217454 0.12970364
-0.449188 -0.1896047 0.38545424 0.22564697 -0.06970751 -0.41614318 -0.3051613 -0.44206625
0.32677794 0.21245033 0.37768024 -0.13718086 0.1891191 -0.13792902 -0.24434716 0.19608903
0.20179832 0.07552189 0.21457982 0.15110272 0.30406654 -0.17388201 0.3401559 0.10260719
-0.050738513 -0.2764163 0.11241281 -0.11812276 0.3145963 0.0527997 0.33152622 0.1337859
-0.40807927 0.26068974 -0.4347881 0.13397866 -0.17035532 -0.49046957 0.07164711 0.3340329
0.06924838 0.08582342 -0.23642564 0.4150254 0.068662465 -0.46552366 -0.4251958 0.29059416
-0.17530519 -0.37524438 0.42076778 -0.03716439 0.39345688 -0.31815827 -0.43902403 -0.42274654
-0.25870335 -0.47093534 0.271603 0.4437902 -0.21751904 -0.34741575 -0.4495272 0.47242212
0.43089658 0.28232783 -0.25252694 0.45345068 -0.042408764 0.29330415 -0.33884364 -0.12054068
0.03217292 0.3223226 0.15060717 0.35343134 0.46558183 0.036666334 0.1899541 -0.022197902
0.0022255778 -0.06992823 0.39755678 0.057015777 -0.37937433 -0.021490276 -0.4786554 -0.48419398
-0.13553935 -0.18595445 -0.05644548 0.14658517 -0.17718029 -0.4533283 0.09475011 -0.26498204
0.13018572 0.081920445 0.42122394 -0.25321597 0.05593002 -0.47967958 -0.45178515 0.25388986
-0.25608402 -0.1667096 -0.25178206 0.09617621 -0.42733234 -0.17829418 0.33111358 0.056349337
0.09400976 -0.17965108 0.1820023 -0.36159402 -0.05016625 -0.031142354 -0.26487714 0.45291322
0.18213427 0.09755665 0.024176061 -0.013921261 0.47219247 -0.41432548 0.047133088 0.067041874
-0.20071703 -0.15394503 0.20450836 0.20899767 0.26073003 0.18255281 0.45527947 0.36451602
00000000: 30d6 7b3d 70b5 443d 10d8 eabe c08a 1a3d
00000010: 40af 01bd d807 753e f281 f13e ccd6 aebe
00000020: 825a d53e 20bd b3be 90d4 6a3e 88e4 efbd
00000030: a0f7 b9be 96c4 e13e 26dd b6be d004 a0bd
00000040: d094 d5be dcc9 193e 723b b43e 74d4 babe
00000050: 90a5 17be 24c0 5e3e cc2c 90be c010 4fbc
00000060: ae07 9bbe 208b a73e 0049 9ebd 889f f2bd
00000070: a8ee 293e b0b5 693d 9a3f ee3e 648c 58be
00000080: 70c8 d4bd 90d8 e13e 68ad 133e 4c88 51be
00000090: 80e4 e43e ae88 fc3e 58e7 b8be 38c7 fbbe
000000a0: 0808 f83d f094 62be 8400 653e 2c42 ee3e
000000b0: 8488 c63e 7076 b8be 347a 4cbe 2c26 5e3e
000000c0: 6284 b4be 7ece 8a3e 00db dfbe f8d5 37be
000000d0: 9255 eebe 52f5 af3e ee80 dbbe 6cb1 093e
000000e0: 0855 c63e 903d 0b3e d2c4 c93e 0041 fabc
000000f0: c430 80be e0a4 af3c e8f4 c23d f2ba 8a3e
00000100: b02d 66bd b857 f33e b44c 80be 2804 bebe
00000110: 60fb 61bd a039 203d 903d 18bd fc23 e3be
00000120: ece3 6a3e 8045 8fbe c2b1 d2be b864 c83d
00000130: 3023 abbd 8042 f73d ace9 4e3e f01d d93d
00000140: bcbe afbe b08b 82be bac7 f33e d825 9b3d
00000150: 1c11 20be 4016 c53e e68d eabe 64b7 f53e
00000160: 7a90 dabe 7073 f0be 8045 7b3d ecbe f13e
00000170: 9455 a0be a0b8 f4bc e0e8 a73e 16b0 833e
00000180: 80be 9fbc 68d9 9d3e 9452 163e 580e 3c3e
00000190: 94a0 2b3e 2434 78be 8070 07bd 124e f1be
000001a0: ccfd f13e 3249 b13e 1c8a 37be 7846 42be
000001b0: 9882 a1bd d064 893d e094 e8bc 68ce 0e3e
000001c0: d287 ba3e e883 71be b28d ea3e 00ef c5be
000001d0: b0ad c7be 7000 bcbd d806 4f3e 08d1 043e
000001e0: f8fb e5be bc27 42be 425a c53e 0010 673e
000001f0: d0c2 8ebd b810 d5be 1a3e 9cbe 8256 e2be
00000200: 704f a73e 948c 593e 4e5f c13e 2479 0cbe
00000210: 70a8 413e 443d 0dbe 2436 7abe 90cb 483e
00000220: 38a4 4e3e 38ab 9a3d d0ba 5b3e acba 1a3e
00000230: 9cae 9b3e 200e 32be ea28 ae3e b823 d23d
00000240: 30d3 4fbd 7086 8dbe b038 e63d 58ea f1bd
00000250: c412 a13e 8044 583d cebd a93e 2cff 083e
00000260: c4ef d0be 2079 853e 8c9c debe b431 093e
00000270: a071 2ebe d41e fbbe b8bb 923d 5c06 ab3e
00000280: 18d2 8d3d 30c4 af3d 9019 72be 367e d43e
00000290: e89e 8c3d 1e59 eebe 44b3 d9be c2c8 943e
000002a0: 3483 33be 0820 c0be e06e d73e b039 18bd
000002b0: 2e73 c93e a4e5 a2be c2c7 e0be 3c72 d8be
000002c0: c474 84be 701e f1be 8c0f 8b3e 7838 e33e
000002d0: 50bd 5ebe 7ae0 b1be 6e28 e6be 50e1 f13e
000002e0: 7a9e dc3e 468d 903e 364b 81be b02a e83e
000002f0: d0b4 2dbd f62b 963e ea7c adbe 08de f6bd
00000300: c0c7 033d 7807 a53e c438 1a3e f4f4 b43e
00000310: be60 ee3e 702f 163d 5483 423e 60d8 b5bc
00000320: 00db 113b 8836 8fbd 908c cb3e 6089 693d
00000330: 5a3d c2be 600c b0bc 5212 f5be 46e8 f7be
00000340: d4ca 0abe d86a 3ebe 6033 67bd 6c1a 163e
00000350: c06e 35be a61a e8be 580c c23d baab 87be
00000360: 684f 053e e8c5 a73d aaaa d73e 86a5 81be
00000370: e016 653d 9098 f5be 6250 e7be dafd 813e
00000380: 721d 83be ecb5 2abe 94e9 80be 08f8 c43d
00000390: 4ecb dabe c092 36be b887 a93e 90ce 663d
000003a0: 3088 c03d 74f6 37be d05e 3a3e da22 b9be
000003b0: 207b 4dbd 401e ffbc fa9d 87be 3ee4 e73e
000003c0: 6881 3a3e c8cb c73d e00c c63c 0016 64bc
000003d0: 36c3 f13e 7822 d4be a00e 413d 404d 893d
000003e0: c488 4dbe c4a3 1dbe a46a 513e 7c03 563e
000003f0: 687e 853e 20ef 3a3e 641a e93e d8a1 ba3e

fc1.bias f4 [64]
0.37248325 0.3202899 0.08280498 0.49960738 0.39988256 -0.36716294 0.010950267 -0.23490417
-0.40986478 -0.22514272 -0.47775602 -0.18406534 -0.26311356 0.19567847 0.49037147 -0.3541981
-0.35000753 0.46274835 -0.04690665 -0.27733237 0.089562476 0.3257808 0.35109138 0.46346003
0.37818187 -0.35440004 0.060128212 -0.088517964 -0.4792084 -0.019407213 -0.44555324 -0.4138739
0.030360937 0.12857407 0.09604275 -0.09377557 0.28465194 -0.08484185 -0.031556487 -0.09115398
0.00049865246 -0.004169762 0.2054959 -0.072035015 0.06701547 0.3887257 0.04841554 0.13067597
-0.47961503 0.34022534 -0.25034678 -0.2367599 -0.062365115 -0.10146934 -0.13792616 0.18473864
-0.2868371 -0.44447827 0.45873696 0.14413154 -0.43583977 0.31080842 -0.40050346 -0.115368724
00000000: 20b6 be3e 0afd a33e a895 a93d 8acc ff3e
00000010: 68bd cc3e c8fc bbbe c068 333c b88a 70be
00000020: ccd9 d1be d08b 66be 709c f4be a07b 3cbe
00000030: d2b6 86be f05f 483e f811 fb3e 7459 b5be
00000040: 3034 b3be 5aed ec3e 3021 40bd 82fe 8dbe
00000050: 886c b73d becc a63e 40c2 b33e a24a ed3e
00000060: 0ea1 c13e ec73 b5be 0049 763d e848 b5bd
00000070: ce5a f5be e0fb 9ebc 8e1f e4be 48e7 d3be
00000080: 80b7 f83c eca8 033e 10b2 c43d 680d c0bd
00000090: e6bd 913e 90c1 adbd 6041 01bd f0ae babd
000000a0: 00b8 023a 80a2 88bb 846d 523e 1887 93bd
000000b0: 683f 893d 0e07 c73e 604f 463d eccf 053e
000000c0: 1a90 f5be 0432 ae3e 742d 80be 3071 72be
000000d0: 9072 7fbd 28cf cfbd 843c 0dbe 202c 3d3e
000000e0: 50dc 92be a892 e3be 92df ea3e 3897 133e
000000f0: 6426 dfbe 4822 9f3e ca0e cdbe 7046 ecbd

fc2.weight f4 [64, 64]
-0.084879115 -0.11582127 0.05968985 0.048306137 0.05154641 0.06296244 0.0012464374 -0.029594392
-0.073273644 0.022141948 0.116426125 0.087519765 0.0019408911 0.043657735 -0.0559617 0.06170003
0.052660704 -0.104858264 -0.061941132 0.0882902 0.006737441 0.062418997 -0.036643475 -0.038439155
0.031589553 0.04790379 -0.021962732 0.09915246 -0.09442733 -0.10644801 0.10403435 0.058622018
0.01386033 -0.12312652 -0.08617036 -0.04847659 0.0027733594 0.1041311 -0.08852063 0.017803043
-0.023293331 0.0033343136 0.06611882 -0.10762857 0.026339829 0.112004474 -0.093777314 -0.04733625
-0.057089955 0.049806133 -0.12456465 -0.046361998 0.021999061 -0.0888596 -0.109460816 0.06789869
0.11713557 0.0334419 0.048348635 -0.024757445 -0.0020004064 0.06177418 -0.108021066 0.09850463
0.012526467 0.018654421 0.11553116 0.050011843 0.0012406707 -0.020629749 0.013276741 -0.08616017
-0.08822292 -0.12252912 -0.0916726 -0.031013563 0.0705429 0.024735257 -0.09735504 -0.02367653
-0.059637055 0.038063467 0.03149648 -0.07008122 0.02429901 0.10613905 -0.005328104 0.08831011
-0.04757072 0.0047689676 0.01563862 0.04248005 0.050084367 -0.01678963 0.025807798 -0.080054805
0.10093519 -0.055200666 -0.08407524 0.045211762 -0.05788736 0.06487815 -0.033913597 -0.026707888
0.028282493 0.060560673 -0.0821698 0.08871792 0.08667071 -0.09614594 -0.04938644 0.109040245
0.05387029 -0.061235756 0.007974759 -0.107791826 0.030080423 0.09304507 0.038665727 -0.00069728494
0.06801291 -0.01892057 0.097846 0.065933675 -0.026650473 0.09684603 -0.11043899 -0.06881176
-0.010894597 -0.10579491 0.07346773 -0.12362106 -0.05669874 -0.092725545 -0.0028663129 -0.05419591
-0.07127917 -0.09221095 0.02964592 -0.026086777 0.05690494 0.060396478 0.023958772 0.06440224
-0.11984086 0.06432806 0.040532693 0.095181525 -0.09438722 -0.050033987 -0.0133726895 0.059984148
0.016136333 -0.0036451072 0.11558607 -0.10819566 0.046171635 0.020645916 -0.11069536 0.11958653
0.044160232 -0.11213067 -0.092739284 0.08503239 -0.113054916 -0.09742764 -0.09409091 0.10486843
0.09537469 -0.098549664 0.11376342 -0.09498793 -0.10292786 -0.050045088 0.0028934777 0.09080331
0.010358527 -0.1008082 0.07501075 -0.11507125 0.10361828 -0.045603216 0.095806316 -0.07866348
0.08645302 0.10923381 -0.057632238 -0.09918931 -0.033469513 -0.0781479 -0.06445363 0.0025339127
-0.009238571 -0.08889362 -0.0415968 0.10555911 0.046637774 0.06438756 -0.08366397 0.08492379
-0.08289604 0.07178889 -0.107864514 0.10926247 -0.032672986 -0.07053846 0.07417959 0.055801377
-0.09851132 0.069487795 0.018932328 -0.035023227 0.05799593 0.06938538 -0.045192644 -0.05057904
-0.109727725 -0.097803965 -0.030510575 -0.014882773 -0.07693085 -0.023419008 0.0017510206 0.022400826
-0.08864261 0.105967745 0.014802277 0.06971425 0.07587695 -0.10565874 0.042476147 -0.09551501
-0.12365252 0.11353581 0.046501353 -0.040322587 -0.109418884 -0.073352516 0.068571195 -0.0875584
-0.07234922 -0.11966647 -0.06885061 -0.049171582 -0.009260491 -0.004020229 0.11137225 -0.11774336
-0.10069044 -0.015945554 -0.071299925 -0.022469968 0.09946215 0.109482795 -0.08277817 0.116756484
00000000: 1ad5 adbd b433 edbd 587d 743d a8dc 453d
00000010: 5422 533d 74f2 803d 805f a33a f06f f2bc
00000020: 7e10 96bd 0863 b53c d270 ee3d 903d b33d
00000030: 8065 fe3a 74d2 323d 1838 65bd 2cb9 7c3d
00000040: c0b2 573d eebf d6bd fcb5 7dbd 7ed1 b43d
00000050: c0c5 dc3b 10ab 7f3d 7817 16bd 6072 1dbd
00000060: 0c64 013d c436 443d 30eb b3bc 7210 cb3d
00000070: 1e63 c1bd 6a01 dabd f60f d53d a41d 703d
00000080: 7016 633c c229 fcbd 167a b0bd 648f 46bd
00000090: 40c1 353b b042 d53d 4e4a b5bd b0d7 913c
000000a0: a8d1 bebc 8084 5a3b 4e69 873d 5e6c dcbd
000000b0: a0c6 d73c 9a62 e53d 520e c0bd a8e3 41bd
000000c0: 28d7 69bd 8401 4c3d c01b ffbd 14e6 3dbd
000000d0: 6037 b43c 06fc b5bd fe2c e0bd 780e 8b3d
000000e0: c6e4 ef3d 60fa 083d 3809 463d 20d0 cabc
000000f0: 4019 03bb ec06 7d3d 263a ddbd ccbc c93d
00000100: d03b 4d3c 28d1 983c 9a9b ec3d 38d9 4c3d
00000110: 009e a23a b8ff a8bc b086 593c be74 b0bd
00000120: 38ae b4bd 8cf0 fabd d8be bbbd 2810 febc
00000130: cc78 903d 98a1 ca3c 1462 c7bd 48f5 c1bc
00000140: fc45 74bd 70e8 1b3d 7402 013d be86 8fbd
00000150: b80e c73c 6e5f d93d 6097 aebb eedb b43d
00000160: 84d9 42bd 0045 9c3b 901c 803c 90ff 2d3d
00000170: 4425 4d3d 688a 89bc e06a d33c c6f3 a3bd
00000180: 1cb7 ce3d 181a 62bd a42f acbd f82f 393d
00000190: 4c1b 6dbd d6de 843d fce8 0abd 80ca dabc
000001a0: b0b0 e73c 780e 783d a448 a8bd beb1 b53d
000001b0: 6a80 b13d 2ae8 c4bd 7049 4abd 7e50 df3d
000001c0: 18a7 5c3d 58d2 7abd 90a8 023c f6c1 dcbd
000001d0: 386b f63c 6a8e be3d f45f 1e3d 00ca 36ba
000001e0: 5a4a 8b3d 50ff 9abc 7c63 c83d 3c08 873d
000001f0: 1852 dabc 3657 c63d d62d e2bd 2eed 8cbd
00000200: 407f 32bc 00ab d8bd 4076 963d 0a2d fdbd
00000210: f03c 68bd e4e6 bdbd c0d8 3bbb 88fc 5dbd
00000220: d0fa 91bd 18d9 bcbd 00dc f23c f0b3 d5bc
00000230: 2815 693d 4c62 773d 3045 c43c 52e5 833d
00000240: 206f f5bd 6ebe 833d 9c05 263d 88ee c23d
00000250: 164e c1bd 70f0 4cbd 2019 5bbc f0b1 753d
00000260: 5830 843c c0e2 6ebb 64b8 ec3d b095 ddbd
00000270: 781e 3d3d a021 a93c 40b4 e2bd c8e9 f43d
00000280: 5ce1 343d c4a4 e5bd 18ee bdbd 7625 ae3d
00000290: 5689 e7bd 2488 c7bd bcb2 c0bd 42c5 d63d
000002a0: ce53 c33d 68d4 c9bd ccfc e83d 0889 c2bd
000002b0: d8cb d2bd 14fc 4cbd 80a0 3d3b 16f7 b93d
000002c0: d0b6 293c 8874 cebd 3c9f 993d 7aaa ebbd
000002d0: d235 d43d 70ca 3abd 1a36 c43d 521a a1bd
000002e0: 480e b13d fab5 df3d c80f 6cbd c423 cbbd
000002f0: 5417 09bd 020c a0bd 4400 84bd 0010 263b
00000300: 605d 17bc dc0d b6bd 6861 2abd 602f d83d
00000310: 4007 3f3d a0dd 833d 0458 abbd 86ec ad3d
00000320: 66c5 a9bd 0e06 933d 12e8 dcbd 00c5 df3d
00000330: 1cd4 05bd 7876 90bd 78eb 973d fc8f 643d
00000340: 4ec0 c9bd 9e4f 8e3d f817 9b3c 8474 0fbd
00000350: 248d 6d3d ec19 8e3d ec1b 39bd f82b 4fbd
00000360: eeb8 e0bd 724d c8bd 50f1 f9bc e0d6 73bc
00000370: ec8d 9dbd 38d9 bfbc 8082 e53a f081 b73c
00000380: 428a b5bd 9e05 d93d 4085 723c 58c6 8e3d
00000390: 6065 9b3d 9c63 d8bd 78fb 2d3d 609d c3bd
000003a0: 883d fdbd 7685 e83d 3478 3e3d 4c29 25bd
000003b0: 0217 e0bd d839 96bd 0e6f 8c3d d251 b3bd
000003c0: d42b 94bd b213 f5bd 8c01 8dbd 2468 49bd
000003d0: 50b9 17bc 20bc 83bb 2217 e43d 6e23 f1bd
000003e0: ca36 cebd 40a0 82bc b205 92bd f012 b8bc
000003f0: d0b2 cb3d 8438 e03d 9a87 a9bd 061e ef3d

fc2.bias f4 [64]
-0.10163075 0.083921745 -0.10566461 0.036854222 0.07721403 -0.030373529 -0.04115647 0.07677156
0.017713085 0.08194275 0.06634982 0.097841814 -0.07766451 -0.12279236 -0.059295595 0.06436804
-0.10981737 0.07361874 -0.046388134 -0.085201696 0.014992058 -0.09449613 -0.02594614 -0.010808662
0.034867108 0.121877745 0.0778614 -0.11092611 -0.045227647 -0.080849364 0.08615273 -0.09399
0.1038668 0.052552223 0.061044946 -0.09691103 0.08496781 -0.10743673 -0.11717039 0.034700215
-0.0014060438 -0.08860208 0.025059506 -0.014200211 -0.04580438 -0.07486968 0.0075313896 -0.09268172
-0.03987439 0.062445328 0.11845566 -0.101490244 -0.0012913942 0.0019502491 0.07257113 -0.018903717
-0.013075009 0.01207912 0.08242948 0.09534089 0.039547816 0.056335986 -0.077882305 -0.03571689
00000000: c823 d0bd 2adf ab3d b066 d8bd 74f4 163d
00000010: 6422 9e3d e8d1 f8bc b093 28bd 683a 9d3d
00000020: 081b 913c 9ad1 a73d 6ae2 873d 4a61 c83d
00000030: 920e 9fbd 907a fbbd f0df 72bd 64d3 833d
00000040: eee7 e0bd 6cc5 963d 7c01 3ebd 3a7e aebd
00000050: 40a1 753c 3087 c1bd 008d d4bc d016 31bc
00000060: d0d0 0e3d 0a9b f93d cc75 9f3d 3a2d e3bd
00000070: a040 39bd 5a94 a5bd d870 b03d d47d c0bd
00000080: 1eb8 d43d 0041 573d 440a 7a3d 4a79 c6bd
00000090: 9a03 ae3d ca07 dcbd 08f7 efbd d021 0e3d
000000a0: 004b b8ba 0275 b5bd 9849 cd3c 00a8 68bc
000000b0: 609d 3bbd 4655 99bd e0c9 f63b eacf bdbd
000000c0: 5453 23bd acc6 7f3d e298 f23d 1eda cfbd
000000d0: 0044 a9ba 809f ff3a 2ca0 943d f8db 9abc
000000e0: 9038 56bc 80e7 453c cad0 a83d 1642 c33d
000000f0: e4fc 213d 90c0 663d c280 9fbd e04b 12bd

fc3.weight f4 [6, 64]
-0.09788017 0.008678928 -0.11086707 -0.006349534 0.00793238 -0.09327909 -0.031276852 0.019858018
0.060388982 0.049465895 -0.06273042 0.0045769215 -0.011775538 0.08349937 0.058441624 -0.020761818
0.0808066 0.0824727 0.058705658 -0.07398164 0.0093575865 0.036719576 0.101813525 0.035846174
0.023095116 0.096908286 -0.05568832 -0.011916354 -0.049948096 -0.11300883 0.0025045127 0.008590296
0.12129685 -0.032456666 0.034026936 0.013984412 0.028459132 0.123649925 0.044872046 0.055468947
0.08199689 -0.07149868 -0.029020801 -0.04785247 0.08337495 0.109594345 -0.07347682 0.08663669
-0.028443411 0.061987787 0.017218828 -0.05157408 -0.098170385 -0.043959096 -0.1177147 0.08254999
-0.079090536 0.011158049 -0.12087835 -0.10051586 -0.079906106 0.017720744 0.024258122 -0.10933496
-0.046850592 0.08656943 -0.108425125 0.058837608 -0.05739619 0.010534748 0.08567463 -0.042863756
-0.12284537 -0.07190077 0.07227078 -0.008608907 -0.04398425 -0.003740579 -0.043445274 0.10885285
0.021709532 -0.082289666 0.05111438 -0.0030964762 0.091563895 0.048709616 0.107529044 0.038187787
0.009200633 0.086171106 0.10554081 0.045409963 0.057944342 -0.079947665 -0.08260177 0.06895259
0.10536833 -0.114749566 0.05103217 0.020045534 -0.027544871 0.086127 0.0409161 0.12427424
-0.045077994 -0.03991285 -0.118126824 -0.06259321 0.12164903 -0.038350537 0.08151224 -0.033880934
-0.06527817 -0.012717396 -0.009626552 0.12007807 -0.055785343 -0.101213366 -0.0936919 0.11031212
0.0905315 0.08304705 -0.024167895 0.0030617565 -0.08457743 0.039287046 -0.051185682 -0.06005688
-0.07823284 -0.048910514 -0.013132617 0.09243758 -0.09890804 -0.09417102 0.051973626 0.08126879
0.0053058416 0.040348068 -0.07732877 -0.015782118 0.07222298 -0.00056937337 -0.110181525 0.043795794
-0.075651094 -0.012664586 -0.012567535 0.1223553 0.11071448 0.109560415 0.079567984 -0.11026652
-0.07400836 0.0875718 0.023963422 0.0033425093 -0.03693089 0.11522214 0.06827012 -0.011966407
0.004817143 -0.043703407 -0.06997971 0.051193476 -0.06096953 -0.12351832 -0.08558953 -0.018767715
0.10496874 0.0044598132 -0.079992205 0.10277085 0.032771245 0.03166561 -0.03904064 0.09072702
0.005248904 0.08062641 0.01671809 0.076658666 0.014035627 0.08535336 0.058530048 0.07650024
-0.118173346 0.023732573 0.06799093 0.042231977 0.039880276 -0.08343576 -0.08927964 0.069331735
-0.10989411 -0.12182467 0.059580192 -0.042653203 -0.030256122 -0.07692857 0.053431123 0.01778397
0.031512603 -0.011931285 -0.02907519 0.044166178 -0.116947144 -0.110358894 0.04761885 -0.11723305
0.10941017 -0.048617736 0.071090266 -0.04204139 0.11940348 0.07165311 -0.12066817 0.013500243
-0.1042708 0.082237124 -0.12409216 0.0686754 0.07388957 -0.101521045 -0.121287346 -0.0042444766
0.011953175 -0.10054238 0.044091985 0.041655123 -0.05412875 0.028243229 -0.041853413 -0.054618463
-0.084824115 -0.027714714 0.063563615 -0.08401246 -0.06959322 -0.076931104 -0.09159432 -0.065739766
0.09426898 0.045293137 -0.056253687 -0.07961373 0.098764494 0.09875554 0.078794956 -0.027561069
-0.004914075 -0.008915633 -0.08916174 0.046263486 0.049982533 0.00088970363 0.09308554 -0.08835617
00000000: 6675 c8bd 1032 0e3c 460e e3bd c00f d0bb
00000010: d0f6 013c 1c09 bfbd 281c 00bd 48ad a23c
00000020: 705a 773d c09c 4a3d ce78 80bd 00fa 953b
00000030: 30ee 40bc b801 ab3d 7c60 6f3d b014 aabc
00000040: ee7d a53d 72e7 a83d 5875 703d b083 97bd
00000050: 9050 193c 4467 163d 9c83 d03d 70d3 123d
00000060: f831 bd3c da77 c63d 7019 64bd d03c 43bc
00000070: 6096 4cbd 2c71 e7bd c022 243b 50be 0c3c
00000080: 7c6a f83d 48f1 04bd d45f 0b3d e01e 653c
00000090: 2023 e93c 2c3c fd3d c0cb 373d 6833 633d
000000a0: fced a73d e66d 92bd 08bd edbc f400 44bd
000000b0: 7cc0 aa3d 0073 e03d 047b 96bd 946e b13d
000000c0: 2802 e9bc e8e6 7d3d 800e 8d3c 583f 53bd
000000d0: 8e0d c9bd 740e 34bd 6814 f1bd f80f a93d
000000e0: 38fa a1bd 40d0 363c 128f f7bd 42db cdbd
000000f0: d0a5 a3bd 182b 913c f8b8 c63c 02eb dfbd
00000100: 68e6 3fbd 504b b13d fe0d debd b4ff 703d
00000110: 4418 6bbd f099 2c3c 2e76 af3d e891 2fbd
00000120: 5a96 fbbd b640 93bd b402 943d 600c 0dbc
00000130: d428 34bd 8024 75bb acf3 31bd 3eee de3d
00000140: 30d8 b13c 7c87 a8bd 505d 513d 40ee 4abb
00000150: da85 bb3d bc83 473d 3038 dc3d cc6a 1c3d
00000160: 40be 163c 7a7a b03d c825 d83d ccff 393d
00000170: 0c57 6d3d 9abb a3bd 1e2b a9bd 0437 8d3d
00000180: 5acb d73d d201 ebbd 1c07 513d 8836 a43c
00000190: c8a5 e1bc 5a63 b03d a497 273d 7e83 fe3d
000001a0: b4a3 38bd a87b 23bd 7aec f1bd de30 80bd
000001b0: 2023 f93d 7415 1dbd e4ef a63d bcc6 0abd
000001c0: 90b0 85bd a05c 50bc b0b8 1dbc 7eeb f53d
000001d0: 2c7f 64bd f448 cfbd 8ae1 bfbd 52eb e13d
000001e0: 9468 b93d 9214 aa3d c0fb c5bc c0a7 483b
000001f0: ee36 adbd 74eb 203d 14a8 51bd 34fe 75bd
00000200: 8a38 a0bd 6456 48bd 302a 57bc ea4f bd3d
00000210: 4c90 cabd bcdc c0bd 4ce2 543d 4070 a63d
00000220: a0dc ad3b 0444 253d 8c5e 9ebd 8049 81bc
00000230: a4e9 933d 0042 15ba daa6 e1bd 3863 333d
00000240: f6ee 9abd 207f 4fbc 10e8 4dbc 6a95 fa3d
00000250: 46be e23d 3661 e03d 8af4 a23d 6ad3 e1bd
00000260: b291 97bd d858 b33d f04e c43c 000e 5b3b
00000270: d844 17bd 96f9 eb3d 34d1 8b3d c00e 44bc
00000280: 20d9 9d3b 5802 33bd 8651 8fbd 40b0 513d
00000290: 30bb 79bd 2cf7 fcbd 9049 afbd c0be 99bc
000002a0: daf9 d63d a023 923b f4d2 a3bd 8679 d23d
000002b0: 243b 063d ccb3 013d 14e9 1fbd 16cf b93d
000002c0: 00ff ab3b 761f a53d 60f4 883c 38ff 9c3d
000002d0: b0f5 653c becd ae3d 34bd 6f3d 28ac 9c3d
000002e0: de04 f2bd d06a c23c d43e 8b3d 70fb 2c3d
000002f0: 8059 233d 5ee0 aabd 3ed8 b6bd ccfd 8d3d
00000300: 2a10 e1bd 367f f9bd 5c0a 743d 20b5 2ebd
00000310: b0db f7bc ba8c 9dbd 98da 5a3d b0af 913c
00000320: 5c13 013d 707b 43bc 182f eebc 98e7 343d
00000330: fc81 efbd d803 e2bd fc0b 433d e217 f0bd
00000340: 7012 e03d 6423 47bd c697 913d 9833 2cbd
00000350: d089 f43d debe 923d e020 f7bd 2030 5d3c
00000360: ee8b d5bd f06b a83d 0824 febd b0a5 8c3d
00000370: 6a53 973d 44ea cfbd 8065 f8bd 4015 8bbb
00000380: 40d7 433c 2ae9 cdbd cc99 343d 909e 2a3d
00000390: 1cb6 5dbd 585e e73c 7c6e 2bbd 9cb7 5fbd
000003a0: 44b8 adbd f809 e3bc a42d 823d ba0e acbd
000003b0: e486 8ebd 0e8e 9dbd ce95 bbbd 92a2 86bd
000003c0: 1810 c13d 4c85 393d 446a 66bd 860c a3bd
000003d0: 0a45 ca3d 5840 ca3d 405f a13d c0c7 e1bc
000003e0: 4006 a1bb e012 12bc 6e9a b6bd c87e 3d3d
000003f0: 7cba 4c3d 003b 693a a2a3 be3d 14f4 b4bd

fc3.bias f4 [6]
0.12346193 -0.12050912 -0.08795351 0.02918218 -0.03799221 -0.116415635
00000000: 9cd9 fc3d 7ccd f6bd f820 b4bd 780f ef3c
00000010: b89d 1bbd 526b eebd
