saved_models/dqn_best_model_episode_8804.pt (torch, 87371 bytes, 24 tensors)

fc1.weight f4 [64, 4]
000000 2b 1b 16 be 94 b2 47 3e 97 8b d0 3e 1b cd ab bc
       -0.14658801 0.19501716 0.407315 -0.020971825
000010 bc eb bc bd 39 a0 b4 3e e7 ee c1 be fd f4 63 bd
       -0.0922465 0.3527849 -0.3787758 -0.05565356
000020 c3 4d ce be fa b9 0e 3d dc e2 16 be 19 4b fb 3d
       -0.40293702 0.03484533 -0.14734977 0.12270183
000030 bb 72 d7 be 6f 70 7f 3d 63 1d ad 3d cc 6a e7 3e
       -0.4207972 0.062363084 0.08452871 0.45198667
000040 93 19 f4 3e ad b3 90 be ae 6a e0 be bb 5a 16 3e
       0.47675762 -0.28262082 -0.4383139 0.14683048
000050 e4 05 79 3e 2b ff 2e be 50 a5 b9 be 75 00 14 3d
       0.24318653 -0.17089526 -0.36258936 0.03613325
000060 2f b0 f8 be 1e aa f0 3e dc f5 e4 be 52 f6 ee bd
       -0.48571917 0.4700479 -0.44718826 -0.116680756
000070 55 d8 e0 3e d6 eb ef 3e e8 6c 9a 3e 2c 4b cb be
       0.43915048 0.46859616 0.30161214 -0.3970579
000080 8d 34 8a be bf 46 c8 3e c5 65 ec 3b 3e 84 0e 3d
       -0.26993218 0.39116475 0.0072142803 0.034794085
000090 34 be f7 be fc 4e 84 be d0 9e 77 be 80 a9 3c bc
       -0.483873 -0.2584151 -0.24181676 -0.011515021
0000a0 2e bf ea 3b 1a da c5 be 8a 84 80 be 44 97 ba be
       0.0071639037 -0.3864296 -0.2510112 -0.36443532
0000b0 38 1b a1 3e 7a 69 6b 3e e2 f1 d3 3d 59 b4 1a be
       0.3146608 0.22989455 0.1034887 -0.1510786
0000c0 4b e3 7c 3e a9 d4 73 be c9 55 b3 3e 7a c2 23 3d
       0.2469608 -0.23811592 0.35026386 0.03998039
0000d0 44 9e f3 be 58 d6 20 3d c2 89 da be 4c ba 7d be
       -0.47581685 0.039266914 -0.42683226 -0.24778098
0000e0 8f 91 e5 3d 15 02 fb be 8d a5 e6 be db 91 51 3e
       0.11209404 -0.49025026 -0.4504818 0.20465796
0000f0 e4 8c b5 3d aa 2a c3 3e 7b 32 9e 3d 5d 04 5c 3d
       0.088647634 0.38118488 0.07724472 0.0537151
000100 57 a7 ca 3e 10 ac 98 3e e0 96 a4 bd 36 8d dc 3d
       0.39580795 0.29818773 -0.080365896 0.10769121
000110 04 23 a6 3e f4 d1 c6 3e 67 c6 1d 3e 5e 6c f5 be
       0.3244859 0.38832057 0.15407716 -0.4793424
000120 14 86 bd be 68 3d c6 be 94 da 0a be 5c d0 ed be
       -0.37016356 -0.38718724 -0.13559943 -0.46448028
000130 81 e4 c5 3b 1b e8 88 bd d1 ca 9c bd e7 c7 b9 3e
       0.0060392027 -0.066848956 -0.07655872 0.36285326
000140 47 d5 48 3e d0 4a 88 3d f0 f6 20 be c7 f3 c2 3e
       0.19612609 0.06654894 -0.15719199 0.38076612
000150 96 b5 bb 3d 2d e7 1d be bf fb 52 3e 85 bd 7d be
       0.09165494 -0.15420218 0.20603846 -0.24779327
000160 cd 0b af 3e ac ba d4 3e 89 26 f8 3d 3f 69 87 bd
       0.3418869 0.4154867 0.12116725 -0.06611871
000170 29 91 0f 3e 13 a0 15 3e 3a ba e7 bd af c4 2b 3d
       0.14020218 0.14611845 -0.11314817 0.04193562
000180 ee 72 4d bd fa 56 ba be 17 c7 da 3e 93 83 a6 be
       -0.050158434 -0.36394483 0.42730018 -0.32522258
000190 a2 de 9b be fc c7 c1 3e e1 50 c5 be 34 16 8e bd
       -0.30443293 0.37847888 -0.38538268 -0.06937829
0001a0 8e cc e1 be 5b b4 14 3d c1 c4 95 3e 62 e8 67 3e
       -0.44101375 0.036304813 0.29251674 0.22647241
0001b0 97 79 fe 3e 59 57 07 be 00 0f f3 be 78 75 d8 be
       0.4970214 -0.13216914 -0.47472382 -0.42277122
0001c0 0a 01 e4 be 13 9c af 3d a0 86 e5 3d b8 21 f6 be
       -0.44532043 0.08574691 0.11207318 -0.480726
0001d0 8d 15 49 3e f8 e3 84 be 3a be 99 3e 56 d9 b5 be
       0.19637127 -0.25955176 0.30027944 -0.35517377
0001e0 af 27 a8 3e 75 f1 b9 be d1 a9 60 be 63 a3 88 3e
       0.32842776 -0.3631703 -0.2193978 0.26687154
0001f0 70 5d 8b 3d 9f 04 b1 bd 08 c3 85 3e bb f1 1a 3c
       0.06804931 -0.086434595 0.2612536 0.009457047
000200 d5 ba 98 3e 89 70 d6 3e f2 6e f0 3e 7a 21 9b be
       0.29830042 0.41882733 0.46959645 -0.30298978
000210 b9 d5 c2 be b3 86 3a 3e 9a 8c ef be 84 a1 9e 3e
       -0.38053682 0.18215446 -0.46786958 0.30982602
000220 9e 14 9e be 77 2a 74 3d dc db 69 3a b6 ef e8 3d
       -0.30875105 0.05961081 0.0008921006 0.11373846
000230 ff 93 47 be bd e9 d2 3e 1e a3 ec be 60 37 05 bd
       -0.1949005 0.41193953 -0.462182 -0.032523513
000240 e0 9b e9 3d b2 36 fe 3e b0 0e 91 3e af 74 9a be
       0.11406684 0.49651104 0.28331518 -0.30167148
000250 b8 ab 89 be dd 34 5c be 43 38 57 bd fa 6c 26 3e
       -0.26888824 -0.2150454 -0.05254389 0.16252509
000260 6e 8b ae 3e 1a 42 08 bd 8f 95 da 3e c1 20 a5 3d
       0.3409075 -0.033266164 0.4269223 0.08062888
000270 09 b8 e6 bd 87 9f 7a 3e 43 3c a4 3e de ae 29 be
       -0.11265571 0.24474917 0.32077226 -0.16570613
000280 d1 35 a0 3e 01 71 ee 3e b9 e6 67 3e f5 e4 b8 3d
       0.3129106 0.4657059 0.22646607 0.09028045
000290 03 85 d4 3e f9 fb eb 3e 9c e6 b5 be 6c 0e 7c be
       0.4150773 0.46090677 -0.35527503 -0.24614877
0002a0 a0 13 ed be f0 ce da be dc ee a2 be 2c 2a 4b be
       -0.46304035 -0.42736006 -0.3182286 -0.19840306
0002b0 03 30 ca 3a 82 8e f8 be b3 2e c2 3e 46 95 8e be
       0.0015425686 -0.48546225 0.37926254 -0.27848262
0002c0 34 74 0e be 28 7a f8 be 38 cf db be 8a 6c bf be
       -0.13911515 -0.48530698 -0.42931533 -0.37387496
0002d0 44 a2 37 be 56 59 f1 be 20 37 cc 3c 50 f9 02 bd
       -0.17932993 -0.4713847 0.02492863 -0.031976044
0002e0 b9 6f 8a 3e 21 e5 e7 3d 69 cc 2d 3d ce 08 de 3c
       0.27038363 0.11323 0.04243127 0.027103808
0002f0 2a fe c1 3d 06 88 f4 3e a1 9a 84 3e ce 70 d7 be
       0.09472306 0.47760028 0.25899222 -0.4207825
000300 c8 83 c5 3e 17 22 bc 3e f9 de fc 3d 0c 9e af 3e
       0.38577104 0.36744758 0.12347216 0.34300268
000310 c5 62 d7 be e5 c8 fa 3e 90 1f 20 3e 48 47 aa 3d
       -0.42067543 0.48981395 0.1563704 0.08314377
000320 d2 bf 7a be 9d 6f b3 3d 91 1f 9e 3e d3 93 c8 be
       -0.24487236 0.08761523 0.30883458 -0.3917528
000330 0e d9 28 3e 5e 41 ee 3e 42 08 d7 3e eb 06 cb be
       0.1648905 0.46534246 0.41998488 -0.39653715
000340 76 1c 2b 3c 13 f6 04 3e 71 95 94 be d3 b7 cd 3c
       0.010443797 0.12984495 -0.29020265 0.025112068
000350 22 98 b2 3e 54 3c 96 3e 8f 8a e6 be 5b c8 e3 3e
       0.34881693 0.29342902 -0.45027587 0.44488797
000360 bb f2 af 3d 07 c4 b8 3e f1 c5 c6 be 03 86 10 3e
       0.08591219 0.36087057 -0.38822892 0.14113621
000370 f2 84 45 3d 59 bd 37 3e d0 3c d6 be 49 35 8a bd
       0.04822249 0.17943324 -0.4184327 -0.067484446
000380 03 69 b3 3a 98 94 ec 3e f8 24 ec bd b2 58 69 3e
       0.0013687912 0.46207118 -0.11530489 0.22787741
000390 26 2e 00 3e c3 db d6 3e d2 b1 e4 3e 52 17 3e be
       0.12517604 0.4196454 0.44666916 -0.18563583
0003a0 63 45 ba 3e 2c b2 32 3e 80 85 33 be e0 90 d3 3e
       0.36381063 0.1745078 -0.17531395 0.41321468
0003b0 03 0c a3 3e 09 e2 48 be 86 81 a5 3d 3e 7a cf bd
       0.31845102 -0.19617476 0.08081345 -0.10130738
0003c0 39 b2 37 be 4c 81 fd bd 65 2d 8a 3e d0 67 e2 be
       -0.1793908 -0.12378177 0.26987758 -0.44219828
0003d0 2b a6 d3 3e af 74 30 be e4 15 55 3e fe 0c c1 be
       0.41337714 -0.17232011 0.20809132 -0.37705225
0003e0 10 fc d0 be e8 08 d6 be d4 a5 e6 3e ef b4 03 3d
       -0.40817308 -0.4180367 0.45048392 0.032154974
0003f0 b3 75 b7 be 38 63 08 be b4 2f f2 bc c3 d5 8d 3e
       -0.35831985 -0.13319099 -0.029563762 0.2770215

fc1.bias f4 [64]
000000 a6 12 a3 3e 9c 6d 79 3e f1 0f f0 3e 2f 81 4e be
       0.31850165 0.24358219 0.46887162 -0.20166467
000010 1b bf dd be 0e c0 af 3e ba 64 73 be 15 16 b6 3e
       -0.43309864 0.34326214 -0.23768893 0.35563722
000020 b6 ae a2 3e 4c 28 9a be 3d c8 b3 bd b3 b9 8a 3c
       0.3177392 -0.3010887 -0.08778427 0.016934251
000030 30 ef 77 3d 32 7a d3 3e f9 27 ed be af 5a e5 be
       0.06053084 0.41304165 -0.4631956 -0.4479575
000040 4d 02 85 be 80 39 df be 48 ce 34 3e 0c 5c cf 3e
       -0.25978318 -0.43598557 0.17656815 0.40499914
000050 b2 56 ef 3d 7a f6 b2 bd 50 f7 00 bf 30 b1 37 be
       0.11686458 -0.08738418 -0.5037737 -0.17938685
000060 ee c5 6a 3e 02 70 be 3e d7 04 83 3e 73 aa b8 be
       0.22927067 0.3719483 0.2558963 -0.36067542
000070 17 bb 0b 3e b9 30 e6 be 18 cb b6 bd f1 22 08 bd
       0.13645588 -0.44959047 -0.08925456 -0.033236448
000080 22 37 f6 bc c4 56 74 be 68 24 b8 3e cd 0a 49 3e
       -0.030055586 -0.23861223 0.35965276 0.19633026
000090 db d6 8a 3e 85 65 05 be 47 2f 0d 3e 9f b7 a3 3e
       0.27117047 -0.13027008 0.13787566 0.3197603
0000a0 74 99 fe 3e c0 64 bc bc c8 db e1 be 5d fc ba be
       0.4972645 -0.02299726 -0.44112992 -0.36520663
0000b0 04 b9 b5 3e 0c bb 4b 3e d2 09 d4 3e de c0 bd be
       0.35492718 0.19895571 0.41413742 -0.37061208
0000c0 8b 77 fa 3e 75 81 2a 3e ca 87 23 3e 23 dc e5 3d
       0.4891933 0.16650946 0.15969768 0.11223628
0000d0 aa 68 09 be b4 aa 36 be c7 91 2d be 8a 66 9f 3e
       -0.13418832 -0.17838556 -0.16950141 0.3113292
0000e0 68 49 a9 be 3a 01 7c be ad be 07 be dc 13 c6 3e
       -0.33063817 -0.24609843 -0.13256331 0.38687027
0000f0 d2 88 e3 3e 26 93 80 3d c4 45 b3 be 09 ad 6c be
       0.44440323 0.06278066 -0.35014164 -0.23112883

fc2.weight f4 [64, 64]
000000 d3 80 b3 bd ea 17 b8 3d ce ff de bd 48 94 d9 bc
       -0.08764806 0.08988936 -0.108886346 -0.026559964
000010 10 31 85 bc 87 90 0d bd 8c 0b cc 3d 2c cd 91 bb
       -0.016258746 -0.03456166 0.0996314 -0.004449507
000020 5c 18 dc 3d c0 44 83 3c 34 6b e3 3d db 03 84 3d
       0.10746834 0.016023993 0.11104432 0.06446048
000030 5e 40 ae bd 30 e5 9e 3d a8 eb aa bd 7c 50 92 3d
       -0.08508371 0.07758558 -0.08345729 0.071442574
000040 bd 7b 93 bd d1 8c 28 bd 7c f1 af bd 96 af c5 3b
       -0.072013356 -0.041149918 -0.08590981 0.0060328944
000050 8e 9f f7 bd fe 98 fa 3d 18 3e 4d 3d c6 e4 8d 3d
       -0.120909795 0.12236212 0.050108045 0.06928401
000060 54 c6 80 3d 0a 22 d2 bd ec dc 80 bd 43 e8 4d bd
       0.06287828 -0.10260399 -0.062921375 -0.05027033
000070 a9 b8 20 bd 80 ee ac bd fc 69 38 bd fc 4d 92 bd
       -0.039238606 -0.08443928 -0.04502295 -0.071437806
000080 8b b7 2d bd 21 9d 67 bd 07 56 d7 3b a8 13 b7 bd
       -0.04241137 -0.056546334 0.0065715346 -0.08939296
000090 ce 3e 2d bd 00 f4 e5 39 27 ad c0 bd d9 4f 3b 3d
       -0.042296223 0.00043860078 -0.09408026 0.045730446
0000a0 9f 80 25 3c 4b f8 38 bd dc e5 21 3d f0 f8 77 bd
       0.010101466 -0.045158666 0.03952585 -0.06054014
0000b0 28 af e6 3c 68 90 ce 3c 32 aa 21 3d 21 b3 6d bc
       0.028159693 0.025215343 0.03946895 -0.01450804
0000c0 6c a2 74 3d f3 1f 0a 3d 00 86 a0 3d e4 cd 12 3d
       0.05972521 0.033721875 0.078380585 0.035840884
0000d0 f8 74 65 3d b2 71 bf 3c 0e ad 21 3d c9 dc 9f 3b
       0.056019753 0.023369644 0.03947168 0.0048786146
0000e0 2b 5f c1 bd c0 89 ca 3c f7 9c b2 bd 4a 17 fc bd
       -0.0944198 0.024723887 -0.08721345 -0.123091295
0000f0 1b 3a 8a bd fa 5b b2 3d f0 a0 ec 3d d0 45 c0 3d
       -0.06749364 0.087089494 0.11554134 0.09388316
000100 94 2d b3 3c e6 3c 93 3d 1d cc c3 bc cf 59 c1 bd
       0.02187232 0.0718935 -0.02390104 -0.09440958
000110 b8 ef f7 3d c4 33 32 3d e7 6d 2e bc 2e b1 db bd
       0.121062696 0.0435064 -0.01064632 -0.10727154
000120 bb c4 8b 3d 14 9b f2 3d 73 f0 51 bd be 58 be 3c
       0.06824633 0.11845985 -0.0512547 0.023235675
000130 fb d4 c6 bd 14 b5 c7 bd e0 6d e7 bd d9 92 22 bd
       -0.097085916 -0.09751335 -0.11300254 -0.039690826
000140 f5 cd 38 3c 9a 15 1e 3c 0c 68 b5 3d c8 15 c6 3d
       0.011279573 0.009648705 0.08857736 0.09672123
000150 77 59 12 bd a2 c4 54 3d 59 2c 70 bd fb 58 83 3d
       -0.03572985 0.051945336 -0.058636043 0.06413456
000160 b8 f5 ac bd 33 0b 4e bd 4f 0b bb 3d 64 ec 1d bd
       -0.08445305 -0.05030365 0.09133016 -0.038555518
000170 34 91 9d 3d c6 07 d9 bd f2 ba 85 bc cb e4 92 3d
       0.07693711 -0.10597186 -0.016324494 0.07172545
000180 16 7c d1 3d 32 8c ee bc bb 62 be bd 5b 9c d3 bd
       0.10228746 -0.029119585 -0.09296175 -0.10332557
000190 cd 2b c1 3c 56 68 13 3d 4e 65 48 3d 10 6a 7f bd
       0.023580456 0.035988174 0.048924737 -0.06235701
0001a0 51 76 ab bc d4 e1 55 bd 44 95 15 3d d6 4f 3c bd
       -0.020930441 -0.05221732 0.036519304 -0.045974575
0001b0 78 f3 ae bd 18 5b 91 3d 8c 72 57 3d 01 6d 9c 3d
       -0.08542532 0.07097453 0.052599475 0.07637978
0001c0 00 b8 df 3d d5 a8 c3 3d 6f de de 3d 5c 87 08 bd
       0.10923767 0.095536865 0.108822696 -0.033332214
0001d0 9e c9 5e bc 73 d6 82 bd 58 4e 82 bc 56 79 de bc
       -0.013597874 -0.06388559 -0.015906498 -0.027157467
0001e0 f4 d0 07 3e 7d 35 cd 3c 06 c9 af 3d 6b 6c f4 3d
       0.13263303 0.02504992 0.08583264 0.119347416
0001f0 52 cc e8 3d 62 7a 09 bd a5 df 01 be 21 24 d3 bb
       0.11367096 -0.03356398 -0.1268297 -0.006443516
000200 79 b0 0c bd 60 c8 ef bd 08 a1 f3 3d e5 f6 d2 bd
       -0.034347985 -0.117081404 0.11895949 -0.10300998
000210 39 46 fe bd 3d f2 cb 3d 02 31 ae bd 2c 54 60 3d
       -0.12415738 0.09958313 -0.08505441 0.054767773
000220 35 4d f8 bd 70 63 d2 3d 4c 44 8f 3d 5a 19 1f 3b
       -0.12124101 0.102728724 0.069954485 0.0024276585
000230 2b fb f2 3d 40 b4 83 bc 36 df e5 bd 26 b2 ee bc
       0.11864313 -0.01607716 -0.11224215 -0.029137682
000240 64 e8 a4 3d 73 7f bd bd f8 f7 0b 3d ee 5b 48 bc
       0.080521375 -0.09252825 0.03417203 -0.012228949
000250 51 29 82 bd e2 19 33 3d 48 bd e6 bd f2 d1 72 3d
       -0.06355537 0.043725856 -0.11266571 0.05928225
000260 13 e4 e7 3c 61 19 cb bd 3a a0 20 3d bf 3a d4 bc
       0.028306996 -0.0991695 0.039215304 -0.025906919
000270 1a 80 8e bd bf 25 fe 3c 7a 1e 92 3c df 8f f6 3d
       -0.06958027 0.031023858 0.017836798 0.1203916
000280 bc c0 ec 3d f0 04 09 bd 93 1e 5a bd f1 1a 3d 3d
       0.11560199 -0.033451974 -0.053251814 0.04616827
000290 0a 6a a1 bd 9c c4 66 3d ea 8a d8 bd 17 ab 0f bd
       -0.078815535 0.056339845 -0.10573371 -0.035075273
0002a0 aa 45 ea 3d 8f 19 85 bd c0 76 61 bd 38 61 1a bd
       0.114390686 -0.064990155 -0.05504489 -0.03769037
0002b0 36 3a e7 3d d6 51 d8 bd 63 6d c4 bd 7d 54 2f bd
       0.112904 -0.10562484 -0.09591176 -0.042805184
0002c0 e1 93 ca bd 28 1b ce 3d 57 00 c8 3d d8 23 df 3d
       -0.09891487 0.100637734 0.0976569 0.108955085
0002d0 50 ce 5b 3d 51 15 b6 bc c5 a1 e8 bd 02 e6 fa 3d
       0.05366355 -0.022226961 -0.1135898 0.12250902
0002e0 fb 8d c3 3d 80 94 dd 3c 3a 9b ad 3c c2 08 ee bd
       0.09548565 0.02704835 0.021192182 -0.11622764
0002f0 09 65 8c 3d a1 e7 33 37 7a 92 e8 bd 82 31 89 3c
       0.068552084 1.0723162e-05 -0.11356063 0.01674724
000300 80 53 a7 3a 0c 23 c4 bd 40 b6 00 bd dc ce 21 bd
       0.0012765974 -0.09576997 -0.031423807 -0.039503917
000310 4a b6 9a bd 32 4a a6 3d b8 f5 b9 3c 3c a4 d2 3d
       -0.075543 0.081196204 0.022700176 0.102852315
000320 90 4e c9 bc fa 41 ee bd 78 ac 33 bd b4 d7 45 bd
       -0.024573594 -0.11633678 -0.04386565 -0.048301414
000330 10 9a b5 3d 28 53 e7 3d a2 1b bf 3d 58 61 d3 3c
       0.08867276 0.11295158 0.093314424 0.025803253
000340 a0 96 c3 bb f6 50 bf bd bc 63 2c bd b6 01 be 3d
       -0.0059688836 -0.09341614 -0.0420873 0.0927767
000350 f0 c7 42 bc 68 c2 c7 3c 14 d1 e3 bd 3a 69 ae 3d
       -0.011888489 0.024384692 -0.11123863 0.08516164
000360 bc b7 fe 3d b0 10 f8 bc f0 15 df bd c8 e9 f8 bd
       0.12437388 -0.030281395 -0.10892856 -0.12153965
000370 9c 9e 4c 3d 1a ca d4 3d 82 24 9c bd 40 e3 03 bc
       0.04995595 0.1039011 -0.07624151 -0.008049786
000380 40 f7 95 bb 4a cc ba bd 0c 8a 2b 3d 8e 26 d2 bd
       -0.0045765936 -0.09120996 0.0418797 -0.1026126
000390 54 be af bd 60 6a 6e bc f8 52 91 bd e8 9c b5 bc
       -0.08581224 -0.014551729 -0.07095903 -0.022169545
0003a0 96 d7 ec bd a8 57 ae 3c 48 0c b1 3d 3e 57 c3 bd
       -0.11564557 0.021282032 0.086449206 -0.095381245
0003b0 ec 82 d5 3d 00 a5 14 3b d8 e1 f3 bd d4 98 ca 3d
       0.10425362 0.0022681355 -0.11908311 0.09892431
0003c0 f2 4e f5 bd 18 b6 a0 3d ae 30 b4 bd 5c 2a b4 bd
       -0.11977948 0.078472316 -0.087983474 -0.08797142
0003d0 84 4a 32 3d 44 d5 88 3d 18 72 9a 3c 84 2b 3f bd
       0.043528095 0.06681302 0.018853232 -0.04667236
0003e0 30 43 cb 3c d4 82 59 3d 10 9c 49 bc f8 51 e8 bd
       0.024812311 0.053103283 -0.012305275 -0.11343759
0003f0 b8 c5 ca 3d d4 d1 6a bd c0 88 26 bb bc e6 d8 bd
       0.09900993 -0.057329014 -0.00254111 -0.10590884

fc2.bias f4 [64]
000000 4d 85 14 3d a0 6c 74 ba b9 24 26 bd c2 fe d0 bd
       0.036259938 -0.0009324048 -0.040562365 -0.10204841
000010 a1 89 b4 bd 18 ba 60 bd 70 56 76 3c 22 3e f5 bd
       -0.08815313 -0.054864973 0.015035257 -0.119747415
000020 19 72 b0 3d 6e 16 4d 39 e0 76 df 3c 6d b2 62 bb
       0.086155124 0.00019558679 0.027278364 -0.0034591213
000030 39 cc 0c 3d 9b 17 c9 3d aa 49 3e bd de 26 99 bd
       0.03437445 0.098189555 -0.04645697 -0.074781165
000040 d6 70 60 3d 0d 48 35 3d 29 47 f5 3d a7 71 10 3d
       0.05479511 0.044258166 0.11976463 0.035264637
000050 32 50 d6 bd bc 8b b7 bd 5d 6b 65 bd 99 49 a4 3d
       -0.10464515 -0.08962199 -0.056010593 0.0802185
000060 eb 68 c9 bd de 20 3e 3d f4 3f 89 bd 0e 34 86 bd
       -0.09834465 0.046418063 -0.06701651 -0.065528974
000070 40 c9 6b 3d 94 66 e0 bd 10 31 0f 3c 69 5f c8 3d
       0.057564974 -0.10957065 0.008739725 0.09783823
000080 3d 8b de 3d b2 ee 6c 3c 82 d6 6a 3c c0 e0 8e bb
       0.10866401 0.014461206 0.014333369 -0.0043602884
000090 62 a4 5f bd 27 f5 e6 bd 00 39 96 3d f4 07 93 3d
       -0.054600127 -0.11277228 0.07335091 0.07179251
0000a0 7d 96 2d bd cd 1b 87 bd 76 33 85 bd 5e e3 66 bd
       -0.042379845 -0.065970995 -0.06503956 -0.056369178
0000b0 00 b0 b5 3c eb 0b d0 bd 2f 8a d0 bc 52 63 e2 3d
       0.02217865 -0.10158523 -0.025456516 0.110541
0000c0 19 f5 ea bd 3e b0 c4 bd be dc e5 3d 0b 3b af bd
       -0.1147253 -0.09603928 0.11223744 -0.085561834
0000d0 33 8d 4d 3c a0 5a 98 3b cc cb b6 3d ec 8a f7 3d
       0.012545872 0.004649475 0.0892559 0.12087044
0000e0 c8 41 91 bd 16 84 de bd 43 70 16 3d bc 12 22 bd
       -0.07092625 -0.10865037 0.036728155 -0.039568648
0000f0 b1 95 d7 bd d8 8b ac 3c 9b b5 9c 3c 7a 4b 8b bc
       -0.10526598 0.021062776 0.019129565 -0.017003763

fc3.weight f4 [6, 64]
000000 b9 71 a0 3c d0 cf 8b 3c c1 7b 8e 3d e0 2c 21 bd
       0.019585477 0.017066866 0.06957198 -0.039349437
000010 93 92 b6 3c eb 2d e8 ba b7 8f 01 3e 18 94 87 3c
       0.022286689 -0.001771388 0.12652479 0.016550109
000020 3b f9 22 3d cc 8f 7a 3d 84 44 ce 3d 23 a9 35 3d
       0.039788466 0.06117229 0.10071662 0.044350754
000030 0e d1 f8 bd 71 22 61 3d e1 06 02 3e 89 ec 93 bd
       -0.12149249 0.054964487 0.12697937 -0.0722285
000040 40 ac 7c bd 8c 70 d2 3d 65 0d 57 3d cb 50 e5 bc
       -0.061687708 0.10275373 0.05250301 -0.027992627
000050 dc 86 dd 3d e5 e9 e3 bd ae c6 d2 3d 1c db 1f bd
       0.10816738 -0.11128596 0.102918014 -0.03902732
000060 76 b7 a2 bc ae fd cf bc 82 ba f6 bd d4 3c 57 3d
       -0.019862872 -0.025389519 -0.12047292 0.052548245
000070 40 a0 61 bd f9 85 e8 bd 08 6c 95 3d 00 b8 02 b9
       -0.055084467 -0.11353678 0.07295996 -0.00012466311
000080 6e 8f b2 bc 73 62 e3 3d 82 24 b3 bd f1 00 c3 bd
       -0.021796908 0.11102762 -0.08747198 -0.09521664
000090 3a 76 2e 3d e0 b0 8e ba ff b4 7e bc 7c 40 e1 bb
       0.04259322 -0.0010886453 -0.0155460825 -0.006874142
0000a0 05 9e b0 3c cf 1b 6b bd de ed 8b 3d 39 cf e8 bd
       0.021559725 -0.057399567 0.06832479 -0.113676496
0000b0 08 88 d4 bc 80 57 32 3a d9 8a 63 3d 8f 30 88 3d
       -0.025943771 0.00068031996 0.055552337 0.06649887
0000c0 40 b3 32 3d 4e 70 cd 3d 30 65 ac 3c 7d 59 44 3c
       0.043627977 0.10031186 0.021044344 0.011984226
0000d0 3f ab 08 bd f4 fb 18 bd 8b c1 91 3d ad 2b f4 3b
       -0.033366438 -0.037349656 0.071169935 0.0074514956
0000e0 ee 24 db 3d 04 a0 9d 3d 06 2c 95 3c c0 a0 7b 3d
       0.10700403 0.07696536 0.018209469 0.0614326
0000f0 0d 5c 8b 3c 23 fc a7 3d e2 89 57 bd a5 34 c0 3d
       0.017011667 0.08202388 -0.05262173 0.09385041
000100 8d d2 9d bd c0 ba 06 3e f6 24 47 3d 80 cd ae ba
       -0.07706175 0.13157177 0.048619233 -0.001333639
000110 8a ae cc bd 08 ca 4d 3d d1 ce 66 3d 60 60 f2 bd
       -0.09994228 0.0502415 0.05634958 -0.11834788
000120 64 3f e8 bb 47 59 8d 3d 96 9f 8a bd b8 38 da 3c
       -0.007087635 0.06901794 -0.0676872 0.026638374
000130 17 f6 ba bd 5a 2d 46 3d 68 4a fb bd 7f 26 a5 bd
       -0.09128969 0.048383094 -0.12270051 -0.08063983
000140 99 5a b0 3d 5a a1 e3 3d d2 89 c8 3d 4e 42 a9 bd
       0.0861103 0.1111476 0.09791912 -0.082646
000150 95 99 a1 3d 69 6a a0 3c 0c fa 3e bd 03 18 f5 bd
       0.078906216 0.01958199 -0.046625182 -0.119674705
000160 bb c6 97 3c 3d 1a d1 bd c7 eb d6 3d 00 9c 15 3c
       0.01852738 -0.10210083 0.1049419 0.009131432
000170 f2 ea 4b bd f0 ef af 3d 74 46 02 bd 28 9d 2f bd
       -0.04978461 0.08590686 -0.03180547 -0.042874485
000180 c3 66 25 bd 91 19 ac 3d 29 7d cf 3d e5 76 b5 3d
       -0.040381204 0.08403314 0.10131294 0.08860568
000190 d0 9e 12 3d 31 66 b1 3d 3d e9 8b 3d b0 00 a8 bd
       0.035795987 0.086620696 0.06831596 -0.08203256
0001a0 82 ea a0 3c c5 37 83 bd ae e7 07 3d 29 d7 a2 bc
       0.019643072 -0.064071216 0.03317993 -0.019877987
0001b0 f8 44 6b bd ba 90 a8 3d 64 b2 42 3d 51 50 89 3d
       -0.05743882 0.082307294 0.047533408 0.06704772
0001c0 c3 40 e9 bc 69 80 26 3d 0a 40 0c be fc e3 ed bd
       -0.028473264 0.040649805 -0.13696304 -0.1161575
0001d0 09 4f 94 bd 66 4d 8b 3d 04 ac a6 bd 97 af 9d 3d
       -0.07241637 0.06801872 -0.08138278 0.07699507
0001e0 e6 7e 68 bb 00 d4 2c bd 61 e2 ea 3d 1c ea 2d 3d
       -0.0035476028 -0.042194366 0.114689596 0.042459592
0001f0 5e 44 5b 3d 83 28 c1 bc 0a e8 a3 bd ee ee fc 3d
       0.053531997 -0.023578888 -0.08003242 0.1235026
000200 a1 9a fd bd aa 45 7a bd f6 a9 c9 bd 80 0c 12 bd
       -0.12383009 -0.061101593 -0.098468706 -0.035656452
000210 ca ac c4 bd 8c 66 0c bd 19 6d aa 3d 42 e5 9d bd
       -0.096032694 -0.034277484 0.0832159 -0.07709743
000220 19 98 08 3d 55 63 19 3d 3c 61 ee bd a5 e0 58 bd
       0.033348177 0.037448246 -0.1163964 -0.052948613
000230 8d 87 c4 3c 05 37 f3 3d c6 bb 11 bd 1c 9b 06 bb
       0.023990417 0.118757285 -0.035579465 -0.002053923
000240 2c 65 0e 3d 88 7e b5 3d 42 3f c1 3c 2b 51 87 3c
       0.034764454 0.088620245 0.023589734 0.016518196
000250 4e 55 bc 3d 53 92 55 3c 8e ab a3 3d fa f0 dd 3c
       0.09195958 0.013035375 0.07991706 0.027092446
000260 77 2a 84 bd 3b e3 62 bd ff bc a0 bc 7c 75 3b bd
       -0.06453412 -0.055392485 -0.01962137 -0.04576634
000270 04 8e b5 bd 62 2c 61 bd 38 f5 c1 bc a8 a9 e7 bd
       -0.08864978 -0.054973967 -0.0236765 -0.11311656
000280 f3 88 f3 3d d9 05 91 3d 0d e7 b0 3d 27 9c e8 3d
       0.11891355 0.070811935 0.086378194 0.11357909
000290 a9 ea 45 bd 16 c7 f0 bd db bf 4b bd 4a cf cd bd
       -0.048319492 -0.11756723 -0.049743515 -0.10049303
0002a0 fd 20 e5 bd 39 44 bf bd 6a d2 bf 3d 2e 85 c3 bd
       -0.11187933 -0.09339184 0.09366305 -0.095468864
0002b0 d4 b8 d6 bd 0f b8 28 3d a9 48 b6 3d dd a4 c0 bc
       -0.10484472 0.041191157 0.089005776 -0.023516113
0002c0 32 88 82 bd 33 b8 d6 3d 75 48 b7 3c 61 2a a2 bd
       -0.063736334 0.10484352 0.022373417 -0.079182394
0002d0 a7 b5 f8 3d f5 20 cf bb f5 09 1c 3c 4c 58 ce bd
       0.121440224 -0.0063210675 0.009523858 -0.10075435
0002e0 45 f7 f4 bc 60 09 c2 3d 1d 83 6e 3d 68 f9 b0 3d
       -0.029903064 0.094744444 0.058230508 0.086413205
0002f0 d5 7f b9 bd 7e 28 20 bd 48 95 7e 3d f9 25 bc 3d
       -0.09057585 -0.039101116 0.062154084 0.0918693
000300 00 f2 9b 3d 03 89 c0 bd bf 64 18 bd e4 96 a0 3d
       0.07614517 -0.09401133 -0.037205454 0.0784128
000310 9a 4c de bd ac b2 6a bd b4 e1 81 bd c4 04 ff bd
       -0.10854454 -0.0572993 -0.063418776 -0.12452081
000320 ac 99 97 3d 61 42 86 bd 52 12 9f 3d d7 e3 1a 3c
       0.074023575 -0.065556295 0.07767166 0.009453735
000330 4e 99 79 3d b6 74 9e bd 63 e7 4a 3d 5b 1e bc bd
       0.06093722 -0.077371046 0.049537074 -0.09185477
000340 48 b8 a1 3d a6 84 bd 3c 08 20 db 3d 3c fe 9a 3d
       0.07896477 0.02313454 0.10699469 0.075680226
000350 2c 52 c3 bd 96 6f 2f 3d 4e 5e e4 3d 9e 42 bd 3d
       -0.095371574 0.042831026 0.111508 0.09241222
000360 a9 06 cb bd 0b 22 cb 3d 91 77 af b8 7c a2 0a bd
       -0.0991338 0.099186026 -8.366921e-05 -0.033846363
000370 b5 08 87 3d 27 1a df 3d 94 66 5c 3d b2 7a a9 bd
       0.065934576 0.1089366 0.053808764 -0.082753554
000380 50 a1 5e bd 32 3f b5 bd 4c e9 d2 bd a2 d5 96 bd
       -0.05435306 -0.08849944 -0.10298404 -0.07364966
000390 08 08 53 bd 2c 2f 59 3d 77 eb c0 bd 20 61 50 3d
       -0.05152133 0.053023502 -0.09419911 0.050873876
0003a0 c3 5b 67 3d a3 f2 29 bc 50 d7 e2 3d a7 87 85 bd
       0.056483995 -0.0103727905 0.11076224 -0.06520014
0003b0 e8 c3 d4 bc 81 d6 bc bd b8 01 af 3c 3a f5 0a bd
       -0.025972322 -0.09220601 0.021363124 -0.033925273
0003c0 b0 9b f4 3d 81 33 06 bd 1f 06 bc 3d c7 ed 8b bd
       0.119437575 -0.03276396 0.09180855 -0.06832462
0003d0 2b 16 87 bd 99 37 d4 bd 81 4e 8f bd e1 59 8d bd
       -0.06596025 -0.10362167 -0.06997395 -0.06901909
0003e0 aa d8 e8 3d d6 8d e4 3d 3c ec fb 3c f6 c8 fb bd
       0.113694504 0.111598656 0.030752294 -0.1229419
0003f0 14 e7 ee 3d 35 2b ea 3d fb d3 df bd e0 85 7a 3d
       0.116651684 0.11434022 -0.10929104 0.06116283

fc3.bias f4 [6]
000000 31 d3 69 bc b8 60 ec 3d 09 06 2f bd 40 1a af 3d
       -0.014271543 0.11541885 -0.042730365 0.08549929
000010 ac e0 fe 3d ac b2 b2 3d
       0.124451965 0.08725485

fc1.weight f4 [64, 4]
000000 56 e9 16 be a4 a7 47 3e 6d d6 d0 3e 7f 8f ab bc
       -0.14737448 0.19497544 0.40788594 -0.020942448
000010 3f fe bc bd 1d 9b b4 3e 37 e4 c2 be e0 17 68 bd
       -0.09228181 0.35274592 -0.3806474 -0.056663394
000020 16 42 ce be 04 48 0e 3d 73 e2 16 be 85 c3 fa 3d
       -0.40284795 0.03473665 -0.14734821 0.12244324
000030 38 a7 d7 be 45 3a 7f 3d 62 d3 ab 3d fb 30 e7 3e
       -0.42119765 0.06231143 0.083899274 0.45154557
000040 df 22 f4 3e 92 a0 90 be 57 49 e0 be 30 1e 15 3e
       0.47682855 -0.28247505 -0.43805954 0.14562297
000050 06 1e 78 3e eb fc 2f be ea a1 b9 be cb aa 16 3d
       0.24230203 -0.17186324 -0.36256343 0.036783975
000060 1b f4 f8 be 04 59 f0 3e bf a3 e6 be 4c d3 ee bd
       -0.48623738 0.46942914 -0.45046803 -0.116613954
000070 62 ab e0 3e 78 01 f0 3e 70 dc 99 3e a8 a9 cb be
       0.43880755 0.4687612 0.30050993 -0.39777875
000080 b6 3f 8a be 38 55 c8 3e 6e ef b0 3b 5d 12 09 3d
       -0.27001733 0.39127517 0.005399636 0.03346478
000090 34 be f7 be fc 4e 84 be d0 9e 77 be 80 a9 3c bc
       -0.483873 -0.2584151 -0.24181676 -0.011515021
0000a0 2e bf ea 3b 1a da c5 be 8a 84 80 be 44 97 ba be
       0.0071639037 -0.3864296 -0.2510112 -0.36443532
0000b0 c7 10 a1 3e f8 62 6b 3e 09 00 d6 3d ca ac 19 be
       0.31458113 0.22986972 0.104492255 -0.1500732
0000c0 a8 74 7d 3e ff 1e 73 be d1 fb b2 3e 58 40 21 3d
       0.24751532 -0.23742293 0.34957746 0.039368004
0000d0 44 9e f3 be 58 d6 20 3d c2 89 da be 4c ba 7d be
       -0.47581685 0.039266914 -0.42683226 -0.24778098
0000e0 34 97 e5 3d 33 10 fb be 59 93 e6 be 7c 80 51 3e
       0.1121048 -0.49035797 -0.45034292 0.20459169
0000f0 97 d4 b4 3d ae 33 c3 3e 90 46 9e 3d 9c 94 5a 3d
       0.08829611 0.38125366 0.077283025 0.05336438
000100 b3 c2 ca 3e c8 b8 98 3e 42 2f a0 bd d0 8b de 3d
       0.3960167 0.29828477 -0.07821514 0.10866511
000110 78 2a a6 3e 52 c1 c6 3e 4a fa 1c 3e 15 c5 f5 be
       0.32454276 0.38819367 0.15329853 -0.48001924
000120 14 86 bd be 68 3d c6 be 94 da 0a be 5c d0 ed be
       -0.37016356 -0.38718724 -0.13559943 -0.46448028
000130 ae 2a c4 3b 34 91 88 bd ae 79 9d bd 0a cc b9 3e
       0.005986533 -0.0666832 -0.07689224 0.36288482
000140 d9 0d 49 3e c9 13 88 3d 92 c4 20 be 1b c4 c2 3e
       0.19634189 0.06644399 -0.15699986 0.38040242
000150 a9 ad bb 3d 4d 80 1d be be 10 52 3e 8e 04 7e be
       0.091639824 -0.15380974 0.20514199 -0.24806425
000160 dc 25 af 3e 6e ab d4 3e ee 34 f8 3d 6b 7c 85 bd
       0.34208572 0.4153704 0.121194705 -0.065178715
000170 90 df 0f 3e f7 a5 15 3e 6f 25 e9 bd cd 4b 2c 3d
       0.14050126 0.14614092 -0.11384093 0.042064477
000180 e3 3a 4c bd 3c ff b9 be ce f0 da 3e 2b 73 a6 be
       -0.049860846 -0.3632754 0.42761844 -0.3250974
000190 a7 58 9c be 4e 62 c1 3e 95 9d c4 be 21 54 8c bd
       -0.30536386 0.37770313 -0.38401476 -0.06851984
0001a0 3c c1 e1 be 75 4d 15 3d 3c ee 95 3e 9d b3 67 3e
       -0.4409274 0.036450822 0.2928332 0.22627111
0001b0 28 52 fe 3e dd 82 07 be 8a 4d f3 be f4 12 d8 be
       0.49672055 -0.13233514 -0.47520095 -0.4220196
0001c0 0a 01 e4 be 13 9c af 3d a0 86 e5 3d b8 21 f6 be
       -0.44532043 0.08574691 0.11207318 -0.480726
0001d0 33 f6 47 3e 11 2a 85 be 8d 35 99 3e 98 e2 b5 be
       0.19527511 -0.26008657 0.29923669 -0.3552444
0001e0 ee 3a a9 3e f6 e6 b8 be c4 c2 5e be 00 37 89 3e
       0.33052772 -0.3611371 -0.21753985 0.26799774
0001f0 44 ba 88 3d ae 6c b2 bd 86 43 85 3e c5 2e 11 3c
       0.06676152 -0.08712135 0.2602808 0.008861248
000200 fa b2 98 3e 17 82 d6 3e 99 9d f0 3e b1 2f 9b be
       0.29824048 0.41896126 0.46995237 -0.30309823
000210 99 d1 c3 be 1a a3 38 3e e9 4f ef be c2 7f 9e 3e
       -0.38245848 0.18030968 -0.46740654 0.30956846
000220 93 65 9e be bf d9 71 3d 31 c4 11 3a 39 0d e8 3d
       -0.3093687 0.05904555 0.0005560546 0.11330647
000230 ae dd 47 be 90 bc d2 3e 1f 73 ed be 2c 81 09 bd
       -0.19518158 0.41159487 -0.46376893 -0.033570454
000240 61 18 ea 3d c9 23 fe 3e ba c0 90 3e 11 79 9a be
       0.11430431 0.49636677 0.2827204 -0.3017049
000250 11 ec 89 be cf 05 5c be 5b 0b 59 bd a3 1a 26 3e
       -0.26937917 -0.21486591 -0.052989345 0.16221099
000260 e1 d0 ae 3e ed 80 08 bd 12 ad da 3e d2 4a a6 3d
       0.34143737 -0.03332608 0.42710167 0.081197396
000270 ac 88 e6 bd de 79 7a 3e e8 67 a4 3e ac 9b 2a be
       -0.11256537 0.24460551 0.32110524 -0.16660947
000280 96 31 a0 3e 67 76 ee 3e d2 ee 66 3e 5c e7 b6 3d
       0.3128783 0.4657471 0.2255204 0.08930847
000290 33 80 d4 3e db d7 eb 3e d5 da b5 be 97 8a 7a be
       0.41504058 0.46063122 -0.35518518 -0.2446693
0002a0 a0 13 ed be f0 ce da be dc ee a2 be 2c 2a 4b be
       -0.46304035 -0.42736006 -0.3182286 -0.19840306
0002b0 ea bf cc 3a 31 89 f8 be 40 33 c2 3e d3 8a 8e be
       0.001562116 -0.4854217 0.37929726 -0.2784029
0002c0 34 74 0e be 28 7a f8 be 38 cf db be 8a 6c bf be
       -0.13911515 -0.48530698 -0.42931533 -0.37387496
0002d0 44 a2 37 be 56 59 f1 be 20 37 cc 3c 50 f9 02 bd
       -0.17932993 -0.4713847 0.02492863 -0.031976044
0002e0 62 3e 8a 3e bc 06 e8 3d f1 79 2b 3d 45 17 d8 3c
       0.2700072 0.113294095 0.04186434 0.026378283
0002f0 48 70 c1 3d a4 9d f4 3e 9a 96 84 3e 60 c1 d7 be
       0.09445244 0.4777652 0.2589615 -0.4213972
000300 18 87 c5 3e ef 31 bc 3e 1b b9 fd 3d 64 b2 af 3e
       0.3857963 0.36756846 0.12388822 0.3431579
000310 fb 80 d7 be 3a a7 fa 3e ba bc 1f 3e 39 7c ac 3d
       -0.42090592 0.4895571 0.15599337 0.08422131
000320 48 49 7b be 97 a3 b2 3d 9f db 9d 3e 15 42 c9 be
       -0.24539673 0.087226085 0.3083162 -0.3930823
000330 9c 6a 28 3e 80 53 ee 3e 83 ea d6 3e d5 c8 cb be
       0.16446918 0.4654808 0.41975793 -0.3980166
000340 58 77 2b 3c 5c b5 04 3e 20 e6 94 be a5 9b c8 3c
       0.0104654655 0.12959808 -0.2908182 0.02448828
000350 96 b9 b2 3e c9 13 96 3e eb ca e6 be c9 14 e4 3e
       0.34907216 0.2931197 -0.4507669 0.44547108
000360 d6 ae af 3d 84 d8 b8 3e e2 06 c7 be 3c 64 0f 3e
       0.08578269 0.36102688 -0.3887244 0.1400308
000370 13 70 43 3d a4 dd 37 3e 13 95 d6 be 93 98 89 bd
       0.047714304 0.17955643 -0.4191061 -0.06718554
000380 ef d6 be 3a e4 9a ec 3e 41 a3 ec bd 94 d4 68 3e
       0.0014559905 0.46211922 -0.11554576 0.22737342
000390 21 11 00 3e 25 e2 d6 3e f7 dc e5 3e 9d a4 3d be
       0.12506534 0.4196941 0.44895145 -0.18519826
0003a0 ec 45 ba 3e af 8b 32 3e a4 9c 32 be 01 bb d3 3e
       0.3638147 0.17436098 -0.17442566 0.4135361
0003b0 6f 2b a3 3e 20 c1 48 be 19 32 a3 3d ae 28 d1 bd
       0.31869075 -0.19604921 0.0796854 -0.10212837
0003c0 39 b2 37 be 4c 81 fd bd 65 2d 8a 3e d0 67 e2 be
       -0.1793908 -0.12378177 0.26987758 -0.44219828
0003d0 c9 06 d4 3e c3 5c 30 be 62 59 53 3e 96 f4 c0 be
       0.41411427 -0.17222886 0.20639566 -0.37686604
0003e0 49 bd d0 be e8 08 d6 be 7e f7 e6 3e 04 8c 06 3d
       -0.40769413 -0.4180367 0.45110697 0.032848373
0003f0 3f 8d b7 be c9 54 08 be 71 21 f5 bc 6d df 8d 3e
       -0.3584995 -0.13313593 -0.029923173 0.27709523

fc1.bias f4 [64]
000000 a6 0a a3 3e 4c db 78 3e eb f2 ef 3e 6b f4 4e be
       0.31844062 0.24302405 0.4686502 -0.20210426
000010 ba 29 de be 48 d3 af 3e 3e 15 74 be ca e0 b5 3e
       -0.4339121 0.34340882 -0.23836228 0.35523063
000020 58 2d a2 3e 4c 28 9a be 3d c8 b3 bd 9a 06 91 3c
       0.3167522 -0.3010887 -0.08778427 0.017703343
000030 84 f4 75 3d 32 7a d3 3e 0e 2e ed be c2 cf e5 be
       0.06004764 0.41304165 -0.463242 -0.4488507
000040 7a 74 84 be 7e 78 df be 48 ce 34 3e 76 5a cf 3e
       -0.25870115 -0.43646616 0.17656815 0.40498704
000050 31 70 ee 3d 00 3f b5 bd b9 dd 00 bf 5e 45 38 be
       0.116424926 -0.08849907 -0.5033832 -0.17995211
000060 3b 16 6b 3e a1 30 be 3e c5 fa 82 3e 8e 8d b8 be
       0.22957699 0.37146476 0.25581947 -0.36045498
000070 17 bb 0b 3e 52 24 e7 be 64 ec b1 bd c7 74 0e bd
       0.13645588 -0.45144898 -0.08687666 -0.034779336
000080 e7 1a f2 bc d9 d2 75 be 55 e0 b7 3e 9f c4 48 3e
       -0.029553844 -0.24006213 0.3591334 0.19606255
000090 85 cd 8a 3e ce c1 05 be 46 90 0d 3e 0d e0 a3 3e
       0.27109924 -0.13062212 0.13824567 0.32006875
0000a0 c6 18 fe 3e 8c d3 b3 bc c8 db e1 be 08 f8 ba be
       0.49628276 -0.02195146 -0.44112992 -0.36517358
0000b0 04 b9 b5 3e 0c bb 4b 3e 30 26 d4 3e a6 4a be be
       0.35492718 0.19895571 0.41435385 -0.37166327
0000c0 e9 0b fa 3e 9a 26 2b 3e 75 fa 22 3e d9 8b e3 3d
       0.48837212 0.16713944 0.15915854 0.11110658
0000d0 3d 03 0a be ef ec 36 be 05 e3 2d be 35 a5 9f 3e
       -0.13477798 -0.1786382 -0.16981132 0.3118073
0000e0 f6 92 a9 be 3f b3 7b be a3 ef 06 be cf 1f c6 3e
       -0.33119935 -0.24580096 -0.13177352 0.38696143
0000f0 d2 88 e3 3e 57 40 81 3d 67 f1 b2 be b4 a1 6c be
       0.44440323 0.063111 -0.349498 -0.2310856

fc2.weight f4 [64, 64]
000000 d3 80 b3 bd ea 17 b8 3d ce ff de bd 48 94 d9 bc
       -0.08764806 0.08988936 -0.108886346 -0.026559964
000010 10 31 85 bc 87 90 0d bd 8c 0b cc 3d 2c cd 91 bb
       -0.016258746 -0.03456166 0.0996314 -0.004449507
000020 5c 18 dc 3d c0 44 83 3c 34 6b e3 3d db 03 84 3d
       0.10746834 0.016023993 0.11104432 0.06446048
000030 5e 40 ae bd 30 e5 9e 3d a8 eb aa bd 7c 50 92 3d
       -0.08508371 0.07758558 -0.08345729 0.071442574
000040 bd 7b 93 bd d1 8c 28 bd 7c f1 af bd 96 af c5 3b
       -0.072013356 -0.041149918 -0.08590981 0.0060328944
000050 8e 9f f7 bd fe 98 fa 3d 18 3e 4d 3d c6 e4 8d 3d
       -0.120909795 0.12236212 0.050108045 0.06928401
000060 54 c6 80 3d 0a 22 d2 bd ec dc 80 bd 43 e8 4d bd
       0.06287828 -0.10260399 -0.062921375 -0.05027033
000070 a9 b8 20 bd 80 ee ac bd fc 69 38 bd fc 4d 92 bd
       -0.039238606 -0.08443928 -0.04502295 -0.071437806
000080 8b b7 2d bd 21 9d 67 bd 07 56 d7 3b a8 13 b7 bd
       -0.04241137 -0.056546334 0.0065715346 -0.08939296
000090 ce 3e 2d bd 00 f4 e5 39 27 ad c0 bd d9 4f 3b 3d
       -0.042296223 0.00043860078 -0.09408026 0.045730446
0000a0 9f 80 25 3c 4b f8 38 bd dc e5 21 3d f0 f8 77 bd
       0.010101466 -0.045158666 0.03952585 -0.06054014
0000b0 28 af e6 3c 68 90 ce 3c 32 aa 21 3d 21 b3 6d bc
       0.028159693 0.025215343 0.03946895 -0.01450804
0000c0 6c a2 74 3d f3 1f 0a 3d 00 86 a0 3d e4 cd 12 3d
       0.05972521 0.033721875 0.078380585 0.035840884
0000d0 f8 74 65 3d b2 71 bf 3c 0e ad 21 3d c9 dc 9f 3b
       0.056019753 0.023369644 0.03947168 0.0048786146
0000e0 2b 5f c1 bd c0 89 ca 3c f7 9c b2 bd 4a 17 fc bd
       -0.0944198 0.024723887 -0.08721345 -0.123091295
0000f0 1b 3a 8a bd fa 5b b2 3d f0 a0 ec 3d d0 45 c0 3d
       -0.06749364 0.087089494 0.11554134 0.09388316
000100 42 20 ae 3c 0d c0 93 3d a2 8b c6 bc fa cf c1 bd
       0.021255616 0.07214365 -0.024236504 -0.094634965
000110 dc 6b f9 3d 7d 1c 35 3d 1e 6b 49 bc 56 a2 db bd
       0.12178776 0.04421662 -0.012293605 -0.107243225
000120 18 88 8b 3d 14 9b f2 3d 73 f0 51 bd 36 d5 be 3c
       0.06813067 0.11845985 -0.0512547 0.023295026
000130 e5 59 c9 bd 14 b5 c7 bd 0b 1c e8 bd ae 61 22 bd
       -0.09831599 -0.09751335 -0.11333474 -0.039643936
000140 ff 84 3a 3c a7 64 1f 3c 0c 68 b5 3d 8e 51 c5 3d
       0.011384248 0.009728587 0.08857736 0.09634696
000150 3c dd 11 bd 2f 19 4f 3d 78 e6 6f bd 02 ae 83 3d
       -0.035611376 0.050561126 -0.0585694 0.06429674
000160 e7 26 ad bd d6 2a 4e bd 73 52 ba 3d fb e4 1b bd
       -0.08454686 -0.05033382 0.09097757 -0.03806017
000170 34 91 9d 3d 69 77 db bd 7d dd 95 bc f9 a8 90 3d
       0.07693711 -0.10716135 -0.01829409 0.07063479
000180 6f 72 d1 3d ba 2d f4 bc 9b 9b be bd b4 06 d3 bd
       0.102269046 -0.02980696 -0.09307023 -0.10304013
000190 aa 1b c1 3c 47 01 12 3d 55 e3 47 3d 8a 43 80 bd
       0.023572762 0.03564575 0.048800785 -0.06262882
0001a0 b2 72 ab bc 7c 37 55 bd 44 95 15 3d 1d 66 3c bd
       -0.020928714 -0.052054867 0.036519304 -0.04599582
0001b0 78 f3 ae bd 18 5b 91 3d b8 9c 57 3d e2 79 9c 3d
       -0.08542532 0.07097453 0.052639693 0.07640435
0001c0 98 be df 3d b5 8d c2 3d ed 09 df 3d 09 a1 08 bd
       0.10925025 0.09499685 0.10890565 -0.0333567
0001d0 bf d9 56 bc a4 74 82 bd 83 89 80 bc 2c 89 db bc
       -0.013113438 -0.06369904 -0.01569057 -0.026798807
0001e0 21 e7 07 3e c7 cd cc 3c 70 06 b0 3d e4 81 f4 3d
       0.13271762 0.025000466 0.08594978 0.11938837
0001f0 52 cc e8 3d e4 45 09 bd f0 e2 01 be 75 86 dd bb
       0.11367096 -0.03351392 -0.12684226 -0.0067604133
000200 03 54 0b bd 60 c8 ef bd 08 a1 f3 3d f5 46 d2 bd
       -0.034015667 -0.117081404 0.11895949 -0.1026744
000210 39 46 fe bd 3d f2 cb 3d 02 31 ae bd 68 a0 61 3d
       -0.12415738 0.09958313 -0.08505441 0.055084616
000220 0d 9a f7 bd 70 63 d2 3d 4c 44 8f 3d d5 aa 33 3b
       -0.1208993 0.102728724 0.069954485 0.0027415056
000230 f3 a6 f3 3d 40 b4 83 bc 36 df e5 bd 0a fc eb bc
       0.118970774 -0.01607716 -0.11224215 -0.028806705
000240 d5 91 a5 3d 92 75 bd bd f8 f7 0b 3d ce ec 42 bc
       0.08084456 -0.092509404 0.03417203 -0.011897279
000250 25 7a 81 bd b1 1c 33 3d 9b 13 e6 bd e1 25 74 3d
       -0.06322125 0.043728534 -0.11234208 0.059606437
000260 13 e4 e7 3c 61 19 cb bd 2a 02 22 3d bf 3a d4 bc
       0.028306996 -0.0991695 0.039552845 -0.025906919
000270 1a 80 8e bd 67 27 fe 3c 7d 99 94 3c d5 3c f7 3d
       -0.06958027 0.031024648 0.018139595 0.1207215
000280 03 69 ed 3d f0 04 09 bd 93 1e 5a bd f1 1a 3d 3d
       0.11592295 -0.033451974 -0.053251814 0.04616827
000290 45 c0 a0 bd 9c c4 66 3d ef de d7 bd 11 4b 0e bd
       -0.078491725 0.056339845 -0.10540568 -0.034739558
0002a0 b9 f2 ea 3d 0a 11 85 bd c0 76 61 bd 38 61 1a bd
       0.11472077 -0.064973906 -0.05504489 -0.03769037
0002b0 36 3a e7 3d d6 51 d8 bd f9 c1 c3 bd 0d 99 2e bd
       0.112904 -0.10562484 -0.09558482 -0.04262643
0002c0 04 e7 c9 bd 6d c8 ce 3d 57 00 c8 3d b1 cb df 3d
       -0.09858516 0.10096822 0.0976569 0.10927523
0002d0 50 ce 5b 3d c6 5e b3 bc 2d f5 e7 bd 02 e6 fa 3d
       0.05366355 -0.021895777 -0.113260604 0.12250902
0002e0 a5 3b c4 3d 23 3b e0 3c aa 4f b0 3c e9 65 ed bd
       0.09581689 0.027371949 0.021522362 -0.115917034
0002f0 09 65 8c 3d 91 ac fa 37 7a 92 e8 bd 82 31 89 3c
       0.068552084 2.988268e-05 -0.11356063 0.01674724
000300 80 53 a7 3a 0c 23 c4 bd 40 b6 00 bd dc ce 21 bd
       0.0012765974 -0.09576997 -0.031423807 -0.039503917
000310 4a b6 9a bd 32 4a a6 3d b8 f5 b9 3c 3c a4 d2 3d
       -0.075543 0.081196204 0.022700176 0.102852315
000320 90 4e c9 bc fa 41 ee bd 78 ac 33 bd b4 d7 45 bd
       -0.024573594 -0.11633678 -0.04386565 -0.048301414
000330 10 9a b5 3d 28 53 e7 3d a2 1b bf 3d 58 61 d3 3c
       0.08867276 0.11295158 0.093314424 0.025803253
000340 a0 96 c3 bb f6 50 bf bd bc 63 2c bd b6 01 be 3d
       -0.0059688836 -0.09341614 -0.0420873 0.0927767
000350 f0 c7 42 bc 68 c2 c7 3c 14 d1 e3 bd 3a 69 ae 3d
       -0.011888489 0.024384692 -0.11123863 0.08516164
000360 bc b7 fe 3d b0 10 f8 bc f0 15 df bd c8 e9 f8 bd
       0.12437388 -0.030281395 -0.10892856 -0.12153965
000370 9c 9e 4c 3d 1a ca d4 3d 82 24 9c bd 40 e3 03 bc
       0.04995595 0.1039011 -0.07624151 -0.008049786
000380 40 f7 95 bb 4a cc ba bd 0c 8a 2b 3d 8e 26 d2 bd
       -0.0045765936 -0.09120996 0.0418797 -0.1026126
000390 54 be af bd 60 6a 6e bc f8 52 91 bd e8 9c b5 bc
       -0.08581224 -0.014551729 -0.07095903 -0.022169545
0003a0 96 d7 ec bd a8 57 ae 3c 48 0c b1 3d 3e 57 c3 bd
       -0.11564557 0.021282032 0.086449206 -0.095381245
0003b0 ec 82 d5 3d 00 a5 14 3b d8 e1 f3 bd d4 98 ca 3d
       0.10425362 0.0022681355 -0.11908311 0.09892431
0003c0 f2 4e f5 bd 18 b6 a0 3d ae 30 b4 bd 5c 2a b4 bd
       -0.11977948 0.078472316 -0.087983474 -0.08797142
0003d0 84 4a 32 3d 44 d5 88 3d 18 72 9a 3c 84 2b 3f bd
       0.043528095 0.06681302 0.018853232 -0.04667236
0003e0 30 43 cb 3c d4 82 59 3d 10 9c 49 bc f8 51 e8 bd
       0.024812311 0.053103283 -0.012305275 -0.11343759
0003f0 b8 c5 ca 3d d4 d1 6a bd c0 88 26 bb bc e6 d8 bd
       0.09900993 -0.057329014 -0.00254111 -0.10590884

fc2.bias f4 [64]
000000 4d 85 14 3d 39 13 ab ba ad ca 24 bd c2 fe d0 bd
       0.036259938 -0.0013051993 -0.04023235 -0.10204841
000010 fa ee b2 bd 1a d2 5f bd 0c a9 6f 3c 22 3e f5 bd
       -0.087369874 -0.054643728 0.014627706 -0.119747415
000020 31 a7 af 3d 9e b5 f8 b9 e0 76 df 3c 8a 3a 44 bb
       0.08576811 -0.0004743756 0.027278364 -0.0029942119
000030 3a 40 0e 3d e0 ff c6 3d bd 4f 3f bd 90 17 99 bd
       0.03472922 0.09716773 -0.046706904 -0.07475197
000040 d6 70 60 3d 28 91 31 3d d1 6b f3 3d 9a 33 0f 3d
       0.05479511 0.043351322 0.11885799 0.03496132
000050 48 3e d8 bd 2d fd b6 bd f0 74 67 bd 0e c2 a4 3d
       -0.10558754 -0.08935008 -0.056508005 0.080448255
000060 d1 1f ca bd 70 4a 41 3d 4d 87 88 bd 0e 34 86 bd
       -0.0986935 0.04719013 -0.066664316 -0.065528974
000070 82 d9 6f 3d e7 bf df bd 10 31 0f 3c 69 5f c8 3d
       0.05855704 -0.10925274 0.008739725 0.09783823
000080 5b ca dd 3d 29 8b 5d 3c 32 db 66 3c 91 7b 84 bb
       0.10829612 0.013521948 0.014090346 -0.0040430506
000090 ff 33 61 bd d3 1c e7 bd 79 81 95 3d c1 d2 94 3d
       -0.054981228 -0.11284795 0.073000856 0.072667606
0000a0 2c 9d 2d bd d7 65 85 bd 76 33 85 bd 1e d5 62 bd
       -0.04238622 -0.06513565 -0.06503956 -0.055379026
0000b0 00 b0 b5 3c 78 df cf bd 77 b5 d6 bc 79 74 e2 3d
       0.02217865 -0.10150045 -0.026209576 0.11057372
0000c0 f3 8d eb bd d6 ba c6 bd a5 b3 e4 3d 86 c3 ad bd
       -0.11501684 -0.09703605 0.11167077 -0.08484559
0000d0 11 d0 48 3c a0 5a 98 3b 04 28 b6 3d c1 ed f6 3d
       0.012256638 0.004649475 0.08894351 0.12057067
0000e0 39 0f 91 bd 16 84 de bd 43 70 16 3d bc 12 22 bd
       -0.070829816 -0.10865037 0.036728155 -0.039568648
0000f0 50 18 d6 bd a0 4e b1 3c 3f f9 97 3c c2 95 94 bc
       -0.10453856 0.021643937 0.018551467 -0.018137816

fc3.weight f4 [6, 64]
000000 b9 71 a0 3c 0d 9a 8b 3c c1 7b 8e 3d e0 2c 21 bd
       0.019585477 0.01704123 0.06957198 -0.039349437
000010 a1 06 b8 3c f2 91 c3 ba 1f 09 01 3e 18 94 87 3c
       0.022464098 -0.0014920814 0.12601136 0.016550109
000020 65 6a 1c 3d 7a 59 7a 3d 84 44 ce 3d 18 4a 36 3d
       0.038187403 0.061120488 0.10071662 0.044504255
000030 3b e1 f8 bd e3 90 61 3d cd 90 01 3e fc f8 93 bd
       -0.12152334 0.055069815 0.12652893 -0.072252244
000040 40 ac 7c bd d0 5e d2 3d 33 d9 57 3d b3 30 e4 bc
       -0.061687708 0.1027199 0.05269737 -0.027855253
000050 5d 9d dd 3d 9c 15 e4 bd e9 5c d2 3d e2 b5 27 bd
       0.1082103 -0.11136934 0.102716275 -0.04094494
000060 d4 72 a7 bc 49 f9 cd bc fc dc f6 bd d4 3c 57 3d
       -0.020440497 -0.025143282 -0.12053868 0.052548245
000070 fe a2 60 bd 54 90 e9 bd 08 6c 95 3d 00 b8 02 b9
       -0.05484294 -0.114044815 0.07295996 -0.00012466311
000080 b3 fa b7 bc 3e 9a e2 3d 82 24 b3 bd 09 d8 c3 bd
       -0.02245841 0.110645756 -0.08747198 -0.0956269
000090 41 6e 2d 3d e0 b0 8e ba 13 ac 7f bc dc df dd bb
       0.042341474 -0.0010886453 -0.015604991 -0.006771071
0000a0 4c f2 ac 3c 9b de 6a bd de ed 8b 3d e7 bc e9 bd
       0.02111163 -0.0573412 0.06832479 -0.114129834
0000b0 08 88 d4 bc 21 1f 90 39 57 ca 63 3d 4e cf 87 3d
       -0.025943771 0.00027489013 0.05561289 0.06631337
0000c0 26 50 32 3d 33 b6 cd 3d 00 2f a5 3c 66 8c 44 3c
       0.043533467 0.10044517 0.020164013 0.011996364
0000d0 36 88 09 bd f4 fb 18 bd dc a0 91 3d e4 c5 e6 3b
       -0.033577166 -0.037349656 0.071107596 0.0070426334
0000e0 eb 82 da 3d 04 a0 9d 3d 06 2c 95 3c c0 a0 7b 3d
       0.10669502 0.07696536 0.018209469 0.0614326
0000f0 e1 be 8c 3c ec 1f a7 3d 99 69 56 bd 22 2c c0 3d
       0.017180862 0.081603855 -0.0523468 0.09383418
000100 8d d2 9d bd 0b e2 06 3e 8e 05 47 3d 80 cd ae ba
       -0.07706175 0.13172166 0.04858928 -0.001333639
000110 f4 98 cc bd ee 52 4e 3d ad 55 65 3d 60 60 f2 bd
       -0.09990111 0.050372057 0.05598991 -0.11834788
000120 54 0c 0f bc 4a 0d 8e 3d 96 9f 8a bd 23 0a d3 3c
       -0.008730967 0.069361284 -0.0676872 0.02576167
000130 c3 a9 ba bd 4a 47 46 3d ad 9e fb bd fc 28 a5 bd
       -0.09114411 0.04840783 -0.122861244 -0.08064458
000140 99 5a b0 3d 8b 6c e3 3d c3 f6 c7 3d 7b 12 a9 bd
       0.0861103 0.11104687 0.09763863 -0.08255478
000150 ed d8 a1 3d 07 9c a1 3c 65 d7 3c bd d0 fa f7 bd
       0.079027034 0.01972772 -0.046103854 -0.121083856
000160 69 2d 94 3c 84 96 d1 bd de 16 d7 3d 00 9c 15 3c
       0.01808806 -0.10233787 0.105024084 0.009131432
000170 e5 61 4b bd 68 70 af 3d 74 46 02 bd 28 9d 2f bd
       -0.049653906 0.08566362 -0.03180547 -0.042874485
000180 3f 95 26 bd 96 0d ab 3d 29 7d cf 3d 68 27 b5 3d
       -0.040669676 0.08352201 0.10131294 0.08845407
000190 6d 4f 11 3d 31 66 b1 3d ca 3f 8c 3d 9b 06 a8 bd
       0.035476137 0.086620696 0.06848104 -0.08204385
0001a0 fe b5 9f 3c 11 ea 82 bd ae e7 07 3d 8c bc 9f bc
       0.01949596 -0.06392301 0.03317993 -0.019499086
0001b0 f8 44 6b bd 5b 43 a8 3d 73 c9 43 3d 26 2f 89 3d
       -0.05743882 0.08215972 0.04779954 0.06698446
0001c0 69 91 e8 bc dd ca 26 3d 51 b9 0c be b4 47 ed bd
       -0.02838965 0.04072081 -0.13742568 -0.11585942
0001d0 c0 3e 94 bd 66 4d 8b 3d fc ae a6 bd 21 95 9d 3d
       -0.07238531 0.06801872 -0.08138844 0.0769446
0001e0 e1 d1 4f bb 00 d4 2c bd 61 e2 ea 3d 1c ea 2d 3d
       -0.003171079 -0.042194366 0.114689596 0.042459592
0001f0 0e 08 5b 3d 94 d9 bf bc 7f 30 a4 bd fc 27 fd 3d
       0.05347448 -0.023419179 -0.080170624 0.12361142
000200 a1 9a fd bd bb 99 7a bd 94 e9 c9 bd 80 0c 12 bd
       -0.12383009 -0.061181765 -0.098590046 -0.035656452
000210 93 bd c4 bd 75 6f 0e bd 76 f9 a9 3d 42 e5 9d bd
       -0.09606471 -0.034774262 0.08299534 -0.07709743
000220 00 5d d9 3c 0c a3 18 3d 3c 61 ee bd a2 f4 55 bd
       0.026533604 0.03726487 -0.1163964 -0.052235253
000230 fc a2 c3 3c 70 eb f2 3d c6 bb 11 bd 1c 9b 06 bb
       0.023881428 0.118613124 -0.035579465 -0.002053923
000240 2c 65 0e 3d e4 59 b5 3d db f4 c0 3c a3 84 85 3c
       0.034764454 0.08855036 0.023554256 0.016298598
000250 f6 ff bb 3d 43 d8 54 3c 0e 7b a3 3d ee bd 01 3d
       0.0917968 0.012991014 0.07982455 0.03167527
000260 7a f8 84 bd bf 9e 63 bd 84 b2 a1 bc 7c 75 3b bd
       -0.06492706 -0.055571314 -0.019738443 -0.04576634
000270 5f f1 b5 bd 62 2c 61 bd 38 f5 c1 bc a8 a9 e7 bd
       -0.088839285 -0.054973967 -0.0236765 -0.11311656
000280 f0 c4 ee 3d 52 c7 8f 3d 0d e7 b0 3d 27 9c e8 3d
       0.116586566 0.07020439 0.086378194 0.11357909
000290 5f be 46 bd 16 c7 f0 bd 6a f8 4b bd a3 04 ce bd
       -0.048521396 -0.11756723 -0.049797453 -0.10059478
0002a0 fd 20 e5 bd f4 70 bf bd 6a d2 bf 3d cf c1 c2 bd
       -0.11187933 -0.09347716 0.09366305 -0.09509622
0002b0 d4 b8 d6 bd 0f b8 28 3d 36 05 b6 3d b0 db bf bc
       -0.10484472 0.041191157 0.08887713 -0.023420185
0002c0 22 b9 82 bd eb 80 d6 3d 33 1b ae 3c 62 87 a2 bd
       -0.063829675 0.10473808 0.021253204 -0.079359785
0002d0 9d c5 f8 3d f5 20 cf bb 2f d7 1c 3c 4c 58 ce bd
       0.12147067 -0.0063210675 0.009572788 -0.10075435
0002e0 6f 21 f7 bc 60 09 c2 3d 1d 83 6e 3d 68 f9 b0 3d
       -0.03016731 0.094744444 0.058230508 0.086413205
0002f0 04 87 b9 bd 28 ee 20 bd 17 09 7e 3d ff 1a bc 3d
       -0.09058955 -0.039289623 0.062020388 0.091848366
000300 00 f2 9b 3d cc ce bf bd 1a 76 19 bd e4 96 a0 3d
       0.07614517 -0.09365615 -0.037466146 0.0784128
000310 90 0d df bd 97 c3 6b bd a4 70 84 bd c4 04 ff bd
       -0.10891259 -0.057559576 -0.06466797 -0.12452081
000320 39 ce 9c 3d ab 7c 85 bd 52 12 9f 3d c2 00 1a 3c
       0.07656521 -0.06517919 0.07767166 0.009399595
000330 43 7d 7a 3d 93 67 9f bd 4b f5 49 3d 3f 24 bc bd
       0.061154615 -0.07783427 0.049306195 -0.09186601
000340 48 b8 a1 3d 30 6c c0 3c e9 2f da 3d ce 60 9a 3d
       0.07896477 0.023489088 0.106536694 0.07537995
000350 ed a8 c3 bd b0 44 30 3d 7f f7 e5 3d c3 72 bb 3d
       -0.095537044 0.043034256 0.11228847 0.091527484
000360 24 bc cb bd 49 4f c9 3d ad 48 0e b9 7c a2 0a bd
       -0.09947994 0.098295756 -0.00013569249 -0.033846363
000370 d6 29 86 3d e1 77 df 3d 94 66 5c 3d b2 7a a9 bd
       0.06550948 0.10911537 0.053808764 -0.082753554
000380 ee f3 5c bd ad 5f b6 bd 53 e9 d2 bd 73 46 97 bd
       -0.053943567 -0.089049675 -0.10298409 -0.07386484
000390 b6 2f 53 bd 2c 2f 59 3d e2 08 c1 bd 2a bc 4e 3d
       -0.051559173 0.053023502 -0.094255224 0.050472416
0003a0 a6 7d 67 3d df 76 2b bc 50 d7 e2 3d cf 33 84 bd
       0.056516312 -0.010465353 0.11076224 -0.06455194
0003b0 e8 c3 d4 bc 79 46 bd bd df 4c b0 3c 6d 88 08 bd
       -0.025972322 -0.09241957 0.02152103 -0.03333323
0003c0 32 32 f5 3d d7 2f 07 bd d2 c1 ba 3d 2e 5a 8b bd
       0.119724646 -0.033004608 0.091189995 -0.0680431
0003d0 d7 9f 86 bd 99 37 d4 bd 19 6d 8f bd cb a4 8d bd
       -0.06573456 -0.10362167 -0.070032306 -0.069161974
0003e0 b4 1b ea 3d d6 8d e4 3d 3c ec fb 3c f6 c8 fb bd
       0.11431065 0.111598656 0.030752294 -0.1229419
0003f0 c7 48 ee 3d b2 a2 eb 3d 3d 45 e1 bd 1f 09 7a 3d
       0.11634975 0.11505641 -0.10999534 0.061043855

fc3.bias f4 [6]
000000 b4 9c 70 bc 09 6c eb 3d c0 56 33 bd 9f e3 ae 3d
       -0.014685798 0.114952154 -0.043783903 0.08539509
000010 11 df fd 3d 7b d6 b1 3d
       0.12396062 0.08683487
