saved_models/dqn_best_model_episode_29.pt (torch, 87115 bytes, 24 tensors)

fc1.weight f4 [64, 4]
000000 60 b7 9b be ac 74 ab 3e 68 0d ab 3e 06 fe 81 bd
       -0.30413342 0.3348745 0.33408666 -0.06347279
000010 72 cc e6 3e d7 2f 7b be 50 54 1c 3d cf 56 af 3e
       0.45077854 -0.24529968 0.038166344 0.34245917
000020 6b ea c2 3e 10 d4 de be 90 9f 80 3e 66 d1 9f 3c
       0.38069472 -0.43521166 0.25121737 0.019509029
000030 98 cc 5a be a0 28 1e 3e 52 68 02 3e e7 ea 79 3e
       -0.21367109 0.15445185 0.12735108 0.24406014
000040 36 13 cd 3e 79 56 0f bd ec 96 c1 3e 71 9c e9 3e
       0.4005372 -0.034994576 0.37810457 0.45627168
000050 e5 6c 7b 3d 2c f5 32 3c e9 21 a1 3d 6e 43 69 be
       0.061383147 0.010922711 0.07867796 -0.22779629
000060 a5 bc eb 3e 3c 54 77 3e aa 51 36 be ff 29 fe 3e
       0.46042362 0.24153227 -0.1780459 0.49641415
000070 9d d9 20 3d d7 2b 46 3e 76 cc 0c 3e 07 d7 b6 be
       0.039270032 0.19352661 0.1374987 -0.35710928
000080 a3 fa 99 be a1 9b e3 ba f1 33 7c ba 62 fa c4 3d
       -0.30074033 -0.0017365107 -0.0009620777 0.09618069
000090 bc a6 6a 3e 2c da 0e 3e fe fb 53 be c3 9c fc 3e
       0.22915167 0.13950413 -0.20701596 0.4933835
0000a0 a2 6c e0 be 67 48 d8 3e d6 6f c6 3e 2c 15 9b be
       -0.4383288 0.4224274 0.387572 -0.3028959
0000b0 38 ea cd 3e 03 46 b6 3d 0a 49 81 be 74 69 b3 3e
       0.40217757 0.089000724 -0.25251037 0.35041392
0000c0 25 a3 3d be 2c ae ae bd 7e 42 e5 3c 65 de c2 3e
       -0.18519266 -0.085293144 0.027985808 0.380603
0000d0 94 51 d0 3e ee a4 98 3e ca fe c9 3c 9c c3 ac 3e
       0.4068724 0.2981333 0.024657626 0.33742988
0000e0 3b 4f 9c 3e 56 f8 7e 3e b6 dd 94 be 04 e3 77 be
       0.30529198 0.2489942 -0.29075402 -0.24207693
0000f0 86 c7 9a be 47 f9 b8 3e 98 96 28 3d 0b e3 fb bd
       -0.3023035 0.36127684 0.041159242 -0.122991644
000100 f4 7b 3a bd 02 66 c1 3e 0b 97 ed 3c 4e ac c9 be
       -0.045528367 0.37773138 0.029002687 -0.3938927
000110 e2 31 85 3e d9 b5 7e 3d e8 60 39 be a8 10 26 3e
       0.2601462 0.062185142 -0.18103373 0.16217291
000120 f8 db ad 3e c5 a8 a8 3e 9d eb d5 3b e4 e2 8b bb
       0.33956885 0.3294126 0.0065283314 -0.004268991
000130 45 89 78 3c 76 8b c2 be 44 f1 25 bc 55 4b c2 3e
       0.015169446 -0.37997025 -0.010128323 0.379481
000140 86 75 c9 be c4 c8 af be 70 52 50 3d 18 40 e5 be
       -0.39347476 -0.3433286 0.05085987 -0.44775462
000150 55 d9 9b 3c 23 d8 bf 3e 13 d5 4b be 96 b5 a1 bd
       0.01902453 0.37469587 -0.199055 -0.07895963
000160 84 4f 7f be 70 cf e8 bd 40 05 ed 3d a2 b9 f2 be
       -0.24932677 -0.113676906 0.11573267 -0.47407252
000170 e2 1f 63 3e 81 40 9f 3e 5a 53 6d bb 74 08 84 3e
       0.22180131 0.311039 -0.0036213011 0.257877
000180 b4 ed 8f 3e e3 52 a1 be 0c f5 d2 3e b2 76 5b bc
       0.2811104 -0.3150855 0.4120258 -0.013394998
000190 e9 01 20 3d d0 53 69 be 54 81 59 be 88 bd 48 be
       0.03906432 -0.22785878 -0.21240741 -0.1960355
0001a0 df 1e 31 3d ce 41 42 3d 38 de b8 3e a9 6a 22 3d
       0.04324233 0.047426037 0.3610704 0.0396525
0001b0 b4 de d9 be a0 51 73 bd d8 58 bf be ec 8f 90 be
       -0.42552722 -0.059404016 -0.3737247 -0.28234804
0001c0 bd 64 08 bd a9 67 ab 3e 25 64 f3 be a1 80 a9 3e
       -0.033299197 0.33477524 -0.47537342 0.3310595
0001d0 2d c4 e8 bd 2f 5f d7 be 15 a5 31 3e 34 0d 97 3d
       -0.113655426 -0.42064807 0.1734813 0.07375565
0001e0 a8 8d 6f be c0 59 45 bd 04 3f a0 3e e3 0d a7 bd
       -0.23393881 -0.048181295 0.31298077 -0.081569456
0001f0 b6 71 f2 3e 7d 10 e7 be 28 c7 01 3e 78 f2 d4 3e
       0.4735238 -0.45129767 0.12673628 0.4159124
000200 a3 99 9c 3e 63 89 2e 3e 65 bd 57 3e 73 8b 81 be
       0.30585966 0.17044596 0.21068342 -0.25301704
000210 74 42 1a be 17 4e e1 be 12 d5 97 3e a5 00 c7 3e
       -0.15064412 -0.4400489 0.29654747 0.3886768
000220 2c 25 0f be 10 6d 3a be a0 9b 8a 3c e0 f1 d2 be
       -0.13979024 -0.18205667 0.01691991 -0.4120016
000230 68 9e e5 3e ef 8c f5 3e 62 a6 e9 3e cf 29 fa bd
       0.44847417 0.47959086 0.45634753 -0.122150056
000240 43 fb 91 3e 0f 4c 63 be ec 93 bb be a0 62 83 be
       0.2851201 -0.22196983 -0.36636293 -0.25661182
000250 73 65 02 bd 91 dc c6 3e 1b 6e 36 3e 33 52 e7 3e
       -0.03183503 0.38840154 0.1781544 0.451799
000260 a6 a6 97 bd 37 6a a8 be 24 4f f5 bd fa 23 c8 3e
       -0.074048325 -0.32893535 -0.119779855 0.39089948
000270 2a a2 9f 3e 95 ef fe be 53 ab 80 3e b6 9b b1 3d
       0.3117841 -0.49792162 0.2513071 0.08672278
000280 8c 78 5c 3e 81 66 da 3e b7 51 ca be 54 ce ce be
       0.2153036 0.4265633 -0.39515468 -0.4039179
000290 0e c3 b2 3e 5b 5b 83 bd d1 1c 77 be f7 74 98 3e
       0.3491444 -0.06413909 -0.24132086 0.29776737
0002a0 a9 57 b0 be 4a 01 a9 3e 9b 67 eb be e5 46 79 bd
       -0.3444188 0.33008796 -0.45977482 -0.060858626
0002b0 ba b0 a5 be 40 3f 50 bc 68 72 8a be f2 e4 a5 be
       -0.32361394 -0.0127103925 -0.2704041 -0.32401234
0002c0 78 aa d2 3e ea c6 65 be 20 c6 36 3e 2c 6b 40 3e
       0.41145682 -0.22439161 0.17849016 0.18790883
0002d0 23 52 10 be 09 19 d1 3e ce e5 53 bd eb 21 dc 3e
       -0.14093833 0.40839413 -0.05173283 0.42994627
0002e0 4c d7 ad 3d 7e 78 72 be a4 39 81 3e 2b 01 a7 be
       0.0848833 -0.23678777 0.2523929 -0.3261808
0002f0 ae 88 2f 3e 92 aa fc bd bf c5 e0 3e a9 11 77 3e
       0.17141983 -0.12337221 0.43900868 0.2412783
000300 ec 93 bb be 4f 64 d3 be c8 b6 d5 3b e4 5e f5 3d
       -0.36636293 -0.41287467 0.0065220334 0.119809896
000310 92 e7 fc be 01 0a 8d be f4 82 f7 be d3 28 f5 3e
       -0.49395424 -0.27546695 -0.48342097 0.4788271
000320 93 aa 86 3e 0d 49 7a be 92 cf d7 be f9 a0 c6 3e
       0.26302013 -0.24441929 -0.4215055 0.38794687
000330 45 d1 af 3c d8 c2 15 be f1 3f 4d 3e 19 a4 c9 be
       0.021462092 -0.14625108 0.20043923 -0.3938301
000340 db fb 2a 3e 22 ed a1 3e 12 7f a4 3e 47 f0 e5 bd
       0.16697638 0.3162623 0.32128197 -0.1122747
000350 24 5b 6f 3e a8 d4 7f bd 6a ae a6 3e fc 03 02 3e
       0.23374611 -0.062458664 0.32554942 0.12696832
000360 c5 de 5d 3e dc b1 4f be 1d 0e e3 be 51 07 48 be
       0.21667011 -0.20282692 -0.44346705 -0.19534041
000370 27 1b ae 3e e7 2d 98 be 68 53 e9 39 40 bb 99 3e
       0.3400509 -0.2972252 0.00044503366 0.30025673
000380 da 0d 51 3e c6 95 50 3e c0 f7 1f 3e 70 8f 87 3e
       0.2041544 0.20369634 0.15621853 0.26476622
000390 17 bd 89 3e 7d 66 e8 3e 42 bb 47 3e 52 81 65 be
       0.26902077 0.45390692 0.19505027 -0.22412613
0003a0 56 22 37 3e df 14 af 3e f5 97 3e bd e6 08 da 3e
       0.17884192 0.3419561 -0.046531636 0.42584914
0003b0 d4 1e 75 3d e8 3e e5 3c f0 ba 50 3d 17 a9 b6 3e
       0.059843853 0.027984098 0.050959527 0.3567588
0003c0 21 2c 7f be 63 3b f5 bd 27 86 80 3e ec 7e b8 3c
       -0.24919178 -0.11974218 0.2510235 0.022521459
0003d0 da f2 93 3e 9e 0b 81 be f3 96 62 be be da 10 be
       0.2889622 -0.25204176 -0.22127895 -0.14145944
0003e0 b5 10 15 be 61 da d2 3e cf 58 ca 3e 14 6f ff bd
       -0.14557154 0.41182235 0.3952088 -0.12472358
0003f0 d7 fa a2 be 24 d2 33 3e 0a b8 b0 be 17 47 7e 3e
       -0.31832 0.17560631 -0.3451541 0.24831806

fc1.bias f4 [64]
000000 b0 cd 34 3c 33 88 d7 be 4f bd ec be 81 47 ca be
       0.011035368 -0.420961 -0.4623818 -0.39507678
000010 f1 55 d2 3e 3d 51 c9 bd a4 a2 ff 3e 6e 72 26 be
       0.41081193 -0.09829948 0.49928772 -0.16254589
000020 76 51 11 3e d6 6d a2 3e c6 d8 dd be ae 46 8c 3e
       0.14191231 0.31724423 -0.43329448 0.27397674
000030 7f 75 ff be f4 54 06 3d da 60 42 bd e6 ca af be
       -0.4989433 0.03279586 -0.047455646 -0.34334487
000040 ed 3a ae be e0 ab d8 3d c8 cd 95 be 9a 7b 54 be
       -0.34029332 0.105796576 -0.2925856 -0.20750275
000050 30 8c 9c 3d ed 58 78 3e 98 7f 66 be c9 a0 37 3e
       0.07643926 0.24252672 -0.2250961 0.17932428
000060 f6 23 80 bc ef f8 bd be 7e 9f f8 3e 2a 02 cf be
       -0.015642148 -0.37103984 0.48559183 -0.4043134
000070 06 9f 92 be 29 0b c4 3e d4 db 99 be c6 97 65 be
       -0.2863695 0.38289765 -0.30050528 -0.22421178
000080 54 d1 61 3d f6 32 f8 3e c4 d5 5d 3e 4b 0e 96 bd
       0.05513127 0.4847638 0.21663576 -0.07326945
000090 60 c2 a5 3d 5e 99 ab be 20 d3 47 3e d1 48 ed be
       0.08093715 -0.33515447 0.19514132 -0.46344617
0000a0 76 d5 bf be 9a 97 84 be 06 71 57 be a0 45 28 bd
       -0.37467545 -0.25896913 -0.21039209 -0.041082025
0000b0 e2 a8 be 3e e4 fb 31 3e 7b 01 b2 be c6 77 a7 3d
       0.37238222 0.17381245 -0.34766755 0.08177142
0000c0 05 ad fb bd 45 f3 01 be ea 42 9c 3e 2b 4d d9 3e
       -0.1228886 -0.12690456 0.305198 0.42441687
0000d0 44 45 1f 3e a4 f0 b2 3d eb a0 6c be c2 1f 37 3e
       0.15553766 0.08737305 -0.2310826 0.17883208
0000e0 93 83 db 3c 20 72 b0 be 49 8c 15 ba 66 43 01 3e
       0.026796138 -0.3446207 -0.0005704803 0.12623367
0000f0 85 14 b4 3e 2c d8 41 3e c8 83 e7 be 6a 6e 2a 3e
       0.35171905 0.1893012 -0.4521773 0.16643682

fc2.weight f4 [64, 64]
000000 3b cf ad 3d 4b a3 05 3c b7 a8 72 bd 6e 0a 9d 3d
       0.08486792 0.008156608 -0.05924293 0.07668005
000010 eb 2e 73 3d 64 07 8f bd 31 2a fc 3d 26 be 1a 3d
       0.059370916 -0.069838315 0.12312735 0.037778996
000020 6a 64 f0 3d 98 c9 1c 3d c6 93 92 bc b8 51 8e bd
       0.117379025 0.038278192 -0.01789273 -0.0694918
000030 68 b3 95 bc 1e d4 d0 bd 85 7f c1 bd 0f 25 ca 3d
       -0.018274024 -0.10196708 -0.094481505 0.098703496
000040 be fc 53 bc 85 92 c8 3b ab e0 2e bd 8e a7 ca bd
       -0.012938676 0.006120982 -0.04269473 -0.0989524
000050 40 3f 22 bb d2 98 71 bd c0 48 1c bb ac 51 f6 3d
       -0.0024756938 -0.05898363 -0.0023847073 0.120272964
000060 ce ae 87 bd e0 07 cb bd ef 74 fb bd 90 9f b0 3d
       -0.06625138 -0.099136114 -0.12278163 0.08624184
000070 97 4e 95 bd 80 05 14 bd 4a 7b c2 bd 73 c9 a7 bb
       -0.072903804 -0.036138058 -0.09496172 -0.00512045
000080 de b1 ec 3a e8 01 ba 3d c8 17 b2 bd 3d 07 7f bd
       0.001805838 0.09082395 -0.08695942 -0.062262762
000090 68 9b c0 bc da 70 f0 3d a9 ff 69 bd 5d 84 ab bd
       -0.023511603 0.11740275 -0.057128582 -0.08374856
0000a0 b7 4f 40 bc 76 d5 f2 3d 2a b1 d8 bd 90 d8 60 3d
       -0.0117377555 0.11857121 -0.10580666 0.05489403
0000b0 7d 83 c3 bd b5 b6 92 bb c8 36 07 3d 65 72 b1 bd
       -0.09546564 -0.004477347 0.033011228 -0.08664397
0000c0 24 03 c8 bd 9b 22 58 bc 6c 19 68 bd a4 7e e8 3d
       -0.09766224 -0.013191844 -0.05666487 0.1135228
0000d0 5f e8 cc bd 60 9c 0b bb 58 79 98 bc 70 b9 f7 3d
       -0.10005259 -0.0021302924 -0.018612549 0.12095916
0000e0 c1 5a d8 bd ee 6c 81 bc 91 e6 d0 3d da 24 c1 bd
       -0.10564185 -0.015799012 0.10200227 -0.09430857
0000f0 1b 00 9f bd 2a c9 a9 bd c9 eb bb bd 3c 79 c1 3d
       -0.07763692 -0.08290322 -0.09175832 0.09446952
000100 cf 9e 0e 3d cb 8d dc 3d cc db 14 bd 4e af 33 bc
       0.03481942 0.10769232 -0.036342427 -0.010967089
000110 94 fe 8a bc 43 ea 4b 3d 2a ec a5 3d 95 8d 65 3c
       -0.016967095 0.049783956 0.08101685 0.014010807
000120 a1 8c 49 bd 3f 97 41 bd fd b7 9e 3d 24 d5 bf 3d
       -0.04920638 -0.04726338 0.07749937 0.09366825
000130 ec 5e 52 3d ee 98 03 3d f5 14 c5 3d f1 86 1a bd
       0.051360056 0.032128267 0.09623138 -0.037726346
000140 51 8b 5d 3d f4 ac d3 bd 6c 65 bf 3d cb 7f ae bb
       0.05408794 -0.103357226 0.093455166 -0.0053252927
000150 78 5b e2 3d 51 e0 aa 3d 24 2d 62 bd 68 b3 4a 3d
       0.110526025 0.08343566 -0.05521883 0.0494875
000160 94 4c e4 bc a3 c9 65 3b d6 00 06 3d 5a 66 87 3d
       -0.027868547 0.0035062812 0.03271564 0.06611319
000170 eb f3 b3 bd 6b e1 fe 3d cb eb c9 3d d3 97 d1 bd
       -0.08786758 0.12445339 0.09859427 -0.10234036
000180 3e b4 05 3d 63 3e 89 bd f6 24 ef bd 43 48 75 3d
       0.032642595 -0.067013524 -0.116769716 0.059883367
000190 80 74 8c 3d 3e 59 94 bc a9 e8 2d 3d f7 e7 fb 3d
       0.06858158 -0.01810896 0.04245821 0.12300103
0001a0 30 0d 1f bd f2 27 eb bc 1e bf b2 bd d0 8a 4c bc
       -0.038830936 -0.02870557 -0.08727859 -0.012484267
0001b0 ea d5 97 3d 7c 52 dd 3c e4 12 9b 3d e4 be fd bc
       0.07413848 0.02701687 0.075719625 -0.030974813
0001c0 f5 2f b8 bd b3 9a a2 bd 9c d1 54 3c 87 f7 4c bd
       -0.08993522 -0.07939663 0.012989428 -0.050040748
0001d0 43 3b 42 bd 8e 19 86 bd 88 9c b8 3d 1e 7d d1 bd
       -0.047419798 -0.06547843 0.09014231 -0.10228942
0001e0 1b 9c a4 3c c2 aa b1 bc 5b 3a 48 3d e6 4c c4 bd
       0.020093968 -0.021687869 0.048883777 -0.0958498
0001f0 b9 98 b3 3d e2 5f 90 3d fd 43 e2 bd a3 39 9c bd
       0.08769364 0.07049538 -0.11048124 -0.07628181
000200 e0 ac 3b 3c bc 92 a0 3d c0 29 53 3c 94 8e 52 bd
       0.011454791 0.07840487 0.012888372 -0.051405504
000210 e8 b4 ac bd 46 fb d2 bd e4 1b a1 bd 0a e8 9b bd
       -0.08432943 -0.10301833 -0.07866648 -0.07612617
000220 10 a2 f5 3c 10 71 94 bd 5a 5d fb bd e2 61 b0 3d
       0.029984504 -0.072481275 -0.12273665 0.0861242
000230 e4 ca 69 3d d0 ba 24 bc 1c 06 6a 3d 38 a8 8f 3d
       0.057078257 -0.010054305 0.057134733 0.07014507
000240 7a 44 8b 3d 0c c3 2b bd 96 89 a0 bd 96 0d de bd
       0.0680017 -0.041934058 -0.078387424 -0.10842435
000250 00 7a 94 bd e8 95 fe bd 18 eb 6d bd 98 66 de bd
       -0.07249832 -0.12430936 -0.05808553 -0.10859412
000260 80 ea fb ba 18 48 bf bd 40 b0 6c 3b 50 0e 71 3c
       -0.0019219667 -0.09339923 0.0036115795 0.014712885
000270 ee ed ed 3d 32 23 cf 3d b2 27 ed bd f8 f8 e1 3d
       0.11617647 0.10114135 -0.11579837 0.11033815
000280 0c 77 30 bd e8 13 f2 3d 98 ac 8c 3c 2c 9e 1e bd
       -0.043082282 0.11820203 0.017172143 -0.038725063
000290 5c 2a 10 3d 94 97 b2 3d d8 80 89 bd ae 68 bb bd
       0.035196647 0.087203175 -0.06714028 -0.091508254
0002a0 68 85 f9 bd c8 49 c4 3c 10 68 44 bc a4 83 84 bd
       -0.12183648 0.023960963 -0.011987701 -0.06470421
0002b0 30 75 76 3d 0c a2 cb bd a0 35 38 3d 74 3a 66 bd
       0.060170352 -0.09943017 0.044973016 -0.05620809
0002c0 0c 14 4f bd 24 9a 5f 3d 68 bd 30 bd 12 a6 b7 bd
       -0.050556228 0.05459036 -0.043149382 -0.08967222
0002d0 e8 0f 8e 3c c0 a3 9f bb 20 40 79 bc 00 6b f5 3c
       0.017341569 -0.0048718154 -0.0152130425 0.029958248
0002e0 84 42 25 3d 78 f5 ca 3d 46 91 eb 3d 00 7d a5 bd
       0.040346637 0.09910101 0.11502318 -0.080804825
0002f0 24 a6 eb bd dc dc 3a 3d ca 21 b6 3d 5c ec b8 bd
       -0.11506298 0.045620784 0.088931635 -0.09029457
000300 d8 02 3e bd 5e 32 e6 bd f6 9c 9e bd 42 9d ec 3d
       -0.04638943 -0.112400755 -0.07744782 0.11553432
000310 80 be e0 bb 74 d4 26 3d fe f0 e4 bd 12 d4 94 bd
       -0.006858647 0.040729955 -0.11178778 -0.07267012
000320 42 83 ab 3d 88 7d 08 3d 08 24 0d bd 44 40 76 3d
       0.08374645 0.03332284 -0.03445819 0.060119882
000330 00 e0 16 ba e8 f6 51 bd 50 45 98 3c b8 b7 f8 bc
       -0.00057554245 -0.05126086 0.018587738 -0.030361041
000340 3c 8e 77 bd e0 f0 43 3c 60 40 f3 3d 10 ef 3f 3d
       -0.06043838 0.011959285 0.11877513 0.046858847
000350 c8 fd 71 bd a8 1e 53 3d 4c 2c fc 3d 98 59 e0 3c
       -0.059079915 0.051542908 0.123131365 0.027386472
000360 3a bd fe bd f8 e4 83 bc 04 af 65 bd 6a 2e ba 3d
       -0.12438436 -0.016100392 -0.05607511 0.09090884
000370 20 41 49 bc 5c 48 3e bd 8c 0b fa bd fa ee 9c bd
       -0.012283593 -0.046455726 -0.12209234 -0.07662769
000380 d0 f1 71 bc 0a 7f 99 3d 60 72 69 bc e0 ca e3 bc
       -0.014767125 0.07494934 -0.0142484605 -0.0278067
000390 a4 2f df 3d 60 b7 23 3c ac ad f0 3d c0 cc 43 3b
       0.108977586 0.0099924505 0.11751875 0.002987668
0003a0 a8 58 74 bd b6 8a e2 bd d8 f2 3a bd 8c 25 4b 3d
       -0.05965486 -0.11061613 -0.04564175 0.049596354
0003b0 d8 03 c5 bc ce 46 e7 bd dc 08 9a 3d 78 34 c9 bd
       -0.024049684 -0.11292802 0.07521221 -0.09824461
0003c0 c0 9b d0 3c 58 c8 35 3d 10 a9 0a bd 90 a7 5e 3d
       0.025464892 0.044380516 -0.033852637 0.05435902
0003d0 98 4f 1c 3d 74 43 fd bd 2c fa 25 3d a8 06 45 bd
       0.038161844 -0.12366381 0.040521786 -0.04810205
0003e0 40 32 18 3b 9e 74 fd bd f6 80 be 3d 4a 9a 8d 3d
       0.002322331 -0.123757586 0.09301941 0.06914194
0003f0 2c ff a2 bd 1c 64 5e bd 64 86 bb bd 20 41 b3 bc
       -0.079588264 -0.05429469 -0.09156492 -0.02188164

fc2.bias f4 [64]
000000 25 43 94 3d 0b d9 b9 3d d6 d4 98 3d 28 4a c5 3d
       0.07239369 0.09074601 0.0746247 0.09633285
000010 bc 32 74 bd 1c f3 84 3c 00 69 0e ba ef 58 a7 bd
       -0.059618697 0.016229205 -0.00054325163 -0.081712596
000020 8e b0 c9 3d 92 79 57 3d 72 3d f5 3d 76 3a 4b bd
       0.09848128 0.052606173 0.119746104 -0.0496163
000030 8a 50 cf bc 77 46 b2 bd c0 38 93 3d 30 cb 21 bc
       -0.025306959 -0.08704846 0.071885586 -0.009875104
000040 ee ee e7 3d 5f 99 8c 3c 40 58 27 3b f4 4e d4 3d
       0.11324869 0.017162977 0.0025534779 0.103666216
000050 b4 b2 88 3a f6 9a 8b 3c 26 94 be 3d 5c 3e 51 bd
       0.0010429234 0.017041665 0.09305601 -0.05108486
000060 e5 45 80 bb fd 99 14 3d a4 ed e5 bd e2 a8 71 3d
       -0.003914582 0.036279667 -0.11226967 0.05899895
000070 db fd ad bb c2 70 65 3d 7e 06 44 3d cd 2d e3 3d
       -0.005309803 0.056015737 0.047857754 0.1109272
000080 4a f9 a5 3d 78 19 09 bd a0 1e 57 bc c4 8b 5a bd
       0.08104189 -0.033471555 -0.01312986 -0.053355947
000090 9a 97 f8 bd c0 04 41 bc 08 32 9d bc 0b ee 37 3d
       -0.12138291 -0.011780918 -0.019188896 0.04490475
0000a0 9a fc 93 bd f7 6a bb bd 38 7d a4 bd 58 b4 f5 bd
       -0.07225914 -0.09151261 -0.08031696 -0.119972885
0000b0 de d8 7b bd e5 bd cf 3d 60 85 ee 3d a3 a8 bd bd
       -0.061486118 0.101436414 0.11646533 -0.092606805
0000c0 9d 90 11 bd c0 8c 9d bd 7c 1d a5 3d 8c 26 90 bc
       -0.035538305 -0.076928616 0.08062264 -0.017596506
0000d0 9e 9a ca 3d 93 91 f0 3d 3d 1d 3f 3d ac 7b 17 3d
       0.09892772 0.11746516 0.046658743 0.036983177
0000e0 72 a7 10 bc 7e 2c 8d 3d 04 68 81 bd ad 23 ba 3d
       -0.008828985 0.06893252 -0.063186675 0.09088836
0000f0 ec 40 e9 bd a8 3f 4b bd 00 6a 02 bd 96 c6 b2 bd
       -0.11389336 -0.049621254 -0.03183937 -0.087292835

fc3.weight f4 [6, 64]
000000 15 2d c9 bd 70 b8 7e bd c8 10 ea 3c ea 1b cf 3d
       -0.09823052 -0.062187612 0.028572455 0.10112746
000010 b8 df eb bc 4a 35 c5 3d d0 34 48 bc 9b 3b 05 bd
       -0.0287932 0.09629305 -0.012219623 -0.032527547
000020 30 93 21 bd b2 0a 93 3d b2 cd 55 bd b4 2c 0d 3d
       -0.03944701 0.07179774 -0.05219812 0.03446646
000030 e3 d6 68 3d 66 70 d8 bd d6 1f f6 3d fc fd e4 bd
       0.056845557 -0.10568313 0.12017791 -0.11181256
000040 3d ec 68 bd 9a 71 a1 bd 6c f2 68 bd a0 1d d2 3c
       -0.05686592 -0.07882996 -0.056871817 0.025648892
000050 d7 9d dd bd b1 46 d5 3d 3a 26 f2 3d 90 13 c9 bd
       -0.10821121 0.10413874 0.118236974 -0.098181844
000060 1a aa 01 bd e6 78 3d 3d 2e a8 59 bd dc 50 9e bd
       -0.031656362 0.046257876 -0.053138904 -0.077302665
000070 ee 8b 64 3d f9 28 70 3d e2 d0 1c 3c b2 bd 86 bc
       0.05579751 0.058632825 0.009571286 -0.016447876
000080 10 85 a6 bc f2 e9 f8 3d 40 55 52 bd c2 37 ff bd
       -0.020327121 0.121539965 -0.051350832 -0.12461807
000090 30 34 e4 bd f0 b4 59 bc 68 bc d5 3d 8a 4a a6 3b
       -0.111427665 -0.013287768 0.10436326 0.0050748037
0000a0 71 af 8d 3d 54 be f8 3d 35 f4 81 bd 96 2f d3 3d
       0.069182284 0.12145677 -0.06345407 0.10311811
0000b0 24 f5 a2 3d 10 4f cc 3c 27 ea b9 3b 49 61 c5 3d
       0.07956913 0.024940044 0.005673665 0.09637696
0000c0 a1 28 64 bd 2e d9 c3 bd 5c 33 98 3b bf 67 52 3d
       -0.05570281 -0.09562908 0.0046447944 0.05136847
0000d0 6e ce f6 bc 47 4c a0 3d 09 b8 e8 3d d0 c6 c6 3b
       -0.03012773 0.07827049 0.11363227 0.0060661808
0000e0 8a 63 da bd 24 14 01 bd 1c f0 da 3d ec 40 98 bd
       -0.10663517 -0.03151335 0.106903285 -0.07434258
0000f0 dc 26 ff 3d df 0a 7b 3d 28 15 dc bd 42 17 b2 3d
       0.12458584 0.061289664 -0.10746223 0.08695842
000100 14 32 48 bd 78 8d 38 bd e8 bc ba 3d 78 0d d2 3d
       -0.048875883 -0.04505679 0.09118062 0.10256475
000110 cc b6 d7 3d 2b f2 ba 3c f0 58 d8 3c 3a 86 0c 3d
       0.105329126 0.022820553 0.026409596 0.034307696
000120 ec d3 fe 3d 74 9a 24 3d c2 b4 f2 bb d4 68 3f 3d
       0.12442765 0.04018636 -0.007406802 0.04673083
000130 40 39 d9 bd 2c 4e f4 3b a9 38 a1 39 60 d0 43 3d
       -0.10606623 0.007455608 0.00030750528 0.047806144
000140 10 f6 eb 3d 0d 0a e2 bc ea 8e e8 3d 04 db 6d 3d
       0.11521542 -0.027592683 0.11355384 0.058070198
000150 81 7d 48 bc 47 1e dc 3d a2 a9 9c 3d 3f 65 86 bc
       -0.012236954 0.107479624 0.076495424 -0.0164057
000160 ec 7f 56 3d 32 df 8e 3d 00 83 c6 3b 98 a7 c9 3d
       0.05236809 0.06976165 0.006058097 0.09846419
000170 ec b5 cd 3d 22 b6 89 bd c0 a3 7e 3d 72 44 f0 3d
       0.100444645 -0.06724192 0.062167883 0.11731805
000180 8e 61 bc 3d 2d d7 c7 3d a0 fa 60 3c ca 0e cc bd
       0.091982946 0.097578384 0.013731629 -0.09963758
000190 04 14 51 3d 9a 6e b3 3d bc 21 d4 bd 01 05 a6 3d
       0.05104448 0.0876133 -0.10357997 0.08106423
0001a0 bc 41 8d 3d af 29 f2 bc 78 7b 9f 3d ae ce 65 bd
       0.068973035 -0.029560892 0.07787222 -0.05610531
0001b0 b2 60 00 3d 92 86 ea 3d 1a 69 99 bc 4d 4c 93 3d
       0.031342216 0.114514485 -0.018726874 0.071922876
0001c0 1c 8a 8c 3b 63 9a ae 3d 9a 1b 73 3d bb 60 17 bd
       0.004288925 0.08525541 0.059352495 -0.036957484
0001d0 8b 8d ca 3d 74 74 ee 3d 69 db 8d 3d 17 89 b3 3d
       0.098902784 0.116433054 0.06926615 0.08766382
0001e0 94 f3 07 3d f4 65 bc 3d 7a 6e b5 3d d9 33 f1 3d
       0.03319128 0.091991335 0.08858962 0.11777467
0001f0 54 ae fd bd d9 67 9c bd e0 1e d6 bd 1e 60 f6 3d
       -0.12386766 -0.07636995 -0.10455108 0.12030052
000200 6d ed a7 bd 7e d4 c5 3d 40 77 47 3b 40 be 86 3c
       -0.08199582 0.0965967 0.0030436069 0.01644814
000210 84 68 3b 3d 53 0e b3 bd 72 06 be 3d a0 3b ac bd
       0.04575397 -0.087429665 0.09278573 -0.0840981
000220 d0 6a 4f bd a2 1e 17 3d 82 21 73 3d 94 05 b5 3d
       -0.050638974 0.036894448 0.059358127 0.088389546
000230 34 5b 8f 3d 10 58 a2 bd 1c 19 0e 3d 4c cb 62 3d
       0.069998175 -0.07926953 0.034691915 0.05536966
000240 4b b4 1d bd 33 84 d8 bd 2c 8a d2 3d 50 98 bf 3c
       -0.03850202 -0.1057209 0.102802604 0.023388058
000250 83 f8 dd bd 70 86 89 3c 4a 62 53 3c cd 10 65 bd
       -0.108384155 0.016787738 0.012901852 -0.055924226
000260 a0 48 b1 3d 31 01 df bd 77 2b 3e bd 8a 9a 99 bd
       0.0865643 -0.10888899 -0.04642817 -0.07500179
000270 02 1b b7 bd e1 d3 c9 bd 73 68 8a bd 7e e0 b0 3c
       -0.08940698 -0.09854866 -0.06758203 0.021591421
000280 07 70 d2 bd f5 e0 24 bd 56 1d a8 bd 2c 8f 87 bd
       -0.10275274 -0.0402536 -0.082087204 -0.06619105
000290 9a 5d 95 bc 8c ca 6c 3d 90 94 a6 3d 8a ea d1 3d
       -0.01823311 0.05781035 0.08133805 0.10249813
0002a0 67 76 66 bd bf fa d0 bd 1f f6 f9 3d 88 83 71 bd
       -0.05626526 -0.10204076 0.12205147 -0.05896333
0002b0 c7 84 9b 3a e6 89 d0 3c d3 a2 b2 3d 1f 6b 96 bd
       0.0011865132 0.02545638 0.087224625 -0.073446505
0002c0 dc f5 42 bd 51 8a f4 3c 12 82 88 bd 98 5d 6e 3c
       -0.04759775 0.02985111 -0.06665434 0.014548682
0002d0 1d 00 fe bc 5e 67 df bd 99 c6 cd 3d 6c 8b 64 3d
       -0.031005913 -0.109083876 0.10047645 0.055797026
0002e0 91 23 00 bd 70 78 82 bd 90 cf b2 bd f6 34 eb 3d
       -0.03128392 -0.06370628 -0.08730996 0.11484711
0002f0 49 f5 8a bc 16 29 01 bb 68 77 81 3c 70 7f 83 bc
       -0.016962664 -0.0019708327 0.015804008 -0.016051978
000300 45 8e 39 bb 00 9f be bd 60 7b bf bd 80 a6 d6 3d
       -0.002831356 -0.093076706 -0.09349704 0.10480976
000310 30 35 7b bc cd 16 67 bb 30 e0 99 3d bb 6f 2b 3d
       -0.015332505 -0.0035261393 0.075134635 0.0418546
000320 9e 94 b0 bd 8c 57 02 3d 12 cc 5e 3d b2 e5 dc 3d
       -0.086220965 0.031821772 0.054393835 0.107859984
000330 19 c4 d8 bd 33 71 7f 3d d4 b1 7d bc 8c cc 23 bd
       -0.10584278 0.062363815 -0.015484292 -0.039989993
000340 7e 15 30 bc 2d 0c e2 bd 8a c2 ec bd 34 fd 1b 3d
       -0.010747312 -0.110374786 -0.11560543 0.03808327
000350 09 3b 92 3c f4 97 4f 3d 54 71 05 3d 36 c7 aa 3d
       0.017850416 0.050682023 0.03257878 0.08338778
000360 73 5d 43 3d 9c 6c 9a bd 2c 1a 9e 3d f0 6d 43 3d
       0.047696542 -0.07540247 0.07719836 0.047712266
000370 a0 ee 19 3c 7e 18 f8 bb 09 96 5e 3d d2 fb 60 bc
       0.009395272 -0.007571279 0.054342303 -0.013731914
000380 4a ad e1 3c cf ef d9 bc b0 80 35 bd a0 af f7 3c
       0.027548451 -0.026603607 -0.04431218 0.030235112
000390 f6 6c 27 3c e8 97 f7 bc 14 bf 37 bd 00 3d 65 bd
       0.010218849 -0.030223802 -0.04485996 -0.055966377
0003a0 4b df ca bd 75 1e 58 3d 9e d7 c0 bd 14 08 01 bd
       -0.09905871 0.05276342 -0.09416126 -0.031501845
0003b0 04 c4 10 3c ce 91 2d 3d 75 6b c3 39 2c 1d 02 3d
       0.008835796 0.04237538 0.0003727336 0.0317661
0003c0 a3 aa 23 bd fc 78 97 bd b6 31 eb bd 67 e7 fc 3c
       -0.039957654 -0.07396123 -0.11484091 0.03087206
0003d0 29 12 f8 bc 65 6d a1 3d 49 40 95 bd 56 d9 f9 bd
       -0.030282097 0.078821935 -0.07287652 -0.12199657
0003e0 cc 26 88 ba c0 1b e4 bd a8 56 d8 3d ee e5 10 3c
       -0.0010387539 -0.111381054 0.10563403 0.008843882
0003f0 91 8b ac 3d 22 c0 e4 3d ba 7a cf bd 5c aa c0 bd
       0.08425058 0.11169459 -0.1013083 -0.094074935

fc3.bias f4 [6]
000000 55 34 f1 3d 14 84 ec 3d a4 43 f8 3d ff a1 a7 3d
       0.1177756 0.115486294 0.121222764 0.08185195
000010 95 c5 69 bd b6 9f a7 bd
       -0.057073195 -0.08184759

fc1.weight f4 [64, 4]
000000 14 d3 9b be 26 58 ab 3e aa ef aa 3e 10 50 82 bd
       -0.30434477 0.3346569 0.33385974 -0.06362927
000010 70 d5 e6 3e 70 25 7b be 80 c1 1c 3d a4 60 af 3e
       0.45084715 -0.24526 0.038270473 0.34253418
000020 4a ff c2 3e 8c c0 de be 30 b4 80 3e 40 77 a0 3c
       0.38085395 -0.43506277 0.25137472 0.019588113
000030 64 11 5b be e4 e2 1d 3e e4 34 02 3e 0c f1 79 3e
       -0.21393353 0.15418583 0.12715489 0.24408358
000040 6c 38 cd 3e 40 2b 0e bd 60 bb c1 3e d4 b2 e9 3e
       0.4008211 -0.034709215 0.37838268 0.45644248
000050 f0 a4 7b 3d 40 fb 32 3c 50 44 a1 3d 98 37 69 be
       0.061436594 0.0109241605 0.07874358 -0.22775114
000060 18 a6 eb 3e 88 18 77 3e c0 83 36 be 8a 31 fe 3e
       0.46025157 0.24130452 -0.17823696 0.4964717
000070 c0 9e 21 3d e4 6b 46 3e b8 f6 0c 3e d2 d5 b6 be
       0.039458036 0.19377095 0.1376599 -0.35710007
000080 14 03 9a be 00 66 dc ba 00 fc 81 ba 40 08 c5 3d
       -0.30080473 -0.0016815066 -0.0009917021 0.09620714
000090 28 e4 6a 3e 44 1e 0f 3e 40 d0 53 be 72 92 fc 3e
       0.22938597 0.13976389 -0.2068491 0.4933048
0000a0 58 4d e0 be 92 68 d8 3e 82 85 c6 3e e8 11 9b be
       -0.4380901 0.4226728 0.38773733 -0.302871
0000b0 ea d7 cd 3e 90 e9 b5 3d 0c 5d 81 be 10 63 b3 3e
       0.40203792 0.08882439 -0.25266302 0.35036516
0000c0 e0 8e 3d be d8 b8 ae bd 60 cd e5 3c 76 e5 c2 3e
       -0.18511534 -0.0853135 0.028052032 0.3806569
0000d0 a8 2a d0 3e 08 7e 98 3e c0 b7 c7 3c a4 b9 ac 3e
       0.40657544 0.29783654 0.024379611 0.33735383
0000e0 70 2a 9c 3e 3c ae 7e 3e 9c ff 94 be 80 ef 77 be
       0.30501127 0.24871153 -0.29101264 -0.24212456
0000f0 a4 af 9a be fc 11 b9 3e 40 df 28 3d d0 e3 fb bd
       -0.30212128 0.36146533 0.041228533 -0.12299311
000100 80 67 39 bd dc 88 c1 3e 20 c3 ef 3c b8 9c c9 be
       -0.04526472 0.37799728 0.029267848 -0.3937738
000110 44 0e 85 3e f0 96 7d 3d 78 9c 39 be 28 30 26 3e
       0.25987446 0.061911523 -0.18126094 0.16229308
000120 f6 b7 ad 3e d8 83 a8 3e 00 dc cd 3b 80 86 8f bb
       0.33929414 0.3291309 0.0062823296 -0.0043800473
000130 c0 91 77 3c 72 92 c2 be 40 05 27 bc 1c 42 c2 3e
       0.015110433 -0.38002354 -0.010194123 0.37941062
000140 86 75 c9 be c4 c8 af be 70 52 50 3d 18 40 e5 be
       -0.39347476 -0.3433286 0.05085987 -0.44775462
000150 20 71 9d 3c ae f5 bf 3e 40 b0 4b be 60 f7 a1 bd
       0.019218981 0.37492126 -0.19891453 -0.07908511
000160 84 4f 7f be 70 cf e8 bd 40 05 ed 3d a2 b9 f2 be
       -0.24932677 -0.113676906 0.11573267 -0.47407252
000170 78 d4 62 3e 8c 1a 9f 3e 00 98 7e bb 90 0c 84 3e
       0.22151363 0.3107494 -0.0038847923 0.25790834
000180 04 da 8f 3e 3a 69 a1 be 8a e0 d2 3e c0 a6 5a bc
       0.2809602 -0.31525594 0.41186935 -0.01334542
000190 a0 d6 1f 3d d0 53 69 be 54 81 59 be 88 bd 48 be
       0.03902304 -0.22785878 -0.21240741 -0.1960355
0001a0 d0 50 32 3d e0 70 43 3d a8 fe b8 3e a0 29 23 3d
       0.0435341 0.047715068 0.36131787 0.03983462
0001b0 b4 de d9 be a0 51 73 bd d8 58 bf be ec 8f 90 be
       -0.42552722 -0.059404016 -0.3737247 -0.28234804
0001c0 a0 2e 09 bd fa 4d ab 3e be 79 f3 be b8 7b a9 3e
       -0.03349173 0.3345793 -0.4755382 0.33102202
0001d0 a0 94 e8 bd 00 57 d7 be 14 b0 31 3e 38 34 97 3d
       -0.11356473 -0.42058563 0.17352325 0.07383007
0001e0 ec 98 6f be c0 59 45 bd 5e 39 a0 3e 70 24 a7 bd
       -0.23398179 -0.048181295 0.31293768 -0.08161247
0001f0 56 4c f2 3e e2 35 e7 be 70 7e 01 3e b2 f7 d4 3e
       0.47323865 -0.45158297 0.12645888 0.41595227
000200 2e bf 9c 3e 5c d4 2e 3e c8 03 58 3e 1a 9f 81 be
       0.3061461 0.17073196 0.21095192 -0.25316697
000210 54 1f 1a be 3e 3e e1 be f4 e4 97 3e 04 13 c7 3e
       -0.15051013 -0.439928 0.29666865 0.38881695
000220 2c 25 0f be 10 6d 3a be a0 9b 8a 3c e0 f1 d2 be
       -0.13979024 -0.18205667 0.01691991 -0.4120016
000230 7c c4 e5 3e 68 b3 f5 3e 62 c7 e9 3e 98 33 fa bd
       0.44876468 0.4798844 0.4565993 -0.12216872
000240 60 ed 91 3e 70 65 63 be 2a 9f bb be 38 59 83 be
       0.28501415 -0.22206664 -0.3664487 -0.25654006
000250 e0 55 01 bd 04 ff c6 3e 40 ae 36 3e 4a 5d e7 3e
       -0.031576037 0.38866436 0.17839909 0.4518836
000260 48 d8 97 bd ae 76 a8 be f0 75 f5 bd bc 17 c8 3e
       -0.07414299 -0.32903045 -0.119853854 0.39080608
000270 78 a8 9f 3e 48 eb fe be 1a b1 80 3e c0 ab b1 3d
       0.3118322 -0.4978888 0.25135118 0.08675337
000280 d4 4a 5c 3e 20 57 da 3e 22 67 ca be 92 d7 ce be
       0.2151292 0.42644596 -0.3953181 -0.40398842
000290 dc a2 b2 3e d0 e3 83 bd 00 50 77 be c8 83 98 3e
       0.34889877 -0.06439936 -0.24151611 0.2978804
0002a0 f0 39 b0 be 20 1f a9 3e 1c 58 eb be c0 02 79 bd
       -0.34419203 0.3303156 -0.4596566 -0.06079364
0002b0 ba b0 a5 be 40 3f 50 bc 68 72 8a be f2 e4 a5 be
       -0.32361394 -0.0127103925 -0.2704041 -0.32401234
0002c0 f2 b7 d2 3e 14 ad 65 be 68 bf 36 3e a8 55 40 3e
       0.41155964 -0.22429305 0.17846453 0.18782675
0002d0 e8 9c 10 be ce f3 d0 3e 20 f3 54 bd 3a 2d dc 3e
       -0.14122355 0.40811008 -0.051989675 0.43003255
0002e0 b0 c2 ad 3d 44 83 72 be a8 35 81 3e aa 08 a7 be
       0.08484399 -0.23682886 0.2523625 -0.32623798
0002f0 90 78 2f 3e e0 bb fc bd 84 c1 e0 3e 64 0c 77 3e
       0.17135835 -0.12340522 0.4389764 0.2412582
000300 de 9b bb be 5c 5b d3 be 00 14 d5 3b 90 52 f5 3d
       -0.36642355 -0.4128064 0.0065026283 0.11978638
000310 cc e3 fc be 2c 0b 8d be 12 82 f7 be dc 28 f5 3e
       -0.49392545 -0.27547586 -0.48341423 0.47882736
000320 c0 88 86 3e 3c 8e 7a be 72 e5 d7 be ea 9b c6 3e
       0.26276207 -0.2446832 -0.4216724 0.38790828
000330 00 93 b0 3c 30 ae 15 be e0 56 4d 3e 10 9a c9 be
       0.02155447 -0.14617229 0.20052671 -0.39375353
000340 08 f9 2a 3e 82 f3 a1 3e 12 7f a4 3e 38 f9 e5 bd
       0.1669656 0.31631094 0.32128197 -0.11229175
000350 50 7c 6f 3e a0 64 7f bd fe bc a6 3e 04 20 02 3e
       0.23387265 -0.062351823 0.32566065 0.12707525
000360 d8 d6 5d 3e 8c c9 4f be aa 08 e3 be dc fc 47 be
       0.21663988 -0.20291728 -0.44342548 -0.19530052
000370 5e 05 ae 3e 0e 45 98 be 00 c0 b1 39 44 c8 99 3e
       0.3398847 -0.29740185 0.00033903122 0.30035603
000380 a4 49 51 3e 30 d4 50 3e dc 30 20 3e 2a 8f 87 3e
       0.20438248 0.20393443 0.15643638 0.26476413
000390 70 df 89 3e 38 87 e8 3e 4c f5 47 3e 9c 73 65 be
       0.26928282 0.45415664 0.19527167 -0.22407383
0003a0 a8 eb 36 3e e2 fa ae 3e c0 78 3f bd 8a ff d9 3e
       0.17863333 0.34175783 -0.046746016 0.42577773
0003b0 60 f6 73 3d 80 e1 e2 3c d0 b6 4f 3d 72 a0 b6 3e
       0.059561133 0.027695417 0.050711453 0.35669285
0003c0 2c 16 7f be 48 32 f5 bd d6 94 80 3e 40 ca b8 3c
       -0.24910802 -0.11972481 0.25113553 0.022557378
0003d0 50 03 94 3e f0 fc 80 be 48 74 62 be 30 d4 10 be
       0.28908777 -0.25192976 -0.2211467 -0.14143443
0003e0 90 c7 14 be 4a ff d2 3e 90 7b ca 3e 80 2c ff bd
       -0.14529252 0.41210395 0.39547396 -0.124596596
0003f0 ba e8 a2 be e8 f5 33 3e 74 a6 b0 be c8 6c 7e 3e
       -0.3181818 0.17574275 -0.34501994 0.24846184

fc1.bias f4 [64]
000000 c0 21 31 3c 42 7e d7 be 90 a7 ec be 8a 68 ca be
       0.010811269 -0.42088515 -0.4622159 -0.39532882
000010 94 7b d2 3e 10 3f c9 bd 8e 86 ff 3e c4 3d 26 be
       0.41109908 -0.09826481 0.49907345 -0.16234499
000020 48 57 11 3e ba 8a a2 3e ea b8 dd be 4c 30 8c 3e
       0.14193451 0.31746465 -0.4330514 0.27380598
000030 1e 6d ff be 70 1e 05 3d e0 86 43 bd f2 b2 af be
       -0.49887937 0.03249973 -0.04773605 -0.34316212
000040 d2 17 ae be e0 1f d8 3d 14 f2 95 be 6c 8d 54 be
       -0.34002548 0.10552955 -0.29286253 -0.20757073
000050 30 8c 9c 3d 98 8c 78 3e 98 7f 66 be d8 55 37 3e
       0.07643926 0.24272382 -0.2250961 0.1790384
000060 a0 5c 81 bc 56 fe bd be 84 c5 f8 3e 2a 02 cf be
       -0.015791237 -0.37108105 0.48588192 -0.4043134
000070 92 b8 92 be 0e 16 c4 3e 7a e1 99 be 00 e2 65 be
       -0.2865644 0.38298076 -0.30054837 -0.22449493
000080 50 fb 62 3d c8 45 f8 3e c4 d5 5d 3e 40 77 95 bd
       0.05541545 0.4849074 0.21663576 -0.07298136
000090 e0 8e a5 3d 72 76 ab be e0 b9 47 3e 70 3f ed be
       0.08083892 -0.33488804 0.195045 -0.4633746
0000a0 42 e8 bf be 68 b8 84 be 14 36 57 be a0 45 28 bd
       -0.37481886 -0.2592194 -0.21016723 -0.041082025
0000b0 80 ad be 3e 70 b2 31 3e ac 06 b2 be 28 67 a7 3d
       0.37241745 0.17353225 -0.34770715 0.08173972
0000c0 30 bc fb bd 7c f2 01 be 20 22 9c 3e 62 58 d9 3e
       -0.12291753 -0.12690157 0.30494785 0.42450243
0000d0 34 4a 1f 3e 50 36 b3 3d fc aa 6c be 14 f5 36 3e
       0.1555565 0.08750594 -0.231121 0.17866927
0000e0 80 66 dd 3c ac 50 b0 be 00 68 4a ba 84 f9 00 3e
       0.027026415 -0.34436548 -0.00077211857 0.12595183
0000f0 6e 1a b4 3e 30 f9 41 3e c2 5e e7 be 3c 98 2a 3e
       0.35176414 0.18942714 -0.45189482 0.16659635

fc2.weight f4 [64, 64]
000000 aa ef ad 3d c0 76 07 3c 98 4a 72 bd 8e 45 9d 3d
       0.08492978 0.008268058 -0.05915317 0.07679282
000010 8c a7 73 3d 64 07 8f bd 44 66 fc 3d 08 f1 1a 3d
       0.059485957 -0.069838315 0.12324193 0.03782752
000020 96 90 f0 3d dc 42 1d 3d 00 2e 92 bc 08 15 8e bd
       0.117463276 0.03839384 -0.0178442 -0.06937605
000030 90 d3 94 bc 86 99 d0 bd 0a 65 c1 bd 80 3e ca 3d
       -0.018167287 -0.10185532 -0.094431 0.09875202
000040 30 31 53 bc 00 55 cc 3b cc 90 2e bd 48 77 ca bd
       -0.012890145 0.0062357187 -0.042618558 -0.09886032
000050 40 3f 22 bb 88 5f 71 bd c0 48 1c bb 6e 8b f6 3d
       -0.0024756938 -0.058928996 -0.0023847073 0.12038313
000060 80 83 87 bd e0 07 cb bd 9a 3a fb bd 90 9f b0 3d
       -0.066168785 -0.099136114 -0.12267037 0.08624184
000070 a2 16 95 bd 2c ae 13 bd 4a 7b c2 bd 40 bc a4 bb
       -0.072797075 -0.036054775 -0.09496172 -0.005027324
000080 00 a2 f4 3a ca 31 ba 3d c8 17 b2 bd 24 b7 7e bd
       0.0018664002 0.09091528 -0.08695942 -0.062186375
000090 68 9b c0 bc 9e ab f0 3d 04 9f 69 bd 84 57 ab bd
       -0.023511603 0.117514834 -0.057036415 -0.08366302
0000a0 b0 81 3f bc e4 12 f3 3d b6 97 d8 bd 90 d8 60 3d
       -0.011688635 0.118688375 -0.105758116 0.05489403
0000b0 44 49 c3 bd a0 0c 8f bb c8 36 07 3d 16 38 b1 bd
       -0.09535459 -0.0043655187 0.033011228 -0.08653276
0000c0 b4 d6 c7 bd c0 b5 56 bc d8 a4 67 bd a4 7e e8 3d
       -0.09757748 -0.013104856 -0.05655369 0.1135228
0000d0 24 c2 cc bd 40 3f 04 bb 58 79 98 bc ac ea f7 3d
       -0.09997967 -0.0020179302 -0.018612549 0.12105307
0000e0 a6 1f d8 bd e0 f5 80 bc 8e 21 d1 3d 5e e8 c0 bd
       -0.105529115 -0.015742242 0.10211478 -0.094193205
0000f0 fe d3 9e bd 2a c9 a9 bd 3a cd bb bd 92 b2 c1 3d
       -0.07755278 -0.08290322 -0.09170003 0.09457888
000100 80 1e 0e 3d fe 8d dc 3d 84 e8 14 bd 70 9e 35 bc
       0.034697056 0.1076927 -0.036354557 -0.011085138
000110 18 37 8b bc 24 ce 4b 3d 54 d8 a5 3d 40 d0 64 3c
       -0.016994044 0.049757138 0.08097902 0.013965666
000120 08 a8 49 bd 48 c1 41 bd a8 68 9e 3d 70 c3 bf 3d
       -0.049232513 -0.047303468 0.07734805 0.093634486
000130 f8 52 52 3d 54 70 03 3d 62 00 c5 3d 48 1e 1b bd
       0.051348656 0.032089546 0.09619214 -0.037870675
000140 00 51 5d 3d 9c be d3 bd 94 50 bf 3d 80 8f ae bb
       0.054032326 -0.1033909 0.09341541 -0.005327165
000150 78 5b e2 3d 32 c4 aa 3d 24 2d 62 bd 34 86 4a 3d
       0.110526025 0.083382025 -0.05521883 0.049444392
000160 00 37 e4 bc 00 15 63 3b 68 da 05 3d 5a 66 87 3d
       -0.027858257 0.0034649968 0.03267899 0.06611319
000170 36 17 b4 bd 50 e2 fe 3d 3e d5 c9 3d 20 a4 d1 bd
       -0.0879349 0.124455094 0.09855126 -0.102363825
000180 5c 8f 05 3d fe 41 89 bd f6 24 ef bd f4 1e 75 3d
       0.03260742 -0.0670204 -0.116769716 0.059843972
000190 8c 6a 8c 3d 10 cd 94 bc 6c e6 2d 3d 8c db fb 3d
       0.0685626 -0.018164188 0.042456076 0.122977346
0001a0 c8 3c 1f bd c8 52 eb bc 70 1a b3 bd d0 8a 4c bc
       -0.038876325 -0.028725997 -0.08745277 -0.012484267
0001b0 70 d3 97 3d f0 c2 dc 3c f0 04 9b 3d 78 cc fd bc
       0.074133754 0.026948422 0.07569301 -0.030981287
0001c0 04 3e b8 bd 7e 9f a2 bd 80 d5 54 3c 5c 02 4d bd
       -0.089962035 -0.07940577 0.0129903555 -0.05005108
0001d0 bc 67 42 bd ee 23 86 bd c4 9a b8 3d 12 86 d1 bd
       -0.04746221 -0.06549822 0.09013894 -0.1023065
0001e0 e8 47 a4 3c a8 03 b2 bc 98 0a 48 3d 74 61 c4 bd
       0.020053819 -0.021730259 0.048838228 -0.095889
0001f0 98 92 b3 3d 56 51 90 3d b6 63 e2 bd 80 70 9c bd
       0.08768195 0.070467636 -0.110541746 -0.07638645
000200 e0 ac 3b 3c bc 92 a0 3d c0 29 53 3c 94 8e 52 bd
       0.011454791 0.07840487 0.012888372 -0.051405504
000210 e8 b4 ac bd 46 fb d2 bd e4 1b a1 bd 0a e8 9b bd
       -0.08432943 -0.10301833 -0.07866648 -0.07612617
000220 10 a2 f5 3c 10 71 94 bd 5a 5d fb bd e2 61 b0 3d
       0.029984504 -0.072481275 -0.12273665 0.0861242
000230 e4 ca 69 3d d0 ba 24 bc 1c 06 6a 3d 38 a8 8f 3d
       0.057078257 -0.010054305 0.057134733 0.07014507
000240 7a 44 8b 3d 0c c3 2b bd 96 89 a0 bd 96 0d de bd
       0.0680017 -0.041934058 -0.078387424 -0.10842435
000250 00 7a 94 bd e8 95 fe bd 18 eb 6d bd 98 66 de bd
       -0.07249832 -0.12430936 -0.05808553 -0.10859412
000260 80 ea fb ba 18 48 bf bd 40 b0 6c 3b 50 0e 71 3c
       -0.0019219667 -0.09339923 0.0036115795 0.014712885
000270 ee ed ed 3d 32 23 cf 3d b2 27 ed bd f8 f8 e1 3d
       0.11617647 0.10114135 -0.11579837 0.11033815
000280 0c 77 30 bd e8 13 f2 3d 98 ac 8c 3c 2c 9e 1e bd
       -0.043082282 0.11820203 0.017172143 -0.038725063
000290 5c 2a 10 3d 94 97 b2 3d d8 80 89 bd ae 68 bb bd
       0.035196647 0.087203175 -0.06714028 -0.091508254
0002a0 68 85 f9 bd c8 49 c4 3c 10 68 44 bc a4 83 84 bd
       -0.12183648 0.023960963 -0.011987701 -0.06470421
0002b0 30 75 76 3d 0c a2 cb bd a0 35 38 3d 74 3a 66 bd
       0.060170352 -0.09943017 0.044973016 -0.05620809
0002c0 0c 14 4f bd 24 9a 5f 3d 68 bd 30 bd 12 a6 b7 bd
       -0.050556228 0.05459036 -0.043149382 -0.08967222
0002d0 e8 0f 8e 3c c0 a3 9f bb 20 40 79 bc 00 6b f5 3c
       0.017341569 -0.0048718154 -0.0152130425 0.029958248
0002e0 84 42 25 3d 78 f5 ca 3d 46 91 eb 3d 00 7d a5 bd
       0.040346637 0.09910101 0.11502318 -0.080804825
0002f0 24 a6 eb bd dc dc 3a 3d ca 21 b6 3d 5c ec b8 bd
       -0.11506298 0.045620784 0.088931635 -0.09029457
000300 d8 02 3e bd 5e 32 e6 bd f6 9c 9e bd 42 9d ec 3d
       -0.04638943 -0.112400755 -0.07744782 0.11553432
000310 80 be e0 bb 74 d4 26 3d fe f0 e4 bd 12 d4 94 bd
       -0.006858647 0.040729955 -0.11178778 -0.07267012
000320 42 83 ab 3d 88 7d 08 3d 08 24 0d bd 44 40 76 3d
       0.08374645 0.03332284 -0.03445819 0.060119882
000330 00 e0 16 ba e8 f6 51 bd 50 45 98 3c b8 b7 f8 bc
       -0.00057554245 -0.05126086 0.018587738 -0.030361041
000340 3c 8e 77 bd e0 f0 43 3c 60 40 f3 3d 10 ef 3f 3d
       -0.06043838 0.011959285 0.11877513 0.046858847
000350 c8 fd 71 bd a8 1e 53 3d 4c 2c fc 3d 98 59 e0 3c
       -0.059079915 0.051542908 0.123131365 0.027386472
000360 3a bd fe bd f8 e4 83 bc 04 af 65 bd 6a 2e ba 3d
       -0.12438436 -0.016100392 -0.05607511 0.09090884
000370 20 41 49 bc 5c 48 3e bd 8c 0b fa bd fa ee 9c bd
       -0.012283593 -0.046455726 -0.12209234 -0.07662769
000380 d0 f1 71 bc 0a 7f 99 3d 60 72 69 bc e0 ca e3 bc
       -0.014767125 0.07494934 -0.0142484605 -0.0278067
000390 a4 2f df 3d 60 b7 23 3c ac ad f0 3d c0 cc 43 3b
       0.108977586 0.0099924505 0.11751875 0.002987668
0003a0 a8 58 74 bd b6 8a e2 bd d8 f2 3a bd 8c 25 4b 3d
       -0.05965486 -0.11061613 -0.04564175 0.049596354
0003b0 d8 03 c5 bc ce 46 e7 bd dc 08 9a 3d 78 34 c9 bd
       -0.024049684 -0.11292802 0.07521221 -0.09824461
0003c0 c0 9b d0 3c 58 c8 35 3d 10 a9 0a bd 90 a7 5e 3d
       0.025464892 0.044380516 -0.033852637 0.05435902
0003d0 98 4f 1c 3d 74 43 fd bd 2c fa 25 3d a8 06 45 bd
       0.038161844 -0.12366381 0.040521786 -0.04810205
0003e0 40 32 18 3b 9e 74 fd bd f6 80 be 3d 4a 9a 8d 3d
       0.002322331 -0.123757586 0.09301941 0.06914194
0003f0 2c ff a2 bd 1c 64 5e bd 64 86 bb bd 20 41 b3 bc
       -0.079588264 -0.05429469 -0.09156492 -0.02188164

fc2.bias f4 [64]
000000 fc 7f 94 3d 70 c0 b9 3d d6 d4 98 3d 28 4a c5 3d
       0.072509736 0.09069908 0.0746247 0.09633285
000010 bc 32 74 bd 68 18 85 3c 00 69 0e ba 94 07 a7 bd
       -0.059618697 0.01624699 -0.00054325163 -0.08155742
000020 8e b0 c9 3d 70 c3 56 3d d0 2b f5 3d 28 8f 4b bd
       0.09848128 0.052432477 0.11971247 -0.04969707
000030 10 82 cd bc 08 ce b1 bd dc b8 93 3d 30 cb 21 bc
       -0.025086433 -0.086818755 0.072129935 -0.009875104
000040 00 c5 e7 3d 20 0f 8f 3c 40 58 27 3b f4 4e d4 3d
       0.11316872 0.017463267 0.0025534779 0.103666216
000050 00 c7 9a 3a 38 e6 8c 3c 36 08 be 3d a8 44 51 bd
       0.0011808574 0.01719962 0.0927891 -0.051090866
000060 80 d1 89 bb 6c 75 15 3d e0 82 e5 bd 38 7b 72 3d
       -0.0042058825 0.036488935 -0.11206603 0.05919954
000070 40 8d ac bb c8 77 65 3d 50 af 43 3d 36 ac e3 3d
       -0.0052658617 0.056022435 0.047774613 0.11116831
000080 84 65 a6 3d ac 32 08 bd a0 1e 57 bc c4 8b 5a bd
       0.08124831 -0.03325145 -0.01312986 -0.053355947
000090 16 ba f8 bd c0 04 41 bc 08 32 9d bc c0 40 37 3d
       -0.12144868 -0.011780918 -0.019188896 0.044739485
0000a0 68 8f 93 bd 56 fb ba bd 3a 5c a4 bd ee 30 f5 bd
       -0.07205087 -0.0912997 -0.08025403 -0.11972223
0000b0 88 19 7b bd 3a 29 cf 3d 1a f5 ed 3d ca 8e bd bd
       -0.061303645 0.10115285 0.11619015 -0.092557505
0000c0 60 5a 10 bd 98 39 9d bd 5c a0 a5 3d 28 ae 90 bc
       -0.03524244 -0.07677001 0.08087227 -0.01766117
0000d0 20 2d cb 3d 62 21 f1 3d f0 ce 3e 3d 00 6d 16 3d
       0.09920716 0.117739454 0.04658407 0.036725044
0000e0 70 4b 0f bc 7e 2c 8d 3d 04 68 81 bd b8 f5 b9 3d
       -0.008746013 0.06893252 -0.063186675 0.0908007
0000f0 be 8c e9 bd 44 f6 4b bd 00 6a 02 bd 96 c6 b2 bd
       -0.114037976 -0.049795404 -0.03183937 -0.087292835

fc3.weight f4 [6, 64]
000000 4a 3d c9 bd 10 c5 7e bd c8 10 ea 3c ea 1b cf 3d
       -0.09826143 -0.062199652 0.028572455 0.10112746
000010 b8 df eb bc b8 1c c5 3d d0 34 48 bc 58 c4 05 bd
       -0.0287932 0.09624618 -0.012219623 -0.03265795
000020 30 93 21 bd 90 05 93 3d 88 b3 56 bd dc d1 0c 3d
       -0.03944701 0.07178795 -0.052417308 0.034379825
000030 24 33 68 3d ca db d8 bd 0a 15 f6 3d fc fd e4 bd
       0.056689397 -0.105887964 0.12015732 -0.11181256
000040 48 2a 69 bd 9c c5 a1 bd 6c f2 68 bd a0 1d d2 3c
       -0.05692509 -0.07899019 -0.056871817 0.025648892
000050 3c a6 dd bd 82 fd d4 3d 28 11 f2 3d f4 1a c9 bd
       -0.10822722 0.10399915 0.118196785 -0.09819594
000060 10 28 02 bd 24 16 3d 3d 8c 12 5a bd 0a 57 9e bd
       -0.031776488 0.046163693 -0.053240344 -0.07731445
000070 88 6b 64 3d 24 02 70 3d f0 e1 1b 3c a0 a5 86 bc
       0.055766612 0.05859579 0.009514317 -0.016436398
000080 50 82 a7 bc c8 33 f9 3d 40 55 52 bd c2 37 ff bd
       -0.02044788 0.121680796 -0.051350832 -0.12461807
000090 e8 4f e4 bd f0 b4 59 bc 68 bc d5 3d c0 36 a9 3b
       -0.111480534 -0.013287768 0.10436326 0.0051639974
0000a0 36 a4 8d 3d 28 5e f8 3d fe 3c 82 bd 30 0c d3 3d
       0.069160864 0.12127334 -0.063592896 0.10305059
0000b0 76 cd a2 3d 48 51 cc 3c 00 ca b9 3b 14 51 c5 3d
       0.07949345 0.024941102 0.005669832 0.09634605
0000c0 88 e0 64 bd 38 26 c4 bd e0 c7 96 3b 98 47 52 3d
       -0.055878192 -0.09577602 0.0046014637 0.05133781
0000d0 40 36 f8 bc 34 49 a0 3d 54 96 e8 3d 20 f4 c6 3b
       -0.030299306 0.078264624 0.11356798 0.0060715824
0000e0 8e 77 da bd 24 14 01 bd 1c f0 da 3d 26 63 98 bd
       -0.106673345 -0.03151335 0.106903285 -0.07440786
0000f0 fc 23 ff 3d 84 11 7b 3d 28 15 dc bd 42 17 b2 3d
       0.12458035 0.061296 -0.10746223 0.08695842
000100 28 09 48 bd f4 3f 39 bd e8 bc ba 3d 78 0d d2 3d
       -0.048836857 -0.045227006 0.09118062 0.10256475
000110 cc b6 d7 3d 48 9f bb 3c f0 58 d8 3c 10 74 0c 3d
       0.105329126 0.0229031 0.026409596 0.034290373
000120 ec d3 fe 3d 18 ed 23 3d 00 03 f3 bb 3c a4 3f 3d
       0.12442765 0.040021032 -0.007416129 0.046787485
000130 78 3d d9 bd 60 66 f4 3b 00 cc 0e 39 60 d0 43 3d
       -0.10607427 0.007458493 0.00013618171 0.047806144
000140 98 98 eb 3d 98 4c e3 bc ea 8e e8 3d 04 db 6d 3d
       0.11503714 -0.027746484 0.11355384 0.058070198
000150 50 38 4b bc 30 ef db 3d fe 50 9c 3d 08 c0 87 bc
       -0.012403563 0.10738981 0.076326355 -0.01657106
000160 e0 70 56 3d 82 92 8e 3d 20 8a c8 3b 96 4d c9 3d
       0.05235374 0.06961538 0.0061199814 0.098292515
000170 ec b5 cd 3d 80 13 8a bd 34 c6 7e 3d e6 00 f0 3d
       0.100444645 -0.067420006 0.06220074 0.11718921
000180 62 9a bc 3d 5e 90 c7 3d a0 fa 60 3c ca 0e cc bd
       0.09209134 0.09744333 0.013731629 -0.09963758
000190 44 97 51 3d 9a 6e b3 3d bc 21 d4 bd e8 a2 a5 3d
       0.05116965 0.0876133 -0.10357997 0.080877125
0001a0 c4 e9 8c 3d 30 15 f2 bc f8 69 9f 3d c0 5c 65 bd
       0.06880525 -0.029551119 0.07783884 -0.055996656
0001b0 44 c2 00 3d 8e 38 ea 3d 80 d0 9a bc c4 60 93 3d
       0.031435266 0.11436568 -0.018898249 0.07196191
0001c0 40 7a 87 3b f0 ba ae 3d bc 65 72 3d 08 0b 18 bd
       0.0041344464 0.08531749 0.059179053 -0.037119895
0001d0 54 82 ca 3d 14 1d ee 3d 5c d1 8d 3d 30 31 b3 3d
       0.09888139 0.1162664 0.06924698 0.08749616
0001e0 0c 2d 07 3d f4 65 bc 3d 7a 6e b5 3d 5a 22 f1 3d
       0.033001944 0.091991335 0.08858962 0.1177413
0001f0 9a f1 fd bd 8a c4 9c bd e0 1e d6 bd 1e 60 f6 3d
       -0.123995975 -0.07654674 -0.10455108 0.12030052
000200 68 0f a8 bd 74 3b c5 3d 40 77 47 3b 40 be 86 3c
       -0.082060635 0.096304804 0.0030436069 0.01644814
000210 84 68 3b 3d 14 3d b3 bd 72 06 be 3d 76 a6 ac bd
       0.04575397 -0.08751884 0.09278573 -0.084301874
000220 d0 6a 4f bd 0c ec 15 3d 70 0f 72 3d 6a de b4 3d
       -0.050638974 0.036602065 0.059096754 0.088314846
000230 b4 de 8e 3d 16 ca a2 bd 7c e7 0c 3d 4c cb 62 3d
       0.06976071 -0.07948701 0.03440045 0.05536966
000240 d0 dd 1e bd c6 14 d9 bd 2c 8a d2 3d 50 98 bf 3c
       -0.038785756 -0.10599665 0.102802604 0.023388058
000250 26 92 de bd 98 4c 87 3c 50 9b 4e 3c e8 42 66 bd
       -0.10867719 0.016516015 0.012610272 -0.05621615
000260 66 db b0 3d 8e 97 df bd 0c 9d 3e bd 98 33 9a bd
       0.08635597 -0.10917579 -0.04653649 -0.07529372
000270 02 1b b7 bd f2 6a ca bd 9e 94 8a bd f8 11 af 3c
       -0.08940698 -0.098836794 -0.06766628 0.021370873
000280 20 bb d2 bd 8c d9 25 bd 56 1d a8 bd 2c 8f 87 bd
       -0.102895975 -0.040490672 -0.082087204 -0.06619105
000290 88 39 96 bc 8c ca 6c 3d 90 94 a6 3d 94 53 d1 3d
       -0.01833798 0.05781035 0.08133805 0.102210194
0002a0 28 a9 67 bd 2e 70 d1 bd 8e 69 f9 3d 9c 19 72 bd
       -0.056557804 -0.10226475 0.12178336 -0.059106454
0002b0 00 02 85 3a a0 2f ce 3c ca 08 b2 3d d4 85 96 bd
       0.0010147691 0.025169194 0.08693083 -0.073497444
0002c0 04 0d 44 bd 78 ee f2 3c 84 19 89 bd b0 95 69 3c
       -0.047863975 0.029654726 -0.0669432 0.01425688
0002d0 38 01 00 bd bc fe df bd c6 af cd 3d 80 53 63 3d
       -0.031251162 -0.109372586 0.10043292 0.055499554
0002e0 fc 48 01 bd 70 78 82 bd 90 cf b2 bd 26 05 eb 3d
       -0.031563744 -0.06370628 -0.08730996 0.11475591
0002f0 d8 39 8d bc 80 4a 14 bb 68 77 81 3c 70 7f 83 bc
       -0.017239496 -0.0022627413 0.015804008 -0.016051978
000300 80 89 3f bb 90 35 bf bd 60 7b bf bd 80 a6 d6 3d
       -0.0029226243 -0.09336388 -0.09349704 0.10480976
000310 30 35 7b bc 00 e6 6f bb 30 e0 99 3d 38 6c 2a 3d
       -0.015332505 -0.0036605597 0.075134635 0.04160711
000320 9e 94 b0 bd 9c 2a 01 3d 20 bb 5d 3d a2 99 dc 3d
       -0.086220965 0.031534776 0.054133534 0.10771491
000330 44 4e d9 bd 80 60 7e 3d 50 37 81 bc 8c cc 23 bd
       -0.10610631 0.06210375 -0.015773445 -0.039989993
000340 20 cd 34 bc 38 9b e2 bd 8a c2 ec bd 34 fd 1b 3d
       -0.011035234 -0.11064762 -0.11560543 0.03808327
000350 28 de 8f 3c ac 7b 4e 3d 1c 43 04 3d 18 31 aa 3d
       0.017561987 0.05041091 0.032290563 0.08310145
000360 04 5f 42 3d 08 fd 9a bd c0 b4 9d 3d 18 3f 42 3d
       0.047453895 -0.07567793 0.07700491 0.047423452
000370 a0 ee 19 3c 90 c6 00 bc ec 25 5e 3d 30 f0 64 bc
       0.009395272 -0.007859841 0.054235384 -0.013973281
000380 00 2f e0 3c 60 bf db bc b0 80 35 bd a0 af f7 3c
       0.027366161 -0.026824653 -0.04431218 0.030235112
000390 30 af 24 3c e8 97 f7 bc 14 bf 37 bd ac 6d 66 bd
       0.010051534 -0.030223802 -0.04485996 -0.056256935
0003a0 64 76 cb bd 54 5f 57 3d e8 65 c1 bd 4c c7 01 bd
       -0.099346906 0.052581146 -0.09443265 -0.031684205
0003b0 30 0d 0e 3c 40 65 2c 3d 00 00 ad 38 28 c3 01 3d
       0.008670136 0.042088747 8.249283e-05 0.031680256
0003c0 2c ca 24 bd ca e8 97 bd 2c c8 eb bd 30 8f fa 3c
       -0.04023187 -0.07417448 -0.11512789 0.030585855
0003d0 68 3e fa bc 36 d9 a0 3d 2c 56 95 bd 1e 74 fa bd
       -0.030547336 0.0785393 -0.072918266 -0.12229179
0003e0 80 c3 ad ba c0 1b e4 bd a8 56 d8 3d 20 11 0f 3c
       -0.0013257116 -0.111381054 0.10563403 0.00873211
0003f0 96 f7 ab 3d 42 28 e4 3d ba 7a cf bd 5c aa c0 bd
       0.08396833 0.11140491 -0.1013083 -0.094074935

fc3.bias f4 [6]
000000 64 05 f1 3d 16 2b ec 3d c8 aa f7 3d a2 0a a7 3d
       0.11768606 0.115316555 0.12093121 0.08156325
000010 d4 e6 6a bd 5e 2c a8 bd
       -0.05734904 -0.08211587
