saved_models/dqn_best_model_episode_4888.pt (torch, 87371 bytes, 24 tensors)

fc1.weight f4 [64, 4]
000000 7b 6a 4b 3d 0f 41 16 be 1c e9 d2 3e 95 7b 2b 3e
       0.049662095 -0.14673255 0.41193473 0.16746362
000010 62 84 23 3e f4 91 61 be bc b2 0d be a2 45 82 3d
       0.15968469 -0.22028333 -0.13837713 0.06360938
000020 ad 33 92 3e a0 80 40 3e 86 87 f6 be d7 d8 4e 3e
       0.2855505 0.18799067 -0.4815027 0.20199905
000030 9d d6 77 be 74 dc a7 be 5b c7 cc be 35 19 4d 3e
       -0.24202962 -0.3278538 -0.39995846 0.20029147
000040 2f a2 c1 be b0 ec dd 3b 47 2c 45 3e 7b fd dc 3e
       -0.3781905 0.0067726 0.19255172 0.4316214
000050 d3 1b 5c 3e 05 0f 92 3e 7b b5 eb 3a d0 0f 12 be
       0.21494989 0.28527084 0.0017983163 -0.14263844
000060 7e a3 f8 be 10 14 e0 be 6c df 3e be 88 cc 76 be
       -0.48562235 -0.43765306 -0.18639916 -0.2410146
000070 36 e5 dc 3e 8c bf 93 be ef ec b4 3d 26 69 d4 3e
       0.43143624 -0.28857076 0.08834254 0.41486472
000080 eb be 2e 3d be 1d ba 3d f3 74 b9 3e 1b 9b af be
       0.042662542 0.09087704 0.36222038 -0.34298024
000090 76 88 e1 be 5c 03 fd be 00 d4 1c bd d8 54 74 be
       -0.44049424 -0.49416625 -0.038288116 -0.2386049
0000a0 70 03 e4 3e 4e c1 f4 3e 08 9c d5 ba ff 49 d0 3e
       0.44533873 0.4780373 -0.0016297111 0.40681455
0000b0 43 1d ba 3d 47 7c 20 bd 09 51 4f 3d ba 96 b9 3d
       0.090876125 -0.03918102 0.05061439 0.09061952
0000c0 56 8b c4 be 0c ba f0 be 94 ba 82 be ba 06 b2 be
       -0.38387555 -0.47016943 -0.25532973 -0.34770757
0000d0 30 4a 4a 3e 4e 18 8b be 6d 12 ec 3d ca 58 9c be
       0.19754863 -0.2716698 0.11526952 -0.3053649
0000e0 08 ac 36 bd a2 92 bf be 7b 90 9f 3c 6c 75 a8 3e
       -0.044597656 -0.3741656 0.019478073 0.32902086
0000f0 88 74 a8 3e 15 81 bf 3e 3b 31 bb be d9 d4 83 3e
       0.32901406 0.3740317 -0.36560997 0.25748327
000100 cf 07 59 be ce 9e a2 3e 55 2e 1d be 7a 62 d8 3e
       -0.21194385 0.31761783 -0.15349706 0.42262632
000110 2e 8a 8b bd 3b 10 42 bd 73 48 b3 3e e8 0c 6e be
       -0.06813465 -0.04737876 0.35016212 -0.23247111
000120 b4 96 8f be 00 0f 76 3c 86 e3 ba be ca f6 bc be
       -0.28044665 0.015018225 -0.36501712 -0.36907035
000130 f3 37 96 3e 4c 3f 64 be 07 6f 9c 3e f4 20 7d bb
       0.2933956 -0.22289771 0.30553457 -0.0038624378
000140 1d 37 ba 3d 65 e4 8c 3d d4 f7 9f 3e 66 eb 05 be
       0.09092543 0.068795 0.31243765 -0.13078079
000150 86 f4 ad be db 69 81 3e 98 ba 46 3d eb 8d ef bd
       -0.3397562 0.25276074 0.048517793 -0.116969906
000160 3a ce 82 bd b8 b3 34 3e 70 af e1 be 2f 3a 21 be
       -0.06386991 0.17646682 -0.4407916 -0.15744852
000170 0c 27 84 be 18 5d 74 be d4 b9 27 3e 7c b3 a2 be
       -0.2581104 -0.23863637 0.16379482 -0.3177756
000180 a0 b3 94 3d d2 35 e4 3e 15 c4 2b 3e 9b ae cf bd
       0.07260823 0.44572312 0.16774018 -0.10140725
000190 e4 2a 75 be 00 0a 98 3c 18 b0 b7 3d a0 58 13 be
       -0.23942143 0.018559456 0.08969134 -0.14389277
0001a0 88 35 83 3e f1 52 08 bc 78 da 0f 3e 75 53 a9 3e
       0.2562678 -0.008320556 0.14048183 0.33071485
0001b0 ba 22 37 be c3 3f 87 3e ef 50 8b be af 5b 97 bd
       -0.17884341 0.26415834 -0.27210185 -0.07390534
0001c0 a7 aa c2 bd ca 20 47 be 65 5a c4 be a8 95 fb 3e
       -0.095052056 -0.19446102 -0.38350216 0.49137616
0001d0 f8 7d 47 be 8c 06 a4 be 9e b3 bd be 18 c5 86 bd
       -0.19481647 -0.32036245 -0.370511 -0.065805614
0001e0 a9 7d d4 3d c6 88 1d be 59 a4 2a 3e 3f 1f 99 3d
       0.1037553 -0.15384206 0.16664256 0.07476663
0001f0 bf 2a 82 be 16 0c 10 3e 40 14 61 b9 0b 02 24 3e
       -0.25423238 0.1406711 -0.00021465216 0.16016404
000200 59 4a 99 be 53 ae f7 3e 40 17 ae 3e dc c4 e8 3e
       -0.29939535 0.48375186 0.34002113 0.45462692
000210 e8 82 cd be 18 a1 6c be 94 9f 31 3e 2c c4 83 be
       -0.40138936 -0.23108327 0.1734603 -0.25735605
000220 2a e6 e4 be 85 e9 c9 3e a8 4a 2d bd 96 da 4a bd
       -0.4470685 0.39435974 -0.042307526 -0.049524866
000230 1c ee c2 3e 7b cf bf 3c 5a 97 cd 3b c0 17 32 be
       0.38072288 0.023414364 0.006274146 -0.17391872
000240 13 32 ee bc b9 aa 01 3f 98 e5 ea bd d7 b8 de 3d
       -0.029076612 0.5065113 -0.11469573 0.10875099
000250 55 e7 93 be 7e d8 bb be f1 3b 52 be 1d 93 cf 3e
       -0.2888743 -0.36688608 -0.20530678 0.40541926
000260 ec 0e 0a be c6 94 f7 3e 33 af c6 3e ba 46 87 bd
       -0.13482255 0.48355693 0.3880554 -0.06605287
000270 f2 3a ec 3e 62 71 da bd 51 17 81 3e 62 4c da be
       0.46138722 -0.10666157 0.25213102 -0.426364
000280 33 07 37 3e c6 fd 8a be 7c 72 7b 3e 95 5d 70 3e
       0.1787384 -0.2714674 0.24555391 0.23473199
000290 45 3c 72 3d 4b 03 d6 3a 91 9b 3c ba 86 ff f3 3e
       0.05913951 0.0016327886 -0.0007194812 0.47655886
0002a0 4b 29 01 3e b4 19 13 3e 07 86 ee be 13 45 2b 3e
       0.12613408 0.14365274 -0.4658663 0.16725568
0002b0 cf 1a c0 3e 65 54 d6 be a7 f1 d3 be 6a a5 14 3d
       0.37520453 -0.41861263 -0.41395304 0.036290564
0002c0 54 da 6f be c0 ec 4f 3e 08 dd b1 be 78 c4 d3 bc
       -0.2342313 0.20305157 -0.34738946 -0.02585052
0002d0 54 c7 32 be 20 94 c7 bd e8 6f f5 bd 34 dd 0f be
       -0.1745885 -0.097450495 -0.11984235 -0.14049226
0002e0 05 21 ad 3e 44 c4 68 be 5a 5e 83 bd 47 ad 2c 3e
       0.33814254 -0.2273112 -0.064144805 0.16862975
0002f0 fb b9 9b 3e 76 4c 05 be 57 b6 e2 3d 62 fb 0a be
       0.3041533 -0.13017449 0.11069935 -0.13572457
000300 02 c4 42 3e bd cf bd 3e 18 4c 5b 3e 84 d9 87 3e
       0.19020084 0.37072554 0.21415746 0.2653314
000310 32 04 28 3e 49 d0 f0 3e 18 ea e0 be 1e 97 22 3e
       0.1640785 0.4703391 -0.439286 0.15877959
000320 6f f5 b8 3e 9e b7 d8 be 5f 02 2c be 8a f2 1c 3c
       0.3612475 -0.4232759 -0.1679778 0.00957931
000330 4f 2a f5 be 9b 16 dd 3e 17 b4 43 be 3b 49 9e 3e
       -0.4788384 0.4318131 -0.19111668 0.30915245
000340 3e f0 d7 3d f4 10 c0 3e 92 12 e6 bd d0 93 60 3e
       0.105438694 0.37512934 -0.11234011 0.21931386
000350 45 88 ea be 3a 02 9f be fc 7b b3 3e 4c 3e 08 3e
       -0.4580709 -0.31056386 0.3505553 0.13305014
000360 cd f8 f6 3e cf 5a b6 be da 33 a3 bc 2a 63 ba 3e
       0.48236695 -0.35616156 -0.019922186 0.3640378
000370 65 44 41 3e 84 71 fe bc fe d9 da 3d 50 51 33 3e
       0.18873747 -0.031059988 0.1068611 0.17511487
000380 72 1d d6 3e 47 c8 08 bd 2a a4 72 3e e8 e1 47 3d
       0.4181934 -0.033394124 0.23695436 0.048799425
000390 7e b2 39 3e 6f 00 5f be e4 67 b6 be 3e 69 a1 be
       0.18134496 -0.21777509 -0.35626137 -0.31525606
0003a0 2b a5 4d 3e f4 3f 85 be 91 ca 8b 3e 10 b9 c2 3e
       0.20082538 -0.26025355 0.27302983 0.38031816
0003b0 60 54 7c be 35 be 39 3e 2b e4 8b 3d e4 1b 9e 3e
       -0.24641562 0.18138964 0.06830629 0.30880654
0003c0 97 e3 f2 3e 9d 3c ee be c3 80 ee be 10 a5 33 3e
       0.47439262 -0.4653062 -0.46582612 0.17543435
0003d0 7b 5e 12 be 2e 67 7d be 3c ae 28 3e bb 82 80 bc
       -0.14293854 -0.24746391 0.16472715 -0.015687337
0003e0 7a fa f5 3e 48 9e 59 be 3f 95 71 3e 37 fe 00 3f
       0.4804266 -0.21251786 0.23592089 0.503879
0003f0 18 97 9c bd 12 f2 ae be c2 8f 86 be 40 dd 02 be
       -0.07646006 -0.3416906 -0.26281554 -0.12779713

fc1.bias f4 [64]
000000 58 00 3f be f3 82 8c be a0 90 95 3c 7e e7 d2 3e
       -0.18652475 -0.27443656 0.01825744 0.4119224
000010 fa 4b cd 3e 39 81 dc be 80 b3 fe 3b 45 ae 63 be
       0.40097028 -0.4306734 0.007772863 -0.22234447
000020 43 11 9e be 80 19 5e 3d f4 82 c2 be e2 7e ce be
       -0.30872545 0.054223537 -0.37990534 -0.4033118
000030 cc dc e2 be 58 c2 2c be de b2 a4 3d 20 d3 d5 be
       -0.4430908 -0.16871011 0.08041929 -0.41762638
000040 4f f6 d1 3e 47 fc 72 be d4 2c 77 3e da bc f3 3e
       0.4100823 -0.23729049 0.24138194 0.4760502
000050 2f d8 ba be a2 7c 61 bd ad ce fc be 58 2c d7 3d
       -0.3649306 -0.0550505 -0.4937643 0.10506505
000060 8c 46 cb 3e 20 a5 29 bd 4c ca 93 3e 7e fb bd 3d
       0.3970226 -0.04141724 0.28865278 0.09276484
000070 e5 ae 36 be 58 79 f2 be dd e3 7b bd 4d 8b c6 be
       -0.17840154 -0.47358203 -0.061496604 -0.38778153
000080 2f 7c f3 be a0 28 2b bd 17 9f ad be db 3b 8c 3e
       -0.47555682 -0.04178679 -0.33910438 0.27389416
000090 a2 e1 ce 3e e8 4b 68 be 18 7a de bd 2d 88 94 3e
       0.4040652 -0.22685206 -0.10863131 0.29010144
0000a0 22 23 cb 3c f6 36 38 be 0d 70 fc be 7f 92 a7 3e
       0.024797026 -0.17989716 -0.49304238 0.32728955
0000b0 6c b0 e8 be fc 02 1e be 7e df 43 bd 46 d0 a0 be
       -0.454471 -0.15430826 -0.04782056 -0.314089
0000c0 5b 1a ec be 1a 0b e3 be c5 5e 6a 3c 1c 78 c5 be
       -0.46113858 -0.44344407 0.014304821 -0.385682
0000d0 8e ea b1 bd 9a 00 70 3e 50 75 be 3d 51 20 b7 3e
       -0.08687316 0.2343773 0.09299719 0.35766843
0000e0 22 c4 2a 3d f3 ca 13 be 85 ae d2 be eb 63 b7 3e
       0.041690953 -0.14432888 -0.41148773 0.3581842
0000f0 e2 b8 f8 be da 21 6a be 48 7b bf be 18 e5 ab bd
       -0.48578554 -0.22864476 -0.37398744 -0.083933055

fc2.weight f4 [64, 64]
000000 40 c1 98 bd 8c 75 ce 3d 80 83 e8 3d 28 c9 82 3c
       -0.074587345 0.10081014 0.11353207 0.01596506
000010 a1 68 fe 3d cf bf 45 3d 08 60 e0 bd 38 e0 60 bd
       0.124223 0.048278626 -0.109558165 -0.05490133
000020 94 2b c5 3d b8 67 f4 bd a7 45 7b 3d 0c b9 d7 bc
       0.096274525 -0.11933845 0.061345723 -0.026333354
000030 6c 25 5e bd e0 4b 56 bd 43 01 be 3d 6b 57 55 3d
       -0.054234907 -0.052318454 0.092775844 0.05208532
000040 7a 5a 24 3d cb 95 b5 3d 10 49 c9 3c 21 4e 9e 3d
       0.040125348 0.08866461 0.024570972 0.07729746
000050 00 b0 08 bc 67 4d be bc 9a 9c 33 3d 38 bf 96 3d
       -0.008342743 -0.023230268 0.04385052 0.07360691
000060 30 a0 be 3a d0 91 41 3d 7c c3 c9 3d 84 be 0e 38
       0.0014543589 0.0472582 0.09851739 3.403287e-05
000070 a2 de 9b bc c4 08 79 3d 33 08 ec bd a4 42 bf 3d
       -0.019027058 0.060799375 -0.115250014 0.093388826
000080 be ee 19 bd 74 3b f3 bd dc a5 d9 bd 97 5e dd 3c
       -0.037581198 -0.11876574 -0.10627338 0.027022643
000090 fb 2a fe 3d 7b 30 c0 3d ad eb ed 3d 7a 7d 55 bc
       0.124105416 0.09384247 0.11617217 -0.013030404
0000a0 a7 7d e1 3d 13 3d 90 3d eb 63 89 bc 26 5a 2c bd
       0.110102944 0.07042899 -0.016771277 -0.04207816
0000b0 ef 54 d4 bc 5c 18 a8 3d 15 15 50 3c e7 3b 36 bd
       -0.025919406 0.08207771 0.012700339 -0.04449072
0000c0 21 73 f3 bd 36 87 c3 bc e5 ec dc 3d 3c 18 a4 3d
       -0.118871935 -0.023868185 0.107873715 0.08012435
0000d0 dc 92 89 bd f4 8b 6b bd d9 a2 78 3d d2 2f d1 bd
       -0.06717464 -0.057506517 0.06070218 -0.10214199
0000e0 b6 0b 4e 3c 65 b8 8a bd 8c 96 8c bd 2f 7e 90 bd
       0.012576034 -0.06773452 -0.06864652 -0.070553176
0000f0 39 1e 07 3e a5 1a 10 3d 5a 43 80 bd f0 3f bb 3c
       0.13195123 0.03518166 -0.06262846 0.022857636
000100 13 56 87 3d c2 54 83 3d e8 34 a6 3b 21 38 37 bd
       0.06608214 0.06412651 0.005072225 -0.044731263
000110 8a 6f 59 bd d8 7a 7e 3d b8 79 ba 3c 97 7e dc 3c
       -0.053084888 0.06212887 0.022763118 0.026915831
000120 72 8a 9e 3d 50 b8 fd bc a8 d9 e9 3b 0a 34 21 bd
       0.0774125 -0.030971676 0.0071365424 -0.03935627
000130 80 49 25 bd 53 2d d9 3d e2 2d 3b 3d f4 fa 0f bd
       -0.0403533 0.10604348 0.045698054 -0.035151437
000140 23 35 6c bd 15 3e b2 bd 00 54 ee ba fc ca 54 bd
       -0.057667863 -0.087032475 -0.0018182993 -0.051951393
000150 24 5e db 3c fa 3d 5b bd 77 f0 e2 3d 54 23 f2 bd
       0.026778288 -0.053525902 0.11081021 -0.118231446
000160 ea c1 69 3c 20 ea 5e bc da 52 f1 3d 29 68 3b bd
       0.014267424 -0.013605624 0.11783381 -0.04575363
000170 86 b7 46 3d 64 0c 33 3d 5b 49 85 3d 43 62 9c 3c
       0.048514865 0.04371299 0.06508132 0.019089824
000180 f5 44 0e 3c fc 68 9d 3d 2d 9e bf bd 08 a0 af bd
       0.008683433 0.0768604 -0.093563415 -0.085754454
000190 c9 35 07 bb 72 ad 1b 3d 12 45 47 3d 55 96 4a bd
       -0.0020631424 0.038007207 0.048649855 -0.049459774
0001a0 a8 9d 9d 3c 98 dc dc bd 94 68 0c bc 56 ae 80 3d
       0.019240215 -0.107842624 -0.008569855 0.06283252
0001b0 01 5d dd bc 80 57 a6 3a 7c c4 6d bd 78 aa 5a bd
       -0.027021887 0.0012690872 -0.05804871 -0.053385228
0001c0 e8 58 99 3c d4 bc 95 3c 69 a7 6d bd 7e 60 6b 3d
       0.018719152 0.018278517 -0.058020983 0.05746507
0001d0 a2 6c b5 3d 92 67 9f bc cb 29 ce 3d f5 55 8b bd
       0.08858611 -0.019458566 0.10066565 -0.068035044
0001e0 df 91 7c 3d c1 b2 b4 bd 4d f2 a2 bd c2 55 c2 3d
       0.06166255 -0.08823157 -0.079563715 0.09489013
0001f0 a7 6c af 3b aa 42 90 3d c1 2b 04 bd d0 1f 42 3d
       0.0053535285 0.07043965 -0.03226829 0.04739362
000200 cf 9b fe bd 83 16 de 3d 48 4b cf bd 08 21 b8 bc
       -0.12432062 0.108441375 -0.10121781 -0.022476688
000210 64 90 ef bc b8 d5 c1 bd 9c a9 d1 bd 31 bf 3a 3d
       -0.029243656 -0.09464592 -0.102374285 0.04559249
000220 8c 84 cf bd 0a d2 cf 3d 8d 55 b3 3d 5e b0 af 3d
       -0.10132703 0.10147484 0.08756552 0.08578561
000230 6a 23 e2 bd c3 e4 7a bd ae b5 22 3d 50 8e e9 bc
       -0.11041911 -0.06125332 0.039724045 -0.028510243
000240 aa ab b9 3d b5 d7 15 bc 24 69 8e 3d 77 f7 a6 3d
       0.090659454 -0.009145667 0.06953648 0.08152669
000250 53 92 14 3d d3 df db 3d 67 37 a0 3d fe a8 c5 bd
       0.03627236 0.107360505 0.07823067 -0.09651373
000260 a8 7c 58 3d 1e 60 83 bd 9d c7 93 bd c6 f3 bb bb
       0.052853256 -0.06414817 -0.072158076 -0.005735847
000270 8b 7a db 3d d0 46 96 bc 53 f8 60 bd 65 e4 d5 3c
       0.107167326 -0.018344313 -0.05492432 0.026109884
000280 3f c8 d0 3c 58 c6 f6 3d cd a2 93 bd 73 98 ea 3d
       0.02548611 0.1204955 -0.07208786 0.11454859
000290 a5 58 d4 3d b1 57 58 bd 77 53 c0 3d b0 f0 b0 3d
       0.1036847 -0.052818004 0.0939092 0.086396575
0002a0 a8 1e 26 3c 04 b9 bb bd 6c 1a 35 bd e4 19 93 3d
       0.010139145 -0.09166148 -0.04421465 0.071826726
0002b0 48 8f 06 bc c8 2c 35 bd bc f1 b8 3d 77 1c af ba
       -0.008212872 -0.04423216 0.09030482 -0.0013359924
0002c0 5d 41 8c bd 30 bf 81 3d fd 1a 92 bd 7c 9c 81 3d
       -0.068484046 0.06335294 -0.07134054 0.06328675
0002d0 f8 c0 24 3d 64 de da bd 11 23 91 bc 6c 7e 3c 3d
       0.04022309 -0.10686949 -0.017716916 0.046019003
0002e0 64 8a f8 3d c8 e2 da 3d 56 ac 9a 3d 94 29 fa bc
       0.12135771 0.10687786 0.07552402 -0.030537404
0002f0 e6 61 95 bd 71 a8 78 bd 0e b4 aa 3d ce b8 a8 bd
       -0.07294063 -0.060707513 0.08335124 -0.08238374
000300 18 1d 3a 3d 2b a8 04 3e 56 14 d6 3d 49 1c 73 bd
       0.045437902 0.12954776 0.104530975 -0.059353147
000310 d1 c0 dd 3d d7 71 d0 3d 58 a9 8e bd 97 25 39 bc
       0.108277924 0.10177963 -0.069658935 -0.011300466
000320 fb b5 b4 3d 82 85 e3 bd db 73 7c 3d 34 f0 ad 3d
       0.088237725 -0.11109449 0.061633926 0.08493081
000330 dc e5 6f 3d 17 0e d4 bd d8 08 95 bd 3a 76 f7 3d
       0.05856882 -0.1035425 -0.072770774 0.12083097
000340 ec fa 3d bd dc 9e 3e bd a2 78 eb 3d 1b eb 09 bd
       -0.046381876 -0.04653822 0.11497618 -0.03367148
000350 5f 41 d2 3d 44 77 d6 3c ba 5a d3 bb 78 a7 cf 3d
       0.10266375 0.026179917 -0.0064500244 0.10139364
000360 85 ae 68 bd 46 c2 da bd a8 52 8b 3d 91 35 91 3d
       -0.05680706 -0.10681586 0.06802875 0.07090295
000370 5c 3c c2 3c 70 03 c3 3d a9 fb 8f 3d b3 08 1c 3c
       0.023710422 0.0952214 0.07030422 0.009523558
000380 b3 a4 67 3c 50 89 1b 3c a7 bf 5c bd d9 8a ab bd
       0.014138388 0.009493187 -0.05389371 -0.083760925
000390 6d f1 ca bd 00 63 ae bc a4 a8 1e bd 77 2c 9b 3c
       -0.099093296 -0.021287441 -0.038735047 0.0189421
0003a0 c5 06 97 bb 00 16 17 bd e1 9e 36 bd 26 c5 db 3d
       -0.0046089613 -0.036886215 -0.044585112 0.107309625
0003b0 df 80 64 3d 80 0d c3 3c 3a 9a 44 3d 24 d7 bf 3d
       0.055786964 0.023810148 0.047998644 0.09367207
0003c0 be 43 a6 bd 30 97 a4 bd 70 69 9b 3d 9d f7 ba 3d
       -0.081183895 -0.08036649 0.0758847 0.0912926
0003d0 32 59 a0 3d e3 ce e4 3d 5c 1a 88 bd 7b 72 07 3d
       0.07829513 0.11172273 -0.06645653 0.03306816
0003e0 a3 00 c6 bc 8e 30 97 bb aa f2 df bb ac 73 da 3d
       -0.024170225 -0.0046139425 -0.0068343477 0.10666594
0003f0 61 29 9b bd b5 c1 b8 3d 22 fc 8d bd 10 74 92 3c
       -0.07576252 0.09021322 -0.06932856 0.017877609

fc2.bias f4 [64]
000000 37 4a a0 3d 61 54 fb bd 4a 39 a0 3d 44 4a 6d bb
       0.07826655 -0.122719534 0.07823427 -0.0036207596
000010 90 cc db bc 60 9d a6 bb 90 93 c2 3c 31 dc a9 3d
       -0.026830941 -0.0050846785 0.023752004 0.08293951
000020 93 cc ca bd 60 b8 86 3d 00 58 82 3d 24 b6 a2 3d
       -0.09902301 0.065781355 0.06364441 0.07944897
000030 af 8f a4 3b 7b f8 e0 3b b6 f2 51 3d 78 bc b2 3c
       0.005022011 0.0068655587 0.051256858 0.021818385
000040 e9 d2 48 bd 09 af 2e bd da ef b9 3d 80 ca d2 3d
       -0.049029265 -0.042647395 0.09078951 0.1029253
000050 aa 44 bc bd 02 fd f3 3d eb 27 a3 bd 88 8f f1 3d
       -0.09192784 0.11913492 -0.07966598 0.117949545
000060 50 9c 57 bd 17 4f 3f 3d c8 c2 6a 3d 8e a9 5f 3d
       -0.052639306 0.046706285 0.057314664 0.05460506
000070 2e a0 e3 bc 3a 3d d4 3d b0 e4 a7 bd ea b5 29 3d
       -0.02778634 0.103632405 -0.081979156 0.041433252
000080 d7 df c5 bd 97 97 bb 3d 7d 6c c0 bd 81 50 88 bd
       -0.09661835 0.09159773 -0.093956925 -0.0665598
000090 01 a7 ec bb 70 3a b8 3c 88 e5 d9 bd c6 0f b5 bd
       -0.007222057 0.022488803 -0.10639483 -0.08840899
0000a0 80 19 b4 3d 97 42 22 bb b0 75 d5 3b 6f db 54 bb
       0.08793926 -0.002475893 0.0065142736 -0.0032479425
0000b0 4d 0e 4a 3c e4 f9 83 bc 2c 9e 8c bd 73 2e 63 3d
       0.012332511 -0.016110368 -0.068661064 0.05546422
0000c0 2b 64 ac 3d 0d b7 71 bd 60 d7 3b bd be e7 2c 3d
       0.08417543 -0.05901246 -0.045859694 0.042213194
0000d0 ab a9 bc bd c2 d7 3d bd 2a c8 d8 bd 6e 94 e3 3d
       -0.09212049 -0.04634834 -0.10585053 0.11112295
0000e0 f4 24 d4 3d 76 34 9b 3d 02 28 a4 3c 61 23 48 3d
       0.10358611 0.075783655 0.020038608 0.048861865
0000f0 f0 ac e7 bc 13 01 23 3c 9a b0 74 3d 1e 0e b2 3d
       -0.028280705 0.009948987 0.059738733 0.08694099

fc3.weight f4 [6, 64]
000000 73 96 9e 3d b2 ae c7 bd 24 a0 cb 3d ee fc 40 bd
       0.0774354 -0.09750117 0.09942654 -0.047116213
000010 fa 72 bf bd 6c a9 33 3d e0 db 97 bc bb 2f 54 3d
       -0.09348102 0.043862745 -0.018537462 0.05180333
000020 b2 fb 66 bd fe c1 37 bd 7e 37 9a 3d c0 04 26 3b
       -0.05639238 -0.04486274 0.075301155 0.002533242
000030 19 79 73 bd a7 e8 eb 3a ce 73 84 bd 76 a0 f3 3d
       -0.05944166 0.0017998413 -0.064674005 0.1189584
000040 32 36 91 bd 31 77 a3 bd a0 e9 3c bd 23 82 d9 bd
       -0.07090415 -0.07981718 -0.04612124 -0.10620525
000050 50 9f cf bd ea 95 8a 3d 7e 7c e3 3d fd 91 81 bd
       -0.10137808 0.06766875 0.111077294 -0.06326673
000060 f5 ca ec bd 1e a0 f9 bc 0b 72 85 3d d2 09 ce bd
       -0.115621485 -0.030471858 0.065158926 -0.10060467
000070 81 fe eb 3d 13 2b 63 3d 70 85 3a bc a1 5f 65 bc
       0.11523152 0.055461 -0.011384353 -0.0139998505
000080 9a 51 87 3c e0 50 27 bc 98 50 09 3d d3 ad 07 be
       0.016518403 -0.010212153 0.033524126 -0.13249902
000090 82 e1 cc bc 4b 8f f4 3c 78 f1 d4 3c 90 dd d2 3d
       -0.025009874 0.029853484 0.025994048 0.10296166
0000a0 6b 7e f8 bd 2f 05 dc 3d 49 3b 08 3d 17 b9 af 3d
       -0.12133487 0.10743176 0.033259664 0.08580225
0000b0 c4 1e 45 3d 05 1b 8f 3d 06 d4 18 3d c5 91 00 3e
       0.048125044 0.069875754 0.037311576 0.12555607
0000c0 73 62 02 3d b9 b2 d4 3a a4 31 8b bd e5 5d ba 3d
       0.03183217 0.001622758 -0.067965776 0.0909994
0000d0 55 eb be bd c1 b3 e5 3d f6 d2 ca bd e0 c2 6b 3c
       -0.0932223 0.11215926 -0.09903519 0.014389724
0000e0 b4 8f 85 bd 40 80 c4 3b e0 bb ae bd 1b 0e f8 3d
       -0.0652155 0.005996734 -0.08531928 0.121120654
0000f0 46 4a e2 3d 5d fc fa bd 6f f3 c5 3d d7 67 09 bd
       0.11049323 -0.12255166 0.09665572 -0.033546295
000100 67 b4 d6 bc 9a 80 c0 3c 1c 9b 00 3e 0c 67 ef bc
       -0.02620907 0.023498822 0.1255917 -0.029223941
000110 46 04 3a 3d 38 79 16 3d 76 36 b8 3d 4a 8b 98 bd
       0.04541423 0.036736697 0.089947626 -0.07448442
000120 b9 0d 9f bd 80 1c c1 bb f2 76 ef 3d 00 91 cf ba
       -0.07766289 -0.00589329 0.11692609 -0.001583606
000130 0a 74 ec bc 95 a7 c6 bd 38 e6 03 bd bd b9 34 bd
       -0.028863925 -0.096999325 -0.032201976 -0.044122446
000140 ab cc 2c bd cf f5 ed 3c 08 b3 eb bd 76 83 58 3c
       -0.042187374 0.029047875 -0.11508757 0.0132149365
000150 12 ee 97 bd 68 f4 dd bc a4 a7 a1 3d 92 05 07 bd
       -0.07418455 -0.027094081 0.07893303 -0.032964297
000160 66 08 a8 39 ec 0e 89 bd 2f cf 45 bd 77 3e 48 bd
       0.00032049714 -0.06692299 -0.04829329 -0.048887696
000170 4c 49 aa 3d c3 63 38 bd 08 ef e6 bc ba 97 e2 bc
       0.083147615 -0.045017015 -0.02819015 -0.02766024
000180 43 89 06 bd 59 2a f7 bd a4 4d 0e 3d bb 2c f2 3d
       -0.032845747 -0.12068624 0.034742013 0.11824938
000190 be 49 b3 bd 28 3f e5 bc a0 ab dc bd f4 52 5f bd
       -0.087542996 -0.027984217 -0.10774922 -0.05452247
0001a0 32 93 fc 3d 93 c0 8b 3d 29 25 5c bd 67 27 d5 3d
       0.12332763 0.0682384 -0.053746376 0.10407906
0001b0 a6 69 88 bd 13 ab a0 3d 6b 7b a0 3d 25 ad d2 bb
       -0.06660776 0.0784513 0.0783604 -0.006429332
0001c0 56 7a eb 3d 31 19 ae 3d e8 c9 c0 3d 51 42 22 3c
       0.11497943 0.08500899 0.094135106 0.009903506
0001d0 72 b8 f9 bc 4c 01 a1 bc 4b 34 aa 3d 14 65 de 3d
       -0.030483458 -0.019653939 0.08310755 0.10859123
0001e0 9a 61 8c 3c 1c d4 ee bd 48 b2 3c 3d b5 8e cb 3c
       0.017136384 -0.116615504 0.04606846 0.024848321
0001f0 7e 8c db 3d a2 7a 51 bd 86 60 46 3d 45 30 57 bd
       0.10720156 -0.051142342 0.048431896 -0.052536268
000200 3b 55 bb 3d c1 80 55 3c 00 7c c9 3b 54 6e 90 3d
       0.09147116 0.013031186 0.006148815 0.070522934
000210 dd e0 91 bd 68 0b 88 bd aa ba a6 bd a5 9e a1 3d
       -0.071229674 -0.066428006 -0.08141072 0.07891587
000220 61 5a da bd d5 af 96 3d f1 58 af 3d cc 34 e9 bd
       -0.1066177 0.07357756 0.08561886 -0.11387023
000230 07 65 31 3d e0 58 fe 3c 71 72 e0 bd 14 7f bc 3d
       0.043309238 0.031048238 -0.10959328 0.09203926
000240 24 0e de 3d 50 48 b6 bd ec c6 5a 3d a9 dc ea 3d
       0.10842541 -0.08900511 0.053412363 0.11467869
000250 be 1b cf 3d a8 34 e2 bd 3a de a6 3d 18 b8 64 3d
       0.10112713 -0.110452 0.08147855 0.055839628
000260 ea 46 d2 bd 4e ab d5 bd 29 14 f3 bc c1 34 15 3d
       -0.10267432 -0.104330644 -0.029672699 0.036427263
000270 04 c3 32 3d 86 50 79 3d 4a c2 fd 3d b6 9e 5f 3d
       0.043643013 0.06086781 0.12390573 0.054594718
000280 dc eb 07 bc c2 91 3b bc fb 27 1c 3d 7e a1 6e 3d
       -0.008295979 -0.011448326 0.038124066 0.05825948
000290 f7 ca 10 bd ae 03 b9 bc 78 63 0b bd 7a 72 bb 3d
       -0.035349812 -0.022584762 -0.034030408 0.09152694
0002a0 91 cd bf bc 2f 29 0a 3d 8c 44 db bd 82 88 c7 bc
       -0.023413451 0.033730682 -0.10706434 -0.024357084
0002b0 1a e7 41 3b 45 86 38 bd 9e 66 d9 3d 6a 9a b6 3d
       0.002958721 -0.045049924 0.10615276 0.08916171
0002c0 65 33 28 bd fa 2f a9 3c 00 62 10 bb fb ab c0 3b
       -0.04106464 0.02065276 -0.0022031069 0.0058798767
0002d0 37 c7 55 bc 86 a6 9c 3c 6f a0 b3 3d 66 9d fc 3d
       -0.013047985 0.019122373 0.08770835 0.12334709
0002e0 ce 96 e7 bd 30 e6 15 3d 5f ea a8 3c ce 47 f2 bd
       -0.113080606 0.036596477 0.02061957 -0.11830102
0002f0 70 a2 df 3c d0 c5 b6 3d ab aa f1 3d 96 11 c0 bd
       0.027299136 0.089244485 0.118001305 -0.09378354
000300 16 0f aa 3d 10 25 c3 bd d5 cd 36 bc c3 0f 1d 3d
       0.08303659 -0.095285535 -0.011157473 0.03834511
000310 f8 5f 01 3d 76 e2 e3 bd e6 4e b7 bd ba fc bd bd
       0.031585664 -0.11127178 -0.089505956 -0.092767194
000320 7e 8a f7 bc fe 31 34 3d 30 6d 51 3b 9a 9f c6 bd
       -0.030217405 0.04399299 0.003195595 -0.0969841
000330 e8 3e 65 bc 42 96 d0 3d 92 0f 58 bc 66 2a e0 3d
       -0.013992049 0.101849094 -0.013187306 0.10945587
000340 e3 c3 99 3d a3 61 c9 bd fc d5 eb bd 1c ea 89 3c
       0.075080656 -0.09833076 -0.11515424 0.016835265
000350 0c 3c b7 bd 7a 27 00 3d fc f4 d8 3d 15 a0 19 bd
       -0.08947 0.031287648 0.10593602 -0.03750618
000360 17 98 e9 3c 05 04 84 3d 76 83 3e 3d f9 a9 e2 bd
       0.028514905 0.06446079 0.04651209 -0.11067576
000370 57 a6 b2 bd d5 82 2c 3d b8 45 c4 bc 14 2b ee bd
       -0.08723133 0.04211696 -0.023959026 -0.1162931
000380 b3 0c 83 bc fa a9 7a bc 19 b4 91 3d 68 de 04 bd
       -0.015997266 -0.015299315 0.07114429 -0.032438666
000390 88 bf 70 bd 61 d5 49 3d 18 77 3d bd b2 ff 84 bd
       -0.05877641 0.04927576 -0.046256155 -0.064940825
0003a0 3a 5b ba 3d a9 ae a2 bc 72 5b b9 3d 4c 88 ca bd
       0.09099431 -0.019858675 0.09050645 -0.09889278
0003b0 b4 12 d4 bd df 11 04 3b 72 88 2a bd a7 f9 3e 3c
       -0.1035513 0.0020152254 -0.04163403 0.011656201
0003c0 06 c7 a2 bc cf ca 82 3b 02 ad de bd 36 05 bc bd
       -0.019870292 0.003991462 -0.10872842 -0.091806814
0003d0 b3 dd a6 bd b3 59 08 bd de 93 a9 3d b6 97 b0 bd
       -0.081477545 -0.03328867 0.082801566 -0.086226866
0003e0 9e a2 20 3b 3a 67 fa bd a4 b1 c4 bd 04 2a 47 bc
       0.002451099 -0.1222672 -0.09604195 -0.012156013
0003f0 c4 c5 a9 bd fd 2c e7 bb 9a a4 7f bc cf 23 81 bd
       -0.08289674 -0.0070549236 -0.015603209 -0.06305658

fc3.bias f4 [6]
000000 0d d8 01 3e aa 79 5b bd b2 f9 0c bd 0e 1c 63 3d
       0.12680073 -0.053582825 -0.034417816 0.055446677
000010 2a 8a eb 3d 78 93 d3 bd
       0.11500962 -0.10330862

fc1.weight f4 [64, 4]
000000 df 8a 42 3d 7d 5b 1b be e0 b6 d0 3e bc 88 2c 3e
       0.04749572 -0.15171619 0.40764523 0.16849035
000010 02 ee 24 3e 9d 01 61 be 57 1f 0f be 50 39 7f 3d
       0.16106418 -0.21973272 -0.13976799 0.062310517
000020 de 25 92 3e 81 2b 40 3e f7 c2 f5 be c7 4e 50 3e
       0.28544515 0.18766595 -0.4800031 0.20342551
000030 81 0f 79 be 23 ca a8 be b5 f0 cc be e5 02 4b 3e
       -0.2432232 -0.32966718 -0.40027395 0.19825323
000040 ce 71 c2 be 30 5d b1 3b e9 e0 43 3e 7d f4 dc 3e
       -0.3797745 0.00541272 0.19128765 0.4315528
000050 8f ea 5a 3e ff 01 91 3e 94 93 17 bb 91 83 14 be
       0.2137854 0.28321835 -0.0023128735 -0.14503314
000060 7e a3 f8 be 10 14 e0 be 6c df 3e be 88 cc 76 be
       -0.48562235 -0.43765306 -0.18639916 -0.2410146
000070 89 41 dc 3e dd 5f 94 be 0f 5a b3 3d 9d 38 d4 3e
       0.4301875 -0.28979388 0.08757412 0.41449443
000080 04 c0 2d 3d 95 ef b8 3d d7 e6 b9 3e 72 cb b0 be
       0.04241945 0.09030072 0.3630893 -0.34530216
000090 76 88 e1 be 5c 03 fd be 00 d4 1c bd d8 54 74 be
       -0.44049424 -0.49416625 -0.038288116 -0.2386049
0000a0 1e f1 e3 3e 0a e5 f4 3e 95 1b 88 3a 1c 1a d0 3e
       0.44519895 0.47830993 0.0010384197 0.4064492
0000b0 3f 4e b9 3d 93 d4 29 bd 31 91 51 3d 5a 4a b9 3d
       0.090481274 -0.041462492 0.051163856 0.090473846
0000c0 56 8b c4 be 0c ba f0 be 94 ba 82 be ba 06 b2 be
       -0.38387555 -0.47016943 -0.25532973 -0.34770757
0000d0 6e ee 49 3e c5 1e 8b be 39 30 ea 3d da d1 9b be
       0.1971986 -0.27171913 0.11434979 -0.30433542
0000e0 ad fc 3c bd 44 6c bf be 10 bc 9b 3c e7 76 a8 3e
       -0.046139408 -0.37387288 0.019010574 0.32903215
0000f0 cf df a8 3e a3 93 bf 3e f9 a3 bb be a0 fc 83 3e
       0.32983252 0.37417325 -0.3664854 0.25778675
000100 89 41 58 be cf 55 a3 3e 01 ca 1f be 90 d5 d8 3e
       -0.2111875 0.31901404 -0.15604402 0.42350435
000110 10 8a 8e bd 3c 10 4c bd 80 65 b2 3e 8e 5e 6e be
       -0.06959927 -0.04982017 0.34843063 -0.23278257
000120 b4 96 8f be 00 0f 76 3c 86 e3 ba be ca f6 bc be
       -0.28044665 0.015018225 -0.36501712 -0.36907035
000130 2e 0e 96 3e 2c 18 65 be c1 e8 9d 3e c5 6f 8a bb
       0.29307693 -0.22372502 0.3084164 -0.0042247497
000140 4c 9d b9 3d 87 99 8b 3d d1 53 a0 3e 60 4c 07 be
       0.09063205 0.068163924 0.31313947 -0.13212729
000150 ce 22 ae be 5d 1c 81 3e 5f 0d 45 3d f8 7f ee bd
       -0.3401093 0.25216952 0.048108455 -0.11645502
000160 1f 34 80 bd 07 65 35 3e 9e b0 e1 be b8 77 21 be
       -0.06259941 0.1771432 -0.4408006 -0.15768325
000170 0c 27 84 be 18 5d 74 be d4 b9 27 3e 7c b3 a2 be
       -0.2581104 -0.23863637 0.16379482 -0.3177756
000180 d0 5e 95 3d 6d ba e4 3e 0b 10 2b 3e ea f2 cc bd
       0.07293475 0.44673482 0.16705339 -0.1000727
000190 e4 2a 75 be 00 0a 98 3c 18 b0 b7 3d a0 58 13 be
       -0.23942143 0.018559456 0.08969134 -0.14389277
0001a0 2b fd 82 3e fc 1f 21 bc 83 a3 10 3e d5 c6 a8 3e
       0.25583777 -0.009834286 0.14124875 0.32964197
0001b0 f4 9a 39 be ea d2 85 3e ac 88 8a be 3e 4d 98 bd
       -0.18125516 0.26137477 -0.27057397 -0.07436608
0001c0 ee 51 c4 bd b6 4d 47 be e2 8d c4 be da 77 fb 3e
       -0.09585939 -0.19463238 -0.38389498 0.49114877
0001d0 f8 7d 47 be 8c 06 a4 be 9e b3 bd be 18 c5 86 bd
       -0.19481647 -0.32036245 -0.370511 -0.065805614
0001e0 96 4a d1 3d b5 0d 20 be cb 1e 26 3e 74 6b 9c 3d
       0.10219304 -0.15630229 0.16222684 0.076376826
0001f0 35 1a 82 be cc cc 0f 3e 45 31 0a 39 83 1c 23 3e
       -0.2541062 0.14042968 0.0001317906 0.15928845
000200 87 ed 98 be bd ea f7 3e aa 49 af 3e 72 63 e8 3e
       -0.2986872 0.4842128 0.3423589 0.4538837
000210 e8 82 cd be 18 a1 6c be 94 9f 31 3e 2c c4 83 be
       -0.40138936 -0.23108327 0.1734603 -0.25735605
000220 91 f9 e3 be 72 48 cb 3e bc a6 23 bd 44 9f 46 bd
       -0.44526342 0.3970371 -0.039953932 -0.04849173
000230 51 b3 c3 3e 3f 2a cc 3c f2 7d cd 3b f7 34 34 be
       0.38222745 0.024922488 0.0062711174 -0.1759833
000240 94 46 ee bc 56 31 01 3f a4 32 ea bd 73 ca dd 3d
       -0.029086389 0.50465906 -0.1143544 0.1082963
000250 0e 41 93 be 07 4a bb be df 9d 51 be 56 5c d0 3e
       -0.2876057 -0.36579916 -0.2047038 0.40695447
000260 72 1f 0a be a4 0d f7 3e 6f e9 c7 3e e9 d8 88 bd
       -0.13488558 0.48252594 0.39045283 -0.06681997
000270 36 f9 eb 3e f5 60 dd bd 55 17 82 3e 53 8e da be
       0.4608857 -0.10809509 0.25408426 -0.4268671
000280 17 8f 36 3e 7d 28 8b be 51 83 7d 3e cd 5c 70 3e
       0.17828022 -0.27179328 0.24757124 0.234729
000290 c0 21 71 3d db 0b 13 3a cb d8 17 3b 41 bd f2 3e
       0.058870077 0.00056093716 0.002316999 0.47410014
0002a0 2b fa 00 3e 5f 7d 12 3e 94 e6 f0 be f4 ae 2b 3e
       0.12595432 0.14305638 -0.47050917 0.16765958
0002b0 11 dd c0 3e 7a b3 d6 be 0d f1 d3 be 7e 06 13 3d
       0.3766866 -0.41933805 -0.41394845 0.035894863
0002c0 8b d3 71 be 45 59 4d 3e 99 19 b2 be b7 f3 da bc
       -0.23615853 0.20053585 -0.34785154 -0.02672754
0002d0 54 c7 32 be 20 94 c7 bd e8 6f f5 bd 34 dd 0f be
       -0.1745885 -0.097450495 -0.11984235 -0.14049226
0002e0 b9 7c ac 3e ec e1 6a be 89 71 85 bd b3 df 2c 3e
       0.33688906 -0.22937745 -0.06515796 0.1688221
0002f0 fa 1c 9b 3e 94 4a 07 be d0 b0 e0 3d 7e 86 0e be
       0.30295545 -0.13212043 0.10971224 -0.13918492
000300 e6 f0 40 3e 93 dd bc 3e bf 11 5d 3e d8 ea 87 3e
       0.18841895 0.36887798 0.21588801 0.2654636
000310 b4 6c 28 3e 87 68 f1 3e fb e9 e1 be 54 ba 21 3e
       0.16447717 0.4715006 -0.44123825 0.15793735
000320 72 4e b9 3e 86 54 d8 be ef 9a 2b be 17 df 10 3c
       0.36192662 -0.42251986 -0.16758321 0.008842251
000330 6b 4f f6 be fb 23 dc 3e 59 8c 44 be 15 42 9e 3e
       -0.48107466 0.429962 -0.19194163 0.30909792
000340 11 56 d8 3d 8d 8f c0 3e b8 d1 e9 bd 7d 35 62 3e
       0.10563291 0.3760952 -0.11416954 0.22090717
000350 18 31 ea be 38 5d 9e be ac cd b3 3e 09 f9 09 3e
       -0.4574058 -0.30930495 0.35117853 0.13473906
000360 26 ae f6 3e a0 1e b7 be 56 b2 be bc 8e ab ba 3e
       0.4817974 -0.35765553 -0.023278397 0.3645901
000370 aa 1f 41 3e b9 77 07 bd 6d 9c df 3d ea 3d 33 3e
       0.18859735 -0.03307316 0.10918508 0.17504087
000380 be 19 d7 3e 8c 2d f3 bc cf 77 74 3e 99 3c 49 3d
       0.42011827 -0.029684804 0.23873828 0.049130056
000390 a6 62 39 3e 41 bf 5f be e6 3c b5 be 27 0e a2 be
       0.18104038 -0.21850301 -0.35398024 -0.31651422
0003a0 fa 06 4e 3e 02 4a 84 be e1 b2 8b 3e 81 ec c2 3e
       0.20119849 -0.25837713 0.2728491 0.38071063
0003b0 00 1c 7e be fa 7b 38 3e 1f 7a 8c 3d 56 27 9e 3e
       -0.24815369 0.18016043 0.0685923 0.30889386
0003c0 56 80 f2 3e eb 71 ee be be 50 ef be 75 10 35 3e
       0.47363538 -0.46571288 -0.4674129 0.17682059
0003d0 4b 39 12 be 2e 67 7d be 89 a3 28 3e 21 2a 81 bc
       -0.14279668 -0.24746391 0.16468634 -0.015767159
0003e0 4a a1 f5 3e b0 9a 5b be 06 18 73 3e 72 e5 00 3f
       0.47974616 -0.21445727 0.23739633 0.50350106
0003f0 18 97 9c bd 12 f2 ae be c2 8f 86 be 40 dd 02 be
       -0.07646006 -0.3416906 -0.26281554 -0.12779713

fc1.bias f4 [64]
000000 73 ec 3f be 98 5b 8c be a0 da 96 3c 85 d8 d1 3e
       -0.18742542 -0.2741363 0.018414795 0.40985504
000010 3c f4 cc 3e 72 71 dd be 80 b3 fe 3b fa 5a 65 be
       0.40030086 -0.43250614 0.007772863 -0.22397986
000020 72 cb 9e be 80 19 5e 3d 87 92 c2 be cf 83 cf be
       -0.3101459 0.054223537 -0.38002416 -0.4053025
000030 cc dc e2 be 4f f0 2b be 65 9d a3 3d a8 9d d5 be
       -0.4430908 -0.16790889 0.07989005 -0.41721845
000040 d9 df d2 3e 25 db 74 be d4 2c 77 3e c0 1b f3 3e
       0.41186407 -0.23911722 0.24138194 0.4748211
000050 7d d8 bb be a8 db 62 bd 7e 22 fc be 58 2c d7 3d
       -0.36688605 -0.05538526 -0.49245065 0.10506505
000060 99 e9 cb 3e 20 a5 29 bd 0e bf 92 3e d9 9c b7 3d
       0.39826658 -0.04141724 0.28661388 0.08965463
000070 4f 2e 37 be 58 79 f2 be a3 2f 7b bd 3a e7 c6 be
       -0.17888759 -0.47358203 -0.061324727 -0.38848287
000080 b3 d2 f3 be a0 28 2b bd b4 6c ac be 0e b9 8c 3e
       -0.47621688 -0.04178679 -0.33676684 0.27484936
000090 21 6e ce 3e ce aa 66 be be 5b de bd 37 d0 93 3e
       0.40318397 -0.22526094 -0.10857342 0.28869793
0000a0 35 6e d0 3c 97 c5 3a be b3 80 fc be e4 e0 a7 3e
       0.025443176 -0.18239437 -0.4931694 0.32788765
0000b0 db dd e9 be fc 02 1e be 6b 27 4a bd 64 5a a2 be
       -0.45677075 -0.15430826 -0.049354 -0.31709588
0000c0 c5 f5 ec be aa 71 e3 be 35 4e 76 3c 60 7f c6 be
       -0.46281257 -0.44422656 0.015033294 -0.38769054
0000d0 48 95 ae bd 1c ad 71 3e da aa bf 3d 7b 32 b6 3e
       -0.08524567 0.23601192 0.09358759 0.3558539
0000e0 5a cd 31 3d 2c 3e 15 be ad e0 d2 be ca ba b6 3e
       0.04340873 -0.14574498 -0.4118704 0.35689384
0000f0 76 ed f8 be dc 30 6a be 22 4b c0 be 18 e5 ab bd
       -0.48618668 -0.22870201 -0.37557322 -0.083933055

fc2.weight f4 [64, 64]
000000 1d 62 95 bd c3 4e cd 3d 8d b6 e6 3d e3 d6 76 3c
       -0.07294104 0.10024788 0.112652875 0.015065881
000010 d3 ea fb 3d cb a6 44 3d 08 60 e0 bd 4f 6a 60 bd
       0.123006485 0.04801063 -0.109558165 -0.054788884
000020 b7 ea c7 3d b8 67 f4 bd 85 ce 79 3d ca eb ce bc
       0.09761565 -0.11933845 0.060987968 -0.025258917
000030 6c 25 5e bd 1e 61 54 bd 80 01 bb 3d 42 b7 52 3d
       -0.054234907 -0.05185043 0.091311455 0.0514443
000040 43 5a 1b 3d ff a1 b3 3d 10 49 c9 3c 38 56 9f 3d
       0.037927877 0.08771133 0.024570972 0.07780117
000050 8f 12 f0 bb a1 71 ed bc 60 98 29 3d 38 bf 96 3d
       -0.007326431 -0.028984847 0.04140508 0.07360691
000060 84 fd 86 3a d0 91 41 3d 4d a3 c9 3d 2f 99 51 bb
       0.0010298942 0.0472582 0.098456 -0.0031982174
000070 96 92 a3 bc c4 08 79 3d b0 c5 ea bd 2f 97 bd 3d
       -0.019967359 0.060799375 -0.11463487 0.092573516
000080 66 44 1f bd 74 3b f3 bd e0 b7 e3 bd 25 9d dc 3c
       -0.03888359 -0.11876574 -0.11119056 0.026930401
000090 59 2e fc 3d f5 72 be 3d 2a 53 ed 3d 8e 16 50 bc
       0.123135276 0.0929927 0.11588128 -0.01270069
0000a0 b0 fa e1 3d 0e ed 8e 3d 46 15 96 bc 7e ef 2f bd
       0.11034143 0.06978808 -0.01832069 -0.042953007
0000b0 fc 2d 04 bd 5c 18 a8 3d 99 11 4e 3c 1d 89 33 bd
       -0.032270417 0.08207771 0.012577438 -0.043831933
0000c0 3e dc f3 bd 73 2d cb bc 8e 22 dc 3d 08 a3 9a 3d
       -0.11907242 -0.024801945 0.10748778 0.07550627
0000d0 d4 05 8b bd 44 16 6e bd 0a 13 78 3d 0f 3c d1 bd
       -0.06788221 -0.058126703 0.060565032 -0.102165334
0000e0 c4 6e 51 3c cb 02 8d bd 53 99 8b bd 64 ef 96 bd
       0.012782756 -0.06885298 -0.06816354 -0.07369879
0000f0 1b 6b 06 3e 88 f3 0d 3d 04 a7 7e bd f0 3f bb 3c
       0.13126795 0.034656078 -0.062170997 0.022857636
000100 39 e0 86 3d 9d ac 85 3d 88 92 9f 3b 0d 3a 30 bd
       0.06585736 0.06527064 0.004869763 -0.04302411
000110 a3 8a 54 bd dd e5 79 3d b8 79 ba 3c 9b fd de 3c
       -0.051890027 0.06101023 0.022763118 0.027220538
000120 76 03 99 3d 50 b8 fd bc bf bc cb 3b 4a 8a 23 bd
       0.07471363 -0.030971676 0.0062175686 -0.039926805
000130 80 49 25 bd ee da da 3d a0 44 40 3d 1d c0 12 bd
       -0.0403533 0.10686289 0.046940446 -0.035827745
000140 4e 01 6a bd ad d5 b1 bd 00 54 ee ba a2 0b 55 bd
       -0.05713015 -0.086833335 -0.0018182993 -0.052013047
000150 c3 9a ca 3c 76 c9 44 bd 57 67 e4 3d 54 23 f2 bd
       0.024732 -0.04804369 0.11152523 -0.118231446
000160 38 c1 52 3c 20 ea 5e bc 51 56 f0 3d 07 07 36 bd
       0.01286345 -0.013605624 0.117352135 -0.044440296
000170 16 16 4d 3d 64 0c 33 3d cc b9 86 3d 3d 99 a7 3c
       0.05006989 0.04371299 0.06578407 0.020458812
000180 3b 76 f0 3b fc 68 9d 3d 82 7f b7 bd 39 a6 b0 bd
       0.007338313 0.0768604 -0.08959867 -0.086254545
000190 27 67 59 bb 7b 55 22 3d 64 34 3c 3d e8 bf 4c bd
       -0.0033173056 0.0396323 0.0459484 -0.049987704
0001a0 39 fd a4 3c 4c a3 dc bd e3 2d 0b bc 00 44 83 3d
       0.020140277 -0.10773334 -0.008494827 0.06409454
0001b0 5a ec ac bc 80 57 a6 3a f7 af 6b bd 30 6b 5c bd
       -0.021108795 0.0012690872 -0.05754086 -0.05381316
0001c0 53 1b 8e 3c 26 ef 8e 3c 0c 63 69 bd d2 4d 7b 3d
       0.017347014 0.01744802 -0.056979224 0.061353512
0001d0 b8 47 b3 3d db e9 97 bc 9e 52 cf 3d c1 23 8c bd
       0.08753914 -0.018544128 0.1012318 -0.06842757
0001e0 09 d9 79 3d 89 23 b2 bd 51 9c a1 bd 3a e1 c6 3d
       0.060997996 -0.08698184 -0.07891143 0.09710927
0001f0 89 b4 d4 3b 8a 36 91 3d dd 96 05 bd d0 1f 42 3d
       0.006491248 0.070904806 -0.032614578 0.04739362
000200 e6 b2 fb bd 76 29 df 3d 0d 62 d1 bd 5a d2 be bc
       -0.122899815 0.1089658 -0.1022378 -0.023293663
000210 d1 8b fa bc be 59 c2 bd 9c a9 d1 bd ab 9d 3c 3d
       -0.030584248 -0.09489773 -0.102374285 0.0460488
000220 94 65 cb bd 0a d2 cf 3d 3e 98 b2 3d 46 cf b2 3d
       -0.09931484 0.10147484 0.08720444 0.087309405
000230 6a 23 e2 bd ae 3a 77 bd 3b 08 1c 3d 45 98 ef bc
       -0.11041911 -0.060358696 0.038093787 -0.029247412
000240 c0 cf b4 3d d4 c3 2a bc 24 69 8e 3d be 91 a8 3d
       0.08828688 -0.010422666 0.06953648 0.08230923
000250 20 da 1a 3d d2 b5 d6 3d 27 c9 98 3d fe a8 c5 bd
       0.037805676 0.10483898 0.07460242 -0.09651373
000260 ee 6f 56 3d 1e 60 83 bd 28 be 93 bd 8f f1 1e bc
       0.05235284 -0.06414817 -0.07214004 -0.009701147
000270 2b 4e d9 3d d0 46 96 bc 06 d7 5d bd 63 21 cd 3c
       0.106106125 -0.018344313 -0.05416014 0.025040334
000280 9f 48 cf 3c 58 c6 f6 3d 61 89 98 bd 46 7e ea 3d
       0.025303183 0.1204955 -0.07448078 0.11449866
000290 3d bd d1 3d 1c 06 5c bd 68 7d c0 3d 9d d2 b1 3d
       0.102411725 -0.053716764 0.09398919 0.086827494
0002a0 b0 8d 2d 3c e8 da bc bd d5 cc 3c bd 25 20 93 3d
       0.010592863 -0.092214406 -0.04609378 0.071838655
0002b0 da 3a 4a bc c8 2c 35 bd 84 62 b9 3d 3a 24 18 ba
       -0.012343133 -0.04423216 0.090519935 -0.0005803738
0002c0 75 8a 8c bd 6b b2 7e 3d b6 6c 91 bd b9 c5 78 3d
       -0.06862346 0.06218187 -0.07100813 0.060735438
0002d0 97 30 21 3d e2 ac dc bd 68 41 8f bc 9f b0 3c 3d
       0.03935298 -0.10775162 -0.017487243 0.046066877
0002e0 7f 35 f9 3d 88 61 db 3d 4a 34 9c 3d 69 e0 02 bd
       0.12168407 0.10711962 0.07627161 -0.031952295
0002f0 3a eb 94 bd de 89 7a bd 1f e7 ab 3d ce b8 a8 bd
       -0.072714284 -0.061166637 0.08393692 -0.08238374
000300 0e 00 3e 3d 66 e1 04 3e 35 39 d4 3d 53 7f 6b bd
       0.04638677 0.12976608 0.10362474 -0.057494473
000310 11 04 e0 3d 0d 87 cd 3d 58 a9 8e bd 2e de 35 bc
       0.109382756 0.100355245 -0.069658935 -0.011100335
000320 88 06 b1 3d 82 85 e3 bd eb 20 77 3d 1b 7a ad 3d
       0.08643824 -0.11109449 0.060334127 0.084705554
000330 dc e5 6f 3d 11 46 d2 bd 76 fd 92 bd e1 e4 f4 3d
       0.05856882 -0.1026727 -0.0717725 0.11957718
000340 db ae 44 bd ff 44 45 bd a2 78 eb 3d 5d a9 09 bd
       -0.048018318 -0.048161503 0.11497618 -0.033608783
000350 78 26 cf 3d 91 f7 cb 3c 99 bf fa bb 78 a7 cf 3d
       0.10114759 0.024898322 -0.0076522348 0.10139364
000360 43 2d 70 bd 46 c2 da bd 0b 05 8a 3d 7d 59 8e 3d
       -0.058636915 -0.10681586 0.06739243 0.06950662
000370 01 3a d0 3c 70 03 c3 3d f4 fd 91 3d 3e 9e 38 3c
       0.025418283 0.0952214 0.07128516 0.011268197
000380 1a 38 2f 3c 50 89 1b 3c f9 d0 64 bd ee e5 ac bd
       0.010694528 0.009493187 -0.055863354 -0.08442293
000390 bf 4b cf bd eb 03 9f bc 11 e1 2b bd f9 b6 97 3c
       -0.10121869 -0.019411048 -0.041962687 0.018519865
0003a0 66 ab 6d bb ea 7e 18 bd 0e 5a 3b bd 26 9a dc 3d
       -0.0036265492 -0.03723041 -0.04574018 0.10771589
0003b0 86 81 62 3d 80 0d c3 3c dd c3 45 3d 01 80 bf 3d
       0.055299304 0.023810148 0.048282493 0.09350587
0003c0 ae a5 a9 bd 2b f8 a7 bd 55 71 9c 3d a2 3a ba 3d
       -0.08283554 -0.08201631 0.07638804 0.090932146
0003d0 f5 dc 9c 3d 85 2f e7 3d 70 6c 87 bd d3 56 05 3d
       0.07659332 0.112883605 -0.0661248 0.032553505
0003e0 82 71 cb bc eb 3c 99 bb a3 08 c4 bb fc 0c da 3d
       -0.024834398 -0.0046764514 -0.005982475 0.10647008
0003f0 19 7a 9a bd 25 b9 b9 3d c9 68 8e bd 10 74 92 3c
       -0.075428195 0.09068517 -0.0695358 0.017877609

fc2.bias f4 [64]
000000 09 29 9d 3d f4 d0 f9 bd 11 61 9c 3d 08 ec 7c bb
       0.076738425 -0.12198058 0.076357014 -0.0038592834
000010 49 48 e0 bc 60 9d a6 bb 90 93 c2 3c 5c 36 a6 3d
       -0.027378218 -0.0050846785 0.023752004 0.08115837
000020 58 58 c7 bd b2 b7 82 3d d0 18 81 3d 24 b6 a2 3d
       -0.09733647 0.06382693 0.06303561 0.07944897
000030 a5 5e c2 3b f3 74 c8 3b 79 90 54 3d ab 29 a8 3c
       0.0059316927 0.006117457 0.051895592 0.020527681
000040 8b ec 4c bd 09 75 26 bd da ef b9 3d 25 08 d3 3d
       -0.050030272 -0.040638957 0.09078951 0.10304288
000050 aa 44 bc bd f9 67 f1 3d d6 f2 a4 bd cd 04 f3 3d
       -0.09192784 0.11787409 -0.0805413 0.1186615
000060 65 2b 53 bd 68 44 3f 3d 2d 6c 67 3d 3d e7 68 3d
       -0.051555056 0.046696097 0.05649965 0.05686115
000070 57 70 e9 bc cb 45 cf 3d b0 e4 a7 bd f3 de 2a 3d
       -0.02849595 0.10120734 -0.081979156 0.041716527
000080 78 cf c6 bd 7e 10 be 3d c0 e2 c0 bd 6e 79 84 bd
       -0.0970754 0.092804894 -0.09418249 -0.064684734
000090 5e c4 ed bb 69 07 bd 3c 88 e5 d9 bd c6 0f b5 bd
       -0.007256075 0.023074823 -0.10639483 -0.08840899
0000a0 cf 1b b4 3d bf 69 02 bb 31 60 ba 3b 27 d3 9a bb
       0.087943666 -0.0019899455 0.0056877364 -0.0047248784
0000b0 8f 49 52 3c c2 07 98 bc e3 d0 8b bd 49 c8 5c 3d
       0.012834921 -0.018558387 -0.06826951 0.053901944
0000c0 ab 17 a9 3d 7c 01 77 bd 60 d7 3b bd 6e d8 32 3d
       0.082564674 -0.06030415 -0.045859694 0.043663435
0000d0 13 7a b8 bd a0 b8 3a bd c9 69 da bd 6e 94 e3 3d
       -0.09007659 -0.04558623 -0.10664708 0.11112295
0000e0 9e ab d5 3d 76 34 9b 3d 3a df a9 3c d4 af 47 3d
       0.10433124 0.075783655 0.020736326 0.048751667
0000f0 f0 ac e7 bc 60 06 2a 3c 84 e8 6c 3d 23 8a b4 3d
       -0.028280705 0.0103774965 0.05783893 0.0881541

fc3.weight f4 [6, 64]
000000 16 4a 9e 3d 52 f0 c5 bd a6 d0 cb 3d e4 4e 40 bd
       0.077289745 -0.09664978 0.09951906 -0.046950236
000010 11 d7 c0 bd 6c a9 33 3d e0 db 97 bc 56 6d 53 3d
       -0.09416021 0.043862745 -0.018537462 0.051617943
000020 b0 21 67 bd 8d eb 3b bd 09 d9 99 3d c0 04 26 3b
       -0.05642861 -0.045878936 0.07512099 0.002533242
000030 b7 d9 72 bd b8 5f f1 3a bf 89 84 bd bb d3 f3 3d
       -0.05928966 0.0018415367 -0.064715855 0.11905619
000040 18 b6 92 bd c0 44 a3 bd a0 e9 3c bd c8 00 d9 bd
       -0.07163638 -0.079720974 -0.04612124 -0.10595852
000050 50 9f cf bd 89 85 8a 3d fc 2c e3 3d 9f 63 82 bd
       -0.10137808 0.06763751 0.110925645 -0.063666575
000060 20 0a ed bd 1e a0 f9 bc 90 5a 89 3d a2 7b cf bd
       -0.11574197 -0.030471858 0.067067266 -0.10131003
000070 f9 c7 ec 3d f6 92 64 3d 70 85 3a bc 97 03 68 bc
       0.11561579 0.055804215 -0.011384353 -0.014161012
000080 99 2e 80 3c 7b 59 21 bc f5 72 0a 3d b4 30 07 be
       0.01564722 -0.009847994 0.033801038 -0.13202173
000090 3c 65 c8 bc 33 52 f9 3c 78 f1 d4 3c 90 dd d2 3d
       -0.024462335 0.030434703 0.025994048 0.10296166
0000a0 f5 e4 f8 bd c5 f0 dc 3d ab 71 07 3d d9 2f af 3d
       -0.12153045 0.10788111 0.033067387 0.08554048
0000b0 e0 57 44 3d 2d 71 8f 3d 61 21 1b 3d 84 66 00 3e
       0.047935367 0.070040084 0.03787363 0.12539107
0000c0 dc 25 06 3d c7 d5 16 3b a4 31 8b bd 72 25 b9 3d
       0.03275095 0.0023015605 -0.067965776 0.09040345
0000d0 35 f5 bf bd 75 10 e5 3d 07 98 ca bd e0 c2 6b 3c
       -0.093729414 0.111847796 -0.09892278 0.014389724
0000e0 55 c5 81 bd 40 80 c4 3b 47 55 ae bd 51 9d f8 3d
       -0.06336466 0.005996734 -0.08512359 0.12139381
0000f0 46 4a e2 3d b8 26 fb bd 95 3e c8 3d 98 c5 10 bd
       0.11049323 -0.122632444 0.097775616 -0.03534469
000100 bf 96 d4 bc 3a 04 c8 3c 19 51 01 3e 7a f2 eb bc
       -0.025950788 0.024416078 0.12628593 -0.028802145
000110 3a 2f 38 3d 38 79 16 3d 76 36 b8 3d 81 92 98 bd
       0.044966914 0.036736697 0.089947626 -0.074498184
000120 c0 6b 9e bd e5 d3 d4 bb 89 52 ef 3d 00 91 cf ba
       -0.077353954 -0.0064949864 0.11685664 -0.001583606
000130 13 0e e8 bc dc 1b c6 bd b3 c7 00 bd 63 19 33 bd
       -0.028327024 -0.096732825 -0.031440448 -0.043725383
000140 9d 29 2f bd 55 a3 f1 3c 08 b3 eb bd 0f 5f 61 3c
       -0.042764295 0.029496828 -0.11508757 0.013755574
000150 12 ee 97 bd 49 94 d9 bc 38 10 a3 3d 82 9c 06 bd
       -0.07418455 -0.026559966 0.07962078 -0.0328641
000160 9f 3d 78 39 ec 0e 89 bd 9f 5a 40 bd 58 20 49 bd
       0.00023674079 -0.06692299 -0.046961423 -0.04910311
000170 a3 e9 ab 3d 85 95 35 bd 08 ef e6 bc a5 2e e3 bc
       0.08394172 -0.044332046 -0.02819015 -0.027732203
000180 26 fe 06 bd f4 a8 f6 bd e6 2e 10 3d 13 44 f3 3d
       -0.03295722 -0.12043944 0.035200976 0.118782185
000190 8b 40 b1 bd 08 23 de bc a0 ab dc bd f4 52 5f bd
       -0.08654889 -0.027116314 -0.10774922 -0.05452247
0001a0 d4 7d fd 3d 9f 23 8d 3d c7 44 5a bd c7 88 d4 3d
       0.123775154 0.0689156 -0.053288247 0.10377651
0001b0 bb bc 88 bd 79 75 a1 3d 65 27 a2 3d 12 ef c8 bb
       -0.066766225 0.07883734 0.0791767 -0.006132015
0001c0 a4 b3 ed 3d 93 1d b0 3d e8 c9 c0 3d 48 1a 1f 3c
       0.11606529 0.08599391 0.094135106 0.009710856
0001d0 db 4f fc bc d8 19 a2 bc ea 07 ac 3d 14 65 de 3d
       -0.030799797 -0.019787714 0.08399947 0.10859123
0001e0 1d e5 9a 3c 1c d4 ee bd 53 1f 3e 3d 99 ec ce 3c
       0.018908078 -0.116615504 0.04641659 0.025259303
0001f0 7e 8c db 3d cf c9 51 bd 31 e9 4c 3d e5 2d 58 bd
       0.10720156 -0.05121785 0.050027076 -0.052778143
000200 dc 62 ba 3d 6a 2d 4c 3c 7a a3 ba 3b 34 d1 90 3d
       0.09100887 0.012461999 0.0056957575 0.07071152
000210 6c 34 8e bd 68 0b 88 bd aa ba a6 bd 76 65 a1 3d
       -0.069435924 -0.066428006 -0.08141072 0.0788068
000220 c0 93 da bd b5 3f 94 3d 0a b2 af 3d cc 34 e9 bd
       -0.10672712 0.07238714 0.0857888 -0.11387023
000230 49 74 2e 3d 73 31 00 3d 35 32 e0 bd 77 d1 ba 3d
       0.042591367 0.03129716 -0.10947076 0.091219835
000240 67 61 e0 3d d0 d8 b6 bd ec c6 5a 3d 02 f3 e9 3d
       0.10956078 -0.089280725 0.053412363 0.11423303
000250 be 1b cf 3d 51 44 e3 bd 6f 78 a5 3d c6 b7 61 3d
       0.10112713 -0.11097015 0.080796115 0.0551069
000260 98 11 d2 bd 4e ab d5 bd 1c 35 f9 bc 09 e8 12 3d
       -0.10257262 -0.104330644 -0.030420832 0.035865817
000270 75 c8 36 3d b6 ae 76 3d 4a c2 fd 3d 23 b5 60 3d
       0.044624764 0.06022521 0.12390573 0.054860245
000280 33 65 d0 bb f2 22 3f bc 5f fe 19 3d aa 58 6c 3d
       -0.00635972 -0.011666046 0.037596103 0.057701744
000290 22 17 0f bd d2 07 be bc 78 63 0b bd 7a 72 bb 3d
       -0.03493417 -0.023197088 -0.034030408 0.09152694
0002a0 aa cf c3 bc a6 52 09 3d ca 4f d9 bd 27 8a c0 bc
       -0.023902733 0.033526085 -0.10610922 -0.023503376
0002b0 1c f6 36 3b e9 98 3a bd d3 39 db 3d 93 f4 b7 3d
       0.0027917689 -0.045555983 0.107043885 0.08982196
0002c0 4d e7 27 bd b5 10 a1 3c 00 62 10 bb 38 6f d8 3b
       -0.04099207 0.019661287 -0.0022031069 0.006605055
0002d0 95 65 54 bc 8d e9 98 3c 85 28 b3 3d 66 9d fc 3d
       -0.012963672 0.018666053 0.08747963 0.12334709
0002e0 26 a2 e8 bd 30 e6 15 3d e7 4d b6 3c 0c b8 f3 bd
       -0.11359052 0.036596477 0.022253944 -0.119003385
0002f0 70 a2 df 3c a5 61 b7 3d 40 b4 f0 3d ee c9 c0 bd
       0.027299136 0.08954171 0.1175313 -0.09413515
000300 9d e5 a8 3d 9b f9 c2 bd cc 08 39 bc a9 3b 1b 3d
       0.0824692 -0.09520265 -0.011293601 0.037898693
000310 b5 17 00 3d 76 e2 e3 bd e6 4e b7 bd 29 bc be bd
       0.03127261 -0.11127178 -0.089505956 -0.093132325
000320 9b 9c f6 bc 62 34 2f 3d f3 1c 23 3b 9a 9f c6 bd
       -0.030103972 0.042774566 0.0024889081 -0.0969841
000330 48 42 68 bc 1c 35 d0 3d 03 71 45 bc 4e 80 df 3d
       -0.014175959 0.1016638 -0.01205087 0.10913144
000340 b1 36 99 3d 31 4b c9 bd fc d5 eb bd b5 2f 8c 3c
       0.07481135 -0.09828795 -0.11515424 0.017112592
000350 0c 3c b7 bd 18 43 fe 3c e1 e1 d7 3d 63 77 1c bd
       -0.08947 0.031037852 0.1054113 -0.038199794
000360 38 6e e4 3c bf ff 83 3d b6 9f 40 3d a1 2b e4 bd
       0.027884588 0.06445264 0.047027312 -0.11141134
000370 da d4 b4 bd e8 28 2b 3d b8 45 c4 bc a5 49 ee bd
       -0.08829661 0.041787058 -0.023959026 -0.1163514
000380 48 d6 85 bc 8a 5c 82 bc 5a bc 91 3d 6b e6 05 bd
       -0.016337529 -0.015913267 0.07116003 -0.032690447
000390 a1 15 6c bd de 90 4a 3d 18 77 3d bd b2 ff 84 bd
       -0.057637814 0.049454562 -0.046256155 -0.064940825
0003a0 05 81 b9 3d a8 ae a4 bc 03 37 b9 3d b9 35 cd bd
       0.09057812 -0.020102814 0.09043696 -0.100200124
0003b0 08 eb d4 bd 20 84 e6 3a 64 cd 2c bd 3e 01 3f 3c
       -0.10396391 0.0017586984 -0.042188063 0.011658011
0003c0 36 d2 9b bc 17 97 8a 3b 02 ad de bd eb 5f bc bd
       -0.019021135 0.004229437 -0.10872842 -0.091979824
0003d0 d8 fd a6 bd 28 52 0a bd 9a c9 a9 3d b6 97 b0 bd
       -0.081538856 -0.033769757 0.082904056 -0.086226866
0003e0 16 23 15 3b 3a 67 fa bd 68 97 c6 bd a8 23 4b bc
       0.0022756509 -0.1222672 -0.09696847 -0.012398638
0003f0 c4 c5 a9 bd d6 43 e9 bb 9a 02 61 bc 1f b4 81 bd
       -0.08289674 -0.0071186824 -0.01373353 -0.063331835

fc3.bias f4 [6]
000000 64 2f 00 3e da a2 5b bd db 1a 10 bd 15 91 5f 3d
       0.12518078 -0.053622104 -0.03518186 0.05458172
000010 ab a8 e7 3d 84 71 d6 bd
       0.11311468 -0.1047087
