saved_models/dqn_best_model_episode_247.pt (torch, 87147 bytes, 24 tensors)

fc1.weight f4 [64, 4]
00000000: 6f69 9bbe ddc8 ab3e f960 ab3e dd52 80bd
00000010: 59a2 e63e c238 7bbe 1291 193d 3c07 af3e
00000020: 373b c23e b364 dfbe ed00 803e cb04 9d3c
00000030: 2359 59be b698 1f3e 847c 033e bd6d 793e
00000040: 8b40 cc3e a4ab 15bd e9c9 c03e d60c e93e
00000050: 010f 763d 7493 243c 862f a03d 3ab2 69be
00000060: eb34 ec3e df9d 783e af62 35be 3e0a fe3e
00000070: e136 223d 02c7 453e 54c1 0c3e f9be b6be
00000080: ee24 9abe 1c06 0cbb 5e4c 90ba 2cf2 c33d
00000090: a78f 693e d269 0d3e 8189 54be 95f9 fc3e
000000a0: 8027 e1be ab85 d73e bbe4 c53e 3c15 9bbe
000000b0: 8a1a ce3e 34d0 b73d 67ec 80be ed5e b33e
000000c0: ec9a 3dbe 3c5f aebd aa4a e53c 4df7 c23e
000000d0: 6d58 d13e 4c9d 993e c7ae d83c 401c ad3e
000000e0: 0d26 9d3e 914f 803e 3328 94be 1fd3 77be
000000f0: c95d 9bbe cb67 b83e b4ec 243d b5e3 fbbd
00000100: 464e 41bd 2f97 c03e e1f2 e13c 75f3 c9be
00000110: bc1d 863e 1eea 823d 0ed6 37be af0f 263e
00000120: 61cc ae3e 939a a93e 7089 043c 2178 8bbb
00000130: 4c1f 823c 3350 c2be 5bcd 1dbc 3f88 c23e
00000140: 8675 c9be c4c8 afbe 7052 503d 1840 e5be
00000150: 255f 953c 882c bf3e dc7a 4cbe e46e 9fbd
00000160: 844f 7fbe 70cf e8bd 4005 ed3d a2b9 f2be
00000170: ba9f 643e 6202 a03e 7390 08bb 443f 843e
00000180: 1720 903e 2608 a1be e156 d33e 1770 61bc
00000190: d78d 1e3d 0d78 69be c4e2 59be 88bd 48be
000001a0: de44 2a3d c6ba 3b3d d82f b83e 32cb 203d
000001b0: b4de d9be a051 73bd d858 bfbe ec8f 90be
000001c0: fc2a 07bd 0e99 ab3e bd27 f3be 98e0 a93e
000001d0: ebd8 e8bd 5057 d7be 9eb2 313e eec1 963d
000001e0: a48d 6fbe 6658 46bd aa42 a03e edfb a6bd
000001f0: 374f f33e ce34 e6be 1b68 033e b000 d53e
00000200: 25b5 9b3e f1c8 2c3e 16fc 553e d331 81be
00000210: fb97 1bbe 34dd e1be 2b35 973e 3955 c63e
00000220: 2c25 0fbe 106d 3abe a09b 8a3c e0f1 d2be
00000230: a1cf e43e 47ba f43e e9f8 e83e 6a84 f9bd
00000240: fe75 923e 3464 62be 1c2e bbbe e058 83be
00000250: 2ffd 08bd 120e c63e 8f05 353e 4d10 e73e
00000260: ab93 97bd 4964 a8be d107 f5bd 441a c83e
00000270: e714 9f3e 2555 ffbe e545 803e d813 b13d
00000280: 82fe 5d3e c519 db3e 71a2 c9be d9a9 cebe
00000290: b11f b33e 8c2c 81bd 2369 76be 6b2f 983e
000002a0: fef1 b0be 686a a83e f9a0 ebbe 9eaa 79bd
000002b0: bab0 a5be 403f 50bc 6872 8abe f2e4 a5be
000002c0: 436e d33e f85d 64be a537 383e 90e1 403e
000002d0: 1df0 0ebe d4d4 d13e 1085 4ebd 8f00 dc3e
000002e0: 2890 ac3d 65ea 72be ea08 813e 8c12 a7be
000002f0: f183 303e 8dba fabd 6a38 e13e 5888 763e
00000300: 1e83 bbbe 8b42 d3be b586 d83b 88f4 f53d
00000310: 07d9 fcbe 4c05 8dbe 09a0 f7be 8319 f53e
00000320: fc19 873e 8438 79be 7d76 d7be 31bc c63e
00000330: ac4a ac3c 1931 16be 91eb 4c3e 277f c9be
00000340: 8d44 2c3e e84a a23e acf2 a43e 0926 e5bd
00000350: e4f9 6d3e 53ab 81bd 2f1a a63e fe2d 013e
00000360: fd9e 5d3e aea0 4fbe 0c57 e3be 3927 48be
00000370: df10 ae3e de10 98be 203a ec39 0d4b 993e
00000380: c4c5 4f3e f03b 4f3e 91a1 1e3e 8fa7 873e
00000390: 0ff1 883e afac e73e a844 463e 729b 65be
000003a0: 42b0 383e edd3 af3e 60e9 38bd 1543 da3e
000003b0: 15cf 7a3d 8f55 f13c 36b3 553d 2064 b63e
000003c0: 2536 7fbe ce4a f4bd 9661 803e c8a5 bb3c
000003d0: 30ea 933e 42fd 80be 810c 63be 2ffc 10be
000003e0: aa3e 16be 813c d23e 2dc3 c93e 4220 00be
000003f0: 8855 a3be c32b 333e 5e19 b1be 8c26 7d3e
-0.30353877 0.33551684 0.33472422 -0.06265805 0.45045736 -0.2453337 0.037491865 0.34185207
0.37935802 -0.43631515 0.25000706 0.019167325 -0.21225409 0.15585598 0.12840468 0.24358268
0.39892992 -0.036540642 0.37654045 0.45517606 0.060072903 0.010044921 0.078215644 -0.22821894
0.46134123 0.24278973 -0.17713426 0.4961719 0.039603118 0.19314197 0.13745624 -0.35692576
-0.301063 -0.0021365946 -0.0011009087 0.09567675 0.22808705 0.13809898 -0.20755579 0.49409166
-0.4397545 0.42094168 0.3865107 -0.30289638 0.40254623 0.089752585 -0.2518036 0.3503336
-0.1851613 -0.08514258 0.027989704 0.380793 0.40887776 0.3000282 0.026450528 0.33810616
0.30693093 0.25060704 -0.2893692 -0.2420163 -0.3034499 0.36016688 0.0402648 -0.12299291
-0.047193788 0.37615344 0.027581634 -0.39443555 0.2619456 0.063923106 -0.17952749 0.1621692
0.34140304 0.33125743 0.008089408 -0.004256264 0.015884064 -0.37951812 -0.00963148 0.37994573
-0.39347476 -0.3433286 0.05085987 -0.44775462 0.018233845 0.37338662 -0.19968742 -0.077848226
-0.24932677 -0.113676906 0.11573267 -0.47407252 0.22326556 0.31251818 -0.0020838052 0.25829518
0.28149483 -0.3145153 0.4127722 -0.013759634 0.038709488 -0.22799702 -0.2127791 -0.1960355
0.041569583 0.045832418 0.35974002 0.039256282 -0.42552722 -0.059404016 -0.3737247 -0.28234804
-0.032999977 0.3351521 -0.47491255 0.33179164 -0.11369499 -0.42058802 0.17353293 0.07361208
-0.23393875 -0.048424147 0.3130086 -0.0815352 0.47521374 -0.44962162 0.12832682 0.41602087
0.3041164 0.16873528 0.20896944 -0.25233325 -0.15194695 -0.44114077 0.2953275 0.38736895
-0.13979024 -0.18205667 0.01691991 -0.4120016 0.44689658 0.47798368 0.45502403 -0.12183459
0.28605646 -0.22108537 -0.36558616 -0.25653744 -0.03344458 0.3868261 0.17677902 0.45129624
-0.07401212 -0.32889012 -0.119643815 0.3908254 0.31070635 -0.49869648 0.25053325 0.08646363
0.21679118 0.42793098 -0.39381745 -0.40363958 0.34985116 -0.06307325 -0.24063544 0.29723677
-0.34559625 0.32893682 -0.4602125 -0.06095373 -0.32361394 -0.0127103925 -0.2704041 -0.32401234
0.4129506 -0.22301471 0.17989977 0.18836045 -0.13958783 0.40982687 -0.050419867 0.42969176
0.08425933 -0.23722227 0.25202113 -0.32631338 0.17237832 -0.12242613 0.43988353 0.24075449
-0.36623472 -0.41261706 0.006607855 0.12009531 -0.4938433 -0.27543104 -0.48364285 0.47871026
0.26387012 -0.24337965 -0.42082587 0.38815454 0.0210317 -0.14667167 0.20011736 -0.39354822
0.16823025 0.31697774 0.32216394 -0.11188895 0.23239857 -0.063315056 0.32441851 0.12615201
0.2164268 -0.20276138 -0.4440235 -0.19546212 0.33997247 -0.2970037 0.00045056734 0.29940072
0.20290285 0.20237708 0.1549132 0.26495025 0.26746413 0.45248935 0.19362128 -0.22422579
0.18035987 0.34341374 -0.04514444 0.42629305 0.061232645 0.029459743 0.052172862 0.35623264
-0.24922998 -0.1192833 0.25074452 0.0229062 0.28889608 -0.2519322 -0.22172739 -0.141587
-0.14672342 0.41061786 0.3940672 -0.12512305 -0.31901193 0.17497163 -0.34589666 0.24721736

fc1.bias f4 [64]
00000000: 08b6 403c fbb7 d7be 0374 edbe e89c c9be
00000010: 667f d13e 6de2 cbbd 3419 003f 2971 26be
00000020: 9fcb 103e 2fe9 a13e 5d9c debe ad9e 8c3e
00000030: 2162 ffbe 6f8b 0e3d 2490 3bbd 495c b0be
00000040: d417 afbe 8059 dc3d c1dd 94be c0c6 53be
00000050: 308c 9c3d cf80 773e 987f 66be 5231 393e
00000060: 5a94 78bc ae25 bebe d8c4 f73e 2a02 cfbe
00000070: 233f 92be 8efb c33e 2ed8 99be e1d7 63be
00000080: 34c6 5a3d 7d71 f73e c4d5 5d3e f356 99bd
00000090: aeb3 a73d 9272 acbe f7c8 473e 72d9 edbe
000000a0: 0d0f bfbe 471b 84be d89f 58be a045 28bd
000000b0: c87f bf3e c372 333e c547 b2be 7e4c a93d
000000c0: 5619 fbbd 9108 02be d0b5 9c3e 0e1a d93e
000000d0: f670 203e 7a61 b03d 34e3 6cbe 991a 373e
000000e0: 998b d03c 1237 b1be f049 7b3a 7eb3 023e
000000f0: 2440 b43e f9cc 413e 2723 e8be 5c60 293e
0.01176215 -0.42132553 -0.46377572 -0.39377522 0.4091751 -0.09955297 0.50038457 -0.16254105
0.14140175 0.31623217 -0.4347867 0.2746481 -0.49879554 0.034800943 -0.04579176 -0.34445408
-0.34197867 0.10759258 -0.29075435 -0.20681286 0.07643926 0.2417023 -0.2250961 0.1808522
-0.0151720885 -0.37138122 0.48392367 -0.4043134 -0.28563794 0.38277858 -0.30047745 -0.2225032
0.053411677 0.48328772 0.21663576 -0.07487287 0.08188568 -0.3368116 0.19510256 -0.4645496
-0.3731617 -0.2580206 -0.21154726 -0.041082025 0.37402177 0.17524247 -0.3482038 0.08266543
-0.12260692 -0.1269858 0.30607462 0.4240269 0.15668091 0.08612342 -0.23133546 0.1788124
0.02545719 -0.34612328 0.00095859077 0.12763783 0.35205185 0.18925847 -0.4533932 0.16540664

fc2.weight f4 [64, 64]
00000000: 7b1c ad3d 7de6 ea3b 328c 75bd a242 9b3d
00000010: e12d 6f3d 6407 8fbd e923 fa3d fb65 1a3d
00000020: 29db ee3d 0bc7 183d 7460 93bc c75d 90bd
00000030: e6f3 9cbc 3cd5 d2bd d0d9 c1bd 2df4 c93d
00000040: 684b 55bc c4a5 a73b 80a3 31bd 2985 ccbd
00000050: 403f 22bb 6410 73bd c048 1cbb 4258 f43d
00000060: bc24 89bd e007 cbbd 7f4e fdbd 909f b03d
00000070: 1523 97bd 87d4 16bd cef5 c2bd 1b63 c7bb
00000080: 82c3 c13a 0f2f b83d c817 b2bd 16b9 80bd
00000090: 689b c0bc 7d87 ee3d 62bb 6dbd 84f2 acbd
000000a0: 8aa8 41bc 53c6 f03d bfd6 d8bd 90d8 603d
000000b0: 9d86 c5bd 8c2a b1bb c836 073d 9960 b3bd
000000c0: fb5c c9bd 4721 65bc e315 6cbd a47e e83d
000000d0: e8f4 cdbd 82cd 49bb 5879 98bc 82b9 f53d
000000e0: 8355 dabd 0cbe 83bc a8ed ce3d d81e c3bd
000000f0: ad3c a0bd a7ac aabd 7166 bcbd 5fd1 bf3d
00000100: 6bd0 0e3d b079 dd3d 7917 13bd c0dc 33bc
00000110: 9dfa 87bc 3657 4d3d 0e92 a63d db01 6a3c
00000120: 658d 49bd 4b57 40bd 539f 9e3d 3882 c03d
00000130: b677 523d d7e1 043d 8eb3 c53d 85a1 1abd
00000140: 4976 5e3d 3100 d3bd b505 c03d 9b25 acbb
00000150: 785b e23d 925c ab3d 242d 62bd c5e7 4b3d
00000160: 811f e0bc 6aab 6e3b ae56 073d 5a66 873d
00000170: 149a b3bd 2d24 ff3d c8db c93d 0aa1 d0bd
00000180: f008 073d e902 89bd f624 efbd c68c 763d
00000190: 434b 8d3d a363 92bc 9d00 2e3d 9cb9 fc3d
000001a0: 20ef 1dbd a21b e8bc 36cf b2bd d08a 4cbc
000001b0: 3cb8 983d 81d5 de3c dd81 9b3d 672f fabc
000001c0: 7d32 b8bd f3d3 a2bd 0025 5a3c 1d25 4cbd
000001d0: b603 41bd 1f4c 85bd 4360 b93d 6982 d0bd
000001e0: 6024 a73c 3245 afbc 8f63 493d b3a1 c3bd
000001f0: 36e6 b33d 5241 913d aed5 e1bd 5868 9cbd
00000200: e0ac 3b3c bc92 a03d c029 533c 948e 52bd
00000210: e8b4 acbd 46fb d2bd e41b a1bd 0ae8 9bbd
00000220: 10a2 f53c 1071 94bd 5a5d fbbd e261 b03d
00000230: e4ca 693d d0ba 24bc 1c06 6a3d 38a8 8f3d
00000240: 7a44 8b3d 0cc3 2bbd 9689 a0bd 960d debd
00000250: 007a 94bd e895 febd 18eb 6dbd 9866 debd
00000260: 80ea fbba 1848 bfbd 40b0 6c3b 500e 713c
00000270: eeed ed3d 3223 cf3d b227 edbd f8f8 e13d
00000280: 0c77 30bd e813 f23d 98ac 8c3c 2c9e 1ebd
00000290: 5c2a 103d 9497 b23d d880 89bd ae68 bbbd
000002a0: 6885 f9bd c849 c43c 1068 44bc a483 84bd
000002b0: 3075 763d 0ca2 cbbd a035 383d 743a 66bd
000002c0: 0c14 4fbd 249a 5f3d 68bd 30bd 12a6 b7bd
000002d0: e80f 8e3c c0a3 9fbb 2040 79bc 006b f53c
000002e0: 8442 253d 78f5 ca3d 4691 eb3d 007d a5bd
000002f0: 24a6 ebbd dcdc 3a3d ca21 b63d 5cec b8bd
00000300: d802 3ebd 5e32 e6bd f69c 9ebd 429d ec3d
00000310: 80be e0bb 74d4 263d fef0 e4bd 12d4 94bd
00000320: 4283 ab3d 887d 083d 0824 0dbd 4440 763d
00000330: 00e0 16ba e8f6 51bd 5045 983c b8b7 f8bc
00000340: 3c8e 77bd e0f0 433c 6040 f33d 10ef 3f3d
00000350: c8fd 71bd a81e 533d 4c2c fc3d 9859 e03c
00000360: 3abd febd f8e4 83bc 04af 65bd 6a2e ba3d
00000370: 2041 49bc 5c48 3ebd 8c0b fabd faee 9cbd
00000380: d0f1 71bc 0a7f 993d 6072 69bc e0ca e3bc
00000390: a42f df3d 60b7 233c acad f03d c0cc 433b
000003a0: a858 74bd b68a e2bd d8f2 3abd 8c25 4b3d
000003b0: d803 c5bc ce46 e7bd dc08 9a3d 7834 c9bd
000003c0: c09b d03c 58c8 353d 10a9 0abd 90a7 5e3d
000003d0: 984f 1c3d 7443 fdbd 2cfa 253d a806 45bd
000003e0: 4032 183b 9e74 fdbd f680 be3d 4a9a 8d3d
000003f0: 2cff a2bd 1c64 5ebd 6486 bbbd 2041 b3bc
0.08452698 0.0071685896 -0.059948154 0.075810686 0.058393363 -0.069838315 0.122138806 0.037694912
0.11662895 0.037299197 -0.017990328 -0.070491366 -0.019159269 -0.102945775 -0.094653726 0.09861026
-0.0130184665 0.0051161963 -0.043368816 -0.09986336 -0.0024756938 -0.059341803 -0.0023847073 0.11930896
-0.0669646 -0.099136114 -0.123684876 0.08624184 -0.07379738 -0.036823776 -0.0951954 -0.0060848123
0.0014782997 0.08993351 -0.08695942 -0.06285302 -0.023511603 0.11646936 -0.05804003 -0.08444694
-0.011819968 0.11756577 -0.105878346 0.05489403 -0.09644816 -0.0054066833 0.033011228 -0.08758659
-0.09832188 -0.013984985 -0.05763806 0.1135228 -0.10056478 -0.0030792658 -0.018612549 0.119982734
-0.10660841 -0.016081832 0.10103923 -0.09527367 -0.07824073 -0.08333712 -0.09199227 0.09366106
0.03486673 0.10814226 -0.035911057 -0.010977924 -0.016598994 0.050132 0.081333265 0.014282669
-0.04920711 -0.04695825 0.077452324 0.09399837 0.051383696 0.03244194 0.09653388 -0.037751693
0.054312024 -0.10302771 0.093760885 -0.0052535064 0.110526025 0.08367266 -0.05521883 0.04978158
-0.027358772 0.0036418089 0.03304165 0.06611319 -0.087696224 0.12458072 0.09856373 -0.10186966
0.032967508 -0.06690008 -0.116769716 0.060192846 0.06899121 -0.017869776 0.042481054 0.1234009
-0.038558125 -0.028333489 -0.087309286 -0.012484267 0.07457015 0.027201416 0.07593129 -0.030540181
-0.08994005 -0.07950582 0.013314486 -0.04984008 -0.04712268 -0.065086596 0.090515636 -0.10181124
0.020403087 -0.0213953 0.049167212 -0.09552326 0.087841436 0.07092537 -0.11027084 -0.076370895
0.011454791 0.07840487 0.012888372 -0.051405504 -0.08432943 -0.10301833 -0.07866648 -0.07612617
0.029984504 -0.072481275 -0.12273665 0.0861242 0.057078257 -0.010054305 0.057134733 0.07014507
0.0680017 -0.041934058 -0.078387424 -0.10842435 -0.07249832 -0.12430936 -0.05808553 -0.10859412
-0.0019219667 -0.09339923 0.0036115795 0.014712885 0.11617647 0.10114135 -0.11579837 0.11033815
-0.043082282 0.11820203 0.017172143 -0.038725063 0.035196647 0.087203175 -0.06714028 -0.091508254
-0.12183648 0.023960963 -0.011987701 -0.06470421 0.060170352 -0.09943017 0.044973016 -0.05620809
-0.050556228 0.05459036 -0.043149382 -0.08967222 0.017341569 -0.0048718154 -0.0152130425 0.029958248
0.040346637 0.09910101 0.11502318 -0.080804825 -0.11506298 0.045620784 0.088931635 -0.09029457
-0.04638943 -0.112400755 -0.07744782 0.11553432 -0.006858647 0.040729955 -0.11178778 -0.07267012
0.08374645 0.03332284 -0.03445819 0.060119882 -0.00057554245 -0.05126086 0.018587738 -0.030361041
-0.06043838 0.011959285 0.11877513 0.046858847 -0.059079915 0.051542908 0.123131365 0.027386472
-0.12438436 -0.016100392 -0.05607511 0.09090884 -0.012283593 -0.046455726 -0.12209234 -0.07662769
-0.014767125 0.07494934 -0.0142484605 -0.0278067 0.108977586 0.0099924505 0.11751875 0.002987668
-0.05965486 -0.11061613 -0.04564175 0.049596354 -0.024049684 -0.11292802 0.07521221 -0.09824461
0.025464892 0.044380516 -0.033852637 0.05435902 0.038161844 -0.12366381 0.040521786 -0.04810205
0.002322331 -0.123757586 0.09301941 0.06914194 -0.079588264 -0.05429469 -0.09156492 -0.02188164

fc2.bias f4 [64]
00000000: bb39 923d ce6f ba3d d6d4 983d 284a c53d
00000010: bc32 74bd 73e1 863c 0069 0eba dc3b a7bd
00000020: 8eb0 c93d d1ba 593d 8d75 f43d 962c 4cbd
00000030: 6f23 d8bc a620 b5bd fdc9 8f3d 30cb 21bc
00000040: 43f7 e93d 1aa8 7f3c 4058 273b f44e d43d
00000050: f1b7 a13a 2b90 813c bdc1 c13d c821 4ebd
00000060: f65f d1ba 0f30 123d c7fa e8bd ee2b 6e3d
00000070: 11be b5bb b548 683d 3561 473d 4d8b df3d
00000080: 2fa4 a33d 7e5c 0bbd a01e 57bc c48b 5abd
00000090: 614d f7bd c004 41bc 0832 9dbc 0403 3c3d
000000a0: 6617 96bd 72f8 bbbd a19e a6bd d8a8 f9bd
000000b0: 08f3 80bd 1765 d33d 8704 f23d 7ba6 bdbd
000000c0: c6dd 17bd 628e 9ebd b702 a23d 382e 91bc
000000d0: c9f5 c63d 4a21 ed3d 4897 433d 4d9c 1e3d
000000e0: 820e 09bc 7e2c 8d3d 0468 81bd 69b1 bd3d
000000f0: cd94 e6bd 938f 45bd 006a 02bd 96c6 b2bd
0.071399175 0.09103356 0.0746247 0.09633285 -0.059618697 0.016464924 -0.00054325163 -0.08165714
0.09848128 0.053156678 0.119364835 -0.049847208 -0.026384084 -0.08844118 0.07020948 -0.009875104
0.114241146 0.015604043 0.0025534779 0.103666216 0.0012338144 0.015815815 0.09460781 -0.050325185
-0.0015974033 0.035690363 -0.11375957 0.058147363 -0.0055463393 0.056709964 0.04867669 0.109152414
0.079903 -0.034023754 -0.01312986 -0.053355947 -0.12075306 -0.011780918 -0.019188896 0.045901313
-0.07328682 -0.091782466 -0.08135725 -0.121904075 -0.062963545 0.10322016 0.1181727 -0.09260269
-0.037076734 -0.07742001 0.07910674 -0.017722234 0.097148485 0.11578615 0.047751695 0.03872328
-0.008365275 0.06893252 -0.063186675 0.09262354 -0.1125885 -0.048232626 -0.03183937 -0.087292835

fc3.weight f4 [6, 64]
00000000: 112a c8bd c240 80bd c810 ea3c ea1b cf3d
00000010: b8df ebbc 1345 c63d d034 48bc 43fa 02bd
00000020: 3093 21bd 6021 923d ac72 51bd 3352 103d
00000030: e84a 6a3d cd76 d6bd d557 f53d fcfd e4bd
00000040: e185 69bd 1bd4 9fbd 6cf2 68bd a01d d23c
00000050: 3075 debd a399 d63d 84a4 f13d c4dc c9bd
00000060: 964b 05bd ce4f 3d3d 282f 56bd 2e50 9fbd
00000070: aa2a 663d 8bd7 6e3d 494a 303c cb63 82bc
00000080: cf51 a0bc c6e2 f73d 4055 52bd c237 ffbd
00000090: e7d9 e2bd f0b4 59bc 68bc d53d 65d3 8a3b
000000a0: cef4 8c3d 5d02 fa3d 0e4e 80bd 4338 d53d
000000b0: baad a43d 8e2d ca3c 9c72 ac3b cb5c c63d
000000c0: 84e5 5fbd 2612 c2bd be38 8f3b a02c 513d
000000d0: 565b f0bc 0865 9f3d afa6 e93d 4ba3 ba3b
000000e0: 32cc dabd 2414 01bd 1cf0 da3d 840f 96bd
000000f0: fbac fe3d 1acb 783d 2815 dcbd 4217 b23d
00000100: 850f 4bbd 1236 36bd e8bc ba3d 780d d23d
00000110: ccb6 d73d a172 b83c f058 d83c f090 093d
00000120: ecd3 fe3d 84ac 263d dd2b fdbb b16e 3d3d
00000130: d4a3 d9bd 0c80 e03b 645d 843a 60d0 433d
00000140: f5ee ed3d c66f dbbc ea8e e83d 04db 6d3d
00000150: ec11 40bc 3a56 dc3d b8e8 9d3d 8165 82bc
00000160: 00aa 553d 49dd 8f3d d85b b13b 990b cb3d
00000170: adc0 cc3d d8ff 87bd 10ff 7c3d 0ad4 ee3d
00000180: e3e2 ba3d 8881 c63d a0fa 603c ca0e ccbd
00000190: 5e07 4e3d 9a6e b33d bc21 d4bd 9215 a63d
000001a0: 7e70 8e3d d4ee fdbc 8568 9e3d ee37 68bd
000001b0: a109 fd3c 81b7 ea3d 51a3 95bc d1c2 913d
000001c0: ffc9 a83b 1db8 ad3d d048 763d 8702 15bd
000001d0: a8c5 c93d 6731 ef3d 4c5d 8e3d f0c4 b43d
000001e0: 3ddb 0b3d f465 bc3d 7a6e b53d 3c0f f03d
000001f0: d4dc fdbd a4e9 9abd e01e d6bd 1e60 f63d
00000200: 05ec a6bd 064a c93d 4077 473b 40be 863c
00000210: 8468 3b3d 5cd0 b1bd 7206 be3d e5bd a8bd
00000220: d06a 4fbd 2319 1e3d 034a 7a3d ca47 b73d
00000230: 481d 913d 2c39 9fbd 1da0 143d 4ccb 623d
00000240: c215 17bd f665 d6bd 2c8a d23d 5098 bf3c
00000250: 5686 dabd 7244 943c b3a7 6f3c ecf6 5dbd
00000260: 0368 b63d 26bc dbbd 7a6b 39bd 4b4d 96bd
00000270: eb8a b6bd e178 c6bd 8dc0 87bd 45ec bc3c
00000280: c98b d0bd 6f3a 20bd 561d a8bd 2c8f 87bd
00000290: 25d5 8bbc 8cca 6c3d 9094 a63d b1ec d53d
000002a0: d4b2 5fbd f58c cfbd dbd2 fc3d 4f9c 6bbd
000002b0: 3780 133b 9cc7 df3c 8430 b63d 1c5a 95bd
000002c0: 55eb 3dbd 4c8e fe3c 3d4d 85bd 5fe8 843c
000002d0: f705 f3bc 0c37 dcbd f25a cf3d 015b 6d3d
000002e0: 860f f3bc 7078 82bd 90cf b2bd 0193 ee3d
000002f0: a308 77bc ddc6 97b9 6877 813c 707f 83bc
00000300: fce3 1abb 3d18 bbbd 607b bfbd 80a6 d63d
00000310: 3035 7bbc c4c1 3ebb 30e0 993d 6c41 323d
00000320: 9e94 b0bd 226a 093d a787 653d d1b3 de3d
00000330: 9f00 d7bd 1bd3 823d ee9e 62bc 8ccc 23bd
00000340: 55ff 13bc 74d4 dfbd 8ac2 ecbd 34fd 1b3d
00000350: 9859 a03c 729e 543d c4ba 0c3d 2f60 ae3d
00000360: 23f5 4d3d 9728 97bd de39 a03d 4f42 4a3d
00000370: c3a4 1d3c 987f bfbb 14bc 633d 8384 47bc
00000380: 7cc7 e83c ffc9 cfbc b080 35bd a0af f73c
00000390: 6c96 3a3c e897 f7bc 14bf 37bd fc1e 5dbd
000003a0: 2968 c7bd 8550 5b3d 5305 bebd 01a9 f7bc
000003b0: 5fba 1f3c 442d 353d ae14 0d3b 6abc 033d
000003c0: 0843 1ebd e42c 95bd 12d9 e7bd 8b6f 053d
000003d0: c2f4 ecbc 9aa3 a43d 2e27 94bd a361 f5bd
000003e0: d829 363a c01b e4bd a856 d83d d37e 293c
000003f0: c562 b03d e34c e83d ba7a cfbd 5caa c0bd
-0.097736485 -0.062623516 0.028572455 0.10112746 -0.0287932 0.096811436 -0.012219623 -0.03197695
-0.03944701 0.07135272 -0.05113475 0.03523464 0.057200342 -0.10471878 0.11979643 -0.11181256
-0.057012442 -0.07804128 -0.056871817 0.025648892 -0.108621955 0.10478523 0.11798957 -0.09856561
-0.032542787 0.046218686 -0.052291065 -0.07778965 0.05619303 0.058311027 0.010759898 -0.015916726
-0.01957026 0.121038005 -0.051350832 -0.12461807 -0.11076718 -0.013287768 0.10436326 0.004236626
0.0688263 0.12207482 -0.06264888 0.10411122 0.08040948 0.024679925 0.005262686 0.096856676
-0.054662243 -0.09476118 0.004370778 0.05106795 -0.029340427 0.07782942 0.114087455 0.0056957356
-0.106834784 -0.03151335 0.106903285 -0.07327178 0.12435337 0.060740568 -0.10746223 0.08695842
-0.049575347 -0.04448516 0.09118062 0.10256475 0.105329126 0.022515597 0.026409596 0.03358549
0.12442765 0.040691867 -0.007726176 0.04624814 -0.10626951 0.006851202 0.0010098633 0.047806144
0.11617843 -0.026786696 0.11355384 0.058070198 -0.011723023 0.10758634 0.07710403 -0.015917541
0.052164078 0.07024629 0.00541256 0.099143215 0.099976875 -0.06640595 0.061766684 0.11661537
0.091253065 0.09692675 0.013731629 -0.09963758 0.050299995 0.0876133 -0.10357997 0.08109583
0.0695505 -0.030997671 0.07734779 -0.056693964 0.03088838 0.11460782 -0.018266352 0.071172364
0.005151033 0.084823824 0.060128033 -0.036379363 0.09852153 0.116793446 0.06951389 0.08826625
0.03414463 0.091991335 0.08858962 0.11721656 -0.12395635 -0.07564095 -0.10455108 0.12030052
-0.08150486 0.09828572 0.0030436069 0.01644814 0.04575397 -0.086823195 0.09278573 -0.082393445
-0.050638974 0.03859819 0.06110574 0.089492396 0.07085663 -0.077745765 0.03628551 0.05536966
-0.036885984 -0.10468666 0.102802604 0.023388058 -0.10670154 0.018099044 0.014627385 -0.05419056
0.089065574 -0.10729246 -0.045268513 -0.07338961 -0.08913215 -0.096910246 -0.06628523 0.02306188
-0.10182912 -0.039118227 -0.082087204 -0.06619105 -0.017069409 0.05781035 0.08133805 0.10445536
-0.054613903 -0.10134307 0.12344905 -0.057522114 0.0022506842 0.02731686 0.08895972 -0.072925776
-0.04636701 0.031073712 -0.06508873 0.016224084 -0.02966593 -0.10752687 0.10124768 0.057948116
-0.029670488 -0.06370628 -0.08730996 0.116491325 -0.015077743 -0.0002894913 0.015804008 -0.016051978
-0.0023634424 -0.091354825 -0.09349704 0.10480976 -0.015332505 -0.0029107193 0.075134635 0.043519422
-0.086220965 0.03354848 0.05603757 0.10874141 -0.10498165 0.063879214 -0.013831837 -0.039989993
-0.009033044 -0.10929194 -0.11560543 0.03808327 0.019573972 0.051908918 0.0343578 0.08514439
0.05028261 -0.07380789 0.07823537 0.049379643 0.009621802 -0.005844068 0.055599287 -0.012177589
0.028415434 -0.025364874 -0.04431218 0.030235112 0.011388402 -0.030223802 -0.04485996 -0.053984627
-0.09736664 0.053543586 -0.09278359 -0.030231955 0.009749024 0.04423262 0.0021527219 0.032162108
-0.038638145 -0.07283953 -0.113207 0.03257708 -0.028925303 0.08039017 -0.072340354 -0.11981513
0.0006948984 -0.111381054 0.10563403 0.010345179 0.08612589 0.1134279 -0.1013083 -0.094074935

fc3.bias f4 [6]
00000000: 14cd f13d dcf8 ed3d 04c7 fb3d 103d ab3d
00000010: 1532 62bd 58e3 a3bd
0.11806694 0.11619732 0.122938186 0.08361256 -0.055223543 -0.08002347

fc1.weight f4 [64, 4]
00000000: 14d3 9bbe 2658 ab3e aaef aa3e 1050 82bd
00000010: 70d5 e63e 7025 7bbe 80c1 1c3d a460 af3e
00000020: 4aff c23e 8cc0 debe 30b4 803e 4077 a03c
00000030: 6411 5bbe e4e2 1d3e e434 023e 0cf1 793e
00000040: 6c38 cd3e 402b 0ebd 60bb c13e d4b2 e93e
00000050: f0a4 7b3d 40fb 323c 5044 a13d 9837 69be
00000060: 18a6 eb3e 8818 773e c083 36be 8a31 fe3e
00000070: c09e 213d e46b 463e b8f6 0c3e d2d5 b6be
00000080: 1403 9abe 0066 dcba 00fc 81ba 4008 c53d
00000090: 28e4 6a3e 441e 0f3e 40d0 53be 7292 fc3e
000000a0: 584d e0be 9268 d83e 8285 c63e e811 9bbe
000000b0: ead7 cd3e 90e9 b53d 0c5d 81be 1063 b33e
000000c0: e08e 3dbe d8b8 aebd 60cd e53c 76e5 c23e
000000d0: a82a d03e 087e 983e c0b7 c73c a4b9 ac3e
000000e0: 702a 9c3e 3cae 7e3e 9cff 94be 80ef 77be
000000f0: a4af 9abe fc11 b93e 40df 283d d0e3 fbbd
00000100: 8067 39bd dc88 c13e 20c3 ef3c b89c c9be
00000110: 440e 853e f096 7d3d 789c 39be 2830 263e
00000120: f6b7 ad3e d883 a83e 00dc cd3b 8086 8fbb
00000130: c091 773c 7292 c2be 4005 27bc 1c42 c23e
00000140: 8675 c9be c4c8 afbe 7052 503d 1840 e5be
00000150: 2071 9d3c aef5 bf3e 40b0 4bbe 60f7 a1bd
00000160: 844f 7fbe 70cf e8bd 4005 ed3d a2b9 f2be
00000170: 78d4 623e 8c1a 9f3e 0098 7ebb 900c 843e
00000180: 04da 8f3e 3a69 a1be 8ae0 d23e c0a6 5abc
00000190: a0d6 1f3d d053 69be 5481 59be 88bd 48be
000001a0: d050 323d e070 433d a8fe b83e a029 233d
000001b0: b4de d9be a051 73bd d858 bfbe ec8f 90be
000001c0: a02e 09bd fa4d ab3e be79 f3be b87b a93e
000001d0: a094 e8bd 0057 d7be 14b0 313e 3834 973d
000001e0: ec98 6fbe c059 45bd 5e39 a03e 7024 a7bd
000001f0: 564c f23e e235 e7be 707e 013e b2f7 d43e
00000200: 2ebf 9c3e 5cd4 2e3e c803 583e 1a9f 81be
00000210: 541f 1abe 3e3e e1be f4e4 973e 0413 c73e
00000220: 2c25 0fbe 106d 3abe a09b 8a3c e0f1 d2be
00000230: 7cc4 e53e 68b3 f53e 62c7 e93e 9833 fabd
00000240: 60ed 913e 7065 63be 2a9f bbbe 3859 83be
00000250: e055 01bd 04ff c63e 40ae 363e 4a5d e73e
00000260: 48d8 97bd ae76 a8be f075 f5bd bc17 c83e
00000270: 78a8 9f3e 48eb febe 1ab1 803e c0ab b13d
00000280: d44a 5c3e 2057 da3e 2267 cabe 92d7 cebe
00000290: dca2 b23e d0e3 83bd 0050 77be c883 983e
000002a0: f039 b0be 201f a93e 1c58 ebbe c002 79bd
000002b0: bab0 a5be 403f 50bc 6872 8abe f2e4 a5be
000002c0: f2b7 d23e 14ad 65be 68bf 363e a855 403e
000002d0: e89c 10be cef3 d03e 20f3 54bd 3a2d dc3e
000002e0: b0c2 ad3d 4483 72be a835 813e aa08 a7be
000002f0: 9078 2f3e e0bb fcbd 84c1 e03e 640c 773e
00000300: de9b bbbe 5c5b d3be 0014 d53b 9052 f53d
00000310: cce3 fcbe 2c0b 8dbe 1282 f7be dc28 f53e
00000320: c088 863e 3c8e 7abe 72e5 d7be ea9b c63e
00000330: 0093 b03c 30ae 15be e056 4d3e 109a c9be
00000340: 08f9 2a3e 82f3 a13e 127f a43e 38f9 e5bd
00000350: 507c 6f3e a064 7fbd febc a63e 0420 023e
00000360: d8d6 5d3e 8cc9 4fbe aa08 e3be dcfc 47be
00000370: 5e05 ae3e 0e45 98be 00c0 b139 44c8 993e
00000380: a449 513e 30d4 503e dc30 203e 2a8f 873e
00000390: 70df 893e 3887 e83e 4cf5 473e 9c73 65be
000003a0: a8eb 363e e2fa ae3e c078 3fbd 8aff d93e
000003b0: 60f6 733d 80e1 e23c d0b6 4f3d 72a0 b63e
000003c0: 2c16 7fbe 4832 f5bd d694 803e 40ca b83c
000003d0: 5003 943e f0fc 80be 4874 62be 30d4 10be
000003e0: 90c7 14be 4aff d23e 907b ca3e 802c ffbd
000003f0: bae8 a2be e8f5 333e 74a6 b0be c86c 7e3e
-0.30434477 0.3346569 0.33385974 -0.06362927 0.45084715 -0.24526 0.038270473 0.34253418
0.38085395 -0.43506277 0.25137472 0.019588113 -0.21393353 0.15418583 0.12715489 0.24408358
0.4008211 -0.034709215 0.37838268 0.45644248 0.061436594 0.0109241605 0.07874358 -0.22775114
0.46025157 0.24130452 -0.17823696 0.4964717 0.039458036 0.19377095 0.1376599 -0.35710007
-0.30080473 -0.0016815066 -0.0009917021 0.09620714 0.22938597 0.13976389 -0.2068491 0.4933048
-0.4380901 0.4226728 0.38773733 -0.302871 0.40203792 0.08882439 -0.25266302 0.35036516
-0.18511534 -0.0853135 0.028052032 0.3806569 0.40657544 0.29783654 0.024379611 0.33735383
0.30501127 0.24871153 -0.29101264 -0.24212456 -0.30212128 0.36146533 0.041228533 -0.12299311
-0.04526472 0.37799728 0.029267848 -0.3937738 0.25987446 0.061911523 -0.18126094 0.16229308
0.33929414 0.3291309 0.0062823296 -0.0043800473 0.015110433 -0.38002354 -0.010194123 0.37941062
-0.39347476 -0.3433286 0.05085987 -0.44775462 0.019218981 0.37492126 -0.19891453 -0.07908511
-0.24932677 -0.113676906 0.11573267 -0.47407252 0.22151363 0.3107494 -0.0038847923 0.25790834
0.2809602 -0.31525594 0.41186935 -0.01334542 0.03902304 -0.22785878 -0.21240741 -0.1960355
0.0435341 0.047715068 0.36131787 0.03983462 -0.42552722 -0.059404016 -0.3737247 -0.28234804
-0.03349173 0.3345793 -0.4755382 0.33102202 -0.11356473 -0.42058563 0.17352325 0.07383007
-0.23398179 -0.048181295 0.31293768 -0.08161247 0.47323865 -0.45158297 0.12645888 0.41595227
0.3061461 0.17073196 0.21095192 -0.25316697 -0.15051013 -0.439928 0.29666865 0.38881695
-0.13979024 -0.18205667 0.01691991 -0.4120016 0.44876468 0.4798844 0.4565993 -0.12216872
0.28501415 -0.22206664 -0.3664487 -0.25654006 -0.031576037 0.38866436 0.17839909 0.4518836
-0.07414299 -0.32903045 -0.119853854 0.39080608 0.3118322 -0.4978888 0.25135118 0.08675337
0.2151292 0.42644596 -0.3953181 -0.40398842 0.34889877 -0.06439936 -0.24151611 0.2978804
-0.34419203 0.3303156 -0.4596566 -0.06079364 -0.32361394 -0.0127103925 -0.2704041 -0.32401234
0.41155964 -0.22429305 0.17846453 0.18782675 -0.14122355 0.40811008 -0.051989675 0.43003255
0.08484399 -0.23682886 0.2523625 -0.32623798 0.17135835 -0.12340522 0.4389764 0.2412582
-0.36642355 -0.4128064 0.0065026283 0.11978638 -0.49392545 -0.27547586 -0.48341423 0.47882736
0.26276207 -0.2446832 -0.4216724 0.38790828 0.02155447 -0.14617229 0.20052671 -0.39375353
0.1669656 0.31631094 0.32128197 -0.11229175 0.23387265 -0.062351823 0.32566065 0.12707525
0.21663988 -0.20291728 -0.44342548 -0.19530052 0.3398847 -0.29740185 0.00033903122 0.30035603
0.20438248 0.20393443 0.15643638 0.26476413 0.26928282 0.45415664 0.19527167 -0.22407383
0.17863333 0.34175783 -0.046746016 0.42577773 0.059561133 0.027695417 0.050711453 0.35669285
-0.24910802 -0.11972481 0.25113553 0.022557378 0.28908777 -0.25192976 -0.2211467 -0.14143443
-0.14529252 0.41210395 0.39547396 -0.124596596 -0.3181818 0.17574275 -0.34501994 0.24846184

fc1.bias f4 [64]
00000000: c021 313c 427e d7be 90a7 ecbe 8a68 cabe
00000010: 947b d23e 103f c9bd 8e86 ff3e c43d 26be
00000020: 4857 113e ba8a a23e eab8 ddbe 4c30 8c3e
00000030: 1e6d ffbe 701e 053d e086 43bd f2b2 afbe
00000040: d217 aebe e01f d83d 14f2 95be 6c8d 54be
00000050: 308c 9c3d 988c 783e 987f 66be d855 373e
00000060: a05c 81bc 56fe bdbe 84c5 f83e 2a02 cfbe
00000070: 92b8 92be 0e16 c43e 7ae1 99be 00e2 65be
00000080: 50fb 623d c845 f83e c4d5 5d3e 4077 95bd
00000090: e08e a53d 7276 abbe e0b9 473e 703f edbe
000000a0: 42e8 bfbe 68b8 84be 1436 57be a045 28bd
000000b0: 80ad be3e 70b2 313e ac06 b2be 2867 a73d
000000c0: 30bc fbbd 7cf2 01be 2022 9c3e 6258 d93e
000000d0: 344a 1f3e 5036 b33d fcaa 6cbe 14f5 363e
000000e0: 8066 dd3c ac50 b0be 0068 4aba 84f9 003e
000000f0: 6e1a b43e 30f9 413e c25e e7be 3c98 2a3e
0.010811269 -0.42088515 -0.4622159 -0.39532882 0.41109908 -0.09826481 0.49907345 -0.16234499
0.14193451 0.31746465 -0.4330514 0.27380598 -0.49887937 0.03249973 -0.04773605 -0.34316212
-0.34002548 0.10552955 -0.29286253 -0.20757073 0.07643926 0.24272382 -0.2250961 0.1790384
-0.015791237 -0.37108105 0.48588192 -0.4043134 -0.2865644 0.38298076 -0.30054837 -0.22449493
0.05541545 0.4849074 0.21663576 -0.07298136 0.08083892 -0.33488804 0.195045 -0.4633746
-0.37481886 -0.2592194 -0.21016723 -0.041082025 0.37241745 0.17353225 -0.34770715 0.08173972
-0.12291753 -0.12690157 0.30494785 0.42450243 0.1555565 0.08750594 -0.231121 0.17866927
0.027026415 -0.34436548 -0.00077211857 0.12595183 0.35176414 0.18942714 -0.45189482 0.16659635

fc2.weight f4 [64, 64]
00000000: aaef ad3d c076 073c 984a 72bd 8e45 9d3d
00000010: 8ca7 733d 6407 8fbd 4466 fc3d 08f1 1a3d
00000020: 9690 f03d dc42 1d3d 002e 92bc 0815 8ebd
00000030: 90d3 94bc 8699 d0bd 0a65 c1bd 803e ca3d
00000040: 3031 53bc 0055 cc3b cc90 2ebd 4877 cabd
00000050: 403f 22bb 885f 71bd c048 1cbb 6e8b f63d
00000060: 8083 87bd e007 cbbd 9a3a fbbd 909f b03d
00000070: a216 95bd 2cae 13bd 4a7b c2bd 40bc a4bb
00000080: 00a2 f43a ca31 ba3d c817 b2bd 24b7 7ebd
00000090: 689b c0bc 9eab f03d 049f 69bd 8457 abbd
000000a0: b081 3fbc e412 f33d b697 d8bd 90d8 603d
000000b0: 4449 c3bd a00c 8fbb c836 073d 1638 b1bd
000000c0: b4d6 c7bd c0b5 56bc d8a4 67bd a47e e83d
000000d0: 24c2 ccbd 403f 04bb 5879 98bc acea f73d
000000e0: a61f d8bd e0f5 80bc 8e21 d13d 5ee8 c0bd
000000f0: fed3 9ebd 2ac9 a9bd 3acd bbbd 92b2 c13d
00000100: 801e 0e3d fe8d dc3d 84e8 14bd 709e 35bc
00000110: 1837 8bbc 24ce 4b3d 54d8 a53d 40d0 643c
00000120: 08a8 49bd 48c1 41bd a868 9e3d 70c3 bf3d
00000130: f852 523d 5470 033d 6200 c53d 481e 1bbd
00000140: 0051 5d3d 9cbe d3bd 9450 bf3d 808f aebb
00000150: 785b e23d 32c4 aa3d 242d 62bd 3486 4a3d
00000160: 0037 e4bc 0015 633b 68da 053d 5a66 873d
00000170: 3617 b4bd 50e2 fe3d 3ed5 c93d 20a4 d1bd
00000180: 5c8f 053d fe41 89bd f624 efbd f41e 753d
00000190: 8c6a 8c3d 10cd 94bc 6ce6 2d3d 8cdb fb3d
000001a0: c83c 1fbd c852 ebbc 701a b3bd d08a 4cbc
000001b0: 70d3 973d f0c2 dc3c f004 9b3d 78cc fdbc
000001c0: 043e b8bd 7e9f a2bd 80d5 543c 5c02 4dbd
000001d0: bc67 42bd ee23 86bd c49a b83d 1286 d1bd
000001e0: e847 a43c a803 b2bc 980a 483d 7461 c4bd
000001f0: 9892 b33d 5651 903d b663 e2bd 8070 9cbd
00000200: e0ac 3b3c bc92 a03d c029 533c 948e 52bd
00000210: e8b4 acbd 46fb d2bd e41b a1bd 0ae8 9bbd
00000220: 10a2 f53c 1071 94bd 5a5d fbbd e261 b03d
00000230: e4ca 693d d0ba 24bc 1c06 6a3d 38a8 8f3d
00000240: 7a44 8b3d 0cc3 2bbd 9689 a0bd 960d debd
00000250: 007a 94bd e895 febd 18eb 6dbd 9866 debd
00000260: 80ea fbba 1848 bfbd 40b0 6c3b 500e 713c
00000270: eeed ed3d 3223 cf3d b227 edbd f8f8 e13d
00000280: 0c77 30bd e813 f23d 98ac 8c3c 2c9e 1ebd
00000290: 5c2a 103d 9497 b23d d880 89bd ae68 bbbd
000002a0: 6885 f9bd c849 c43c 1068 44bc a483 84bd
000002b0: 3075 763d 0ca2 cbbd a035 383d 743a 66bd
000002c0: 0c14 4fbd 249a 5f3d 68bd 30bd 12a6 b7bd
000002d0: e80f 8e3c c0a3 9fbb 2040 79bc 006b f53c
000002e0: 8442 253d 78f5 ca3d 4691 eb3d 007d a5bd
000002f0: 24a6 ebbd dcdc 3a3d ca21 b63d 5cec b8bd
00000300: d802 3ebd 5e32 e6bd f69c 9ebd 429d ec3d
00000310: 80be e0bb 74d4 263d fef0 e4bd 12d4 94bd
00000320: 4283 ab3d 887d 083d 0824 0dbd 4440 763d
00000330: 00e0 16ba e8f6 51bd 5045 983c b8b7 f8bc
00000340: 3c8e 77bd e0f0 433c 6040 f33d 10ef 3f3d
00000350: c8fd 71bd a81e 533d 4c2c fc3d 9859 e03c
00000360: 3abd febd f8e4 83bc 04af 65bd 6a2e ba3d
00000370: 2041 49bc 5c48 3ebd 8c0b fabd faee 9cbd
00000380: d0f1 71bc 0a7f 993d 6072 69bc e0ca e3bc
00000390: a42f df3d 60b7 233c acad f03d c0cc 433b
000003a0: a858 74bd b68a e2bd d8f2 3abd 8c25 4b3d
000003b0: d803 c5bc ce46 e7bd dc08 9a3d 7834 c9bd
000003c0: c09b d03c 58c8 353d 10a9 0abd 90a7 5e3d
000003d0: 984f 1c3d 7443 fdbd 2cfa 253d a806 45bd
000003e0: 4032 183b 9e74 fdbd f680 be3d 4a9a 8d3d
000003f0: 2cff a2bd 1c64 5ebd 6486 bbbd 2041 b3bc
0.08492978 0.008268058 -0.05915317 0.07679282 0.059485957 -0.069838315 0.12324193 0.03782752
0.117463276 0.03839384 -0.0178442 -0.06937605 -0.018167287 -0.10185532 -0.094431 0.09875202
-0.012890145 0.0062357187 -0.042618558 -0.09886032 -0.0024756938 -0.058928996 -0.0023847073 0.12038313
-0.066168785 -0.099136114 -0.12267037 0.08624184 -0.072797075 -0.036054775 -0.09496172 -0.005027324
0.0018664002 0.09091528 -0.08695942 -0.062186375 -0.023511603 0.117514834 -0.057036415 -0.08366302
-0.011688635 0.118688375 -0.105758116 0.05489403 -0.09535459 -0.0043655187 0.033011228 -0.08653276
-0.09757748 -0.013104856 -0.05655369 0.1135228 -0.09997967 -0.0020179302 -0.018612549 0.12105307
-0.105529115 -0.015742242 0.10211478 -0.094193205 -0.07755278 -0.08290322 -0.09170003 0.09457888
0.034697056 0.1076927 -0.036354557 -0.011085138 -0.016994044 0.049757138 0.08097902 0.013965666
-0.049232513 -0.047303468 0.07734805 0.093634486 0.051348656 0.032089546 0.09619214 -0.037870675
0.054032326 -0.1033909 0.09341541 -0.005327165 0.110526025 0.083382025 -0.05521883 0.049444392
-0.027858257 0.0034649968 0.03267899 0.06611319 -0.0879349 0.124455094 0.09855126 -0.102363825
0.03260742 -0.0670204 -0.116769716 0.059843972 0.0685626 -0.018164188 0.042456076 0.122977346
-0.038876325 -0.028725997 -0.08745277 -0.012484267 0.074133754 0.026948422 0.07569301 -0.030981287
-0.089962035 -0.07940577 0.0129903555 -0.05005108 -0.04746221 -0.06549822 0.09013894 -0.1023065
0.020053819 -0.021730259 0.048838228 -0.095889 0.08768195 0.070467636 -0.110541746 -0.07638645
0.011454791 0.07840487 0.012888372 -0.051405504 -0.08432943 -0.10301833 -0.07866648 -0.07612617
0.029984504 -0.072481275 -0.12273665 0.0861242 0.057078257 -0.010054305 0.057134733 0.07014507
0.0680017 -0.041934058 -0.078387424 -0.10842435 -0.07249832 -0.12430936 -0.05808553 -0.10859412
-0.0019219667 -0.09339923 0.0036115795 0.014712885 0.11617647 0.10114135 -0.11579837 0.11033815
-0.043082282 0.11820203 0.017172143 -0.038725063 0.035196647 0.087203175 -0.06714028 -0.091508254
-0.12183648 0.023960963 -0.011987701 -0.06470421 0.060170352 -0.09943017 0.044973016 -0.05620809
-0.050556228 0.05459036 -0.043149382 -0.08967222 0.017341569 -0.0048718154 -0.0152130425 0.029958248
0.040346637 0.09910101 0.11502318 -0.080804825 -0.11506298 0.045620784 0.088931635 -0.09029457
-0.04638943 -0.112400755 -0.07744782 0.11553432 -0.006858647 0.040729955 -0.11178778 -0.07267012
0.08374645 0.03332284 -0.03445819 0.060119882 -0.00057554245 -0.05126086 0.018587738 -0.030361041
-0.06043838 0.011959285 0.11877513 0.046858847 -0.059079915 0.051542908 0.123131365 0.027386472
-0.12438436 -0.016100392 -0.05607511 0.09090884 -0.012283593 -0.046455726 -0.12209234 -0.07662769
-0.014767125 0.07494934 -0.0142484605 -0.0278067 0.108977586 0.0099924505 0.11751875 0.002987668
-0.05965486 -0.11061613 -0.04564175 0.049596354 -0.024049684 -0.11292802 0.07521221 -0.09824461
0.025464892 0.044380516 -0.033852637 0.05435902 0.038161844 -0.12366381 0.040521786 -0.04810205
0.002322331 -0.123757586 0.09301941 0.06914194 -0.079588264 -0.05429469 -0.09156492 -0.02188164

fc2.bias f4 [64]
00000000: fc7f 943d 70c0 b93d d6d4 983d 284a c53d
00000010: bc32 74bd 6818 853c 0069 0eba 9407 a7bd
00000020: 8eb0 c93d 70c3 563d d02b f53d 288f 4bbd
00000030: 1082 cdbc 08ce b1bd dcb8 933d 30cb 21bc
00000040: 00c5 e73d 200f 8f3c 4058 273b f44e d43d
00000050: 00c7 9a3a 38e6 8c3c 3608 be3d a844 51bd
00000060: 80d1 89bb 6c75 153d e082 e5bd 387b 723d
00000070: 408d acbb c877 653d 50af 433d 36ac e33d
00000080: 8465 a63d ac32 08bd a01e 57bc c48b 5abd
00000090: 16ba f8bd c004 41bc 0832 9dbc c040 373d
000000a0: 688f 93bd 56fb babd 3a5c a4bd ee30 f5bd
000000b0: 8819 7bbd 3a29 cf3d 1af5 ed3d ca8e bdbd
000000c0: 605a 10bd 9839 9dbd 5ca0 a53d 28ae 90bc
000000d0: 202d cb3d 6221 f13d f0ce 3e3d 006d 163d
000000e0: 704b 0fbc 7e2c 8d3d 0468 81bd b8f5 b93d
000000f0: be8c e9bd 44f6 4bbd 006a 02bd 96c6 b2bd
0.072509736 0.09069908 0.0746247 0.09633285 -0.059618697 0.01624699 -0.00054325163 -0.08155742
0.09848128 0.052432477 0.11971247 -0.04969707 -0.025086433 -0.086818755 0.072129935 -0.009875104
0.11316872 0.017463267 0.0025534779 0.103666216 0.0011808574 0.01719962 0.0927891 -0.051090866
-0.0042058825 0.036488935 -0.11206603 0.05919954 -0.0052658617 0.056022435 0.047774613 0.11116831
0.08124831 -0.03325145 -0.01312986 -0.053355947 -0.12144868 -0.011780918 -0.019188896 0.044739485
-0.07205087 -0.0912997 -0.08025403 -0.11972223 -0.061303645 0.10115285 0.11619015 -0.092557505
-0.03524244 -0.07677001 0.08087227 -0.01766117 0.09920716 0.117739454 0.04658407 0.036725044
-0.008746013 0.06893252 -0.063186675 0.0908007 -0.114037976 -0.049795404 -0.03183937 -0.087292835

fc3.weight f4 [6, 64]
00000000: 4a3d c9bd 10c5 7ebd c810 ea3c ea1b cf3d
00000010: b8df ebbc b81c c53d d034 48bc 58c4 05bd
00000020: 3093 21bd 9005 933d 88b3 56bd dcd1 0c3d
00000030: 2433 683d cadb d8bd 0a15 f63d fcfd e4bd
00000040: 482a 69bd 9cc5 a1bd 6cf2 68bd a01d d23c
00000050: 3ca6 ddbd 82fd d43d 2811 f23d f41a c9bd
00000060: 1028 02bd 2416 3d3d 8c12 5abd 0a57 9ebd
00000070: 886b 643d 2402 703d f0e1 1b3c a0a5 86bc
00000080: 5082 a7bc c833 f93d 4055 52bd c237 ffbd
00000090: e84f e4bd f0b4 59bc 68bc d53d c036 a93b
000000a0: 36a4 8d3d 285e f83d fe3c 82bd 300c d33d
000000b0: 76cd a23d 4851 cc3c 00ca b93b 1451 c53d
000000c0: 88e0 64bd 3826 c4bd e0c7 963b 9847 523d
000000d0: 4036 f8bc 3449 a03d 5496 e83d 20f4 c63b
000000e0: 8e77 dabd 2414 01bd 1cf0 da3d 2663 98bd
000000f0: fc23 ff3d 8411 7b3d 2815 dcbd 4217 b23d
00000100: 2809 48bd f43f 39bd e8bc ba3d 780d d23d
00000110: ccb6 d73d 489f bb3c f058 d83c 1074 0c3d
00000120: ecd3 fe3d 18ed 233d 0003 f3bb 3ca4 3f3d
00000130: 783d d9bd 6066 f43b 00cc 0e39 60d0 433d
00000140: 9898 eb3d 984c e3bc ea8e e83d 04db 6d3d
00000150: 5038 4bbc 30ef db3d fe50 9c3d 08c0 87bc
00000160: e070 563d 8292 8e3d 208a c83b 964d c93d
00000170: ecb5 cd3d 8013 8abd 34c6 7e3d e600 f03d
00000180: 629a bc3d 5e90 c73d a0fa 603c ca0e ccbd
00000190: 4497 513d 9a6e b33d bc21 d4bd e8a2 a53d
000001a0: c4e9 8c3d 3015 f2bc f869 9f3d c05c 65bd
000001b0: 44c2 003d 8e38 ea3d 80d0 9abc c460 933d
000001c0: 407a 873b f0ba ae3d bc65 723d 080b 18bd
000001d0: 5482 ca3d 141d ee3d 5cd1 8d3d 3031 b33d
000001e0: 0c2d 073d f465 bc3d 7a6e b53d 5a22 f13d
000001f0: 9af1 fdbd 8ac4 9cbd e01e d6bd 1e60 f63d
00000200: 680f a8bd 743b c53d 4077 473b 40be 863c
00000210: 8468 3b3d 143d b3bd 7206 be3d 76a6 acbd
00000220: d06a 4fbd 0cec 153d 700f 723d 6ade b43d
00000230: b4de 8e3d 16ca a2bd 7ce7 0c3d 4ccb 623d
00000240: d0dd 1ebd c614 d9bd 2c8a d23d 5098 bf3c
00000250: 2692 debd 984c 873c 509b 4e3c e842 66bd
00000260: 66db b03d 8e97 dfbd 0c9d 3ebd 9833 9abd
00000270: 021b b7bd f26a cabd 9e94 8abd f811 af3c
00000280: 20bb d2bd 8cd9 25bd 561d a8bd 2c8f 87bd
00000290: 8839 96bc 8cca 6c3d 9094 a63d 9453 d13d
000002a0: 28a9 67bd 2e70 d1bd 8e69 f93d 9c19 72bd
000002b0: 0002 853a a02f ce3c ca08 b23d d485 96bd
000002c0: 040d 44bd 78ee f23c 8419 89bd b095 693c
000002d0: 3801 00bd bcfe dfbd c6af cd3d 8053 633d
000002e0: fc48 01bd 7078 82bd 90cf b2bd 2605 eb3d
000002f0: d839 8dbc 804a 14bb 6877 813c 707f 83bc
00000300: 8089 3fbb 9035 bfbd 607b bfbd 80a6 d63d
00000310: 3035 7bbc 00e6 6fbb 30e0 993d 386c 2a3d
00000320: 9e94 b0bd 9c2a 013d 20bb 5d3d a299 dc3d
00000330: 444e d9bd 8060 7e3d 5037 81bc 8ccc 23bd
00000340: 20cd 34bc 389b e2bd 8ac2 ecbd 34fd 1b3d
00000350: 28de 8f3c ac7b 4e3d 1c43 043d 1831 aa3d
00000360: 045f 423d 08fd 9abd c0b4 9d3d 183f 423d
00000370: a0ee 193c 90c6 00bc ec25 5e3d 30f0 64bc
00000380: 002f e03c 60bf dbbc b080 35bd a0af f73c
00000390: 30af 243c e897 f7bc 14bf 37bd ac6d 66bd
000003a0: 6476 cbbd 545f 573d e865 c1bd 4cc7 01bd
000003b0: 300d 0e3c 4065 2c3d 0000 ad38 28c3 013d
000003c0: 2cca 24bd cae8 97bd 2cc8 ebbd 308f fa3c
000003d0: 683e fabc 36d9 a03d 2c56 95bd 1e74 fabd
000003e0: 80c3 adba c01b e4bd a856 d83d 2011 0f3c
000003f0: 96f7 ab3d 4228 e43d ba7a cfbd 5caa c0bd
-0.09826143 -0.062199652 0.028572455 0.10112746 -0.0287932 0.09624618 -0.012219623 -0.03265795
-0.03944701 0.07178795 -0.052417308 0.034379825 0.056689397 -0.105887964 0.12015732 -0.11181256
-0.05692509 -0.07899019 -0.056871817 0.025648892 -0.10822722 0.10399915 0.118196785 -0.09819594
-0.031776488 0.046163693 -0.053240344 -0.07731445 0.055766612 0.05859579 0.009514317 -0.016436398
-0.02044788 0.121680796 -0.051350832 -0.12461807 -0.111480534 -0.013287768 0.10436326 0.0051639974
0.069160864 0.12127334 -0.063592896 0.10305059 0.07949345 0.024941102 0.005669832 0.09634605
-0.055878192 -0.09577602 0.0046014637 0.05133781 -0.030299306 0.078264624 0.11356798 0.0060715824
-0.106673345 -0.03151335 0.106903285 -0.07440786 0.12458035 0.061296 -0.10746223 0.08695842
-0.048836857 -0.045227006 0.09118062 0.10256475 0.105329126 0.0229031 0.026409596 0.034290373
0.12442765 0.040021032 -0.007416129 0.046787485 -0.10607427 0.007458493 0.00013618171 0.047806144
0.11503714 -0.027746484 0.11355384 0.058070198 -0.012403563 0.10738981 0.076326355 -0.01657106
0.05235374 0.06961538 0.0061199814 0.098292515 0.100444645 -0.067420006 0.06220074 0.11718921
0.09209134 0.09744333 0.013731629 -0.09963758 0.05116965 0.0876133 -0.10357997 0.080877125
0.06880525 -0.029551119 0.07783884 -0.055996656 0.031435266 0.11436568 -0.018898249 0.07196191
0.0041344464 0.08531749 0.059179053 -0.037119895 0.09888139 0.1162664 0.06924698 0.08749616
0.033001944 0.091991335 0.08858962 0.1177413 -0.123995975 -0.07654674 -0.10455108 0.12030052
-0.082060635 0.096304804 0.0030436069 0.01644814 0.04575397 -0.08751884 0.09278573 -0.084301874
-0.050638974 0.036602065 0.059096754 0.088314846 0.06976071 -0.07948701 0.03440045 0.05536966
-0.038785756 -0.10599665 0.102802604 0.023388058 -0.10867719 0.016516015 0.012610272 -0.05621615
0.08635597 -0.10917579 -0.04653649 -0.07529372 -0.08940698 -0.098836794 -0.06766628 0.021370873
-0.102895975 -0.040490672 -0.082087204 -0.06619105 -0.01833798 0.05781035 0.08133805 0.102210194
-0.056557804 -0.10226475 0.12178336 -0.059106454 0.0010147691 0.025169194 0.08693083 -0.073497444
-0.047863975 0.029654726 -0.0669432 0.01425688 -0.031251162 -0.109372586 0.10043292 0.055499554
-0.031563744 -0.06370628 -0.08730996 0.11475591 -0.017239496 -0.0022627413 0.015804008 -0.016051978
-0.0029226243 -0.09336388 -0.09349704 0.10480976 -0.015332505 -0.0036605597 0.075134635 0.04160711
-0.086220965 0.031534776 0.054133534 0.10771491 -0.10610631 0.06210375 -0.015773445 -0.039989993
-0.011035234 -0.11064762 -0.11560543 0.03808327 0.017561987 0.05041091 0.032290563 0.08310145
0.047453895 -0.07567793 0.07700491 0.047423452 0.009395272 -0.007859841 0.054235384 -0.013973281
0.027366161 -0.026824653 -0.04431218 0.030235112 0.010051534 -0.030223802 -0.04485996 -0.056256935
-0.099346906 0.052581146 -0.09443265 -0.031684205 0.008670136 0.042088747 8.249283e-05 0.031680256
-0.04023187 -0.07417448 -0.11512789 0.030585855 -0.030547336 0.0785393 -0.072918266 -0.12229179
-0.0013257116 -0.111381054 0.10563403 0.00873211 0.08396833 0.11140491 -0.1013083 -0.094074935

fc3.bias f4 [6]
00000000: 6405 f13d 162b ec3d c8aa f73d a20a a73d
00000010: d4e6 6abd 5e2c a8bd
0.11768606 0.115316555 0.12093121 0.08156325 -0.05734904 -0.08211587
