saved_models/dqn_best_model_episode_629.pt (torch, 87339 bytes, 24 tensors)

fc1.weight f4 [64, 4]
00000000: f78b 8a3e f001 b03d 5c86 9fbe 2fd9 6dbe
00000010: afc5 c2be 261f 413e 202d 51be 7a98 f1be
00000020: 964e a83e 63f2 b23e 5557 a43e 4407 803e
00000030: 7d48 a83e 9d14 c4be 5de4 ad3c 2387 293e
00000040: 4047 f7bc fcce 90be b083 babd 6239 90be
00000050: e8b1 e5be 215d 1b3e a626 953e 9b0f c53e
00000060: 5a79 4bbe 7f3f 833e 88dd a3be 8afe 06bd
00000070: 55c1 8a3e c670 af3e 6b17 59be 1301 b53e
00000080: d76c c93e 56e5 f4be 979c 993e 9b7d 1ebd
00000090: 8400 233e d51a 963e 82ae 2b3d 6c03 dbbd
000000a0: 8eea fbbe 1537 67be 14ad b1be d5be 233e
000000b0: fa26 9cbe c0d6 75bd 6034 52be 48b7 8bbd
000000c0: 9166 8a3d ca1a fdbe 4144 c93e a452 193e
000000d0: eda3 c83e 03c0 55be c612 afbd f157 7ebe
000000e0: 8cb9 b93e 9e3f 983d d04c 13be 84c4 dd3e
000000f0: dc0f e5be cfed 553e c386 1d3e d73e cdbd
00000100: 9572 a43d 32e3 123e c883 72bd 76e7 bebd
00000110: 8fa9 a93e 8b0f fdbd aa31 dcbe a53c 0ebe
00000120: d9e2 93be b78f d33e 8489 abbd 8564 6bbd
00000130: 338e e33e 30b9 babe 3764 ef3e 8fea 18bd
00000140: cd2e f93d 368b 7bbe 6186 f6be e6aa 92be
00000150: 4d77 aa3e ff69 823e 56e7 dabe fc5d dfbd
00000160: 414e c9be 4c01 333e 8305 c03d 746b b2bd
00000170: e074 afbe 13d5 833e 1fd2 08be 3aa7 6bbe
00000180: 312b a33e 5702 d63d 35f0 083e b34e b63e
00000190: 0cbe 4abd 8d6a fa3e 1505 3cbe a549 91be
000001a0: c461 423e 627b 86be f35e b73d efed 45bd
000001b0: 28da 70bc f3fb f6be 1f21 a8bd fbd3 723e
000001c0: 10c0 533e fd1d 70bd 3050 53be d172 903d
000001d0: 1c3c 11be 3a12 bb3c c07f 0dbe 74e0 a8be
000001e0: 6ea9 8e3e 551f 343b 08b9 fd3e 3208 ecbe
000001f0: e867 bcbe 8f5d c03e 30ed 823e 4519 9abd
00000200: eb00 72be e26a 01bd 66d4 20bd 3d20 183e
00000210: 0bcf 99bd 1482 f0bd bda3 063e 1692 3e3d
00000220: d379 503e 3ade ccbe 379d 98be 0c99 82be
00000230: be77 fcbe 8e3f c63e 8bf8 8b3d 1b9d e93e
00000240: 06d0 a2be 1073 fbbd f3d7 9c3e 30cc f1bd
00000250: 187c 9c3e ea16 afbe 9664 d4be 232c e33d
00000260: 8f2f fb3e 1011 ccbe 29e2 c7be 11f5 aabe
00000270: b228 933e 94ff c03e 8b5b 36bd 559a d03e
00000280: dd01 cc3d 19e9 9abe cbc9 c13e 8767 ac3e
00000290: 868e e53c ec71 03be ba36 3ebe 9fca c73e
000002a0: 1aa7 62be d562 0c3d 67cd 79be 4b07 ed3e
000002b0: bcf3 61be 0b4d 19be 90bf c83d f40e b6be
000002c0: 7bc1 8f3d 220f fdbe 3ee1 30be 0167 d2be
000002d0: 309c 7cbe aa59 ef3e 217e 8cbe a1e9 60be
000002e0: acab b93e e2c8 4e3e 1f84 3cbd 4dac 193c
000002f0: 0d91 e73e 45e7 c93e 2f5f a33e fed7 913e
00000300: e054 183e 8617 d0be 78cc e9be 702f 67be
00000310: 8c88 6fbe 408e 0fbd c1a6 83bd 01d1 8d3e
00000320: 65dd a63e d1a7 603c 4bd9 d3bd 2b0d 43bd
00000330: 5a8d 263e ee96 a33e bda7 c6be 8b0d cf3e
00000340: 80c7 933e 2394 e5be d72a d7be 1106 e0be
00000350: d611 f7be 863c 89be 00a7 30bd c8b4 9ebe
00000360: 9865 14be a021 87bc c748 d93e dddd f4be
00000370: 87a8 f63e 1027 1c3c 94e6 a23e 32cf aebe
00000380: 684b bebe 0d8a 623e 02e3 1abe 66b4 a1be
00000390: 96a1 5b3e 7c26 fcbe c61d 8c3d 7c5c e8be
000003a0: baf7 1c3e a86c da3e 13ae e93d d9dd cc3e
000003b0: 1b4b 173e e3a9 a73c 93ad aa3d 31b3 b23e
000003c0: 58e5 d03e 8fb3 a73d 6dc4 d83e 30cd 813e
000003d0: b45c c0be d378 5cbe fa73 e3be 0785 a33b
000003e0: 203f 31be 0c3f 37be 70ef 4fbd 7e26 a5be
000003f0: 9019 0abe e39a 833e e033 4ebd 8514 f63d
0.2705991 0.085941195 -0.31157196 -0.2322738 -0.38041446 0.18859538 -0.2042737 -0.47186643
0.32872456 0.3495055 0.3209788 0.25005543 0.32867804 -0.38296977 0.021227056 0.16555457
-0.030185342 -0.28282917 -0.09107149 -0.2816878 -0.44862294 0.15172245 0.2913105 0.3848847
-0.1987051 0.2563438 -0.32004952 -0.03295759 0.27100626 0.34265727 -0.2120034 0.35352382
0.3934085 -0.4783122 0.3000228 -0.038694005 0.15918165 0.29317346 0.04191447 -0.10694012
-0.4920239 -0.22579606 -0.3470236 0.15990765 -0.30498487 -0.060019255 -0.20527792 -0.068220675
0.06757844 -0.494345 0.39309886 0.14972931 0.39187565 -0.20874028 -0.085485026 -0.24838234
0.36274374 0.07434009 -0.1438477 0.43313992 -0.44738662 0.20891498 0.15383439 -0.100217514
0.08029667 0.1434448 -0.059207708 -0.093214914 0.33137175 -0.1235648 -0.4300664 -0.13890322
-0.2888401 0.41320583 -0.083758384 -0.05746891 0.44444427 -0.36469412 0.46756145 -0.037333068
0.1216713 -0.24564824 -0.48149398 -0.2864601 0.33294144 0.25471494 -0.4275462 -0.10906598
-0.39317515 0.17480963 0.09376051 -0.08711901 -0.34268856 0.257485 -0.13361405 -0.2301301
0.3186889 0.10449665 0.13372882 0.35606918 -0.04949765 0.48909417 -0.18361314 -0.283765
0.18982607 -0.2626601 0.08953657 -0.048322614 -0.01470045 -0.48239097 -0.08209442 0.23713677
0.20678735 -0.05862235 -0.20636058 0.070531495 -0.14183086 0.02283584 -0.13818264 -0.32983744
0.2786364 0.0027484496 0.4955523 -0.46100003 -0.36798024 0.3757138 0.25571585 -0.07524351
-0.23633163 -0.031596072 -0.03926506 0.14856048 -0.075101934 -0.117435604 0.13148399 0.046526037
0.20358972 -0.40013295 -0.29807445 -0.2550739 -0.49310106 0.38720363 0.06834515 0.45627674
-0.31799334 -0.12277806 0.30633506 -0.11806524 0.30563426 -0.3419717 -0.4148299 0.11092403
0.49059722 -0.39856768 -0.39039734 -0.33390096 0.28741986 0.3769499 -0.044520896 0.40742746
0.09961293 -0.30255964 0.37849268 0.33672735 0.028022062 -0.12836426 -0.18575564 0.39021775
-0.22134057 0.03427394 -0.24394761 0.46294627 -0.22065634 -0.14970796 0.09802163 -0.35558283
0.07019325 -0.49425608 -0.17273423 -0.4109421 -0.24668956 0.46748096 -0.2743998 -0.21964122
0.36263788 0.20193818 -0.046024438 0.009379459 0.45227852 0.39434257 0.31908557 0.284851
0.14876127 -0.40642947 -0.4566381 -0.2257669 -0.23391932 -0.03504777 -0.0642829 0.2769852
0.32590786 0.013711886 -0.1034418 -0.04761998 0.16264859 0.31951088 -0.3879985 0.4044002
0.28863144 -0.44839582 -0.42024872 -0.43754628 -0.48255795 -0.26803988 -0.043128014 -0.309973
-0.1449188 -0.016495526 0.42438337 -0.47825518 0.4817545 0.009530798 0.31816542 -0.34142452
-0.37166905 0.22122975 -0.15125659 -0.31582946 0.21448359 -0.4924811 0.06841616 -0.4538306
0.15328875 0.42661023 0.11410155 0.40013006 0.14774744 0.02046675 0.08333888 0.34902337
0.40799975 0.08188545 0.4233736 0.25351858 -0.37570727 -0.21530466 -0.4442442 0.0049902233
-0.17309237 -0.17895144 -0.050765455 -0.3225593 -0.13486314 0.25704107 -0.05034244 0.120156325

fc1.bias f4 [64]
00000000: c659 983d 7a5c 2b3e 9329 edbe 33b2 c23e
00000010: 5c5b 6b3e e934 1bbd 11c0 51be 4b34 5f3e
00000020: b9dc b53e 6f1d eebd 32d1 dcbe f818 94be
00000030: 4ce0 edbe 45f9 033e d2a4 49be f758 c8be
00000040: ee1d 493e 263f 25be 4d45 e93d 5a58 b83e
00000050: dcc5 a73b 2199 f13e bfca 05be 0a1a 1f3e
00000060: c712 d2be 5003 a9be 00f8 483e dc8f 9f3e
00000070: 0167 f3be 3287 d03e 1613 4abe e153 d93e
00000080: 1b12 bf3e 847b 553d a3bc d2be 507c 133e
00000090: 9464 a4be 5ddc 883e 5f8c d4be b40c b13e
000000a0: 618c 3b3d 8841 c8be 9464 ff3e 157e bc3e
000000b0: f21b 7fbd 64b9 c5be 8732 583e 755c ba3e
000000c0: a293 1f3e 3fb3 08bd 372b d53e c519 55be
000000d0: 980f a33e 14d0 40be 682e cd3e ded1 eabd
000000e0: 4f29 91be e655 1e3d 5372 5ebe b404 d7be
000000f0: 38c1 ac3e 5b33 a93e abba ec3e daee b6be
0.07438998 0.16734496 -0.4632078 0.3802658 0.2298407 -0.037892256 -0.20483424 0.21797292
0.3551996 -0.11626708 -0.43128353 -0.289253 -0.46460187 0.12888058 -0.1969178 -0.39130375
0.19640324 -0.1613737 0.11390171 0.36004907 0.005120022 0.4718714 -0.13065623 0.15537277
-0.4102995 -0.3301034 0.19625854 0.31164443 -0.47539523 0.40728146 -0.19733843 0.42446807
0.373185 0.052119747 -0.41159543 0.1440289 -0.32107985 0.26730624 -0.41513345 0.34580004
0.045788173 -0.39112496 0.49881423 0.36814943 -0.06228251 -0.38618004 0.21113025 0.36398664
0.15583661 -0.033374067 0.41634533 -0.20810612 0.31847835 -0.18829376 0.40074468 -0.1146581
-0.28351828 0.038656138 -0.21723299 -0.41995776 0.33741164 0.33046994 0.46236166 -0.35729104

fc2.weight f4 [64, 64]
00000000: 9076 03bd 80b3 593c 3c98 04bd f87e 57bd
00000010: f0e7 1a3d 1409 21bd 70d8 463c 8c1e 36bd
00000020: dc8f 59bd dc02 c4bd 5829 d4bc 92a6 aabd
00000030: 2639 c5bd 6a4a 9a3d 6471 a53d ac60 593d
00000040: 4c49 9ebd f0f8 2abd 88a8 fcbc caaa 843d
00000050: ac3c 0b3d 90fe cbbd f428 263d f0f2 c93c
00000060: 1cd4 aebd 761f d23d a073 7b3c 9053 563c
00000070: 401d a0bc 0645 ba3d 3ab9 a1bd 005d 0cbc
00000080: 7805 7abd ced6 c73d c429 a5bd 0048 b9bd
00000090: 40c4 ca3b e0fd 12bd 00d4 d7b9 e8dc 85bd
000000a0: f0f0 413c f038 e5bc 1884 ce3c 402e e5bd
000000b0: 8082 59bb 32be a9bd 5210 bcbd 5007 6fbc
000000c0: 8801 ad3c c2fc 9ebd 30e6 52bc 52e8 f5bd
000000d0: ac46 de3d 1836 1fbd e051 14bd 3e44 9f3d
000000e0: 7eeb d9bd 2ca1 f8bd 90b9 cbbc f855 e53c
000000f0: 4483 a43d 641f c7bd 4a2f 85bd 0060 7abd
00000100: bace b73d f244 fabd 8e2c 9ebd 6c3f 23bd
00000110: 6c3c c6bd c808 663d 9ec1 a2bd 6a8e 843d
00000120: 50e5 8b3d ae0f b03d b054 113c ac17 d5bd
00000130: 80e1 2b3d 28d0 d8bd a2e8 cc3d 3cb7 d23d
00000140: 2a78 e0bd 9cfb 57bd c436 acbd 40f0 473d
00000150: 50dd 1cbd f0a9 4e3d 1c70 2fbd 567f a73d
00000160: 9417 dabd 3cd8 b1bd 4042 e0bc a0af f2bb
00000170: a048 753c 8cca b9bd 6e35 e53d b200 9c3d
00000180: e43d e1bd c058 663b 10d9 f83c 9e9e acbd
00000190: e014 d4bd c024 b8bc f81c eebc 0854 24bd
000001a0: 9859 193d 807c 9ebd f2be b3bd 50c9 67bc
000001b0: 68b2 f33c 2291 a8bd c284 8ebd 7ed7 9ebd
000001c0: c81f 88bd dace f93d f88c e6bc d08a 9f3c
000001d0: d0b2 4d3c 88ee a53d 0afa aabd b450 8bbd
000001e0: 20c5 8d3c 72be ac3d 4e07 febd 000c 4f39
000001f0: ac01 1dbd 10bf e43c 68be 9a3c 90b2 553d
00000200: 069c f63d d1e6 923d 94bf b13d db26 18bd
00000210: 30d1 1a3c b527 da3d 31ca b4bd 8380 a3bc
00000220: ef17 ae3c 3330 b33c b9d6 c03c 6835 d3bd
00000230: 6825 e3bd f243 8fbd 9a07 98bd c03c 7bbc
00000240: 9791 5e3c 8c13 98bd 356d 9abd 38ba 43bd
00000250: c00c 36bc ad62 cebd 4d1f 743c a9fd 51bc
00000260: 7c67 ad3d 71d1 f83d 07bc b4bd 2992 5a3d
00000270: 53a9 fbbd 09d7 463d 160a e13c b687 ac3c
00000280: ff68 babd 2e19 89bc e87d 8a3d 30e6 84bd
00000290: 8524 51bc 6c36 633d b36c c03d 91c6 a53b
000002a0: 7ddf a83c 40d3 d63d 2d3b f53c bd33 4bbd
000002b0: b404 fe3d 4886 e0bb 2c19 b93d 45a7 04bd
000002c0: d08c d4bd 9a57 b53d 1730 e93c d6c6 c3bd
000002d0: 26fc 85bd e04f a2bc 3475 a63d fc13 c3bd
000002e0: c508 f03d e4fc 973d 72fd ca3c 8637 fabd
000002f0: 1f8b d2bc 4f84 7ebd f290 d63d 7db0 a1bc
00000300: fed5 a1bd 1cda b83d 3b00 e2bd 39eb 763d
00000310: 3ccc 323d 7f78 b43d 82e6 c63d 3fc5 483d
00000320: e0d2 31bc a76f a43c 917a e13c 0897 aa3c
00000330: a17a 083d 2bad c33d 166e bdbd 3a6c b93b
00000340: 03d9 6a3d 674c f7bd 5f46 d1bd d46b ad3c
00000350: 7a9d fdbc b113 e9bd 4a35 b63d 9774 103c
00000360: 6cea c63b 0acc c33d 15c4 623d 71cb 9f3d
00000370: 0b28 fcbd 4bea 953d fe7d 5b3d 3eca e9bc
00000380: a9d2 31bd 78ec 00be 4b32 39bd 1c88 58bd
00000390: 7e20 90bc b079 053d 7308 ffbd 1629 abbb
000003a0: b4b2 9abd ad7a 7ebd 3e73 0a3d 52f1 e5bd
000003b0: 7bf8 413d f7c5 e3bd 0894 fcbd c175 8b3d
000003c0: 342f 23bd 696e ae3d 13aa 7e3c de42 9fbd
000003d0: 91a7 b23c 9666 f83d 6cb3 c53d 9ad4 a93d
000003e0: fb96 ed3b 5b8e 8cbd 05e7 a9bb 1e1d 70bc
000003f0: 658a 9a3d fcc5 743c 8252 983d cf4c fbbd
-0.032095492 0.013287425 -0.032371745 -0.05261132 0.03781885 -0.0393153 0.012136564 -0.044462726
-0.05311571 -0.09570858 -0.02589862 -0.08332552 -0.09630041 0.075337246 0.08078268 0.05307071
-0.07728824 -0.04174131 -0.03084208 0.06477888 0.033993408 -0.09960663 0.0405664 0.024651974
-0.085365504 0.10259907 0.015347391 0.013081446 -0.019545197 0.090951964 -0.07896657 -0.008567095
-0.06104037 0.097577676 -0.08064607 -0.09046936 0.0061879456 -0.035886645 -0.00041165948 -0.06536275
0.011837229 -0.027981251 0.025209472 -0.11190462 -0.0033189356 -0.0828823 -0.091828 -0.014589146
0.021118894 -0.077630535 -0.012872264 -0.12007202 0.10853323 -0.038869947 -0.036210895 0.07776688
-0.1064062 -0.12140116 -0.024868757 0.027995095 0.080328494 -0.09722784 -0.0650316 -0.06112671
0.08974977 -0.122201815 -0.07723342 -0.039855406 -0.09679493 0.05616072 -0.07947086 0.06472476
0.06830847 0.08596741 0.008870289 -0.10404906 0.0419631 -0.10586578 0.10005309 0.102888554
-0.109604195 -0.052730188 -0.08408883 0.048813105 -0.038296998 0.050455034 -0.042831525 0.08178584
-0.106490284 -0.086838216 -0.02737534 -0.00740619 0.014970928 -0.09071836 0.111918315 0.0761732
-0.10998133 0.0035148114 0.030376941 -0.08428691 -0.10355544 -0.022478461 -0.029066548 -0.0401192
0.03743896 -0.0773859 -0.08776654 -0.014147118 0.029748157 -0.08230807 -0.06958915 -0.077559456
-0.06646687 0.12197657 -0.028143391 0.01947537 0.012554839 0.08102137 -0.083484724 -0.06802502
0.01730591 0.08434762 -0.12403737 0.00019745529 -0.038331673 0.027923137 0.01888962 0.052172244
0.12041478 0.07172931 0.08679119 -0.03714643 0.009449288 0.10652105 -0.088276275 -0.01995874
0.021251647 0.02187357 0.023539888 -0.10312921 -0.11091119 -0.069953814 -0.07423325 -0.015334308
0.013584516 -0.07425603 -0.07540361 -0.047785014 -0.011111438 -0.10077415 0.014900041 -0.012816825
0.08467004 0.12149323 -0.08824926 0.053362045 -0.122881554 0.048544917 0.02747063 0.021060806
-0.09102058 -0.01673564 0.06762296 -0.06489217 -0.012765055 0.055471823 0.09395733 0.0050590714
0.02061438 0.104895115 0.029935444 -0.04960989 0.12403241 -0.006851945 0.09038004 -0.032386083
-0.1037842 0.08854599 0.028465314 -0.09559409 -0.06542234 -0.019813478 0.081278235 -0.09525296
0.11720423 0.07421282 0.024779055 -0.122176215 -0.025701104 -0.062137898 0.10476865 -0.019737476
-0.07902144 0.09025976 -0.110352 0.06028292 0.043651804 0.08812045 0.097119346 0.049016234
-0.010853499 0.020072771 0.027524265 0.02082397 0.033320073 0.095545135 -0.09249513 0.0056586536
0.057335865 -0.120751195 -0.102185 0.02116958 -0.03095888 -0.11380709 0.08896883 0.00881686
0.0060704257 0.09560402 0.05536278 0.07802475 -0.12312325 0.073200785 0.053586952 -0.02853882
-0.04341379 -0.12590206 -0.04521398 -0.05286418 -0.017593618 0.032586753 -0.124527834 -0.0052234037
-0.07553616 -0.06212871 0.03380131 -0.11227669 0.04735611 -0.11121743 -0.12332922 0.06809569
-0.03983994 0.08517153 0.015543479 -0.07776426 0.021808418 0.12128942 0.09653363 0.08292504
0.0072506643 -0.0686309 -0.0051850104 -0.01465538 0.07545928 0.014939781 0.07437612 -0.122705095

fc2.bias f4 [64]
00000000: a02b 77bc 84a9 5bbd 42c9 dc3d d3c4 ed3d
00000010: 1910 153c 5eb5 893c ba26 de3d 6e3e 84bb
00000020: 2990 a0bc 9462 e33d 913d e2bd 9a99 63bd
00000030: f463 683d f66b 3b3c e454 f23d 2d6c 8b3d
00000040: d8f0 863c 1a1f c33d f861 a1bc 7090 3d3c
00000050: 9efa be3d c967 35bd 0af4 803d 04d5 ec3d
00000060: 6a5e 8e3d f350 a9bd a0a3 8e3c a0ab 9fbd
00000070: 55a2 0e3d f944 66bd 6503 dd3b 6467 33bd
00000080: 501f d1bd 016c a63d a60c 94bd e5db 163c
00000090: 721d 9c3d 212e b03d 63ab 743c 9c61 4a3d
000000a0: 43d4 aebd dc8d 6d3d 6010 ccbb 50d2 99bd
000000b0: 78cb 0bbd 4a8b b8bd a3c8 6f3c b270 1f3d
000000c0: 19bd 193c a0dc b5bc 0ba7 f43d 623e ebbd
000000d0: b034 27bd 8677 633d daf8 393d 0196 aa3c
000000e0: b823 f0bd 505b f6bc 05d4 01bd 304b d4bc
000000f0: bcab e7bd cea5 6f3d 27d2 003e 60c3 c93c
-0.015086085 -0.05362846 0.107805744 0.11609807 0.009098076 0.016810115 0.1084723 -0.0040357625
-0.01959999 0.11102787 -0.11046899 -0.055566408 0.056735948 0.011439314 0.11832598 0.06807742
0.016472265 0.095274165 -0.019700035 0.011570081 0.09325145 -0.04428843 0.06296547 0.11564067
0.06951602 -0.08267393 0.017412007 -0.07796407 0.03482278 -0.05621812 0.0067447894 -0.043799773
-0.102110505 0.08126069 -0.07228975 0.0092077 0.07622804 0.086025484 0.01493344 0.049409494
-0.085365795 0.057996616 -0.006227538 -0.07510817 -0.03412959 -0.09010942 0.014635238 0.038925834
0.009383463 -0.022199929 0.119459234 -0.11486508 -0.04082173 0.05553391 0.04540334 0.02082348
-0.11725563 -0.030072838 -0.03169634 -0.025914758 -0.113120526 0.058507733 0.12580167 0.024629295

fc3.weight f4 [6, 64]
00000000: 9e3d 9abd 8086 553c 7837 42bd 8971 8f3d
00000010: 13ec 7f3d ccbb b13c 5f5a 4abd f0c6 cc3d
00000020: 1f22 bd3d 7043 033d fda6 b53d 992f 963d
00000030: 6f8b ed3d 6ad1 b7bd 4f69 f1bd 8728 20bd
00000040: accf fe3c f2ab 303d 5cc6 083d b8d4 80bd
00000050: 17dd cfbc 3d46 a83d e207 47bd 4c9a da3d
00000060: aa86 43bd 06dd c43d e8bd 8d3c fca4 75bc
00000070: 8f12 943d ceb8 ba3c ea9f 8cbd 76dd f4bd
00000080: c009 94bd e1b8 b83d 7406 4abd 0dd1 e73b
00000090: b055 d8bd 824c 3dbc 3234 ac3d 643d e83d
000000a0: cb19 9f3c 8e63 8abd 987b a3bc 84b5 493d
000000b0: 9e7b 22bd 7940 f13d 0830 793d e197 ec3d
000000c0: 513f ef3c a0cd 78bd c634 93bd 7406 9ebd
000000d0: 9dc8 f13b d294 64bb 5ebd e4bd d33c 1abd
000000e0: dc16 c33d 7a3a 753d d044 ef3d c8f2 cc3c
000000f0: 98f0 8cbc 0a02 37bc 1178 623a cc6f dabd
00000100: 7874 183d 78d1 dc3c e035 bd3b 904b 85bc
00000110: 0830 04bd 58d0 013d 7b6a 743d ad94 8c3d
00000120: cdc0 a7bd d86b c2bd 0705 9c3d 79ed a9bd
00000130: af94 93bc c3eb 8dbd 8db6 443d da32 b0bd
00000140: 48e6 4c3d 3542 8e3d 581b 733d 6259 dfbd
00000150: 5c17 ccbd 49da 33bd e84a a3bd 3817 9dbd
00000160: 5aaa aabd aa27 f7bc 2089 74bd a40f 4a3d
00000170: 1f48 cf3a 33b2 c83d 4698 50bd 2cfe 47bd
00000180: 95a8 ba3d 273d d03d 44de c5bd 6d34 aa3d
00000190: 06dc a23d 5524 fb3d 4b70 adbc 4437 703d
000001a0: f37f de3d 5832 c7bd ec6a 12bd 449e a73d
000001b0: 4e67 8bbd 98bd b8bb be75 423d 2419 eb3d
000001c0: 6a35 953d 3c73 233d a90c 043c 8491 9c3d
000001d0: 8dd0 da3d 2ae0 473b 70b0 813d e28b f33d
000001e0: a9a5 3a3c 7480 8c3c f9e2 cfbc 38d0 95bc
000001f0: c8fe 78bd 7b24 213d 0d6c b6bc 2661 a8bd
00000200: ce52 acbd 549e bcbd 9727 87bd ebb4 f0bd
00000210: 7133 6c3d 0abb dfbd 1e3f b93c ad66 913d
00000220: 957c 543d fcff c93d 6ed5 f73d 3a43 243d
00000230: 02f6 9d3d c3ed b73c cdd7 983b 4e69 f63c
00000240: 9849 ef3c b5df d3bd 4038 003c d4d2 223d
00000250: e8b5 46bd ff62 59bd 41c1 cf3d 7c4f 34bd
00000260: ea54 a4bd f0f6 6c3d b0e0 09bd 0fdc 973d
00000270: 02d3 b73c cee3 8dbd 57ac 633d e2fc d33d
00000280: 3484 d13d 8bbe 9cbd 58f8 a0bc d153 ac3d
00000290: a61f 79bd d39e 6a3d 2a49 a93d ed72 53bd
000002a0: 0698 01bd 0862 c4bd b0e8 403d b615 e93d
000002b0: 709e 9f3c 6077 54bd 6cf8 82bd d042 be3d
000002c0: b9a6 bf3d b0f9 aabd da98 0b3d b07d 16bc
000002d0: 62e4 e43d b1db 213d 95e6 07bb 51f2 8bbd
000002e0: c0ce c73d ef86 d9bd 70df 223c 7c62 133d
000002f0: 8225 c6bd 4abe 10bd 70d1 c93c b85a d3bd
00000300: 24e2 f53d f818 0f3d 4978 303d 56fa f4bd
00000310: 3c66 4ebd 90db 383c 558c c53d 8a8f 06bd
00000320: 20ad e2bd e421 e0bc 8410 7ebd 4e36 e2bd
00000330: 496a 5abd 21df 57bd 7ea9 f43d 2b92 fb3c
00000340: 0d0d f3bd 58c1 42bd 1c15 ab3d e06d 173d
00000350: 095b b3bd cd38 8fbd 8cf9 b3bd 60c1 c4bb
00000360: 1ce4 ee3d 2b94 2e3c dafb eb3d 850b 093d
00000370: 52ca 6e3d 8d4e 9bbd dd74 7c3c 547b 273d
00000380: 67bb ce3d 5aa3 ff3d 2850 f43d bfaf bf3d
00000390: 640c 9f3d 003c 84bc c5c8 adbd e980 d83c
000003a0: f547 203d 707e 7e3c 1afc f53d 56a2 923d
000003b0: 8e4b e0bd a9bb 80bd 786e 5fbc 33e2 b03d
000003c0: 19de ca3d 3e8b c03d f69b 213c 94da 08bd
000003d0: 99be d83d 13ec 6dbd c274 e43d 3d3f 9d3d
000003e0: 0344 c63b f0aa 1f3d 7434 3d3c c0fc 273b
000003f0: 60c7 43bc a481 f0bc 11a3 66bc a237 f4bd
-0.07531284 0.013032556 -0.04741618 0.07004077 0.062480997 0.021695994 -0.04940259 0.09998882
0.09235024 0.032046735 0.08869741 0.07333297 0.115988605 -0.089754894 -0.11787664 -0.03910115
0.031104885 0.04313273 0.033392295 -0.06290573 -0.025373979 0.08216522 -0.048591502 0.10673961
-0.047735848 0.096124694 0.017302468 -0.014992949 0.07230102 0.0227932 -0.06866439 -0.11956303
-0.07228422 0.09019638 -0.04932256 0.0070744813 -0.105632186 -0.011553885 0.08408393 0.11339834
0.019421479 -0.0675727 -0.019956395 0.049245372 -0.03966867 0.11779875 0.06083682 0.11552406
0.029204996 -0.060742974 -0.071878 -0.077160746 0.0073786513 -0.0034878743 -0.111689314 -0.037655663
0.095258445 0.05987022 0.11683047 0.02501811 -0.017204568 -0.01116992 0.0008639107 -0.10665855
0.03722045 0.026955351 0.0057742447 -0.016271383 -0.03227237 0.031692833 0.05967186 0.06864295
-0.08191071 -0.09493226 0.076181464 -0.082972474 -0.018015234 -0.069297336 0.048025656 -0.08603449
0.0500243 0.06946222 0.05935225 -0.1090572 -0.09965393 -0.043909345 -0.079732716 -0.07670444
-0.08333273 -0.03017028 -0.059701085 0.049331322 0.001581434 0.09799614 -0.05092647 -0.04882638
0.09114186 0.10167914 -0.096615344 0.08310781 0.079521224 0.12262789 -0.02117171 0.058646455
0.10864248 -0.09726399 -0.0357465 0.08184484 -0.06806813 -0.0056378357 0.04747557 0.114794046
0.072855785 0.039904818 0.008059659 0.076449424 0.10684309 0.0030498602 0.06332481 0.11891915
0.0113920355 0.017151095 -0.025376784 -0.018287763 -0.060789853 0.03934143 -0.02226832 -0.082216546
-0.08414231 -0.09209886 -0.06599348 -0.11753257 0.057666246 -0.10924347 0.022613104 0.07099662
0.051876623 0.09863278 0.12101255 0.040103175 0.07712938 0.02245224 0.0046643973 0.03007951
0.029209897 -0.10345403 0.007825911 0.039751843 -0.048513323 -0.053072926 0.10144282 -0.044021115
-0.080240086 0.057852685 -0.033661544 0.0741502 0.022439484 -0.06928216 0.055584278 0.10350968
0.10230294 -0.07653531 -0.01964967 0.08414424 -0.060821198 0.057280373 0.08265908 -0.051623274
-0.03163912 -0.095890105 0.047096908 0.11381094 0.019484729 -0.051871657 -0.06395039 0.09290087
0.09357972 -0.08348405 0.034081317 -0.00918524 0.11176373 0.039516155 -0.0020736803 -0.068333276
0.09756231 -0.1062144 0.009940967 0.035982594 -0.09675123 -0.035337724 0.024636 -0.103200376
0.120060235 0.03493592 0.043083463 -0.1196181 -0.050390467 0.0112828165 0.09645907 -0.032851733
-0.11068177 -0.02735991 -0.06202747 -0.11045514 -0.053324018 -0.052703027 0.119463906 0.030709347
-0.118677236 -0.04754767 0.08353636 0.03697002 -0.08757598 -0.06993256 -0.08787832 -0.0060044974
0.11664602 0.010655443 0.11522646 0.03345825 0.058298416 -0.07583342 0.015408722 0.0408891
0.10094338 0.12482329 0.11929351 0.09359693 0.07766035 -0.016141891 -0.084855594 0.026428657
0.039131124 0.015533075 0.12010975 0.071598694 -0.10951911 -0.06285793 -0.013637178 0.08636894
0.09905643 0.09401558 0.009863844 -0.033411577 0.105832286 -0.058086466 0.11155082 0.07678077
0.006050588 0.038981378 0.01154815 0.0025632828 -0.01194939 -0.029358692 -0.014076964 -0.119246736

fc3.bias f4 [6]
00000000: db69 5e3d 56ae 0cbd ad0d 54bc 7fc3 eebd
00000010: 2d87 193d ffd4 8bbd
0.05430017 -0.034345947 -0.012942714 -0.11658382 0.03748243 -0.06827735

fc1.weight f4 [64, 4]
00000000: 0a32 8c3e e051 b53d 3e44 9ebe 1858 6ebe
00000010: 72f3 c3be 9cc4 3e3e 202d 51be 7a98 f1be
00000020: 14de a73e 20f6 b23e f4b0 a33e 525e 803e
00000030: 083a a63e 102f c6be e05f 993c ac7f 2b3e
00000040: 4047 f7bc fcce 90be b083 babd 6239 90be
00000050: 40e6 e6be 6c31 193e 56ab 943e 72aa c33e
00000060: d8f6 4bbe 9c10 833e 2020 a4be f03b 09bd
00000070: 1e0c 893e 00a8 ad3e 8820 5cbe 0e36 b53e
00000080: b6bd ca3e 1af7 f3be 8ac1 9a3e 40f5 15bd
00000090: 48a3 1e3e 7025 943e 9037 1a3d 30d9 e4bd
000000a0: 0647 fcbe 284d 67be 34d0 b1be 84ec 223e
000000b0: fa26 9cbe c0d6 75bd 6034 52be 48b7 8bbd
000000c0: 7819 913d 2613 fcbe 9cd6 ca3e fce0 1b3e
000000d0: cea1 ca3e ec70 52be 20d3 a7bd fc66 7bbe
000000e0: 8cac ba3e 5826 9e3d e03a 11be 56b8 dd3e
000000f0: ee35 e5be cc8c 553e 442a 1d3e b812 cebd
00000100: 7857 a93d b85c 143e 201d 6abd c83d bfbd
00000110: bc93 a73e c8de 01be 26ee ddbe 7427 12be
00000120: d470 95be 162c d23e f82d b1bd 10d7 6abd
00000130: 0812 e23e 9458 bcbe d433 ee3e 0088 1abd
00000140: 24e7 013e 9871 77be 46d8 f4be a84c 91be
00000150: bc08 a83e c234 803e ae56 ddbe 7847 eabd
00000160: 4432 c9be 5037 333e e849 c03d f0de b1bd
00000170: 0c34 b0be 6222 833e f889 09be 109d 6bbe
00000180: 4c28 a13e 6891 ce3d b8f0 043e 145c b43e
00000190: 30a2 5abd 4e8c f83e e825 3fbe 9833 92be
000001a0: e0d8 3d3e 725f 88be 80d2 af3d 00d8 51bd
000001b0: 408d 83bc 1a83 f7be f0e1 a8bd 0066 713e
000001c0: 448f 573e 7086 62bd 9425 50be b85f 973d
000001d0: 1c3c 11be 40d0 bc3c c07f 0dbe 74e0 a8be
000001e0: c064 903e 8027 bc3b 927c ff3e 5658 ebbe
000001f0: 64a5 babe 1018 c23e c29d 843e f88e 98bd
00000200: dcbd 6fbe c036 f8bc d04f 1abd 3cd5 1a3e
00000210: 1812 a0bd c8b9 f3bd 4cfa 033e 309b 303d
00000220: 0c07 4f3e b633 cdbe 22da 99be ae28 82be
00000230: c25e febe f479 c43e c8ea 853d 9c1e e83e
00000240: 06d0 a2be 1073 fbbd 36a9 9c3e 4887 f2bd
00000250: e078 9d3e b27b aebe 1e32 d3be 50de e73d
00000260: d403 fd3e cabe cabe a478 c6be 9a88 a9be
00000270: 421c 923e 3c79 c03e 20d4 3cbd 3c64 d03e
00000280: 409d d33d 26d6 99be 02e2 c23e 9c11 ac3e
00000290: a0c0 f23c bc7e 01be 08a6 3dbe 60d1 c73e
000002a0: ccee 63be e029 073d e07c 7bbe f0cf eb3e
000002b0: bcf3 61be 9c78 19be 90bf c83d f40e b6be
000002c0: 586b 8f3d e8e5 fcbe e4a0 30be 6487 d2be
000002d0: f4c9 78be 1e3e f13e beb7 8abe 7874 5fbe
000002e0: 306f b83e 7440 4c3e 50fb 44bd 8060 003c
000002f0: e64a e53e 6ec7 c73e 5a3b a13e 78fc 8f3e
00000300: d0c2 1b3e 3012 cfbe 4a78 e8be e846 65be
00000310: 1ce7 72be 2055 16bd 58c5 86bd 6e89 8c3e
00000320: ec8e a73e 804a 7b3c c0c6 cebd b054 37bd
00000330: e872 2a3e 564e a53e 7aee c4be d6c2 cf3e
00000340: 8614 913e 1476 e7be 4646 d9be 66ca e1be
00000350: d611 f7be 863c 89be 00a7 30bd c8b4 9ebe
00000360: ac23 12be c0e2 82bc 5672 da3e 822a f4be
00000370: 364d f83e c0ee 3a3c c811 a43e 78fa adbe
00000380: f81f bebe 14e2 623e b8b4 1abe 20aa a1be
00000390: 74e7 573e fe74 fdbe 8855 873d 6077 e9be
000003a0: d8ee 183e 9480 d83e 388b e23d 4878 ca3e
000003b0: e8a7 133e a06c 903c 6840 a33d 02a6 b03e
000003c0: 14bd ce3e 98ed 9f3d bcb0 d63e c436 7f3e
000003d0: ec30 c0be dc24 5cbe fa73 e3be 00fc c83b
000003e0: 203f 31be b47d 37be 70ef 4fbd 7e26 a5be
000003f0: 6cdc 06be c636 853e b0c7 41bd b890 f53d
0.27381927 0.08853507 -0.3091144 -0.23275793 -0.38271672 0.18629688 -0.2042737 -0.47186643
0.3278662 0.34953403 0.31970942 0.2507196 0.3246615 -0.3870778 0.018722475 0.16747922
-0.030185342 -0.28282917 -0.09107149 -0.2816878 -0.45097542 0.14960259 0.2903697 0.38215977
-0.19918382 0.2559861 -0.3205576 -0.033504426 0.26767057 0.33917236 -0.21496785 0.35392803
0.39597863 -0.4764946 0.30225784 -0.03661084 0.15491974 0.28934813 0.037650645 -0.11174238
-0.49272937 -0.22588027 -0.3472916 0.15910536 -0.30498487 -0.060019255 -0.20527792 -0.068220675
0.07084936 -0.4923336 0.3961686 0.15222543 0.39576572 -0.20550889 -0.08194566 -0.24551004
0.36459768 0.07722157 -0.14182615 0.433047 -0.44767708 0.20854491 0.15348154 -0.10062164
0.082686365 0.14488494 -0.057156682 -0.09337956 0.327299 -0.1268264 -0.43345755 -0.14272863
-0.29187644 0.4104926 -0.08651346 -0.057334006 0.44154382 -0.3678633 0.46523917 -0.037727356
0.1268583 -0.24164426 -0.47821254 -0.28378797 0.32819164 0.2504025 -0.43230194 -0.11439413
-0.39296162 0.17501569 0.093890965 -0.086851 -0.3441471 0.2561217 -0.13431537 -0.23009133
0.31476057 0.10086328 0.12982452 0.352265 -0.05337733 0.48544544 -0.18666804 -0.28554988
0.18539762 -0.2663532 0.085850716 -0.051231384 -0.016058564 -0.4834221 -0.08246219 0.23574066
0.21050745 -0.05530399 -0.20326835 0.07391304 -0.14183086 0.02304852 -0.13818264 -0.32983744
0.28201866 0.0057420135 0.49899727 -0.45965832 -0.36454308 0.37908983 0.2590161 -0.07449144
-0.2341227 -0.030299544 -0.03767377 0.15120405 -0.07815951 -0.11900669 0.1288845 0.04311675
0.20217532 -0.40078515 -0.30049235 -0.2542166 -0.4968167 0.38374293 0.065389216 0.45335853
-0.31799334 -0.12277806 0.30597848 -0.11842209 0.30756283 -0.34078747 -0.41249174 0.113216996
0.49416983 -0.39598686 -0.38763916 -0.3311203 0.28537184 0.37592494 -0.046100736 0.40701473
0.103327274 -0.30046195 0.38063055 0.33607185 0.029632866 -0.12646002 -0.18520367 0.39026928
-0.22259063 0.03299892 -0.24559355 0.4605708 -0.22065634 -0.14987415 0.09802163 -0.35558283
0.07002896 -0.49394155 -0.17248875 -0.4111892 -0.24295789 0.47117704 -0.2709331 -0.21821773
0.3602233 0.19946462 -0.048091233 0.007835507 0.44783705 0.3901934 0.31490594 0.28122306
0.15211034 -0.40443563 -0.45404273 -0.2239033 -0.23720974 -0.036702275 -0.06580609 0.274486
0.32726228 0.015337586 -0.10096502 -0.0447585 0.16645396 0.32286328 -0.38463193 0.40578336
0.2833597 -0.45207274 -0.42436427 -0.4409973 -0.48255795 -0.26803988 -0.043128014 -0.309973
-0.1427142 -0.015977263 0.42665356 -0.4768868 0.48496407 0.0114094615 0.32044816 -0.33980155
-0.37133765 0.22156554 -0.15108001 -0.31575108 0.21084386 -0.4950332 0.06608111 -0.45598888
0.14934862 0.42285597 0.1106171 0.39544892 0.1441952 0.017629921 0.07971269 0.34501654
0.4037863 0.07808989 0.41931713 0.24923235 -0.37537324 -0.21498436 -0.4442442 0.0061335564
-0.17309237 -0.17919046 -0.050765455 -0.3225593 -0.13170022 0.2601835 -0.047309577 0.119904935

fc1.bias f4 [64]
00000000: b088 9e3d ec0b 293e 3e38 edbe 6ccd c03e
00000010: 5c5b 6b3e 10a9 26bd 60ec 51be ccaf 5b3e
00000020: 484a b73e 884e f7bd 3c3c ddbe f818 94be
00000030: 0c17 ecbe 5c0e 083e d46d 47be a68c c8be
00000040: 3022 4b3e e8a4 29be 80e5 e33d c6ab b63e
00000050: c0ee 2a3c 4c04 ef3e 1c97 05be 74b0 1d3e
00000060: 4838 d4be 600b abbe e4fe 433e 5ac1 9e3e
00000070: ae62 f1be 04a3 d03e a092 46be c412 db3e
00000080: 0465 c03e 8057 473d ec63 d3be 205a 0f3e
00000090: 5093 a4be a623 8a3e 1a98 d2be e841 b03e
000000a0: 50a2 493d aeb2 c7be ae62 fe3e 5468 bc3e
000000b0: 206c 7fbd 54ca c3be 74f2 543e eafb b73e
000000c0: ac20 233e 80a6 14bd e42c d63e f82a 51be
000000d0: 5e44 a03e 14d0 40be c24b ce3e d082 e4bd
000000e0: a0fb 90be 0013 0f3d 0800 63be 4ef9 d8be
000000f0: fa83 aa3e 68c6 a93e 5e9b ec3e 964e b5be
0.07740915 0.16508454 -0.46331972 0.37656724 0.2298407 -0.040688574 -0.20500326 0.2145378
0.3579886 -0.120755255 -0.43210018 -0.289253 -0.46111333 0.13286728 -0.1947549 -0.39169806
0.1983726 -0.16566813 0.11127758 0.35677928 0.010432899 0.46682966 -0.13045925 0.15399343
-0.4144919 -0.33407116 0.19140202 0.3100689 -0.471456 0.4074937 -0.1939187 0.42787755
0.3757707 0.04866743 -0.41287172 0.13999224 -0.3214364 0.26980323 -0.4113167 0.34425282
0.04922706 -0.3900351 0.49684662 0.36798346 -0.062358975 -0.38240302 0.20795614 0.35934383
0.15930432 -0.0362916 0.41831124 -0.20426548 0.3130216 -0.18829376 0.40292174 -0.11157763
-0.28316975 0.03493023 -0.2216798 -0.42377704 0.33303815 0.33159184 0.46212286 -0.3541152

fc2.weight f4 [64, 64]
00000000: 9076 03bd 80b3 593c 3c98 04bd f87e 57bd
00000010: f0e7 1a3d 1409 21bd 70d8 463c 8c1e 36bd
00000020: dc8f 59bd dc02 c4bd 5829 d4bc 92a6 aabd
00000030: 2639 c5bd 6a4a 9a3d 6471 a53d ac60 593d
00000040: 4c49 9ebd f0f8 2abd 88a8 fcbc caaa 843d
00000050: ac3c 0b3d 90fe cbbd f428 263d f0f2 c93c
00000060: 1cd4 aebd 761f d23d a073 7b3c 9053 563c
00000070: 401d a0bc 0645 ba3d 3ab9 a1bd 005d 0cbc
00000080: 7805 7abd ced6 c73d c429 a5bd 0048 b9bd
00000090: 40c4 ca3b e0fd 12bd 00d4 d7b9 e8dc 85bd
000000a0: f0f0 413c f038 e5bc 1884 ce3c 402e e5bd
000000b0: 8082 59bb 32be a9bd 5210 bcbd 5007 6fbc
000000c0: 8801 ad3c c2fc 9ebd 30e6 52bc 52e8 f5bd
000000d0: ac46 de3d 1836 1fbd e051 14bd 3e44 9f3d
000000e0: 7eeb d9bd 2ca1 f8bd 90b9 cbbc f855 e53c
000000f0: 4483 a43d 641f c7bd 4a2f 85bd 0060 7abd
00000100: bace b73d f244 fabd 8e2c 9ebd 6c3f 23bd
00000110: 6c3c c6bd c808 663d 9ec1 a2bd 6a8e 843d
00000120: 50e5 8b3d ae0f b03d b054 113c ac17 d5bd
00000130: 80e1 2b3d 28d0 d8bd a2e8 cc3d 3cb7 d23d
00000140: 2a78 e0bd 9cfb 57bd c436 acbd 40f0 473d
00000150: 50dd 1cbd f0a9 4e3d 1c70 2fbd 567f a73d
00000160: 9417 dabd 3cd8 b1bd 4042 e0bc a0af f2bb
00000170: a048 753c 8cca b9bd 6e35 e53d b200 9c3d
00000180: e43d e1bd c058 663b 10d9 f83c 9e9e acbd
00000190: e014 d4bd c024 b8bc f81c eebc 0854 24bd
000001a0: 9859 193d 807c 9ebd f2be b3bd 50c9 67bc
000001b0: 68b2 f33c 2291 a8bd c284 8ebd 7ed7 9ebd
000001c0: c81f 88bd dace f93d f88c e6bc d08a 9f3c
000001d0: d0b2 4d3c 88ee a53d 0afa aabd b450 8bbd
000001e0: 20c5 8d3c 72be ac3d 4e07 febd 000c 4f39
000001f0: ac01 1dbd 10bf e43c 68be 9a3c 90b2 553d
00000200: a8fb f93d c209 953d cc26 b53d 18a4 16bd
00000210: 30d1 1a3c e054 da3d 3a8a b1bd 988f 95bc
00000220: 204f af3c 5811 c13c 1877 cc3c 6835 d3bd
00000230: 72d6 e3bd d4c1 8cbd 92a6 94bd c007 7bbc
00000240: 4033 7a3c b454 95bd e8d2 96bd 749d 3fbd
00000250: c00c 36bc ceef cabd 8082 733c 9028 38bc
00000260: eec4 b03d 2c5c fc3d da76 b4bd 6828 5c3d
00000270: 3ce0 f8bd cce4 453d b8e5 ed3c 60c7 ba3c
00000280: d0e8 b9bd 3044 8bbc e87d 8a3d 1ab1 81bd
00000290: 9030 5bbc 84ac 673d 1ea2 c03d e02a dd3b
000002a0: 50dd a83c 94ae d73d d0a2 f83c 4026 4cbd
000002b0: b404 fe3d e0fe a7bb a084 bc3d 30a5 fbbc
000002c0: d08c d4bd f0f5 b53d a886 f63c 9046 c0bd
000002d0: 26fc 85bd e04f a2bc fca8 a73d decc bfbd
000002e0: f26c f23d e4fc 973d e0e3 d83c bcea f6bd
000002f0: 0048 c5bc e429 78bd b617 d63d c87e 93bc
00000300: 90f2 9bbd 6a51 b93d 3cbd dabd 7083 843d
00000310: 3ccc 323d 3c1d ba3d ea5d c73d 4cdc 563d
00000320: a0c2 d6bb 100c bd3c e0bc e83c 0897 aa3c
00000330: c830 1a3d 3805 cb3d 06bf b5bd 40f4 c03b
00000340: 08a2 763d 6e0f f1bd 1c81 cebd 105c cf3c
00000350: 70c8 fbbc 02fc e2bd 6aac b63d d02f 143c
00000360: c078 213c 18dd c73d 848e 743d 30b3 a63d
00000370: 0ab6 f5bd 7461 963d 04b3 693d a8bc dbbc
00000380: a04e 28bd 3451 fbbd 9023 32bd e4e1 4dbd
00000390: 98ef 8cbc c09e 143d e245 f8bd 800c dbba
000003a0: 5a73 91bd d46a 71bd ac33 163d f079 e5bd
000003b0: d8df 453d 2844 e1bd ea86 f5bd 56e4 923d
000003c0: 646a 1fbd f866 b33d 287f 9c3c f82a 99bd
000003d0: 5088 c73c 9666 f83d 7add cc3d 7200 b13d
000003e0: e006 f53b f410 86bd 809f e2ba 6036 2ebc
000003f0: e472 a23d e00a 7b3c d6c9 983d 86ee f7bd
-0.032095492 0.013287425 -0.032371745 -0.05261132 0.03781885 -0.0393153 0.012136564 -0.044462726
-0.05311571 -0.09570858 -0.02589862 -0.08332552 -0.09630041 0.075337246 0.08078268 0.05307071
-0.07728824 -0.04174131 -0.03084208 0.06477888 0.033993408 -0.09960663 0.0405664 0.024651974
-0.085365504 0.10259907 0.015347391 0.013081446 -0.019545197 0.090951964 -0.07896657 -0.008567095
-0.06104037 0.097577676 -0.08064607 -0.09046936 0.0061879456 -0.035886645 -0.00041165948 -0.06536275
0.011837229 -0.027981251 0.025209472 -0.11190462 -0.0033189356 -0.0828823 -0.091828 -0.014589146
0.021118894 -0.077630535 -0.012872264 -0.12007202 0.10853323 -0.038869947 -0.036210895 0.07776688
-0.1064062 -0.12140116 -0.024868757 0.027995095 0.080328494 -0.09722784 -0.0650316 -0.06112671
0.08974977 -0.122201815 -0.07723342 -0.039855406 -0.09679493 0.05616072 -0.07947086 0.06472476
0.06830847 0.08596741 0.008870289 -0.10404906 0.0419631 -0.10586578 0.10005309 0.102888554
-0.109604195 -0.052730188 -0.08408883 0.048813105 -0.038296998 0.050455034 -0.042831525 0.08178584
-0.106490284 -0.086838216 -0.02737534 -0.00740619 0.014970928 -0.09071836 0.111918315 0.0761732
-0.10998133 0.0035148114 0.030376941 -0.08428691 -0.10355544 -0.022478461 -0.029066548 -0.0401192
0.03743896 -0.0773859 -0.08776654 -0.014147118 0.029748157 -0.08230807 -0.06958915 -0.077559456
-0.06646687 0.12197657 -0.028143391 0.01947537 0.012554839 0.08102137 -0.083484724 -0.06802502
0.01730591 0.08434762 -0.12403737 0.00019745529 -0.038331673 0.027923137 0.01888962 0.052172244
0.12206203 0.07277252 0.088452905 -0.036777586 0.009449288 0.1066072 -0.08668943 -0.018256947
0.021400034 0.02356784 0.024959132 -0.10312921 -0.111248866 -0.06872907 -0.07258333 -0.015321672
0.015271008 -0.072915465 -0.07364446 -0.04678102 -0.011111438 -0.0990902 0.014862657 -0.01124014
0.08631311 0.12322268 -0.08811732 0.053749472 -0.12152144 0.0483139 0.029040202 0.022800148
-0.090776086 -0.017000288 0.06762296 -0.063326076 -0.013378277 0.056561008 0.094059214 0.006749496
0.020613343 0.10531345 0.030351073 -0.049841166 0.12403241 -0.005126819 0.09204984 -0.030718416
-0.1037842 0.088847995 0.030093506 -0.09388459 -0.06542234 -0.019813478 0.08186528 -0.09365247
0.11837186 0.07421282 0.026475847 -0.12056491 -0.024082184 -0.060586825 0.10453741 -0.01800479
-0.076146245 0.090487316 -0.10680625 0.06470382 0.043651804 0.09087607 0.097347096 0.052456185
-0.006553963 0.02307704 0.028410375 0.02082397 0.037644178 0.09913105 -0.088743255 0.005888492
0.06021312 -0.11770521 -0.100832194 0.025312454 -0.030735224 -0.11083223 0.08919604 0.0090446025
0.009855449 0.09758967 0.059706226 0.08139646 -0.11997612 0.073428065 0.05705549 -0.026823357
-0.041090608 -0.12271348 -0.043490946 -0.050264254 -0.017204091 0.03628421 -0.12122704 -0.0016712099
-0.0710208 -0.05893977 0.036670372 -0.11204898 0.048309177 -0.10999328 -0.119886234 0.07172458
-0.03891982 0.08759874 0.019103602 -0.07478899 0.024356991 0.12128942 0.10003181 0.08642663
0.007477626 -0.06546202 -0.0017289966 -0.010633081 0.0793207 0.015322417 0.07460372 -0.121060416

fc2.bias f4 [64]
00000000: a02b 77bc 84a9 5bbd c64c e03d 1659 f63d
00000010: e023 9b3b 4018 8c3c 2054 e23d 4051 5bbb
00000020: d84a a3bc 6678 e03d b4ac e4bd a4d1 57bd
00000030: 0c00 793d 10ad 053c d4da e83d 8657 8c3d
00000040: c028 a53c dc31 cb3d f861 a1bc e04b 413c
00000050: f8cf ca3d 5074 26bd 444b 843d 04d5 ec3d
00000060: 0085 843d 5ad8 b2bd a0a3 8e3c 02ea 9ebd
00000070: 8839 0f3d 5866 64bd e081 c53b 6467 33bd
00000080: 1042 dabd c6fe 9b3d a60c 94bd 0034 a43b
00000090: cc42 943d 109e a53d 4069 8a3c 789f 523d
000000a0: 7012 b4bd dc8d 6d3d 6010 ccbb 50d2 99bd
000000b0: d8ea 11bd c6bc b2bd 5883 953c 08e7 0e3d
000000c0: a0b7 a03b a0dc b5bc da60 ec3d 623e ebbd
000000d0: 406a 39bd 1478 6b3d d0e7 323d 78af ba3c
000000e0: 26c4 f3bd 40c0 0dbd e878 e2bc 304b d4bc
000000f0: bcab e7bd 7c98 7b3d 9802 fa3d 60c3 c93c
-0.015086085 -0.05362846 0.10952143 0.120287105 0.0047345012 0.017101407 0.11051202 -0.0033465177
-0.01993315 0.10960464 -0.11165753 -0.052690163 0.06079106 0.008158937 0.11369863 0.06852631
0.020161033 0.09921619 -0.019700035 0.011797875 0.09902948 -0.040638268 0.06459668 0.11564067
0.0647068 -0.08732672 0.017412007 -0.07759477 0.034966975 -0.055761665 0.006027445 -0.043799773
-0.10657132 0.076169536 -0.07228975 0.0050110817 0.07239303 0.08086789 0.01689589 0.051421613
-0.08792579 0.057996616 -0.006227538 -0.07510817 -0.035624355 -0.08727412 0.018251106 0.034888297
0.0049047023 -0.022199929 0.115419105 -0.11486508 -0.045267344 0.057487562 0.043678105 0.022788748
-0.11902647 -0.034607172 -0.027645543 -0.025914758 -0.113120526 0.061424717 0.12207526 0.024629295

fc3.weight f4 [6, 64]
00000000: 9e3d 9abd 8086 553c 7c58 4fbd 0225 8e3d
00000010: 94af 7d3d 381b b03c e035 53bd 4686 cc3d
00000020: 4eab ba3d b87b f43c e696 bb3d d095 963d
00000030: 7ac1 ee3d 862d bebd f234 fabd 8c34 2cbd
00000040: e88c 023d fc22 2e3d 5cc6 083d b8d4 80bd
00000050: 2098 c8bc 24f2 a63d b096 49bd 4c9a da3d
00000060: cc2c 4ebd 3a30 c53d e8bd 8d3c d01f 87bc
00000070: 9284 8d3d 6080 be3c 021c 94bd 76dd f4bd
00000080: 2c15 95bd e0f2 be3d 7406 4abd 20ee c93b
00000090: 2262 dabd f03f 0fbc 14c4 ab3d 16f1 e33d
000000a0: 887f 813c 8e63 8abd 987b a3bc 84b5 493d
000000b0: 54f2 1bbd 3e65 f13d a000 793d 1066 ed3d
000000c0: 10c0 f13c a0cd 78bd 2491 8fbd 7406 9ebd
000000d0: 00f6 cd3b 4085 a9bb b6fd e4bd 5c5a 2abd
000000e0: b608 c43d 8c10 793d 82cb ee3d c8f2 cc3c
000000f0: 98f0 8cbc 30da 0bbc 807b a1ba cc6f dabd
00000100: 7874 183d 78d1 dc3c 4085 903b c0d5 91bc
00000110: 5803 12bd 58d0 013d 501f 793d 6a5d 8d3d
00000120: 40fd a8bd 06ad bdbd 24ef 933d 0e8a abbd
00000130: 08e5 aebc 9c7b 84bd a0b6 353d 5676 b2bd
00000140: ace8 3e3d aaad 873d 581b 733d 6259 dfbd
00000150: 8a83 d0bd 4c4d 3ebd 86c8 a2bd 3817 9dbd
00000160: 3675 a1bd 1c6d 0abd 2089 74bd b471 483d
00000170: 008c fe39 50e5 c43d 5807 40bd 2cfe 47bd
00000180: 4c71 b33d 8801 cb3d 44de c5bd 983e a33d
00000190: ceb1 9b3d cead f23d f006 c8bc f0c4 6d3d
000001a0: d0e5 e73d 5832 c7bd ec6a 12bd 449e a73d
000001b0: 783d 93bd 3090 12bc 782b 3b3d a449 e33d
000001c0: f2c7 8d3d 3c73 233d 807f b63b 8491 9c3d
000001d0: 3cd6 d33d 8060 d53b dc43 753d 30ef f63d
000001e0: 00c6 013c e003 5c3c c01e e9bc 38d0 95bc
000001f0: c8fe 78bd a096 143d a89b d0bc 2661 a8bd
00000200: ce52 acbd 549e bcbd 48a1 8abd 425f f5bd
00000210: 2031 5d3d 8208 e0bd 9864 b13c 84fe 913d
00000220: 8c39 523d fcde ca3d 807f ef3d 349a 203d
00000230: 22bf 963d 78b0 aa3c 00db 2c3a 7855 e93c
00000240: a86e d23c 98ea dabd 4038 003c d4d2 223d
00000250: c87b 54bd bc33 64bd 7e04 ca3d 7c4f 34bd
00000260: caa5 a5bd f487 5d3d b0e0 09bd 0667 963d
00000270: e8a1 a83c cc0f 93bd 402d 613d e2fc d33d
00000280: 4ae0 c93d 3003 a4bd 58f8 a0bc b2a4 a43d
00000290: 4e8c 84bd b4d7 553d f46b a23d 002f 58bd
000002a0: 889d 07bd 0862 c4bd b0e8 403d b615 e93d
000002b0: d008 7f3c 94ea 62bd 3066 87bd d40f b63d
000002c0: e8a8 b73d b0f9 aabd f8ae fe3c b07d 16bc
000002d0: 9e6f dd3d c45d 1e3d 6010 bcbb 2679 8fbd
000002e0: 462a c03d f4a7 e1bd 6021 dd3b 7c62 133d
000002f0: 8225 c6bd 94a7 1fbd 6852 ad3c b85a d3bd
00000300: 24e2 f53d f818 0f3d 509f 283d ccc7 f9bd
00000310: fcc8 5fbd 90db 383c d82c c33d bc8d 08bd
00000320: 8655 e3bd 0894 edbc bc11 89bd 66a2 e6bd
00000330: bc55 6bbd 385f 61bd 3072 eb3d b825 ee3c
00000340: 1282 fbbd b002 53bd 1c15 ab3d e06d 173d
00000350: 8e1c bcbd 6c74 95bd 64a2 bcbd 60c1 c4bb
00000360: 2ca3 e93d a061 ce3b dafb eb3d d812 053d
00000370: 2419 673d 44da a1bd c048 493c 547b 273d
00000380: 5acd c53d 2a2c f63d 2850 f43d 4abe b63d
00000390: c0ba 953d 10a9 b5bc bec5 b5bd b8b1 cd3c
000003a0: 48c7 113d 707e 7e3c 1afc f53d 56a2 923d
000003b0: a2ba e9bd ba2f 89bd b8bd 85bc 0259 a73d
000003c0: 7e75 c13d 3e8b c03d 20ce bc3b 94da 08bd
000003d0: d032 d03d 582c 79bd 82b4 db3d 90ab 973d
000003e0: 002c d93a c88f 0c3d 40b0 003c c0fc 273b
000003f0: 60c7 43bc e027 0cbd b851 93bc a237 f4bd
-0.07531284 0.013032556 -0.050621495 0.069406524 0.061935022 0.021497354 -0.05156505 0.09986548
0.09114705 0.02984415 0.09159641 0.07352793 0.116579965 -0.09286027 -0.1221713 -0.0420423
0.03187266 0.042513832 0.033392295 -0.06290573 -0.024486601 0.081516534 -0.049215972 0.10673961
-0.05033569 0.09628339 0.017302468 -0.016494662 0.069100514 0.023254573 -0.072319046 -0.11956303
-0.07279429 0.093236685 -0.04932256 0.00616242 -0.106632486 -0.008743271 0.08387008 0.11129968
0.015807882 -0.0675727 -0.019956395 0.049245372 -0.0380729 0.117868885 0.06079161 0.115917325
0.029510528 -0.060742974 -0.07010105 -0.077160746 0.006285429 -0.0051733553 -0.11181204 -0.04159008
0.09571974 0.060806796 0.1165991 0.02501811 -0.017204568 -0.008535907 -0.0012320131 -0.10665855
0.03722045 0.026955351 0.004410416 -0.01780212 -0.03564772 0.031692833 0.060820878 0.06902583
-0.082514286 -0.09261517 0.07223347 -0.08375941 -0.021349445 -0.06468889 0.044363618 -0.08713977
0.046608612 0.06624921 0.05935225 -0.1090572 -0.10181339 -0.046460435 -0.07948403 -0.07670444
-0.07883684 -0.03379546 -0.059701085 0.04893656 0.00048550963 0.096140504 -0.046882004 -0.04882638
0.08761844 0.099124014 -0.096615344 0.07970923 0.07602273 0.11849557 -0.02441737 0.058049142
0.1132313 -0.09726399 -0.0357465 0.08184484 -0.071894586 -0.00894551 0.045695752 0.1109803
0.06922902 0.039904818 0.0055693984 0.076449424 0.10343596 0.006511748 0.05987917 0.1205734
0.007920742 0.013428658 -0.028457046 -0.018287763 -0.060789853 0.03627646 -0.025464848 -0.082216546
-0.08414231 -0.09209886 -0.06769043 -0.119810596 0.054001927 -0.10939123 0.021654412 0.07128623
0.051324412 0.09905812 0.116942406 0.03920956 0.073606744 0.0208361 0.0006593913 0.028483137
0.02568753 -0.106892765 0.007825911 0.039751843 -0.05187586 -0.0557134 0.09864138 -0.044021115
-0.080882624 0.054084733 -0.033661544 0.07343869 0.020585015 -0.071807474 0.054974794 0.10350968
0.09857233 -0.080084205 -0.01964967 0.08039226 -0.064720735 0.052207664 0.07930747 -0.052779198
-0.033109218 -0.095890105 0.047096908 0.11381094 0.015566066 -0.055399492 -0.066112876 0.08889738
0.08967763 -0.08348405 0.031089291 -0.00918524 0.10812305 0.03866364 -0.0057392567 -0.07005529
0.09383063 -0.11018363 0.0067483634 0.035982594 -0.09675123 -0.038978174 0.021157458 -0.103200376
0.120060235 0.03493592 0.041167557 -0.12196311 -0.054635033 0.0112828165 0.09530038 -0.033338293
-0.11100297 -0.02900125 -0.06692836 -0.11261444 -0.05745481 -0.05502245 0.11496389 0.02907072
-0.12280668 -0.051516235 0.08353636 0.03697002 -0.09185134 -0.07297596 -0.09210661 -0.0060044974
0.11408076 0.006298259 0.11522646 0.032488674 0.05642046 -0.07902959 0.012285411 0.0408891
0.09658308 0.120201424 0.11929351 0.089230135 0.0731101 -0.022175342 -0.08875607 0.025109157
0.03559044 0.015533075 0.12010975 0.071598694 -0.114125505 -0.06698556 -0.016325817 0.08171274
0.09446238 0.09401558 0.0057618767 -0.033411577 0.10165942 -0.060833305 0.107277885 0.0740577
0.0016568899 0.034316808 0.007854521 0.0025632828 -0.01194939 -0.034217715 -0.017983302 -0.119246736

fc3.bias f4 [6]
00000000: fcb9 593d 8473 1abd d832 89bc 5a0a f8bd
00000010: 840a 093d b81f 95bd
0.053155884 -0.03770782 -0.016747877 -0.121113494 0.033457294 -0.072814405
