saved_models/dqn_best_model_episode_51.pt (torch, 87307 bytes, 24 tensors)

fc1.weight f4 [64, 4]
00000000: 7612 7a3d 78e1 423d be04 ebbe 45ee 1a3d
00000010: f273 03bd 8a96 743e 814b f13e 49f3 aebe
00000020: 0643 d53e a8d0 b3be 6a87 6a3e eb59 f0bd
00000030: 41bd b9be d7ff e13e c8af b6be 67e2 9fbd
00000040: aba2 d5be 6dab 193e 282e b43e 4edb babe
00000050: a009 18be e956 5e3e cb44 90be c504 4fbc
00000060: f738 9bbe 4555 a73e 8a7b 9ebd bdc2 f2bd
00000070: d0fe 293e 41e5 693d 755d ee3e e97d 58be
00000080: dcef d3bd 4012 e23e 57fc 133e cd51 51be
00000090: bc1c e53e 3ac2 fc3e 3abc b8be d1af fbbe
000000a0: 9223 f83d 797a 62be 7cf4 643e d83d ee3e
000000b0: 00c2 c63e 393e b8be 630a 4cbe 5838 5e3e
000000c0: 8753 b4be 9500 8b3e a6c0 dfbe 5cc6 37be
000000d0: 926c eebe fcdc af3e a687 dbbe 63a6 093e
000000e0: 8535 c63e 5ff2 0a3e e5a1 c93e e8be fabc
000000f0: 7939 80be 1a55 af3c 49e4 c23d 11ae 8a3e
00000100: 8278 67bd a830 f33e ac66 80be abfb bdbe
00000110: 3115 60bd fe26 223d 6499 16bd cc20 e3be
00000120: fb9c 6a3e 2765 8fbe dbcf d2be c813 c83d
00000130: 689b aabd dfce f73d 3830 4f3e 18fb d83d
00000140: b1bd afbe 627a 82be 14ce f33e 7532 9b3d
00000150: 6c9e 1fbe 0350 c53e ea62 eabe 68a5 f53e
00000160: 22a9 dabe 0b86 f0be 968a 7a3d f3a3 f13e
00000170: fe77 a0be 21b3 f6bc 42c9 a73e 2d8f 833e
00000180: 6bf3 9bbc a816 9e3e 25b8 163e b125 3c3e
00000190: b0e0 2b3e 6100 78be 6b69 06bd fb42 f1be
000001a0: 910b f23e 4d52 b13e 214d 37be 8b48 42be
000001b0: 9fa0 a0bd 0248 8a3d 2714 e6bc 6e07 0f3e
000001c0: 7e4d ba3e 8bf8 71be 6959 ea3e e308 c6be
000001d0: 6a93 c7be daa2 bbbd 8925 4f3e 9b0f 053e
000001e0: 0cf1 e5be bc29 42be ec64 c53e a702 673e
000001f0: d0c2 8ebd b810 d5be 1a3e 9cbe 8256 e2be
00000200: ab8b a73e a204 5a3e 1898 c13e ca5e 0cbe
00000210: 9434 413e 11b0 0dbe 629d 7abe f2ab 483e
00000220: 041b 4f3e e49d 9b3d 4b25 5c3e 68e5 1a3e
00000230: 38ca 9b3e 34d7 31be db2a ae3e a7e2 d13d
00000240: 84de 4fbd 247f 8dbe f438 e63d d6d7 f1bd
00000250: 15d8 a03e ed6c 563d 7a82 a93e d0ed 083e
00000260: e4c1 d0be caa6 853e f090 debe 3a2e 093e
00000270: 1da2 2ebe 6c31 fbbe 314e 923d 16e5 aa3e
00000280: ebb6 8e3d 4bb2 b03d 2be7 71be 6887 d43e
00000290: 86fa 8c3d f14b eebe f499 d9be fcdb 943e
000002a0: fb8f 33be ec2a c0be 756a d73e ff5a 18bd
000002b0: 75af c93e b7a9 a2be e48f e0be 5559 d8be
000002c0: 0e68 84be 3018 f1be 1c24 8b3e da45 e33e
000002d0: 9591 5ebe 23d2 b1be 7513 e6be b8f2 f13e
000002e0: a567 dc3e b456 903e 1876 81be 052c e83e
000002f0: 5606 2cbd 0063 963e 844c adbe c7b4 f6bd
00000300: 2ffb 043d 6d30 a53e fe4d 1a3e 0dfe b43e
00000310: ca23 ee3e 2646 143d b90e 423e c631 b8bc
00000320: 0813 ec3a ac0b 90bd e956 cb3e ade5 683d
00000330: 5a3d c2be 600c b0bc 5212 f5be 46e8 f7be
00000340: 9ed4 0abe b668 3ebe c46b 67bd 3d1f 163e
00000350: c06e 35be a61a e8be 580c c23d baab 87be
00000360: f40e 053e c146 a73d 568e d73e 4f97 81be
00000370: 0966 653d c690 f5be f24c e7be aefe 813e
00000380: 721d 83be 7ac7 2abe 94e9 80be eed4 c43d
00000390: 9eda dabe 62a6 36be 8b78 a93e e453 663d
000003a0: a1ce bf3d 014e 38be 30fd 393e d43d b9be
000003b0: 2ddb 4dbd b7c9 ffbc 91ab 87be 2eda e73e
000003c0: 2609 3a3e 26da c63d 0c5f c23c a115 67bc
000003d0: e1f5 f13e 9aef d3be 8da9 423d ae34 893d
000003e0: 9088 4dbe cfa6 1dbe fb7a 513e e5d9 553e
000003f0: 6c78 853e 0510 3b3e 2e03 e93e dcab ba3e
0.061052762 0.047578305 -0.45902056 0.037824888 -0.032092996 0.23885551 0.47127917 -0.34169987
0.41652697 -0.3512013 0.22903219 -0.117359005 -0.36277202 0.44140503 -0.35680985 -0.07806855
-0.41725668 0.150068 0.35191464 -0.3649544 -0.14847422 0.21712841 -0.28177485 -0.0126354145
-0.30316898 0.32682243 -0.07738407 -0.1185355 0.1660111 0.0571034 0.46555677 -0.21141781
-0.10348484 0.4415455 0.14451729 -0.20441361 0.44748485 0.49366933 -0.36081105 -0.49157575
0.121161595 -0.22117032 0.22358888 0.46531558 0.38819885 -0.35984972 -0.19925837 0.21701181
-0.35219976 0.27148882 -0.43701667 -0.17946762 -0.46567208 0.34348285 -0.4287693 0.13442378
0.38712707 0.1356902 0.39381328 -0.03060861 -0.25043848 0.021402884 0.09516198 0.27085927
-0.05651141 0.4749806 -0.25078332 -0.3710607 -0.05470771 0.039587967 -0.03676738 -0.4436096
0.22911446 -0.2800686 -0.41174206 0.09769398 -0.08330423 0.121000044 0.20233238 0.10594767
-0.3432441 -0.25483996 0.47618163 0.07577983 -0.15587777 0.38537607 -0.4577859 0.47977757
-0.42707163 -0.46977267 0.061167322 0.47195396 -0.31341547 -0.030114712 0.32770735 0.25695172
-0.01903697 0.3087666 0.14718683 0.18373753 0.1678493 -0.24218895 -0.03281538 -0.47121415
0.4727445 0.34633103 -0.17900516 -0.18972985 -0.07843136 0.06752016 -0.028085781 0.13967678
0.36387247 -0.23629968 0.4577134 -0.38678655 -0.38979656 -0.09161921 0.20229162 0.12994234
-0.44910467 -0.18961233 0.3855356 0.22559606 -0.06970751 -0.41614318 -0.3051613 -0.44206625
0.32723746 0.2129083 0.3781135 -0.13708034 0.18867713 -0.13836695 -0.244741 0.19596842
0.2022515 0.075984746 0.21498601 0.15126574 0.30427718 -0.1736725 0.3401707 0.10248309
-0.050749317 -0.27636063 0.11241332 -0.118087456 0.31414858 0.052349973 0.33107358 0.13371968
-0.40772927 0.26103812 -0.43469954 0.1339654 -0.17054029 -0.49061143 0.0714382 0.33377904
0.069684826 0.08627757 -0.2362334 0.41509557 0.06883721 -0.46542314 -0.4250027 0.29074085
-0.17535393 -0.37532747 0.42073408 -0.037196156 0.39391676 -0.31770107 -0.4385978 -0.42255655
-0.25860637 -0.47088766 0.27175987 0.4438923 -0.21735223 -0.34730634 -0.4493672 0.47255492
0.43047825 0.2819115 -0.2528541 0.45346084 -0.04199823 0.29372406 -0.3384744 -0.12046199
0.03246611 0.32263508 0.15068814 0.35350075 0.4651168 0.03619971 0.18950929 -0.022484671
0.0018011043 -0.07033476 0.39714745 0.05685966 -0.37937433 -0.021490276 -0.4786554 -0.48419398
-0.1355767 -0.18594632 -0.056499258 0.14660354 -0.17718029 -0.4533283 0.09475011 -0.26498204
0.12993985 0.08167792 0.4210078 -0.25310752 0.05600551 -0.47962016 -0.45175892 0.25389618
-0.25608402 -0.16677657 -0.25178206 0.096109256 -0.42744917 -0.17836908 0.3309978 0.056232348
0.09365583 -0.17998506 0.1816299 -0.36179984 -0.05025785 -0.031224115 -0.26498082 0.45283645
0.18167552 0.09709577 0.023726963 -0.014104278 0.47257903 -0.4139374 0.047524977 0.06699501
-0.20071626 -0.15395664 0.2045707 0.20883901 0.26068437 0.1826783 0.45510238 0.36459243

fc1.bias f4 [64]
00000000: 727c be3e b1c2 a33e 522c a93d e803 003f
00000010: 86ac cc3e 0d31 bcbe e0a5 2c3c 4076 70be
00000020: c19f d1be 3618 66be 879b f4be 3107 3cbe
00000030: 4185 86be d72b 483e c3ef fa3e 8165 b5be
00000040: 415b b3be 6e2b ed3e 1578 41bd f6dc 8dbe
00000050: b179 b73d 1d05 a73e 5aa7 b33e 2728 ed3e
00000060: c4df c13e c852 b5be 4e91 763d 0f66 b4bd
00000070: b895 f5be 2402 9dbc 1823 e4be 48e7 d3be
00000080: 1a84 fc3c 2432 033e bfa1 c53d a59a bfbd
00000090: f3bc 913e 06b5 aebd 7f35 00bd 5730 bbbd
000000a0: 22ea 753a 61f2 82bb 5364 523e 4e94 92bd
000000b0: b072 893d 2819 c73e 0f9b 443d 093e 063e
000000c0: fb68 f5be 87f4 ad3e 7662 80be 3071 72be
000000d0: 8e65 7fbd 28cf cfbd bb7a 0dbe 4834 3d3e
000000e0: 14e5 92be 00a2 e3be 74af ea3e 3a80 133e
000000f0: e362 dfbe 3556 9f3e 7c20 cdbe 4109 ecbd
0.3720432 0.31984475 0.082604066 0.5000596 0.39975375 -0.36756173 0.010537595 -0.23482609
-0.40942195 -0.22470173 -0.47774908 -0.18362118 -0.2627354 0.19547974 0.4901105 -0.35429004
-0.3503056 0.46322197 -0.04723366 -0.27707642 0.08958758 0.3262109 0.35088617 0.46319696
0.37866032 -0.3541472 0.060197167 -0.08808529 -0.4796579 -0.01916606 -0.44558024 -0.4138739
0.03082471 0.12812096 0.09649991 -0.09355668 0.2846447 -0.08530621 -0.031301018 -0.091400795
0.0009380897 -0.003996179 0.20546083 -0.07157193 0.06711328 0.3888638 0.047999438 0.13109602
-0.47931656 0.33975622 -0.2507512 -0.2367599 -0.06235271 -0.10146934 -0.13816349 0.18476975
-0.28690398 -0.44459534 0.45836985 0.14404383 -0.43630132 0.31120458 -0.40063846 -0.115252025

fc2.weight f4 [64, 64]
00000000: 3f31 aebd 1c67 edbd 43d6 733d 3a32 453d
00000010: 5422 533d cebf 803d ab9a 953a 187b f3bc
00000020: aa2e 96bd ff47 b43c d207 ee3d adcc b23d
00000030: 8065 fe3a d917 323d d705 66bd 3b08 7c3d
00000040: ef77 573d eebf d6bd e489 7ebd cf7a b43d
00000050: b4c2 d93b e0bf 7e3d 74c0 16bd 8c21 1ebd
00000060: 2589 003d c436 443d bc31 b5bc 48ab ca3d
00000070: 1492 c1bd 9b47 dabd 3ccd d43d a41d 703d
00000080: 4714 603c b4a6 fcbd 25e8 b0bd 0a59 47bd
00000090: 40c1 353b d3d7 d43d f598 b5bd d79c 903c
000000a0: 2cab c0bc 814e 4f3b 0268 873d 5e6c dcbd
000000b0: eb6f d63c b602 e53d 058a c0bd 7f4a 42bd
000000c0: e1b0 6abd c12d 4b3d 2965 ffbd 14e6 3dbd
000000d0: 2fe3 b23c 06fc b5bd ad74 e0bd e0b4 8a3d
000000e0: a8ad ef3d 9d07 093d 3809 463d 1e93 ccbc
000000f0: f86d 0dbb 8441 7c3d dd85 ddbd 1451 c93d
00000100: 617d 4a3c da02 983c 0a7b ec3d 7d61 4c3d
00000110: 29ca 9a3a efb0 a9bc e585 583c 4c98 b0bd
00000120: 87cd b4bd 4812 fbbd 2eef bbbd 0e9b febc
00000130: 7d59 903d 9e8b c93c 078b c7bd 0b6e c2bc
00000140: 9d84 74bd cfa9 1b3d 8ad3 003d 42b7 8fbd
00000150: 76ed c63c ae26 d93d dea5 afbb 97a9 b43d
00000160: 0282 43bd ac17 9b3b ae10 7f3c c7a2 2d3d
00000170: f7e4 4c3d 8398 89bc b263 d33c c6f3 a3bd
00000180: 8990 ce3d 6b71 62bd f560 acbd 92e6 383d
00000190: 453a 6dbd 35b4 843d 2073 0bbd d8c7 dabc
000001a0: 74b5 e63c eae5 773d 9a75 a8bd 489a b53d
000001b0: 936e b13d 1dfe c4bd 11b5 4abd e623 df3d
000001c0: f717 5c3d 861c 7bbd 8fa1 013c f6c1 dcbd
000001d0: a06c f63c 6a8e be3d f117 1e3d 14c0 40ba
000001e0: ff36 8b3d 50ff 9abc 2943 c83d 11e0 863d
000001f0: b2d9 dabc 4e37 c63d e03b e2bd 7523 8dbd
00000200: 407f 32bc 00ab d8bd 4076 963d 0a2d fdbd
00000210: f03c 68bd e4e6 bdbd c0d8 3bbb 88fc 5dbd
00000220: d0fa 91bd 18d9 bcbd 00dc f23c f0b3 d5bc
00000230: 2815 693d 4c62 773d 3045 c43c 52e5 833d
00000240: 206f f5bd 6ebe 833d 9c05 263d 88ee c23d
00000250: 164e c1bd 70f0 4cbd 2019 5bbc f0b1 753d
00000260: 5830 843c c0e2 6ebb 64b8 ec3d b095 ddbd
00000270: 781e 3d3d a021 a93c 40b4 e2bd c8e9 f43d
00000280: 5ce1 343d c4a4 e5bd 18ee bdbd 7625 ae3d
00000290: 5689 e7bd 2488 c7bd bcb2 c0bd 42c5 d63d
000002a0: ce53 c33d 68d4 c9bd ccfc e83d 0889 c2bd
000002b0: d8cb d2bd 14fc 4cbd 80a0 3d3b 16f7 b93d
000002c0: d0b6 293c 8874 cebd 3c9f 993d 7aaa ebbd
000002d0: d235 d43d 70ca 3abd 1a36 c43d 521a a1bd
000002e0: 480e b13d fab5 df3d c80f 6cbd c423 cbbd
000002f0: 5417 09bd 020c a0bd 4400 84bd 0010 263b
00000300: 915d 1abc 6f9c b6bd 057f 2bbd cb49 d83d
00000310: 4007 3f3d a0dd 833d 0458 abbd e559 ad3d
00000320: 0b3c aabd ab80 923d be4c ddbd aa3c df3d
00000330: 1cd4 05bd 7876 90bd a558 973d fc8f 643d
00000340: 0c28 cabd 790d 8e3d 48c6 993c 0a37 10bd
00000350: 248d 6d3d 04bd 8d3d ec1b 39bd 75c4 4fbd
00000360: 174b e1bd 2f79 c8bd 831f fcbc a6f0 73bc
00000370: 6e1c 9ebd 38d9 bfbc 8082 e53a f081 b73c
00000380: dd1b b6bd 6f80 d83d 37e1 6d3c 7432 8e3d
00000390: d955 9b3d b1f7 d8bd 78fb 2d3d 609d c3bd
000003a0: 59c0 fdbd d250 e83d 011e 3e3d 3a1f 26bd
000003b0: 505f e0bd 1b3e 96bd 76e0 8b3d cfb0 b3bd
000003c0: 2ebd 94bd 13a5 f5bd fb63 8dbd 2468 49bd
000003d0: 50b9 17bc 20bc 83bb ae85 e33d 6a4d f1bd
000003e0: ca36 cebd 40a0 82bc 6977 92bd a404 b9bc
000003f0: 6f25 cb3d 79aa df3d 9a87 a9bd df87 ee3d
-0.08505487 -0.11591932 0.059530508 0.048143603 0.05154641 0.06286584 0.0011413892 -0.029721782
-0.07333119 0.022006987 0.11622585 0.08730445 0.0019408911 0.043479774 -0.056157913 0.061531287
0.052604612 -0.104858264 -0.06214322 0.088124864 0.006645525 0.062194705 -0.03680463 -0.03860621
0.03138079 0.04790379 -0.022118442 0.098959506 -0.0945169 -0.10658189 0.10390708 0.058622018
0.0136767095 -0.123364836 -0.08638028 -0.0486689 0.0027733594 0.10392728 -0.08867065 0.017652912
-0.023519121 0.0031632485 0.06611635 -0.10762857 0.026176414 0.11182158 -0.09401325 -0.047434326
-0.05729759 0.04960418 -0.12470467 -0.046361998 0.021836845 -0.0888596 -0.10959754 0.067727804
0.11703044 0.033454526 0.048348635 -0.024972495 -0.002158044 0.061585918 -0.10816548 0.098299176
0.012358994 0.018556047 0.11546905 0.04989766 0.0011809516 -0.020714251 0.013215517 -0.08622798
-0.08828264 -0.12259346 -0.09176479 -0.031079795 0.070483185 0.024602707 -0.09743314 -0.023734113
-0.059696782 0.03800374 0.03145174 -0.070173755 0.024283152 0.10603081 -0.005360349 0.08821409
-0.047731407 0.0047330465 0.015567942 0.042391565 0.050023045 -0.016796356 0.025804374 -0.080054805
0.10086162 -0.055283945 -0.084169306 0.045141764 -0.0579169 0.06479684 -0.03404534 -0.026706621
0.028162695 0.060521998 -0.08225556 0.088673174 0.086636685 -0.09618781 -0.049489085 0.10895519
0.053733792 -0.0613065 0.007912054 -0.107791826 0.030081093 0.09304507 0.03859705 -0.00073528406
0.06797599 -0.01892057 0.09778435 0.06585706 -0.026715133 0.09678517 -0.110465765 -0.068915285
-0.010894597 -0.10579491 0.07346773 -0.12362106 -0.05669874 -0.092725545 -0.0028663129 -0.05419591
-0.07127917 -0.09221095 0.02964592 -0.026086777 0.05690494 0.060396478 0.023958772 0.06440224
-0.11984086 0.06432806 0.040532693 0.095181525 -0.09438722 -0.050033987 -0.0133726895 0.059984148
0.016136333 -0.0036451072 0.11558607 -0.10819566 0.046171635 0.020645916 -0.11069536 0.11958653
0.044160232 -0.11213067 -0.092739284 0.08503239 -0.113054916 -0.09742764 -0.09409091 0.10486843
0.09537469 -0.098549664 0.11376342 -0.09498793 -0.10292786 -0.050045088 0.0028934777 0.09080331
0.010358527 -0.1008082 0.07501075 -0.11507125 0.10361828 -0.045603216 0.095806316 -0.07866348
0.08645302 0.10923381 -0.057632238 -0.09918931 -0.033469513 -0.0781479 -0.06445363 0.0025339127
-0.009421722 -0.08916556 -0.041869182 0.1056095 0.046637774 0.06438756 -0.08366397 0.08464412
-0.083122335 0.07153448 -0.10805653 0.109002426 -0.032672986 -0.07053846 0.073899545 0.055801377
-0.098709196 0.069361635 0.018771306 -0.03520874 0.05799593 0.069208175 -0.045192644 -0.050724465
-0.110006504 -0.09788739 -0.030776745 -0.014888918 -0.07720266 -0.023419008 0.0017510206 0.022400826
-0.08892033 0.10571372 0.014519027 0.06943217 0.075847335 -0.105941184 0.042476147 -0.09551501
-0.12390203 0.1134354 0.046415333 -0.040557124 -0.109556794 -0.073360644 0.06829922 -0.08773958
-0.07262646 -0.11994376 -0.069038354 -0.049171582 -0.009260491 -0.004020229 0.11109482 -0.11782344
-0.10069044 -0.015945554 -0.07151682 -0.02258522 0.09919249 0.10921187 -0.08277817 0.11647009

fc2.bias f4 [64]
00000000: 9699 d0bd 5397 ab3d b066 d8bd 28d3 153d
00000010: b277 9d3d b81c f9bc 8e7a 2abd 1336 9e3d
00000020: 9b2e 923c eccb a83d 27be 883d 6d82 c73d
00000030: 9afb 9fbd 49c2 fbbd 6fe4 70bd 64d3 833d
00000040: c6d7 e0bd 44e6 953d 5f1c 3cbd 7ac3 adbd
00000050: 40a1 753c d99f c0bd 6de7 d6bc e373 2bbc
00000060: 9b25 0e3d 959b fa3d 6bad 9e3d 6234 e2bd
00000070: 5955 38bd 227d a6bd 6d70 b03d d281 bfbd
00000080: a363 d53d 9bc7 553d 7be8 7b3d 3389 c5bd
00000090: 0bcb ad3d e88b dcbd 06ce efbd 536a 0c3d
000000a0: c604 b1ba 5289 b4bd 188e cc3c 5676 63bc
000000b0: 1f5a 3dbd 4655 99bd 7a8a f63b a0d4 bdbd
000000c0: 5453 23bd 0232 7e3d 7743 f33d df2f d0bd
000000d0: 407a 8eba 583c 003b 0df6 943d 974a 97bc
000000e0: 85cc 56bc ec02 4c3c cad0 a83d 1268 c33d
000000f0: a7f4 223d cdc9 643d faac 9fbd c6fc 12bd
-0.10185544 0.08378472 -0.10566461 0.036578327 0.07688846 -0.030409202 -0.041620784 0.077251576
0.017844489 0.0824202 0.06676894 0.097416736 -0.07811661 -0.12292916 -0.0588116 0.06436804
-0.109786555 0.0731931 -0.045925494 -0.0848455 0.014992058 -0.094054885 -0.0262334 -0.010464641
0.034703832 0.12236706 0.077479206 -0.110451475 -0.04500327 -0.08129336 0.086151935 -0.09350933
0.10419395 0.05219231 0.061501008 -0.09645309 0.08485993 -0.107688725 -0.11709218 0.034281086
-0.0013505451 -0.08815254 0.0249701 -0.013883194 -0.046228524 -0.07486968 0.007523832 -0.092690706
-0.03987439 0.06205941 0.11878102 -0.10165381 -0.0010870174 0.0019567218 0.07273493 -0.018468184
-0.013110285 0.0124518685 0.08242948 0.09541334 0.0397841 0.055856515 -0.077966645 -0.035885595

fc3.weight f4 [6, 64]
00000000: 403b c8bd 2ae7 0f3c 460e e3bd 7ad3 cebb
00000010: 9cce 033c 4acf bebd 5b69 fcbc 8581 a63c
00000020: 9aca 773d 5e5d 4c3d f203 7fbd eb37 a53b
00000030: b156 39bc 44f1 ab3d bd2b 713d b014 aabc
00000040: 5d73 a63d 44db a93d 4558 723d 6a8f 96bd
00000050: 9050 193c 5550 183d 88ff d03d f97d 133d
00000060: 2e15 be3c 2b6e c73d 7531 62bd 7395 3bbc
00000070: 701e 4cbd 4c80 e6bd e8f9 2a3b b470 143c
00000080: c605 f93d 290d 03bd bb2f 0d3d ddd1 6c3c
00000090: 2023 e93c 5905 fe3d 4be6 383d 3718 653d
000000a0: 32da a83d 127c 91bd 5379 ebbc 7516 42bd
000000b0: 28ae ab3d 0073 e03d c185 95bd 14a1 b13d
000000c0: 2802 e9bc 92d0 7f3d 70eb 8f3c 4cc2 52bd
000000d0: 24d5 c8bd b730 32bd e74d f0bd 5705 aa3d
000000e0: 38fa a1bd 8165 3b3c 128f f7bd 7aa2 cdbd
000000f0: e345 a3bd 67f6 943c dd8b c73c 02eb dfbd
00000100: 46de 3fbd 057e b13d fe0d debd 6e8f 713d
00000110: d7a4 6abd 5bec 2d3c ef36 af3d 6134 30bd
00000120: ca72 fbbd 9076 93bd c9b1 933d 86b2 0fbc
00000130: dbf1 34bd 0839 7ebb b96b 31bd 3eee de3d
00000140: 599a b03c d1d7 a8bd a0ca 503d 83e9 53bb
00000150: da85 bb3d 4445 473d f670 dc3d a5fb 1c3d
00000160: 4be3 163c 8121 b03d 0adb d73d 2954 393d
00000170: 3183 6d3d 6cf3 a3bd 6b08 a9bd 93e8 8c3d
00000180: 807c d83d 725b ebbd 7f44 513d cd02 a33c
00000190: 06c7 e0bc db4e b03d 51d5 273d 103f fe3d
000001a0: e9fb 38bd 4c06 24bd daa8 f1bd 196e 80bd
000001b0: f0ab f83d 7415 1dbd 1b8a a63d 53d0 0abd
000001c0: 90b0 85bd f56d 53bc d56a 19bc 8408 f63d
000001d0: e386 64bd 0872 cfbd 0e59 bfbd de96 e13d
000001e0: 9468 b93d 0f46 aa3d c0fb c5bc 0649 4b3b
000001f0: 345f adbd 0031 203d 4240 51bd daa3 75bd
00000200: dbe1 9fbd 46bf 47bd 302a 57bc 2080 bd3d
00000210: 002a cabd 9184 c0bd 9f8f 543d ff46 a63d
00000220: 2082 b23b f966 243d 8e82 9ebd 37c8 81bc
00000230: 18a1 933d d583 43ba 9105 e1bd 3863 333d
00000240: ca2b 9bbd 29d5 50bc 00fe 4cbc 8a74 fa3d
00000250: 46be e23d 8061 e03d a752 a33d 11ba e1bd
00000260: 1d5e 97bd 0466 b33d 94bd c33c 21e6 543b
00000270: fa37 16bd cde4 eb3d d0fb 8b3d 4e69 44bc
00000280: bdb6 aa3b 02c4 33bd f49f 8ebd e755 513d
00000290: 8f7c 79bd 1508 fdbd e8fd aebd f434 9abc
000002a0: 614a d73d 77c7 953b dd87 a3bd 295e d23d
000002b0: 2c30 063d ccb3 013d fc59 20bd 4316 ba3d
000002c0: 00ff ab3b aecd a43d 383f 8c3c 9b6c 9d3d
000002d0: 6ca3 673c 658c ae3d 4a78 713d 1f63 9c3d
000002e0: de04 f2bd 17a5 c13c d43e 8b3d 4c9e 2d3d
000002f0: a23e 243d 1cf9 aabd d79a b6bd c032 8e3d
00000300: 34c2 e0bd 3f59 f9bd 5c0a 743d d282 2dbd
00000310: 2389 f6bc 5f26 9dbd 38ad 5c3d 035b 953c
00000320: ec90 013d e925 3cbc 6589 eabc feb9 363d
00000330: 6d9a eebd b31f e1bd 8fda 443d e217 f0bd
00000340: e7fb e03d 7350 45bd 6883 923d e95e 2abd
00000350: d089 f43d a3ab 933d 6a71 f6bd 3c8b 623c
00000360: 9344 d5bd 0c56 a93d d33a fdbd 878f 8d3d
00000370: 13c7 973d 7303 cfbd 393f f8bd 47cd 78bb
00000380: 4cee 493c b801 cdbd bb69 363d 9e76 2c3d
00000390: 1cb6 5dbd 0eda ea3c 9f21 2abd adea 5dbd
000003a0: dbce acbd 7260 dfbc 53e2 823d 4224 abbd
000003b0: 6da8 8dbd 0e8e 9dbd ebae babd 064e 86bd
000003c0: 1810 c13d fb54 3b3d fbbc 64bd 9cb1 a2bd
000003d0: f282 ca3d c527 cb3d 613b a23d 7c20 debc
000003e0: d5f5 9fbb 37b9 0cbc 6e9a b6bd 1aef 3d3d
000003f0: 7fd7 4d3d 75ba ae3a aad7 be3d 93e1 b4bd
-0.09776926 0.008783141 -0.11086707 -0.006311831 0.008044865 -0.09316881 -0.030811956 0.020325432
0.06049595 0.04989373 -0.062259622 0.0050420663 -0.011312173 0.08395627 0.058879603 -0.020761818
0.081274725 0.08293775 0.05916621 -0.07351573 0.0093575865 0.037185986 0.10204989 0.03600881
0.023203459 0.0973781 -0.055222947 -0.011449206 -0.049833715 -0.112549394 0.0026088897 0.009060074
0.12159304 -0.031994972 0.034469347 0.014454332 0.028459132 0.12403364 0.0451415 0.055931296
0.082447425 -0.07103743 -0.028744375 -0.047384698 0.08382827 0.109594345 -0.07300902 0.08673301
-0.028443411 0.062454768 0.01756832 -0.051454827 -0.09806278 -0.04350349 -0.11733609 0.083018
-0.079090536 0.011437775 -0.12087835 -0.100407556 -0.07972314 0.0181839 0.024358684 -0.10933496
-0.046842836 0.086666144 -0.108425125 0.058974676 -0.05728611 0.010615434 0.085553996 -0.043018702
-0.12277754 -0.072003484 0.07211644 -0.008770591 -0.044175964 -0.0038791317 -0.043315623 0.10885285
0.021557974 -0.08244289 0.05097449 -0.0032335229 0.091563895 0.04865004 0.10763733 0.038325924
0.009209464 0.0860014 0.10539825 0.045246277 0.057986442 -0.080054134 -0.08253559 0.068802975
0.105706215 -0.11492051 0.051090714 0.019898796 -0.027438652 0.086087905 0.04097492 0.12414372
-0.045162115 -0.040045068 -0.11799784 -0.062709995 0.121421695 -0.038350537 0.0813181 -0.03389008
-0.06527817 -0.012904634 -0.00936385 0.12013343 -0.0557927 -0.101291716 -0.09343158 0.11015104
0.0905315 0.08314144 -0.024167895 0.0031018867 -0.08465424 0.03910923 -0.05108667 -0.059970714
-0.078067504 -0.048766397 -0.013132617 0.092529535 -0.09871292 -0.09400285 0.05189478 0.0811901
0.005447641 0.040137265 -0.07739745 -0.01584254 0.072084606 -0.0007458304 -0.1098739 0.043795794
-0.075767115 -0.012746134 -0.01251173 0.12229259 0.11071448 0.10956097 0.07974749 -0.110218175
-0.073909976 0.08759692 0.023894109 0.00324858 -0.036674477 0.1151825 0.06835139 -0.011987997
0.0052097724 -0.0438881 -0.069641024 0.051107313 -0.060909804 -0.12355057 -0.085445225 -0.018824078
0.105122335 0.004570897 -0.07984898 0.10271866 0.032760784 0.03166561 -0.039148316 0.09086277
0.005248904 0.08047043 0.017119989 0.076867305 0.014138084 0.08522872 0.058952607 0.07636093
-0.118173346 0.023638291 0.06799093 0.04238729 0.040098794 -0.08348295 -0.08916252 0.069432735
-0.10974541 -0.121752255 0.059580192 -0.042361088 -0.030094689 -0.07673334 0.05387613 0.018231874
0.03163235 -0.011483648 -0.028629968 0.04461097 -0.11650548 -0.10992374 0.048059996 -0.11723305
0.109855466 -0.048172425 0.0715397 -0.04159442 0.11940348 0.072104715 -0.12033351 0.013827141
-0.1041347 0.08268365 -0.123647355 0.06912141 0.07411017 -0.1010808 -0.12121434 -0.0037964152
0.012324881 -0.100100935 0.044534426 0.04210531 -0.05412875 0.02866843 -0.04153597 -0.054178882
-0.08437892 -0.027267668 0.06390824 -0.08356525 -0.0691689 -0.076931104 -0.09115394 -0.065578505
0.09426898 0.04573534 -0.05584429 -0.079440325 0.09888257 0.09919695 0.07921482 -0.0271151
-0.0048816004 -0.008589081 -0.08916174 0.046370603 0.05025434 0.0013330715 0.093184784 -0.08832087

fc3.bias f4 [6]
00000000: ccce fd3d cded f6bd 3bf1 b3bd 15b8 f23c
00000010: 90a2 19bd be77 edbd
0.12392959 -0.12057076 -0.087862454 0.029628793 -0.037508547 -0.11595105

fc1.weight f4 [64, 4]
00000000: 30d6 7b3d 70b5 443d 10d8 eabe c08a 1a3d
00000010: 40af 01bd d807 753e f281 f13e ccd6 aebe
00000020: 825a d53e 20bd b3be 90d4 6a3e 88e4 efbd
00000030: a0f7 b9be 96c4 e13e 26dd b6be d004 a0bd
00000040: d094 d5be dcc9 193e 723b b43e 74d4 babe
00000050: 90a5 17be 24c0 5e3e cc2c 90be c010 4fbc
00000060: ae07 9bbe 208b a73e 0049 9ebd 889f f2bd
00000070: a8ee 293e b0b5 693d 9a3f ee3e 648c 58be
00000080: 70c8 d4bd 90d8 e13e 68ad 133e 4c88 51be
00000090: 80e4 e43e ae88 fc3e 58e7 b8be 38c7 fbbe
000000a0: 0808 f83d f094 62be 8400 653e 2c42 ee3e
000000b0: 8488 c63e 7076 b8be 347a 4cbe 2c26 5e3e
000000c0: 6284 b4be 7ece 8a3e 00db dfbe f8d5 37be
000000d0: 9255 eebe 52f5 af3e ee80 dbbe 6cb1 093e
000000e0: 0855 c63e 903d 0b3e d2c4 c93e 0041 fabc
000000f0: c430 80be e0a4 af3c e8f4 c23d f2ba 8a3e
00000100: b02d 66bd b857 f33e b44c 80be 2804 bebe
00000110: 60fb 61bd a039 203d 903d 18bd fc23 e3be
00000120: ece3 6a3e 8045 8fbe c2b1 d2be b864 c83d
00000130: 3023 abbd 8042 f73d ace9 4e3e f01d d93d
00000140: bcbe afbe b08b 82be bac7 f33e d825 9b3d
00000150: 1c11 20be 4016 c53e e68d eabe 64b7 f53e
00000160: 7a90 dabe 7073 f0be 8045 7b3d ecbe f13e
00000170: 9455 a0be a0b8 f4bc e0e8 a73e 16b0 833e
00000180: 80be 9fbc 68d9 9d3e 9452 163e 580e 3c3e
00000190: 94a0 2b3e 2434 78be 8070 07bd 124e f1be
000001a0: ccfd f13e 3249 b13e 1c8a 37be 7846 42be
000001b0: 9882 a1bd d064 893d e094 e8bc 68ce 0e3e
000001c0: d287 ba3e e883 71be b28d ea3e 00ef c5be
000001d0: b0ad c7be 7000 bcbd d806 4f3e 08d1 043e
000001e0: f8fb e5be bc27 42be 425a c53e 0010 673e
000001f0: d0c2 8ebd b810 d5be 1a3e 9cbe 8256 e2be
00000200: 704f a73e 948c 593e 4e5f c13e 2479 0cbe
00000210: 70a8 413e 443d 0dbe 2436 7abe 90cb 483e
00000220: 38a4 4e3e 38ab 9a3d d0ba 5b3e acba 1a3e
00000230: 9cae 9b3e 200e 32be ea28 ae3e b823 d23d
00000240: 30d3 4fbd 7086 8dbe b038 e63d 58ea f1bd
00000250: c412 a13e 8044 583d cebd a93e 2cff 083e
00000260: c4ef d0be 2079 853e 8c9c debe b431 093e
00000270: a071 2ebe d41e fbbe b8bb 923d 5c06 ab3e
00000280: 18d2 8d3d 30c4 af3d 9019 72be 367e d43e
00000290: e89e 8c3d 1e59 eebe 44b3 d9be c2c8 943e
000002a0: 3483 33be 0820 c0be e06e d73e b039 18bd
000002b0: 2e73 c93e a4e5 a2be c2c7 e0be 3c72 d8be
000002c0: c474 84be 701e f1be 8c0f 8b3e 7838 e33e
000002d0: 50bd 5ebe 7ae0 b1be 6e28 e6be 50e1 f13e
000002e0: 7a9e dc3e 468d 903e 364b 81be b02a e83e
000002f0: d0b4 2dbd f62b 963e ea7c adbe 08de f6bd
00000300: c0c7 033d 7807 a53e c438 1a3e f4f4 b43e
00000310: be60 ee3e 702f 163d 5483 423e 60d8 b5bc
00000320: 00db 113b 8836 8fbd 908c cb3e 6089 693d
00000330: 5a3d c2be 600c b0bc 5212 f5be 46e8 f7be
00000340: d4ca 0abe d86a 3ebe 6033 67bd 6c1a 163e
00000350: c06e 35be a61a e8be 580c c23d baab 87be
00000360: 684f 053e e8c5 a73d aaaa d73e 86a5 81be
00000370: e016 653d 9098 f5be 6250 e7be dafd 813e
00000380: 721d 83be ecb5 2abe 94e9 80be 08f8 c43d
00000390: 4ecb dabe c092 36be b887 a93e 90ce 663d
000003a0: 3088 c03d 74f6 37be d05e 3a3e da22 b9be
000003b0: 207b 4dbd 401e ffbc fa9d 87be 3ee4 e73e
000003c0: 6881 3a3e c8cb c73d e00c c63c 0016 64bc
000003d0: 36c3 f13e 7822 d4be a00e 413d 404d 893d
000003e0: c488 4dbe c4a3 1dbe a46a 513e 7c03 563e
000003f0: 687e 853e 20ef 3a3e 641a e93e d8a1 ba3e
0.061483562 0.048024595 -0.45867968 0.03772998 -0.031661272 0.23928773 0.47169453 -0.34148252
0.41670614 -0.35105228 0.22932649 -0.11713511 -0.36321735 0.44095296 -0.35715598 -0.07813418
-0.41715097 0.1501841 0.35201603 -0.36490214 -0.14809251 0.21752983 -0.28159177 -0.012638271
-0.30279297 0.3272333 -0.077287674 -0.118468344 0.16594946 0.057058036 0.465329 -0.21147305
-0.10389793 0.44110537 0.14421618 -0.2046215 0.44705582 0.49323028 -0.36114 -0.4917543
0.12110907 -0.22127128 0.22363478 0.4653486 0.38776028 -0.3602786 -0.19968492 0.21694249
-0.3525725 0.27110666 -0.4372177 -0.17952716 -0.4654966 0.34366852 -0.42871803 0.13446587
0.3873675 0.13597703 0.39407974 -0.030548573 -0.25037205 0.021440923 0.095193684 0.27095753
-0.056195915 0.47527862 -0.2505852 -0.37112546 -0.05517137 0.039117455 -0.037168086 -0.4436339
0.22938508 -0.27982712 -0.41151243 0.097848356 -0.08356321 0.12073231 0.20206326 0.10601413
-0.34325206 -0.25497198 0.47613317 0.075755775 -0.15631527 0.38493538 -0.45811385 0.47991478
-0.42688352 -0.46963072 0.061345577 0.47215974 -0.3131529 -0.029873192 0.32794857 0.2572028
-0.019500017 0.3082993 0.14679939 0.18364847 0.16760474 -0.2423864 -0.033066273 -0.47129875
0.47263944 0.34626156 -0.17923778 -0.18972194 -0.07886237 0.067086816 -0.028391302 0.13945925
0.36431748 -0.23585474 0.4581123 -0.38658905 -0.389997 -0.09179771 0.20217454 0.12970364
-0.449188 -0.1896047 0.38545424 0.22564697 -0.06970751 -0.41614318 -0.3051613 -0.44206625
0.32677794 0.21245033 0.37768024 -0.13718086 0.1891191 -0.13792902 -0.24434716 0.19608903
0.20179832 0.07552189 0.21457982 0.15110272 0.30406654 -0.17388201 0.3401559 0.10260719
-0.050738513 -0.2764163 0.11241281 -0.11812276 0.3145963 0.0527997 0.33152622 0.1337859
-0.40807927 0.26068974 -0.4347881 0.13397866 -0.17035532 -0.49046957 0.07164711 0.3340329
0.06924838 0.08582342 -0.23642564 0.4150254 0.068662465 -0.46552366 -0.4251958 0.29059416
-0.17530519 -0.37524438 0.42076778 -0.03716439 0.39345688 -0.31815827 -0.43902403 -0.42274654
-0.25870335 -0.47093534 0.271603 0.4437902 -0.21751904 -0.34741575 -0.4495272 0.47242212
0.43089658 0.28232783 -0.25252694 0.45345068 -0.042408764 0.29330415 -0.33884364 -0.12054068
0.03217292 0.3223226 0.15060717 0.35343134 0.46558183 0.036666334 0.1899541 -0.022197902
0.0022255778 -0.06992823 0.39755678 0.057015777 -0.37937433 -0.021490276 -0.4786554 -0.48419398
-0.13553935 -0.18595445 -0.05644548 0.14658517 -0.17718029 -0.4533283 0.09475011 -0.26498204
0.13018572 0.081920445 0.42122394 -0.25321597 0.05593002 -0.47967958 -0.45178515 0.25388986
-0.25608402 -0.1667096 -0.25178206 0.09617621 -0.42733234 -0.17829418 0.33111358 0.056349337
0.09400976 -0.17965108 0.1820023 -0.36159402 -0.05016625 -0.031142354 -0.26487714 0.45291322
0.18213427 0.09755665 0.024176061 -0.013921261 0.47219247 -0.41432548 0.047133088 0.067041874
-0.20071703 -0.15394503 0.20450836 0.20899767 0.26073003 0.18255281 0.45527947 0.36451602

fc1.bias f4 [64]
00000000: 20b6 be3e 0afd a33e a895 a93d 8acc ff3e
00000010: 68bd cc3e c8fc bbbe c068 333c b88a 70be
00000020: ccd9 d1be d08b 66be 709c f4be a07b 3cbe
00000030: d2b6 86be f05f 483e f811 fb3e 7459 b5be
00000040: 3034 b3be 5aed ec3e 3021 40bd 82fe 8dbe
00000050: 886c b73d becc a63e 40c2 b33e a24a ed3e
00000060: 0ea1 c13e ec73 b5be 0049 763d e848 b5bd
00000070: ce5a f5be e0fb 9ebc 8e1f e4be 48e7 d3be
00000080: 80b7 f83c eca8 033e 10b2 c43d 680d c0bd
00000090: e6bd 913e 90c1 adbd 6041 01bd f0ae babd
000000a0: 00b8 023a 80a2 88bb 846d 523e 1887 93bd
000000b0: 683f 893d 0e07 c73e 604f 463d eccf 053e
000000c0: 1a90 f5be 0432 ae3e 742d 80be 3071 72be
000000d0: 9072 7fbd 28cf cfbd 843c 0dbe 202c 3d3e
000000e0: 50dc 92be a892 e3be 92df ea3e 3897 133e
000000f0: 6426 dfbe 4822 9f3e ca0e cdbe 7046 ecbd
0.37248325 0.3202899 0.08280498 0.49960738 0.39988256 -0.36716294 0.010950267 -0.23490417
-0.40986478 -0.22514272 -0.47775602 -0.18406534 -0.26311356 0.19567847 0.49037147 -0.3541981
-0.35000753 0.46274835 -0.04690665 -0.27733237 0.089562476 0.3257808 0.35109138 0.46346003
0.37818187 -0.35440004 0.060128212 -0.088517964 -0.4792084 -0.019407213 -0.44555324 -0.4138739
0.030360937 0.12857407 0.09604275 -0.09377557 0.28465194 -0.08484185 -0.031556487 -0.09115398
0.00049865246 -0.004169762 0.2054959 -0.072035015 0.06701547 0.3887257 0.04841554 0.13067597
-0.47961503 0.34022534 -0.25034678 -0.2367599 -0.062365115 -0.10146934 -0.13792616 0.18473864
-0.2868371 -0.44447827 0.45873696 0.14413154 -0.43583977 0.31080842 -0.40050346 -0.115368724

fc2.weight f4 [64, 64]
00000000: 1ad5 adbd b433 edbd 587d 743d a8dc 453d
00000010: 5422 533d 74f2 803d 805f a33a f06f f2bc
00000020: 7e10 96bd 0863 b53c d270 ee3d 903d b33d
00000030: 8065 fe3a 74d2 323d 1838 65bd 2cb9 7c3d
00000040: c0b2 573d eebf d6bd fcb5 7dbd 7ed1 b43d
00000050: c0c5 dc3b 10ab 7f3d 7817 16bd 6072 1dbd
00000060: 0c64 013d c436 443d 30eb b3bc 7210 cb3d
00000070: 1e63 c1bd 6a01 dabd f60f d53d a41d 703d
00000080: 7016 633c c229 fcbd 167a b0bd 648f 46bd
00000090: 40c1 353b b042 d53d 4e4a b5bd b0d7 913c
000000a0: a8d1 bebc 8084 5a3b 4e69 873d 5e6c dcbd
000000b0: a0c6 d73c 9a62 e53d 520e c0bd a8e3 41bd
000000c0: 28d7 69bd 8401 4c3d c01b ffbd 14e6 3dbd
000000d0: 6037 b43c 06fc b5bd fe2c e0bd 780e 8b3d
000000e0: c6e4 ef3d 60fa 083d 3809 463d 20d0 cabc
000000f0: 4019 03bb ec06 7d3d 263a ddbd ccbc c93d
00000100: d03b 4d3c 28d1 983c 9a9b ec3d 38d9 4c3d
00000110: 009e a23a b8ff a8bc b086 593c be74 b0bd
00000120: 38ae b4bd 8cf0 fabd d8be bbbd 2810 febc
00000130: cc78 903d 98a1 ca3c 1462 c7bd 48f5 c1bc
00000140: fc45 74bd 70e8 1b3d 7402 013d be86 8fbd
00000150: b80e c73c 6e5f d93d 6097 aebb eedb b43d
00000160: 84d9 42bd 0045 9c3b 901c 803c 90ff 2d3d
00000170: 4425 4d3d 688a 89bc e06a d33c c6f3 a3bd
00000180: 1cb7 ce3d 181a 62bd a42f acbd f82f 393d
00000190: 4c1b 6dbd d6de 843d fce8 0abd 80ca dabc
000001a0: b0b0 e73c 780e 783d a448 a8bd beb1 b53d
000001b0: 6a80 b13d 2ae8 c4bd 7049 4abd 7e50 df3d
000001c0: 18a7 5c3d 58d2 7abd 90a8 023c f6c1 dcbd
000001d0: 386b f63c 6a8e be3d f45f 1e3d 00ca 36ba
000001e0: 5a4a 8b3d 50ff 9abc 7c63 c83d 3c08 873d
000001f0: 1852 dabc 3657 c63d d62d e2bd 2eed 8cbd
00000200: 407f 32bc 00ab d8bd 4076 963d 0a2d fdbd
00000210: f03c 68bd e4e6 bdbd c0d8 3bbb 88fc 5dbd
00000220: d0fa 91bd 18d9 bcbd 00dc f23c f0b3 d5bc
00000230: 2815 693d 4c62 773d 3045 c43c 52e5 833d
00000240: 206f f5bd 6ebe 833d 9c05 263d 88ee c23d
00000250: 164e c1bd 70f0 4cbd 2019 5bbc f0b1 753d
00000260: 5830 843c c0e2 6ebb 64b8 ec3d b095 ddbd
00000270: 781e 3d3d a021 a93c 40b4 e2bd c8e9 f43d
00000280: 5ce1 343d c4a4 e5bd 18ee bdbd 7625 ae3d
00000290: 5689 e7bd 2488 c7bd bcb2 c0bd 42c5 d63d
000002a0: ce53 c33d 68d4 c9bd ccfc e83d 0889 c2bd
000002b0: d8cb d2bd 14fc 4cbd 80a0 3d3b 16f7 b93d
000002c0: d0b6 293c 8874 cebd 3c9f 993d 7aaa ebbd
000002d0: d235 d43d 70ca 3abd 1a36 c43d 521a a1bd
000002e0: 480e b13d fab5 df3d c80f 6cbd c423 cbbd
000002f0: 5417 09bd 020c a0bd 4400 84bd 0010 263b
00000300: 605d 17bc dc0d b6bd 6861 2abd 602f d83d
00000310: 4007 3f3d a0dd 833d 0458 abbd 86ec ad3d
00000320: 66c5 a9bd 0e06 933d 12e8 dcbd 00c5 df3d
00000330: 1cd4 05bd 7876 90bd 78eb 973d fc8f 643d
00000340: 4ec0 c9bd 9e4f 8e3d f817 9b3c 8474 0fbd
00000350: 248d 6d3d ec19 8e3d ec1b 39bd f82b 4fbd
00000360: eeb8 e0bd 724d c8bd 50f1 f9bc e0d6 73bc
00000370: ec8d 9dbd 38d9 bfbc 8082 e53a f081 b73c
00000380: 428a b5bd 9e05 d93d 4085 723c 58c6 8e3d
00000390: 6065 9b3d 9c63 d8bd 78fb 2d3d 609d c3bd
000003a0: 883d fdbd 7685 e83d 3478 3e3d 4c29 25bd
000003b0: 0217 e0bd d839 96bd 0e6f 8c3d d251 b3bd
000003c0: d42b 94bd b213 f5bd 8c01 8dbd 2468 49bd
000003d0: 50b9 17bc 20bc 83bb 2217 e43d 6e23 f1bd
000003e0: ca36 cebd 40a0 82bc b205 92bd f012 b8bc
000003f0: d0b2 cb3d 8438 e03d 9a87 a9bd 061e ef3d
-0.084879115 -0.11582127 0.05968985 0.048306137 0.05154641 0.06296244 0.0012464374 -0.029594392
-0.073273644 0.022141948 0.116426125 0.087519765 0.0019408911 0.043657735 -0.0559617 0.06170003
0.052660704 -0.104858264 -0.061941132 0.0882902 0.006737441 0.062418997 -0.036643475 -0.038439155
0.031589553 0.04790379 -0.021962732 0.09915246 -0.09442733 -0.10644801 0.10403435 0.058622018
0.01386033 -0.12312652 -0.08617036 -0.04847659 0.0027733594 0.1041311 -0.08852063 0.017803043
-0.023293331 0.0033343136 0.06611882 -0.10762857 0.026339829 0.112004474 -0.093777314 -0.04733625
-0.057089955 0.049806133 -0.12456465 -0.046361998 0.021999061 -0.0888596 -0.109460816 0.06789869
0.11713557 0.0334419 0.048348635 -0.024757445 -0.0020004064 0.06177418 -0.108021066 0.09850463
0.012526467 0.018654421 0.11553116 0.050011843 0.0012406707 -0.020629749 0.013276741 -0.08616017
-0.08822292 -0.12252912 -0.0916726 -0.031013563 0.0705429 0.024735257 -0.09735504 -0.02367653
-0.059637055 0.038063467 0.03149648 -0.07008122 0.02429901 0.10613905 -0.005328104 0.08831011
-0.04757072 0.0047689676 0.01563862 0.04248005 0.050084367 -0.01678963 0.025807798 -0.080054805
0.10093519 -0.055200666 -0.08407524 0.045211762 -0.05788736 0.06487815 -0.033913597 -0.026707888
0.028282493 0.060560673 -0.0821698 0.08871792 0.08667071 -0.09614594 -0.04938644 0.109040245
0.05387029 -0.061235756 0.007974759 -0.107791826 0.030080423 0.09304507 0.038665727 -0.00069728494
0.06801291 -0.01892057 0.097846 0.065933675 -0.026650473 0.09684603 -0.11043899 -0.06881176
-0.010894597 -0.10579491 0.07346773 -0.12362106 -0.05669874 -0.092725545 -0.0028663129 -0.05419591
-0.07127917 -0.09221095 0.02964592 -0.026086777 0.05690494 0.060396478 0.023958772 0.06440224
-0.11984086 0.06432806 0.040532693 0.095181525 -0.09438722 -0.050033987 -0.0133726895 0.059984148
0.016136333 -0.0036451072 0.11558607 -0.10819566 0.046171635 0.020645916 -0.11069536 0.11958653
0.044160232 -0.11213067 -0.092739284 0.08503239 -0.113054916 -0.09742764 -0.09409091 0.10486843
0.09537469 -0.098549664 0.11376342 -0.09498793 -0.10292786 -0.050045088 0.0028934777 0.09080331
0.010358527 -0.1008082 0.07501075 -0.11507125 0.10361828 -0.045603216 0.095806316 -0.07866348
0.08645302 0.10923381 -0.057632238 -0.09918931 -0.033469513 -0.0781479 -0.06445363 0.0025339127
-0.009238571 -0.08889362 -0.0415968 0.10555911 0.046637774 0.06438756 -0.08366397 0.08492379
-0.08289604 0.07178889 -0.107864514 0.10926247 -0.032672986 -0.07053846 0.07417959 0.055801377
-0.09851132 0.069487795 0.018932328 -0.035023227 0.05799593 0.06938538 -0.045192644 -0.05057904
-0.109727725 -0.097803965 -0.030510575 -0.014882773 -0.07693085 -0.023419008 0.0017510206 0.022400826
-0.08864261 0.105967745 0.014802277 0.06971425 0.07587695 -0.10565874 0.042476147 -0.09551501
-0.12365252 0.11353581 0.046501353 -0.040322587 -0.109418884 -0.073352516 0.068571195 -0.0875584
-0.07234922 -0.11966647 -0.06885061 -0.049171582 -0.009260491 -0.004020229 0.11137225 -0.11774336
-0.10069044 -0.015945554 -0.071299925 -0.022469968 0.09946215 0.109482795 -0.08277817 0.116756484

fc2.bias f4 [64]
00000000: c823 d0bd 2adf ab3d b066 d8bd 74f4 163d
00000010: 6422 9e3d e8d1 f8bc b093 28bd 683a 9d3d
00000020: 081b 913c 9ad1 a73d 6ae2 873d 4a61 c83d
00000030: 920e 9fbd 907a fbbd f0df 72bd 64d3 833d
00000040: eee7 e0bd 6cc5 963d 7c01 3ebd 3a7e aebd
00000050: 40a1 753c 3087 c1bd 008d d4bc d016 31bc
00000060: d0d0 0e3d 0a9b f93d cc75 9f3d 3a2d e3bd
00000070: a040 39bd 5a94 a5bd d870 b03d d47d c0bd
00000080: 1eb8 d43d 0041 573d 440a 7a3d 4a79 c6bd
00000090: 9a03 ae3d ca07 dcbd 08f7 efbd d021 0e3d
000000a0: 004b b8ba 0275 b5bd 9849 cd3c 00a8 68bc
000000b0: 609d 3bbd 4655 99bd e0c9 f63b eacf bdbd
000000c0: 5453 23bd acc6 7f3d e298 f23d 1eda cfbd
000000d0: 0044 a9ba 809f ff3a 2ca0 943d f8db 9abc
000000e0: 9038 56bc 80e7 453c cad0 a83d 1642 c33d
000000f0: e4fc 213d 90c0 663d c280 9fbd e04b 12bd
-0.10163075 0.083921745 -0.10566461 0.036854222 0.07721403 -0.030373529 -0.04115647 0.07677156
0.017713085 0.08194275 0.06634982 0.097841814 -0.07766451 -0.12279236 -0.059295595 0.06436804
-0.10981737 0.07361874 -0.046388134 -0.085201696 0.014992058 -0.09449613 -0.02594614 -0.010808662
0.034867108 0.121877745 0.0778614 -0.11092611 -0.045227647 -0.080849364 0.08615273 -0.09399
0.1038668 0.052552223 0.061044946 -0.09691103 0.08496781 -0.10743673 -0.11717039 0.034700215
-0.0014060438 -0.08860208 0.025059506 -0.014200211 -0.04580438 -0.07486968 0.0075313896 -0.09268172
-0.03987439 0.062445328 0.11845566 -0.101490244 -0.0012913942 0.0019502491 0.07257113 -0.018903717
-0.013075009 0.01207912 0.08242948 0.09534089 0.039547816 0.056335986 -0.077882305 -0.03571689

fc3.weight f4 [6, 64]
00000000: 6675 c8bd 1032 0e3c 460e e3bd c00f d0bb
00000010: d0f6 013c 1c09 bfbd 281c 00bd 48ad a23c
00000020: 705a 773d c09c 4a3d ce78 80bd 00fa 953b
00000030: 30ee 40bc b801 ab3d 7c60 6f3d b014 aabc
00000040: ee7d a53d 72e7 a83d 5875 703d b083 97bd
00000050: 9050 193c 4467 163d 9c83 d03d 70d3 123d
00000060: f831 bd3c da77 c63d 7019 64bd d03c 43bc
00000070: 6096 4cbd 2c71 e7bd c022 243b 50be 0c3c
00000080: 7c6a f83d 48f1 04bd d45f 0b3d e01e 653c
00000090: 2023 e93c 2c3c fd3d c0cb 373d 6833 633d
000000a0: fced a73d e66d 92bd 08bd edbc f400 44bd
000000b0: 7cc0 aa3d 0073 e03d 047b 96bd 946e b13d
000000c0: 2802 e9bc e8e6 7d3d 800e 8d3c 583f 53bd
000000d0: 8e0d c9bd 740e 34bd 6814 f1bd f80f a93d
000000e0: 38fa a1bd 40d0 363c 128f f7bd 42db cdbd
000000f0: d0a5 a3bd 182b 913c f8b8 c63c 02eb dfbd
00000100: 68e6 3fbd 504b b13d fe0d debd b4ff 703d
00000110: 4418 6bbd f099 2c3c 2e76 af3d e891 2fbd
00000120: 5a96 fbbd b640 93bd b402 943d 600c 0dbc
00000130: d428 34bd 8024 75bb acf3 31bd 3eee de3d
00000140: 30d8 b13c 7c87 a8bd 505d 513d 40ee 4abb
00000150: da85 bb3d bc83 473d 3038 dc3d cc6a 1c3d
00000160: 40be 163c 7a7a b03d c825 d83d ccff 393d
00000170: 0c57 6d3d 9abb a3bd 1e2b a9bd 0437 8d3d
00000180: 5acb d73d d201 ebbd 1c07 513d 8836 a43c
00000190: c8a5 e1bc 5a63 b03d a497 273d 7e83 fe3d
000001a0: b4a3 38bd a87b 23bd 7aec f1bd de30 80bd
000001b0: 2023 f93d 7415 1dbd e4ef a63d bcc6 0abd
000001c0: 90b0 85bd a05c 50bc b0b8 1dbc 7eeb f53d
000001d0: 2c7f 64bd f448 cfbd 8ae1 bfbd 52eb e13d
000001e0: 9468 b93d 9214 aa3d c0fb c5bc c0a7 483b
000001f0: ee36 adbd 74eb 203d 14a8 51bd 34fe 75bd
00000200: 8a38 a0bd 6456 48bd 302a 57bc ea4f bd3d
00000210: 4c90 cabd bcdc c0bd 4ce2 543d 4070 a63d
00000220: a0dc ad3b 0444 253d 8c5e 9ebd 8049 81bc
00000230: a4e9 933d 0042 15ba daa6 e1bd 3863 333d
00000240: f6ee 9abd 207f 4fbc 10e8 4dbc 6a95 fa3d
00000250: 46be e23d 3661 e03d 8af4 a23d 6ad3 e1bd
00000260: b291 97bd d858 b33d f04e c43c 000e 5b3b
00000270: d844 17bd 96f9 eb3d 34d1 8b3d c00e 44bc
00000280: 20d9 9d3b 5802 33bd 8651 8fbd 40b0 513d
00000290: 30bb 79bd 2cf7 fcbd 9049 afbd c0be 99bc
000002a0: daf9 d63d a023 923b f4d2 a3bd 8679 d23d
000002b0: 243b 063d ccb3 013d 14e9 1fbd 16cf b93d
000002c0: 00ff ab3b 761f a53d 60f4 883c 38ff 9c3d
000002d0: b0f5 653c becd ae3d 34bd 6f3d 28ac 9c3d
000002e0: de04 f2bd d06a c23c d43e 8b3d 70fb 2c3d
000002f0: 8059 233d 5ee0 aabd 3ed8 b6bd ccfd 8d3d
00000300: 2a10 e1bd 367f f9bd 5c0a 743d 20b5 2ebd
00000310: b0db f7bc ba8c 9dbd 98da 5a3d b0af 913c
00000320: 5c13 013d 707b 43bc 182f eebc 98e7 343d
00000330: fc81 efbd d803 e2bd fc0b 433d e217 f0bd
00000340: 7012 e03d 6423 47bd c697 913d 9833 2cbd
00000350: d089 f43d debe 923d e020 f7bd 2030 5d3c
00000360: ee8b d5bd f06b a83d 0824 febd b0a5 8c3d
00000370: 6a53 973d 44ea cfbd 8065 f8bd 4015 8bbb
00000380: 40d7 433c 2ae9 cdbd cc99 343d 909e 2a3d
00000390: 1cb6 5dbd 585e e73c 7c6e 2bbd 9cb7 5fbd
000003a0: 44b8 adbd f809 e3bc a42d 823d ba0e acbd
000003b0: e486 8ebd 0e8e 9dbd ce95 bbbd 92a2 86bd
000003c0: 1810 c13d 4c85 393d 446a 66bd 860c a3bd
000003d0: 0a45 ca3d 5840 ca3d 405f a13d c0c7 e1bc
000003e0: 4006 a1bb e012 12bc 6e9a b6bd c87e 3d3d
000003f0: 7cba 4c3d 003b 693a a2a3 be3d 14f4 b4bd
-0.09788017 0.008678928 -0.11086707 -0.006349534 0.00793238 -0.09327909 -0.031276852 0.019858018
0.060388982 0.049465895 -0.06273042 0.0045769215 -0.011775538 0.08349937 0.058441624 -0.020761818
0.0808066 0.0824727 0.058705658 -0.07398164 0.0093575865 0.036719576 0.101813525 0.035846174
0.023095116 0.096908286 -0.05568832 -0.011916354 -0.049948096 -0.11300883 0.0025045127 0.008590296
0.12129685 -0.032456666 0.034026936 0.013984412 0.028459132 0.123649925 0.044872046 0.055468947
0.08199689 -0.07149868 -0.029020801 -0.04785247 0.08337495 0.109594345 -0.07347682 0.08663669
-0.028443411 0.061987787 0.017218828 -0.05157408 -0.098170385 -0.043959096 -0.1177147 0.08254999
-0.079090536 0.011158049 -0.12087835 -0.10051586 -0.079906106 0.017720744 0.024258122 -0.10933496
-0.046850592 0.08656943 -0.108425125 0.058837608 -0.05739619 0.010534748 0.08567463 -0.042863756
-0.12284537 -0.07190077 0.07227078 -0.008608907 -0.04398425 -0.003740579 -0.043445274 0.10885285
0.021709532 -0.082289666 0.05111438 -0.0030964762 0.091563895 0.048709616 0.107529044 0.038187787
0.009200633 0.086171106 0.10554081 0.045409963 0.057944342 -0.079947665 -0.08260177 0.06895259
0.10536833 -0.114749566 0.05103217 0.020045534 -0.027544871 0.086127 0.0409161 0.12427424
-0.045077994 -0.03991285 -0.118126824 -0.06259321 0.12164903 -0.038350537 0.08151224 -0.033880934
-0.06527817 -0.012717396 -0.009626552 0.12007807 -0.055785343 -0.101213366 -0.0936919 0.11031212
0.0905315 0.08304705 -0.024167895 0.0030617565 -0.08457743 0.039287046 -0.051185682 -0.06005688
-0.07823284 -0.048910514 -0.013132617 0.09243758 -0.09890804 -0.09417102 0.051973626 0.08126879
0.0053058416 0.040348068 -0.07732877 -0.015782118 0.07222298 -0.00056937337 -0.110181525 0.043795794
-0.075651094 -0.012664586 -0.012567535 0.1223553 0.11071448 0.109560415 0.079567984 -0.11026652
-0.07400836 0.0875718 0.023963422 0.0033425093 -0.03693089 0.11522214 0.06827012 -0.011966407
0.004817143 -0.043703407 -0.06997971 0.051193476 -0.06096953 -0.12351832 -0.08558953 -0.018767715
0.10496874 0.0044598132 -0.079992205 0.10277085 0.032771245 0.03166561 -0.03904064 0.09072702
0.005248904 0.08062641 0.01671809 0.076658666 0.014035627 0.08535336 0.058530048 0.07650024
-0.118173346 0.023732573 0.06799093 0.042231977 0.039880276 -0.08343576 -0.08927964 0.069331735
-0.10989411 -0.12182467 0.059580192 -0.042653203 -0.030256122 -0.07692857 0.053431123 0.01778397
0.031512603 -0.011931285 -0.02907519 0.044166178 -0.116947144 -0.110358894 0.04761885 -0.11723305
0.10941017 -0.048617736 0.071090266 -0.04204139 0.11940348 0.07165311 -0.12066817 0.013500243
-0.1042708 0.082237124 -0.12409216 0.0686754 0.07388957 -0.101521045 -0.121287346 -0.0042444766
0.011953175 -0.10054238 0.044091985 0.041655123 -0.05412875 0.028243229 -0.041853413 -0.054618463
-0.084824115 -0.027714714 0.063563615 -0.08401246 -0.06959322 -0.076931104 -0.09159432 -0.065739766
0.09426898 0.045293137 -0.056253687 -0.07961373 0.098764494 0.09875554 0.078794956 -0.027561069
-0.004914075 -0.008915633 -0.08916174 0.046263486 0.049982533 0.00088970363 0.09308554 -0.08835617

fc3.bias f4 [6]
00000000: 9cd9 fc3d 7ccd f6bd f820 b4bd 780f ef3c
00000010: b89d 1bbd 526b eebd
0.12346193 -0.12050912 -0.08795351 0.02918218 -0.03799221 -0.116415635
