saved_models/dqn_best_model_episode_390.pt (torch, 87147 bytes, 24 tensors)

fc1.weight f4 [64, 4]
000000 72 5b f5 be 6a d6 24 be 10 59 f5 3e 18 e4 e0 be
       -0.4792133 -0.16097417 0.47919512 -0.43924022
000010 4c cd e8 be 38 a1 6d be 48 3b 0f be 30 dc 36 bd
       -0.4546913 -0.23206031 -0.13987458 -0.04464358
000020 68 82 2f be 01 9e 08 3e f1 4b 91 3e a5 be cd bd
       -0.1713959 0.13341524 0.2837825 -0.10046128
000030 13 9d 75 be 77 b6 f1 3e 22 ce af 3e c9 2e 90 be
       -0.239857 0.47209522 0.34336954 -0.28160694
000040 13 50 2f 3e 7f bd 2e be 62 2d 79 3d a5 27 08 be
       0.1712039 -0.17064475 0.060834296 -0.13296373
000050 a7 a9 61 b8 35 10 e5 bd da 28 e3 3e d3 33 9a 3e
       -5.380218e-05 -0.11184732 0.44367105 0.30117664
000060 93 3e fa be 32 7f f3 3e 72 9e 7c 3e 42 0b 92 3c
       -0.48875865 0.4755798 0.24669817 0.017827634
000070 a6 e7 83 3e 29 5d 92 be c6 42 0f bd 03 a5 d9 bd
       0.2576267 -0.285867 -0.03497579 -0.106271766
000080 89 0b a5 3e b9 e1 37 be b3 d5 d9 3e f1 87 da be
       0.32235363 -0.179572 0.42545852 -0.4268184
000090 bc f2 17 be 96 0a 96 be 30 6e 28 3d 1c 77 5b be
       -0.1483869 -0.2930495 0.041120708 -0.21432155
0000a0 01 ca dc be 61 f2 ff be 36 c6 88 3e d2 17 5e 3c
       -0.43122867 -0.49989608 0.26713723 0.013555484
0000b0 b0 4d 45 be ba dc c4 be 66 4d c6 be 84 3c 33 be
       -0.19267917 -0.3844965 -0.38730925 -0.17503554
0000c0 f2 f8 fd 3d c1 45 ff 3d a1 7e 00 bf 84 cd 63 be
       0.12400998 0.124644764 -0.5019322 -0.22246367
0000d0 4b 91 37 be ef d5 9e be f9 f8 84 be 22 b2 bb 3e
       -0.17926519 -0.31022593 -0.259712 0.36659342
0000e0 dc a0 02 3e bf 88 86 be 58 41 fe be a1 a1 a0 3c
       0.12756675 -0.26276204 -0.49659228 0.01960832
0000f0 40 00 e4 bc 44 18 5f be 64 84 4a be d0 07 16 be
       -0.02783215 -0.217866 -0.19777066 -0.14651418
000100 20 b8 91 be 5e 7b 63 be c2 43 54 be f5 5b b1 3e
       -0.2846079 -0.2221503 -0.20728973 0.3464047
000110 ee 98 78 be 18 ca c1 3e 1d 99 be 3d 3d d1 e4 3e
       -0.24277088 0.37849498 0.09306548 0.44690886
000120 19 49 fa 3e 09 2b cd be f8 7a e7 3e d5 93 ce 3e
       0.48883894 -0.40071896 0.45211005 0.40347162
000130 1b ce de 3e 52 9b bf be 01 51 4a 3e dc 30 1c be
       0.4351662 -0.37423187 0.19757463 -0.15253013
000140 98 29 44 3e fa 10 da 3d 0f 81 d4 3e c3 64 c7 be
       0.19156492 0.10647769 0.41504714 -0.38944063
000150 dc 33 0d be b0 d9 50 be 1c 56 3e be 82 b1 df be
       -0.13789314 -0.20395541 -0.18587536 -0.43690115
000160 f0 66 fb be b2 79 25 be 9a f6 6e 3e b6 cb 05 3e
       -0.49101973 -0.16159704 0.23336259 0.13065991
000170 e4 6a e0 3e a2 01 e5 be 73 e6 50 3e ad e3 50 3e
       0.4383155 -0.44727808 0.2040041 0.20399351
000180 81 40 78 3e 63 b6 bd bb 0f 6c 6c 3e 50 60 3c bd
       0.24243356 -0.0057895645 0.23088096 -0.04599029
000190 8c dd 05 be 20 63 d5 bd 50 c5 d0 3d 0e 88 8d be
       -0.13072795 -0.10419297 0.101938844 -0.27642864
0001a0 3e 32 dc be 10 bd 44 be 94 1e f1 be a0 e2 09 bd
       -0.43007082 -0.19212747 -0.47093642 -0.033663392
0001b0 4f 2c a5 3e 83 57 9b be ed fb f0 bd 9b ea b1 3e
       0.32260367 -0.30340204 -0.11766801 0.34749302
0001c0 f1 8e a5 be 2f fe dc 3e 3f a9 88 be f9 10 98 3c
       -0.32335618 0.43162677 -0.26691625 0.01856278
0001d0 6c a5 a1 be 39 5c d7 3e 05 8d 8e be 37 58 97 be
       -0.3157152 0.42062548 -0.27841964 -0.2955949
0001e0 f7 19 70 3c 2a 22 86 3e 1c 90 2d bd 03 25 a8 3e
       0.014654628 0.2619794 -0.04237376 0.32840738
0001f0 19 ea e6 be f4 8f 76 bd c8 ef 47 be d3 26 04 3e
       -0.45100477 -0.06019588 -0.19525063 0.12905435
000200 d5 c0 f4 3e a6 cb e8 3d 84 50 3a be c1 cd c2 be
       0.4780337 0.11366968 -0.18194777 -0.38047603
000210 8d 47 a3 be f8 b2 09 be d2 53 ed 3e 90 9d 97 3d
       -0.31890526 -0.13447177 0.46353012 0.074030995
000220 f6 1b 8d be e0 4f 1a 3e 4a bc a5 3e 42 ad c0 3c
       -0.27560395 0.15069532 0.32370216 0.023520116
000230 90 65 b0 3e e9 5a b6 be 25 4a 88 be aa 36 e9 3e
       0.34452486 -0.35616234 -0.26619068 0.45549518
000240 70 b9 e8 3e 0b b9 5e be 49 00 b8 be 1b 9b ee be
       0.45453978 -0.21750276 -0.35937718 -0.4660271
000250 49 f5 c9 be 92 1e 8e 3c d1 b9 54 3e 4f 9a 97 3d
       -0.3944495 0.017348561 0.20774008 0.07402479
000260 5c 04 89 be f1 27 36 3e 1b 63 3b 3d 72 86 a9 3e
       -0.26761138 0.17788674 0.04574881 0.33110386
000270 13 8d e9 3e 49 8c 0e 3e 11 74 c9 be 21 65 ca 3e
       0.45615444 0.13920702 -0.39346364 0.3953028
000280 98 d5 ad be 04 4b 32 3e 40 3d 5b bc f6 82 87 be
       -0.33952022 0.17411429 -0.013381302 -0.26467103
000290 0e 71 5e be 94 29 9d 3e fe 95 e5 3e 34 0d b6 3e
       -0.21722814 0.30695784 0.44840997 0.35556948
0002a0 17 41 e6 be 5b e1 d4 3e c8 70 b3 3e 53 cf 04 be
       -0.44971535 0.41578183 0.35046983 -0.12969713
0002b0 c2 76 22 be af af fe bc 19 91 c5 be 2f c4 01 3e
       -0.15865615 -0.031089632 -0.38587263 0.12672494
0002c0 7c 48 90 3d a8 b8 fd be cb 74 ce 3e 25 ba 9c be
       0.07045075 -0.49554944 0.4032348 -0.30610767
0002d0 94 f9 8a 3e ef a2 00 3f 46 d9 95 3e 85 8a 51 be
       0.27143538 0.50248617 0.2926733 -0.20462997
0002e0 9a 6c 79 be 9b ef b2 be 1d de 3f 3e 30 b1 af 3e
       -0.24357834 -0.3494843 0.18737073 0.3431487
0002f0 ed e1 94 bc aa 39 7d 3e e7 0f fc be 91 54 3e be
       -0.018174136 0.24729028 -0.49230883 -0.18586947
000300 66 c1 f9 be 00 a7 ab 3c 44 e2 64 be 28 ac b4 bd
       -0.48780364 0.020953655 -0.22351938 -0.08821899
000310 f2 39 cd bd 06 f5 90 3d 19 62 9f bd 81 5d 5e be
       -0.10020818 0.070779845 -0.077823825 -0.21715356
000320 bd e8 82 3e e0 49 bc 3e a1 59 c1 3e e9 26 dc be
       0.2556819 0.36775112 0.37763694 -0.42998436
000330 0e 9c b1 bd 06 3a 95 be 82 6b e3 3e 0c 0b 58 3c
       -0.08672343 -0.2914583 0.4441796 0.0131862275
000340 42 6b 00 3f 4c 55 b7 be c4 95 90 3e 74 47 95 3e
       0.5016366 -0.35807264 0.28239262 0.29156077
000350 38 e0 2e be 33 b6 b3 3e 82 4e ed bd 81 0d 9d be
       -0.1707772 0.35099944 -0.1158724 -0.30674365
000360 02 4c 81 3e d0 fe a4 be ec 61 34 be 76 bd 17 3e
       0.25253302 -0.32225657 -0.17615479 0.14818367
000370 e5 9a 19 be 2a 2f 90 3e dc 48 82 3d 67 4f cb be
       -0.15000494 0.28160983 0.06361553 -0.39709017
000380 77 36 de bd 7d 08 3c 3e 31 d6 67 3e fa 6d bb 3e
       -0.10850232 0.18362613 0.22640301 0.36607343
000390 02 0f 04 be b0 36 56 bd ee ca 72 be de c3 b1 3e
       -0.1289635 -0.052298248 -0.23710224 0.34719747
0003a0 8c ca 08 be c3 4c aa 3e 3c 02 05 3e f4 fb dd 3d
       -0.13358516 0.3326169 0.12989134 0.10839072
0003b0 0d d8 a6 3e 80 2d 7c be 15 a6 1c be 6a 6e 82 bd
       0.3258671 -0.24626732 -0.1529773 -0.06368716
0003c0 3a f9 7b 3e 85 24 da be 8b 99 69 be eb 9e b4 be
       0.24606791 -0.42605987 -0.22812478 -0.35277495
0003d0 7a 80 ed be 2f 0f 22 3e 89 7f 32 3e f6 70 4e be
       -0.46387082 0.15826105 0.17431463 -0.20160279
0003e0 11 85 ec 3e 5d ad 50 be b0 d1 32 be 6f 4c a9 be
       0.46195272 -0.20378633 -0.17462802 -0.33066127
0003f0 1d a4 83 3e 1c d4 45 be da 7d d5 be 15 48 fa be
       0.25711146 -0.19319195 -0.4169758 -0.4888312

fc1.bias f4 [64]
000000 fa fd ec 3e d0 ce c3 bd f8 76 17 be a1 43 cb bd
       0.4628752 -0.09560931 -0.14791477 -0.099250086
000010 f0 23 c8 3e cb d5 2a bd 7c 4f a3 bd 8b 55 d4 bc
       0.39089918 -0.041707795 -0.07974145 -0.025919696
000020 f1 9b ad be fa 4f f6 3e c6 55 fa 3e c0 9d a8 bd
       -0.33908036 0.48107892 0.48893565 -0.082332134
000030 98 33 5e be 6b e1 1c be 2c e3 a9 3e 40 2c 34 bc
       -0.21699369 -0.15320365 0.3318113 -0.010996878
000040 20 7c 8a bd d2 98 29 bd 4c 51 a6 be 98 6b 96 3e
       -0.06761956 -0.041405506 -0.324839 0.29378963
000050 ff 2f e4 3d d6 98 e9 be a3 08 89 be f7 83 c3 bc
       0.11141967 -0.45624417 -0.26764402 -0.023866637
000060 8d 86 94 be a8 0a 46 3e 40 3f c7 be eb 4a d3 be
       -0.29008904 0.19340003 -0.38915443 -0.41268095
000070 a7 b6 33 3a d9 52 99 be 9f 6a c7 be 61 bb 45 be
       0.00068555254 -0.2994602 -0.38948533 -0.1930976
000080 a7 cf d9 3e bc de 7a 3c d5 59 c7 be 35 aa 15 3e
       0.4254124 0.015311893 -0.38935724 0.1461571
000090 ec 60 9d 3e 6a 38 dc be b7 f7 cc be b4 51 97 be
       0.30738008 -0.4301179 -0.4003274 -0.29554522
0000a0 5f 17 98 3d 03 40 99 3e 05 9e 27 3e ee c2 a1 be
       0.07426333 0.2993165 0.16368873 -0.31594032
0000b0 c6 62 3d be 7c f6 ca be cd df 8d be 2a d9 0f 3e
       -0.1849471 -0.39641178 -0.2770981 0.14047685
0000c0 90 66 55 bd f8 07 a1 3d bf f2 20 be 6c ac d3 3d
       -0.052099764 0.07862848 -0.157176 0.10335621
0000d0 95 c5 d3 be 17 ea 30 be 1c 5c 01 3e d3 b5 45 3d
       -0.4136168 -0.17276798 0.12632793 0.048269104
0000e0 03 d0 dc bd 7d c5 a9 be f1 da 55 3e 09 66 48 be
       -0.107818626 -0.33158484 0.20884301 -0.19570173
0000f0 84 81 8b be 4c 96 d2 3e 60 3b 68 3e 55 08 c7 3b
       -0.2724725 0.41130292 0.226789 0.0060739913

fc2.weight f4 [64, 64]
000000 ca 17 80 bd 20 a7 c4 bd 16 f9 19 3c 7e 43 6e 3d
       -0.062545374 -0.09602189 0.009397766 0.058169834
000010 63 38 f9 bd a4 a4 9a bc e6 c9 94 bd 70 a0 8d 3d
       -0.12168958 -0.018877335 -0.072650716 0.06915367
000020 b1 de c6 3d 36 8d ce 3d 6c ad c4 3d f6 bd cc 3d
       0.09710444 0.100855276 0.0960339 0.0999717
000030 d8 a2 e6 3d a4 64 b3 3d 78 c5 b3 3c 32 22 99 3d
       0.11261529 0.0875943 0.021944746 0.07477225
000040 c0 6a d0 bc 34 4d c5 bd 40 14 bf bd a0 fa 04 3d
       -0.025441527 -0.09633866 -0.09330034 0.032465577
000050 93 ac 8a bc 38 0c 90 bc 00 e5 cd 3b 82 65 a4 bd
       -0.016927993 -0.017583951 0.0062834024 -0.080271736
000060 cf 67 73 bd ae 78 9c 3d b8 44 fc bd c7 9f f3 3d
       -0.05942517 0.07640205 -0.123177946 0.118957095
000070 e3 65 fa bd 58 e3 da 3d 02 1c 36 3d 40 0d 44 bb
       -0.122264646 0.10687894 0.044460304 -0.0029915124
000080 7c 12 83 bd c8 e1 69 3d f4 37 ea bd a4 54 8b bd
       -0.0640001 0.057100087 -0.114364535 -0.06803253
000090 81 79 0a bd f0 7d 81 3d ba 22 cb 3d 19 a9 f7 bd
       -0.03380728 0.06322849 0.09918733 -0.120928
0000a0 6c ec da bd 53 a2 fc 3d 78 98 9f bd ce 3f cc bd
       -0.10689625 0.123356484 -0.07792753 -0.09973107
0000b0 68 fa bb bd 8e eb 1f 3d 80 d9 38 bb 8d 1e 0f bc
       -0.091786206 0.039043 -0.0028205812 -0.008735311
0000c0 28 a4 f3 bd 60 3d 9a 3d 0d 30 66 3d 62 12 b3 bd
       -0.11896545 0.075312376 0.05619817 -0.087437406
0000d0 14 06 4d bd f1 59 c3 bc ba 0b 8c 3d 50 e9 14 bc
       -0.050054625 -0.023846598 0.06838174 -0.009088829
0000e0 bd 44 9c bd c4 49 f2 3d 4a df 08 3d be 06 b8 3d
       -0.07630298 0.11830476 0.03341607 0.08985661
0000f0 92 35 df bd d0 7d 6c 3c fe 31 f9 3d e7 bb b1 bd
       -0.108988896 0.014434293 0.121677384 -0.08678418
000100 eb f1 ce 3d 86 2e a2 3d 7b 85 d5 bb b5 a7 96 3d
       0.10104736 0.0791903 -0.0065161563 0.07356206
000110 2c 9b f0 3d 91 53 10 3d d7 4a 62 bd c1 d0 c2 3d
       0.11748347 0.035235945 -0.055247154 0.09512473
000120 ca 8a 4b 3c 00 6c c0 39 46 70 a9 bd 34 c2 98 bd
       0.012423227 0.0003670156 -0.082733676 -0.07458916
000130 b7 d9 c0 3c b4 47 2a 3d ca e2 74 3d 6c 3e e0 bd
       0.023541315 0.041572288 0.059786595 -0.10949406
000140 f4 53 b3 3d 20 18 4f 3d 64 50 c9 bc a1 ae 8f 3d
       0.08756247 0.050560117 -0.024574466 0.0701573
000150 97 6f c4 3d 80 a7 50 bd b4 9f 98 bd 94 e4 51 bb
       0.095915966 -0.05094099 -0.07452336 -0.0032027112
000160 95 6c aa 3d c0 2a 24 bb e0 b3 cf bc 99 a9 e9 3d
       0.08321492 -0.0025049895 -0.025354326 0.11409301
000170 3a 41 7a 3d fb 08 24 bd 99 ee 8f 3d 5a fd cb bd
       0.06109736 -0.040047627 0.07027931 -0.09960432
000180 1d 5f a6 bd 2a da 2a 3d 4f 1a df 3c 33 5a 67 bd
       -0.0812361 0.041711964 0.027234225 -0.056482505
000190 c0 d7 88 3d e8 c7 d2 bd 4d 14 d9 bd 3f de b8 bd
       0.06681776 -0.10292035 -0.10599575 -0.09026765
0001a0 97 4f 85 3d ee 54 7f bd 39 4e eb 3d 84 b7 d1 bd
       0.06509321 -0.062336855 0.11489529 -0.10240081
0001b0 f4 cc cb bd 92 05 96 3d 21 1d fc bd e1 e3 78 3d
       -0.09951201 0.07325281 -0.123102434 0.060764197
0001c0 06 48 b3 3d 42 9e cb bc 5c 5e 87 bc fa da 93 3d
       0.08753972 -0.024855737 -0.016524486 0.07219501
0001d0 27 38 85 bd 97 cd 24 bc 7c 4a 9f bd 6a 4d af 3d
       -0.06504851 -0.010058782 -0.07777879 0.085596874
0001e0 96 21 99 3c 87 34 df bd 1b 4a 9e 3b 6b 9b 5a 3d
       0.018692773 -0.10898691 0.0048306114 0.053370874
0001f0 2e ca 97 bc a3 66 8a 3d a1 8c f1 3d da 03 ab 3d
       -0.018529024 0.06757858 0.11794401 0.08350344
000200 c6 08 ac 3d 34 3a bd 3d 02 7b 56 bd 2c 1d 69 bd
       0.08400111 0.09239617 -0.052363403 -0.056912586
000210 c4 2e 86 3d eb aa 37 bd eb f3 a6 bd b3 dd c5 bd
       0.065518886 -0.044840734 -0.081519924 -0.096614264
000220 27 1b f7 3d 10 2f 8c 3c cf 4a a2 3d 58 43 b3 3d
       0.12065726 0.017112285 0.07924425 0.08753079
000230 1e dd 10 bd ae d5 70 3d 21 cc d2 bb 74 97 f9 bd
       -0.035367124 0.05879753 -0.0064330255 -0.121870905
000240 ef 60 e8 bd 26 60 a2 bd 98 83 df 3d 2c 75 5d bd
       -0.113466136 -0.07928495 0.109137714 -0.054066822
000250 9c ad 43 3c 40 7b 24 bd 49 25 41 bc e4 57 9b bd
       0.011943247 -0.040156603 -0.011788675 -0.07585123
000260 9d 65 4e 3d ae 9d 8a 3d 66 6b 8a 3d 07 8f d5 3c
       0.050389875 0.06768356 0.06758766 0.026069177
000270 e1 dc 3f bd 70 ef d3 bd 8e 1a 96 3d a8 4e db 3d
       -0.046841506 -0.103484035 0.07329284 0.10708362
000280 1d a9 b9 bd 96 94 20 3d 91 e3 a3 bd 15 49 d8 3d
       -0.09065459 0.039204203 -0.08002389 0.10560814
000290 bd 24 86 3d 2a b7 b0 3d f1 2c 3c bd 21 63 fd bd
       0.06549976 0.08628686 -0.045941297 -0.12372423
0002a0 d0 dc 61 3c 78 20 75 3d 5c ff 07 3d 90 76 3b bd
       0.013785556 0.059845418 0.033202514 -0.045767367
0002b0 14 fd c8 ba 98 5b 51 bd 56 33 ef 3d b6 07 8a 3d
       -0.0015334212 -0.05111274 0.116797134 0.06739752
0002c0 04 e7 48 bd da 5e b3 3d c8 81 92 bd 26 25 f1 3d
       -0.04904844 0.08758326 -0.0715366 0.117746636
0002d0 af 9d 51 bd d8 bb 92 bd 84 2c a2 bd 0e 33 fa bd
       -0.05117577 -0.071647346 -0.07918647 -0.12216769
0002e0 f5 89 df bd 3c d0 bb 3d 2f 43 4a 3d 0a 24 31 3b
       -0.10914985 0.09170577 0.049380478 0.0027029538
0002f0 6a f1 d1 3d 66 df a1 bd e0 37 4a 3d 1f be bb 3d
       0.10251124 -0.07903938 0.049369693 0.09167122
000300 40 ca a9 bb 04 1d 8e 3d 83 4e a8 3d 68 39 71 bd
       -0.005181581 0.06939128 0.082181 -0.058892637
000310 6f 2e 16 3d 49 de 59 bc 0b 07 8e 3d 61 71 ab 3d
       0.036665376 -0.013297626 0.06934937 0.08371235
000320 fc f2 d5 bd 20 3a 95 3c b0 ba b9 3d ca c0 ac bd
       -0.10446736 0.018216193 0.09068811 -0.08435209
000330 a7 f2 bc 3d b4 cf 3d bd f0 20 cb bc 9c 6f 41 bd
       0.0922597 -0.04634066 -0.02479598 -0.04722558
000340 5c 28 5d 3d b9 20 e8 bc 46 d4 8b bd 6a 21 aa 3c
       0.053993568 -0.028335916 -0.06827597 0.020767886
000350 9b d9 a0 3d 7c 5f 82 3d 20 4f 0f bc 6e 87 87 3d
       0.07854005 0.063658684 -0.008746892 0.06617628
000360 4a 45 90 3d 80 5d c8 3d a0 8b 3f bd 6c df b5 3d
       0.07044466 0.09783459 -0.046764016 0.08880505
000370 6e ba a8 3c de 1c ee 3c a6 7e 61 bd 78 95 dc bc
       0.02059671 0.0290665 -0.055052422 -0.026926741
000380 f5 df 20 3d 50 da 96 3d 49 b8 f5 3d 54 fa 0d bc
       0.039276082 0.073658586 0.1199804 -0.00866564
000390 4f 04 5a 3d 08 4b 9e bd 3f 9a 53 bd 6b 0e ac bd
       0.053226765 -0.07729155 -0.051660772 -0.084011875
0003a0 7a 3f bd 3d 3a 80 4a bd eb 89 af bd 30 50 06 bc
       0.09240623 -0.049438693 -0.08571228 -0.008197829
0003b0 98 58 b8 b9 04 9f 89 3d 32 80 84 bd 57 81 e3 bd
       -0.00035161222 0.06719783 -0.06469764 -0.11108654
0003c0 c6 02 f1 bd 26 13 98 3d 70 e8 45 bd a1 af b9 3d
       -0.11768107 0.07425527 -0.048317373 0.09066702
0003d0 78 c1 47 3c e8 ed 1c 3d dc c8 9f bd 91 f3 33 bd
       0.012192123 0.038312823 -0.07801983 -0.043933455
0003e0 30 0b 16 bd 14 a3 aa 3d f7 2c c9 3d 17 e8 ba bd
       -0.036631763 0.08331886 0.098230295 -0.09126299
0003f0 7a 37 eb bc c8 7c eb 3c e3 09 86 bd 90 75 43 3d
       -0.028712977 0.028746024 -0.065448545 0.04771954

fc2.bias f4 [64]
000000 5f eb f0 bd fd d1 98 bd ec 6a e5 3d b3 80 e3 bd
       -0.117636435 -0.07461927 0.11202034 -0.11108532
000010 0c e6 f6 3d 17 96 56 3c a7 d1 f9 bc b0 13 48 bd
       0.12055597 0.013097308 -0.030495478 -0.0488469
000020 db 45 99 bc 96 d5 d5 3d 22 e7 57 bd 34 58 f1 3d
       -0.018710067 0.10441129 -0.05271066 0.117844015
000030 33 00 ab 3d 58 3c 9b 3c e1 78 ab 3d b6 0a a7 bd
       0.083496474 0.018949673 0.08372665 -0.0815634
000040 94 ab 27 bd 2e ab 77 bd ac e2 d6 3d ce 8c 7b bd
       -0.040935114 -0.060465984 0.10492453 -0.06141358
000050 87 d2 30 bd ec e8 09 bd 71 fb a2 3d 3e a1 07 3d
       -0.043169525 -0.033669397 0.07958115 0.033112757
000060 03 1e 65 3b db d7 37 3b 77 96 c1 3c 04 8b 16 3d
       0.0034960515 0.0028052244 0.023631318 0.03675367
000070 60 52 fa bd a3 65 ff bd 33 15 77 bd e0 bc f2 bd
       -0.12222743 -0.124705575 -0.06032295 -0.11852431
000080 19 de 7f bd b2 a7 f8 bd 0b 94 da bd eb 3d 80 3c
       -0.06246767 -0.1214136 -0.10672768 0.015654525
000090 af d9 e9 bd 6d cf 84 3b 4c 82 93 bd b8 6c 3e bd
       -0.11418473 0.0040530474 -0.072025865 -0.0464904
0000a0 5e 55 f4 3c 08 b2 36 bd 79 ab 19 bd c0 eb 36 3d
       0.029825862 -0.044603378 -0.037517045 0.044658422
0000b0 46 42 5a 3b 44 6f d3 bb 5a 23 4b bc 3b ee 6b ba
       0.0033303662 -0.006452473 -0.012398565 -0.00090000377
0000c0 76 10 45 bd de 39 a2 3d c4 73 c8 3d 6f e5 59 bd
       -0.0481114 0.079211935 0.097877055 -0.05319732
0000d0 5c 4a 9a 3d 6f a7 34 bd 7d cf b0 bd 01 ee a8 bd
       0.07533714 -0.04410499 -0.08633325 -0.08248521
0000e0 2c d0 85 bd e3 f3 df bd 1f 79 84 3d 3d 0f e4 bd
       -0.06533846 -0.109351896 0.064684145 -0.11135719
0000f0 10 76 65 3c c9 9d ca 3b 1a a8 c4 bd a9 6c 84 bd
       0.014005199 0.0061833602 -0.09602375 -0.06466038

fc3.weight f4 [6, 64]
000000 f3 cb d0 3c 9d 4f 37 3c 39 3f ac bd b6 51 dc 3c
       0.025487876 0.011188415 -0.08410496 0.026894432
000010 43 49 d3 bd 5a 6e a1 bd 1a 12 86 3c be f8 f0 bd
       -0.10316708 -0.07882376 0.016366053 -0.11766194
000020 e5 6d c3 3d 51 c1 00 3e e3 75 96 bd fe 94 cd 3d
       0.09542445 0.12573744 -0.07346704 0.10038184
000030 59 36 a6 3d c2 bb 97 3d 7d 67 2f 3c 57 ec fd 3d
       0.08115835 0.07408859 0.010705826 0.12398594
000040 c0 10 3b bd 47 48 6f bd 8b 7b 8b bd 45 db 80 bd
       -0.04567027 -0.05841854 -0.06810673 -0.06291822
000050 0b 3d a2 3d f4 14 c8 bd 83 c6 14 3d 60 5a 57 bc
       0.07921799 -0.097696215 0.036322128 -0.013144106
000060 3f ac ed bd b7 cd 0e bd ca f3 da 3d 44 dc a7 3d
       -0.11605119 -0.034864154 0.1069103 0.08196309
000070 3a 4a ab bd e8 0b ab bd e9 d1 ab bc c7 79 4d bd
       -0.08363767 -0.0835188 -0.020974116 -0.050164964
000080 dd 66 97 bd 2d 93 f0 3d b2 46 ad 3d 3b 12 0f bb
       -0.073926665 0.117468216 0.0846075 -0.0021830935
000090 e3 5c ed bd 46 a0 16 3d da 37 26 bd d4 c2 80 3d
       -0.11589982 0.036773942 -0.040580608 0.062871605
0000a0 a2 9e 98 3d 41 60 a5 3c a7 a9 a1 3d 91 0c 2e 3d
       0.07452132 0.020187499 0.07893687 0.042492453
0000b0 79 98 f8 3d 41 6f 93 3d ea b4 ce bc 3a 52 ec bd
       0.12138457 0.071989544 -0.02523275 -0.11539121
0000c0 54 01 69 3c b7 e7 61 3c e5 ae 47 3d 78 8a a4 3d
       0.014221508 0.013788155 0.048750777 0.08034223
0000d0 9e 3a 9e 3d 12 b7 62 bd 65 d6 e9 3d 18 9a d6 bd
       0.07726024 -0.05535037 0.11417846 -0.1047861
0000e0 d0 b6 80 3c ea 60 dd 3d ca 67 87 bb 90 c7 d2 bc
       0.015712172 0.108095005 -0.0041322457 -0.025729924
0000f0 38 d3 6a bd 8c 89 b1 3d 84 cb 78 bd 10 de ca bc
       -0.05733034 0.08668813 -0.060740963 -0.02476409
000100 30 09 b6 bd 45 9a 9c bd cf 83 4a 3d 7b 12 eb 3d
       -0.08888471 -0.07646612 0.04944211 0.11478134
000110 7d a6 c4 3d d1 a5 c9 3c c8 dc 96 3d 4a ea e4 3d
       0.096020676 0.0246152 0.073663294 0.111774996
000120 2f dc 94 bd ac 98 42 bd b4 63 fd 3d 84 1d 2c 3d
       -0.07268559 -0.04750888 0.123725325 0.042020336
000130 9f f2 ca bd 20 90 5b 3c 87 f4 fb bb d7 95 a2 3d
       -0.099095576 0.013401061 -0.007689062 0.07938736
000140 58 51 c9 3d 56 a9 9c 3d b6 1a 24 bd 25 5e cc bd
       0.09829968 0.07649486 -0.040064536 -0.09978894
000150 17 59 de bc ec 43 58 3d 21 e1 c4 bd 97 33 39 3c
       -0.02714209 0.05279915 -0.096132524 0.011303804
000160 62 34 b9 bd aa 93 b2 3b 84 d1 6c 3d 44 f1 d1 bd
       -0.09043194 0.005449732 0.057816997 -0.10251096
000170 43 a6 85 3d 79 3f 7f bd d3 4c c1 3d c6 1b 26 3d
       0.065258525 -0.06231639 0.09438481 0.04055383
000180 65 a0 28 3d 1d 1f a9 3d 05 ce c2 3c ce e5 7a bd
       0.04116859 0.082578875 0.023779878 -0.061254315
000190 a9 96 9b 3d 66 b6 ec bb c8 48 80 bd 14 8d d7 bd
       0.075970955 -0.007223892 -0.06263882 -0.105249554
0001a0 60 74 4e bd 12 ac 9b 3d 26 e7 46 3d c0 04 ba 3b
       -0.050403953 0.07601179 0.048560284 0.005676836
0001b0 78 da 87 bc 88 4a 91 3c 22 94 07 3d c9 54 29 bd
       -0.016583666 0.017735735 0.033100255 -0.041340623
0001c0 69 ab f0 3d 26 d1 47 3d fa 42 34 3d cc 46 ba bd
       0.11751444 0.048783444 0.044009186 -0.09095535
0001d0 e6 84 46 bd cd b8 a6 3d 02 63 9f bd 34 00 fa bd
       -0.048466586 0.08140717 -0.07782556 -0.1220707
0001e0 1d 76 ac bd 83 46 61 3d cb b0 d7 3d 2d 30 ee 3d
       -0.08420966 0.054998886 0.105317675 0.116302826
0001f0 68 ac a0 3d 05 2f 53 3d 95 d5 78 3d f0 28 23 bd
       0.07845384 0.051558513 0.060750563 -0.039833963
000200 dc 31 df bd f5 99 f1 3d c0 cf b6 bd ac 7d af bd
       -0.10898182 0.11796943 -0.08926344 -0.08568892
000210 b4 00 32 3d 11 59 41 3d 2f 0b ce 3d 58 97 b6 3d
       0.0434577 0.04720408 0.10060727 0.08915585
000220 86 3d c2 bd 0a 5e ab 3c ef 97 bc 3d 0e 78 9f 3d
       -0.09484391 0.020918865 0.092086665 0.077865705
000230 b9 4a 38 3d c0 6e 24 3d ed 33 d2 3d 1f a8 8d bd
       0.044993136 0.040144682 0.1026381 -0.06916832
000240 b0 20 84 3c 38 10 9f 3d 7e 4a a7 3c 53 9a e5 bc
       0.016128868 0.07766765 0.020421263 -0.02802769
000250 bf ae 8c 3d 74 81 4b 3d 03 05 b6 3d c5 41 eb 3c
       0.06869268 0.049684003 0.08887675 0.028717885
000260 d3 c7 2f 3c 55 42 c0 bd fc 89 57 3d 7c 69 5b bd
       0.010728794 -0.09387652 0.052621827 -0.053567395
000270 b1 74 60 bc 6d 58 7b 3d 58 84 26 3d 9c 42 ef 3b
       -0.013699696 0.061363626 0.040653557 0.0073016416
000280 6c 80 ef 3c dd da e1 3d 1a 68 30 3d 96 69 df 3d
       0.029236041 0.11028073 0.04306803 0.10908811
000290 1a bf d6 bd 52 58 35 bd a5 f5 a5 bc f6 b8 82 bd
       -0.104856685 -0.044273682 -0.020258734 -0.06382935
0002a0 c6 6d d6 bd 11 21 45 bc 7f 91 fe 3c bc b2 4f bc
       -0.10470156 -0.012031809 0.031075237 -0.012676891
0002b0 34 d3 17 3b 8c 94 73 3d 33 c7 8d bd c0 63 c8 bd
       0.0023166658 0.059467837 -0.0692276 -0.09784651
0002c0 ee a0 57 ba fa 13 d2 3d c3 d2 95 bc 79 3a ee bd
       -0.00082255795 0.102577165 -0.018288976 -0.116322465
0002d0 5e c9 6b bd 2e 66 a1 bd 78 57 e6 3d 1e 0d 51 bd
       -0.057565086 -0.07880817 0.11247152 -0.0510379
0002e0 95 73 b2 bd 17 3d b1 3c 86 8e ab 3d a9 cf e6 3d
       -0.08713452 0.021635575 0.083767936 0.11270077
0002f0 00 f1 df 3c de ee 72 3d 57 ea a1 3d b8 c2 8b bc
       0.027336597 0.059309833 0.07906025 -0.017060623
000300 f9 bd 07 3d 1f a4 1c bd 7d e8 1f 3d dd 44 8f bd
       0.033140156 -0.038242456 0.039040077 -0.069955565
000310 81 e2 64 bd a2 af 54 bd 05 1b 95 bc 74 7b db 3d
       -0.055880073 -0.05192531 -0.01820136 0.10716906
000320 6e 0d 67 bd 2a aa 58 3d 87 68 09 3d f4 b7 fc bd
       -0.056409292 0.052896656 0.03354695 -0.12339774
000330 87 a1 04 3d 36 51 e3 3d a5 20 fa bd e6 97 c0 bd
       0.032380607 0.11099474 -0.12213258 -0.09403972
000340 e8 12 58 bd 33 ea 86 3d 67 17 89 bc 19 79 a3 bd
       -0.052752405 0.06587639 -0.016734792 -0.07982082
000350 8f 10 a0 3d c0 5c d5 bd d0 5e de 3b f7 14 82 bc
       0.07815658 -0.10418081 0.006786205 -0.015879137
000360 aa 81 81 3d a7 17 ef 3d fd 30 1c bd 50 ae 90 bc
       0.063235596 0.11674433 -0.038132656 -0.017661244
000370 14 fb 92 3d 3c 17 b2 3d 2e 9c ff bc 98 f8 94 3d
       0.071767956 0.08695838 -0.031202402 0.07273978
000380 0f 56 d8 bc a2 f8 e6 3c ab ee 25 3d 84 09 8b 3d
       -0.026408223 0.02819473 0.040510815 0.06788924
000390 df d2 d3 3d b9 23 cf bc cc 56 fe bc 44 2a f7 bd
       0.10342955 -0.025285589 -0.031047247 -0.120686084
0003a0 b3 7b 03 3d 79 db 23 3c e9 e4 64 bd f2 89 8b 3d
       0.03210039 0.010001057 -0.05588237 0.0681342
0003b0 64 e5 b0 3d 7f 8a d8 bd b3 f5 88 bd 3e 3c 69 39
       0.08637503 -0.10573291 -0.066874884 0.00022243054
0003c0 f4 8e f5 bd 1f 8d d9 3d 97 16 a2 3d 45 8c d1 bd
       -0.11990157 0.1062262 0.07914465 -0.102318324
0003d0 50 1a bb 3d 9f d5 7e 3d b7 11 ed 3d 51 32 eb 3d
       0.09135878 0.062215444 0.115756445 0.114842065
0003e0 29 36 7f bd 12 f7 82 bc 51 4b 91 bd 6d 7d a5 bc
       -0.06230751 -0.015986953 -0.070944436 -0.02020141
0003f0 b4 2a f1 bd c2 e1 d7 bd 18 54 26 bd d4 5d 2e 3d
       -0.11775723 -0.10541107 -0.04060754 0.04256995

fc3.bias f4 [6]
000000 34 ef 47 3d 13 7e 91 3d 6c 93 d1 3d 3d 57 87 bd
       0.048812106 0.07104125 0.102331966 -0.06608436
000010 a3 37 9f 3d 0e b9 10 3c
       0.07774284 0.008833183

fc1.weight f4 [64, 4]
000000 72 5b f5 be fc c8 24 be 10 59 f5 3e 18 e4 e0 be
       -0.4792133 -0.16092294 0.47919512 -0.43924022
000010 4c cd e8 be 38 a1 6d be 48 3b 0f be 30 dc 36 bd
       -0.4546913 -0.23206031 -0.13987458 -0.04464358
000020 48 23 2d be 3c d4 0a 3e 8e 57 92 3e b0 e6 cc bd
       -0.1690799 0.13557523 0.28582424 -0.10004938
000030 54 c6 78 be 4c 17 f0 3e dc 6f ae 3e b4 6a 90 be
       -0.24294406 0.46892774 0.34069717 -0.28206408
000040 6c cb 30 3e 18 4e 2d be d0 10 7d 3d 08 23 08 be
       0.172651 -0.16924322 0.06178361 -0.13294613
000050 00 1e c4 ba 38 ad e8 bd 32 59 e2 3e 3e ff 99 3e
       -0.0014962554 -0.11361164 0.44208676 0.30077547
000060 40 f0 f8 be 26 cf f4 3e 98 3d 7e 3e c0 24 94 3c
       -0.48620796 0.47814292 0.24828184 0.01808393
000070 b2 fa 84 3e 52 53 91 be 90 c9 06 bd 78 ce d7 bd
       0.25972515 -0.2838388 -0.03290707 -0.10537428
000080 26 ea a4 3e 48 03 38 be 56 28 da 3e 7a b9 da be
       0.3220989 -0.17970002 0.426089 -0.42719632
000090 bc f2 17 be 96 0a 96 be 30 6e 28 3d 1c 77 5b be
       -0.1483869 -0.2930495 0.041120708 -0.21432155
0000a0 0a 5b dc be 80 cb ff be 00 37 89 3e 00 81 6c 3c
       -0.43038207 -0.49959946 0.26799774 0.014435053
0000b0 b0 4d 45 be ba dc c4 be 66 4d c6 be 84 3c 33 be
       -0.19267917 -0.3844965 -0.38730925 -0.17503554
0000c0 78 85 01 3e e4 0c 02 3e d4 bf ff be 18 36 63 be
       0.1264857 0.1270023 -0.4995104 -0.22188604
0000d0 9c 48 38 be aa f3 9e be 4c 31 85 be 8e 6b bb 3e
       -0.17996448 -0.31045276 -0.26014173 0.36605495
0000e0 ac 23 02 3e cc ad 86 be 76 91 fe be 60 32 98 3c
       0.1270892 -0.26304471 -0.49720353 0.018578708
0000f0 40 00 e4 bc 44 18 5f be 64 84 4a be d0 07 16 be
       -0.02783215 -0.217866 -0.19777066 -0.14651418
000100 70 17 92 be fc eb 63 be e8 17 55 be 74 d4 b0 3e
       -0.28533506 -0.2225799 -0.20809901 0.3453709
000110 a4 d3 75 be bc 2d c3 3e 98 f1 c3 3d 2a 62 e5 3e
       -0.24006516 0.3812083 0.09567565 0.44801456
000120 bc 42 fb 3e d0 25 cc be 76 80 e8 3e ce cf cd 3e
       0.49074352 -0.398726 0.45410508 0.40197605
000130 3c f1 df 3e ec 84 be be 5c bc 4c 3e d8 bb 1b be
       0.43738735 -0.37210786 0.19993728 -0.15208375
000140 84 51 43 3e 58 ec d7 3d 2e 7a d4 3e b4 a5 c7 be
       0.19074064 0.10543126 0.41499466 -0.3899361
000150 dc 33 0d be b0 d9 50 be 1c 56 3e be 82 b1 df be
       -0.13789314 -0.20395541 -0.18587536 -0.43690115
000160 30 d4 fb be 7c 3a 26 be 90 19 6e 3e c0 af 04 3e
       -0.49185324 -0.16233248 0.23251939 0.12957668
000170 ae 6e e1 3e 20 07 e4 be 4c 95 52 3e d8 0f 51 3e
       0.44029754 -0.44536686 0.20564765 0.204162
000180 68 2a 7a 3e 00 b0 7d bb 98 70 6e 3e 30 c4 37 bd
       0.24430239 -0.003870964 0.23285139 -0.044864833
000190 8c dd 05 be 20 63 d5 bd 50 c5 d0 3d 0e 88 8d be
       -0.13072795 -0.10419297 0.101938844 -0.27642864
0001a0 3e 32 dc be 10 bd 44 be 94 1e f1 be a0 e2 09 bd
       -0.43007082 -0.19212747 -0.47093642 -0.033663392
0001b0 62 67 a6 3e ae 26 9a be d8 0e ec bd 7c ca b2 3e
       0.3250075 -0.30107635 -0.11526269 0.34920108
0001c0 e2 69 a6 be 82 0d dc 3e c8 90 89 be a0 d3 97 3c
       -0.32502657 0.42979056 -0.26868272 0.018533528
0001d0 e8 63 a2 be 38 43 d7 3e 7a e3 8e be 2a 5b 97 be
       -0.31716847 0.4204347 -0.27907926 -0.2956174
0001e0 40 a7 58 3c 30 83 85 3e e0 6a 32 bd 32 96 a8 3e
       0.013223469 0.2607665 -0.043558955 0.3292709
0001f0 68 e8 e6 be 30 1f 77 bd c8 1b 48 be 1c 11 04 3e
       -0.45099187 -0.060332477 -0.19541848 0.12897152
000200 0e 68 f3 3e 30 59 e3 3d d4 8c 3c be 0e 2c c3 be
       0.47540325 0.111009955 -0.18413097 -0.3811955
000210 34 1d a3 be a8 95 09 be e6 70 ed 3e 98 ae 98 3d
       -0.31858218 -0.13435996 0.46375197 0.07455176
000220 fa 13 8d be e4 5c 1a 3e 32 cc a5 3e e0 1d c6 3c
       -0.27554303 0.15074497 0.3238235 0.024184167
000230 0a 92 b1 3e 16 32 b5 be ac 1b 87 be 48 05 ea 3e
       0.3468173 -0.35389775 -0.263883 0.45707154
000240 d2 43 e7 3e c8 d8 61 be 7a 33 b9 be 2e 64 ef be
       0.4516893 -0.22055352 -0.36172086 -0.4675612
000250 f4 01 ca be 20 9b 8c 3c bc 9d 54 3e d8 6f 96 3d
       -0.39454615 0.017163813 0.20763296 0.07345551
000260 d4 af 89 be 7c ce 34 3e b0 23 39 3d f4 51 a9 3e
       -0.2689196 0.17656893 0.04520005 0.33070338
000270 b6 6a e8 3e fc f6 0c 3e 32 9d ca be 0e df ca 3e
       0.45393914 0.13766092 -0.39573056 0.39623302
000280 22 89 ad be f4 e2 32 3e 40 3d 5b bc 3c 8d 87 be
       -0.33893687 0.17469388 -0.013381302 -0.2647494
000290 48 9d 5b be 24 95 9e 3e 5e e5 e6 3e 6a 9f b6 3e
       -0.21446717 0.3097316 0.45096868 0.35668498
0002a0 5e f9 e4 be da 32 d6 3e 2c 9e b4 3e f8 64 04 be
       -0.44721502 0.41835672 0.35276926 -0.12929142
0002b0 08 b8 22 be c0 9e ff bc 38 a1 c5 be d8 75 01 3e
       -0.15890515 -0.031203628 -0.38599563 0.1264261
0002c0 78 2b 8e 3d 1a 18 fe be 68 f2 cd 3e cc 24 9d be
       0.06941885 -0.49627763 0.40224004 -0.30692136
0002d0 3c 78 89 3e 00 c1 ff 3e e2 5d 94 3e ec 41 53 be
       0.26849544 0.49951935 0.28977877 -0.20630616
0002e0 34 20 79 be 40 ba b2 be a4 63 40 3e 20 10 b0 3e
       -0.24328691 -0.34907722 0.1878801 0.34387302
0002f0 c0 2a 9c bc 74 9f 7c 3e 7a cb fc be 68 f8 3d be
       -0.019063354 0.24670202 -0.4937399 -0.1855179
000300 66 c1 f9 be 00 a7 ab 3c 44 e2 64 be 28 ac b4 bd
       -0.48780364 0.020953655 -0.22351938 -0.08821899
000310 20 86 ce bd c0 7b 8f 3d f8 6a a0 bd 50 4f 5e be
       -0.10084176 0.07006025 -0.07832903 -0.21709943
000320 82 0a 82 3e aa 72 bb 3e b8 cd c0 3e 78 1c dc be
       0.25398642 0.3661092 0.3765695 -0.4299047
000330 00 29 b0 bd c4 f6 94 be a0 d7 e3 3e 40 c1 63 3c
       -0.0860157 -0.29094517 0.44500446 0.013901055
000340 36 6f ff 3e 74 b8 b8 be ca 37 8f 3e 00 71 94 3e
       0.49889535 -0.36078227 0.2797225 0.28992462
000350 3c 49 31 be 98 78 b2 3e 30 ef ef bd b6 64 9d be
       -0.17313093 0.3485763 -0.11715543 -0.307409
000360 2a d1 80 3e 16 18 a5 be dc 02 35 be 0c 70 18 3e
       0.2515958 -0.3224494 -0.17676872 0.14886492
000370 b4 25 1b be 1a 28 8f 3e 18 f4 80 3d 90 73 cb be
       -0.15151101 0.27960283 0.06296557 -0.39736605
000380 f8 2a da bd c4 2c 3e 3e c0 a5 69 3e 14 d3 bb 3e
       -0.10652727 0.18571764 0.22817135 0.36684477
000390 ac 03 04 be 60 8f 54 bd 8c a5 72 be 32 f8 b1 3e
       -0.12892026 -0.051894546 -0.23695964 0.3475967
0003a0 80 3a 0b be d6 2a a9 3e f0 86 02 3e b0 94 dd 3d
       -0.13596535 0.33040494 0.12746787 0.108193755
0003b0 38 64 a5 3e 14 21 7f be 74 49 1f be 28 3b 81 bd
       0.32303023 -0.24914962 -0.15555364 -0.06310111
0003c0 60 55 7d 3e 96 86 d9 be d4 57 68 be 9e 86 b4 be
       0.24739599 -0.42485493 -0.22689754 -0.35258955
0003d0 8a 99 ed be 54 ad 21 3e 30 59 32 3e 84 c9 4e be
       -0.46406204 0.15788776 0.17416835 -0.2019406
0003e0 d2 fa ea 3e 18 b6 53 be c4 b0 35 be a0 e5 a9 be
       0.45894486 -0.20674932 -0.17743212 -0.33183002
0003f0 38 d1 84 3e 9c 7c 43 be 8a 80 d4 be 2e ed f9 be
       0.2594087 -0.19090503 -0.41504318 -0.48813766

fc1.bias f4 [64]
000000 ae 04 ed 3e d0 ce c3 bd 5c 2d 15 be 18 b3 d1 bd
       0.46292633 -0.09560931 -0.14568084 -0.102392375
000010 1c e2 c8 3e e0 54 30 bd c8 0a 9e bd 60 d1 c2 bc
       0.39235008 -0.043049693 -0.077169 -0.023781478
000020 f8 c4 ad be fa 4f f6 3e a8 ca fa 3e c0 9d a8 bd
       -0.33939338 0.48107892 0.4898274 -0.082332134
000030 38 a0 5b be e4 86 1d be 7a 7e a9 3e 40 2c 34 bc
       -0.21447837 -0.15383488 0.33104306 -0.010996878
000040 40 86 8c bd 30 7a 1e bd e2 80 a5 be 20 93 97 3e
       -0.06861544 -0.038690746 -0.32324892 0.29604435
000050 38 f2 e1 3d d6 98 e9 be 26 98 89 be e0 ec b2 bc
       0.11032528 -0.45624417 -0.26873893 -0.021841466
000060 9a 86 93 be a8 0a 46 3e 40 3f c7 be 8e 06 d2 be
       -0.2881363 0.19340003 -0.38915443 -0.41020626
000070 00 e2 91 ba 4e 91 99 be c8 03 c8 be 14 d1 45 be
       -0.0011129975 -0.2999367 -0.39065385 -0.19318038
000080 6c 73 d8 3e 40 8c 81 3c 5e 29 c7 be 84 13 18 3e
       0.4227556 0.015813947 -0.38898748 0.14851195
000090 72 cd 9b 3e 50 7e dc be 4c a0 cd be a4 3a 98 be
       0.3043018 -0.4306512 -0.4016136 -0.2973224
0000a0 50 46 99 3d d6 a8 9a 3e 14 3e 2a 3e 6c eb a1 be
       0.07484114 0.30206937 0.16625243 -0.31624925
0000b0 e8 9d 3e be 8a 80 cc be da 8d 8d be 64 07 0f 3e
       -0.18614924 -0.39941818 -0.27647287 0.13967663
0000c0 90 66 55 bd b8 9c 9f 3d 40 be 22 be 08 a2 d5 3d
       -0.052099764 0.077935636 -0.15892887 0.10431296
0000d0 82 34 d5 be dc 59 33 be 38 ed 00 3e 70 61 3d 3d
       -0.41641623 -0.17514747 0.12590492 0.0462355
0000e0 68 44 d8 bd 4c 9a a9 be 84 81 53 3e b8 4a 4b be
       -0.105599225 -0.33125532 0.20654875 -0.19852722
0000f0 9c d8 8a be 4a 67 d2 3e a0 20 65 3e 80 ef 09 3c
       -0.27118385 0.41094428 0.22375727 0.008418918

fc2.weight f4 [64, 64]
000000 ca 17 80 bd 20 a7 c4 bd f0 a9 1f 3c 34 8e 6e 3d
       -0.062545374 -0.09602189 0.009745106 0.058241084
000010 4c 24 f9 bd c0 02 98 bc 00 6e 94 bd 70 a0 8d 3d
       -0.12165126 -0.018555999 -0.07247543 0.06915367
000020 b0 07 c7 3d 36 8d ce 3d 6c ad c4 3d f6 bd cc 3d
       0.09718263 0.100855276 0.0960339 0.0999717
000030 08 7f e6 3d a4 64 b3 3d 78 c5 b3 3c 32 22 99 3d
       0.11254698 0.0875943 0.021944746 0.07477225
000040 c0 6a d0 bc 22 2e c5 bd 14 e8 be bd 80 2c 05 3d
       -0.025441527 -0.0962794 -0.09321609 0.03251314
000050 40 2e 8a bc 38 0c 90 bc 00 e5 cd 3b 5e 57 a4 bd
       -0.016867757 -0.017583951 0.0062834024 -0.080244765
000060 50 32 73 bd ae 78 9c 3d b8 44 fc bd 24 a4 f3 3d
       -0.059374154 0.07640205 -0.123177946 0.11896542
000070 00 7d fa bd 8c cb da 3d 1c 3b 36 3d 40 0d 44 bb
       -0.12230873 0.10683355 0.044489965 -0.0029915124
000080 c2 07 83 bd c8 e1 69 3d f4 37 ea bd a4 54 8b bd
       -0.06397964 0.057100087 -0.114364535 -0.06803253
000090 14 a3 0a bd f0 7d 81 3d ba 22 cb 3d b0 a5 f7 bd
       -0.03384693 0.06322849 0.09918733 -0.12092149
0000a0 6c ec da bd b8 d6 fc 3d 8c 36 9f bd ce 3f cc bd
       -0.10689625 0.12345642 -0.07774076 -0.09973107
0000b0 68 fa bb bd d0 17 20 3d 80 d9 38 bb b0 04 10 bc
       -0.091786206 0.03908521 -0.0028205812 -0.00879018
0000c0 28 a4 f3 bd 60 3d 9a 3d 54 61 66 3d 62 12 b3 bd
       -0.11896545 0.075312376 0.056245163 -0.087437406
0000d0 48 cd 4c bd c0 2b c3 bc ba 0b 8c 3d a0 0a 14 bc
       -0.05000046 -0.023824573 0.06838174 -0.009035736
0000e0 d0 14 9c bd c4 49 f2 3d 80 17 09 3d ea d3 b7 3d
       -0.07621157 0.11830476 0.033469677 0.08975966
0000f0 92 35 df bd d0 7d 6c 3c 5e 31 f9 3d 72 0b b2 bd
       -0.108988896 0.014434293 0.12167619 -0.08693589
000100 14 d7 ce 3d 86 2e a2 3d c0 7a c3 bb d4 0c 97 3d
       0.10099617 0.0791903 -0.0059655607 0.07375494
000110 5c b5 f1 3d 98 e6 10 3d d0 07 61 bd f4 ec c3 3d
       0.1180217 0.03537616 -0.05493909 0.095666796
000120 50 f4 51 3c 00 6c c0 39 46 70 a9 bd 34 c2 98 bd
       0.012814596 0.0003670156 -0.082733676 -0.07458916
000130 a8 73 c1 3c b4 47 2a 3d 2c 5e 77 3d 6c 3e e0 bd
       0.02361472 0.041572288 0.060392544 -0.10949406
000140 f4 53 b3 3d 38 b4 4f 3d b8 45 c5 bc f0 b5 90 3d
       0.08756247 0.05070898 -0.024081096 0.07065952
000150 7c fa c4 3d 80 a7 50 bd b4 9f 98 bd 00 e1 2d bb
       0.096180886 -0.05094099 -0.07452336 -0.0026531816
000160 d2 f6 aa 3d c0 2a 24 bb e0 b3 cf bc 1e a2 ea 3d
       0.083478585 -0.0025049895 -0.025354326 0.11456703
000170 44 9d 7a 3d 70 a1 23 bd e0 3f 90 3d 5a fd cb bd
       0.061185136 -0.03994888 0.07043433 -0.09960432
000180 2e f1 a5 bd 04 5f 2b 3d 38 fb e1 3c 20 9d 65 bd
       -0.08102642 0.04183866 0.02758561 -0.05605805
000190 a2 3d 89 3d e8 9e d3 bd d2 2d d8 bd 6e 80 b8 bd
       0.06701209 -0.10333043 -0.105556145 -0.09008871
0001a0 5e ac 86 3d 10 7b 7e bd 30 fa eb 3d 84 b7 d1 bd
       0.06575845 -0.06212908 0.11522329 -0.10240081
0001b0 7c ad ca bd 48 76 96 3d 10 aa fb bd 18 1d 79 3d
       -0.09896371 0.07346779 -0.12288296 0.06081876
0001c0 06 48 b3 3d 68 41 c7 bc 08 7b 85 bc 9c d5 93 3d
       0.08753972 -0.02432318 -0.016294017 0.07218477
0001d0 38 4e 84 bd d0 b0 22 bc 84 38 9e bd 5e a5 af 3d
       -0.064602315 -0.009929851 -0.07725623 0.08576463
0001e0 a8 b6 9a 3c c2 e9 df bd a0 4a a3 3b 00 f2 5c 3d
       0.018885925 -0.10933258 0.004983261 0.053941727
0001f0 30 ce 91 bc c8 dc 89 3d 0a fc f1 3d ae f9 ab 3d
       -0.017798513 0.06731564 0.11815651 0.08397232
000200 c6 08 ac 3d 34 3a bd 3d f4 8c 55 bd 2c 1d 69 bd
       0.08400111 0.09239617 -0.052136377 -0.056912586
000210 ca d5 85 3d fc 80 36 bd 72 48 a6 bd d2 30 c6 bd
       0.06534918 -0.044556603 -0.081192866 -0.096772805
000220 90 ce f6 3d 10 2f 8c 3c 4e e6 a2 3d 58 43 b3 3d
       0.120511174 0.017112285 0.079540834 0.08753079
000230 b0 d9 11 bd 28 93 72 3d 60 1d d7 bb 74 97 f9 bd
       -0.035607994 0.05922237 -0.006564781 -0.121870905
000240 4c 81 e7 bd 4e a7 a1 bd 5a b5 df 3d fc 1a 5e bd
       -0.11303958 -0.07893239 0.10923262 -0.054224953
000250 20 ef 40 3c 40 7b 24 bd d0 99 3a bc a4 4c 9b bd
       0.011775762 -0.040156603 -0.011389211 -0.075829774
000260 94 d6 4d 3d ae 9d 8a 3d 66 6b 8a 3d 88 cf d6 3c
       0.050253466 0.06768356 0.06758766 0.026222005
000270 c4 42 3f bd 70 ef d3 bd 86 d1 96 3d f2 b7 db 3d
       -0.046694532 -0.103484035 0.07364182 0.10728444
000280 d8 06 ba bd ec a5 21 3d e6 46 a3 bd 04 b3 d8 3d
       -0.090833366 0.039464876 -0.07972507 0.105810195
000290 de be 85 3d 7c 9c b1 3d 48 a2 3a bd 1a 1d fd bd
       0.06530546 0.08672425 -0.04556492 -0.12359066
0002a0 d0 dc 61 3c 84 7b 76 3d c0 b0 09 3d cc 83 3a bd
       0.013785556 0.060176387 0.033615828 -0.045535848
0002b0 00 26 db ba b4 14 52 bd bc f7 ef 3d b6 07 8a 3d
       -0.0016719699 -0.051289275 0.117171735 0.06739752
0002c0 04 e7 48 bd da 5e b3 3d 6c e0 92 bd 40 85 f1 3d
       -0.04904844 0.08758326 -0.07171711 0.117929935
0002d0 8c 70 51 bd d8 bb 92 bd 4e 12 a2 bd 0e 33 fa bd
       -0.051132724 -0.071647346 -0.079136476 -0.12216769
0002e0 74 d5 de bd a8 9c bc 3d e0 98 4b 3d c0 79 26 3b
       -0.10880557 0.09209567 0.04970634 0.0025402158
0002f0 ba 7e d1 3d 66 df a1 bd 08 7e 49 3d 5a 3b bb 3d
       0.10229249 -0.07903938 0.04919246 0.0914218
000300 40 ca a9 bb 04 1d 8e 3d b6 78 a7 3d 00 13 74 bd
       -0.005181581 0.06939128 0.08177321 -0.059588432
000310 54 54 13 3d 60 83 63 bc 96 2d 8d 3d 12 11 aa 3d
       0.035969093 -0.013886303 0.068934605 0.08304037
000320 60 7f d7 bd 20 3a 95 3c b0 ba b9 3d ca c0 ac bd
       -0.10522342 0.018216193 0.09068811 -0.08435209
000330 94 f5 bb 3d b4 cf 3d bd d8 04 ce bc 9c 6f 41 bd
       0.091777 -0.04634066 -0.025148794 -0.04722558
000340 5c 28 5d 3d d8 71 eb bc b4 55 8d bd 88 50 a4 3c
       0.053993568 -0.028740808 -0.06901112 0.020057932
000350 da 34 9f 3d 7c 5f 82 3d 20 4f 0f bc 14 12 86 3d
       0.077737525 0.063658684 -0.008746892 0.06546417
000360 56 b6 8e 3d 80 5d c8 3d a0 8b 3f bd 98 80 b4 3d
       0.069683716 0.09783459 -0.046764016 0.0881359
000370 b8 40 a5 3c b0 a3 ea 3c 84 7f 64 bd 78 95 dc bc
       0.020172462 0.028642505 -0.05578567 -0.026926741
000380 f0 f6 1d 3d 50 da 96 3d 16 e6 f4 3d 80 45 18 bc
       0.038565576 0.073658586 0.11957948 -0.009293914
000390 cc 55 57 3d 08 4b 9e bd b8 46 55 bd a2 75 ad bd
       0.052572057 -0.07729155 -0.052069396 -0.08469702
0003a0 7a 3f bd 3d a0 3f 4d bd f4 62 b0 bd 30 50 06 bc
       0.09240623 -0.050109506 -0.08612624 -0.008197829
0003b0 00 9c 3e ba f6 04 88 3d 32 80 84 bd 8e 46 e4 bd
       -0.00072711706 0.06641571 -0.06469764 -0.1114627
0003c0 c6 02 f1 bd 7e 0c 97 3d 50 24 49 bd e2 80 b9 3d
       -0.11768107 0.073754296 -0.049106896 0.090577856
0003d0 b0 db 3b 3c 68 1e 1b 3d 7a 03 a1 bd 14 46 36 bd
       0.011465952 0.037870795 -0.07861991 -0.044500425
0003e0 c0 d6 18 bd 14 a3 aa 3d b0 aa c7 3d bc 49 bc bd
       -0.037314177 0.08331886 0.09749353 -0.09193751
0003f0 90 25 ef bc c8 7c eb 3c 54 6e 87 bd d0 20 41 3d
       -0.029192716 0.028746024 -0.0661284 0.047150433

fc2.bias f4 [64]
000000 36 d7 f0 bd 54 80 98 bd 0c cf e5 3d d6 ec e4 bd
       -0.11759798 -0.07446352 0.11221132 -0.11177985
000010 da 3f f7 3d 70 72 7e 3c 58 5d ee bc b0 13 48 bd
       0.120727256 0.015530214 -0.029097244 -0.0488469
000020 e0 dd 83 bc 72 13 da 3d 40 cf 63 bd 34 58 f1 3d
       -0.01609701 0.1064824 -0.05561757 0.117844015
000030 52 9b aa 3d 58 3c 9b 3c 4e 4e b0 3d ea 1f ac bd
       0.08330406 0.018949673 0.086086854 -0.084045246
000040 94 ab 27 bd 94 26 7f bd 8e 72 d5 3d 4c e7 71 bd
       -0.040935114 -0.06229265 0.1042224 -0.059058473
000050 5c 92 33 bd ec e8 09 bd 56 22 a2 3d a0 bd 09 3d
       -0.04384075 -0.033669397 0.07916705 0.033628106
000060 e0 24 b3 3b 00 80 b5 b7 c0 cf ac 3c c0 c0 16 3d
       0.0054670423 -2.1636486e-05 0.021095157 0.036804914
000070 e0 e4 fa bd 44 4e fe bd 28 0e 70 bd 7e f3 f3 bd
       -0.12250686 -0.12417272 -0.05860725 -0.11911677
000080 8e bc 85 bd 2c fe fe bd 1a 5d df bd b0 d8 7e 3c
       -0.065301046 -0.12450823 -0.109064296 0.015554592
000090 ca de ef bd a0 50 a3 3b 84 2f 8e bd b8 6c 3e bd
       -0.117124155 0.0049839765 -0.06942657 -0.0464904
0000a0 50 fa df 3c 90 87 42 bd 4c de 0f bd 0c 19 2b 3d
       0.027341038 -0.047492564 -0.03512411 0.041771933
0000b0 00 19 c9 3a c0 f6 d4 bb 10 b9 21 bc 80 81 c4 3a
       0.0015342534 -0.0064991415 -0.0098707825 0.0014992207
0000c0 64 45 45 bd 3c 9f 9d 3d d4 28 c5 3d 44 0f 5a bd
       -0.04816188 0.07696387 0.09626928 -0.053237215
0000d0 58 e4 94 3d e0 5f 40 bd c6 ae ad bd 22 4d a7 bd
       0.072701156 -0.046966434 -0.08480601 -0.08169009
0000e0 28 65 83 bd 82 51 df bd d6 d0 88 3d 56 64 ea bd
       -0.064157784 -0.10904218 0.06680457 -0.11444919
0000f0 10 76 65 3c 80 35 8f 3b 66 78 c9 bd 80 87 84 bd
       0.014005199 0.0043703914 -0.09837417 -0.06471157

fc3.weight f4 [6, 64]
000000 80 8d cd 3c 10 c0 11 3c 02 12 ae bd a8 aa d4 3c
       0.025091887 0.008895889 -0.084995285 0.025960281
000010 f0 8b d4 bd aa bb a5 bd a0 c6 79 3c be f8 f0 bd
       -0.103782535 -0.08092435 0.01524511 -0.11766194
000020 7a 7c c0 3d a0 38 ff 3d 3c 63 9b bd fe 94 cd 3d
       0.09398742 0.12461972 -0.07587287 0.10038184
000030 c4 ca a1 3d c2 bb 97 3d e0 08 11 3c 4a 12 f9 3d
       0.079000026 0.07408859 0.008852214 0.121616915
000040 c0 10 3b bd 38 1e 73 bd 0a f7 8d bd 68 dc 84 bd
       -0.04567027 -0.05935499 -0.069318846 -0.06487352
000050 8e d2 a0 3d f4 14 c8 bd 5c c5 0e 3d b0 28 6b bc
       0.0785266 -0.097696215 0.034856185 -0.014352962
000060 90 39 f1 bd 4c 5c 18 bd 32 30 d6 3d 44 dc a7 3d
       -0.11778557 -0.037197396 0.10458411 0.08196309
000070 6a c7 ac bd a4 bb af bd 08 08 bf bc f0 87 4e bd
       -0.08436473 -0.085807115 -0.02331926 -0.05042261
000080 ea 50 9c bd 9a 87 eb 3d da ae aa 3d 80 f8 24 bb
       -0.07632621 0.11500473 0.083341315 -0.0025172532
000090 72 03 f2 bd d4 03 15 3d 84 95 2c bd d4 c2 80 3d
       -0.118170634 0.036380604 -0.042134777 0.062871605
0000a0 f0 d4 93 3d 68 3b 91 3c 7a 8d 9d 3d ac 87 24 3d
       0.07218349 0.017728522 0.07693 0.04016845
0000b0 56 94 f5 3d b2 21 93 3d 88 43 e1 bc 84 73 ee bd
       0.119911835 0.07184161 -0.027498022 -0.116431266
0000c0 20 0c 68 3c 90 77 3d 3c c4 5c 3e 3d 20 a0 9f 3d
       0.014163047 0.01156415 0.046475187 0.07794213
0000d0 c8 80 99 3d 68 db 6c bd 60 17 e5 3d 40 e2 d8 bd
       0.07495266 -0.05782643 0.11186099 -0.10590029
0000e0 40 71 78 3c 30 e0 db 3d 20 1b d0 bb 30 09 e6 bc
       0.01516372 0.1073612 -0.00635089 -0.028080553
0000f0 38 d3 6a bd 48 1b ad 3d 2a ad 81 bd 10 de ca bc
       -0.05733034 0.08452469 -0.063318565 -0.02476409
000100 48 14 b8 bd aa 44 a2 bd 74 e3 46 3d 20 6b e8 3d
       -0.08988243 -0.07923253 0.04855676 0.113485575
000110 30 1c c3 3d 28 12 b4 3c 96 3d 94 3d 4a ea e4 3d
       0.09526861 0.021981314 0.07238309 0.111774996
000120 ce 94 98 bd d8 fa 49 bd d0 86 f7 3d 84 1d 2c 3d
       -0.07450257 -0.04931149 0.1208626 0.042020336
000130 58 7c d0 bd 20 90 5b 3c e0 dd 21 bc f2 b3 9c 3d
       -0.10179967 0.013401061 -0.009879559 0.07651509
000140 58 51 c9 3d ec 59 9a 3d f4 91 29 bd 2c bc d0 bd
       0.09829968 0.075366825 -0.041398957 -0.10192141
000150 48 99 e3 bc ec 43 58 3d c8 80 c8 bd 20 53 22 3c
       -0.027783051 0.05279915 -0.09790188 0.009907514
000160 72 a6 bd bd c0 29 1f 3b e8 2c 61 3d 44 f1 d1 bd
       -0.092602625 0.002428636 0.054974467 -0.10251096
000170 0a e7 83 3d 80 3d 85 bd ee 3e bc 3d 98 c7 24 3d
       0.064405516 -0.06505871 0.091916904 0.04022941
000180 dc b1 1c 3d 64 f8 a2 3d 50 9d b7 3c f0 70 7b bd
       0.038255557 0.07957533 0.02241388 -0.061387002
000190 9e 02 96 3d b0 3e 02 bc cc a2 84 bd 14 8d d7 bd
       0.07324718 -0.007949516 -0.064763635 -0.105249554
0001a0 b4 18 5a bd a4 27 96 3d 3c 67 3c 3d 40 af 3a 3b
       -0.053246215 0.073317796 0.04599689 0.0028485805
0001b0 38 3e 96 bc 88 4a 91 3c f0 e7 f9 3c f4 33 2e bd
       -0.018340215 0.017735735 0.030506104 -0.042530015
0001c0 26 f5 ef 3d d4 32 3c 3d bc c6 28 3d 90 af bf bd
       0.1171668 0.04594691 0.041205153 -0.09359658
0001d0 f0 27 52 bd 6c b0 a0 3d ce 0a a5 bd b4 95 fc bd
       -0.05130762 0.0784615 -0.080587015 -0.12333241
0001e0 ae 0d ae bd ac 5c 5c 3d ee 6a d2 3d 58 14 e8 3d
       -0.08498703 0.053799316 0.102743015 0.11332005
0001f0 68 ac a0 3d ec 5b 48 3d 68 5b 6c 3d f0 28 23 bd
       0.07845384 0.04891579 0.05770436 -0.039833963
000200 7c ab de bd 40 75 f2 3d 42 21 b8 bd be 58 b0 bd
       -0.10872552 0.1183877 -0.089907184 -0.08610676
000210 64 d0 33 3d 08 87 43 3d 62 4b ce 3d 58 97 b6 3d
       0.04389991 0.047736198 0.10072972 0.08915585
000220 30 0f c1 bd 18 8a b6 3c d8 56 bd 3d 0e 78 9f 3d
       -0.09426725 0.022282645 0.0924508 0.077865705
000230 bc 90 3a 3d c0 6e 24 3d 22 92 d2 3d 2a be 8c bd
       0.045548186 0.040144682 0.10281779 -0.068722084
000240 b0 20 84 3c 1e 10 9f 3d f8 29 9e 3c c0 fc e4 bc
       0.016128868 0.07766746 0.019307122 -0.027952552
000250 ae a2 8c 3d 74 81 4b 3d 52 d3 b3 3d 78 a5 e5 3c
       0.06866966 0.049684003 0.087805405 0.028033003
000260 30 c8 49 3c 2c b0 bf bd 10 90 59 3d 7c 69 5b bd
       0.012315795 -0.09359774 0.053115904 -0.053567395
000270 10 b1 5a bc 14 69 7d 3d 60 13 25 3d 20 28 e8 3b
       -0.013347879 0.06186779 0.04030168 0.0070848614
000280 b0 40 f2 3c 28 9a e2 3d 74 dc 2b 3d d0 0e df 3d
       0.029571861 0.11064559 0.041958287 0.10891497
000290 c6 c0 d5 bd d8 14 32 bd 00 d0 a5 bc f6 b8 82 bd
       -0.10437159 -0.04347691 -0.020240784 -0.06382935
0002a0 0a 8d d5 bd f0 da 53 bc 04 5d 01 3d b0 2e 48 bc
       -0.10427292 -0.012930617 0.031582847 -0.012218162
0002b0 c0 8f 1a 3b 8c 94 73 3d ac 1e 8e bd fc 58 c9 bd
       0.0023584217 0.059467837 -0.06939444 -0.098314255
0002c0 80 3d a6 ba 32 7e d3 3d b0 67 90 bc 8a 8e ee bd
       -0.0012683123 0.10326804 -0.017627567 -0.11648281
0002d0 a8 cf 69 bd f4 d0 a0 bd 14 12 e7 3d 24 5e 53 bd
       -0.057082802 -0.07852355 0.11282745 -0.05160345
0002e0 b4 c0 b0 bd c8 95 b1 3c 32 1d ac 3d a2 30 e9 3d
       -0.08630505 0.021677867 0.08404006 0.11386229
0002f0 00 f1 df 3c 90 63 75 3d e2 44 a2 3d b8 c2 8b bc
       0.027336597 0.059909403 0.079232946 -0.017060623
000300 14 4e 05 3d 88 68 27 bd ac 71 1c 3d 0a 4c 92 bd
       0.032545164 -0.040871173 0.038194343 -0.071434096
000310 e0 59 66 bd c8 18 5f bd c0 ab a1 bc 74 7b db 3d
       -0.056238055 -0.054466993 -0.019735217 0.10716906
000320 f4 5d 6d bd 14 94 52 3d 00 68 fc 3c f4 b7 fc bd
       -0.05795093 0.05141075 0.03081131 -0.12339774
000330 a8 9f f3 3c 36 51 e3 3d a0 18 fe bd d2 3a c6 bd
       0.029739216 0.11099474 -0.124070406 -0.09679188
000340 e8 12 58 bd 1a 6f 84 3d 38 66 92 bc 6e 25 a8 bd
       -0.052752405 0.064665034 -0.017871007 -0.08210264
000350 a4 cc 9e 3d c0 5c d5 bd 40 68 ab 3b 38 46 8d bc
       0.07753876 -0.10418081 0.0052309334 -0.017245397
000360 28 3a 7b 3d 2c b7 e8 3d 3c 49 27 bd 50 ae 90 bc
       0.06133476 0.11363062 -0.040841326 -0.017661244
000370 76 ee 91 3d 34 c4 ac 3d 68 a5 09 bd 3c 38 94 3d
       0.07125561 0.0843586 -0.03360501 0.07237288
000380 a0 d3 ee bc 30 f9 ce 3c 48 c2 20 3d ac 67 8a 3d
       -0.029153645 0.025265306 0.03924778 0.06758055
000390 08 50 ce 3d 58 a6 d3 bc c0 83 07 bd 44 2a f7 bd
       0.100738585 -0.025836155 -0.03308463 -0.120686084
0003a0 48 32 f0 3c 60 ba f6 3b cc 11 6f bd c6 d2 85 3d
       0.029320851 0.007529542 -0.05836658 0.065343425
0003b0 50 15 ad 3d b2 b9 d8 bd ee e3 8d bd 00 20 a2 ba
       0.08451331 -0.105822936 -0.0692824 -0.0012369156
0003c0 e4 16 f6 bd b4 eb d3 3d 52 90 9c 3d 08 e1 d6 bd
       -0.12016085 0.10347691 0.076447144 -0.1049214
0003d0 9c 93 b5 3d 08 3f 73 3d 7c af e7 3d 4c e0 e8 3d
       0.08866045 0.059386283 0.11312768 0.11370906
0003e0 0a 27 81 bd 20 b6 8b bc 90 7a 96 bd e8 e1 bc bc
       -0.06306274 -0.017054617 -0.07347596 -0.02305694
0003f0 b4 2a f1 bd 08 6a dd bd 1c 16 32 bd d4 5d 2e 3d
       -0.11775723 -0.108112395 -0.043478116 0.04256995

fc3.bias f4 [6]
000000 e4 23 3e 3d dc bd 8b 3d ae fc d0 3d 66 d4 8c bd
       0.046420947 0.06823322 0.10204445 -0.06876449
000010 12 7e 99 3d 20 ec d7 3b
       0.07494749 0.0065894276
