saved_models/dqn_best_model_episode_3165.pt (torch, 87371 bytes, 24 tensors)

fc1.weight f4 [64, 4]
000000 4a 6e 19 be d2 ce 46 3e 36 63 d3 3e 49 d1 d5 bc
       -0.14983478 0.19414833 0.4128663 -0.026100772
000010 78 9d be bd 63 3b b4 3e 93 b6 c6 be 9d de 80 bd
       -0.093073785 0.35201558 -0.38811168 -0.0629246
000020 3e bf cd be 06 3f 0b 3d 3c 46 16 be 5b 0e f6 3d
       -0.4018497 0.03399565 -0.1467523 0.12014457
000030 c6 34 d7 be 46 c0 87 3d 58 81 a7 3d 0a c6 e6 3e
       -0.4203245 0.0662847 0.08178967 0.45072967
000040 7d d4 f3 3e 92 01 92 be f2 be df be e0 51 11 3e
       0.47623053 -0.28516823 -0.43700367 0.14191389
000050 b9 12 79 3e 68 aa 2c be 34 5c bc be f3 64 1f 3d
       0.24323548 -0.1686188 -0.36789095 0.038914632
000060 56 5d f8 be a5 5a ef 3e ea 3b f0 be 02 f4 ec bd
       -0.4850871 0.46748844 -0.4692071 -0.11569978
000070 6b d7 df 3e eb 5d f0 3e f0 e3 9d 3e b6 a7 ce be
       0.43719038 0.46946654 0.30837965 -0.40362328
000080 3f 8a 8a be 2a 8b c8 3e 45 d5 9f 3b 18 6c d3 3c
       -0.27058598 0.39168674 0.0048777186 0.025808379
000090 34 be f7 be fc 4e 84 be d0 9e 77 be 80 a9 3c bc
       -0.483873 -0.2584151 -0.24181676 -0.011515021
0000a0 82 6a ee 3b 1a da c5 be 8a 84 80 be 44 97 ba be
       0.0072758803 -0.3864296 -0.2510112 -0.36443532
0000b0 2e e8 a0 3e 60 f6 6a 3e 4b 9e e6 3d 13 64 17 be
       0.3142714 0.22945547 0.11260661 -0.14784269
0000c0 24 0a 81 3e 45 cc 6e be 0c 79 b0 3e 45 9a 09 3d
       0.2520305 -0.2332011 0.3446735 0.03359439
0000d0 44 9e f3 be 58 d6 20 3d c2 89 da be 4c ba 7d be
       -0.47581685 0.039266914 -0.42683226 -0.24778098
0000e0 97 6a e6 3d 63 39 fa be d8 84 e6 be 22 7b 53 3e
       0.11250799 -0.48871908 -0.45023227 0.2065244
0000f0 4a 85 b3 3d 27 9f c3 3e dc 7e a3 3d 2a 1f 49 3d
       0.08765657 0.3820736 0.07983181 0.049101986
000100 27 20 cb 3e 81 f2 98 3e 45 6c 9a bd 26 d4 e8 3d
       0.39672968 0.29872516 -0.07540182 0.11368589
000110 98 3e a6 3e c2 23 c6 3e c2 2c 14 3e d3 d2 f4 be
       0.3246963 0.38699156 0.14470199 -0.47817096
000120 14 86 bd be 68 3d c6 be 94 da 0a be 5c d0 ed be
       -0.37016356 -0.38718724 -0.13559943 -0.46448028
000130 3d 46 fd 3b 95 7f 82 bd 48 8a 9e bd fa 66 ba 3e
       0.0077293203 -0.063719906 -0.07741219 0.3640669
000140 66 96 4a 3e c0 c9 86 3d 83 84 2b be bc 29 c3 3e
       0.19783935 0.065814495 -0.16749768 0.38117778
000150 83 67 b8 3d 08 50 1d be a0 2e 4b 3e 18 0a 80 be
       0.09004118 -0.15362561 0.19842005 -0.250077
000160 58 86 af 3e c2 98 d4 3e 31 4e e1 3d d9 60 75 bd
       0.34282184 0.41522795 0.11001242 -0.059906814
000170 8e 73 11 3e 5e b2 15 3e b8 c0 fc bd c3 18 48 3d
       0.14204237 0.14618823 -0.12341446 0.04885174
000180 1d 84 49 bd a2 bc b9 be a8 4d db 3e 9b 31 a6 be
       -0.04919826 -0.36276728 0.42832685 -0.3245972
000190 fe 93 9e be 07 84 bf 3e c2 37 be be e3 3d 88 bd
       -0.30972284 0.37405416 -0.37151915 -0.06652429
0001a0 0d 74 e1 be d5 f3 14 3d 38 0a 98 3e 12 7b 6a 3e
       -0.44033852 0.03636535 0.29695296 0.2289851
0001b0 c6 1f fd 3e f5 ab 08 be 96 0d f2 be 11 73 d5 be
       0.49438304 -0.13346846 -0.4727599 -0.4168935
0001c0 0a 01 e4 be 13 9c af 3d a0 86 e5 3d b8 21 f6 be
       -0.44532043 0.08574691 0.11207318 -0.480726
0001d0 d4 6f 49 3e 5a c6 83 be f4 1b 99 3e d4 42 b6 be
       0.19671565 -0.25737268 0.2990414 -0.3559786
0001e0 e6 ed a9 3e 93 d0 b8 be 49 4f 57 be 5e dd 8a 3e
       0.33189315 -0.3609663 -0.21026339 0.27122015
0001f0 00 84 8c 3d 8d a0 a8 bd 0c 1c 87 3e c6 47 0a 3c
       0.068611145 -0.08233748 0.26388586 0.008439964
000200 48 35 98 3e 97 07 d7 3e ed d9 f5 3e db 73 9b be
       0.2972815 0.41997978 0.48017827 -0.30361828
000210 fd e0 c7 be 47 9b 30 3e 80 86 ef be a2 f6 9e 3e
       -0.3903884 0.17246734 -0.46782303 0.3104754
000220 be 89 a2 be e4 cf 50 3d 4c 9b ae bb 44 b8 db 3d
       -0.31745714 0.05097951 -0.0053285714 0.10728505
000230 6d ca 48 be 0d 06 d2 3e 3d e6 f3 be f1 92 22 bd
       -0.1960847 0.4102024 -0.47636595 -0.039690915
000240 d0 7e ec 3d 06 e5 fd 3e 73 80 89 3e b4 c3 99 be
       0.11547625 0.49588794 0.2685581 -0.30032122
000250 de 61 8b be 46 18 5a be fa d8 65 bd 01 29 25 3e
       -0.27223104 -0.21298322 -0.056115128 0.16128923
000260 62 b3 af 3e 6d ab 07 bd 54 15 d5 3e c0 3d b0 3d
       0.34316546 -0.03312247 0.41617835 0.08605528
000270 08 9c e8 bd 58 23 79 3e ec 0f a2 3e 68 16 30 be
       -0.113578856 0.24329889 0.31652772 -0.17196047
000280 74 5b a0 3e a0 a6 ee 3e df a3 61 3e 3d 54 a8 3d
       0.31319773 0.466115 0.22035168 0.08219192
000290 9a aa d4 3e 68 58 eb 3e 65 5a b8 be b4 2c 74 be
       0.4153641 0.45965886 -0.36006466 -0.23845178
0002a0 a0 13 ed be f0 ce da be dc ee a2 be 2c 2a 4b be
       -0.46304035 -0.42736006 -0.3182286 -0.19840306
0002b0 0e 77 64 3a 2c ae f8 be 29 e4 c1 3e b7 91 8e be
       0.00087152503 -0.48570383 0.37869385 -0.27845547
0002c0 34 74 0e be 28 7a f8 be 38 cf db be 8a 6c bf be
       -0.13911515 -0.48530698 -0.42931533 -0.37387496
0002d0 44 a2 37 be 56 59 f1 be 20 37 cc 3c 50 f9 02 bd
       -0.17932993 -0.4713847 0.02492863 -0.031976044
0002e0 ee 49 88 3e a4 fd e8 3d f9 cf 30 3d 87 ad c4 3c
       0.26618904 0.11376503 0.04316709 0.024008526
0002f0 4a 2d bf 3d 0e 33 f5 3e a5 ae 88 3e f4 89 d8 be
       0.0933481 0.47890514 0.26695743 -0.4229275
000300 f5 dc c5 3e 5a ea bc 3e b5 20 01 3e d9 fd b2 3e
       0.3864514 0.36897546 0.12610133 0.34959295
000310 b7 54 d8 be 1d 0e fa 3e 4c 05 1b 3e d9 74 bf 3d
       -0.42252132 0.48838893 0.1513874 0.09348459
000320 17 c1 73 be 2a 06 c3 3d ae 13 a2 3e aa fa cc be
       -0.23804127 0.0952266 0.3165564 -0.40034992
000330 5c 66 26 3e 2c b0 ee 3e 22 8c d9 3e 90 0c cf be
       0.16249985 0.46618783 0.42489725 -0.40439272
000340 e1 8b 35 3c 8e 9f 03 3e b2 00 94 be 41 00 af 3c
       0.011080713 0.12853834 -0.2890678 0.021362426
000350 ed 0f b4 3e 9a 7b 95 3e 48 aa e8 be 6d 39 e5 3e
       0.351684 0.29195863 -0.45442414 0.44770375
000360 67 79 ab 3d af fa b8 3e 12 d1 c9 be df 11 0c 3e
       0.08372765 0.36128756 -0.3941732 0.13678692
000370 31 33 3c 3d 40 01 38 3e d0 bf d7 be 4f 0d 94 bd
       0.045947257 0.17969227 -0.4213853 -0.07229101
000380 dd a3 70 3a ac a3 ec 3e 8f b5 eb bd df 90 6e 3e
       0.0009179691 0.46218622 -0.11509239 0.23297451
000390 a0 a5 ff 3d 4c 45 d7 3e ca 1a ee 3e 8a 18 3c be
       0.12482762 0.42045057 0.46504813 -0.18368736
0003a0 d1 a5 ba 3e 58 80 31 3e 0d 84 2e be 8d 3d d1 3e
       0.36454633 0.17334116 -0.17042561 0.40867272
0003b0 da c0 a0 3e c5 6f 52 be 9d 95 98 3d 01 13 d0 bd
       0.31397134 -0.20550449 0.074504115 -0.10159875
0003c0 39 b2 37 be 4c 81 fd bd 65 2d 8a 3e d0 67 e2 be
       -0.1793908 -0.12378177 0.26987758 -0.44219828
0003d0 1c e2 d5 3e 83 66 30 be cc e8 46 3e 1c b6 bd be
       0.4177407 -0.17226605 0.19424742 -0.37053
0003e0 51 c2 d0 be bb ff d6 be ac a1 e7 3e 87 65 0f 3d
       -0.40773252 -0.41991982 0.45240533 0.035008933
0003f0 c3 f9 b8 be ee fa 06 be 8b e9 08 bd f7 3e 8e 3e
       -0.36128053 -0.1318166 -0.03342585 0.27782413

fc1.bias f4 [64]
000000 1c f3 a2 3e 74 9f 74 3e 2d e6 ee 3e 3b 27 4f be
       0.31826103 0.23888952 0.46659985 -0.20229809
000010 bd c4 e1 be 22 e0 b2 3e 8d 9d 75 be 59 b4 b5 3e
       -0.44095412 0.34936625 -0.23985882 0.35489157
000020 a5 da 9f 3e 4c 28 9a be 10 89 b3 bd 2c bc af 3c
       0.312215 -0.3010887 -0.08766377 0.021452032
000030 d8 63 70 3d 32 7a d3 3e a2 91 ec be 50 ff e7 be
       0.05868897 0.41304165 -0.4620486 -0.45311975
000040 c4 52 82 be 06 ad e1 be 48 ce 34 3e b1 3f d0 3e
       -0.2545377 -0.4407732 0.17656815 0.40673593
000050 a1 03 e7 3d ab 1e c4 bd 9a 78 00 bf 45 e3 3a be
       0.11279989 -0.09576162 -0.50184023 -0.18250759
000060 c4 c8 6b 3e ba b7 bd 3e 3d ee 83 3e 4d 07 b8 be
       0.23025805 0.37054235 0.257677 -0.3594307
000070 17 bb 0b 3e 23 e5 e7 be c8 48 ac bd ef 32 0d bd
       0.13645588 -0.45292005 -0.084123194 -0.034472402
000080 57 d4 d6 bc 4e 0d 7a be 65 39 b4 3e fa cd 46 3e
       -0.026224298 -0.24419138 0.3520004 0.19414511
000090 f5 57 8a 3e 21 0d 07 be 77 d7 0e 3e 5d d8 a3 3e
       0.2702023 -0.13188602 0.13949381 0.3200101
0000a0 0d 34 fb 3e 20 1c 95 bc c8 db e1 be ab 49 bb be
       0.4906315 -0.018201888 -0.44112992 -0.36579642
0000b0 04 b9 b5 3e 0c bb 4b 3e e0 bb d4 3e 49 78 c0 be
       0.35492718 0.19895571 0.41549587 -0.3759177
0000c0 f0 5d f8 3e 17 f0 2d 3e 1c 8b 2a 3e 09 84 da 3d
       0.4850917 0.16986118 0.16654629 0.10669715
0000d0 59 6b 0d be c0 8c 37 be ba a8 30 be 4f ae a0 3e
       -0.13810481 -0.17924786 -0.17251864 0.31382987
0000e0 75 e9 aa be b8 77 79 be b2 78 04 be f2 a8 c1 3e
       -0.3338124 -0.24362075 -0.12936667 0.37824208
0000f0 d2 88 e3 3e e7 b1 83 3d fb 2b b2 be fa 40 6c be
       0.44440323 0.064304166 -0.3479918 -0.23071662

fc2.weight f4 [64, 64]
000000 d3 80 b3 bd ea 17 b8 3d ce ff de bd 48 94 d9 bc
       -0.08764806 0.08988936 -0.108886346 -0.026559964
000010 10 31 85 bc 87 90 0d bd 8c 0b cc 3d 2c cd 91 bb
       -0.016258746 -0.03456166 0.0996314 -0.004449507
000020 5c 18 dc 3d c0 44 83 3c 34 6b e3 3d db 03 84 3d
       0.10746834 0.016023993 0.11104432 0.06446048
000030 5e 40 ae bd 30 e5 9e 3d a8 eb aa bd 7c 50 92 3d
       -0.08508371 0.07758558 -0.08345729 0.071442574
000040 bd 7b 93 bd d1 8c 28 bd 7c f1 af bd 96 af c5 3b
       -0.072013356 -0.041149918 -0.08590981 0.0060328944
000050 8e 9f f7 bd fe 98 fa 3d 18 3e 4d 3d c6 e4 8d 3d
       -0.120909795 0.12236212 0.050108045 0.06928401
000060 54 c6 80 3d 0a 22 d2 bd ec dc 80 bd 43 e8 4d bd
       0.06287828 -0.10260399 -0.062921375 -0.05027033
000070 a9 b8 20 bd 80 ee ac bd fc 69 38 bd fc 4d 92 bd
       -0.039238606 -0.08443928 -0.04502295 -0.071437806
000080 8b b7 2d bd 21 9d 67 bd 07 56 d7 3b a8 13 b7 bd
       -0.04241137 -0.056546334 0.0065715346 -0.08939296
000090 ce 3e 2d bd 00 f4 e5 39 27 ad c0 bd d9 4f 3b 3d
       -0.042296223 0.00043860078 -0.09408026 0.045730446
0000a0 9f 80 25 3c 4b f8 38 bd dc e5 21 3d f0 f8 77 bd
       0.010101466 -0.045158666 0.03952585 -0.06054014
0000b0 28 af e6 3c 68 90 ce 3c 32 aa 21 3d 21 b3 6d bc
       0.028159693 0.025215343 0.03946895 -0.01450804
0000c0 6c a2 74 3d f3 1f 0a 3d 00 86 a0 3d e4 cd 12 3d
       0.05972521 0.033721875 0.078380585 0.035840884
0000d0 f8 74 65 3d b2 71 bf 3c 0e ad 21 3d c9 dc 9f 3b
       0.056019753 0.023369644 0.03947168 0.0048786146
0000e0 2b 5f c1 bd c0 89 ca 3c f7 9c b2 bd 4a 17 fc bd
       -0.0944198 0.024723887 -0.08721345 -0.123091295
0000f0 1b 3a 8a bd fa 5b b2 3d f0 a0 ec 3d d0 45 c0 3d
       -0.06749364 0.087089494 0.11554134 0.09388316
000100 09 66 9c 3c 27 b3 96 3d 89 ba d4 bc 38 31 bd bd
       0.019091623 0.07358389 -0.025967853 -0.09237903
000110 4a ae 03 3e 78 ac 4d 3d b4 94 13 bc 81 f5 dc bd
       0.12859455 0.050213307 -0.009007622 -0.10789014
000120 bc 7a 8d 3d 14 9b f2 3d 9a 22 52 bd dd 42 ba 3c
       0.06908175 0.11845985 -0.05130253 0.022736961
000130 d1 b7 d1 bd 14 b5 c7 bd 1c 66 ea bd 76 95 22 bd
       -0.10240138 -0.09751335 -0.11445257 -0.03969332
000140 44 1a 37 3c 96 bf 18 3c 0c 68 b5 3d 63 43 ca 3d
       0.011175696 0.009323021 0.08857736 0.09876134
000150 c5 aa 11 bd 1f 25 34 3d f0 22 71 bd 95 0d 84 3d
       -0.03556325 0.043980714 -0.05887121 0.06447903
000160 ee 3b ab bd e0 8a 43 bd c6 bc bc 3d bf 6d 19 bd
       -0.0836104 -0.047739863 0.09215693 -0.037458178
000170 34 91 9d 3d e9 f4 e4 bd 5d 6e ac bc 07 bd 85 3d
       0.07693711 -0.111795254 -0.021048719 0.06530195
000180 55 dc cf 3d f7 d5 f0 bc 21 92 ba bd 6c 38 ce bd
       0.10149447 -0.029398901 -0.09109903 -0.10069355
000190 fb ca bc 3c d4 f4 0e 3d be 49 41 3d de c9 82 bd
       0.023046007 0.034901455 0.047189467 -0.06386159
0001a0 55 ed af bc a8 15 55 bd 44 95 15 3d 77 f0 37 bd
       -0.021475473 -0.052022606 0.036519304 -0.04490706
0001b0 78 f3 ae bd 18 5b 91 3d 8b ba 54 3d 17 b3 9b 3d
       -0.08542532 0.07097453 0.051935714 0.07602518
0001c0 7a ae de 3d 54 4f c4 3d d7 f2 e7 3d aa 89 0b bd
       0.108731225 0.09585443 0.11325615 -0.034066834
0001d0 3a 08 2d bc 7b ad 81 bd 1f 04 73 bc c5 b7 d0 bc
       -0.010561043 -0.06331917 -0.0148325255 -0.025478253
0001e0 c2 5d 08 3e b9 02 c7 3c cf d7 af 3d 8a 86 f2 3d
       0.13317016 0.02429329 0.08586084 0.118420675
0001f0 52 cc e8 3d 18 29 10 bd 03 7b 00 be 86 8b ea bb
       0.11367096 -0.03519544 -0.12546925 -0.007157746
000200 f3 c3 0a bd 60 c8 ef bd 08 a1 f3 3d 79 16 d2 bd
       -0.033878278 -0.117081404 0.11895949 -0.102581926
000210 f4 2e fe bd 3d f2 cb 3d 02 31 ae bd aa 86 62 3d
       -0.12411299 0.09958313 -0.08505441 0.055304207
000220 c7 61 f7 bd 70 63 d2 3d 4c 44 8f 3d 0f db 41 3b
       -0.120791964 0.102728724 0.069954485 0.0029580032
000230 90 12 f4 3d 40 b4 83 bc 36 df e5 bd 4e ac ea bc
       0.11917603 -0.01607716 -0.11224215 -0.028646614
000240 a0 f3 a5 3d a2 79 bd bd f8 f7 0b 3d 8d c4 40 bc
       0.081031084 -0.09251715 0.03417203 -0.011765611
000250 b7 2e 81 bd 30 39 33 3d 83 ac e5 bd 3b f0 74 3d
       -0.06307738 0.04375571 -0.112145446 0.059799414
000260 7b 1a e8 3c 61 19 cb bd 55 87 22 3d bf 3a d4 bc
       0.02833294 -0.0991695 0.039679844 -0.025906919
000270 1a 80 8e bd fa 5d fe 3c a7 ab 96 3c 44 a2 f7 3d
       -0.06958027 0.03105067 0.018392397 0.120914966
000280 c4 d3 ed 3d f0 04 09 bd 93 1e 5a bd f1 1a 3d 3d
       0.11612657 -0.033451974 -0.053251814 0.04616827
000290 40 55 a0 bd 9c c4 66 3d fc 7d d7 bd 1f 9a 0d bd
       -0.0782876 0.056339845 -0.105220765 -0.03457081
0002a0 5d 4b eb 3d 45 1f 85 bd c0 76 61 bd 38 61 1a bd
       0.11488984 -0.06500105 -0.05504489 -0.03769037
0002b0 36 3a e7 3d d6 51 d8 bd e6 5f c3 bd 74 31 2e bd
       0.112904 -0.10562484 -0.095397756 -0.04252763
0002c0 87 92 c9 bd c0 f9 ce 3d 57 00 c8 3d 8c 3c e0 3d
       -0.09842401 0.1010623 0.0976569 0.109490484
0002d0 50 ce 5b 3d 03 2e b2 bc 28 63 e7 bd 02 e6 fa 3d
       0.05366355 -0.021750456 -0.112982094 0.12250902
0002e0 e3 76 c4 3d 16 c3 e1 3c 63 9a b1 3c f2 e1 ec bd
       0.09592988 0.027558845 0.021680063 -0.11566533
0002f0 09 65 8c 3d 78 79 6b 38 7a 92 e8 bd 82 31 89 3c
       0.068552084 5.6141493e-05 -0.11356063 0.01674724
000300 80 53 a7 3a 0c 23 c4 bd 40 b6 00 bd dc ce 21 bd
       0.0012765974 -0.09576997 -0.031423807 -0.039503917
000310 4a b6 9a bd 32 4a a6 3d b8 f5 b9 3c 3c a4 d2 3d
       -0.075543 0.081196204 0.022700176 0.102852315
000320 90 4e c9 bc fa 41 ee bd 78 ac 33 bd b4 d7 45 bd
       -0.024573594 -0.11633678 -0.04386565 -0.048301414
000330 10 9a b5 3d 28 53 e7 3d a2 1b bf 3d 58 61 d3 3c
       0.08867276 0.11295158 0.093314424 0.025803253
000340 a0 96 c3 bb f6 50 bf bd bc 63 2c bd b6 01 be 3d
       -0.0059688836 -0.09341614 -0.0420873 0.0927767
000350 f0 c7 42 bc 68 c2 c7 3c 14 d1 e3 bd 3a 69 ae 3d
       -0.011888489 0.024384692 -0.11123863 0.08516164
000360 bc b7 fe 3d b0 10 f8 bc f0 15 df bd c8 e9 f8 bd
       0.12437388 -0.030281395 -0.10892856 -0.12153965
000370 9c 9e 4c 3d 1a ca d4 3d 82 24 9c bd 40 e3 03 bc
       0.04995595 0.1039011 -0.07624151 -0.008049786
000380 40 f7 95 bb 4a cc ba bd 0c 8a 2b 3d 8e 26 d2 bd
       -0.0045765936 -0.09120996 0.0418797 -0.1026126
000390 54 be af bd 60 6a 6e bc f8 52 91 bd e8 9c b5 bc
       -0.08581224 -0.014551729 -0.07095903 -0.022169545
0003a0 96 d7 ec bd a8 57 ae 3c 48 0c b1 3d 3e 57 c3 bd
       -0.11564557 0.021282032 0.086449206 -0.095381245
0003b0 ec 82 d5 3d 00 a5 14 3b d8 e1 f3 bd d4 98 ca 3d
       0.10425362 0.0022681355 -0.11908311 0.09892431
0003c0 f2 4e f5 bd 18 b6 a0 3d ae 30 b4 bd 5c 2a b4 bd
       -0.11977948 0.078472316 -0.087983474 -0.08797142
0003d0 84 4a 32 3d 44 d5 88 3d 18 72 9a 3c 84 2b 3f bd
       0.043528095 0.06681302 0.018853232 -0.04667236
0003e0 30 43 cb 3c d4 82 59 3d 10 9c 49 bc f8 51 e8 bd
       0.024812311 0.053103283 -0.012305275 -0.11343759
0003f0 b8 c5 ca 3d d4 d1 6a bd c0 88 26 bb bc e6 d8 bd
       0.09900993 -0.057329014 -0.00254111 -0.10590884

fc2.bias f4 [64]
000000 4d 85 14 3d ed f9 8a bb 28 1c 24 bd c2 fe d0 bd
       0.036259938 -0.0042412193 -0.040065914 -0.10204841
000010 6e 53 a9 bd ec f9 56 bd 33 c6 29 3c 22 3e f5 bd
       -0.08267866 -0.052484438 0.010362196 -0.119747415
000020 57 8a a8 3d 31 37 22 bb e0 76 df 3c 03 6e 03 3a
       0.08229511 -0.0024752135 0.027278364 0.00050136464
000030 62 9b 14 3d f8 88 bc 3d 55 4d 42 bd a3 a5 97 bd
       0.036280997 0.09205812 -0.04743703 -0.074046396
000040 d6 70 60 3d b9 64 24 3d ab 34 eb 3d 3b 7a 03 3d
       0.05479511 0.04013512 0.11484655 0.03209899
000050 19 a9 e1 bd 3f 13 b5 bd 29 08 6c bd e7 55 a4 3d
       -0.11018581 -0.088415615 -0.05762497 0.08024197
000060 ad c0 cb bd 4f a3 51 3d 30 c3 83 bd 0e 34 86 bd
       -0.09948859 0.051181134 -0.064337134 -0.065528974
000070 6b 6c 80 3d 1f 8e e1 bd 10 31 0f 3c 69 5f c8 3d
       0.06270679 -0.110134356 0.008739725 0.09783823
000080 7f be df 3d a8 d2 3c 3c c2 5b 68 3c 50 be 8a bb
       0.10925006 0.011524834 0.014182033 -0.004234113
000090 42 d4 68 bd de a3 e6 bd 6d b7 90 3d 43 42 9e 3d
       -0.05684305 -0.11261724 0.07066236 0.07727482
0000a0 09 f1 28 bd 56 7e 77 bd 76 33 85 bd 91 b8 4e bd
       -0.041245494 -0.060423218 -0.06503956 -0.050468985
0000b0 00 b0 b5 3c de b7 cf bd 29 7c 00 bd f8 c0 e2 3d
       0.02217865 -0.10142492 -0.03136841 0.11071962
0000c0 e6 54 f0 bd 34 0a d1 bd 1c 8b d4 3d 49 7c a7 bd
       -0.11734943 -0.10207024 0.103780955 -0.081780024
0000d0 9c 0c 45 3c a0 5a 98 3b 91 c2 b0 3d 78 85 f5 3d
       0.012026932 0.004649475 0.086308606 0.11988348
0000e0 f7 4e 90 bd 16 84 de bd 37 e5 14 3d bc 12 22 bd
       -0.07046311 -0.10865037 0.03635141 -0.039568648
0000f0 67 1f cf bd db e1 c1 3c 91 61 82 3c 38 65 bc bc
       -0.101134114 0.023667267 0.015915664 -0.022997484

fc3.weight f4 [6, 64]
000000 b9 71 a0 3c 59 07 90 3c ea e9 8a 3d e0 2c 21 bd
       0.019585477 0.017581629 0.06782897 -0.039349437
000010 35 7b b9 3c b9 50 62 3b e4 90 f9 3d 18 94 87 3c
       0.022641758 0.0034532978 0.12185839 0.016550109
000020 ab af 03 3d 43 ba 81 3d 84 44 ce 3d d9 53 28 3d
       0.032149952 0.06334355 0.10071662 0.04109559
000030 35 b9 f7 bd c5 41 64 3d 6d 87 fe 3d c9 ff 93 bd
       -0.12095872 0.055726785 0.12428174 -0.072265215
000040 40 ac 7c bd 0a d6 d0 3d cb 66 50 3d 68 78 dc bc
       -0.061687708 0.10197075 0.05087928 -0.026912883
000050 52 10 e0 3d 97 2d e4 bd 41 8d d6 3d 4d 1f 47 bd
       0.10940613 -0.11141508 0.10476161 -0.048613835
000060 7b b2 c1 bc 7a 0c d2 bc 94 ee f5 bd d4 3c 57 3d
       -0.023644676 -0.025640715 -0.12008396 0.052548245
000070 d3 ac 59 bd 6c ce eb bd 08 6c 95 3d 00 b8 02 b9
       -0.053143334 -0.11513981 0.07295996 -0.00012466311
000080 a7 1b a9 bc 31 56 de 3d 03 36 b4 bd 03 f9 c7 bd
       -0.020643068 0.108562835 -0.087993644 -0.09764292
000090 56 35 25 3d e0 b0 8e ba 4b 77 75 bc eb eb dc bb
       0.04033407 -0.0010886453 -0.014982055 -0.006741991
0000a0 d1 66 9e 3c 20 94 67 bd de ed 8b 3d 08 33 ec bd
       0.019336136 -0.056537747 0.06832479 -0.11533171
0000b0 08 88 d4 bc 65 06 f0 ba 60 6b 6a 3d 4b 5d 81 3d
       -0.025943771 -0.0018312453 0.057231307 0.06316622
0000c0 84 41 31 3d 28 31 cf 3d 31 6e 66 3c d2 61 4c 3c
       0.04327537 0.10116798 0.014064358 0.012474494
0000d0 6c e3 0c bd f4 fb 18 bd 58 17 90 3d 13 7e dd 3b
       -0.034396574 -0.037349656 0.070357025 0.006759414
0000e0 56 e4 dd 3d 04 a0 9d 3d 06 2c 95 3c c0 a0 7b 3d
       0.10834567 0.07696536 0.018209469 0.0614326
0000f0 0e 4c 90 3c 12 94 a7 3d 0b f9 54 bd 25 6c c0 3d
       0.01761439 0.08182539 -0.05199532 0.09395627
000100 8d d2 9d bd b3 ae 07 3e 2f 56 42 3d 80 cd ae ba
       -0.07706175 0.13250236 0.047445472 -0.001333639
000110 36 b6 cc bd cf 3a 4c 3d eb 0d 60 3d 60 60 f2 bd
       -0.099956915 0.04986077 0.054700773 -0.11834788
000120 1b 90 f4 bb 5f 49 8f 3d 96 9f 8a bd c8 a4 c2 3c
       -0.007463468 0.06996416 -0.0676872 0.023760214
000130 c0 eb b9 bd ae d8 45 3d 1d 2d 00 be 59 46 a5 bd
       -0.09078169 0.048302345 -0.1251721 -0.080700584
000140 99 5a b0 3d 8d d0 e2 3d d9 e3 c5 3d 4b 86 a9 bd
       0.0861103 0.11074934 0.09662599 -0.082775675
000150 75 24 a2 3d c3 c0 a4 3c 5a 15 37 bd 34 7c fb bd
       0.0791711 0.020111447 -0.044698097 -0.12279549
000160 9e 67 8c 3c 8d ba d2 bd ab 75 d7 3d 00 9c 15 3c
       0.017139252 -0.10289488 0.1052049 0.009131432
000170 80 b8 4a bd 77 1f ae 3d 74 46 02 bd 28 9d 2f bd
       -0.04949236 0.08502095 -0.03180547 -0.042874485
000180 98 8d 29 bd 95 9f a9 3d 8e 45 cf 3d 5e 5a b1 3d
       -0.0413948 0.08282391 0.101206884 0.08659814
000190 e4 f3 0b 3d 31 66 b1 3d 47 c3 8c 3d b6 44 a8 bd
       0.03416814 0.086620696 0.06873184 -0.082162306
0001a0 a9 b5 91 3c d2 a3 82 bd ae e7 07 3d 88 3e 94 bc
       0.017786818 -0.063789025 0.03317993 -0.018096223
0001b0 f8 44 6b bd 7b e9 a4 3d fb 16 46 3d fe 8c 89 3d
       -0.05743882 0.08052345 0.04836176 0.06716345
0001c0 7b 38 e8 bc 32 bd 26 3d 40 4f 09 be 5b c3 ec bd
       -0.028347244 0.040707774 -0.13409138 -0.115606986
0001d0 9d fc 93 bd 66 4d 8b 3d 7c e9 a6 bd 7f 97 9d 3d
       -0.072259165 0.06801872 -0.08150002 0.07694911
0001e0 73 63 0b bb 00 d4 2c bd 97 82 ea 3d 1c ea 2d 3d
       -0.0021268993 -0.042194366 0.11450689 0.042459592
0001f0 f8 48 5a 3d 5a f6 bc bc 52 77 a5 bd dc e4 fd 3d
       0.053292245 -0.023066688 -0.08079399 0.12397167
000200 a1 9a fd bd 64 c9 7a bd 20 b6 cc bd 80 0c 12 bd
       -0.12383009 -0.061227217 -0.09995675 -0.035656452
000210 aa c1 c4 bd 21 50 14 bd a2 e2 a4 3d 42 e5 9d bd
       -0.09607251 -0.03620923 0.08051039 -0.07709743
000220 bf 1c b6 3c bd 62 18 3d 3c 61 ee bd 35 81 4e bd
       0.022230504 0.03720354 -0.1163964 -0.05041619
000230 15 03 c3 3c ef 59 f2 3d fb 97 15 bd 11 d3 fb ba
       0.02380518 0.1183356 -0.036521893 -0.0019212683
000240 2c 65 0e 3d 57 03 b5 3d ff 5c be 3c 76 9c 80 3c
       0.034764454 0.08838528 0.023237703 0.015699606
000250 08 5a bb 3d f4 36 56 3c 4b 7c a4 3d 71 12 28 3d
       0.091480315 0.013074625 0.080315195 0.041033212
000260 49 fb 86 bd 87 f5 65 bd 40 c2 a2 bc 7c 75 3b bd
       -0.065908976 -0.056142356 -0.019868016 -0.04576634
000270 4d b8 b6 bd 65 68 62 bd 38 f5 c1 bc a8 a9 e7 bd
       -0.08921871 -0.05527534 -0.0236765 -0.11311656
000280 74 b9 e5 3d 1c dc 8d 3d 3d 66 af 3d d2 ca e6 3d
       0.11217013 0.06926748 0.08564422 0.11269154
000290 e4 f4 4e bd 16 c7 f0 bd db 1d 4b bd 03 7f ce bd
       -0.050526515 -0.11756723 -0.04958902 -0.10082819
0002a0 c4 e4 e6 bd 85 72 bf bd 6a d2 bf 3d 25 86 bf bd
       -0.11274102 -0.09348015 0.09366305 -0.09351758
0002b0 d4 b8 d6 bd a2 b4 24 3d 77 ff b5 3d 40 ed bc bc
       -0.10484472 0.040211327 0.08886617 -0.023062348
0002c0 20 eb 82 bd b3 45 d6 3d fd d5 90 3c b6 4f a3 bd
       -0.06392503 0.10462513 0.017680163 -0.07974188
0002d0 f2 32 f9 3d f5 20 cf bb f3 ca 20 3c 26 e9 ce bd
       0.1216792 -0.0063210675 0.009814012 -0.10103063
0002e0 70 aa f8 bc 60 09 c2 3d 1d 83 6e 3d 68 f9 b0 3d
       -0.030354708 0.094744444 0.058230508 0.086413205
0002f0 a5 3f b9 bd 85 0c 23 bd e5 30 7c 3d 6c b6 bc 3d
       -0.09045342 -0.03980686 0.061570067 0.09214482
000300 00 f2 9b 3d b2 84 bd bd de 44 06 bd e4 96 a0 3d
       0.07614517 -0.09253825 -0.03278052 0.0784128
000310 c8 db e1 bd ce 5a 72 bd 8d c0 6d bd c4 04 ff bd
       -0.11028248 -0.05916863 -0.05804496 -0.12452081
000320 05 46 b0 3d 31 e3 80 bd 52 12 9f 3d e3 bc 31 3c
       0.08607105 -0.06293333 0.07767166 0.010848257
000330 2e 70 7d 3d 12 fe a3 bd a9 b3 42 3d 65 9c bc bd
       0.06187456 -0.080074444 0.04753462 -0.092095174
000340 48 b8 a1 3d 62 02 d3 3c 28 b2 d6 3d 80 e5 97 3d
       0.07896477 0.025757972 0.10483199 0.074168205
000350 d6 3d c5 bd ef 43 34 3d 9a 9d ee 3d 05 d7 bd 3d
       -0.09630935 0.0440101 0.11651154 0.09269527
000360 dc 60 d0 bd b0 7b c2 3d f8 21 06 b5 7c a2 0a bd
       -0.101747245 0.09496248 -4.996832e-07 -0.033846363
000370 f3 15 82 3d 8c 92 df 3d 94 66 5c 3d b2 7a a9 bd
       0.06351843 0.109166235 0.053808764 -0.082753554
000380 0f ea 4f bd 34 bd b9 bd b5 0f d3 bd 23 a2 9a bd
       -0.050760325 -0.09069291 -0.1030573 -0.075504564
000390 b1 46 59 bd 2c 2f 59 3d ab 0e c1 bd 5d 8c 48 3d
       -0.053045932 0.053023502 -0.09426626 0.048961986
0003a0 0a 97 64 3d e6 03 29 bc 50 d7 e2 3d 95 63 79 bd
       0.055808105 -0.010315871 0.11076224 -0.060885984
0003b0 e8 c3 d4 bc 88 d6 c0 bd e0 df ad 3c d7 75 f7 bc
       -0.025972322 -0.094159186 0.021224916 -0.030207558
0003c0 8e ec f8 3d 2e 2b 0b bd fb e9 b0 3d 61 f5 88 bd
       0.12154494 -0.033976726 0.08638378 -0.06687427
0003d0 a6 54 84 bd 99 37 d4 bd e0 5d 90 bd 33 bc 8d bd
       -0.06461458 -0.10362167 -0.07049155 -0.06920662
0003e0 86 2f f1 3d d6 8d e4 3d 93 eb fb 3c f6 c8 fb bd
       0.117766425 0.111598656 0.030751979 -0.1229419
0003f0 94 68 ec 3d e0 62 f2 3d ef 29 e7 bd 3b 5b 78 3d
       0.11543384 0.11835265 -0.11287295 0.06063388

fc3.bias f4 [6]
000000 01 64 8c bc 05 a0 e6 3d 4c 69 46 bd 06 f7 ac 3d
       -0.01713753 0.1126099 -0.048440263 0.084455535
000010 6a 3b fb 3d da 23 ab 3d
       0.12267192 0.083564475

fc1.weight f4 [64, 4]
000000 0c 73 19 be 95 de 46 3e 1b 66 d3 3e 7a b1 d8 bc
       -0.14985293 0.19420846 0.41288838 -0.026451815
000010 eb 46 bf bd 9b 1f b4 3e 4d cd c6 be 49 f0 81 bd
       -0.093396984 0.35180363 -0.38828507 -0.06344659
000020 8b c5 cd be 1a d9 0b 3d 5a 48 16 be 0b 8f f6 3d
       -0.40189776 0.03414259 -0.14676037 0.12039002
000030 fa 32 d7 be f1 f7 87 3d 45 74 a7 3d 9b cf e6 3e
       -0.4203108 0.06639088 0.081764735 0.45080265
000040 6a bd f3 3e fb 0d 92 be b0 ce df be c8 f3 10 3e
       0.4760545 -0.2852629 -0.43712378 0.14155495
000050 92 00 79 3e 68 a3 2c be fa 78 bc be 51 0b 1e 3d
       0.24316624 -0.1685921 -0.36811048 0.03858501
000060 74 49 f8 be b0 61 ef 3e 39 c5 f0 be 00 ee ec bd
       -0.4849354 0.46754217 -0.4702547 -0.115688324
000070 e0 ea df 3e 98 79 f0 3e 37 05 9e 3e 09 de ce be
       0.43733883 0.4696777 0.30863354 -0.40403774
000080 16 91 8a be 63 8a c8 3e 2c f4 a4 3b 45 c1 d2 3c
       -0.27063817 0.3916808 0.0050339904 0.025726924
000090 34 be f7 be fc 4e 84 be d0 9e 77 be 80 a9 3c bc
       -0.483873 -0.2584151 -0.24181676 -0.011515021
0000a0 d5 b0 ef 3b 1a da c5 be 8a 84 80 be 44 97 ba be
       0.007314781 -0.3864296 -0.2510112 -0.36443532
0000b0 8a ff a0 3e 76 15 6b 3e db c3 e6 3d 13 44 17 be
       0.3144496 0.22957405 0.11267825 -0.14772062
0000c0 ac 18 81 3e ce 94 6e be 6c 86 b0 3e 6d 36 08 3d
       0.25214136 -0.23298952 0.34477556 0.03325503
0000d0 44 9e f3 be 58 d6 20 3d c2 89 da be 4c ba 7d be
       -0.47581685 0.039266914 -0.42683226 -0.24778098
0000e0 7d c3 e6 3d 5c 19 fa be a2 68 e6 be 98 8f 53 3e
       0.11267755 -0.48847473 -0.45001704 0.20660245
0000f0 71 e5 b3 3d f1 c5 c3 3e 63 07 a4 3d b6 2b 4a 3d
       0.08783997 0.38236955 0.080092214 0.049358092
000100 e9 26 cb 3e a3 f0 98 3e 10 53 9a bd 39 6a e9 3d
       0.39678124 0.2987109 -0.07535374 0.113972135
000110 b0 11 a6 3e 66 fd c5 3e 9e f5 13 3e e3 d7 f4 be
       0.3243537 0.3866989 0.14449164 -0.47820958
000120 14 86 bd be 68 3d c6 be 94 da 0a be 5c d0 ed be
       -0.37016356 -0.38718724 -0.13559943 -0.46448028
000130 28 7b f4 3b b1 a6 82 bd 20 c3 9e bd 92 74 ba 3e
       0.0074609704 -0.0637945 -0.07752061 0.3641706
000140 ef 57 4a 3e fa 4c 86 3d e6 b3 2b be 68 24 c3 3e
       0.19760107 0.06557651 -0.16767845 0.38113713
000150 c1 35 b6 3d 26 1f 1e be b3 6c 4a 3e cb 42 80 be
       0.088969715 -0.1544157 0.19768028 -0.2505096
000160 44 74 af 3e bd 86 d4 3e 3b b7 e0 3d 2f c2 74 bd
       0.3426839 0.41509047 0.109724484 -0.0597555
000170 d7 91 11 3e 99 b1 15 3e d6 13 fd bd 30 4b 4a 3d
       0.1421579 0.1461853 -0.12357299 0.04938811
000180 cb df 47 bd 69 ac b9 be 5e 7c db 3e 8b 24 a6 be
       -0.04879741 -0.3626435 0.42868322 -0.32449755
000190 77 84 9e be 31 95 bf 3e f3 1c be be 5d 0f 89 bd
       -0.30960438 0.37418512 -0.37131462 -0.066923834
0001a0 f8 6d e1 be a8 7f 15 3d 58 14 98 3e 4e 70 6a 3e
       -0.44029212 0.036498696 0.2970302 0.22894403
0001b0 f4 4c fd 3e 92 7f 08 be 13 f9 f1 be 76 45 d5 be
       0.49472773 -0.13329914 -0.4726034 -0.41654557
0001c0 0a 01 e4 be 13 9c af 3d a0 86 e5 3d b8 21 f6 be
       -0.44532043 0.08574691 0.11207318 -0.480726
0001d0 4d 2b 49 3e 24 e6 83 be 49 08 99 3e 53 4f b6 be
       0.19645424 -0.2576152 0.29889134 -0.35607395
0001e0 44 49 aa 3e a4 8e b8 be 85 8a 56 be f2 fe 8a 3e
       0.33259022 -0.36046326 -0.20951279 0.27147633
0001f0 35 9e 8c 3d 4f a5 a8 bd c7 4d 87 3e f9 81 0d 3c
       0.06866113 -0.08234655 0.26426527 0.008636945
000200 ba 4e 98 3e 86 19 d7 3e 98 fe f5 3e 91 63 9b be
       0.29747564 0.4201166 0.48045802 -0.303494
000210 4b e8 c7 be 33 8c 30 3e 8e 8d ef be c4 02 9f 3e
       -0.39044413 0.17240982 -0.46787685 0.31056798
000220 0d aa a2 be a2 bf 4f 3d 5b 86 b6 bb 0b 57 db 3d
       -0.31770363 0.050719865 -0.0055702156 0.107099615
000230 fc 43 49 be 60 ce d1 3e e4 16 f4 be 39 d1 23 bd
       -0.1965484 0.40977764 -0.47673714 -0.039994452
000240 5b 44 ec 3d d5 d2 fd 3e 7c 59 89 3e 37 c6 99 be
       0.11536475 0.49574915 0.26826084 -0.30034038
000250 72 72 8b be bf 07 5a be 76 71 66 bd ea 1a 25 3e
       -0.27235752 -0.21292017 -0.05626055 0.16123548
000260 5a b3 af 3e 18 f0 07 bd eb fe d4 3e 20 19 b1 3d
       0.34316522 -0.033187956 0.41600737 0.0864737
000270 8d 1b e9 bd 55 eb 78 3e 05 13 a2 3e 9c 09 30 be
       -0.11382208 0.24308522 0.31655136 -0.17191166
000280 12 45 a0 3e 1b a6 ee 3e 3e 91 61 3e 46 0c a8 3d
       0.31302696 0.46611103 0.22028062 0.08205466
000290 d7 a8 d4 3e 98 53 eb 3e bb 83 b8 be a5 05 74 be
       0.41535065 0.45962214 -0.36038002 -0.23830278
0002a0 a0 13 ed be f0 ce da be dc ee a2 be 2c 2a 4b be
       -0.46304035 -0.42736006 -0.3182286 -0.19840306
0002b0 5c 22 1a 39 c7 cf f8 be 1e 94 c1 3e ee 9e 8e be
       0.00014699384 -0.48596022 0.37808317 -0.2785563
0002c0 34 74 0e be 28 7a f8 be 38 cf db be 8a 6c bf be
       -0.13911515 -0.48530698 -0.42931533 -0.37387496
0002d0 44 a2 37 be 56 59 f1 be 20 37 cc 3c 50 f9 02 bd
       -0.17932993 -0.4713847 0.02492863 -0.031976044
0002e0 6e 0f 88 3e 9f 78 e8 3d 85 13 30 3d ca 56 c2 3c
       0.26574272 0.11351132 0.042987365 0.023723025
0002f0 51 4d bf 3d b0 4b f5 3e 7a de 88 3e 7b 89 d8 be
       0.09340919 0.47909307 0.26732236 -0.4229239
000300 3b f6 c5 3e 5d f9 bc 3e c6 84 01 3e df 3f b3 3e
       0.3866442 0.36909 0.12648305 0.35009667
000310 dc 6b d8 be 51 fd f9 3e e5 b1 1a 3e 1c 96 bf 3d
       -0.4226979 0.48826078 0.15106924 0.09354803
000320 95 7a 72 be 7f e9 c5 3d bb 82 a2 3e aa fa cc be
       -0.23679574 0.096636765 0.31740364 -0.40034992
000330 aa 38 26 3e fb a9 ee 3e b7 a0 d9 3e c8 2e cf be
       0.16232553 0.4661406 0.42505428 -0.4046538
000340 43 8a 37 3c c1 bb 03 3e 7c 0b 94 be cd c0 ad 3c
       0.011202398 0.12864591 -0.28915012 0.021210099
000350 c4 23 b4 3e 30 88 95 3e 45 bc e8 be 81 2c e5 3e
       0.35183537 0.29205465 -0.45456138 0.44760516
000360 a8 83 aa 3d 6b d2 b8 3e 00 e8 c9 be 72 ff 0b 3e
       0.08325893 0.36098036 -0.39434814 0.13671663
000370 ea 7d 3b 3d 21 e3 37 3e 00 bc d7 be de ec 94 bd
       0.045774378 0.17957737 -0.4213562 -0.07271741
000380 27 54 60 3a 72 a0 ec 3e 12 d8 eb bd 0a ca 6e 3e
       0.00085574616 0.4621616 -0.115158215 0.2331926
000390 41 2d 00 3e 19 6a d7 3e fd 52 ee 3e 61 ae 3b be
       0.12517263 0.42073134 0.4654769 -0.18328239
0003a0 5e ba ba 3e 91 94 31 3e c8 6f 2e be 8c 3f d1 3e
       0.36470312 0.1734183 -0.17034829 0.40868795
0003b0 1d 95 a0 3e bd d3 52 be c2 ae 97 3d 0c f4 d0 bd
       0.31363764 -0.20588584 0.07406379 -0.10202798
0003c0 39 b2 37 be 4c 81 fd bd 65 2d 8a 3e d0 67 e2 be
       -0.1793908 -0.12378177 0.26987758 -0.44219828
0003d0 d0 f5 d5 3e 3a 5d 30 be aa a4 46 3e 1d aa bd be
       0.41789103 -0.17223063 0.19398752 -0.3704385
0003e0 60 da d0 be c0 06 d7 be 47 88 e7 3e c7 af 0e 3d
       -0.40791607 -0.41997337 0.4522116 0.034835603
0003f0 c7 03 b9 be 7d 33 07 be c8 46 09 bd 1a 0c 8e 3e
       -0.36135694 -0.13203235 -0.033514768 0.27743608

fc1.bias f4 [64]
000000 21 f2 a2 3e 15 4b 74 3e 48 03 ef 3e ad 18 4f be
       0.31825355 0.23856767 0.4668219 -0.20224257
000010 88 df e1 be 30 db b2 3e 1e 88 75 be c0 c2 b5 3e
       -0.44115853 0.34932852 -0.23977706 0.35500145
000020 d2 d4 9f 3e 4c 28 9a be c1 6b b3 bd 84 22 b1 3c
       0.31217057 -0.3010887 -0.08760787 0.021622904
000030 35 d0 70 3d 32 7a d3 3e af 75 ec be a0 e6 e7 be
       0.05879231 0.41304165 -0.46183535 -0.4529314
000040 6e 48 82 be 10 da e1 be 48 ce 34 3e a6 26 d0 3e
       -0.25445884 -0.4411168 0.17656815 0.40654486
000050 36 89 e6 3d af 68 c6 bd 16 81 00 bf ea c1 3a be
       0.1125664 -0.096879356 -0.5019697 -0.18238035
000060 42 29 6c 3e 99 c8 bd 3e 2a ed 83 3e 00 dd b7 be
       0.23062614 0.37067106 0.2576688 -0.35910797
000070 17 bb 0b 3e 7d 0c e8 be 6e d1 aa bd 15 b5 0c bd
       0.13645588 -0.45322028 -0.08340727 -0.03435238
000080 b8 08 d5 bc e3 00 7a be 35 1d b4 3e 60 5a 46 3e
       -0.026005134 -0.24414401 0.35178533 0.19370413
000090 c8 48 8a 3e c9 1e 07 be c2 d8 0e 3e 3a be a3 3e
       0.27008653 -0.13195337 0.13949874 0.3198107
0000a0 de 15 fb 3e c2 44 95 bc c8 db e1 be 60 9d bb be
       0.4904012 -0.018221263 -0.44112992 -0.36643505
0000b0 04 b9 b5 3e 0c bb 4b 3e 8e 82 d4 3e 2c 6c c0 be
       0.35492718 0.19895571 0.41505855 -0.3758253
0000c0 be 80 f8 3e 8b cb 2d 3e 67 e5 2b 3e 27 34 da 3d
       0.48535722 0.16972177 0.16786729 0.106544785
0000d0 c9 53 0d be 63 76 37 be 7c 1d 31 be 3e 9a a0 3e
       -0.13801493 -0.17916255 -0.17296404 0.31367677
0000e0 c1 f0 aa be 2d 11 79 be b0 50 04 be 71 6a c1 3e
       -0.33386806 -0.24322958 -0.12921405 0.3777652
0000f0 d2 88 e3 3e 06 e3 83 3d c3 43 b2 be 2c a0 6c be
       0.44440323 0.06439786 -0.34817323 -0.23107976

fc2.weight f4 [64, 64]
000000 d3 80 b3 bd ea 17 b8 3d ce ff de bd 48 94 d9 bc
       -0.08764806 0.08988936 -0.108886346 -0.026559964
000010 10 31 85 bc 87 90 0d bd 8c 0b cc 3d 2c cd 91 bb
       -0.016258746 -0.03456166 0.0996314 -0.004449507
000020 5c 18 dc 3d c0 44 83 3c 34 6b e3 3d db 03 84 3d
       0.10746834 0.016023993 0.11104432 0.06446048
000030 5e 40 ae bd 30 e5 9e 3d a8 eb aa bd 7c 50 92 3d
       -0.08508371 0.07758558 -0.08345729 0.071442574
000040 bd 7b 93 bd d1 8c 28 bd 7c f1 af bd 96 af c5 3b
       -0.072013356 -0.041149918 -0.08590981 0.0060328944
000050 8e 9f f7 bd fe 98 fa 3d 18 3e 4d 3d c6 e4 8d 3d
       -0.120909795 0.12236212 0.050108045 0.06928401
000060 54 c6 80 3d 0a 22 d2 bd ec dc 80 bd 43 e8 4d bd
       0.06287828 -0.10260399 -0.062921375 -0.05027033
000070 a9 b8 20 bd 80 ee ac bd fc 69 38 bd fc 4d 92 bd
       -0.039238606 -0.08443928 -0.04502295 -0.071437806
000080 8b b7 2d bd 21 9d 67 bd 07 56 d7 3b a8 13 b7 bd
       -0.04241137 -0.056546334 0.0065715346 -0.08939296
000090 ce 3e 2d bd 00 f4 e5 39 27 ad c0 bd d9 4f 3b 3d
       -0.042296223 0.00043860078 -0.09408026 0.045730446
0000a0 9f 80 25 3c 4b f8 38 bd dc e5 21 3d f0 f8 77 bd
       0.010101466 -0.045158666 0.03952585 -0.06054014
0000b0 28 af e6 3c 68 90 ce 3c 32 aa 21 3d 21 b3 6d bc
       0.028159693 0.025215343 0.03946895 -0.01450804
0000c0 6c a2 74 3d f3 1f 0a 3d 00 86 a0 3d e4 cd 12 3d
       0.05972521 0.033721875 0.078380585 0.035840884
0000d0 f8 74 65 3d b2 71 bf 3c 0e ad 21 3d c9 dc 9f 3b
       0.056019753 0.023369644 0.03947168 0.0048786146
0000e0 2b 5f c1 bd c0 89 ca 3c f7 9c b2 bd 4a 17 fc bd
       -0.0944198 0.024723887 -0.08721345 -0.123091295
0000f0 1b 3a 8a bd fa 5b b2 3d f0 a0 ec 3d d0 45 c0 3d
       -0.06749364 0.087089494 0.11554134 0.09388316
000100 18 20 9b 3c 0b 49 96 3d ce 1c d2 bc d9 9e bc bd
       0.018936202 0.073381506 -0.0256485 -0.09209985
000110 39 5c 03 3e d8 44 4c 3d 86 86 11 bc 1d 7c dd bd
       0.12828149 0.049870342 -0.008882171 -0.10814688
000120 14 3a 8d 3d 14 9b f2 3d ee 4c 51 bd 70 1c b8 3c
       0.06895843 0.11845985 -0.051098756 0.022474498
000130 3d 24 d2 bd 14 b5 c7 bd 73 cd ea bd 86 90 23 bd
       -0.10260818 -0.09751335 -0.114649676 -0.03993275
000140 10 bd 32 3c 6e 7c 14 3c 0c 68 b5 3d 1c 4e ca 3d
       0.010909334 0.0090628695 0.08857736 0.098781794
000150 e6 ce 12 bd 52 be 35 3d 61 30 72 bd ce 7d 83 3d
       -0.035841845 0.044370957 -0.05912817 0.0642048
000160 b3 35 a9 bd f2 bf 43 bd fe 2d bd 3d 0b c6 1a bd
       -0.082621954 -0.047790475 0.09237288 -0.037786525
000170 34 91 9d 3d 7c 9a e4 bd 75 48 ae bc bd 64 85 3d
       0.07693711 -0.11162278 -0.021274785 0.06513355
000180 aa 59 cf 3d 9a e9 ed bc d2 10 ba bd 74 88 ce bd
       0.10124524 -0.029042054 -0.090852395 -0.1008462
000190 f8 ce ba 3c 26 fb 0f 3d 15 36 40 3d fb 32 83 bd
       0.022803769 0.035151623 0.046926577 -0.06406208
0001a0 eb fd b1 bc 7d 2f 56 bd 44 95 15 3d 19 a6 33 bd
       -0.021727523 -0.052291382 0.036519304 -0.043859575
0001b0 78 f3 ae bd 18 5b 91 3d fe 9d 53 3d 3e 34 9b 3d
       -0.08542532 0.07097453 0.051664345 0.07578324
0001c0 af 26 de 3d c3 31 c4 3d ca 36 e8 3d 23 89 0c bd
       0.10847222 0.09579804 0.11338575 -0.03431047
0001d0 4d 9d 30 bc 10 3b 82 bd 33 2d 77 bc 8a cc d2 bc
       -0.010779691 -0.063589215 -0.01508646 -0.025732297
0001e0 7c 20 08 3e bc 11 c5 3c 19 4a af 3d 52 e7 f1 3d
       0.13293642 0.024056308 0.08559055 0.11811699
0001f0 52 cc e8 3d 03 5b 11 bd 5b 88 00 be b2 ec e3 bb
       0.11367096 -0.035487186 -0.12552015 -0.0069557065
000200 ee 85 0a bd 60 c8 ef bd 08 a1 f3 3d c0 f4 d1 bd
       -0.03381913 -0.117081404 0.11895949 -0.102517605
000210 6d 2c fe bd 3d f2 cb 3d 02 31 ae bd e3 a7 62 3d
       -0.12410817 0.09958313 -0.08505441 0.05533589
000220 69 50 f7 bd 70 63 d2 3d 4c 44 8f 3d 89 08 44 3b
       -0.12075884 0.102728724 0.069954485 0.0029912314
000230 80 29 f4 3d 40 b4 83 bc 36 df e5 bd ad 4f ea bc
       0.11921978 -0.01607716 -0.11224215 -0.028602445
000240 81 09 a6 3d 21 74 bd bd f8 f7 0b 3d 9b a4 3f bc
       0.081072815 -0.092506655 0.03417203 -0.01169696
000250 e2 0e 81 bd ef 3c 33 3d 02 99 e5 bd af 15 75 3d
       -0.06301667 0.043759283 -0.112108245 0.059835132
000260 81 1e e8 3c 61 19 cb bd 47 cf 22 3d bf 3a d4 bc
       0.028334858 -0.0991695 0.039748456 -0.025906919
000270 1a 80 8e bd c9 66 fe 3c 74 f2 96 3c 60 bb f7 3d
       -0.06958027 0.031054871 0.018426158 0.12096286
000280 38 e7 ed 3d f0 04 09 bd 93 1e 5a bd f1 1a 3d 3d
       0.11616367 -0.033451974 -0.053251814 0.04616827
000290 3f 44 a0 bd 9c c4 66 3d 6e 65 d7 bd 94 6b 0d bd
       -0.07825517 0.056339845 -0.10517393 -0.034526423
0002a0 30 64 eb 3d b7 1a 85 bd c0 76 61 bd 38 61 1a bd
       0.114937186 -0.06499236 -0.05504489 -0.03769037
0002b0 36 3a e7 3d d6 51 d8 bd dd 48 c3 bd 6c 24 2e bd
       0.112904 -0.10562484 -0.09535382 -0.042515203
0002c0 4a 77 c9 bd 2d 12 cf 3d 57 00 c8 3d fb 4c e0 3d
       -0.09837206 0.10110889 0.0976569 0.10952183
0002d0 50 ce 5b 3d 90 bd b1 bc a8 5c e7 bd 02 e6 fa 3d
       0.05366355 -0.021696836 -0.1129697 0.12250902
0002e0 17 95 c4 3d 6d 19 e2 3c ab 09 b2 3c 9d d2 ec bd
       0.09598749 0.027600015 0.021733126 -0.11563609
0002f0 09 65 8c 3d 4c 5f 90 38 7a 92 e8 bd 82 31 89 3c
       0.068552084 6.8842055e-05 -0.11356063 0.01674724
000300 80 53 a7 3a 0c 23 c4 bd 40 b6 00 bd dc ce 21 bd
       0.0012765974 -0.09576997 -0.031423807 -0.039503917
000310 4a b6 9a bd 32 4a a6 3d b8 f5 b9 3c 3c a4 d2 3d
       -0.075543 0.081196204 0.022700176 0.102852315
000320 90 4e c9 bc fa 41 ee bd 78 ac 33 bd b4 d7 45 bd
       -0.024573594 -0.11633678 -0.04386565 -0.048301414
000330 10 9a b5 3d 28 53 e7 3d a2 1b bf 3d 58 61 d3 3c
       0.08867276 0.11295158 0.093314424 0.025803253
000340 a0 96 c3 bb f6 50 bf bd bc 63 2c bd b6 01 be 3d
       -0.0059688836 -0.09341614 -0.0420873 0.0927767
000350 f0 c7 42 bc 68 c2 c7 3c 14 d1 e3 bd 3a 69 ae 3d
       -0.011888489 0.024384692 -0.11123863 0.08516164
000360 bc b7 fe 3d b0 10 f8 bc f0 15 df bd c8 e9 f8 bd
       0.12437388 -0.030281395 -0.10892856 -0.12153965
000370 9c 9e 4c 3d 1a ca d4 3d 82 24 9c bd 40 e3 03 bc
       0.04995595 0.1039011 -0.07624151 -0.008049786
000380 40 f7 95 bb 4a cc ba bd 0c 8a 2b 3d 8e 26 d2 bd
       -0.0045765936 -0.09120996 0.0418797 -0.1026126
000390 54 be af bd 60 6a 6e bc f8 52 91 bd e8 9c b5 bc
       -0.08581224 -0.014551729 -0.07095903 -0.022169545
0003a0 96 d7 ec bd a8 57 ae 3c 48 0c b1 3d 3e 57 c3 bd
       -0.11564557 0.021282032 0.086449206 -0.095381245
0003b0 ec 82 d5 3d 00 a5 14 3b d8 e1 f3 bd d4 98 ca 3d
       0.10425362 0.0022681355 -0.11908311 0.09892431
0003c0 f2 4e f5 bd 18 b6 a0 3d ae 30 b4 bd 5c 2a b4 bd
       -0.11977948 0.078472316 -0.087983474 -0.08797142
0003d0 84 4a 32 3d 44 d5 88 3d 18 72 9a 3c 84 2b 3f bd
       0.043528095 0.06681302 0.018853232 -0.04667236
0003e0 30 43 cb 3c d4 82 59 3d 10 9c 49 bc f8 51 e8 bd
       0.024812311 0.053103283 -0.012305275 -0.11343759
0003f0 b8 c5 ca 3d d4 d1 6a bd c0 88 26 bb bc e6 d8 bd
       0.09900993 -0.057329014 -0.00254111 -0.10590884

fc2.bias f4 [64]
000000 4d 85 14 3d 89 82 93 bb 2c e5 23 bd c2 fe d0 bd
       0.036259938 -0.004501645 -0.040013477 -0.10204841
000010 85 ca a8 bd 18 41 55 bd 25 b2 2a 3c 22 3e f5 bd
       -0.082417525 -0.05206403 0.0104184495 -0.119747415
000020 32 04 a8 3d d9 39 1e bb e0 76 df 3c 98 93 5a 3a
       0.08203925 -0.0024143367 0.027278364 0.0008338033
000030 0b 31 14 3d 68 70 bc 3d 50 52 42 bd d1 08 98 bd
       0.036179584 0.09201127 -0.04744178 -0.074235566
000040 d6 70 60 3d 59 8f 24 3d 70 ce ea 3d e9 51 00 3d
       0.05479511 0.04017577 0.11465156 0.031328116
000050 0e 4a e1 bd 00 27 b5 bd 7b ec 6b bd bb 5b a4 3d
       -0.11000453 -0.08845329 -0.057598572 0.08025309
000060 0b c8 cb bd 2a ee 51 3d b6 75 83 bd 0e 34 86 bd
       -0.099502645 0.05125252 -0.06418936 -0.065528974
000070 9b d9 80 3d 1f 8e e1 bd 10 31 0f 3c 69 5f c8 3d
       0.06291505 -0.110134356 0.008739725 0.09783823
000080 10 ef df 3d bc 2d 37 3c eb 0a 67 3c 0a 56 90 bb
       0.109342694 0.0111803375 0.014101724 -0.004404788
000090 2f c7 6b bd 9e af e6 bd a4 22 90 3d 54 40 9e 3d
       -0.057563003 -0.11263965 0.07037857 0.07727113
0000a0 c1 58 29 bd f9 ca 76 bd 76 33 85 bd 05 d5 4e bd
       -0.041344408 -0.060252164 -0.06503956 -0.05049612
0000b0 00 b0 b5 3c 19 67 d0 bd 28 3b 01 bd 10 42 e3 3d
       0.02217865 -0.10175914 -0.031550556 0.11096585
0000c0 f6 64 f1 bd 9d 3c d1 bd 67 bc d3 3d f5 ad a7 bd
       -0.11786835 -0.10216639 0.10338669 -0.081874765
0000d0 8d 42 48 3c a0 5a 98 3b 9e 5a b0 3d 78 85 f5 3d
       0.012222898 0.004649475 0.08611034 0.11988348
0000e0 05 fe 8f bd 16 84 de bd 15 e6 13 3d bc 12 22 bd
       -0.07030872 -0.10865037 0.036108095 -0.039568648
0000f0 43 69 ce bd 53 c9 c3 3c ad 67 7c 3c c9 59 bd bc
       -0.10078671 0.02389971 0.015405578 -0.023114102

fc3.weight f4 [6, 64]
000000 b9 71 a0 3c ed 1e 93 3c ea e9 8a 3d e0 2c 21 bd
       0.019585477 0.017959082 0.06782897 -0.039349437
000010 14 83 ba 3c 0b 82 77 3b d2 60 f9 3d 18 94 87 3c
       0.022767581 0.003776672 0.1217667 0.016550109
000020 e3 2b 03 3d 49 55 82 3d 84 44 ce 3d ea d8 28 3d
       0.032024276 0.06363923 0.10071662 0.04122249
000030 80 6b f7 bd ea 38 65 3d 04 87 fe 3d c8 ef 93 bd
       -0.12081051 0.05596248 0.12428096 -0.07223469
000040 40 ac 7c bd 57 7a d1 3d a4 aa 51 3d e9 d5 da bc
       -0.061687708 0.102284126 0.051188126 -0.026713328
000050 3f 82 e0 3d 88 ce e3 bd 93 f0 d6 3d 2d 2a 47 bd
       0.109623425 -0.11123377 0.10495105 -0.048624206
000060 e4 bf c1 bc 2c 16 d1 bc 4a 84 f5 bd d4 3c 57 3d
       -0.02365107 -0.025523268 -0.11988123 0.052548245
000070 e6 e9 58 bd 6c ce eb bd 08 6c 95 3d 00 b8 02 b9
       -0.052957438 -0.11513981 0.07295996 -0.00012466311
000080 a1 a1 a8 bc 0a bb dd 3d 8a d5 b4 bd 46 f9 c7 bd
       -0.020584883 0.108266905 -0.08829792 -0.09764342
000090 fd 7c 24 3d e0 b0 8e ba 9e b2 6f bc 6d 3b d7 bb
       0.04015826 -0.0010886453 -0.014629988 -0.0065683634
0000a0 4f 25 9e 3c 76 df 66 bd de ed 8b 3d da f8 eb bd
       0.0193049 -0.056365453 0.06832479 -0.11522074
0000b0 08 88 d4 bc d3 1a f0 ba 54 aa 6b 3d 4a 18 82 3d
       -0.025943771 -0.0018318541 0.057535484 0.06352289
0000c0 8c 51 32 3d 5c a7 cf 3d 4e 7b 60 3c 3b cc 4e 3c
       0.0435348 0.10139343 0.013701273 0.0126219345
0000d0 ca 50 0c bd f4 fb 18 bd ec 71 90 3d 13 7e dd 3b
       -0.034256734 -0.037349656 0.07052979 0.006759414
0000e0 b2 61 de 3d 04 a0 9d 3d 42 16 95 3c c0 a0 7b 3d
       0.10858478 0.07696536 0.01819909 0.0614326
0000f0 57 ca 91 3c 41 d3 a7 3d 26 e9 53 bd 1b e1 c0 3d
       0.017796678 0.0819459 -0.05173602 0.094179355
000100 8d d2 9d bd 29 ad 07 3e d8 55 42 3d 80 cd ae ba
       -0.07706175 0.13249649 0.04744515 -0.001333639
000110 18 bf cc bd ef 63 4c 3d 5b 5c 60 3d 60 60 f2 bd
       -0.09997386 0.04989999 0.054775577 -0.11834788
000120 e2 7d ef bb 3c 49 8f 3d 96 9f 8a bd 9a 82 c2 3c
       -0.0073087076 0.0699639 -0.0676872 0.023743916
000130 3b f4 b9 bd 5d d3 45 3d 1d 2d 00 be f9 46 a5 bd
       -0.090797864 0.048297275 -0.1251721 -0.080701776
000140 99 5a b0 3d 04 ce e2 3d a1 c9 c5 3d dd 8f a9 bd
       0.0861103 0.110744506 0.09657598 -0.08279393
000150 7f 21 a2 3d cd b3 a4 3c d9 2f 37 bd 0e 90 fb bd
       0.07916545 0.020105267 -0.044723365 -0.122833356
000160 0a b8 8c 3c c8 be d2 bd 77 73 d7 3d 00 9c 15 3c
       0.0171776 -0.10290295 0.1052007 0.009131432
000170 05 c3 4a bd 77 1f ae 3d 74 46 02 bd 28 9d 2f bd
       -0.04950239 0.08502095 -0.03180547 -0.042874485
000180 98 51 29 bd 3f 91 a9 3d d1 9f ce 3d 5e 5a b1 3d
       -0.04133758 0.082796566 0.10089076 0.08659814
000190 76 56 0a 3d 31 66 b1 3d ef bc 8c 3d 09 4b a8 bd
       0.03377386 0.086620696 0.06871974 -0.08217437
0001a0 ff 0d 91 3c 5f ac 82 bd ae e7 07 3d 39 55 94 bc
       0.01770687 -0.063805334 0.03317993 -0.018107044
0001b0 f8 44 6b bd 7b e9 a4 3d 84 d7 45 3d d2 80 89 3d
       -0.05743882 0.08052345 0.048301235 0.06714024
0001c0 27 4c e8 bc 49 a3 26 3d 38 3d 09 be 2c c6 ec bd
       -0.028356625 0.040683065 -0.1340226 -0.11561236
0001d0 86 00 94 bd 66 4d 8b 3d 47 ec a6 bd 7f 97 9d 3d
       -0.07226662 0.06801872 -0.08150535 0.07694911
0001e0 22 d3 09 bb 00 d4 2c bd 45 52 ea 3d 1c ea 2d 3d
       -0.0021030386 -0.042194366 0.11441473 0.042459592
0001f0 2b 3a 5a 3d de b7 bc bc bf 80 a5 bd b9 da fd 3d
       0.05327813 -0.023036893 -0.08081197 0.12395234
000200 a1 9a fd bd 42 46 7a bd 20 b6 cc bd 80 0c 12 bd
       -0.12383009 -0.06110216 -0.09995675 -0.035656452
000210 be c0 c4 bd 77 66 14 bd 6e d4 a4 3d 42 e5 9d bd
       -0.09607075 -0.03623053 0.0804833 -0.07709743
000220 5d f8 b5 3c 99 f6 18 3d 3c 61 ee bd b3 68 4e bd
       0.022213155 0.03734455 -0.1163964 -0.050392818
000230 65 a1 c3 3c d3 70 f2 3d ee a1 15 bd 18 1a f7 ba
       0.02388067 0.11837926 -0.03653138 -0.0018852381
000240 2c 65 0e 3d 1c 20 b5 3d de 10 bf 3c 67 03 81 3c
       0.034764454 0.08844015 0.023323473 0.015748693
000250 69 71 bb 3d 61 78 57 3c 4b e7 a4 3d a9 e5 27 3d
       0.09152491 0.013151259 0.08051928 0.040990505
000260 71 00 87 bd 04 f8 65 bd 23 36 a2 bc 7c 75 3b bd
       -0.06591881 -0.05614473 -0.019801205 -0.04576634
000270 fc a7 b6 bd 65 68 62 bd 38 f5 c1 bc a8 a9 e7 bd
       -0.08918759 -0.05527534 -0.0236765 -0.11311656
000280 bc e5 e5 3d b7 ab 8d 3d e5 31 af 3d 57 c6 e6 3d
       0.11225459 0.06917518 0.085544385 0.11268299
000290 43 4f 4f bd 16 c7 f0 bd 66 b1 4a bd 20 6d ce bd
       -0.0506127 -0.11756723 -0.049485587 -0.10079408
0002a0 6b e8 e6 bd e4 4f bf bd 6a d2 bf 3d 83 42 bf bd
       -0.11274799 -0.0934141 0.09366305 -0.09338858
0002b0 d4 b8 d6 bd 5d a8 24 3d 29 4f b6 3d ea 9b ba bc
       -0.10484472 0.040199626 0.08901817 -0.022779424
0002c0 5a b2 82 bd 8e 6b d6 3d 89 27 90 3c 88 1e a3 bd
       -0.06381674 0.10469733 0.017596977 -0.07964808
0002d0 5e 51 f9 3d f5 20 cf bb 83 5b 21 3c 26 e9 ce bd
       0.12173723 -0.0063210675 0.009848478 -0.10103063
0002e0 3a cf f6 bc 60 09 c2 3d 1d 83 6e 3d 68 f9 b0 3d
       -0.03012811 0.094744444 0.058230508 0.086413205
0002f0 e4 37 b9 bd 57 f0 22 bd 4b 15 7c 3d 77 f1 bc 3d
       -0.090438634 -0.039779987 0.061543744 0.09225743
000300 00 f2 9b 3d 1e 2a be bd ea dc 06 bd e4 96 a0 3d
       0.07614517 -0.09285377 -0.032925524 0.0784128
000310 f1 9f e2 bd d2 17 74 bd 96 b5 6f bd c4 04 ff bd
       -0.11065663 -0.05959303 -0.058522783 -0.12452081
000320 8f 73 af 3d ac 47 81 bd 52 12 9f 3d 1c 91 2f 3c
       0.08566963 -0.063124985 0.07767166 0.010715749
000330 ff 79 7c 3d df e8 a4 bd a9 b3 42 3d e9 af bc bd
       0.061639782 -0.08052229 0.04753462 -0.0921324
000340 48 b8 a1 3d 28 f6 d0 3c 90 e3 d5 3d e4 1c 97 3d
       0.07896477 0.025508001 0.10443795 0.07378557
000350 e4 01 c6 bd b7 34 33 3d 7e a5 ee 3d a1 ac bd 3d
       -0.09668329 0.043751445 0.11652659 0.09261442
000360 c4 5f d0 bd f5 9d c1 3d 3f 38 a6 b9 7c a2 0a bd
       -0.10174516 0.09453956 -0.00031703894 -0.033846363
000370 65 41 81 3d 8c 92 df 3d 94 66 5c 3d b2 7a a9 bd
       0.06311301 0.109166235 0.053808764 -0.082753554
000380 86 9c 4f bd ec 8f b9 bd 62 be d2 bd 23 a2 9a bd
       -0.05068638 -0.09060654 -0.10290219 -0.075504564
000390 3c c5 57 bd c5 2c 59 3d a4 c7 c1 bd 14 fa 46 3d
       -0.05267833 0.05302121 -0.094619066 0.048578337
0003a0 8d a2 64 3d 22 c9 2d bc 50 d7 e2 3d ec 9c 79 bd
       0.055819083 -0.010607036 0.11076224 -0.060940668
0003b0 e8 c3 d4 bc 88 d6 c0 bd c5 03 ab 3c ca 31 f8 bc
       -0.025972322 -0.094159186 0.02087582 -0.030297179
0003c0 b8 77 f8 3d b1 a0 0c bd 67 4b b0 3d 2c 46 89 bd
       0.121322095 -0.034332935 0.08608132 -0.06702837
0003d0 4a db 84 bd 99 37 d4 bd 54 12 91 bd 33 bc 8d bd
       -0.064871386 -0.10362167 -0.07083574 -0.06920662
0003e0 99 38 f1 3d d6 8d e4 3d 68 5e fb 3c f6 c8 fb bd
       0.11778373 0.111598656 0.030684665 -0.1229419
0003f0 34 a1 eb 3d 0d 0f f2 3d a8 3f e8 bd c9 21 77 3d
       0.115053564 0.11819277 -0.113402665 0.060334954

fc3.bias f4 [6]
000000 22 26 8b bc d9 b5 e6 3d 49 93 46 bd 6c 17 ac 3d
       -0.016985957 0.112651534 -0.048480306 0.08402905
000010 94 ab fa 3d 32 33 aa 3d
       0.12239757 0.08310546
