saved_models/dqn_best_model_episode_5.pt (torch, 87083 bytes, 24 tensors)

fc1.weight f4 [64, 4]
-0.4792133 -0.16092816 0.47919512 -0.43924022 -0.4546913 -0.23206031 -0.13987458 -0.04464358
-0.1690911 0.13556823 0.28581074 -0.10001793 -0.24289119 0.46898103 0.34074166 -0.28201607
0.17265409 -0.16923793 0.061780296 -0.13294755 -0.0015014077 -0.113602154 0.44208577 0.30075377
-0.48626634 0.47808614 0.24824223 0.018057587 0.25967526 -0.28388822 -0.032963827 -0.10536757
0.3221411 -0.17965738 0.42611563 -0.4272414 -0.1483869 -0.2930495 0.041120708 -0.21432155
-0.43037686 -0.49959946 0.26800296 0.014440274 -0.19267917 -0.3844965 -0.38730925 -0.17503554
0.12643096 0.12694849 -0.4995379 -0.22185394 -0.17997582 -0.31046772 -0.2601497 0.3660436
0.12711667 -0.26301938 -0.49717638 0.01858393 -0.02783215 -0.217866 -0.19777066 -0.14651418
-0.28531897 -0.22256294 -0.20808208 0.34538698 -0.24012226 0.38115048 0.095621295 0.44796082
0.49075082 -0.3987231 0.45412308 0.402017 0.43733197 -0.3721652 0.19988452 -0.1521072
0.1907728 0.10547199 0.41502106 -0.38996422 -0.13789314 -0.20395541 -0.18587536 -0.43690115
-0.4918555 -0.16234262 0.2325158 0.12957442 0.440241 -0.44542372 0.20559019 0.2041526
0.2442477 -0.0039271084 0.2327993 -0.04489224 -0.13072795 -0.10419297 0.101938844 -0.27642864
-0.43007082 -0.19212747 -0.47093642 -0.033663392 0.32495013 -0.30113414 -0.11529334 0.34919238
-0.32497284 0.42984536 -0.2686289 0.018569821 -0.31715164 0.42042935 -0.27905557 -0.29565093
0.013245214 0.26078123 -0.043535177 0.3292664 -0.45099187 -0.060332477 -0.19541848 0.12897152
0.47545645 0.11106195 -0.18408719 -0.38114798 -0.31861734 -0.13439822 0.4637151 0.07451586
-0.27550718 0.15078 0.32385215 0.024192244 0.3467606 -0.35395443 -0.2639373 0.4570525
0.4517252 -0.22050254 -0.3616744 -0.46752512 -0.394536 0.01717397 0.20764312 0.07346567
-0.2688913 0.17659804 0.045221012 0.33072805 0.45392057 0.1376312 -0.395755 0.39619207
-0.33895424 0.17467651 -0.013381302 -0.2647494 -0.21452495 0.30967268 0.450913 0.35667259
-0.44726646 0.4183022 0.35271448 -0.12927791 -0.15890515 -0.031203628 -0.38599563 0.1264261
0.06945013 -0.49625006 0.40227124 -0.30690557 0.26855296 0.49957803 0.28983513 -0.20625414
-0.24332668 -0.34912136 0.1878409 0.34383038 -0.019106843 0.24665426 -0.49376908 -0.18556583
-0.48780364 0.020953655 -0.22351938 -0.08821899 -0.10079826 0.070104375 -0.07829165 -0.21706662
0.2539893 0.36611634 0.37657836 -0.42990625 -0.085994914 -0.2909207 0.44502673 0.0139291845
0.49895054 -0.36072677 0.27975357 0.28991675 -0.17307466 0.34863445 -0.11710014 -0.3073647
0.2515563 -0.32249525 -0.17679574 0.14882033 -0.15149757 0.2796304 0.062987395 -0.39732966
-0.10655774 0.18568452 0.22813608 0.36682114 -0.12890148 -0.051890284 -0.23693812 0.34760875
-0.1359437 0.3304204 0.12748426 0.10815768 0.32308403 -0.24909657 -0.15552646 -0.06305616
0.2474014 -0.42483002 -0.22689782 -0.35260233 -0.46406204 0.15789297 0.17416835 -0.2019406
0.45900112 -0.20669223 -0.17739987 -0.33178523 0.2593531 -0.19096121 -0.41509482 -0.48814288
00000000: 725b f5be 5aca 24be 1059 f53e 18e4 e0be
00000010: 4ccd e8be 38a1 6dbe 483b 0fbe 30dc 36bd
00000020: 3826 2dbe 66d2 0a3e c955 923e 33d6 ccbd
00000030: 78b8 78be 481e f03e b175 ae3e 6964 90be
00000040: 3ccc 303e b54c 2dbe 560d 7d3d 6723 08be
00000050: e2ca c4ba 3fa8 e8bd 1159 e23e 66fc 993e
00000060: e7f7 f8be b5c7 f43e 3633 7e3e 81ed 933c
00000070: 28f4 843e cc59 91be 1405 07bd f4ca d7bd
00000080: aeef a43e 1bf8 37be d42b da3e 63bf dabe
00000090: bcf2 17be 960a 96be 306e 283d 1c77 5bbe
000000a0: 5b5a dcbe 80cb ffbe af37 893e e696 6c3c
000000b0: b04d 45be badc c4be 664d c6be 843c 33be
000000c0: 1e77 013e c9fe 013e 6ec3 ffbe ae2d 63be
000000d0: 954b 38be a0f5 9ebe 5732 85be 116a bb3e
000000e0: df2a 023e 7aaa 86be e78d febe 533d 983c
000000f0: 4000 e4bc 4418 5fbe 6484 4abe d007 16be
00000100: 5415 92be 8ae7 63be 7813 55be 90d6 b03e
00000110: 9ce2 75be 2826 c33e 19d5 c33d 1f5b e53e
00000120: b143 fb3e 6f25 ccbe d282 e83e 2cd5 cd3e
00000130: fae9 df3e 708c bebe 87ae 4c3e fdc1 1bbe
00000140: f259 433e b301 d83d a47d d43e 64a9 c7be
00000150: dc33 0dbe b0d9 50be 1c56 3ebe 82b1 dfbe
00000160: 7cd4 fbbe 253d 26be 9f18 6e3e 28af 043e
00000170: 4567 e13e 940e e4be 3c86 523e 610d 513e
00000180: 121c 7a3e f9ae 80bb f162 6e3e ede0 37bd
00000190: 8cdd 05be 2063 d5bd 50c5 d03d 0e88 8dbe
000001a0: 3e32 dcbe 10bd 44be 941e f1be a0e2 09bd
000001b0: dd5f a63e 412e 9abe ea1e ecbd 58c9 b23e
000001c0: d762 a6be b114 dc3e ba89 89be bd1f 983c
000001d0: b361 a2be 8442 d73e 5fe0 8ebe 8f5f 97be
000001e0: 7402 593c 1e85 853e f151 32bd 9b95 a83e
000001f0: 68e8 e6be 301f 77bd c81b 48be 1c11 043e
00000200: 076f f33e 7374 e33d 5a81 3cbe d425 c3be
00000210: d021 a3be b09f 09be 116c ed3e c59b 983d
00000220: 470f 8dbe 1366 1a3e f3cf a53e d02e c63c
00000230: 9b8a b13e 8439 b5be ca22 87be c902 ea3e
00000240: 8748 e73e 6bcb 61be 632d b9be 745f efbe
00000250: 9f00 cabe 6db0 8c3c 66a0 543e 2b75 963d
00000260: 1fac 89be 1ed6 343e ab39 393d 3055 a93e
00000270: 4768 e83e 31ef 0c3e 66a0 cabe b0d9 ca3e
00000280: 698b adbe 66de 323e 403d 5bbc 3c8d 87be
00000290: 6eac 5bbe 6b8d 9e3e 12de e63e ca9d b63e
000002a0: 1c00 e5be b52b d63e fe96 b43e 6e61 04be
000002b0: 08b8 22be c09e ffbc 38a1 c5be d875 013e
000002c0: df3b 8e3d 7d14 febe 7ff6 cd3e ba22 9dbe
000002d0: c67f 893e b1c8 ff3e 4565 943e 4934 53be
000002e0: a12a 79be 09c0 b2be 5d59 403e 890a b03e
000002f0: f485 9cbc ef92 7c3e 4dcf fcbe f804 3ebe
00000300: 66c1 f9be 00a7 ab3c 44e2 64be 28ac b4bd
00000310: 516f cebd e292 8f3d 5f57 a0bd b646 5ebe
00000320: e30a 823e 9a73 bb3e e1ce c03e ac1c dcbe
00000330: 1a1e b0bd 8ff3 94be 8bda e33e 3c37 643c
00000340: 7276 ff3e 2eb1 b8be dc3b 8f3e f86f 943e
00000350: 7c3a 31be 3780 b23e 33d2 efbd e85e 9dbe
00000360: fdcb 803e 191e a5be f109 35be 5b64 183e
00000370: 2e22 1bbe b72b 8f3e 89ff 803d cb6e cbbe
00000380: f23a dabd 1524 3e3e 819c 693e fbcf bb3e
00000390: c0fe 03be e88a 54bd e89f 72be c6f9 b13e
000003a0: d334 0bbe dd2c a93e 3c8b 023e c681 dd3d
000003b0: 456b a53e 2c13 7fbe 5442 1fbe 9723 81bd
000003c0: cb56 7d3e 5283 d9be e757 68be 4b88 b4be
000003d0: 8a99 edbe b2ae 213e 3059 323e 84c9 4ebe
000003e0: 3202 eb3e 21a7 53be 50a8 35be c1df a9be
000003f0: eec9 843e 568b 43be 4f87 d4be dded f9be

fc1.bias f4 [64]
0.4629211 -0.09560931 -0.145689 -0.10233849 0.39235908 -0.043057192 -0.07722562 -0.023831906
-0.33935124 0.48107892 0.4898326 -0.082332134 -0.21453245 -0.15384622 0.331071 -0.010996878
-0.06859935 -0.03874884 -0.32323444 0.2959879 0.110371076 -0.45624417 -0.2687412 -0.021897588
-0.28819215 0.19340003 -0.38915443 -0.41026396 -0.0010573159 -0.29993683 -0.39063543 -0.19318038
0.42280835 0.015778065 -0.38895974 0.14845467 0.304355 -0.43064103 -0.40158242 -0.2973527
0.07482384 0.30201042 0.16619776 -0.31624925 -0.18611811 -0.3993596 -0.27651504 0.13962735
-0.052099764 0.07797935 -0.15892641 0.10433646 -0.41636205 -0.17508957 0.12585679 0.046262566
-0.105633475 -0.33124098 0.20655896 -0.19847204 -0.27118006 0.4109495 0.22381467 0.008364383
00000000: ff03 ed3e d0ce c3bd 7f2f 15be d896 d1bd
00000010: 4ae3 c83e bd5c 30bd 7728 9ebd 213b c3bc
00000020: 72bf adbe fa4f f63e 57cb fa3e c09d a8bd
00000030: 65ae 5bbe dd89 1dbe 2382 a93e 402c 34bc
00000040: d17d 8cbd 1bb7 1ebd fc7e a5be ba8b 973e
00000050: 3b0a e23d d698 e9be 7298 89be 9262 b3bc
00000060: ec8d 93be a80a 463e 403f c7be 1e0e d2be
00000070: a295 8aba 5291 99be 5e01 c8be 14d1 45be
00000080: 567a d83e 0041 813c bb25 c7be 8004 183e
00000090: 6bd4 9b3e fb7c dcbe 369c cdbe 9d3e 98be
000000a0: 3e3d 993d 1ca1 9a3e bf2f 2a3e 6ceb a1be
000000b0: bf95 3ebe dd78 ccbe 6193 8dbe 79fa 0e3e
000000c0: 9066 55bd a3b3 9f3d 9bbd 22be 5bae d53d
000000d0: 682d d5be ae4a 33be 9ae0 003e d17d 3d3d
000000e0: 5d56 d8bd 6b98 a9be 3184 533e 413c 4bbe
000000f0: 1dd8 8abe f967 d23e ac2f 653e c40a 093c

fc2.weight f4 [64, 64]
-0.062545374 -0.09602189 0.009745106 0.058241084 -0.12165126 -0.018555999 -0.07247543 0.06915367
0.09718263 0.100855276 0.0960339 0.0999717 0.11254698 0.0875943 0.021944746 0.07477225
-0.025441527 -0.0962794 -0.09321609 0.03251314 -0.016867757 -0.017583951 0.0062834024 -0.080244765
-0.059374154 0.07640205 -0.123177946 0.11896542 -0.12230873 0.10683355 0.044489965 -0.0029915124
-0.06397964 0.057100087 -0.114364535 -0.06803253 -0.03384693 0.06322849 0.09918733 -0.12092149
-0.10689625 0.12345642 -0.07774076 -0.09973107 -0.091786206 0.03908521 -0.0028205812 -0.00879018
-0.11896545 0.075312376 0.056245163 -0.087437406 -0.05000046 -0.023824573 0.06838174 -0.009035736
-0.07621157 0.11830476 0.033469677 0.08975966 -0.108988896 0.014434293 0.12167619 -0.08693589
0.10100139 0.0791903 -0.0059265513 0.073790774 0.11803244 0.035363298 -0.054902885 0.09567694
0.012821904 0.0003670156 -0.082733676 -0.07458916 0.023621486 0.041572288 0.060419936 -0.10949406
0.08756247 0.050747123 -0.024069492 0.070670106 0.09619274 -0.05094099 -0.07452336 -0.002637396
0.08348948 -0.0025049895 -0.025354326 0.11460896 0.061217498 -0.039916087 0.07044823 -0.09960432
-0.08101569 0.04183866 0.027618496 -0.05602486 0.06701433 -0.10333043 -0.10554138 -0.09007801
0.06578778 -0.062091287 0.11526072 -0.10240081 -0.09896822 0.07348023 -0.12288296 0.06082968
0.08753972 -0.024296194 -0.016281804 0.07220355 -0.064590625 -0.009893931 -0.07724134 0.085800596
0.018923642 -0.10933258 0.0050191083 0.053944256 -0.017777761 0.06732086 0.118162856 0.08396386
0.08400111 0.09239617 -0.052136377 -0.056912586 0.065361865 -0.044536065 -0.081160076 -0.09678308
0.120501354 0.017112285 0.07953561 0.08753079 -0.035607994 0.059217148 -0.006564781 -0.121870905
-0.113044806 -0.07890386 0.109250315 -0.054210745 0.011789672 -0.040156603 -0.011394432 -0.07581368
0.05027074 0.06768356 0.06758766 0.026238365 -0.046694532 -0.103484035 0.07366923 0.10728444
-0.09084287 0.039492268 -0.07969575 0.10582694 0.06529661 0.08672425 -0.04553754 -0.12357125
0.013785556 0.06020162 0.033615828 -0.045535848 -0.0016821645 -0.05126975 0.11719794 0.06739752
-0.04904844 0.08758326 -0.071702346 0.11794637 -0.05111567 -0.071647346 -0.07912395 -0.12216769
-0.10878012 0.09212073 0.049736004 0.0025300935 0.10228635 -0.07903938 0.049182758 0.09142702
-0.005181581 0.06939128 0.08174042 -0.059621233 0.03598638 -0.013869465 0.068901815 0.08305768
-0.10523755 0.018216193 0.09068811 -0.08435209 0.09175198 -0.04634066 -0.025123496 -0.04722558
0.053993568 -0.028773608 -0.0689939 0.020075206 0.07770773 0.063658684 -0.008746892 0.06548141
0.069657676 0.09783459 -0.046764016 0.08815327 0.020139663 0.028609706 -0.055817407 -0.026926741
0.038539715 0.073658586 0.11954669 -0.009276426 0.05258967 -0.07729155 -0.052102197 -0.08472249
0.09240623 -0.050142765 -0.08615903 -0.008197829 -0.0007323382 0.06638434 -0.06469764 -0.11149549
-0.11768107 0.07372158 -0.049137995 0.09057263 0.01148321 0.037837993 -0.0786025 -0.044533227
-0.037346978 0.08331886 0.09746074 -0.09192006 -0.029175384 0.028746024 -0.06611092 0.047168795
00000000: ca17 80bd 20a7 c4bd f0a9 1f3c 348e 6e3d
00000010: 4c24 f9bd c002 98bc 006e 94bd 70a0 8d3d
00000020: b007 c73d 368d ce3d 6cad c43d f6bd cc3d
00000030: 087f e63d a464 b33d 78c5 b33c 3222 993d
00000040: c06a d0bc 222e c5bd 14e8 bebd 802c 053d
00000050: 402e 8abc 380c 90bc 00e5 cd3b 5e57 a4bd
00000060: 5032 73bd ae78 9c3d b844 fcbd 24a4 f33d
00000070: 007d fabd 8ccb da3d 1c3b 363d 400d 44bb
00000080: c207 83bd c8e1 693d f437 eabd a454 8bbd
00000090: 14a3 0abd f07d 813d ba22 cb3d b0a5 f7bd
000000a0: 6cec dabd b8d6 fc3d 8c36 9fbd ce3f ccbd
000000b0: 68fa bbbd d017 203d 80d9 38bb b004 10bc
000000c0: 28a4 f3bd 603d 9a3d 5461 663d 6212 b3bd
000000d0: 48cd 4cbd c02b c3bc ba0b 8c3d a00a 14bc
000000e0: d014 9cbd c449 f23d 8017 093d ead3 b73d
000000f0: 9235 dfbd d07d 6c3c 5e31 f93d 720b b2bd
00000100: d1d9 ce3d 862e a23d 8433 c2bb 9e1f 973d
00000110: feba f13d 1bd9 103d d9e1 60bd 46f2 c33d
00000120: f712 523c 006c c039 4670 a9bd 34c2 98bd
00000130: d981 c13c b447 2a3d e57a 773d 6c3e e0bd
00000140: f453 b33d 37dc 4f3d 622d c5bc 7dbb 903d
00000150: b300 c53d 80a7 50bd b49f 98bd 2ad8 2cbb
00000160: 88fc aa3d c02a 24bb e0b3 cfbc 1ab8 ea3d
00000170: 33bf 7a3d 0d7f 23bd 2947 903d 5afd cbbd
00000180: 8eeb a5bd 045f 2b3d 2f40 e23c 537a 65bd
00000190: cf3e 893d e89e d3bd 1426 d8bd d27a b8bd
000001a0: bebb 863d 6f53 7ebd d00d ec3d 84b7 d1bd
000001b0: daaf cabd ce7c 963d 10aa fbbd 8b28 793d
000001c0: 0648 b33d d008 c7bc 6b61 85bc 74df 933d
000001d0: 1748 84bd 281a 22bc b530 9ebd 39b8 af3d
000001e0: c105 9b3c c2e9 dfbd 5577 a43b a7f4 5c3d
000001f0: aba2 91bc 85df 893d 5eff f13d 3ff5 ab3d
00000200: c608 ac3d 343a bd3d f48c 55bd 2c1d 69bd
00000210: 71dc 853d 736b 36bd 4137 a6bd 3536 c6bd
00000220: 6ac9 f63d 102f 8c3c 91e3 a23d 5843 b33d
00000230: b0d9 11bd ae8d 723d 601d d7bb 7497 f9bd
00000240: 0984 e7bd 5998 a1bd a1be df3d 160c 5ebd
00000250: 7829 413c 407b 24bd b6af 3abc 3444 9bbd
00000260: b1e8 4d3d ae9d 8a3d 666b 8a3d d7f1 d63c
00000270: c442 3fbd 70ef d3bd e5df 963d f2b7 db3d
00000280: d40b babd a5c2 213d 8637 a3bd cbbb d83d
00000290: 3bba 853d 7c9c b13d 9285 3abd ec12 fdbd
000002a0: d0dc 613c f995 763d c0b0 093d cc83 3abd
000002b0: 137c dcba 3b00 52bd 7905 f03d b607 8a3d
000002c0: 04e7 48bd da5e b33d aed8 92bd de8d f13d
000002d0: aa5e 51bd d8bb 92bd bd0b a2bd 0e33 fabd
000002e0: 1dc8 debd cba9 bc3d fbb7 4b3d edcf 253b
000002f0: 827b d13d 66df a1bd dc73 493d 173e bb3d
00000300: 40ca a9bb 041d 8e3d 8567 a73d 6535 74bd
00000310: 7466 133d c13c 63bc 651c 8d3d 251a aa3d
00000320: c986 d7bd 203a 953c b0ba b93d cac0 acbd
00000330: 76e8 bb3d b4cf 3dbd cacf cdbc 9c6f 41bd
00000340: 5c28 5d3d a1b6 ebbc ad4c 8dbd c274 a43c
00000350: 3b25 9f3d 7c5f 823d 204f 0fbc 1e1b 863d
00000360: afa8 8e3d 805d c83d a08b 3fbd b489 b43d
00000370: effb a43c e75e ea3c cba0 64bd 7895 dcbc
00000380: d2db 1d3d 50da 963d e5d4 f43d 27fc 17bc
00000390: 4468 573d 084b 9ebd 1d69 55bd fc82 adbd
000003a0: 7a3f bd3d 8062 4dbd 2574 b0bd 3050 06bc
000003b0: 62fa 3fba 83f4 873d 3280 84bd bf57 e4bd
000003c0: c602 f1bd 57fb 963d ec44 49bd 257e b93d
000003d0: 1324 3c3c 03fc 1a3d 59fa a0bd 7968 36bd
000003e0: 25f9 18bd 14a3 aa3d 7f99 c73d 9640 bcbd
000003f0: 3701 efbc c87c eb3c 2965 87bd 1134 413d

fc2.bias f4 [64]
-0.11759798 -0.0744468 0.11222999 -0.111805364 0.120727256 0.015499015 -0.029149314 -0.0488469
-0.016152816 0.10643545 -0.05555844 0.117844015 0.08335633 0.018949673 0.08602842 -0.0839881
-0.040935114 -0.06230554 0.104249276 -0.05911126 -0.043812867 -0.033669397 0.079196095 0.033610202
0.005422416 2.970772e-05 0.021144293 0.03679969 -0.12250686 -0.12418377 -0.058665857 -0.119077176
-0.06524232 -0.12444974 -0.10902097 0.015554592 -0.11706629 0.004936999 -0.06948297 -0.0464904
0.027399592 -0.047432654 -0.035181373 0.041829027 0.0015684395 -0.0064991415 -0.009924834 0.001450722
-0.048151724 0.07697598 0.096313655 -0.053189695 0.072759934 -0.046907894 -0.084841624 -0.08167317
-0.0641815 -0.10906256 0.06674972 -0.114392854 0.014005199 0.0043951455 -0.09834195 -0.06470635
00000000: 36d7 f0bd 9077 98bd d6d8 e53d 36fa e4bd
00000010: da3f f73d 95ef 7d3c 8bca eebc b013 48bd
00000020: e952 84bc d4fa d93d 3f91 63bd 3458 f13d
00000030: b9b6 aa3d 583c 9b3c ab2f b03d f401 acbd
00000040: 94ab 27bd 1834 7fbd a580 d53d a61e 72bd
00000050: 1f75 33bd ece8 09bd 9031 a23d daaa 093d
00000060: 86ae b13b d834 f937 cc36 ad3c 46bb 163d
00000070: e0e4 fabd 0f54 febd 9c4b 70bd bcde f3bd
00000080: c49d 85bd 81df febd 6346 dfbd b0d8 7e3c
00000090: 73c0 efbd 8dc6 a13b 164d 8ebd b86c 3ebd
000000a0: 1c75 e03c be48 42bd 581a 10bd ea54 2b3d
000000b0: 1994 cd3a c0f6 d4bb c59b 22bc 2726 be3a
000000c0: be3a 45bd 95a5 9d3d 1840 c53d 70dd 59bd
000000d0: 2903 953d 7e22 40bd 72c1 adbd 4344 a7bd
000000e0: 9771 83bd 315c dfbd 14b4 883d cd46 eabd
000000f0: 1076 653c 2705 903b 8167 c9bd c384 84bd

fc3.weight f4 [6, 64]
0.025091887 0.008952206 -0.084995285 0.0259856 -0.103782535 -0.08086642 0.01529519 -0.11766194
0.09404697 0.12464974 -0.07581643 0.10038184 0.0790588 0.07408859 0.008905523 0.121673696
-0.04567027 -0.0593272 -0.06929899 -0.06481805 0.0785266 -0.097696215 0.034891583 -0.014307242
-0.11774221 -0.037137695 0.10464096 0.08196309 -0.08436473 -0.08574983 -0.023268532 -0.05042261
-0.07627195 0.115061514 0.08334654 -0.0025172532 -0.11811317 0.036380604 -0.042083193 0.062871605
0.072240934 0.017772043 0.07698806 0.04022703 0.1199512 0.07184161 -0.027444977 -0.11640413
0.014163047 0.0116224885 0.046532493 0.07799415 0.07500928 -0.057770494 0.1119175 -0.10588043
0.015191441 0.10738888 -0.0062927497 -0.028026043 -0.05733034 0.08458186 -0.06326524 -0.02476409
-0.08988243 -0.079172544 0.04855676 0.113485575 0.09526861 0.022040546 0.072429165 0.111774996
-0.07444796 -0.04927231 0.12092261 0.042020336 -0.10174137 0.013401061 -0.009821272 0.07657498
0.09829968 0.075366825 -0.041380156 -0.10186829 -0.027772898 0.05279915 -0.09788317 0.009956443
-0.09254711 0.0024830953 0.05503439 -0.10251096 0.064405516 -0.06499873 0.09197408 0.04022941
0.03831505 0.07963396 0.02241388 -0.061387002 0.07330492 -0.007949516 -0.064704865 -0.105249554
-0.053186875 0.07337444 0.046055865 0.00290672 -0.018340215 0.017735735 0.030565545 -0.042530015
0.11717696 0.046005026 0.04126467 -0.09354062 -0.051247604 0.078521535 -0.08052699 -0.12331295
-0.084947735 0.05383547 0.102802455 0.11337711 0.07845384 0.04897008 0.057763826 -0.039833963
-0.10872552 0.11836593 -0.089907184 -0.08610676 0.04389991 0.047717407 0.10073403 0.08915585
-0.09428404 0.022250291 0.09242937 0.077865705 0.04553109 0.040144682 0.102794684 -0.06874318
0.016128868 0.07766746 0.019331235 -0.027968885 0.06866966 0.049684003 0.08782856 0.028038792
0.0122821005 -0.09360993 0.05309458 -0.053567395 -0.013347879 0.061846785 0.040277082 0.0070848614
0.029553028 0.11062675 0.041978143 0.10891497 -0.10438936 -0.04348213 -0.020261152 -0.06382935
-0.104292184 -0.0129639 0.03156478 -0.012234622 0.0023385664 0.059467837 -0.06941696 -0.0982944
-0.0012581581 0.103250064 -0.017647602 -0.11650443 -0.05710375 -0.07854515 0.112806186 -0.05158085
-0.08633722 0.021652555 0.084021345 0.11384144 0.027336597 0.059894353 0.07921032 -0.017060623
0.032545164 -0.040813036 0.038199563 -0.07142887 -0.056238055 -0.054410327 -0.019693118 0.10716906
-0.057897076 0.051464517 0.030869022 -0.12339774 0.029796079 0.11099474 -0.12401164 -0.096734665
-0.052752405 0.06467026 -0.017871007 -0.08205421 0.07753876 -0.10418081 0.0052664457 -0.017200388
0.061389476 0.11368357 -0.040783376 -0.017661244 0.07125561 0.08441637 -0.033545945 0.07237811
-0.029093824 0.025319276 0.03924778 0.06758055 0.10079154 -0.025797477 -0.033026434 -0.120686084
0.02937703 0.007584185 -0.05831007 0.06539891 0.08453863 -0.105822936 -0.0692224 -0.0012012282
-0.12016085 0.10353234 0.076504 -0.10486457 0.08871922 0.05944454 0.11318603 0.11373439
-0.06301678 -0.01701762 -0.07342078 -0.0230036 -0.11775723 -0.10806016 -0.043419786 0.04256995
00000000: 808d cd3c 46ac 123c 0212 aebd c1df d43c
00000010: f08b d4bd 4b9d a5bd ad98 7a3c bef8 f0bd
00000020: b39b c03d 5d48 ff3d a545 9bbd fe94 cd3d
00000030: 95e9 a13d c2bb 973d 79e8 113c 0f30 f93d
00000040: c010 3bbd 1401 73bd a1ec 8dbd 53bf 84bd
00000050: 8ed2 a03d f414 c8bd 7aea 0e3d ec68 6abc
00000060: d422 f1bd b21d 18bd 004e d63d 44dc a73d
00000070: 6ac7 acbd 9b9d afbd a69d bebc f087 4ebd
00000080: 7834 9cbd 5fa5 eb3d 97b1 aa3d 80f8 24bb
00000090: 51e5 f1bd d403 153d 6d5f 2cbd d4c2 803d
000000a0: 0ef3 933d ad96 913c eaab 9d3d 19c5 243d
000000b0: faa8 f53d b221 933d 4ad4 e0bc 4a65 eebd
000000c0: 200c 683c 406c 3e3c db98 3e3d 66bb 9f3d
000000d0: 779e 993d c1a0 6cbd 0135 e53d d7d7 d8bd
000000e0: 86e5 783c b3ee db3d 6933 cebb df96 e5bc
000000f0: 38d3 6abd 4139 ad3d 3591 81bd 10de cabc
00000100: 4814 b8bd 3725 a2bd 74e3 463d 206b e83d
00000110: 301c c33d 608e b43c be55 943d 4aea e43d
00000120: 2c78 98bd c3d1 49bd 46a6 f73d 841d 2c3d
00000130: c85d d0bd 2090 5b3c 67e9 20bc 58d3 9c3d
00000140: 5851 c93d ec59 9a3d 3d7e 29bd 52a0 d0bd
00000150: fd83 e3bc ec43 583d f976 c8bd 5920 233c
00000160: 5789 bdbd 6dbb 223b be6b 613d 44f1 d1bd
00000170: 0ae7 833d 0e1e 85bd e85c bc3d 98c7 243d
00000180: 3ef0 1c3d 2117 a33d 509d b73c f070 7bbd
00000190: e420 963d b03e 02bc fc83 84bd 148d d7bd
000001a0: 7bda 59bd 5745 963d 13a5 3c3d ab7e 3e3b
000001b0: 383e 96bc 884a 913c 9864 fa3c f433 2ebd
000001c0: 79fa ef3d c46f 3c3d 2505 293d 3992 bfbd
000001d0: 02e9 51bd e6cf a03d 56eb a4bd 808b fcbd
000001e0: 14f9 adbd 9582 5c3d 188a d23d 4232 e83d
000001f0: 68ac a03d da94 483d c399 6c3d f028 23bd
00000200: 7cab debd d669 f23d 4221 b8bd be58 b0bd
00000210: 64d0 333d 5473 433d a54d ce3d 5897 b63d
00000220: fe17 c1bd 3e46 b63c 9c4b bd3d 0e78 9f3d
00000230: cf7e 3a3d c06e 243d 0586 d23d 39c9 8cbd
00000240: b020 843c 1e10 9f3d 8a5c 9e3c 011f e5bc
00000250: aea2 8c3d 7481 4b3d 76df b33d 9cb1 e53c
00000260: dd3a 493c 90b6 bfbd b479 593d 7c69 5bbd
00000270: 10b1 5abc 0e53 7d3d 95f9 243d 2028 e83b
00000280: 3119 f23c 4790 e23d 46f1 2b3d d00e df3d
00000290: 17ca d5bd 511a 32bd b7fa a5bc f6b8 82bd
000002a0: 2497 d5bd 8a66 54bc 124a 013d b973 48bc
000002b0: a242 193b 8c94 733d 7b2a 8ebd 934e c9bd
000002c0: c8e8 a4ba c574 d33d b491 90bc e099 eebd
000002d0: 9fe5 69bd 48dc a0bd ee06 e73d 7146 53bd
000002e0: 92d1 b0bd b360 b13c 6213 ac3d b325 e93d
000002f0: 00f1 df3c c853 753d 0539 a23d b8c2 8bbc
00000300: 144e 053d 922b 27bd 2577 1c3d 4d49 92bd
00000310: e059 66bd 5ddd 5ebd 7653 a1bc 747b db3d
00000320: 7c25 6dbd 75cc 523d 08e1 fc3c f4b7 fcbd
00000330: e816 f43c 3651 e33d d1f9 fdbd d31c c6bd
00000340: e812 58bd d771 843d 3866 92bc 0a0c a8bd
00000350: a4cc 9e3d c05c d5bd 2692 ac3b d4e7 8cbc
00000360: 8873 7b3d eed2 e83d 780c 27bd 50ae 90bc
00000370: 76ee 913d 7de2 ac3d 7967 09bd f93a 943d
00000380: 2c56 eebc 5f6a cf3c 48c2 203d ac67 8a3d
00000390: cc6b ce3d 3b55 d3bc ba46 07bd 442a f7bd
000003a0: 19a8 f03c c184 f83b 8ad6 6ebd ddef 853d
000003b0: 9722 ad3d b2b9 d8bd 79c4 8dbd 8872 9dba
000003c0: e416 f6bd c308 d43d 21ae 9c3d 3cc3 d6bd
000003d0: 6cb2 b53d 1e7c 733d 14ce e73d 93ed e83d
000003e0: f10e 81bd 8968 8bbc a25d 96bd 0c72 bcbc
000003f0: b42a f1bd a54e ddbd f2d8 31bd d45d 2e3d

fc3.bias f4 [6]
0.046478543 0.06829322 0.10202495 -0.068706304 0.07500631 0.0066390825
00000000: 4960 3e3d 51dd 8b3d 75f2 d03d e4b5 8cbd
00000010: e99c 993d a98c d93b

fc1.weight f4 [64, 4]
-0.4792133 -0.16092294 0.47919512 -0.43924022 -0.4546913 -0.23206031 -0.13987458 -0.04464358
-0.1690799 0.13557523 0.28582424 -0.10004938 -0.24294406 0.46892774 0.34069717 -0.28206408
0.172651 -0.16924322 0.06178361 -0.13294613 -0.0014962554 -0.11361164 0.44208676 0.30077547
-0.48620796 0.47814292 0.24828184 0.01808393 0.25972515 -0.2838388 -0.03290707 -0.10537428
0.3220989 -0.17970002 0.426089 -0.42719632 -0.1483869 -0.2930495 0.041120708 -0.21432155
-0.43038207 -0.49959946 0.26799774 0.014435053 -0.19267917 -0.3844965 -0.38730925 -0.17503554
0.1264857 0.1270023 -0.4995104 -0.22188604 -0.17996448 -0.31045276 -0.26014173 0.36605495
0.1270892 -0.26304471 -0.49720353 0.018578708 -0.02783215 -0.217866 -0.19777066 -0.14651418
-0.28533506 -0.2225799 -0.20809901 0.3453709 -0.24006516 0.3812083 0.09567565 0.44801456
0.49074352 -0.398726 0.45410508 0.40197605 0.43738735 -0.37210786 0.19993728 -0.15208375
0.19074064 0.10543126 0.41499466 -0.3899361 -0.13789314 -0.20395541 -0.18587536 -0.43690115
-0.49185324 -0.16233248 0.23251939 0.12957668 0.44029754 -0.44536686 0.20564765 0.204162
0.24430239 -0.003870964 0.23285139 -0.044864833 -0.13072795 -0.10419297 0.101938844 -0.27642864
-0.43007082 -0.19212747 -0.47093642 -0.033663392 0.3250075 -0.30107635 -0.11526269 0.34920108
-0.32502657 0.42979056 -0.26868272 0.018533528 -0.31716847 0.4204347 -0.27907926 -0.2956174
0.013223469 0.2607665 -0.043558955 0.3292709 -0.45099187 -0.060332477 -0.19541848 0.12897152
0.47540325 0.111009955 -0.18413097 -0.3811955 -0.31858218 -0.13435996 0.46375197 0.07455176
-0.27554303 0.15074497 0.3238235 0.024184167 0.3468173 -0.35389775 -0.263883 0.45707154
0.4516893 -0.22055352 -0.36172086 -0.4675612 -0.39454615 0.017163813 0.20763296 0.07345551
-0.2689196 0.17656893 0.04520005 0.33070338 0.45393914 0.13766092 -0.39573056 0.39623302
-0.33893687 0.17469388 -0.013381302 -0.2647494 -0.21446717 0.3097316 0.45096868 0.35668498
-0.44721502 0.41835672 0.35276926 -0.12929142 -0.15890515 -0.031203628 -0.38599563 0.1264261
0.06941885 -0.49627763 0.40224004 -0.30692136 0.26849544 0.49951935 0.28977877 -0.20630616
-0.24328691 -0.34907722 0.1878801 0.34387302 -0.019063354 0.24670202 -0.4937399 -0.1855179
-0.48780364 0.020953655 -0.22351938 -0.08821899 -0.10084176 0.07006025 -0.07832903 -0.21709943
0.25398642 0.3661092 0.3765695 -0.4299047 -0.0860157 -0.29094517 0.44500446 0.013901055
0.49889535 -0.36078227 0.2797225 0.28992462 -0.17313093 0.3485763 -0.11715543 -0.307409
0.2515958 -0.3224494 -0.17676872 0.14886492 -0.15151101 0.27960283 0.06296557 -0.39736605
-0.10652727 0.18571764 0.22817135 0.36684477 -0.12892026 -0.051894546 -0.23695964 0.3475967
-0.13596535 0.33040494 0.12746787 0.108193755 0.32303023 -0.24914962 -0.15555364 -0.06310111
0.24739599 -0.42485493 -0.22689754 -0.35258955 -0.46406204 0.15788776 0.17416835 -0.2019406
0.45894486 -0.20674932 -0.17743212 -0.33183002 0.2594087 -0.19090503 -0.41504318 -0.48813766
00000000: 725b f5be fcc8 24be 1059 f53e 18e4 e0be
00000010: 4ccd e8be 38a1 6dbe 483b 0fbe 30dc 36bd
00000020: 4823 2dbe 3cd4 0a3e 8e57 923e b0e6 ccbd
00000030: 54c6 78be 4c17 f03e dc6f ae3e b46a 90be
00000040: 6ccb 303e 184e 2dbe d010 7d3d 0823 08be
00000050: 001e c4ba 38ad e8bd 3259 e23e 3eff 993e
00000060: 40f0 f8be 26cf f43e 983d 7e3e c024 943c
00000070: b2fa 843e 5253 91be 90c9 06bd 78ce d7bd
00000080: 26ea a43e 4803 38be 5628 da3e 7ab9 dabe
00000090: bcf2 17be 960a 96be 306e 283d 1c77 5bbe
000000a0: 0a5b dcbe 80cb ffbe 0037 893e 0081 6c3c
000000b0: b04d 45be badc c4be 664d c6be 843c 33be
000000c0: 7885 013e e40c 023e d4bf ffbe 1836 63be
000000d0: 9c48 38be aaf3 9ebe 4c31 85be 8e6b bb3e
000000e0: ac23 023e ccad 86be 7691 febe 6032 983c
000000f0: 4000 e4bc 4418 5fbe 6484 4abe d007 16be
00000100: 7017 92be fceb 63be e817 55be 74d4 b03e
00000110: a4d3 75be bc2d c33e 98f1 c33d 2a62 e53e
00000120: bc42 fb3e d025 ccbe 7680 e83e cecf cd3e
00000130: 3cf1 df3e ec84 bebe 5cbc 4c3e d8bb 1bbe
00000140: 8451 433e 58ec d73d 2e7a d43e b4a5 c7be
00000150: dc33 0dbe b0d9 50be 1c56 3ebe 82b1 dfbe
00000160: 30d4 fbbe 7c3a 26be 9019 6e3e c0af 043e
00000170: ae6e e13e 2007 e4be 4c95 523e d80f 513e
00000180: 682a 7a3e 00b0 7dbb 9870 6e3e 30c4 37bd
00000190: 8cdd 05be 2063 d5bd 50c5 d03d 0e88 8dbe
000001a0: 3e32 dcbe 10bd 44be 941e f1be a0e2 09bd
000001b0: 6267 a63e ae26 9abe d80e ecbd 7cca b23e
000001c0: e269 a6be 820d dc3e c890 89be a0d3 973c
000001d0: e863 a2be 3843 d73e 7ae3 8ebe 2a5b 97be
000001e0: 40a7 583c 3083 853e e06a 32bd 3296 a83e
000001f0: 68e8 e6be 301f 77bd c81b 48be 1c11 043e
00000200: 0e68 f33e 3059 e33d d48c 3cbe 0e2c c3be
00000210: 341d a3be a895 09be e670 ed3e 98ae 983d
00000220: fa13 8dbe e45c 1a3e 32cc a53e e01d c63c
00000230: 0a92 b13e 1632 b5be ac1b 87be 4805 ea3e
00000240: d243 e73e c8d8 61be 7a33 b9be 2e64 efbe
00000250: f401 cabe 209b 8c3c bc9d 543e d86f 963d
00000260: d4af 89be 7cce 343e b023 393d f451 a93e
00000270: b66a e83e fcf6 0c3e 329d cabe 0edf ca3e
00000280: 2289 adbe f4e2 323e 403d 5bbc 3c8d 87be
00000290: 489d 5bbe 2495 9e3e 5ee5 e63e 6a9f b63e
000002a0: 5ef9 e4be da32 d63e 2c9e b43e f864 04be
000002b0: 08b8 22be c09e ffbc 38a1 c5be d875 013e
000002c0: 782b 8e3d 1a18 febe 68f2 cd3e cc24 9dbe
000002d0: 3c78 893e 00c1 ff3e e25d 943e ec41 53be
000002e0: 3420 79be 40ba b2be a463 403e 2010 b03e
000002f0: c02a 9cbc 749f 7c3e 7acb fcbe 68f8 3dbe
00000300: 66c1 f9be 00a7 ab3c 44e2 64be 28ac b4bd
00000310: 2086 cebd c07b 8f3d f86a a0bd 504f 5ebe
00000320: 820a 823e aa72 bb3e b8cd c03e 781c dcbe
00000330: 0029 b0bd c4f6 94be a0d7 e33e 40c1 633c
00000340: 366f ff3e 74b8 b8be ca37 8f3e 0071 943e
00000350: 3c49 31be 9878 b23e 30ef efbd b664 9dbe
00000360: 2ad1 803e 1618 a5be dc02 35be 0c70 183e
00000370: b425 1bbe 1a28 8f3e 18f4 803d 9073 cbbe
00000380: f82a dabd c42c 3e3e c0a5 693e 14d3 bb3e
00000390: ac03 04be 608f 54bd 8ca5 72be 32f8 b13e
000003a0: 803a 0bbe d62a a93e f086 023e b094 dd3d
000003b0: 3864 a53e 1421 7fbe 7449 1fbe 283b 81bd
000003c0: 6055 7d3e 9686 d9be d457 68be 9e86 b4be
000003d0: 8a99 edbe 54ad 213e 3059 323e 84c9 4ebe
000003e0: d2fa ea3e 18b6 53be c4b0 35be a0e5 a9be
000003f0: 38d1 843e 9c7c 43be 8a80 d4be 2eed f9be

fc1.bias f4 [64]
0.46292633 -0.09560931 -0.14568084 -0.102392375 0.39235008 -0.043049693 -0.077169 -0.023781478
-0.33939338 0.48107892 0.4898274 -0.082332134 -0.21447837 -0.15383488 0.33104306 -0.010996878
-0.06861544 -0.038690746 -0.32324892 0.29604435 0.11032528 -0.45624417 -0.26873893 -0.021841466
-0.2881363 0.19340003 -0.38915443 -0.41020626 -0.0011129975 -0.2999367 -0.39065385 -0.19318038
0.4227556 0.015813947 -0.38898748 0.14851195 0.3043018 -0.4306512 -0.4016136 -0.2973224
0.07484114 0.30206937 0.16625243 -0.31624925 -0.18614924 -0.39941818 -0.27647287 0.13967663
-0.052099764 0.077935636 -0.15892887 0.10431296 -0.41641623 -0.17514747 0.12590492 0.0462355
-0.105599225 -0.33125532 0.20654875 -0.19852722 -0.27118385 0.41094428 0.22375727 0.008418918
00000000: ae04 ed3e d0ce c3bd 5c2d 15be 18b3 d1bd
00000010: 1ce2 c83e e054 30bd c80a 9ebd 60d1 c2bc
00000020: f8c4 adbe fa4f f63e a8ca fa3e c09d a8bd
00000030: 38a0 5bbe e486 1dbe 7a7e a93e 402c 34bc
00000040: 4086 8cbd 307a 1ebd e280 a5be 2093 973e
00000050: 38f2 e13d d698 e9be 2698 89be e0ec b2bc
00000060: 9a86 93be a80a 463e 403f c7be 8e06 d2be
00000070: 00e2 91ba 4e91 99be c803 c8be 14d1 45be
00000080: 6c73 d83e 408c 813c 5e29 c7be 8413 183e
00000090: 72cd 9b3e 507e dcbe 4ca0 cdbe a43a 98be
000000a0: 5046 993d d6a8 9a3e 143e 2a3e 6ceb a1be
000000b0: e89d 3ebe 8a80 ccbe da8d 8dbe 6407 0f3e
000000c0: 9066 55bd b89c 9f3d 40be 22be 08a2 d53d
000000d0: 8234 d5be dc59 33be 38ed 003e 7061 3d3d
000000e0: 6844 d8bd 4c9a a9be 8481 533e b84a 4bbe
000000f0: 9cd8 8abe 4a67 d23e a020 653e 80ef 093c

fc2.weight f4 [64, 64]
-0.062545374 -0.09602189 0.009745106 0.058241084 -0.12165126 -0.018555999 -0.07247543 0.06915367
0.09718263 0.100855276 0.0960339 0.0999717 0.11254698 0.0875943 0.021944746 0.07477225
-0.025441527 -0.0962794 -0.09321609 0.03251314 -0.016867757 -0.017583951 0.0062834024 -0.080244765
-0.059374154 0.07640205 -0.123177946 0.11896542 -0.12230873 0.10683355 0.044489965 -0.0029915124
-0.06397964 0.057100087 -0.114364535 -0.06803253 -0.03384693 0.06322849 0.09918733 -0.12092149
-0.10689625 0.12345642 -0.07774076 -0.09973107 -0.091786206 0.03908521 -0.0028205812 -0.00879018
-0.11896545 0.075312376 0.056245163 -0.087437406 -0.05000046 -0.023824573 0.06838174 -0.009035736
-0.07621157 0.11830476 0.033469677 0.08975966 -0.108988896 0.014434293 0.12167619 -0.08693589
0.10099617 0.0791903 -0.0059655607 0.07375494 0.1180217 0.03537616 -0.05493909 0.095666796
0.012814596 0.0003670156 -0.082733676 -0.07458916 0.02361472 0.041572288 0.060392544 -0.10949406
0.08756247 0.05070898 -0.024081096 0.07065952 0.096180886 -0.05094099 -0.07452336 -0.0026531816
0.083478585 -0.0025049895 -0.025354326 0.11456703 0.061185136 -0.03994888 0.07043433 -0.09960432
-0.08102642 0.04183866 0.02758561 -0.05605805 0.06701209 -0.10333043 -0.105556145 -0.09008871
0.06575845 -0.06212908 0.11522329 -0.10240081 -0.09896371 0.07346779 -0.12288296 0.06081876
0.08753972 -0.02432318 -0.016294017 0.07218477 -0.064602315 -0.009929851 -0.07725623 0.08576463
0.018885925 -0.10933258 0.004983261 0.053941727 -0.017798513 0.06731564 0.11815651 0.08397232
0.08400111 0.09239617 -0.052136377 -0.056912586 0.06534918 -0.044556603 -0.081192866 -0.096772805
0.120511174 0.017112285 0.079540834 0.08753079 -0.035607994 0.05922237 -0.006564781 -0.121870905
-0.11303958 -0.07893239 0.10923262 -0.054224953 0.011775762 -0.040156603 -0.011389211 -0.075829774
0.050253466 0.06768356 0.06758766 0.026222005 -0.046694532 -0.103484035 0.07364182 0.10728444
-0.090833366 0.039464876 -0.07972507 0.105810195 0.06530546 0.08672425 -0.04556492 -0.12359066
0.013785556 0.060176387 0.033615828 -0.045535848 -0.0016719699 -0.051289275 0.117171735 0.06739752
-0.04904844 0.08758326 -0.07171711 0.117929935 -0.051132724 -0.071647346 -0.079136476 -0.12216769
-0.10880557 0.09209567 0.04970634 0.0025402158 0.10229249 -0.07903938 0.04919246 0.0914218
-0.005181581 0.06939128 0.08177321 -0.059588432 0.035969093 -0.013886303 0.068934605 0.08304037
-0.10522342 0.018216193 0.09068811 -0.08435209 0.091777 -0.04634066 -0.025148794 -0.04722558
0.053993568 -0.028740808 -0.06901112 0.020057932 0.077737525 0.063658684 -0.008746892 0.06546417
0.069683716 0.09783459 -0.046764016 0.0881359 0.020172462 0.028642505 -0.05578567 -0.026926741
0.038565576 0.073658586 0.11957948 -0.009293914 0.052572057 -0.07729155 -0.052069396 -0.08469702
0.09240623 -0.050109506 -0.08612624 -0.008197829 -0.00072711706 0.06641571 -0.06469764 -0.1114627
-0.11768107 0.073754296 -0.049106896 0.090577856 0.011465952 0.037870795 -0.07861991 -0.044500425
-0.037314177 0.08331886 0.09749353 -0.09193751 -0.029192716 0.028746024 -0.0661284 0.047150433
00000000: ca17 80bd 20a7 c4bd f0a9 1f3c 348e 6e3d
00000010: 4c24 f9bd c002 98bc 006e 94bd 70a0 8d3d
00000020: b007 c73d 368d ce3d 6cad c43d f6bd cc3d
00000030: 087f e63d a464 b33d 78c5 b33c 3222 993d
00000040: c06a d0bc 222e c5bd 14e8 bebd 802c 053d
00000050: 402e 8abc 380c 90bc 00e5 cd3b 5e57 a4bd
00000060: 5032 73bd ae78 9c3d b844 fcbd 24a4 f33d
00000070: 007d fabd 8ccb da3d 1c3b 363d 400d 44bb
00000080: c207 83bd c8e1 693d f437 eabd a454 8bbd
00000090: 14a3 0abd f07d 813d ba22 cb3d b0a5 f7bd
000000a0: 6cec dabd b8d6 fc3d 8c36 9fbd ce3f ccbd
000000b0: 68fa bbbd d017 203d 80d9 38bb b004 10bc
000000c0: 28a4 f3bd 603d 9a3d 5461 663d 6212 b3bd
000000d0: 48cd 4cbd c02b c3bc ba0b 8c3d a00a 14bc
000000e0: d014 9cbd c449 f23d 8017 093d ead3 b73d
000000f0: 9235 dfbd d07d 6c3c 5e31 f93d 720b b2bd
00000100: 14d7 ce3d 862e a23d c07a c3bb d40c 973d
00000110: 5cb5 f13d 98e6 103d d007 61bd f4ec c33d
00000120: 50f4 513c 006c c039 4670 a9bd 34c2 98bd
00000130: a873 c13c b447 2a3d 2c5e 773d 6c3e e0bd
00000140: f453 b33d 38b4 4f3d b845 c5bc f0b5 903d
00000150: 7cfa c43d 80a7 50bd b49f 98bd 00e1 2dbb
00000160: d2f6 aa3d c02a 24bb e0b3 cfbc 1ea2 ea3d
00000170: 449d 7a3d 70a1 23bd e03f 903d 5afd cbbd
00000180: 2ef1 a5bd 045f 2b3d 38fb e13c 209d 65bd
00000190: a23d 893d e89e d3bd d22d d8bd 6e80 b8bd
000001a0: 5eac 863d 107b 7ebd 30fa eb3d 84b7 d1bd
000001b0: 7cad cabd 4876 963d 10aa fbbd 181d 793d
000001c0: 0648 b33d 6841 c7bc 087b 85bc 9cd5 933d
000001d0: 384e 84bd d0b0 22bc 8438 9ebd 5ea5 af3d
000001e0: a8b6 9a3c c2e9 dfbd a04a a33b 00f2 5c3d
000001f0: 30ce 91bc c8dc 893d 0afc f13d aef9 ab3d
00000200: c608 ac3d 343a bd3d f48c 55bd 2c1d 69bd
00000210: cad5 853d fc80 36bd 7248 a6bd d230 c6bd
00000220: 90ce f63d 102f 8c3c 4ee6 a23d 5843 b33d
00000230: b0d9 11bd 2893 723d 601d d7bb 7497 f9bd
00000240: 4c81 e7bd 4ea7 a1bd 5ab5 df3d fc1a 5ebd
00000250: 20ef 403c 407b 24bd d099 3abc a44c 9bbd
00000260: 94d6 4d3d ae9d 8a3d 666b 8a3d 88cf d63c
00000270: c442 3fbd 70ef d3bd 86d1 963d f2b7 db3d
00000280: d806 babd eca5 213d e646 a3bd 04b3 d83d
00000290: debe 853d 7c9c b13d 48a2 3abd 1a1d fdbd
000002a0: d0dc 613c 847b 763d c0b0 093d cc83 3abd
000002b0: 0026 dbba b414 52bd bcf7 ef3d b607 8a3d
000002c0: 04e7 48bd da5e b33d 6ce0 92bd 4085 f13d
000002d0: 8c70 51bd d8bb 92bd 4e12 a2bd 0e33 fabd
000002e0: 74d5 debd a89c bc3d e098 4b3d c079 263b
000002f0: ba7e d13d 66df a1bd 087e 493d 5a3b bb3d
00000300: 40ca a9bb 041d 8e3d b678 a73d 0013 74bd
00000310: 5454 133d 6083 63bc 962d 8d3d 1211 aa3d
00000320: 607f d7bd 203a 953c b0ba b93d cac0 acbd
00000330: 94f5 bb3d b4cf 3dbd d804 cebc 9c6f 41bd
00000340: 5c28 5d3d d871 ebbc b455 8dbd 8850 a43c
00000350: da34 9f3d 7c5f 823d 204f 0fbc 1412 863d
00000360: 56b6 8e3d 805d c83d a08b 3fbd 9880 b43d
00000370: b840 a53c b0a3 ea3c 847f 64bd 7895 dcbc
00000380: f0f6 1d3d 50da 963d 16e6 f43d 8045 18bc
00000390: cc55 573d 084b 9ebd b846 55bd a275 adbd
000003a0: 7a3f bd3d a03f 4dbd f462 b0bd 3050 06bc
000003b0: 009c 3eba f604 883d 3280 84bd 8e46 e4bd
000003c0: c602 f1bd 7e0c 973d 5024 49bd e280 b93d
000003d0: b0db 3b3c 681e 1b3d 7a03 a1bd 1446 36bd
000003e0: c0d6 18bd 14a3 aa3d b0aa c73d bc49 bcbd
000003f0: 9025 efbc c87c eb3c 546e 87bd d020 413d

fc2.bias f4 [64]
-0.11759798 -0.07446352 0.11221132 -0.11177985 0.120727256 0.015530214 -0.029097244 -0.0488469
-0.01609701 0.1064824 -0.05561757 0.117844015 0.08330406 0.018949673 0.086086854 -0.084045246
-0.040935114 -0.06229265 0.1042224 -0.059058473 -0.04384075 -0.033669397 0.07916705 0.033628106
0.0054670423 -2.1636486e-05 0.021095157 0.036804914 -0.12250686 -0.12417272 -0.05860725 -0.11911677
-0.065301046 -0.12450823 -0.109064296 0.015554592 -0.117124155 0.0049839765 -0.06942657 -0.0464904
0.027341038 -0.047492564 -0.03512411 0.041771933 0.0015342534 -0.0064991415 -0.0098707825 0.0014992207
-0.04816188 0.07696387 0.09626928 -0.053237215 0.072701156 -0.046966434 -0.08480601 -0.08169009
-0.064157784 -0.10904218 0.06680457 -0.11444919 0.014005199 0.0043703914 -0.09837417 -0.06471157
00000000: 36d7 f0bd 5480 98bd 0ccf e53d d6ec e4bd
00000010: da3f f73d 7072 7e3c 585d eebc b013 48bd
00000020: e0dd 83bc 7213 da3d 40cf 63bd 3458 f13d
00000030: 529b aa3d 583c 9b3c 4e4e b03d ea1f acbd
00000040: 94ab 27bd 9426 7fbd 8e72 d53d 4ce7 71bd
00000050: 5c92 33bd ece8 09bd 5622 a23d a0bd 093d
00000060: e024 b33b 0080 b5b7 c0cf ac3c c0c0 163d
00000070: e0e4 fabd 444e febd 280e 70bd 7ef3 f3bd
00000080: 8ebc 85bd 2cfe febd 1a5d dfbd b0d8 7e3c
00000090: cade efbd a050 a33b 842f 8ebd b86c 3ebd
000000a0: 50fa df3c 9087 42bd 4cde 0fbd 0c19 2b3d
000000b0: 0019 c93a c0f6 d4bb 10b9 21bc 8081 c43a
000000c0: 6445 45bd 3c9f 9d3d d428 c53d 440f 5abd
000000d0: 58e4 943d e05f 40bd c6ae adbd 224d a7bd
000000e0: 2865 83bd 8251 dfbd d6d0 883d 5664 eabd
000000f0: 1076 653c 8035 8f3b 6678 c9bd 8087 84bd

fc3.weight f4 [6, 64]
0.025091887 0.008895889 -0.084995285 0.025960281 -0.103782535 -0.08092435 0.01524511 -0.11766194
0.09398742 0.12461972 -0.07587287 0.10038184 0.079000026 0.07408859 0.008852214 0.121616915
-0.04567027 -0.05935499 -0.069318846 -0.06487352 0.0785266 -0.097696215 0.034856185 -0.014352962
-0.11778557 -0.037197396 0.10458411 0.08196309 -0.08436473 -0.085807115 -0.02331926 -0.05042261
-0.07632621 0.11500473 0.083341315 -0.0025172532 -0.118170634 0.036380604 -0.042134777 0.062871605
0.07218349 0.017728522 0.07693 0.04016845 0.119911835 0.07184161 -0.027498022 -0.116431266
0.014163047 0.01156415 0.046475187 0.07794213 0.07495266 -0.05782643 0.11186099 -0.10590029
0.01516372 0.1073612 -0.00635089 -0.028080553 -0.05733034 0.08452469 -0.063318565 -0.02476409
-0.08988243 -0.07923253 0.04855676 0.113485575 0.09526861 0.021981314 0.07238309 0.111774996
-0.07450257 -0.04931149 0.1208626 0.042020336 -0.10179967 0.013401061 -0.009879559 0.07651509
0.09829968 0.075366825 -0.041398957 -0.10192141 -0.027783051 0.05279915 -0.09790188 0.009907514
-0.092602625 0.002428636 0.054974467 -0.10251096 0.064405516 -0.06505871 0.091916904 0.04022941
0.038255557 0.07957533 0.02241388 -0.061387002 0.07324718 -0.007949516 -0.064763635 -0.105249554
-0.053246215 0.073317796 0.04599689 0.0028485805 -0.018340215 0.017735735 0.030506104 -0.042530015
0.1171668 0.04594691 0.041205153 -0.09359658 -0.05130762 0.0784615 -0.080587015 -0.12333241
-0.08498703 0.053799316 0.102743015 0.11332005 0.07845384 0.04891579 0.05770436 -0.039833963
-0.10872552 0.1183877 -0.089907184 -0.08610676 0.04389991 0.047736198 0.10072972 0.08915585
-0.09426725 0.022282645 0.0924508 0.077865705 0.045548186 0.040144682 0.10281779 -0.068722084
0.016128868 0.07766746 0.019307122 -0.027952552 0.06866966 0.049684003 0.087805405 0.028033003
0.012315795 -0.09359774 0.053115904 -0.053567395 -0.013347879 0.06186779 0.04030168 0.0070848614
0.029571861 0.11064559 0.041958287 0.10891497 -0.10437159 -0.04347691 -0.020240784 -0.06382935
-0.10427292 -0.012930617 0.031582847 -0.012218162 0.0023584217 0.059467837 -0.06939444 -0.098314255
-0.0012683123 0.10326804 -0.017627567 -0.11648281 -0.057082802 -0.07852355 0.11282745 -0.05160345
-0.08630505 0.021677867 0.08404006 0.11386229 0.027336597 0.059909403 0.079232946 -0.017060623
0.032545164 -0.040871173 0.038194343 -0.071434096 -0.056238055 -0.054466993 -0.019735217 0.10716906
-0.05795093 0.05141075 0.03081131 -0.12339774 0.029739216 0.11099474 -0.124070406 -0.09679188
-0.052752405 0.064665034 -0.017871007 -0.08210264 0.07753876 -0.10418081 0.0052309334 -0.017245397
0.06133476 0.11363062 -0.040841326 -0.017661244 0.07125561 0.0843586 -0.03360501 0.07237288
-0.029153645 0.025265306 0.03924778 0.06758055 0.100738585 -0.025836155 -0.03308463 -0.120686084
0.029320851 0.007529542 -0.05836658 0.065343425 0.08451331 -0.105822936 -0.0692824 -0.0012369156
-0.12016085 0.10347691 0.076447144 -0.1049214 0.08866045 0.059386283 0.11312768 0.11370906
-0.06306274 -0.017054617 -0.07347596 -0.02305694 -0.11775723 -0.108112395 -0.043478116 0.04256995
00000000: 808d cd3c 10c0 113c 0212 aebd a8aa d43c
00000010: f08b d4bd aabb a5bd a0c6 793c bef8 f0bd
00000020: 7a7c c03d a038 ff3d 3c63 9bbd fe94 cd3d
00000030: c4ca a13d c2bb 973d e008 113c 4a12 f93d
00000040: c010 3bbd 381e 73bd 0af7 8dbd 68dc 84bd
00000050: 8ed2 a03d f414 c8bd 5cc5 0e3d b028 6bbc
00000060: 9039 f1bd 4c5c 18bd 3230 d63d 44dc a73d
00000070: 6ac7 acbd a4bb afbd 0808 bfbc f087 4ebd
00000080: ea50 9cbd 9a87 eb3d daae aa3d 80f8 24bb
00000090: 7203 f2bd d403 153d 8495 2cbd d4c2 803d
000000a0: f0d4 933d 683b 913c 7a8d 9d3d ac87 243d
000000b0: 5694 f53d b221 933d 8843 e1bc 8473 eebd
000000c0: 200c 683c 9077 3d3c c45c 3e3d 20a0 9f3d
000000d0: c880 993d 68db 6cbd 6017 e53d 40e2 d8bd
000000e0: 4071 783c 30e0 db3d 201b d0bb 3009 e6bc
000000f0: 38d3 6abd 481b ad3d 2aad 81bd 10de cabc
00000100: 4814 b8bd aa44 a2bd 74e3 463d 206b e83d
00000110: 301c c33d 2812 b43c 963d 943d 4aea e43d
00000120: ce94 98bd d8fa 49bd d086 f73d 841d 2c3d
00000130: 587c d0bd 2090 5b3c e0dd 21bc f2b3 9c3d
00000140: 5851 c93d ec59 9a3d f491 29bd 2cbc d0bd
00000150: 4899 e3bc ec43 583d c880 c8bd 2053 223c
00000160: 72a6 bdbd c029 1f3b e82c 613d 44f1 d1bd
00000170: 0ae7 833d 803d 85bd ee3e bc3d 98c7 243d
00000180: dcb1 1c3d 64f8 a23d 509d b73c f070 7bbd
00000190: 9e02 963d b03e 02bc cca2 84bd 148d d7bd
000001a0: b418 5abd a427 963d 3c67 3c3d 40af 3a3b
000001b0: 383e 96bc 884a 913c f0e7 f93c f433 2ebd
000001c0: 26f5 ef3d d432 3c3d bcc6 283d 90af bfbd
000001d0: f027 52bd 6cb0 a03d ce0a a5bd b495 fcbd
000001e0: ae0d aebd ac5c 5c3d ee6a d23d 5814 e83d
000001f0: 68ac a03d ec5b 483d 685b 6c3d f028 23bd
00000200: 7cab debd 4075 f23d 4221 b8bd be58 b0bd
00000210: 64d0 333d 0887 433d 624b ce3d 5897 b63d
00000220: 300f c1bd 188a b63c d856 bd3d 0e78 9f3d
00000230: bc90 3a3d c06e 243d 2292 d23d 2abe 8cbd
00000240: b020 843c 1e10 9f3d f829 9e3c c0fc e4bc
00000250: aea2 8c3d 7481 4b3d 52d3 b33d 78a5 e53c
00000260: 30c8 493c 2cb0 bfbd 1090 593d 7c69 5bbd
00000270: 10b1 5abc 1469 7d3d 6013 253d 2028 e83b
00000280: b040 f23c 289a e23d 74dc 2b3d d00e df3d
00000290: c6c0 d5bd d814 32bd 00d0 a5bc f6b8 82bd
000002a0: 0a8d d5bd f0da 53bc 045d 013d b02e 48bc
000002b0: c08f 1a3b 8c94 733d ac1e 8ebd fc58 c9bd
000002c0: 803d a6ba 327e d33d b067 90bc 8a8e eebd
000002d0: a8cf 69bd f4d0 a0bd 1412 e73d 245e 53bd
000002e0: b4c0 b0bd c895 b13c 321d ac3d a230 e93d
000002f0: 00f1 df3c 9063 753d e244 a23d b8c2 8bbc
00000300: 144e 053d 8868 27bd ac71 1c3d 0a4c 92bd
00000310: e059 66bd c818 5fbd c0ab a1bc 747b db3d
00000320: f45d 6dbd 1494 523d 0068 fc3c f4b7 fcbd
00000330: a89f f33c 3651 e33d a018 febd d23a c6bd
00000340: e812 58bd 1a6f 843d 3866 92bc 6e25 a8bd
00000350: a4cc 9e3d c05c d5bd 4068 ab3b 3846 8dbc
00000360: 283a 7b3d 2cb7 e83d 3c49 27bd 50ae 90bc
00000370: 76ee 913d 34c4 ac3d 68a5 09bd 3c38 943d
00000380: a0d3 eebc 30f9 ce3c 48c2 203d ac67 8a3d
00000390: 0850 ce3d 58a6 d3bc c083 07bd 442a f7bd
000003a0: 4832 f03c 60ba f63b cc11 6fbd c6d2 853d
000003b0: 5015 ad3d b2b9 d8bd eee3 8dbd 0020 a2ba
000003c0: e416 f6bd b4eb d33d 5290 9c3d 08e1 d6bd
000003d0: 9c93 b53d 083f 733d 7caf e73d 4ce0 e83d
000003e0: 0a27 81bd 20b6 8bbc 907a 96bd e8e1 bcbc
000003f0: b42a f1bd 086a ddbd 1c16 32bd d45d 2e3d

fc3.bias f4 [6]
0.046420947 0.06823322 0.10204445 -0.06876449 0.07494749 0.0065894276
00000000: e423 3e3d dcbd 8b3d aefc d03d 66d4 8cbd
00000010: 127e 993d 20ec d73b

exp_avg f4 [64, 4]
0.0 2.8503306e-05 0.0 0.0 0.0 0.0 0.0 0.0
0.008688593 0.013074476 0.0017855198 -0.000405411 -0.020525586 -0.022181269 -0.0015838499 -0.00028293955
0.0036177195 0.002634425 0.0005710664 -0.0002446905 -0.0013770658 -0.0025609056 -0.0010131605 -0.00052992464
0.014620832 0.016206218 0.0007668774 5.292564e-05 0.028681764 0.023262074 0.002792792 -4.8496797e-05
-0.026501045 -0.025056772 -0.0025272542 0.000205084 0.0 0.0 0.0 0.0
-0.0001036151 0.0 -0.00015542265 -0.0004144604 0.0 0.0 0.0 0.0
0.030182611 0.0302805 0.003435989 -3.7990994e-05 1.5329184e-05 0.00021931274 -6.473131e-05 6.1316736e-05
-0.0013299873 -0.00017643832 -0.0001956548 -0.0001560585 0.0 0.0 0.0 0.0
-0.00013490957 -0.00041182947 -0.000114383896 -0.0005396383 0.07144726 0.076330766 0.009197888 0.0012431497
0.0011682673 0.001543583 0.00013163741 -0.0006328387 0.023450205 0.023140632 0.003754802 -3.172658e-05
1.3899058e-05 -0.0036885652 0.00026336656 -0.00016352584 0.0 0.0 0.0 0.0
-2.9997344e-05 3.1628006e-05 -2.918201e-05 -0.000119989374 0.022142908 0.018732533 0.0026719915 -0.00036510587
0.02183997 0.025314352 0.0024232017 0.00043054664 0.0 0.0 0.0 0.0
0.0 0.0 0.0 0.0 0.027754588 0.023307689 0.0032306956 0.0012085864
-0.009750007 -0.018342221 -0.002153548 -0.00024391987 -0.0044200826 -0.00022214025 -0.0010468323 7.4916265e-05
-0.014290175 -0.012026367 -0.002413654 -6.284642e-05 0.0 0.0 0.0 0.0
-0.026979173 -0.033418216 -0.0027574594 -0.00051382015 6.426318e-05 9.016784e-05 0.00010483597 0.00013201137
-0.0018729193 -0.003120591 4.0681276e-05 0.0015182665 0.035265222 0.029443689 0.0034919973 0.0014499021
-0.007640831 -0.010773356 -0.00082759454 -0.00018993864 -9.995786e-05 -0.00020503992 -0.0002447705 -0.00039983145
-7.8872705e-05 -0.00042111997 9.5329044e-05 -0.0003839355 0.0012714466 0.004675167 0.0002271836 0.0003860598
0.0023301416 0.004650916 0.0 0.0 0.052437834 0.06457376 0.0068337535 0.001789724
0.024701761 0.031653386 0.0051449076 0.00075040315 0.0 0.0 0.0 0.0
-0.0016535624 -0.00010980248 -0.00069373276 -0.00010427245 -0.076592535 -0.08095525 -0.008749687 -0.0006509051
0.0003946835 0.0006250009 0.00057987234 0.0010927871 0.002975511 0.0079295235 -0.00034782343 0.00030313418
0.0 0.0 0.0 0.0 -0.0042278892 -0.009347011 -0.000638566 -6.8762325e-05
0.0056350743 0.007773447 0.00078779785 6.373743e-05 0.0008745742 7.393405e-05 0.00034633977 -0.000120015684
-0.039554894 -0.03700562 -0.0055591967 -0.00071303535 -0.049759924 -0.059852596 -0.004695298 -0.00040480262
-0.000108483044 0.0008284054 -0.00031801386 0.000475782 -0.0062495037 -0.011557696 -0.0008356179 -0.00018147954
0.009448888 0.008452129 0.0011202093 2.9250572e-05 8.8290704e-05 0.00032196162 0.0001736185 0.0006369405
-0.013409885 -0.015196547 -0.0021444266 0.0007116504 -0.024309922 -0.0219796 -0.0028828993 -0.00023224407
9.643591e-05 -2.2210883e-05 0.00013874566 4.0762297e-05 0.0 -5.4526296e-05 0.0 0.0
-0.0257006 -0.033417545 -0.0033124946 -0.00023308046 0.020266408 0.016107282 0.0018353511 8.860841e-05
00000000: 0000 0000 621a ef37 0000 0000 0000 0000
00000010: 0000 0000 0000 0000 0000 0000 0000 0000
00000020: 9a5a 0e3c 5436 563c 1a08 ea3a 588d d4b9
00000030: 4625 a8bc 7eb5 b5bc 2f99 cfba 8157 94b9
00000040: 4317 6d3b 51a6 2c3b 9eb3 153a ce49 80b9
00000050: a97e b4ba ded4 27bb 06cc 84ba a4ea 0aba
00000060: 378c 6f3c e7c2 843c 4508 493a 79fc 5d38
00000070: 05f6 ea3c 1b90 be3c 4607 373b 0a69 4bb8
00000080: b818 d9bc dc43 cdbc 4aa0 25bb d10b 5739
00000090: 0000 0000 0000 0000 0000 0000 0000 0000
000000a0: ef4b d9b8 0000 0000 f3f8 22b9 ef4b d9b9
000000b0: 0000 0000 0000 0000 0000 0000 0000 0000
000000c0: 8641 f73c d00e f83c 542e 613b 8558 1fb8
000000d0: 2c97 8037 51f7 6539 5cc0 87b8 2c97 8038
000000e0: f852 aeba 4d02 39b9 af28 4db9 a2a3 23b9
000000f0: 0000 0000 0000 0000 0000 0000 0000 0000
00000100: 8376 0db9 d1ea d7b9 63e1 efb8 8376 0dba
00000110: f152 923d 4e53 9c3d bdb2 163c 2ff1 a23a
00000120: 8c20 993a 0d52 ca3a 2608 0a39 16e5 25ba
00000130: a51a c03c 6c91 bd3c 2013 763b 2812 05b8
00000140: 0030 6937 dbbb 71bb 7614 8a39 2278 2bb9
00000150: 0000 0000 0000 0000 0000 0000 0000 0000
00000160: cea2 fbb7 50a8 0438 e4cb f4b7 cea2 fbb8
00000170: 0b65 b53c f874 993c 941c 2f3b ae6b bfb9
00000180: bde9 b23c 0b60 cf3c 94ce 1e3b feba e139
00000190: 0000 0000 0000 0000 0000 0000 0000 0000
000001a0: 0000 0000 0000 0000 0000 0000 0000 0000
000001b0: 975d e33c c4ef be3c 14ba 533b 6e69 9e3a
000001c0: 7ebe 1fbc 6d42 96bc 8a22 0dbb bec4 7fb9
000001d0: 57d6 90bb 52ee 68b9 dd35 89ba 5d1c 9d38
000001e0: 5721 6abc 3d0a 45bc 652e 1ebb 6acc 83b8
000001f0: 0000 0000 0000 0000 0000 0000 0000 0000
00000200: 6d03 ddbc 8ae1 08bd 7eb6 34bb e3b1 06ba
00000210: 08c5 8638 7e18 bd38 62db db38 886c 0a39
00000220: be7c f5ba d482 4cbb 30a1 2a38 9200 c73a
00000230: 4472 103d e433 f13c fed9 643b a40a be3a
00000240: f05f fabb bb82 30bc eef2 58ba 442a 47b9
00000250: 78a0 d1b8 fcff 56b9 8a54 80b9 78a0 d1b9
00000260: 7668 a5b8 c4c9 dcb9 64eb c738 f34a c9b9
00000270: aba6 a63a 2532 993b 2238 6e39 1268 ca39
00000280: 4ab5 183b b666 983b 0000 0000 0000 0000
00000290: 0ec9 563d 3f3f 843d aeed df3b 2c95 ea3a
000002a0: 595b ca3c fba6 013d 9d96 a83b b4b6 443a
000002b0: 0000 0000 0000 0000 0000 0000 0000 0000
000002c0: 59bc d8ba c245 e6b8 9edb 35ba d8ac dab8
000002d0: 8cdc 9cbd decb a5bd d95a 0fbc 80a1 2aba
000002e0: 86ed ce39 1ad7 233a 9302 183a da3b 8f3a
000002f0: ca00 433b d5ea 013c 125c b6b9 fbed 9e39
00000300: 0000 0000 0000 0000 0000 0000 0000 0000
00000310: 1b8a 8abb 3524 19bc 7065 27ba 7e34 90b8
00000320: 6ea6 b83b 66b8 fe3b 3884 4e3a c6aa 8538
00000330: ae43 653a 0a0d 9b38 f094 b539 eeb0 fbb8
00000340: 5004 22bd 3493 17bd ec29 b6bb feea 3aba
00000350: 10d1 4bbd ff27 75bd 04db 99bb b03b d4b9
00000360: 6481 e3b8 5829 593a 19bb a6b9 6172 f939
00000370: a3c8 ccbb 7e5c 3dbc 5e0d 5bba 8b4b 3eb9
00000380: 82cf 1a3c cc7a 0a3c fdd3 923a 205f f537
00000390: b628 b938 f5cc a839 5c0d 3639 5af8 263a
000003a0: 22b5 5bbc f0fa 78bc 8289 0cbb 0d8e 3a3a
000003b0: 9a25 c7bc 900e b4bc 06ef 3cbb 8b86 73b9
000003c0: a33d ca38 8251 bab7 417c 1139 2ff8 2a38
000003d0: 0000 0000 2ab3 64b8 0000 0000 0000 0000
000003e0: 118a d2bc d6e0 08bd 7016 59bb 0f67 74b9
000003f0: bd05 a63c 6bf3 833c 2a90 f03a 47d3 b938
