saved_models/dqn_best_model_episode_902.pt (torch, 87147 bytes, 24 tensors)

fc1.weight f4 [64, 4]
-0.4792133 -0.16097417 0.47919512 -0.43924022 -0.4546913 -0.23206031 -0.13987458 -0.04464358
-0.17225473 0.13269383 0.28281322 -0.100460574 -0.23859459 0.47355923 0.34372064 -0.28132904
0.17081895 -0.17065436 0.061059304 -0.13399081 0.0020275817 -0.10962352 0.44555932 0.30085623
-0.49046698 0.47378775 0.24592535 0.017211936 0.25718474 -0.28630686 -0.03511862 -0.10696388
0.3228905 -0.17908782 0.42470965 -0.42624342 -0.1483869 -0.2930495 0.041120708 -0.21432155
-0.43154988 -0.5000118 0.26677853 0.01313768 -0.19267917 -0.3844965 -0.38730925 -0.17503554
0.12319829 0.12390223 -0.5028337 -0.22276933 -0.17884748 -0.3100163 -0.25944886 0.36708477
0.12832029 -0.2618076 -0.49588853 0.021674505 -0.02783215 -0.217866 -0.19777066 -0.14651418
-0.2840989 -0.22189534 -0.20677315 0.34698015 -0.24362919 0.37757984 0.09192533 0.4468148
0.48738533 -0.402375 0.45113617 0.40447703 0.43469 -0.37463692 0.19606748 -0.15257698
0.19142446 0.10625326 0.41358036 -0.3885763 -0.13789314 -0.20395541 -0.18587536 -0.43690115
-0.49061587 -0.16142792 0.23376665 0.13103877 0.4387579 -0.44662303 0.20523228 0.20369135
0.24220851 -0.005769553 0.22998764 -0.04594203 -0.13072795 -0.10419297 0.101938844 -0.27642864
-0.43007082 -0.19212747 -0.47093642 -0.033663392 0.3220402 -0.30385047 -0.11819883 0.34669033
-0.32260665 0.4322631 -0.26617897 0.018288288 -0.3146929 0.42124167 -0.2777597 -0.2956714
0.015650203 0.26300043 -0.041886345 0.32829878 -0.45082203 -0.059924234 -0.19492495 0.12942436
0.4786789 0.11442485 -0.18129177 -0.38153228 -0.31936866 -0.13472952 0.46313322 0.07333549
-0.27550432 0.15077433 0.32371157 0.023190316 0.34400532 -0.35666817 -0.2665432 0.45541495
0.45604858 -0.21583629 -0.35857892 -0.4623519 -0.3943042 0.017455284 0.20785812 0.07418617
-0.26644808 0.17906073 0.046086937 0.33150527 0.45792168 0.140825 -0.39194754 0.39438847
-0.33960098 0.17403357 -0.013381302 -0.26467103 -0.21838611 0.30575743 0.44756526 0.35559037
-0.45085555 0.41460556 0.34921375 -0.12965572 -0.15848522 -0.0312986 -0.3859878 0.1265354
0.07161484 -0.4946504 0.40412524 -0.30562386 0.27259684 0.5036818 0.29409227 -0.20344058
-0.2440907 -0.34972313 0.186893 0.34273455 -0.017705208 0.2478602 -0.49154636 -0.18586431
-0.48780364 0.020953655 -0.22351938 -0.08821899 -0.10032978 0.07076628 -0.07756184 -0.21715356
0.25640643 0.36858886 0.3792756 -0.42905605 -0.08806993 -0.29137507 0.44336846 0.012442674
0.5025853 -0.3573279 0.28311783 0.2929896 -0.16965131 0.35211694 -0.11555727 -0.3066284
0.25198826 -0.32335597 -0.1761831 0.14805064 -0.15063117 0.281544 0.061430916 -0.3970016
-0.10822201 0.18364929 0.22580293 0.3646085 -0.12894051 -0.05228816 -0.23714484 0.34720293
-0.1327972 0.33308443 0.13064283 0.1082075 0.32726428 -0.2447619 -0.15229636 -0.064219266
0.24491663 -0.42668533 -0.22962637 -0.3515052 -0.46387082 0.15826105 0.17431463 -0.20160279
0.46348596 -0.20224445 -0.17358258 -0.328793 0.25647497 -0.19356163 -0.4178689 -0.48934942
00000000: 725b f5be 6ad6 24be 1059 f53e 18e4 e0be
00000010: 4ccd e8be 38a1 6dbe 483b 0fbe 30dc 36bd
00000020: 8b63 30be e4e0 073e e5cc 903e 46be cdbd
00000030: 2452 74be 5b76 f23e 27fc af3e 5c0a 90be
00000040: 2aeb 2e3e 04c0 2ebe 5219 7a3d e334 09be
00000050: 2de1 043b 4c82 e0bd 5a20 e43e d409 9a3e
00000060: 7d1e fbbe 4f94 f23e dbd3 7b3e 0c00 8d3c
00000070: b8ad 833e d096 92be 8bd8 0fbd e10f dbbd
00000080: e751 a53e cc62 37be 8b73 d93e 943c dabe
00000090: bcf2 17be 960a 96be 306e 283d 1c77 5bbe
000000a0: 1bf4 dcbe c600 00bf 3297 883e 6c3f 573c
000000b0: b04d 45be badc c4be 664d c6be 843c 33be
000000c0: 634f fc3d 74c0 fd3d b6b9 00bf a51d 64be
000000d0: cb23 37be 75ba 9ebe 7bd6 84be 89f2 bb3e
000000e0: 6566 033e a50b 86be 1ae5 fdbe bb8e b13c
000000f0: 4000 e4bc 4418 5fbe 6484 4abe d007 16be
00000100: 6975 91be 8838 63be 57bc 53be 62a7 b13e
00000110: ee79 79be 2552 c13e 5943 bc3d e9c4 e43e
00000120: 928a f93e 1904 cebe 52fb e63e 9d17 cf3e
00000130: b08f de3e 69d0 bfbe eac5 483e 243d 1cbe
00000140: c604 443e 4f9b d93d cec0 d33e 79f3 c6be
00000150: dc33 0dbe b0d9 50be 1c56 3ebe 82b1 dfbe
00000160: 0132 fbbe 5c4d 25be 8660 6f3e 072f 063e
00000170: e0a4 e03e c6ab e4be 6928 523e 7794 503e
00000180: 8205 783e 850e bdbb e181 6b3e b62d 3cbd
00000190: 8cdd 05be 2063 d5bd 50c5 d03d 0e88 8dbe
000001a0: 3e32 dcbe 10bd 44be 941e f1be a0e2 09bd
000001b0: 74e2 a43e 4a92 9bbe 3a12 f2bd 6581 b13e
000001c0: b32c a5be 9751 dd3e 9c48 88be 52d1 953c
000001d0: 6e1f a1be fdac d73e 8536 8ebe 3e62 97be
000001e0: db34 803c fea7 863e 0491 2bbd c716 a83e
000001f0: 25d2 e6be 1d73 75bd 689a 47be d287 043e
00000200: 6715 f53e 9357 ea3d 8da4 39be 3358 c3be
00000210: 4a84 a3be 89f6 09be cc1f ed3e eb30 963d
00000220: e70e 8dbe 9664 1a3e 86bd a53e 9ef9 bd3c
00000230: 7721 b03e 369d b6be 5a78 88be 262c e93e
00000240: 337f e93e 3004 5dbe a897 b7be 63b9 ecbe
00000250: 3de2 c9be 62fe 8e3c c2d8 543e ebee 973d
00000260: e26b 88be b25b 373e a8c5 3c3d 0fbb a93e
00000270: b674 ea3e 6e34 103e 59ad c8be 49ed c93e
00000280: 2ee0 adbe db35 323e 403d 5bbc f682 87be
00000290: 9ca0 5fbe 3d8c 9c3e 4627 e53e f10f b63e
000002a0: 8ad6 e6be 2e47 d43e 25cc b23e 78c4 04be
000002b0: f349 22be f632 00bd 31a0 c5be 7f92 013e
000002c0: cdaa 923d d142 fdbe 81e9 ce3e bb7a 9cbe
000002d0: d091 8b3e 4af1 003f 4393 963e ba52 50be
000002e0: eaf2 79be e90e b3be e160 3f3e e77a af3e
000002f0: 830a 91bc 10cf 7d3e f7ab fbbe 3753 3ebe
00000300: 66c1 f9be 00a7 ab3c 44e2 64be 28ac b4bd
00000310: b379 cdbd e9ed 903d bed8 9ebd 815d 5ebe
00000320: b447 833e aeb7 bc3e 6930 c23e 3cad dbbe
00000330: 025e b4bd 1d2f 95be 3101 e33e 5bdc 4b3c
00000340: 6ea9 003f aff3 b6be d2f4 903e bc02 963e
00000350: 13b9 2dbe ac48 b43e 4aa9 ecbd 66fe 9cbe
00000360: 9b04 813e ea8e a5be 5869 34be 969a 173e
00000370: 0f3f 1abe 8926 903e fc9e 7b3d cb43 cbbe
00000380: 80a3 ddbd 8f0e 3c3e e238 673e f7ad ba3e
00000390: fb08 04be 1c2c 56bd 19d6 72be 95c4 b13e
000003a0: fdfb 07be 0b8a aa3e 3cc7 053e e59b dd3d
000003b0: 2f8f a73e dda2 7abe 94f3 1bbe 6485 83bd
000003c0: 6dcb 7a3e 8076 dabe 2d23 6bbe 7df8 b3be
000003d0: 7a80 edbe 2f0f 223e 897f 323e f670 4ebe
000003e0: 084e ed3e 2b19 4fbe a2bf 31be 8e57 a8be
000003f0: b050 833e 0535 46be eaf2 d5be 028c fabe

fc1.bias f4 [64]
0.4628752 -0.09560931 -0.1486408 -0.09775485 0.390148 -0.040326945 -0.0815944 -0.026676128
-0.33848554 0.48107892 0.48852706 -0.082332134 -0.2181991 -0.15270533 0.33407986 -0.010996878
-0.06701847 -0.04230947 -0.32564318 0.29300323 0.1117176 -0.45624417 -0.2672441 -0.02379352
-0.2901367 0.19340003 -0.38915443 -0.413606 0.0012300189 -0.2988438 -0.388525 -0.19272535
0.42615384 0.01459808 -0.38948077 0.14577377 0.30973798 -0.42994928 -0.39915422 -0.29447103
0.07418269 0.29826713 0.16251577 -0.3161068 -0.18379347 -0.3949727 -0.2775797 0.1414096
-0.052099764 0.07858214 -0.15528865 0.10183089 -0.4123374 -0.1717716 0.12623802 0.048489053
-0.10862188 -0.33157352 0.20955572 -0.19458258 -0.27240655 0.41130292 0.2285265 0.005288245
00000000: fafd ec3e d0ce c3bd 4b35 18be b233 c8bd
00000010: 7bc1 c73e de2d 25bd f71a a7bd e587 dabc
00000020: fa4d adbe fa4f f63e 3820 fa3e c09d a8bd
00000030: 966f 5fbe c95e 1cbe 840c ab3e 402c 34bc
00000040: fb40 89bd b24c 2dbd b4ba a6be 8504 963e
00000050: 32cc e43d d698 e9be 38d4 88be a1ea c2bc
00000060: cc8c 94be a80a 463e 403f c7be 2ac4 d3be
00000070: 9638 a13a 0e02 99be c0ec c6be cb59 45be
00000080: d630 da3e c92c 6f3c 066a c7be b845 153e
00000090: fa95 9e3e 5022 dcbe f15d ccbe e8c4 96be
000000a0: 18ed 973d 78b6 983e 896a 263e c0d8 a1be
000000b0: 5b34 3cbe dd39 cabe ed1e 8ebe aecd 103e
000000c0: 9066 55bd acef a03d fd03 1fbe b78c d03d
000000d0: e31d d3be e5e4 2fbe 8a44 013e 759c 463d
000000e0: 2675 debd 01c4 a9be c695 563e a840 47be
000000f0: df78 8bbe 4c96 d23e da02 6a3e 0449 ad3b

fc2.weight f4 [64, 64]
-0.062545374 -0.09602189 0.00937779 0.05803884 -0.12179723 -0.018876646 -0.07273412 0.06915367
0.09698316 0.100855276 0.0960339 0.0999717 0.11247082 0.0875943 0.021944746 0.07477225
-0.025441527 -0.09647056 -0.09341042 0.03235063 -0.017056575 -0.017583951 0.0062834024 -0.08031635
-0.05955419 0.07640205 -0.123177946 0.118955836 -0.122411385 0.10672869 0.044323992 -0.0029915124
-0.06413495 0.057100087 -0.114364535 -0.06803253 -0.033946026 0.06322849 0.09918733 -0.12106527
-0.10689625 0.12323406 -0.07800909 -0.09973107 -0.091786206 0.03891006 -0.0028205812 -0.008881521
-0.11896545 0.075312376 0.056066357 -0.087437406 -0.050176106 -0.023987094 0.06838174 -0.009222889
-0.07642784 0.11830476 0.033283014 0.089725286 -0.108988896 0.014434293 0.12154214 -0.08691063
0.10104736 0.0791903 -0.0067658667 0.07395141 0.11732126 0.036278125 -0.055015575 0.094900586
0.012062424 0.0003670156 -0.082733676 -0.07458916 0.024214385 0.041572288 0.060269203 -0.10949406
0.08756247 0.05103811 -0.024819136 0.0699135 0.09610677 -0.05094099 -0.07452336 -0.003426428
0.08335256 -0.0025049895 -0.025354326 0.11396549 0.0617444 -0.03941014 0.07079994 -0.09960432
-0.08085429 0.04151582 0.026845692 -0.056219026 0.06702477 -0.10291079 -0.10676991 -0.089802004
0.06429188 -0.06199004 0.115109175 -0.10240081 -0.099289834 0.07360107 -0.12327758 0.061677378
0.08753972 -0.025089096 -0.016223986 0.073350534 -0.06528412 -0.009488489 -0.07762927 0.086072266
0.019094989 -0.10898787 0.0053118276 0.05307521 -0.019259337 0.06757858 0.11813745 0.08324561
0.08400111 0.09239617 -0.052382685 -0.056912586 0.06561336 -0.04482952 -0.081438325 -0.09648888
0.12077747 0.017112285 0.07898811 0.08753079 -0.03491906 0.058761213 -0.006269614 -0.121870905
-0.113504045 -0.079242945 0.10923861 -0.053941622 0.012041665 -0.040156603 -0.011867638 -0.075753026
0.050552502 0.06768356 0.06758766 0.026201285 -0.046626106 -0.103484035 0.073355176 0.10728565
-0.09054298 0.039083596 -0.0800902 0.10571506 0.065621965 0.086244285 -0.045931447 -0.12355396
0.013785556 0.059894327 0.033099584 -0.045531318 -0.0014587158 -0.05094268 0.1167384 0.06739752
-0.04904844 0.08758326 -0.071413316 0.11769919 -0.05106113 -0.071647346 -0.07908187 -0.12216769
-0.109108455 0.09170686 0.049456626 0.0028477148 0.10267873 -0.07903938 0.049485646 0.091839924
-0.005181581 0.06939128 0.08229778 -0.058787346 0.037541635 -0.012196617 0.06947864 0.08472829
-0.103469566 0.018216193 0.09068811 -0.08435209 0.09217921 -0.04634066 -0.024633482 -0.04722558
0.053993568 -0.028209165 -0.06723534 0.021699626 0.07924322 0.063658684 -0.008746892 0.06721705
0.07124627 0.09783459 -0.046764016 0.08981273 0.020738602 0.029215066 -0.0549963 -0.026926741
0.03982457 0.073658586 0.12008633 -0.0078102257 0.05388943 -0.07729155 -0.05150568 -0.0834978
0.09240623 -0.049284402 -0.08558621 -0.008197829 0.00051541236 0.06768155 -0.06469764 -0.112129286
-0.11768107 0.07449847 -0.047769662 0.09114553 0.013177848 0.038383164 -0.077060714 -0.043862414
-0.036491323 0.08331886 0.09816558 -0.09038926 -0.027541533 0.028746024 -0.064730346 0.04833422
00000000: ca17 80bd 20a7 c4bd 4da5 193c 22ba 6d3d
00000010: d370 f9bd 32a3 9abc a0f5 94bd 70a0 8d3d
00000020: 1b9f c63d 368d ce3d 6cad c43d f6bd cc3d
00000030: 1a57 e63d a464 b33d 78c5 b33c 3222 993d
00000040: c06a d0bc 5b92 c5bd f64d bfbd 1882 043d
00000050: 3bba 8bbc 380c 90bc 00e5 cd3b e67c a4bd
00000060: 18ef 73bd ae78 9c3d b844 fcbd 1e9f f33d
00000070: d2b2 fabd 9294 da3d 138d 353d 400d 44bb
00000080: 2f59 83bd c8e1 693d f437 eabd a454 8bbd
00000090: fd0a 0bbd f07d 813d ba22 cb3d 11f1 f7bd
000000a0: 6cec dabd 2462 fc3d 3bc3 9fbd ce3f ccbd
000000b0: 68fa bbbd 2860 1f3d 80d9 38bb cd83 11bc
000000c0: 28a4 f3bd 603d 9a3d d6a5 653d 6212 b3bd
000000d0: 7685 4dbd 9580 c4bc ba0b 8c3d 9a1b 17bc
000000e0: 3386 9cbd c449 f23d c553 083d e4c1 b73d
000000f0: 9235 dfbd d07d 6c3c 16eb f83d 33fe b1bd
00000100: ebf1 ce3d 862e a23d 34b4 ddbb d673 973d
00000110: 2146 f03d 5f98 143d 0358 61bd 3d5b c23d
00000120: 79a1 453c 006c c039 4670 a9bd 34c2 98bd
00000130: 3f5d c63c b447 2a3d d7dc 763d 6c3e e0bd
00000140: f453 b33d 560d 513d 8051 cbbc cf2e 8f3d
00000150: a0d3 c43d 80a7 50bd b49f 98bd ec8d 60bb
00000160: bfb4 aa3d c02a 24bb e0b3 cfbc bd66 e93d
00000170: b2e7 7c3d 876c 21bd 8fff 903d 5afd cbbd
00000180: ef96 a5bd 7e0c 2a3d 7feb db3c ec45 66bd
00000190: 4844 893d e4c2 d2bd 2faa dabd 1dea b7bd
000001a0: 76ab 833d 45e9 7dbd 5cbe eb3d 84b7 d1bd
000001b0: 7858 cbbd 28bc 963d f578 fcbd 6ba1 7c3d
000001c0: 0648 b33d a687 cdbc 2ae8 84bc ce38 963d
000001d0: aeb3 85bd 9b75 1bbc 18fc 9ebd a846 b03d
000001e0: 186d 9c3c 0835 dfbd d70e ae3b 6465 593d
000001f0: c2c5 9dbc a366 8a3d 0cf2 f13d ad7c aa3d
00000200: c608 ac3d 343a bd3d 3a8f 56bd 2c1d 69bd
00000210: 4c60 863d 299f 37bd 23c9 a6bd f69b c5bd
00000220: 2e5a f73d 102f 8c3c 85c4 a13d 5843 b33d
00000230: 4a07 0fbd 99af 703d 5671 cdbb 7497 f9bd
00000240: cf74 e8bd 204a a2bd 7eb8 df3d e4f1 5cbd
00000250: 674a 453c 407b 24bd 7b70 42bc 6724 9bbd
00000260: 2410 4f3d ae9d 8a3d 666b 8a3d 14a4 d63c
00000270: 04fb 3ebd 70ef d3bd 3d3b 963d 94b8 db3d
00000280: 996e b9bd 1f16 203d 5506 a4bd 2381 d83d
00000290: cf64 863d d8a0 b03d 9d22 3cbd dc09 fdbd
000002a0: d0dc 613c c153 753d 6e93 073d 0c7f 3abd
000002b0: 6132 bfba 46a9 50bd 8b14 ef3d b607 8a3d
000002c0: 04e7 48bd da5e b33d 2541 92bd 460c f13d
000002d0: 7a25 51bd d8bb 92bd adf5 a1bd 0e33 fabd
000002e0: 4174 dfbd ced0 bb3d 0893 4a3d baa0 3a3b
000002f0: 3a49 d23d 66df a1bd 76b1 4a3d 9216 bc3d
00000300: 40ca a9bb 041d 8e3d bd8b a83d 00cb 70bd
00000310: 42c5 193d 52d4 47bc d14a 8e3d 0786 ad3d
00000320: dae7 d3bd 203a 953c b0ba b93d cac0 acbd
00000330: 74c8 bc3d b4cf 3dbd 28cc c9bc 9c6f 41bd
00000340: 5c28 5d3d e816 e7bc afb2 89bd 6ac3 b13c
00000350: 454a a23d 7c5f 823d 204f 0fbc 18a9 893d
00000360: 90e9 913d 805d c83d a08b 3fbd bdef b73d
00000370: 00e4 a93c 6f54 ef3c cd43 61bd 7895 dcbc
00000380: 171f 233d 50da 963d d2ef f53d ecec ffbb
00000390: 2abb 5c3d 084b 9ebd 9ff7 52bd e500 abbd
000003a0: 7a3f bd3d 71de 49bd d347 afbd 3050 06bc
000003b0: bd1c 073a a09c 8a3d 3280 84bd 0aa4 e5bd
000003c0: c602 f1bd a792 983d 1faa 43bd 82aa ba3d
000003d0: e7e7 573c aa37 1d3d 02d2 9dbd 13a9 33bd
000003e0: ed77 15bd 14a3 aa3d 090b c93d 011e b9bd
000003f0: c89e e1bc c87c eb3c 5891 84bd 1afa 453d

fc2.bias f4 [64]
-0.11776574 -0.073526055 0.111939825 -0.110992834 0.12072291 0.0125605045 -0.030379726 -0.0488469
-0.019473447 0.103431955 -0.050995465 0.117844015 0.083975956 0.018949673 0.08312219 -0.08092752
-0.040935114 -0.0579064 0.105507426 -0.062312257 -0.04284909 -0.033669397 0.08032808 0.033481915
0.0025105276 0.0037507494 0.024974061 0.03675367 -0.12184566 -0.12415382 -0.060757734 -0.11817601
-0.061137613 -0.11971094 -0.10378678 0.0154106235 -0.11287303 0.0039863125 -0.072833255 -0.0464904
0.030411046 -0.04335473 -0.038394574 0.045852665 0.0053875856 -0.006452473 -0.013390096 -0.003625241
-0.04798073 0.08066969 0.09808766 -0.05409101 0.076360464 -0.04303721 -0.08643044 -0.08290369
-0.06533135 -0.10866982 0.06420602 -0.10992901 0.014005199 0.0070316033 -0.09464354 -0.06466038
00000000: 2a2f f1bd d494 96bd b540 e53d 3650 e3bd
00000010: 933d f73d 93ca 4d3c e7de f8bc b013 48bd
00000020: c786 9fbc 22d4 d33d 9fe0 50bd 3458 f13d
00000030: 96fb ab3d 583c 9b3c f73b aa3d 54bd a5bd
00000040: 94ab 27bd 432f 6dbd 4714 d83d 233b 7fbd
00000050: 8782 2fbd ece8 09bd 0c83 a43d 5524 093d
00000060: aa87 243b 22cf 753b 6796 cc3c 048b 163d
00000070: 388a f9bd 5c44 febd 1add 78bd 4406 f2bd
00000080: 6f6b 7abd 022b f5bd 2a8e d4bd d77c 7c3c
00000090: fa29 e7bd 9d9f 823b 9a29 95bd b86c 3ebd
000000a0: 9620 f93c bb94 31bd a143 1dbd 01d0 3b3d
000000b0: 588a b03b 446f d3bb 2262 5bbc 7495 6dbb
000000c0: 7187 44bd 2736 a53d 2fe2 c83d 898e 5dbd
000000d0: e062 9c3d c947 30bd 7102 b1bd 69c9 a9bd
000000e0: 71cc 85bd 488e debd 727e 833d 7622 e1bd
000000f0: 1076 653c 5d69 e63b 79d4 c1bd a96c 84bd

fc3.weight f4 [6, 64]
0.025517276 0.011422797 -0.0836158 0.028365681 -0.10301978 -0.07907628 0.01705132 -0.11766194
0.09501817 0.12586744 -0.07298498 0.10038184 0.080813974 0.07408859 0.011537549 0.1242934
-0.04567027 -0.05731319 -0.06745731 -0.061390113 0.07945383 -0.097696215 0.037468124 -0.01250641
-0.11520855 -0.034480028 0.106900804 0.08196309 -0.0834487 -0.08336502 -0.019631343 -0.050147228
-0.074395455 0.11800764 0.08569808 -0.002173513 -0.115257755 0.036650795 -0.039871957 0.062871605
0.07473785 0.021410424 0.078685455 0.042666193 0.12275852 0.071989544 -0.024892565 -0.11412813
0.014543471 0.013400954 0.04847746 0.08207038 0.077082224 -0.0548693 0.11449196 -0.10422916
0.015708817 0.10869856 -0.0033942286 -0.025310086 -0.05733034 0.087369464 -0.059946775 -0.02476409
-0.08870659 -0.075358346 0.049982537 0.11656599 0.096444204 0.025605153 0.07445055 0.111774996
-0.07245073 -0.047153372 0.12491902 0.042020336 -0.09800358 0.013401061 -0.006955248 0.080546394
0.09829968 0.07780549 -0.039343473 -0.098631285 -0.02670027 0.05279915 -0.09475781 0.011930998
-0.08966709 0.0072263177 0.05893808 -0.10251096 0.06572301 -0.061252795 0.09528333 0.04086845
0.042368818 0.08399089 0.025256284 -0.06086681 0.077172406 -0.0071864505 -0.06163715 -0.105249554
-0.049174517 0.07717424 0.04958612 0.006980277 -0.0151364915 0.017735735 0.03395512 -0.04044241
0.11772067 0.049999487 0.044978812 -0.089665115 -0.04736095 0.08275139 -0.07671124 -0.12151507
-0.08420179 0.05614122 0.10634834 0.117336646 0.07845384 0.052851483 0.061971866 -0.039833963
-0.108909436 0.11799752 -0.08846687 -0.087406345 0.042074945 0.046843536 0.10039511 0.08915585
-0.094900206 0.019884015 0.092449315 0.077865705 0.044297088 0.040144682 0.10366378 -0.06929417
0.016128868 0.07768401 0.022615593 -0.027633173 0.068823636 0.049684003 0.0908107 0.029237261
0.008646253 -0.09375509 0.052638195 -0.053567395 -0.015075848 0.061193325 0.042076267 0.0067181624
0.029470943 0.11032775 0.044158574 0.10901214 -0.10495858 -0.044868328 -0.020361414 -0.06382935
-0.10468352 -0.008927926 0.030677771 -0.012737317 0.0037218863 0.059467837 -0.067478836 -0.09783019
-0.00073535525 0.10182549 -0.018782921 -0.1152389 -0.057678267 -0.078522615 0.11273974 -0.051296763
-0.0872158 0.022172503 0.084054 0.111664265 0.027336597 0.05900658 0.080117114 -0.017060623
0.033206966 -0.037116036 0.03945095 -0.06804562 -0.056079507 -0.050940193 -0.01740606 0.10716906
-0.056327593 0.053219404 0.034777388 -0.12339774 0.03343073 0.11099474 -0.12162546 -0.09281105
-0.052752405 0.0671042 -0.016307684 -0.07849588 0.07821995 -0.10418081 0.00785881 -0.015556548
0.06380489 0.11859057 -0.03700165 -0.017661244 0.07186244 0.08802619 -0.030180644 0.07280459
-0.02528349 0.029729301 0.04176939 0.068042 0.10478366 -0.025131568 -0.030082515 -0.120686084
0.033387356 0.011102193 -0.054897588 0.069453135 0.088343516 -0.10573291 -0.06606112 0.0010608628
-0.11981237 0.10748667 0.080153435 -0.10097104 0.09244283 0.063582405 0.1168665 0.11517466
-0.062301908 -0.015042853 -0.069837265 -0.018872157 -0.11775723 -0.10399609 -0.039283708 0.04256995
00000000: 9b09 d13c af26 3b3c c33e abbd 255f e83c
00000010: 09fc d2bd bff2 a1bd 36af 8b3c bef8 f0bd
00000020: e398 c23d 65e3 003e 2679 95bd fe94 cd3d
00000030: cc81 a53d c2bb 973d fd07 3d3c 8a8d fe3d
00000040: c010 3bbd 3cc1 6abd 0f27 8abd 3374 7bbd
00000050: b1b8 a23d f414 c8bd 2d78 193d afe7 4cbc
00000060: 76f2 ebbd ee3a 0dbd cfee da3d 44dc a73d
00000070: 27e7 aabd 48bb aabd e9d1 a0bc 2e67 4dbd
00000080: a55c 98bd fdad f13d 7a82 af3d 7f71 0ebb
00000090: 420c ecbd 251f 163d c750 23bd d4c2 803d
000000a0: 2810 993d ea64 af3c d725 a13d bfc2 2e3d
000000b0: d268 fb3d 416f 933d 7eeb cbbc 02bc e9bd
000000c0: bd47 6e3c ad8f 5b3c 4d90 463d 8414 a83d
000000d0: 49dd 9d3d a2be 60bd c37a ea3d 1976 d5bd
000000e0: c7af 803c 5a9d de3d b571 5ebb 1957 cfbc
000000f0: 38d3 6abd c3ee b23d c08a 75bd 10de cabc
00000100: cdab b5bd 7a55 9abd 7dba 4c3d 26ba ee3d
00000110: 8a84 c53d e6c1 d13c 8879 983d 4aea e43d
00000120: 0c61 94bd e523 41bd 8bd5 ff3d 841d 2c3d
00000130: 1ab6 c8bd 2090 5b3c d9e8 e3bb 82f5 a43d
00000140: 5851 c93d 7c58 9f3d 9f26 21bd 33ff c9bd
00000150: 86ba dabc ec43 583d 6210 c2bd 3c7a 433c
00000160: 61a3 b7bd bfca ec3b 0e69 713d 44f1 d1bd
00000170: c999 863d 36e4 7abd e823 c33d ad65 273d
00000180: ed8a 2d3d 6a03 ac3d 44e6 ce3c 7a4f 79bd
00000190: 910c 9e3d 517c ebbb 3c77 7cbd 148d d7bd
000001a0: 386b 49bd 870d 9e3d d11a 4b3d cfba e43b
000001b0: 0cff 77bc 884a 913c 8614 0b3d f1a6 25bd
000001c0: 8917 f13d 43cc 4c3d b43b 383d 58a2 b7bd
000001d0: 8efd 41bd 9079 a93d c81a 9dbd e5dc f8bd
000001e0: fd71 acbd 56f4 653d 29cd d93d 324e f03d
000001f0: 68ac a03d cc7a 583d 36d6 7d3d f028 23bd
00000200: e90b dfbd afa8 f13d 1e2e b5bd 1902 b3bd
00000210: c756 2c3d 02df 3f3d f49b cd3d 5897 b63d
00000220: 0a5b c2bd cde3 a23c 1156 bd3d 0e78 9f3d
00000230: dd70 353d c06e 243d ad4d d43d 1aea 8dbd
00000240: b020 843c cb18 9f3d 5644 b93c f75e e2bc
00000250: 68f3 8c3d 7481 4b3d f6fa b93d fb82 ef3c
00000260: 03a9 0d3c ab02 c0bd 269b 573d 7c69 5bbd
00000270: b100 77bc daa5 7a3d 2a58 2c3d 0824 dc3b
00000280: 0c6d f13c 84f3 e13d 9fdf 343d c241 df3d
00000290: 86f4 d6bd dac7 37bd fbcc a6bc f6b8 82bd
000002a0: 5064 d6bd 7046 12bc f34f fb3c 2eb0 50bc
000002b0: e4ea 733b 8c94 733d 5832 8abd 325b c8bd
000002c0: dbc4 40ba e289 d03d a4de 99bc 5f02 ecbd
000002d0: 0c40 6cbd 77d0 a0bd 18e4 e63d 8e1c 52bd
000002e0: 339e b2bd 1ca3 b53c 8124 ac3d 3cb0 e43d
000002f0: 00f1 df3c e2b0 713d 7114 a43d b8c2 8bbc
00000300: 0704 083d fc06 18bd 5297 213d 815b 8bbd
00000310: a0b3 65bd aaa6 50bd 2797 8ebc 747b db3d
00000320: c3b7 66bd 97fc 593d bc72 0e3d f4b7 fcbd
00000330: a9ee 083d 3651 e33d c516 f9bd b813 bebd
00000340: e812 58bd ed6d 893d b197 85bc 73c2 a0bd
00000350: c831 a03d c05c d5bd 3dc2 003c e4e0 7ebc
00000360: 23ac 823d 9ddf f23d 0b8f 17bd 50ae 90bc
00000370: 9d2c 933d 1347 b43d 663d f7bc 931a 953d
00000380: 521f cfbc dd8a f33c 6116 2b3d 9b59 8b3d
00000390: d198 d63d b8e0 cdbc 9b6f f6bc 442a f7bd
000003a0: 2ec1 083d f9e5 353c 4bdc 60bd 723d 8e3d
000003b0: 72ed b43d 7f8a d8bd 0d4b 87bd a60c 8b3a
000003c0: 3060 f5bd f921 dc3d 7c27 a43d e8c9 cebd
000003d0: ab52 bd3d 7e37 823d b457 ef3d b1e0 eb3d
000003e0: 4930 7fbd 4c76 76bc d706 8fbd c899 9abc
000003f0: b42a f1bd e7fb d4bd f4e7 20bd d45d 2e3d

fc3.bias f4 [6]
0.04946146 0.072219744 0.10457594 -0.06492943 0.07897242 0.009877367
00000000: 1a98 4a3d f2e7 933d e92b d63d b9f9 84bd
00000010: 4bbc a13d aed4 213c

fc1.weight f4 [64, 4]
-0.4792133 -0.16092294 0.47919512 -0.43924022 -0.4546913 -0.23206031 -0.13987458 -0.04464358
-0.1690799 0.13557523 0.28582424 -0.10004938 -0.24294406 0.46892774 0.34069717 -0.28206408
0.172651 -0.16924322 0.06178361 -0.13294613 -0.0014962554 -0.11361164 0.44208676 0.30077547
-0.48620796 0.47814292 0.24828184 0.01808393 0.25972515 -0.2838388 -0.03290707 -0.10537428
0.3220989 -0.17970002 0.426089 -0.42719632 -0.1483869 -0.2930495 0.041120708 -0.21432155
-0.43038207 -0.49959946 0.26799774 0.014435053 -0.19267917 -0.3844965 -0.38730925 -0.17503554
0.1264857 0.1270023 -0.4995104 -0.22188604 -0.17996448 -0.31045276 -0.26014173 0.36605495
0.1270892 -0.26304471 -0.49720353 0.018578708 -0.02783215 -0.217866 -0.19777066 -0.14651418
-0.28533506 -0.2225799 -0.20809901 0.3453709 -0.24006516 0.3812083 0.09567565 0.44801456
0.49074352 -0.398726 0.45410508 0.40197605 0.43738735 -0.37210786 0.19993728 -0.15208375
0.19074064 0.10543126 0.41499466 -0.3899361 -0.13789314 -0.20395541 -0.18587536 -0.43690115
-0.49185324 -0.16233248 0.23251939 0.12957668 0.44029754 -0.44536686 0.20564765 0.204162
0.24430239 -0.003870964 0.23285139 -0.044864833 -0.13072795 -0.10419297 0.101938844 -0.27642864
-0.43007082 -0.19212747 -0.47093642 -0.033663392 0.3250075 -0.30107635 -0.11526269 0.34920108
-0.32502657 0.42979056 -0.26868272 0.018533528 -0.31716847 0.4204347 -0.27907926 -0.2956174
0.013223469 0.2607665 -0.043558955 0.3292709 -0.45099187 -0.060332477 -0.19541848 0.12897152
0.47540325 0.111009955 -0.18413097 -0.3811955 -0.31858218 -0.13435996 0.46375197 0.07455176
-0.27554303 0.15074497 0.3238235 0.024184167 0.3468173 -0.35389775 -0.263883 0.45707154
0.4516893 -0.22055352 -0.36172086 -0.4675612 -0.39454615 0.017163813 0.20763296 0.07345551
-0.2689196 0.17656893 0.04520005 0.33070338 0.45393914 0.13766092 -0.39573056 0.39623302
-0.33893687 0.17469388 -0.013381302 -0.2647494 -0.21446717 0.3097316 0.45096868 0.35668498
-0.44721502 0.41835672 0.35276926 -0.12929142 -0.15890515 -0.031203628 -0.38599563 0.1264261
0.06941885 -0.49627763 0.40224004 -0.30692136 0.26849544 0.49951935 0.28977877 -0.20630616
-0.24328691 -0.34907722 0.1878801 0.34387302 -0.019063354 0.24670202 -0.4937399 -0.1855179
-0.48780364 0.020953655 -0.22351938 -0.08821899 -0.10084176 0.07006025 -0.07832903 -0.21709943
0.25398642 0.3661092 0.3765695 -0.4299047 -0.0860157 -0.29094517 0.44500446 0.013901055
0.49889535 -0.36078227 0.2797225 0.28992462 -0.17313093 0.3485763 -0.11715543 -0.307409
0.2515958 -0.3224494 -0.17676872 0.14886492 -0.15151101 0.27960283 0.06296557 -0.39736605
-0.10652727 0.18571764 0.22817135 0.36684477 -0.12892026 -0.051894546 -0.23695964 0.3475967
-0.13596535 0.33040494 0.12746787 0.108193755 0.32303023 -0.24914962 -0.15555364 -0.06310111
0.24739599 -0.42485493 -0.22689754 -0.35258955 -0.46406204 0.15788776 0.17416835 -0.2019406
0.45894486 -0.20674932 -0.17743212 -0.33183002 0.2594087 -0.19090503 -0.41504318 -0.48813766
00000000: 725b f5be fcc8 24be 1059 f53e 18e4 e0be
00000010: 4ccd e8be 38a1 6dbe 483b 0fbe 30dc 36bd
00000020: 4823 2dbe 3cd4 0a3e 8e57 923e b0e6 ccbd
00000030: 54c6 78be 4c17 f03e dc6f ae3e b46a 90be
00000040: 6ccb 303e 184e 2dbe d010 7d3d 0823 08be
00000050: 001e c4ba 38ad e8bd 3259 e23e 3eff 993e
00000060: 40f0 f8be 26cf f43e 983d 7e3e c024 943c
00000070: b2fa 843e 5253 91be 90c9 06bd 78ce d7bd
00000080: 26ea a43e 4803 38be 5628 da3e 7ab9 dabe
00000090: bcf2 17be 960a 96be 306e 283d 1c77 5bbe
000000a0: 0a5b dcbe 80cb ffbe 0037 893e 0081 6c3c
000000b0: b04d 45be badc c4be 664d c6be 843c 33be
000000c0: 7885 013e e40c 023e d4bf ffbe 1836 63be
000000d0: 9c48 38be aaf3 9ebe 4c31 85be 8e6b bb3e
000000e0: ac23 023e ccad 86be 7691 febe 6032 983c
000000f0: 4000 e4bc 4418 5fbe 6484 4abe d007 16be
00000100: 7017 92be fceb 63be e817 55be 74d4 b03e
00000110: a4d3 75be bc2d c33e 98f1 c33d 2a62 e53e
00000120: bc42 fb3e d025 ccbe 7680 e83e cecf cd3e
00000130: 3cf1 df3e ec84 bebe 5cbc 4c3e d8bb 1bbe
00000140: 8451 433e 58ec d73d 2e7a d43e b4a5 c7be
00000150: dc33 0dbe b0d9 50be 1c56 3ebe 82b1 dfbe
00000160: 30d4 fbbe 7c3a 26be 9019 6e3e c0af 043e
00000170: ae6e e13e 2007 e4be 4c95 523e d80f 513e
00000180: 682a 7a3e 00b0 7dbb 9870 6e3e 30c4 37bd
00000190: 8cdd 05be 2063 d5bd 50c5 d03d 0e88 8dbe
000001a0: 3e32 dcbe 10bd 44be 941e f1be a0e2 09bd
000001b0: 6267 a63e ae26 9abe d80e ecbd 7cca b23e
000001c0: e269 a6be 820d dc3e c890 89be a0d3 973c
000001d0: e863 a2be 3843 d73e 7ae3 8ebe 2a5b 97be
000001e0: 40a7 583c 3083 853e e06a 32bd 3296 a83e
000001f0: 68e8 e6be 301f 77bd c81b 48be 1c11 043e
00000200: 0e68 f33e 3059 e33d d48c 3cbe 0e2c c3be
00000210: 341d a3be a895 09be e670 ed3e 98ae 983d
00000220: fa13 8dbe e45c 1a3e 32cc a53e e01d c63c
00000230: 0a92 b13e 1632 b5be ac1b 87be 4805 ea3e
00000240: d243 e73e c8d8 61be 7a33 b9be 2e64 efbe
00000250: f401 cabe 209b 8c3c bc9d 543e d86f 963d
00000260: d4af 89be 7cce 343e b023 393d f451 a93e
00000270: b66a e83e fcf6 0c3e 329d cabe 0edf ca3e
00000280: 2289 adbe f4e2 323e 403d 5bbc 3c8d 87be
00000290: 489d 5bbe 2495 9e3e 5ee5 e63e 6a9f b63e
000002a0: 5ef9 e4be da32 d63e 2c9e b43e f864 04be
000002b0: 08b8 22be c09e ffbc 38a1 c5be d875 013e
000002c0: 782b 8e3d 1a18 febe 68f2 cd3e cc24 9dbe
000002d0: 3c78 893e 00c1 ff3e e25d 943e ec41 53be
000002e0: 3420 79be 40ba b2be a463 403e 2010 b03e
000002f0: c02a 9cbc 749f 7c3e 7acb fcbe 68f8 3dbe
00000300: 66c1 f9be 00a7 ab3c 44e2 64be 28ac b4bd
00000310: 2086 cebd c07b 8f3d f86a a0bd 504f 5ebe
00000320: 820a 823e aa72 bb3e b8cd c03e 781c dcbe
00000330: 0029 b0bd c4f6 94be a0d7 e33e 40c1 633c
00000340: 366f ff3e 74b8 b8be ca37 8f3e 0071 943e
00000350: 3c49 31be 9878 b23e 30ef efbd b664 9dbe
00000360: 2ad1 803e 1618 a5be dc02 35be 0c70 183e
00000370: b425 1bbe 1a28 8f3e 18f4 803d 9073 cbbe
00000380: f82a dabd c42c 3e3e c0a5 693e 14d3 bb3e
00000390: ac03 04be 608f 54bd 8ca5 72be 32f8 b13e
000003a0: 803a 0bbe d62a a93e f086 023e b094 dd3d
000003b0: 3864 a53e 1421 7fbe 7449 1fbe 283b 81bd
000003c0: 6055 7d3e 9686 d9be d457 68be 9e86 b4be
000003d0: 8a99 edbe 54ad 213e 3059 323e 84c9 4ebe
000003e0: d2fa ea3e 18b6 53be c4b0 35be a0e5 a9be
000003f0: 38d1 843e 9c7c 43be 8a80 d4be 2eed f9be

fc1.bias f4 [64]
0.46292633 -0.09560931 -0.14568084 -0.102392375 0.39235008 -0.043049693 -0.077169 -0.023781478
-0.33939338 0.48107892 0.4898274 -0.082332134 -0.21447837 -0.15383488 0.33104306 -0.010996878
-0.06861544 -0.038690746 -0.32324892 0.29604435 0.11032528 -0.45624417 -0.26873893 -0.021841466
-0.2881363 0.19340003 -0.38915443 -0.41020626 -0.0011129975 -0.2999367 -0.39065385 -0.19318038
0.4227556 0.015813947 -0.38898748 0.14851195 0.3043018 -0.4306512 -0.4016136 -0.2973224
0.07484114 0.30206937 0.16625243 -0.31624925 -0.18614924 -0.39941818 -0.27647287 0.13967663
-0.052099764 0.077935636 -0.15892887 0.10431296 -0.41641623 -0.17514747 0.12590492 0.0462355
-0.105599225 -0.33125532 0.20654875 -0.19852722 -0.27118385 0.41094428 0.22375727 0.008418918
00000000: ae04 ed3e d0ce c3bd 5c2d 15be 18b3 d1bd
00000010: 1ce2 c83e e054 30bd c80a 9ebd 60d1 c2bc
00000020: f8c4 adbe fa4f f63e a8ca fa3e c09d a8bd
00000030: 38a0 5bbe e486 1dbe 7a7e a93e 402c 34bc
00000040: 4086 8cbd 307a 1ebd e280 a5be 2093 973e
00000050: 38f2 e13d d698 e9be 2698 89be e0ec b2bc
00000060: 9a86 93be a80a 463e 403f c7be 8e06 d2be
00000070: 00e2 91ba 4e91 99be c803 c8be 14d1 45be
00000080: 6c73 d83e 408c 813c 5e29 c7be 8413 183e
00000090: 72cd 9b3e 507e dcbe 4ca0 cdbe a43a 98be
000000a0: 5046 993d d6a8 9a3e 143e 2a3e 6ceb a1be
000000b0: e89d 3ebe 8a80 ccbe da8d 8dbe 6407 0f3e
000000c0: 9066 55bd b89c 9f3d 40be 22be 08a2 d53d
000000d0: 8234 d5be dc59 33be 38ed 003e 7061 3d3d
000000e0: 6844 d8bd 4c9a a9be 8481 533e b84a 4bbe
000000f0: 9cd8 8abe 4a67 d23e a020 653e 80ef 093c

fc2.weight f4 [64, 64]
-0.062545374 -0.09602189 0.009745106 0.058241084 -0.12165126 -0.018555999 -0.07247543 0.06915367
0.09718263 0.100855276 0.0960339 0.0999717 0.11254698 0.0875943 0.021944746 0.07477225
-0.025441527 -0.0962794 -0.09321609 0.03251314 -0.016867757 -0.017583951 0.0062834024 -0.080244765
-0.059374154 0.07640205 -0.123177946 0.11896542 -0.12230873 0.10683355 0.044489965 -0.0029915124
-0.06397964 0.057100087 -0.114364535 -0.06803253 -0.03384693 0.06322849 0.09918733 -0.12092149
-0.10689625 0.12345642 -0.07774076 -0.09973107 -0.091786206 0.03908521 -0.0028205812 -0.00879018
-0.11896545 0.075312376 0.056245163 -0.087437406 -0.05000046 -0.023824573 0.06838174 -0.009035736
-0.07621157 0.11830476 0.033469677 0.08975966 -0.108988896 0.014434293 0.12167619 -0.08693589
0.10099617 0.0791903 -0.0059655607 0.07375494 0.1180217 0.03537616 -0.05493909 0.095666796
0.012814596 0.0003670156 -0.082733676 -0.07458916 0.02361472 0.041572288 0.060392544 -0.10949406
0.08756247 0.05070898 -0.024081096 0.07065952 0.096180886 -0.05094099 -0.07452336 -0.0026531816
0.083478585 -0.0025049895 -0.025354326 0.11456703 0.061185136 -0.03994888 0.07043433 -0.09960432
-0.08102642 0.04183866 0.02758561 -0.05605805 0.06701209 -0.10333043 -0.105556145 -0.09008871
0.06575845 -0.06212908 0.11522329 -0.10240081 -0.09896371 0.07346779 -0.12288296 0.06081876
0.08753972 -0.02432318 -0.016294017 0.07218477 -0.064602315 -0.009929851 -0.07725623 0.08576463
0.018885925 -0.10933258 0.004983261 0.053941727 -0.017798513 0.06731564 0.11815651 0.08397232
0.08400111 0.09239617 -0.052136377 -0.056912586 0.06534918 -0.044556603 -0.081192866 -0.096772805
0.120511174 0.017112285 0.079540834 0.08753079 -0.035607994 0.05922237 -0.006564781 -0.121870905
-0.11303958 -0.07893239 0.10923262 -0.054224953 0.011775762 -0.040156603 -0.011389211 -0.075829774
0.050253466 0.06768356 0.06758766 0.026222005 -0.046694532 -0.103484035 0.07364182 0.10728444
-0.090833366 0.039464876 -0.07972507 0.105810195 0.06530546 0.08672425 -0.04556492 -0.12359066
0.013785556 0.060176387 0.033615828 -0.045535848 -0.0016719699 -0.051289275 0.117171735 0.06739752
-0.04904844 0.08758326 -0.07171711 0.117929935 -0.051132724 -0.071647346 -0.079136476 -0.12216769
-0.10880557 0.09209567 0.04970634 0.0025402158 0.10229249 -0.07903938 0.04919246 0.0914218
-0.005181581 0.06939128 0.08177321 -0.059588432 0.035969093 -0.013886303 0.068934605 0.08304037
-0.10522342 0.018216193 0.09068811 -0.08435209 0.091777 -0.04634066 -0.025148794 -0.04722558
0.053993568 -0.028740808 -0.06901112 0.020057932 0.077737525 0.063658684 -0.008746892 0.06546417
0.069683716 0.09783459 -0.046764016 0.0881359 0.020172462 0.028642505 -0.05578567 -0.026926741
0.038565576 0.073658586 0.11957948 -0.009293914 0.052572057 -0.07729155 -0.052069396 -0.08469702
0.09240623 -0.050109506 -0.08612624 -0.008197829 -0.00072711706 0.06641571 -0.06469764 -0.1114627
-0.11768107 0.073754296 -0.049106896 0.090577856 0.011465952 0.037870795 -0.07861991 -0.044500425
-0.037314177 0.08331886 0.09749353 -0.09193751 -0.029192716 0.028746024 -0.0661284 0.047150433
00000000: ca17 80bd 20a7 c4bd f0a9 1f3c 348e 6e3d
00000010: 4c24 f9bd c002 98bc 006e 94bd 70a0 8d3d
00000020: b007 c73d 368d ce3d 6cad c43d f6bd cc3d
00000030: 087f e63d a464 b33d 78c5 b33c 3222 993d
00000040: c06a d0bc 222e c5bd 14e8 bebd 802c 053d
00000050: 402e 8abc 380c 90bc 00e5 cd3b 5e57 a4bd
00000060: 5032 73bd ae78 9c3d b844 fcbd 24a4 f33d
00000070: 007d fabd 8ccb da3d 1c3b 363d 400d 44bb
00000080: c207 83bd c8e1 693d f437 eabd a454 8bbd
00000090: 14a3 0abd f07d 813d ba22 cb3d b0a5 f7bd
000000a0: 6cec dabd b8d6 fc3d 8c36 9fbd ce3f ccbd
000000b0: 68fa bbbd d017 203d 80d9 38bb b004 10bc
000000c0: 28a4 f3bd 603d 9a3d 5461 663d 6212 b3bd
000000d0: 48cd 4cbd c02b c3bc ba0b 8c3d a00a 14bc
000000e0: d014 9cbd c449 f23d 8017 093d ead3 b73d
000000f0: 9235 dfbd d07d 6c3c 5e31 f93d 720b b2bd
00000100: 14d7 ce3d 862e a23d c07a c3bb d40c 973d
00000110: 5cb5 f13d 98e6 103d d007 61bd f4ec c33d
00000120: 50f4 513c 006c c039 4670 a9bd 34c2 98bd
00000130: a873 c13c b447 2a3d 2c5e 773d 6c3e e0bd
00000140: f453 b33d 38b4 4f3d b845 c5bc f0b5 903d
00000150: 7cfa c43d 80a7 50bd b49f 98bd 00e1 2dbb
00000160: d2f6 aa3d c02a 24bb e0b3 cfbc 1ea2 ea3d
00000170: 449d 7a3d 70a1 23bd e03f 903d 5afd cbbd
00000180: 2ef1 a5bd 045f 2b3d 38fb e13c 209d 65bd
00000190: a23d 893d e89e d3bd d22d d8bd 6e80 b8bd
000001a0: 5eac 863d 107b 7ebd 30fa eb3d 84b7 d1bd
000001b0: 7cad cabd 4876 963d 10aa fbbd 181d 793d
000001c0: 0648 b33d 6841 c7bc 087b 85bc 9cd5 933d
000001d0: 384e 84bd d0b0 22bc 8438 9ebd 5ea5 af3d
000001e0: a8b6 9a3c c2e9 dfbd a04a a33b 00f2 5c3d
000001f0: 30ce 91bc c8dc 893d 0afc f13d aef9 ab3d
00000200: c608 ac3d 343a bd3d f48c 55bd 2c1d 69bd
00000210: cad5 853d fc80 36bd 7248 a6bd d230 c6bd
00000220: 90ce f63d 102f 8c3c 4ee6 a23d 5843 b33d
00000230: b0d9 11bd 2893 723d 601d d7bb 7497 f9bd
00000240: 4c81 e7bd 4ea7 a1bd 5ab5 df3d fc1a 5ebd
00000250: 20ef 403c 407b 24bd d099 3abc a44c 9bbd
00000260: 94d6 4d3d ae9d 8a3d 666b 8a3d 88cf d63c
00000270: c442 3fbd 70ef d3bd 86d1 963d f2b7 db3d
00000280: d806 babd eca5 213d e646 a3bd 04b3 d83d
00000290: debe 853d 7c9c b13d 48a2 3abd 1a1d fdbd
000002a0: d0dc 613c 847b 763d c0b0 093d cc83 3abd
000002b0: 0026 dbba b414 52bd bcf7 ef3d b607 8a3d
000002c0: 04e7 48bd da5e b33d 6ce0 92bd 4085 f13d
000002d0: 8c70 51bd d8bb 92bd 4e12 a2bd 0e33 fabd
000002e0: 74d5 debd a89c bc3d e098 4b3d c079 263b
000002f0: ba7e d13d 66df a1bd 087e 493d 5a3b bb3d
00000300: 40ca a9bb 041d 8e3d b678 a73d 0013 74bd
00000310: 5454 133d 6083 63bc 962d 8d3d 1211 aa3d
00000320: 607f d7bd 203a 953c b0ba b93d cac0 acbd
00000330: 94f5 bb3d b4cf 3dbd d804 cebc 9c6f 41bd
00000340: 5c28 5d3d d871 ebbc b455 8dbd 8850 a43c
00000350: da34 9f3d 7c5f 823d 204f 0fbc 1412 863d
00000360: 56b6 8e3d 805d c83d a08b 3fbd 9880 b43d
00000370: b840 a53c b0a3 ea3c 847f 64bd 7895 dcbc
00000380: f0f6 1d3d 50da 963d 16e6 f43d 8045 18bc
00000390: cc55 573d 084b 9ebd b846 55bd a275 adbd
000003a0: 7a3f bd3d a03f 4dbd f462 b0bd 3050 06bc
000003b0: 009c 3eba f604 883d 3280 84bd 8e46 e4bd
000003c0: c602 f1bd 7e0c 973d 5024 49bd e280 b93d
000003d0: b0db 3b3c 681e 1b3d 7a03 a1bd 1446 36bd
000003e0: c0d6 18bd 14a3 aa3d b0aa c73d bc49 bcbd
000003f0: 9025 efbc c87c eb3c 546e 87bd d020 413d

fc2.bias f4 [64]
-0.11759798 -0.07446352 0.11221132 -0.11177985 0.120727256 0.015530214 -0.029097244 -0.0488469
-0.01609701 0.1064824 -0.05561757 0.117844015 0.08330406 0.018949673 0.086086854 -0.084045246
-0.040935114 -0.06229265 0.1042224 -0.059058473 -0.04384075 -0.033669397 0.07916705 0.033628106
0.0054670423 -2.1636486e-05 0.021095157 0.036804914 -0.12250686 -0.12417272 -0.05860725 -0.11911677
-0.065301046 -0.12450823 -0.109064296 0.015554592 -0.117124155 0.0049839765 -0.06942657 -0.0464904
0.027341038 -0.047492564 -0.03512411 0.041771933 0.0015342534 -0.0064991415 -0.0098707825 0.0014992207
-0.04816188 0.07696387 0.09626928 -0.053237215 0.072701156 -0.046966434 -0.08480601 -0.08169009
-0.064157784 -0.10904218 0.06680457 -0.11444919 0.014005199 0.0043703914 -0.09837417 -0.06471157
00000000: 36d7 f0bd 5480 98bd 0ccf e53d d6ec e4bd
00000010: da3f f73d 7072 7e3c 585d eebc b013 48bd
00000020: e0dd 83bc 7213 da3d 40cf 63bd 3458 f13d
00000030: 529b aa3d 583c 9b3c 4e4e b03d ea1f acbd
00000040: 94ab 27bd 9426 7fbd 8e72 d53d 4ce7 71bd
00000050: 5c92 33bd ece8 09bd 5622 a23d a0bd 093d
00000060: e024 b33b 0080 b5b7 c0cf ac3c c0c0 163d
00000070: e0e4 fabd 444e febd 280e 70bd 7ef3 f3bd
00000080: 8ebc 85bd 2cfe febd 1a5d dfbd b0d8 7e3c
00000090: cade efbd a050 a33b 842f 8ebd b86c 3ebd
000000a0: 50fa df3c 9087 42bd 4cde 0fbd 0c19 2b3d
000000b0: 0019 c93a c0f6 d4bb 10b9 21bc 8081 c43a
000000c0: 6445 45bd 3c9f 9d3d d428 c53d 440f 5abd
000000d0: 58e4 943d e05f 40bd c6ae adbd 224d a7bd
000000e0: 2865 83bd 8251 dfbd d6d0 883d 5664 eabd
000000f0: 1076 653c 8035 8f3b 6678 c9bd 8087 84bd

fc3.weight f4 [6, 64]
0.025091887 0.008895889 -0.084995285 0.025960281 -0.103782535 -0.08092435 0.01524511 -0.11766194
0.09398742 0.12461972 -0.07587287 0.10038184 0.079000026 0.07408859 0.008852214 0.121616915
-0.04567027 -0.05935499 -0.069318846 -0.06487352 0.0785266 -0.097696215 0.034856185 -0.014352962
-0.11778557 -0.037197396 0.10458411 0.08196309 -0.08436473 -0.085807115 -0.02331926 -0.05042261
-0.07632621 0.11500473 0.083341315 -0.0025172532 -0.118170634 0.036380604 -0.042134777 0.062871605
0.07218349 0.017728522 0.07693 0.04016845 0.119911835 0.07184161 -0.027498022 -0.116431266
0.014163047 0.01156415 0.046475187 0.07794213 0.07495266 -0.05782643 0.11186099 -0.10590029
0.01516372 0.1073612 -0.00635089 -0.028080553 -0.05733034 0.08452469 -0.063318565 -0.02476409
-0.08988243 -0.07923253 0.04855676 0.113485575 0.09526861 0.021981314 0.07238309 0.111774996
-0.07450257 -0.04931149 0.1208626 0.042020336 -0.10179967 0.013401061 -0.009879559 0.07651509
0.09829968 0.075366825 -0.041398957 -0.10192141 -0.027783051 0.05279915 -0.09790188 0.009907514
-0.092602625 0.002428636 0.054974467 -0.10251096 0.064405516 -0.06505871 0.091916904 0.04022941
0.038255557 0.07957533 0.02241388 -0.061387002 0.07324718 -0.007949516 -0.064763635 -0.105249554
-0.053246215 0.073317796 0.04599689 0.0028485805 -0.018340215 0.017735735 0.030506104 -0.042530015
0.1171668 0.04594691 0.041205153 -0.09359658 -0.05130762 0.0784615 -0.080587015 -0.12333241
-0.08498703 0.053799316 0.102743015 0.11332005 0.07845384 0.04891579 0.05770436 -0.039833963
-0.10872552 0.1183877 -0.089907184 -0.08610676 0.04389991 0.047736198 0.10072972 0.08915585
-0.09426725 0.022282645 0.0924508 0.077865705 0.045548186 0.040144682 0.10281779 -0.068722084
0.016128868 0.07766746 0.019307122 -0.027952552 0.06866966 0.049684003 0.087805405 0.028033003
0.012315795 -0.09359774 0.053115904 -0.053567395 -0.013347879 0.06186779 0.04030168 0.0070848614
0.029571861 0.11064559 0.041958287 0.10891497 -0.10437159 -0.04347691 -0.020240784 -0.06382935
-0.10427292 -0.012930617 0.031582847 -0.012218162 0.0023584217 0.059467837 -0.06939444 -0.098314255
-0.0012683123 0.10326804 -0.017627567 -0.11648281 -0.057082802 -0.07852355 0.11282745 -0.05160345
-0.08630505 0.021677867 0.08404006 0.11386229 0.027336597 0.059909403 0.079232946 -0.017060623
0.032545164 -0.040871173 0.038194343 -0.071434096 -0.056238055 -0.054466993 -0.019735217 0.10716906
-0.05795093 0.05141075 0.03081131 -0.12339774 0.029739216 0.11099474 -0.124070406 -0.09679188
-0.052752405 0.064665034 -0.017871007 -0.08210264 0.07753876 -0.10418081 0.0052309334 -0.017245397
0.06133476 0.11363062 -0.040841326 -0.017661244 0.07125561 0.0843586 -0.03360501 0.07237288
-0.029153645 0.025265306 0.03924778 0.06758055 0.100738585 -0.025836155 -0.03308463 -0.120686084
0.029320851 0.007529542 -0.05836658 0.065343425 0.08451331 -0.105822936 -0.0692824 -0.0012369156
-0.12016085 0.10347691 0.076447144 -0.1049214 0.08866045 0.059386283 0.11312768 0.11370906
-0.06306274 -0.017054617 -0.07347596 -0.02305694 -0.11775723 -0.108112395 -0.043478116 0.04256995
00000000: 808d cd3c 10c0 113c 0212 aebd a8aa d43c
00000010: f08b d4bd aabb a5bd a0c6 793c bef8 f0bd
00000020: 7a7c c03d a038 ff3d 3c63 9bbd fe94 cd3d
00000030: c4ca a13d c2bb 973d e008 113c 4a12 f93d
00000040: c010 3bbd 381e 73bd 0af7 8dbd 68dc 84bd
00000050: 8ed2 a03d f414 c8bd 5cc5 0e3d b028 6bbc
00000060: 9039 f1bd 4c5c 18bd 3230 d63d 44dc a73d
00000070: 6ac7 acbd a4bb afbd 0808 bfbc f087 4ebd
00000080: ea50 9cbd 9a87 eb3d daae aa3d 80f8 24bb
00000090: 7203 f2bd d403 153d 8495 2cbd d4c2 803d
000000a0: f0d4 933d 683b 913c 7a8d 9d3d ac87 243d
000000b0: 5694 f53d b221 933d 8843 e1bc 8473 eebd
000000c0: 200c 683c 9077 3d3c c45c 3e3d 20a0 9f3d
000000d0: c880 993d 68db 6cbd 6017 e53d 40e2 d8bd
000000e0: 4071 783c 30e0 db3d 201b d0bb 3009 e6bc
000000f0: 38d3 6abd 481b ad3d 2aad 81bd 10de cabc
00000100: 4814 b8bd aa44 a2bd 74e3 463d 206b e83d
00000110: 301c c33d 2812 b43c 963d 943d 4aea e43d
00000120: ce94 98bd d8fa 49bd d086 f73d 841d 2c3d
00000130: 587c d0bd 2090 5b3c e0dd 21bc f2b3 9c3d
00000140: 5851 c93d ec59 9a3d f491 29bd 2cbc d0bd
00000150: 4899 e3bc ec43 583d c880 c8bd 2053 223c
00000160: 72a6 bdbd c029 1f3b e82c 613d 44f1 d1bd
00000170: 0ae7 833d 803d 85bd ee3e bc3d 98c7 243d
00000180: dcb1 1c3d 64f8 a23d 509d b73c f070 7bbd
00000190: 9e02 963d b03e 02bc cca2 84bd 148d d7bd
000001a0: b418 5abd a427 963d 3c67 3c3d 40af 3a3b
000001b0: 383e 96bc 884a 913c f0e7 f93c f433 2ebd
000001c0: 26f5 ef3d d432 3c3d bcc6 283d 90af bfbd
000001d0: f027 52bd 6cb0 a03d ce0a a5bd b495 fcbd
000001e0: ae0d aebd ac5c 5c3d ee6a d23d 5814 e83d
000001f0: 68ac a03d ec5b 483d 685b 6c3d f028 23bd
00000200: 7cab debd 4075 f23d 4221 b8bd be58 b0bd
00000210: 64d0 333d 0887 433d 624b ce3d 5897 b63d
00000220: 300f c1bd 188a b63c d856 bd3d 0e78 9f3d
00000230: bc90 3a3d c06e 243d 2292 d23d 2abe 8cbd
00000240: b020 843c 1e10 9f3d f829 9e3c c0fc e4bc
00000250: aea2 8c3d 7481 4b3d 52d3 b33d 78a5 e53c
00000260: 30c8 493c 2cb0 bfbd 1090 593d 7c69 5bbd
00000270: 10b1 5abc 1469 7d3d 6013 253d 2028 e83b
00000280: b040 f23c 289a e23d 74dc 2b3d d00e df3d
00000290: c6c0 d5bd d814 32bd 00d0 a5bc f6b8 82bd
000002a0: 0a8d d5bd f0da 53bc 045d 013d b02e 48bc
000002b0: c08f 1a3b 8c94 733d ac1e 8ebd fc58 c9bd
000002c0: 803d a6ba 327e d33d b067 90bc 8a8e eebd
000002d0: a8cf 69bd f4d0 a0bd 1412 e73d 245e 53bd
000002e0: b4c0 b0bd c895 b13c 321d ac3d a230 e93d
000002f0: 00f1 df3c 9063 753d e244 a23d b8c2 8bbc
00000300: 144e 053d 8868 27bd ac71 1c3d 0a4c 92bd
00000310: e059 66bd c818 5fbd c0ab a1bc 747b db3d
00000320: f45d 6dbd 1494 523d 0068 fc3c f4b7 fcbd
00000330: a89f f33c 3651 e33d a018 febd d23a c6bd
00000340: e812 58bd 1a6f 843d 3866 92bc 6e25 a8bd
00000350: a4cc 9e3d c05c d5bd 4068 ab3b 3846 8dbc
00000360: 283a 7b3d 2cb7 e83d 3c49 27bd 50ae 90bc
00000370: 76ee 913d 34c4 ac3d 68a5 09bd 3c38 943d
00000380: a0d3 eebc 30f9 ce3c 48c2 203d ac67 8a3d
00000390: 0850 ce3d 58a6 d3bc c083 07bd 442a f7bd
000003a0: 4832 f03c 60ba f63b cc11 6fbd c6d2 853d
000003b0: 5015 ad3d b2b9 d8bd eee3 8dbd 0020 a2ba
000003c0: e416 f6bd b4eb d33d 5290 9c3d 08e1 d6bd
000003d0: 9c93 b53d 083f 733d 7caf e73d 4ce0 e83d
000003e0: 0a27 81bd 20b6 8bbc 907a 96bd e8e1 bcbc
000003f0: b42a f1bd 086a ddbd 1c16 32bd d45d 2e3d

fc3.bias f4 [6]
0.046420947 0.06823322 0.10204445 -0.06876449 0.07494749 0.0065894276
00000000: e423 3e3d dcbd 8b3d aefc d03d 66d4 8cbd
00000010: 127e 993d 20ec d73b
