saved_models/dqn_best_model_episode_883.pt (torch, 87147 bytes, 24 tensors)

fc1.weight f4 [64, 4]
000000 72 5b f5 be 6a d6 24 be 10 59 f5 3e 18 e4 e0 be
       -0.4792133 -0.16097417 0.47919512 -0.43924022
000010 4c cd e8 be 38 a1 6d be 48 3b 0f be 30 dc 36 bd
       -0.4546913 -0.23206031 -0.13987458 -0.04464358
000020 d4 63 30 be 78 e0 07 3e b4 cd 90 3e 46 be cd bd
       -0.17225581 0.13269222 0.2828194 -0.100460574
000030 61 54 74 be 9d 74 f2 3e b0 fc af 3e 5c 0a 90 be
       -0.23860313 0.47354594 0.34372473 -0.28132904
000040 0d f2 2e 3e 33 bd 2e be da 25 7a 3d 91 30 09 be
       0.17084523 -0.17064361 0.061071254 -0.13397433
000050 64 ba 00 3b db 9e e0 bd e4 19 e4 3e f3 08 9a 3e
       0.0019642347 -0.10967799 0.44551003 0.30084953
000060 79 18 fb be 43 9a f2 3e 08 db 7b 3e 3f 1a 8d 3c
       -0.4904211 0.47383317 0.24595273 0.01722443
000070 52 ae 83 3e ea 95 92 be 4c ea 0f bd d8 fa da bd
       0.25718933 -0.2863 -0.035135552 -0.10692376
000080 8c 4f a5 3e 14 65 37 be 71 75 d9 3e e7 41 da be
       0.32287252 -0.17909652 0.42472413 -0.42628404
000090 bc f2 17 be 96 0a 96 be 30 6e 28 3d 1c 77 5b be
       -0.1483869 -0.2930495 0.041120708 -0.21432155
0000a0 b3 f3 dc be c6 00 00 bf 7b 97 88 3e 49 4c 57 3c
       -0.43154678 -0.5000118 0.2667807 0.013140746
0000b0 b0 4d 45 be ba dc c4 be 66 4d c6 be 84 3c 33 be
       -0.19267917 -0.3844965 -0.38730925 -0.17503554
0000c0 3e 59 fc 3d 0c ca fd 3d b3 b9 00 bf 0f 1b 64 be
       0.12321709 0.12392053 -0.50283355 -0.22275947
0000d0 24 2d 37 be d6 ba 9e be ce dd 84 be dc ee bb 3e
       -0.17888314 -0.3100192 -0.25950474 0.36705673
0000e0 b9 61 03 3e 0c 16 86 be 29 e6 fd be 0a 11 b1 3c
       0.12830247 -0.26188695 -0.4958966 0.02161457
0000f0 40 00 e4 bc 44 18 5f be 64 84 4a be d0 07 16 be
       -0.02783215 -0.217866 -0.19777066 -0.14651418
000100 81 78 91 be 19 38 63 be b7 c4 53 be 4d a6 b1 3e
       -0.2841225 -0.22189368 -0.2068051 0.3469719
000110 d7 77 79 be 77 53 c1 3e 6c 4c bc 3d 23 c3 e4 3e
       -0.24362122 0.3775899 0.09194264 0.44680128
000120 11 8c f9 3e 17 01 ce be 68 fb e6 3e 71 17 cf 3e
       0.48739675 -0.40235206 0.45113683 0.40447572
000130 12 91 de 3e 09 cf bf be d5 ce 48 3e ac 3d 1c be
       0.43470055 -0.37462643 0.1961015 -0.15257901
000140 92 ff 43 3e 3c 9c d9 3d 38 c2 d3 3e 0d f6 c6 be
       0.19140461 0.106255025 0.41359115 -0.38859597
000150 dc 33 0d be b0 d9 50 be 1c 56 3e be 82 b1 df be
       -0.13789314 -0.20395541 -0.18587536 -0.43690115
000160 06 32 fb be 4b 4d 25 be 7b 60 6f 3e 08 2f 06 3e
       -0.49061602 -0.16142766 0.23376648 0.13103878
000170 d9 a5 e0 3e f6 ac e4 be 40 24 52 3e db 98 50 3e
       0.43876532 -0.4466321 0.20521641 0.2037081
000180 32 0d 78 3e c5 f1 bc bb 3f 8f 6b 3e 3c 32 3c bd
       0.24223784 -0.005766126 0.23003863 -0.045946345
000190 8c dd 05 be 20 63 d5 bd 50 c5 d0 3d 0e 88 8d be
       -0.13072795 -0.10419297 0.101938844 -0.27642864
0001a0 3e 32 dc be 10 bd 44 be 94 1e f1 be a0 e2 09 bd
       -0.43007082 -0.19212747 -0.47093642 -0.033663392
0001b0 d5 e3 a4 3e 3d 91 9b be 57 10 f2 bd db 81 b1 3e
       0.32205072 -0.30384246 -0.11819523 0.34669384
0001c0 60 2e a5 be 7c 50 dd 3e 83 49 88 be a4 d2 95 3c
       -0.32261944 0.43225467 -0.26618585 0.018288918
0001d0 f7 20 a1 be af ab d7 3e 33 37 8e be 3e 62 97 be
       -0.31470463 0.42123172 -0.2777649 -0.2956714
0001e0 53 17 80 3c 84 a5 86 3e 5e 85 2b bd 14 17 a8 3e
       0.015636122 0.26298153 -0.041875236 0.32830107
0001f0 25 d2 e6 be f1 78 75 bd 68 9a 47 be 6e 86 04 3e
       -0.45082203 -0.05992979 -0.19492495 0.12941906
000200 e6 11 f5 3e 7b 53 ea 3d a1 ae 39 be 5c 51 c3 be
       0.47865218 0.11441704 -0.18133022 -0.3814801
000210 bb 86 a3 be f7 f5 09 be cd 1c ed 3e 3a 2d 96 3d
       -0.3193873 -0.13472734 0.46311036 0.07332845
000220 d8 0e 8d be ae 64 1a 3e 8b bd a5 3e 12 f7 bd 3c
       -0.27550387 0.15077469 0.32371172 0.023189101
000230 45 23 b0 3e 3f 9c b6 be 0c 78 88 be 06 2a e9 3e
       0.3440191 -0.3566608 -0.26654088 0.45539874
000240 ce 7b e9 3e 86 0c 5d be 59 97 b7 be 6d c5 ec be
       0.45602268 -0.21586809 -0.35857657 -0.46244374
000250 3d e2 c9 be 35 02 8f 3c c2 d8 54 3e 7f f0 97 3d
       -0.3943042 0.017457107 0.20785812 0.07418918
000260 10 6c 88 be d4 5a 37 3e 20 ce 3c 3d ce bc a9 3e
       -0.26644945 0.17905742 0.046095014 0.3315186
000270 d1 6d ea 3e 38 2c 10 3e 3a b2 c8 be 89 f0 c9 3e
       0.45786908 0.14079368 -0.39198476 0.39441326
000280 6d dd ad be 61 3b 32 3e 40 3d 5b bc f6 82 87 be
       -0.33957997 0.17405464 -0.013381302 -0.26467103
000290 a6 9d 5f be dd 8d 9c 3e c0 27 e5 3e 0c 0d b6 3e
       -0.21837482 0.30576983 0.4475689 0.3555683
0002a0 55 d4 e6 be 7c 49 d4 3e be ce b2 3e 78 c4 04 be
       -0.4508387 0.41462314 0.34923357 -0.12965572
0002b0 f8 49 22 be 89 30 00 bd 31 a0 c5 be 14 93 01 3e
       -0.1584853 -0.031296287 -0.3859878 0.12653762
0002c0 f8 9f 92 3d 8d 46 fd be ef e8 ce 3e 0d 7b 9c be
       0.07159418 -0.49467888 0.4041209 -0.3056263
0002d0 65 8f 8b 3e 4b f0 00 3f f9 8f 96 3e 01 59 50 be
       0.2725784 0.5036666 0.29406717 -0.20346452
0002e0 52 f0 79 be 12 0f b3 be da 60 3f 3e cc 7a af 3e
       -0.24408081 -0.34972435 0.1868929 0.34273374
0002f0 97 4f 91 bc a8 c8 7d 3e 4c ad fb be e4 54 3e be
       -0.017738147 0.24783576 -0.49155653 -0.1858707
000300 66 c1 f9 be 00 a7 ab 3c 44 e2 64 be 28 ac b4 bd
       -0.48780364 0.020953655 -0.22351938 -0.08821899
000310 90 73 cd bd 89 f1 90 3d 11 d9 9e bd 81 5d 5e be
       -0.100318074 0.07077319 -0.07756246 -0.21715356
000320 a0 44 83 3e 4d b5 bc 3e ee 2a c2 3e d2 b0 db be
       0.25638294 0.36857072 0.37923378 -0.4290834
000330 77 46 b4 bd 10 2f 95 be 48 05 e3 3e ad 21 4c 3c
       -0.088025026 -0.29137468 0.44339967 0.012459201
000340 e2 a7 00 3f 93 f5 b6 be 98 f2 90 3e e1 fd 95 3e
       0.5025617 -0.35734233 0.28310084 0.29295257
000350 da b9 2d be ee 47 b4 3e 94 a6 ec bd 66 fe 9c be
       -0.16965428 0.35211128 -0.1155521 -0.3066284
000360 b5 0d 81 3e 75 86 a5 be ab 65 34 be 36 96 17 3e
       0.2520577 -0.32329145 -0.17616908 0.14803395
000370 f7 3c 1a be 46 27 90 3e 69 cf 7b 3d cb 43 cb be
       -0.15062319 0.28154963 0.0614771 -0.3970016
000380 f9 aa dd bd 4e 0c 3c 3e 4d 3c 67 3e 6c b1 ba 3e
       -0.10823626 0.18364069 0.22581597 0.36463487
000390 0b 0c 04 be 4b 2c 56 bd 2b d9 72 be c7 c3 b1 3e
       -0.12895219 -0.052288335 -0.23715656 0.3471968
0003a0 82 05 08 be 92 87 aa 3e 5b c2 05 3e ab 93 dd 3d
       -0.13283351 0.33306557 0.13062422 0.10819181
0003b0 33 8d a7 3e a7 a7 7a be 4b ef 1b be 9f 7f 83 bd
       0.32724914 -0.24478017 -0.15228002 -0.06420826
0003c0 7d da 7a 3e 93 73 da be 5b 10 6b be 4d fd b3 be
       0.24497409 -0.426663 -0.22955458 -0.3515419
0003d0 7a 80 ed be 2f 0f 22 3e 89 7f 32 3e f6 70 4e be
       -0.46387082 0.15826105 0.17431463 -0.20160279
0003e0 42 4b ed 3e 1e 1f 4f be a1 c0 31 be be 5e a8 be
       0.4634648 -0.20226714 -0.17358638 -0.32884783
0003f0 e7 55 83 3e a3 31 46 be 01 eb d5 be 67 8c fa be
       0.25651476 -0.19354872 -0.41780856 -0.48935243

fc1.bias f4 [64]
000000 fa fd ec 3e d0 ce c3 bd 2b 36 18 be f5 3c c8 bd
       0.4628752 -0.09560931 -0.14864413 -0.09777252
000010 8d c7 c7 3e 94 5b 25 bd 66 01 a7 bd 36 4e da bc
       0.39019433 -0.04037054 -0.081545636 -0.026648622
000020 ee 50 ad be fa 4f f6 3e a1 20 fa 3e c0 9d a8 bd
       -0.33850807 0.48107892 0.4885302 -0.082332134
000030 48 64 5f be 54 67 1c be 29 01 ab 3e 40 2c 34 bc
       -0.21815598 -0.15273792 0.33399323 -0.010996878
000040 bb 47 89 bd 54 43 2d bd 9d bb a6 be 61 07 96 3e
       -0.067031346 -0.042300537 -0.32565013 0.29302505
000050 20 b7 e4 3d d6 98 e9 be 38 d4 88 be 26 b0 c2 bc
       0.11167741 -0.45624417 -0.2672441 -0.023765635
000060 4f 8b 94 be a8 0a 46 3e 40 3f c7 be 2c c0 d3 be
       -0.29012534 0.19340003 -0.38915443 -0.41357553
000070 83 ad a0 3a 8f 02 99 be b8 ef c6 be 2f 5b 45 be
       0.0012258742 -0.29884765 -0.38854766 -0.19273065
000080 c4 2e da 3e f1 fd 6e 3c 14 6a c7 be df 46 15 3e
       0.42613804 0.014586912 -0.3894812 0.14577816
000090 f3 8c 9e 3e f1 21 dc be bc 5d cc be 99 c7 96 be
       0.3096691 -0.42994645 -0.39915264 -0.29449156
0000a0 21 f8 97 3d 3f b7 98 3e 37 6f 26 3e 78 d8 a1 be
       0.07420374 0.29827306 0.16253363 -0.31610465
0000b0 bd 37 3c be 99 3d ca be 83 1e 8e be 42 bf 10 3e
       -0.18380637 -0.3950012 -0.27757654 0.14135459
0000c0 90 66 55 bd 27 f4 a0 3d 08 14 1f be 15 a5 d0 3d
       -0.052099764 0.07859068 -0.15534985 0.10187737
0000d0 67 23 d3 be 92 e4 2f be 4c 4c 01 3e c0 86 46 3d
       -0.41237947 -0.17177036 0.12626761 0.04846835
0000e0 fe 69 de bd 17 c5 a9 be db 8a 56 3e 85 41 47 be
       -0.1086006 -0.3315818 0.20951407 -0.19458587
0000f0 ea 78 8b be 4c 96 d2 3e 6b f9 69 3e f3 bc ae 3b
       -0.27240688 0.41130292 0.22849052 0.005332583

fc2.weight f4 [64, 64]
000000 ca 17 80 bd 20 a7 c4 bd 4d a5 19 3c df b6 6d 3d
       -0.062545374 -0.09602189 0.00937779 0.058035728
000010 64 72 f9 bd 32 a3 9a bc 00 f6 94 bd 70 a0 8d 3d
       -0.121800214 -0.018876646 -0.07273483 0.06915367
000020 8c 9d c6 3d 36 8d ce 3d 6c ad c4 3d f6 bd cc 3d
       0.096980184 0.100855276 0.0960339 0.0999717
000030 31 55 e6 3d a4 64 b3 3d 78 c5 b3 3c 32 22 99 3d
       0.11246718 0.0875943 0.021944746 0.07477225
000040 c0 6a d0 bc f6 93 c5 bd 5d 4f bf bd f7 7e 04 3d
       -0.025441527 -0.09647362 -0.09341309 0.032347646
000050 c6 c0 8b bc 38 0c 90 bc 00 e5 cd 3b a8 7d a4 bd
       -0.017059695 -0.017583951 0.0062834024 -0.080317795
000060 64 f2 73 bd ae 78 9c 3d b8 44 fc bd 1e 9f f3 3d
       -0.059557334 0.07640205 -0.123177946 0.118955836
000070 a7 b4 fa bd bd 92 da 3d 98 89 35 3d 40 0d 44 bb
       -0.12241488 0.10672519 0.044320673 -0.0029915124
000080 f0 5a 83 bd c8 e1 69 3d f4 37 ea bd a4 54 8b bd
       -0.06413829 0.057100087 -0.114364535 -0.06803253
000090 c8 0e 0b bd f0 7d 81 3d ba 22 cb 3d dc f2 f7 bd
       -0.033949643 0.06322849 0.09918733 -0.121068686
0000a0 6c ec da bd aa 60 fc 3d d4 c3 9f bd ce 3f cc bd
       -0.10689625 0.12323125 -0.07801023 -0.09973107
0000b0 68 fa bb bd c3 5c 1f 3d 80 d9 38 bb 3c 93 11 bc
       -0.091786206 0.038906824 -0.0028205812 -0.008885201
0000c0 28 a4 f3 bd 60 3d 9a 3d 77 a2 65 3d 62 12 b3 bd
       -0.11896545 0.075312376 0.05606314 -0.087437406
0000d0 ad 88 4d bd b0 87 c4 bc ba 0b 8c 3d e4 28 17 bc
       -0.050179172 -0.023990482 0.06838174 -0.009226058
0000e0 bb 87 9c bd c4 49 f2 3d 66 50 08 3d e2 bf b7 3d
       -0.07643076 0.11830476 0.0332798 0.089721456
0000f0 92 35 df bd d0 7d 6c 3c 47 e9 f8 3d 7d 00 b2 bd
       -0.108988896 0.014434293 0.12153869 -0.086914994
000100 eb f1 ce 3d 86 2e a2 3d ba 62 dd bb b1 75 97 3d
       0.10104736 0.0791903 -0.006756154 0.07395495
000110 8b 55 f0 3d 5e 8e 14 3d 64 5a 61 bd 93 6f c2 3d
       0.11735066 0.036268584 -0.055017844 0.09493937
000120 d5 58 46 3c 00 6c c0 39 46 70 a9 bd 34 c2 98 bd
       0.01210614 0.0003670156 -0.082733676 -0.07458916
000130 9d 49 c6 3c b4 47 2a 3d 1a f4 76 3d 6c 3e e0 bd
       0.024205023 0.041572288 0.060291387 -0.10949406
000140 f4 53 b3 3d ec 0c 51 3d aa ff ca bc 63 41 8f 3d
       0.08756247 0.051037714 -0.024780113 0.069948934
000150 74 dc c4 3d 80 a7 50 bd b4 9f 98 bd 79 1c 5e bb
       0.096123606 -0.05094099 -0.07452336 -0.0033891483
000160 c2 c0 aa 3d c0 2a 24 bb e0 b3 cf bc f1 79 e9 3d
       0.08337547 -0.0025049895 -0.025354326 0.114002116
000170 30 de 7c 3d f0 76 21 bd d1 fd 90 3d 5a fd cb bd
       0.061735332 -0.03942007 0.07079662 -0.09960432
000180 f3 91 a5 bd 7e 0c 2a 3d 3f f0 db 3c 19 31 66 bd
       -0.08084478 0.04151582 0.026847957 -0.056199167
000190 f2 4e 89 3d e4 c2 d2 bd 5b 9d da bd 96 e6 b7 bd
       0.06704511 -0.10291079 -0.106745444 -0.08979528
0001a0 6d bb 83 3d df e5 7d bd a5 bd eb 3d 84 b7 d1 bd
       0.06432233 -0.0619868 0.11510781 -0.10240081
0001b0 36 48 cb bd 11 c0 96 3d 4e 79 fc bd 92 85 7c 3d
       -0.099258825 0.073608525 -0.123278245 0.06165082
0001c0 06 48 b3 3d 0b 72 cd bc e1 d2 84 bc 45 1f 96 3d
       0.08753972 -0.025078794 -0.016213836 0.07330183
0001d0 49 9f 85 bd ae 7f 1b bc 0f ec 9e bd e1 46 b0 3d
       -0.06524522 -0.00949089 -0.07759868 0.08607269
0001e0 c5 70 9c 3c fa 34 df bd 43 fd ad 3b aa 8b 59 3d
       0.019096741 -0.10898776 0.005309732 0.05311171
0001f0 5a 30 9d bc a3 66 8a 3d 86 fd f1 3d d5 8b aa 3d
       -0.019188095 0.06757858 0.11815934 0.08327452
000200 c6 08 ac 3d 34 3a bd 3d 3a 8f 56 bd 2c 1d 69 bd
       0.08400111 0.09239617 -0.052382685 -0.056912586
000210 13 40 86 3d 4e bd 37 bd d6 cb a6 bd 36 bd c5 bd
       0.0655519 -0.04485827 -0.08144347 -0.0965523
000220 0f 3b f7 3d 10 2f 8c 3c 64 c5 a1 3d 58 43 b3 3d
       0.120718114 0.017112285 0.078989774 0.08753079
000230 fd 5a 0f bd 61 a8 70 3d 30 d2 cf bb 74 97 f9 bd
       -0.034998883 0.05875433 -0.006342195 -0.121870905
000240 5e 77 e8 bd 97 4f a2 bd 74 98 df 3d 67 33 5d bd
       -0.113508925 -0.07925337 0.1091775 -0.0540041
000250 31 5b 44 3c 40 7b 24 bd 0d 7b 42 bc 72 45 9b bd
       0.011984632 -0.040156603 -0.011870158 -0.07581605
000260 16 cf 4e 3d ae 9d 8a 3d 66 6b 8a 3d ff 1c d6 3c
       0.05049046 0.06768356 0.06758766 0.026136873
000270 b2 01 3f bd 70 ef d3 bd fa 34 96 3d 59 b5 db 3d
       -0.046632476 -0.103484035 0.07334323 0.10727949
000280 9b 8f b9 bd e0 0e 20 3d f7 06 a4 bd 46 60 d8 3d
       -0.09060594 0.039076686 -0.08009141 0.10565238
000290 e3 42 86 3d 1f 9f b0 3d 54 2a 3c bd 4d 2c fd bd
       0.065557264 0.086241 -0.045938805 -0.12361965
0002a0 d0 dc 61 3c e2 46 75 3d 6e 93 07 3d 97 85 3a bd
       0.013785556 0.059882052 0.033099584 -0.045537557
0002b0 e5 18 c6 ba b2 e8 50 bd 13 0f ef 3d b6 07 8a 3d
       -0.001511362 -0.051003166 0.11672797 0.06739752
0002c0 04 e7 48 bd da 5e b3 3d ee 5f 92 bd 73 07 f1 3d
       -0.04904844 0.08758326 -0.071472034 0.11768999
0002d0 89 67 51 bd d8 bb 92 bd 27 18 a2 bd 0e 33 fa bd
       -0.05112413 -0.071647346 -0.07914763 -0.12216769
0002e0 bf 7a df bd 0d cd bb 3d 2b 88 4a 3d 6c 5e 36 3b
       -0.10912084 0.0916997 0.049446266 0.0027827276
0002f0 1c 26 d2 3d 66 df a1 bd 17 6f 4a 3d 81 f2 bb 3d
       0.10261175 -0.07903938 0.04942235 0.09177113
000300 40 ca a9 bb 04 1d 8e 3d bd 8b a8 3d 9c ba 70 bd
       -0.005181581 0.06939128 0.08229778 -0.058771715
000310 3f 9a 19 3d 5f 9b 48 bc d1 4a 8e 3d d9 69 ad 3d
       0.037500616 -0.012244075 0.06947864 0.084674545
000320 91 fe d3 bd 20 3a 95 3c b0 ba b9 3d ca c0 ac bd
       -0.10351289 0.018216193 0.09068811 -0.08435209
000330 78 da bc 3d b4 cf 3d bd 6f 20 ca bc 9c 6f 41 bd
       0.09221357 -0.04634066 -0.024673669 -0.04722558
000340 5c 28 5d 3d f0 0f e7 bc 61 cc 89 bd a8 68 b1 3c
       0.053993568 -0.028205842 -0.06728435 0.02165635
000350 aa 40 a2 3d 7c 5f 82 3d 20 4f 0f bc f1 8d 89 3d
       0.0792249 0.063658684 -0.008746892 0.06716526
000360 14 db 91 3d 80 5d c8 3d a0 8b 3f bd 39 d4 b7 3d
       0.07121864 0.09783459 -0.046764016 0.08976025
000370 e7 e5 a9 3c 18 55 ef 3c 91 1c 61 bd 78 95 dc bc
       0.020739509 0.02921538 -0.054958884 -0.026926741
000380 ba 13 23 3d 50 da 96 3d d2 ef f5 3d d2 b3 00 bc
       0.039813735 0.073658586 0.12008633 -0.0078553725
000390 8d a0 5c 3d 08 4b 9e bd a1 f7 52 bd 51 05 ab bd
       0.05386405 -0.07729155 -0.05150569 -0.083506234
0003a0 7a 3f bd 3d b2 d7 49 bd d3 47 af bd 30 50 06 bc
       0.09240623 -0.04927797 -0.08558621 -0.008197829
0003b0 bd 41 f6 39 de 9c 8a 3d 32 80 84 bd c4 64 e5 bd
       0.00046969755 0.06768201 -0.06469764 -0.1120086
0003c0 c6 02 f1 bd a5 92 98 3d 78 af 43 bd 33 ad ba 3d
       -0.11768107 0.07449845 -0.047774762 0.091150664
0003d0 33 2b 57 3c 23 48 1d 3d e9 ee 9d bd cb 99 33 bd
       0.013132858 0.038398873 -0.07711584 -0.04384784
0003e0 f2 6e 15 bd 14 a3 aa 3d 7e 1e c9 3d 85 33 b9 bd
       -0.03648276 0.08331886 0.09820269 -0.0904303
0003f0 a4 45 e2 bc c8 7c eb 3c bd 9f 84 bd 02 da 45 3d
       -0.027621098 0.028746024 -0.0647578 0.04830361

fc2.bias f4 [64]
000000 f1 30 f1 bd a3 a5 96 bd 55 26 e5 3d cc 47 e3 bd
       -0.11776913 -0.073558114 0.11188952 -0.110976785
000010 84 3e f7 3d 0f cb 4d 3c 4e ee f8 bc b0 13 48 bd
       0.12072471 0.01256062 -0.03038707 -0.0488469
000020 c0 72 9f bc 20 d6 d3 3d 57 0a 51 bd 34 58 f1 3d
       -0.019463897 0.103435755 -0.05103525 0.117844015
000030 d2 e8 ab 3d 58 3c 9b 3c 8f 3b aa 3d 08 c5 a5 bd
       0.08394016 0.018949673 0.08312141 -0.08094221
000040 94 ab 27 bd 04 71 6d bd 86 0f d8 3d 08 0d 7f bd
       -0.040935114 -0.05796911 0.10549836 -0.062268287
000050 6e 90 2f bd ec e8 09 bd 70 89 a4 3d 5c 1c 09 3d
       -0.04286235 -0.033669397 0.080340266 0.03347431
000060 05 d4 24 3b f8 e6 75 3b a9 10 cc 3c 04 8b 16 3d
       0.0025150788 0.0037521701 0.024910288 0.03675367
000070 45 8a f9 bd c7 41 fe bd 62 d3 78 bd 8d 03 f2 bd
       -0.12184576 -0.1241489 -0.060748465 -0.118170835
000080 6c 7c 7a bd 02 4a f5 bd 0c b2 d4 bd 28 ad 7b 3c
       -0.061153814 -0.119770065 -0.10385522 0.015361108
000090 d7 32 e7 bd 99 9f 82 3b 78 1d 95 bd b8 6c 3e bd
       -0.11288994 0.0039863107 -0.07281011 -0.0464904
0000a0 f0 0e f9 3c 12 a8 31 bd 77 48 1d bd f7 bb 3b 3d
       0.03040263 -0.043373175 -0.038399186 0.045833554
0000b0 dd ab ab 3b 44 6f d3 bb 98 5a 5b bc 36 80 67 bb
       0.0052389936 -0.006452473 -0.013388298 -0.0035324222
0000c0 71 87 44 bd f8 21 a5 3d 48 df c8 3d 9e 6f 5d bd
       -0.04798073 0.0806312 0.098082125 -0.054061525
0000d0 fc 54 9c 3d 57 5b 30 bd dc 0f b1 bd 09 cb a9 bd
       0.07633397 -0.04305586 -0.08645603 -0.08290679
0000e0 71 cc 85 bd a2 ae de bd 00 79 83 3d 89 33 e1 bd
       -0.06533135 -0.10873152 0.06419563 -0.10996158
0000f0 10 76 65 3c 36 a9 e4 3b 29 df c1 bd a9 6c 84 bd
       0.014005199 0.0069781793 -0.094663925 -0.06466038

fc3.weight f4 [6, 64]
000000 9b 09 d1 3c 99 a5 3a 3c b1 3f ab bd 18 25 e7 3c
       0.025517276 0.011392021 -0.083617575 0.02821593
000010 09 fc d2 bd 3b fe a1 bd b5 81 8b 3c be f8 f0 bd
       -0.10301978 -0.07909819 0.017029623 -0.11766194
000020 4b 9b c2 3d d5 e3 00 3e d6 8a 95 bd fe 94 cd 3d
       0.09502276 0.12586911 -0.073018715 0.10038184
000030 6c 76 a5 3d c2 bb 97 3d 40 e9 3c 3c 0b 7c fe 3d
       0.08079228 0.07408859 0.0115302205 0.12426003
000040 c0 10 3b bd 3d e0 6a bd 5e 27 8a bd 03 dd 7b bd
       -0.04567027 -0.057342757 -0.0674579 -0.06149007
000050 b1 b8 a2 3d f4 14 c8 bd 2a 6e 19 3d 1f e8 4c bc
       0.07945383 -0.097696215 0.037458576 -0.012506514
000060 ea fc eb bd 84 68 0d bd d0 e5 da 3d 44 dc a7 3d
       -0.11522849 -0.034523502 0.106883645 0.08196309
000070 27 e7 aa bd 8b c4 aa bd 09 2d a1 bc f0 66 4d bd
       -0.0834487 -0.08338269 -0.019674795 -0.050146997
000080 3f 54 98 bd d1 96 f1 3d 39 8b af 3d 7f 71 0e bb
       -0.07437944 0.11796344 0.085714765 -0.002173513
000090 88 29 ec bd 25 1f 16 3d 89 aa 23 bd d4 c2 80 3d
       -0.11531359 0.036650795 -0.039957557 0.062871605
0000a0 f1 fc 98 3d 47 38 af 3c ea 12 a1 3d c6 9c 2e 3d
       0.0747012 0.02138914 0.07864936 0.04262998
0000b0 15 37 fb 3d 41 6f 93 3d f8 f1 cb bc 3a fa e9 bd
       0.122663654 0.071989544 -0.024895653 -0.1142468
0000c0 bd 47 6e 3c 27 3e 5b 3c c5 9a 46 3d 62 e8 a7 3d
       0.014543471 0.0133815175 0.048487443 0.081986204
0000d0 6e d8 9d 3d 75 ec 60 bd cf 6a ea 3d 19 76 d5 bd
       0.07707296 -0.054913003 0.11446153 -0.10422916
0000e0 c7 af 80 3c bc 92 de 3d 1b e5 61 bb a1 47 cf bc
       0.015708817 0.10867831 -0.0034468833 -0.02530271
0000f0 38 d3 6a bd 0e c5 b2 3d 24 94 75 bd 10 de ca bc
       -0.05733034 0.087289914 -0.05995573 -0.02476409
000100 cd ab b5 bd 68 62 9a bd 36 b4 4c 3d 74 8a ee 3d
       -0.08870659 -0.07538301 0.04997655 0.116475016
000110 84 84 c5 3d 5b 92 d1 3c c5 64 98 3d 4a ea e4 3d
       0.09644416 0.025582483 0.07441095 0.111774996
000120 43 62 94 bd e5 23 41 bd b0 c7 ff 3d 84 1d 2c 3d
       -0.072453044 -0.047153372 0.12489259 0.042020336
000130 e4 c2 c8 bd 20 90 5b 3c be 05 e4 bb 02 e8 a4 3d
       -0.098027974 0.013401061 -0.0069586923 0.080520645
000140 58 51 c9 3d 8d 37 9f 3d b9 27 21 bd eb 17 ca bd
       0.09829968 0.07774267 -0.039344523 -0.09867843
000150 86 ba da bc ec 43 58 3d 05 21 c2 bd 69 79 43 3c
       -0.02670027 0.05279915 -0.09478954 0.011930802
000160 a6 a6 b7 bd 77 33 eb 3b 17 51 71 3d 44 f1 d1 bd
       -0.089673325 0.007177766 0.058915224 -0.10251096
000170 c3 99 86 3d a4 fa 7a bd 31 1a c3 3d ad 65 27 3d
       0.065722965 -0.061274186 0.0952648 0.04086845
000180 49 76 2d 3d 45 ef ab 3d 8c 71 ce 3c 7a 4f 79 bd
       0.042349134 0.083952464 0.025200628 -0.06086681
000190 33 fa 9d 3d 51 7c eb bb 38 9c 7c bd 14 8d d7 bd
       0.07713737 -0.0071864505 -0.06167242 -0.105249554
0001a0 46 8b 49 bd bc 05 9e 3d 87 ff 4a 3d 1e aa e3 3b
       -0.049205087 0.077159375 0.049560096 0.00694777
0001b0 10 4e 79 bc 88 4a 91 3c 24 08 0b 3d f2 ca 25 bd
       -0.015216365 0.017735735 0.03394331 -0.040476747
0001c0 89 17 f1 3d 30 ae 4c 3d 3f 2a 38 3d 3c b6 b7 bd
       0.11772067 0.049970806 0.044962164 -0.08970305
0001d0 40 13 42 bd ef 68 a9 3d 7a 27 9d bd ff dc f8 bd
       -0.04738164 0.082719676 -0.07673545 -0.12151527
0001e0 fd 71 ac bd 47 c2 65 3d ac be d9 3d 0c 43 f0 3d
       -0.08420179 0.05609348 0.10632071 0.11731538
0001f0 68 ac a0 3d 20 4e 58 3d f7 c0 7d 3d f0 28 23 bd
       0.07845384 0.05280888 0.061951604 -0.039833963
000200 e9 0b df bd 47 b4 f1 3d 6d 0f b5 bd 3d da b2 bd
       -0.108909436 0.11801963 -0.08840833 -0.08733032
000210 46 8a 2c 3d b8 f4 3f 3d e4 b8 cd 3d 58 97 b6 3d
       0.042124055 0.04686424 0.10045031 0.08915585
000220 a0 59 c2 bd 45 ee a2 3c 2e 5a bd 3d 0e 78 9f 3d
       -0.09489751 0.019889006 0.09245716 0.077865705
000230 28 9f 35 3d c0 6e 24 3d e1 50 d4 3d 70 e3 8d bd
       0.044341236 0.040144682 0.10366989 -0.06928146
000240 b0 20 84 3c 2f 3b 9f 3d 7a dc b8 3c e5 43 e2 bc
       0.016128868 0.0777496 0.022566069 -0.027620265
000250 f4 f3 8c 3d 74 81 4b 3d ca fa b9 3d 41 a3 ef 3c
       0.06882468 0.049684003 0.09081037 0.02925265
000260 33 62 0f 3c 4b f2 bf bd bb a2 57 3d 7c 69 5b bd
       0.00875144 -0.093723856 0.052645426 -0.053567395
000270 01 26 76 bc a8 ba 7a 3d 5c 5c 2c 3d d4 f0 db 3b
       -0.015023709 0.061213166 0.04208027 0.0067120586
000280 8f 8f f1 3c fe fb e1 3d ac 12 35 3d bd 41 df 3d
       0.0294874 0.11034392 0.04420726 0.109012105
000290 34 ed d6 bd d6 c7 37 bd fd 5f a6 bc f6 b8 82 bd
       -0.10494462 -0.044868313 -0.020309443 -0.06382935
0002a0 2a 5a d6 bd 38 00 13 bc a6 9a fb 3c 76 4a 50 bc
       -0.10466416 -0.00897222 0.03071339 -0.012713065
0002b0 c4 c8 6d 3b 8c 94 73 3d af 41 8a bd ff 3b c8 bd
       0.0036282996 0.059467837 -0.067508094 -0.09777068
0002c0 db c4 40 ba 41 97 d0 3d 04 b1 99 bc dd fe eb bd
       -0.00073535525 0.101850994 -0.018761165 -0.11523221
0002d0 99 38 6c bd 4f c4 a0 bd 4a ef e6 3d 6d f2 51 bd
       -0.057671163 -0.07849943 0.112761095 -0.051256586
0002e0 33 9e b2 bd d1 f5 b5 3c d5 2b ac 3d 15 bc e4 3d
       -0.0872158 0.022211941 0.08406798 0.11168686
0002f0 00 f1 df 3c 4d cb 71 3d cc fd a3 3d b8 c2 8b bc
       0.027336597 0.059031773 0.08007392 -0.017060623
000300 07 04 08 3d 59 22 18 bd 29 5f 21 3d 0f a7 8b bd
       0.033206966 -0.03714213 0.039397392 -0.06818973
000310 a0 b3 65 bd aa be 50 bd b7 e1 8e bc 74 7b db 3d
       -0.056079507 -0.05096308 -0.017441614 0.10716906
000320 f6 b7 66 bd cf fb 59 3d 30 55 0e 3d f4 b7 fc bd
       -0.056327783 0.05321866 0.03474921 -0.12339774
000330 c8 d3 08 3d 36 51 e3 3d 55 1d f9 bd 75 22 be bd
       0.033405095 0.11099474 -0.12163798 -0.09283916
000340 e8 12 58 bd f2 54 89 3d 11 e3 85 bc 50 e3 a0 bd
       -0.052752405 0.06705655 -0.016343625 -0.078558564
000350 77 27 a0 3d c0 5c d5 bd d9 4e 00 3c d6 32 7f bc
       0.07820027 -0.10418081 0.007831299 -0.015576085
000360 36 a7 82 3d 69 c0 f2 3d 6e a5 17 bd 50 ae 90 bc
       0.06379549 0.118531056 -0.037023 -0.017661244
000370 9d 2c 93 3d 1e 3c b4 3d 22 75 f7 bc 69 1b 95 3d
       0.07186244 0.08800529 -0.03020722 0.07280619
000380 03 37 cf bc 4f 34 f3 3c a8 e9 2a 3d ae 33 8b 3d
       -0.025294786 0.029688029 0.04172674 0.067969665
000390 e6 83 d6 3d b8 e0 cd bc 6f d5 f6 bc 44 2a f7 bd
       0.104743764 -0.025131568 -0.03013107 -0.120686084
0003a0 f4 9f 08 3d 6a ad 35 3c 42 fd 60 bd a9 2a 8e 3d
       0.03335567 0.011088708 -0.054929025 0.069417305
0003b0 1d af b4 3d 7f 8a d8 bd 29 4f 87 bd 14 2b 86 3a
       0.08822463 -0.10573291 -0.066068955 0.0010236227
0003c0 30 60 f5 bd 0e 13 dc 3d a8 23 a4 3d ef e3 ce bd
       -0.11981237 0.10745822 0.080146134 -0.10102069
0003d0 cf 49 bd 3d 7a 24 82 3d 3a 4a ef 3d 97 d6 eb 3d
       0.092425935 0.063546136 0.116840795 0.11515539
0003e0 49 30 7f bd 60 e5 76 bc 82 19 8f bd 36 ab 9a bc
       -0.062301908 -0.015069336 -0.06987287 -0.018880468
0003f0 b4 2a f1 bd 0a 17 d5 bd f7 fa 20 bd d4 5d 2e 3d
       -0.11775723 -0.10404785 -0.03930184 0.04256995

fc3.bias f4 [6]
000000 95 6b 4a 3d d3 da 93 3d 8f 07 d6 3d c8 07 85 bd
       0.049419004 0.07219472 0.104506604 -0.06495625
000010 f7 b1 a1 3d 6b 37 21 3c
       0.07895272 0.009839873

fc1.weight f4 [64, 4]
000000 72 5b f5 be fc c8 24 be 10 59 f5 3e 18 e4 e0 be
       -0.4792133 -0.16092294 0.47919512 -0.43924022
000010 4c cd e8 be 38 a1 6d be 48 3b 0f be 30 dc 36 bd
       -0.4546913 -0.23206031 -0.13987458 -0.04464358
000020 48 23 2d be 3c d4 0a 3e 8e 57 92 3e b0 e6 cc bd
       -0.1690799 0.13557523 0.28582424 -0.10004938
000030 54 c6 78 be 4c 17 f0 3e dc 6f ae 3e b4 6a 90 be
       -0.24294406 0.46892774 0.34069717 -0.28206408
000040 6c cb 30 3e 18 4e 2d be d0 10 7d 3d 08 23 08 be
       0.172651 -0.16924322 0.06178361 -0.13294613
000050 00 1e c4 ba 38 ad e8 bd 32 59 e2 3e 3e ff 99 3e
       -0.0014962554 -0.11361164 0.44208676 0.30077547
000060 40 f0 f8 be 26 cf f4 3e 98 3d 7e 3e c0 24 94 3c
       -0.48620796 0.47814292 0.24828184 0.01808393
000070 b2 fa 84 3e 52 53 91 be 90 c9 06 bd 78 ce d7 bd
       0.25972515 -0.2838388 -0.03290707 -0.10537428
000080 26 ea a4 3e 48 03 38 be 56 28 da 3e 7a b9 da be
       0.3220989 -0.17970002 0.426089 -0.42719632
000090 bc f2 17 be 96 0a 96 be 30 6e 28 3d 1c 77 5b be
       -0.1483869 -0.2930495 0.041120708 -0.21432155
0000a0 0a 5b dc be 80 cb ff be 00 37 89 3e 00 81 6c 3c
       -0.43038207 -0.49959946 0.26799774 0.014435053
0000b0 b0 4d 45 be ba dc c4 be 66 4d c6 be 84 3c 33 be
       -0.19267917 -0.3844965 -0.38730925 -0.17503554
0000c0 78 85 01 3e e4 0c 02 3e d4 bf ff be 18 36 63 be
       0.1264857 0.1270023 -0.4995104 -0.22188604
0000d0 9c 48 38 be aa f3 9e be 4c 31 85 be 8e 6b bb 3e
       -0.17996448 -0.31045276 -0.26014173 0.36605495
0000e0 ac 23 02 3e cc ad 86 be 76 91 fe be 60 32 98 3c
       0.1270892 -0.26304471 -0.49720353 0.018578708
0000f0 40 00 e4 bc 44 18 5f be 64 84 4a be d0 07 16 be
       -0.02783215 -0.217866 -0.19777066 -0.14651418
000100 70 17 92 be fc eb 63 be e8 17 55 be 74 d4 b0 3e
       -0.28533506 -0.2225799 -0.20809901 0.3453709
000110 a4 d3 75 be bc 2d c3 3e 98 f1 c3 3d 2a 62 e5 3e
       -0.24006516 0.3812083 0.09567565 0.44801456
000120 bc 42 fb 3e d0 25 cc be 76 80 e8 3e ce cf cd 3e
       0.49074352 -0.398726 0.45410508 0.40197605
000130 3c f1 df 3e ec 84 be be 5c bc 4c 3e d8 bb 1b be
       0.43738735 -0.37210786 0.19993728 -0.15208375
000140 84 51 43 3e 58 ec d7 3d 2e 7a d4 3e b4 a5 c7 be
       0.19074064 0.10543126 0.41499466 -0.3899361
000150 dc 33 0d be b0 d9 50 be 1c 56 3e be 82 b1 df be
       -0.13789314 -0.20395541 -0.18587536 -0.43690115
000160 30 d4 fb be 7c 3a 26 be 90 19 6e 3e c0 af 04 3e
       -0.49185324 -0.16233248 0.23251939 0.12957668
000170 ae 6e e1 3e 20 07 e4 be 4c 95 52 3e d8 0f 51 3e
       0.44029754 -0.44536686 0.20564765 0.204162
000180 68 2a 7a 3e 00 b0 7d bb 98 70 6e 3e 30 c4 37 bd
       0.24430239 -0.003870964 0.23285139 -0.044864833
000190 8c dd 05 be 20 63 d5 bd 50 c5 d0 3d 0e 88 8d be
       -0.13072795 -0.10419297 0.101938844 -0.27642864
0001a0 3e 32 dc be 10 bd 44 be 94 1e f1 be a0 e2 09 bd
       -0.43007082 -0.19212747 -0.47093642 -0.033663392
0001b0 62 67 a6 3e ae 26 9a be d8 0e ec bd 7c ca b2 3e
       0.3250075 -0.30107635 -0.11526269 0.34920108
0001c0 e2 69 a6 be 82 0d dc 3e c8 90 89 be a0 d3 97 3c
       -0.32502657 0.42979056 -0.26868272 0.018533528
0001d0 e8 63 a2 be 38 43 d7 3e 7a e3 8e be 2a 5b 97 be
       -0.31716847 0.4204347 -0.27907926 -0.2956174
0001e0 40 a7 58 3c 30 83 85 3e e0 6a 32 bd 32 96 a8 3e
       0.013223469 0.2607665 -0.043558955 0.3292709
0001f0 68 e8 e6 be 30 1f 77 bd c8 1b 48 be 1c 11 04 3e
       -0.45099187 -0.060332477 -0.19541848 0.12897152
000200 0e 68 f3 3e 30 59 e3 3d d4 8c 3c be 0e 2c c3 be
       0.47540325 0.111009955 -0.18413097 -0.3811955
000210 34 1d a3 be a8 95 09 be e6 70 ed 3e 98 ae 98 3d
       -0.31858218 -0.13435996 0.46375197 0.07455176
000220 fa 13 8d be e4 5c 1a 3e 32 cc a5 3e e0 1d c6 3c
       -0.27554303 0.15074497 0.3238235 0.024184167
000230 0a 92 b1 3e 16 32 b5 be ac 1b 87 be 48 05 ea 3e
       0.3468173 -0.35389775 -0.263883 0.45707154
000240 d2 43 e7 3e c8 d8 61 be 7a 33 b9 be 2e 64 ef be
       0.4516893 -0.22055352 -0.36172086 -0.4675612
000250 f4 01 ca be 20 9b 8c 3c bc 9d 54 3e d8 6f 96 3d
       -0.39454615 0.017163813 0.20763296 0.07345551
000260 d4 af 89 be 7c ce 34 3e b0 23 39 3d f4 51 a9 3e
       -0.2689196 0.17656893 0.04520005 0.33070338
000270 b6 6a e8 3e fc f6 0c 3e 32 9d ca be 0e df ca 3e
       0.45393914 0.13766092 -0.39573056 0.39623302
000280 22 89 ad be f4 e2 32 3e 40 3d 5b bc 3c 8d 87 be
       -0.33893687 0.17469388 -0.013381302 -0.2647494
000290 48 9d 5b be 24 95 9e 3e 5e e5 e6 3e 6a 9f b6 3e
       -0.21446717 0.3097316 0.45096868 0.35668498
0002a0 5e f9 e4 be da 32 d6 3e 2c 9e b4 3e f8 64 04 be
       -0.44721502 0.41835672 0.35276926 -0.12929142
0002b0 08 b8 22 be c0 9e ff bc 38 a1 c5 be d8 75 01 3e
       -0.15890515 -0.031203628 -0.38599563 0.1264261
0002c0 78 2b 8e 3d 1a 18 fe be 68 f2 cd 3e cc 24 9d be
       0.06941885 -0.49627763 0.40224004 -0.30692136
0002d0 3c 78 89 3e 00 c1 ff 3e e2 5d 94 3e ec 41 53 be
       0.26849544 0.49951935 0.28977877 -0.20630616
0002e0 34 20 79 be 40 ba b2 be a4 63 40 3e 20 10 b0 3e
       -0.24328691 -0.34907722 0.1878801 0.34387302
0002f0 c0 2a 9c bc 74 9f 7c 3e 7a cb fc be 68 f8 3d be
       -0.019063354 0.24670202 -0.4937399 -0.1855179
000300 66 c1 f9 be 00 a7 ab 3c 44 e2 64 be 28 ac b4 bd
       -0.48780364 0.020953655 -0.22351938 -0.08821899
000310 20 86 ce bd c0 7b 8f 3d f8 6a a0 bd 50 4f 5e be
       -0.10084176 0.07006025 -0.07832903 -0.21709943
000320 82 0a 82 3e aa 72 bb 3e b8 cd c0 3e 78 1c dc be
       0.25398642 0.3661092 0.3765695 -0.4299047
000330 00 29 b0 bd c4 f6 94 be a0 d7 e3 3e 40 c1 63 3c
       -0.0860157 -0.29094517 0.44500446 0.013901055
000340 36 6f ff 3e 74 b8 b8 be ca 37 8f 3e 00 71 94 3e
       0.49889535 -0.36078227 0.2797225 0.28992462
000350 3c 49 31 be 98 78 b2 3e 30 ef ef bd b6 64 9d be
       -0.17313093 0.3485763 -0.11715543 -0.307409
000360 2a d1 80 3e 16 18 a5 be dc 02 35 be 0c 70 18 3e
       0.2515958 -0.3224494 -0.17676872 0.14886492
000370 b4 25 1b be 1a 28 8f 3e 18 f4 80 3d 90 73 cb be
       -0.15151101 0.27960283 0.06296557 -0.39736605
000380 f8 2a da bd c4 2c 3e 3e c0 a5 69 3e 14 d3 bb 3e
       -0.10652727 0.18571764 0.22817135 0.36684477
000390 ac 03 04 be 60 8f 54 bd 8c a5 72 be 32 f8 b1 3e
       -0.12892026 -0.051894546 -0.23695964 0.3475967
0003a0 80 3a 0b be d6 2a a9 3e f0 86 02 3e b0 94 dd 3d
       -0.13596535 0.33040494 0.12746787 0.108193755
0003b0 38 64 a5 3e 14 21 7f be 74 49 1f be 28 3b 81 bd
       0.32303023 -0.24914962 -0.15555364 -0.06310111
0003c0 60 55 7d 3e 96 86 d9 be d4 57 68 be 9e 86 b4 be
       0.24739599 -0.42485493 -0.22689754 -0.35258955
0003d0 8a 99 ed be 54 ad 21 3e 30 59 32 3e 84 c9 4e be
       -0.46406204 0.15788776 0.17416835 -0.2019406
0003e0 d2 fa ea 3e 18 b6 53 be c4 b0 35 be a0 e5 a9 be
       0.45894486 -0.20674932 -0.17743212 -0.33183002
0003f0 38 d1 84 3e 9c 7c 43 be 8a 80 d4 be 2e ed f9 be
       0.2594087 -0.19090503 -0.41504318 -0.48813766

fc1.bias f4 [64]
000000 ae 04 ed 3e d0 ce c3 bd 5c 2d 15 be 18 b3 d1 bd
       0.46292633 -0.09560931 -0.14568084 -0.102392375
000010 1c e2 c8 3e e0 54 30 bd c8 0a 9e bd 60 d1 c2 bc
       0.39235008 -0.043049693 -0.077169 -0.023781478
000020 f8 c4 ad be fa 4f f6 3e a8 ca fa 3e c0 9d a8 bd
       -0.33939338 0.48107892 0.4898274 -0.082332134
000030 38 a0 5b be e4 86 1d be 7a 7e a9 3e 40 2c 34 bc
       -0.21447837 -0.15383488 0.33104306 -0.010996878
000040 40 86 8c bd 30 7a 1e bd e2 80 a5 be 20 93 97 3e
       -0.06861544 -0.038690746 -0.32324892 0.29604435
000050 38 f2 e1 3d d6 98 e9 be 26 98 89 be e0 ec b2 bc
       0.11032528 -0.45624417 -0.26873893 -0.021841466
000060 9a 86 93 be a8 0a 46 3e 40 3f c7 be 8e 06 d2 be
       -0.2881363 0.19340003 -0.38915443 -0.41020626
000070 00 e2 91 ba 4e 91 99 be c8 03 c8 be 14 d1 45 be
       -0.0011129975 -0.2999367 -0.39065385 -0.19318038
000080 6c 73 d8 3e 40 8c 81 3c 5e 29 c7 be 84 13 18 3e
       0.4227556 0.015813947 -0.38898748 0.14851195
000090 72 cd 9b 3e 50 7e dc be 4c a0 cd be a4 3a 98 be
       0.3043018 -0.4306512 -0.4016136 -0.2973224
0000a0 50 46 99 3d d6 a8 9a 3e 14 3e 2a 3e 6c eb a1 be
       0.07484114 0.30206937 0.16625243 -0.31624925
0000b0 e8 9d 3e be 8a 80 cc be da 8d 8d be 64 07 0f 3e
       -0.18614924 -0.39941818 -0.27647287 0.13967663
0000c0 90 66 55 bd b8 9c 9f 3d 40 be 22 be 08 a2 d5 3d
       -0.052099764 0.077935636 -0.15892887 0.10431296
0000d0 82 34 d5 be dc 59 33 be 38 ed 00 3e 70 61 3d 3d
       -0.41641623 -0.17514747 0.12590492 0.0462355
0000e0 68 44 d8 bd 4c 9a a9 be 84 81 53 3e b8 4a 4b be
       -0.105599225 -0.33125532 0.20654875 -0.19852722
0000f0 9c d8 8a be 4a 67 d2 3e a0 20 65 3e 80 ef 09 3c
       -0.27118385 0.41094428 0.22375727 0.008418918

fc2.weight f4 [64, 64]
000000 ca 17 80 bd 20 a7 c4 bd f0 a9 1f 3c 34 8e 6e 3d
       -0.062545374 -0.09602189 0.009745106 0.058241084
000010 4c 24 f9 bd c0 02 98 bc 00 6e 94 bd 70 a0 8d 3d
       -0.12165126 -0.018555999 -0.07247543 0.06915367
000020 b0 07 c7 3d 36 8d ce 3d 6c ad c4 3d f6 bd cc 3d
       0.09718263 0.100855276 0.0960339 0.0999717
000030 08 7f e6 3d a4 64 b3 3d 78 c5 b3 3c 32 22 99 3d
       0.11254698 0.0875943 0.021944746 0.07477225
000040 c0 6a d0 bc 22 2e c5 bd 14 e8 be bd 80 2c 05 3d
       -0.025441527 -0.0962794 -0.09321609 0.03251314
000050 40 2e 8a bc 38 0c 90 bc 00 e5 cd 3b 5e 57 a4 bd
       -0.016867757 -0.017583951 0.0062834024 -0.080244765
000060 50 32 73 bd ae 78 9c 3d b8 44 fc bd 24 a4 f3 3d
       -0.059374154 0.07640205 -0.123177946 0.11896542
000070 00 7d fa bd 8c cb da 3d 1c 3b 36 3d 40 0d 44 bb
       -0.12230873 0.10683355 0.044489965 -0.0029915124
000080 c2 07 83 bd c8 e1 69 3d f4 37 ea bd a4 54 8b bd
       -0.06397964 0.057100087 -0.114364535 -0.06803253
000090 14 a3 0a bd f0 7d 81 3d ba 22 cb 3d b0 a5 f7 bd
       -0.03384693 0.06322849 0.09918733 -0.12092149
0000a0 6c ec da bd b8 d6 fc 3d 8c 36 9f bd ce 3f cc bd
       -0.10689625 0.12345642 -0.07774076 -0.09973107
0000b0 68 fa bb bd d0 17 20 3d 80 d9 38 bb b0 04 10 bc
       -0.091786206 0.03908521 -0.0028205812 -0.00879018
0000c0 28 a4 f3 bd 60 3d 9a 3d 54 61 66 3d 62 12 b3 bd
       -0.11896545 0.075312376 0.056245163 -0.087437406
0000d0 48 cd 4c bd c0 2b c3 bc ba 0b 8c 3d a0 0a 14 bc
       -0.05000046 -0.023824573 0.06838174 -0.009035736
0000e0 d0 14 9c bd c4 49 f2 3d 80 17 09 3d ea d3 b7 3d
       -0.07621157 0.11830476 0.033469677 0.08975966
0000f0 92 35 df bd d0 7d 6c 3c 5e 31 f9 3d 72 0b b2 bd
       -0.108988896 0.014434293 0.12167619 -0.08693589
000100 14 d7 ce 3d 86 2e a2 3d c0 7a c3 bb d4 0c 97 3d
       0.10099617 0.0791903 -0.0059655607 0.07375494
000110 5c b5 f1 3d 98 e6 10 3d d0 07 61 bd f4 ec c3 3d
       0.1180217 0.03537616 -0.05493909 0.095666796
000120 50 f4 51 3c 00 6c c0 39 46 70 a9 bd 34 c2 98 bd
       0.012814596 0.0003670156 -0.082733676 -0.07458916
000130 a8 73 c1 3c b4 47 2a 3d 2c 5e 77 3d 6c 3e e0 bd
       0.02361472 0.041572288 0.060392544 -0.10949406
000140 f4 53 b3 3d 38 b4 4f 3d b8 45 c5 bc f0 b5 90 3d
       0.08756247 0.05070898 -0.024081096 0.07065952
000150 7c fa c4 3d 80 a7 50 bd b4 9f 98 bd 00 e1 2d bb
       0.096180886 -0.05094099 -0.07452336 -0.0026531816
000160 d2 f6 aa 3d c0 2a 24 bb e0 b3 cf bc 1e a2 ea 3d
       0.083478585 -0.0025049895 -0.025354326 0.11456703
000170 44 9d 7a 3d 70 a1 23 bd e0 3f 90 3d 5a fd cb bd
       0.061185136 -0.03994888 0.07043433 -0.09960432
000180 2e f1 a5 bd 04 5f 2b 3d 38 fb e1 3c 20 9d 65 bd
       -0.08102642 0.04183866 0.02758561 -0.05605805
000190 a2 3d 89 3d e8 9e d3 bd d2 2d d8 bd 6e 80 b8 bd
       0.06701209 -0.10333043 -0.105556145 -0.09008871
0001a0 5e ac 86 3d 10 7b 7e bd 30 fa eb 3d 84 b7 d1 bd
       0.06575845 -0.06212908 0.11522329 -0.10240081
0001b0 7c ad ca bd 48 76 96 3d 10 aa fb bd 18 1d 79 3d
       -0.09896371 0.07346779 -0.12288296 0.06081876
0001c0 06 48 b3 3d 68 41 c7 bc 08 7b 85 bc 9c d5 93 3d
       0.08753972 -0.02432318 -0.016294017 0.07218477
0001d0 38 4e 84 bd d0 b0 22 bc 84 38 9e bd 5e a5 af 3d
       -0.064602315 -0.009929851 -0.07725623 0.08576463
0001e0 a8 b6 9a 3c c2 e9 df bd a0 4a a3 3b 00 f2 5c 3d
       0.018885925 -0.10933258 0.004983261 0.053941727
0001f0 30 ce 91 bc c8 dc 89 3d 0a fc f1 3d ae f9 ab 3d
       -0.017798513 0.06731564 0.11815651 0.08397232
000200 c6 08 ac 3d 34 3a bd 3d f4 8c 55 bd 2c 1d 69 bd
       0.08400111 0.09239617 -0.052136377 -0.056912586
000210 ca d5 85 3d fc 80 36 bd 72 48 a6 bd d2 30 c6 bd
       0.06534918 -0.044556603 -0.081192866 -0.096772805
000220 90 ce f6 3d 10 2f 8c 3c 4e e6 a2 3d 58 43 b3 3d
       0.120511174 0.017112285 0.079540834 0.08753079
000230 b0 d9 11 bd 28 93 72 3d 60 1d d7 bb 74 97 f9 bd
       -0.035607994 0.05922237 -0.006564781 -0.121870905
000240 4c 81 e7 bd 4e a7 a1 bd 5a b5 df 3d fc 1a 5e bd
       -0.11303958 -0.07893239 0.10923262 -0.054224953
000250 20 ef 40 3c 40 7b 24 bd d0 99 3a bc a4 4c 9b bd
       0.011775762 -0.040156603 -0.011389211 -0.075829774
000260 94 d6 4d 3d ae 9d 8a 3d 66 6b 8a 3d 88 cf d6 3c
       0.050253466 0.06768356 0.06758766 0.026222005
000270 c4 42 3f bd 70 ef d3 bd 86 d1 96 3d f2 b7 db 3d
       -0.046694532 -0.103484035 0.07364182 0.10728444
000280 d8 06 ba bd ec a5 21 3d e6 46 a3 bd 04 b3 d8 3d
       -0.090833366 0.039464876 -0.07972507 0.105810195
000290 de be 85 3d 7c 9c b1 3d 48 a2 3a bd 1a 1d fd bd
       0.06530546 0.08672425 -0.04556492 -0.12359066
0002a0 d0 dc 61 3c 84 7b 76 3d c0 b0 09 3d cc 83 3a bd
       0.013785556 0.060176387 0.033615828 -0.045535848
0002b0 00 26 db ba b4 14 52 bd bc f7 ef 3d b6 07 8a 3d
       -0.0016719699 -0.051289275 0.117171735 0.06739752
0002c0 04 e7 48 bd da 5e b3 3d 6c e0 92 bd 40 85 f1 3d
       -0.04904844 0.08758326 -0.07171711 0.117929935
0002d0 8c 70 51 bd d8 bb 92 bd 4e 12 a2 bd 0e 33 fa bd
       -0.051132724 -0.071647346 -0.079136476 -0.12216769
0002e0 74 d5 de bd a8 9c bc 3d e0 98 4b 3d c0 79 26 3b
       -0.10880557 0.09209567 0.04970634 0.0025402158
0002f0 ba 7e d1 3d 66 df a1 bd 08 7e 49 3d 5a 3b bb 3d
       0.10229249 -0.07903938 0.04919246 0.0914218
000300 40 ca a9 bb 04 1d 8e 3d b6 78 a7 3d 00 13 74 bd
       -0.005181581 0.06939128 0.08177321 -0.059588432
000310 54 54 13 3d 60 83 63 bc 96 2d 8d 3d 12 11 aa 3d
       0.035969093 -0.013886303 0.068934605 0.08304037
000320 60 7f d7 bd 20 3a 95 3c b0 ba b9 3d ca c0 ac bd
       -0.10522342 0.018216193 0.09068811 -0.08435209
000330 94 f5 bb 3d b4 cf 3d bd d8 04 ce bc 9c 6f 41 bd
       0.091777 -0.04634066 -0.025148794 -0.04722558
000340 5c 28 5d 3d d8 71 eb bc b4 55 8d bd 88 50 a4 3c
       0.053993568 -0.028740808 -0.06901112 0.020057932
000350 da 34 9f 3d 7c 5f 82 3d 20 4f 0f bc 14 12 86 3d
       0.077737525 0.063658684 -0.008746892 0.06546417
000360 56 b6 8e 3d 80 5d c8 3d a0 8b 3f bd 98 80 b4 3d
       0.069683716 0.09783459 -0.046764016 0.0881359
000370 b8 40 a5 3c b0 a3 ea 3c 84 7f 64 bd 78 95 dc bc
       0.020172462 0.028642505 -0.05578567 -0.026926741
000380 f0 f6 1d 3d 50 da 96 3d 16 e6 f4 3d 80 45 18 bc
       0.038565576 0.073658586 0.11957948 -0.009293914
000390 cc 55 57 3d 08 4b 9e bd b8 46 55 bd a2 75 ad bd
       0.052572057 -0.07729155 -0.052069396 -0.08469702
0003a0 7a 3f bd 3d a0 3f 4d bd f4 62 b0 bd 30 50 06 bc
       0.09240623 -0.050109506 -0.08612624 -0.008197829
0003b0 00 9c 3e ba f6 04 88 3d 32 80 84 bd 8e 46 e4 bd
       -0.00072711706 0.06641571 -0.06469764 -0.1114627
0003c0 c6 02 f1 bd 7e 0c 97 3d 50 24 49 bd e2 80 b9 3d
       -0.11768107 0.073754296 -0.049106896 0.090577856
0003d0 b0 db 3b 3c 68 1e 1b 3d 7a 03 a1 bd 14 46 36 bd
       0.011465952 0.037870795 -0.07861991 -0.044500425
0003e0 c0 d6 18 bd 14 a3 aa 3d b0 aa c7 3d bc 49 bc bd
       -0.037314177 0.08331886 0.09749353 -0.09193751
0003f0 90 25 ef bc c8 7c eb 3c 54 6e 87 bd d0 20 41 3d
       -0.029192716 0.028746024 -0.0661284 0.047150433

fc2.bias f4 [64]
000000 36 d7 f0 bd 54 80 98 bd 0c cf e5 3d d6 ec e4 bd
       -0.11759798 -0.07446352 0.11221132 -0.11177985
000010 da 3f f7 3d 70 72 7e 3c 58 5d ee bc b0 13 48 bd
       0.120727256 0.015530214 -0.029097244 -0.0488469
000020 e0 dd 83 bc 72 13 da 3d 40 cf 63 bd 34 58 f1 3d
       -0.01609701 0.1064824 -0.05561757 0.117844015
000030 52 9b aa 3d 58 3c 9b 3c 4e 4e b0 3d ea 1f ac bd
       0.08330406 0.018949673 0.086086854 -0.084045246
000040 94 ab 27 bd 94 26 7f bd 8e 72 d5 3d 4c e7 71 bd
       -0.040935114 -0.06229265 0.1042224 -0.059058473
000050 5c 92 33 bd ec e8 09 bd 56 22 a2 3d a0 bd 09 3d
       -0.04384075 -0.033669397 0.07916705 0.033628106
000060 e0 24 b3 3b 00 80 b5 b7 c0 cf ac 3c c0 c0 16 3d
       0.0054670423 -2.1636486e-05 0.021095157 0.036804914
000070 e0 e4 fa bd 44 4e fe bd 28 0e 70 bd 7e f3 f3 bd
       -0.12250686 -0.12417272 -0.05860725 -0.11911677
000080 8e bc 85 bd 2c fe fe bd 1a 5d df bd b0 d8 7e 3c
       -0.065301046 -0.12450823 -0.109064296 0.015554592
000090 ca de ef bd a0 50 a3 3b 84 2f 8e bd b8 6c 3e bd
       -0.117124155 0.0049839765 -0.06942657 -0.0464904
0000a0 50 fa df 3c 90 87 42 bd 4c de 0f bd 0c 19 2b 3d
       0.027341038 -0.047492564 -0.03512411 0.041771933
0000b0 00 19 c9 3a c0 f6 d4 bb 10 b9 21 bc 80 81 c4 3a
       0.0015342534 -0.0064991415 -0.0098707825 0.0014992207
0000c0 64 45 45 bd 3c 9f 9d 3d d4 28 c5 3d 44 0f 5a bd
       -0.04816188 0.07696387 0.09626928 -0.053237215
0000d0 58 e4 94 3d e0 5f 40 bd c6 ae ad bd 22 4d a7 bd
       0.072701156 -0.046966434 -0.08480601 -0.08169009
0000e0 28 65 83 bd 82 51 df bd d6 d0 88 3d 56 64 ea bd
       -0.064157784 -0.10904218 0.06680457 -0.11444919
0000f0 10 76 65 3c 80 35 8f 3b 66 78 c9 bd 80 87 84 bd
       0.014005199 0.0043703914 -0.09837417 -0.06471157

fc3.weight f4 [6, 64]
000000 80 8d cd 3c 10 c0 11 3c 02 12 ae bd a8 aa d4 3c
       0.025091887 0.008895889 -0.084995285 0.025960281
000010 f0 8b d4 bd aa bb a5 bd a0 c6 79 3c be f8 f0 bd
       -0.103782535 -0.08092435 0.01524511 -0.11766194
000020 7a 7c c0 3d a0 38 ff 3d 3c 63 9b bd fe 94 cd 3d
       0.09398742 0.12461972 -0.07587287 0.10038184
000030 c4 ca a1 3d c2 bb 97 3d e0 08 11 3c 4a 12 f9 3d
       0.079000026 0.07408859 0.008852214 0.121616915
000040 c0 10 3b bd 38 1e 73 bd 0a f7 8d bd 68 dc 84 bd
       -0.04567027 -0.05935499 -0.069318846 -0.06487352
000050 8e d2 a0 3d f4 14 c8 bd 5c c5 0e 3d b0 28 6b bc
       0.0785266 -0.097696215 0.034856185 -0.014352962
000060 90 39 f1 bd 4c 5c 18 bd 32 30 d6 3d 44 dc a7 3d
       -0.11778557 -0.037197396 0.10458411 0.08196309
000070 6a c7 ac bd a4 bb af bd 08 08 bf bc f0 87 4e bd
       -0.08436473 -0.085807115 -0.02331926 -0.05042261
000080 ea 50 9c bd 9a 87 eb 3d da ae aa 3d 80 f8 24 bb
       -0.07632621 0.11500473 0.083341315 -0.0025172532
000090 72 03 f2 bd d4 03 15 3d 84 95 2c bd d4 c2 80 3d
       -0.118170634 0.036380604 -0.042134777 0.062871605
0000a0 f0 d4 93 3d 68 3b 91 3c 7a 8d 9d 3d ac 87 24 3d
       0.07218349 0.017728522 0.07693 0.04016845
0000b0 56 94 f5 3d b2 21 93 3d 88 43 e1 bc 84 73 ee bd
       0.119911835 0.07184161 -0.027498022 -0.116431266
0000c0 20 0c 68 3c 90 77 3d 3c c4 5c 3e 3d 20 a0 9f 3d
       0.014163047 0.01156415 0.046475187 0.07794213
0000d0 c8 80 99 3d 68 db 6c bd 60 17 e5 3d 40 e2 d8 bd
       0.07495266 -0.05782643 0.11186099 -0.10590029
0000e0 40 71 78 3c 30 e0 db 3d 20 1b d0 bb 30 09 e6 bc
       0.01516372 0.1073612 -0.00635089 -0.028080553
0000f0 38 d3 6a bd 48 1b ad 3d 2a ad 81 bd 10 de ca bc
       -0.05733034 0.08452469 -0.063318565 -0.02476409
000100 48 14 b8 bd aa 44 a2 bd 74 e3 46 3d 20 6b e8 3d
       -0.08988243 -0.07923253 0.04855676 0.113485575
000110 30 1c c3 3d 28 12 b4 3c 96 3d 94 3d 4a ea e4 3d
       0.09526861 0.021981314 0.07238309 0.111774996
000120 ce 94 98 bd d8 fa 49 bd d0 86 f7 3d 84 1d 2c 3d
       -0.07450257 -0.04931149 0.1208626 0.042020336
000130 58 7c d0 bd 20 90 5b 3c e0 dd 21 bc f2 b3 9c 3d
       -0.10179967 0.013401061 -0.009879559 0.07651509
000140 58 51 c9 3d ec 59 9a 3d f4 91 29 bd 2c bc d0 bd
       0.09829968 0.075366825 -0.041398957 -0.10192141
000150 48 99 e3 bc ec 43 58 3d c8 80 c8 bd 20 53 22 3c
       -0.027783051 0.05279915 -0.09790188 0.009907514
000160 72 a6 bd bd c0 29 1f 3b e8 2c 61 3d 44 f1 d1 bd
       -0.092602625 0.002428636 0.054974467 -0.10251096
000170 0a e7 83 3d 80 3d 85 bd ee 3e bc 3d 98 c7 24 3d
       0.064405516 -0.06505871 0.091916904 0.04022941
000180 dc b1 1c 3d 64 f8 a2 3d 50 9d b7 3c f0 70 7b bd
       0.038255557 0.07957533 0.02241388 -0.061387002
000190 9e 02 96 3d b0 3e 02 bc cc a2 84 bd 14 8d d7 bd
       0.07324718 -0.007949516 -0.064763635 -0.105249554
0001a0 b4 18 5a bd a4 27 96 3d 3c 67 3c 3d 40 af 3a 3b
       -0.053246215 0.073317796 0.04599689 0.0028485805
0001b0 38 3e 96 bc 88 4a 91 3c f0 e7 f9 3c f4 33 2e bd
       -0.018340215 0.017735735 0.030506104 -0.042530015
0001c0 26 f5 ef 3d d4 32 3c 3d bc c6 28 3d 90 af bf bd
       0.1171668 0.04594691 0.041205153 -0.09359658
0001d0 f0 27 52 bd 6c b0 a0 3d ce 0a a5 bd b4 95 fc bd
       -0.05130762 0.0784615 -0.080587015 -0.12333241
0001e0 ae 0d ae bd ac 5c 5c 3d ee 6a d2 3d 58 14 e8 3d
       -0.08498703 0.053799316 0.102743015 0.11332005
0001f0 68 ac a0 3d ec 5b 48 3d 68 5b 6c 3d f0 28 23 bd
       0.07845384 0.04891579 0.05770436 -0.039833963
000200 7c ab de bd 40 75 f2 3d 42 21 b8 bd be 58 b0 bd
       -0.10872552 0.1183877 -0.089907184 -0.08610676
000210 64 d0 33 3d 08 87 43 3d 62 4b ce 3d 58 97 b6 3d
       0.04389991 0.047736198 0.10072972 0.08915585
000220 30 0f c1 bd 18 8a b6 3c d8 56 bd 3d 0e 78 9f 3d
       -0.09426725 0.022282645 0.0924508 0.077865705
000230 bc 90 3a 3d c0 6e 24 3d 22 92 d2 3d 2a be 8c bd
       0.045548186 0.040144682 0.10281779 -0.068722084
000240 b0 20 84 3c 1e 10 9f 3d f8 29 9e 3c c0 fc e4 bc
       0.016128868 0.07766746 0.019307122 -0.027952552
000250 ae a2 8c 3d 74 81 4b 3d 52 d3 b3 3d 78 a5 e5 3c
       0.06866966 0.049684003 0.087805405 0.028033003
000260 30 c8 49 3c 2c b0 bf bd 10 90 59 3d 7c 69 5b bd
       0.012315795 -0.09359774 0.053115904 -0.053567395
000270 10 b1 5a bc 14 69 7d 3d 60 13 25 3d 20 28 e8 3b
       -0.013347879 0.06186779 0.04030168 0.0070848614
000280 b0 40 f2 3c 28 9a e2 3d 74 dc 2b 3d d0 0e df 3d
       0.029571861 0.11064559 0.041958287 0.10891497
000290 c6 c0 d5 bd d8 14 32 bd 00 d0 a5 bc f6 b8 82 bd
       -0.10437159 -0.04347691 -0.020240784 -0.06382935
0002a0 0a 8d d5 bd f0 da 53 bc 04 5d 01 3d b0 2e 48 bc
       -0.10427292 -0.012930617 0.031582847 -0.012218162
0002b0 c0 8f 1a 3b 8c 94 73 3d ac 1e 8e bd fc 58 c9 bd
       0.0023584217 0.059467837 -0.06939444 -0.098314255
0002c0 80 3d a6 ba 32 7e d3 3d b0 67 90 bc 8a 8e ee bd
       -0.0012683123 0.10326804 -0.017627567 -0.11648281
0002d0 a8 cf 69 bd f4 d0 a0 bd 14 12 e7 3d 24 5e 53 bd
       -0.057082802 -0.07852355 0.11282745 -0.05160345
0002e0 b4 c0 b0 bd c8 95 b1 3c 32 1d ac 3d a2 30 e9 3d
       -0.08630505 0.021677867 0.08404006 0.11386229
0002f0 00 f1 df 3c 90 63 75 3d e2 44 a2 3d b8 c2 8b bc
       0.027336597 0.059909403 0.079232946 -0.017060623
000300 14 4e 05 3d 88 68 27 bd ac 71 1c 3d 0a 4c 92 bd
       0.032545164 -0.040871173 0.038194343 -0.071434096
000310 e0 59 66 bd c8 18 5f bd c0 ab a1 bc 74 7b db 3d
       -0.056238055 -0.054466993 -0.019735217 0.10716906
000320 f4 5d 6d bd 14 94 52 3d 00 68 fc 3c f4 b7 fc bd
       -0.05795093 0.05141075 0.03081131 -0.12339774
000330 a8 9f f3 3c 36 51 e3 3d a0 18 fe bd d2 3a c6 bd
       0.029739216 0.11099474 -0.124070406 -0.09679188
000340 e8 12 58 bd 1a 6f 84 3d 38 66 92 bc 6e 25 a8 bd
       -0.052752405 0.064665034 -0.017871007 -0.08210264
000350 a4 cc 9e 3d c0 5c d5 bd 40 68 ab 3b 38 46 8d bc
       0.07753876 -0.10418081 0.0052309334 -0.017245397
000360 28 3a 7b 3d 2c b7 e8 3d 3c 49 27 bd 50 ae 90 bc
       0.06133476 0.11363062 -0.040841326 -0.017661244
000370 76 ee 91 3d 34 c4 ac 3d 68 a5 09 bd 3c 38 94 3d
       0.07125561 0.0843586 -0.03360501 0.07237288
000380 a0 d3 ee bc 30 f9 ce 3c 48 c2 20 3d ac 67 8a 3d
       -0.029153645 0.025265306 0.03924778 0.06758055
000390 08 50 ce 3d 58 a6 d3 bc c0 83 07 bd 44 2a f7 bd
       0.100738585 -0.025836155 -0.03308463 -0.120686084
0003a0 48 32 f0 3c 60 ba f6 3b cc 11 6f bd c6 d2 85 3d
       0.029320851 0.007529542 -0.05836658 0.065343425
0003b0 50 15 ad 3d b2 b9 d8 bd ee e3 8d bd 00 20 a2 ba
       0.08451331 -0.105822936 -0.0692824 -0.0012369156
0003c0 e4 16 f6 bd b4 eb d3 3d 52 90 9c 3d 08 e1 d6 bd
       -0.12016085 0.10347691 0.076447144 -0.1049214
0003d0 9c 93 b5 3d 08 3f 73 3d 7c af e7 3d 4c e0 e8 3d
       0.08866045 0.059386283 0.11312768 0.11370906
0003e0 0a 27 81 bd 20 b6 8b bc 90 7a 96 bd e8 e1 bc bc
       -0.06306274 -0.017054617 -0.07347596 -0.02305694
0003f0 b4 2a f1 bd 08 6a dd bd 1c 16 32 bd d4 5d 2e 3d
       -0.11775723 -0.108112395 -0.043478116 0.04256995

fc3.bias f4 [6]
000000 e4 23 3e 3d dc bd 8b 3d ae fc d0 3d 66 d4 8c bd
       0.046420947 0.06823322 0.10204445 -0.06876449
000010 12 7e 99 3d 20 ec d7 3b
       0.07494749 0.0065894276
