saved_models/dqn_best_model_episode_434.pt (torch, 87147 bytes, 24 tensors)

fc1.weight f4 [64, 4]
000000 72 5b f5 be 6a d6 24 be 10 59 f5 3e 18 e4 e0 be
       -0.4792133 -0.16097417 0.47919512 -0.43924022
000010 4c cd e8 be 38 a1 6d be 48 3b 0f be 30 dc 36 bd
       -0.4546913 -0.23206031 -0.13987458 -0.04464358
000020 d5 b0 2f be aa 73 08 3e 0f 35 91 3e 7e d9 cd bd
       -0.171573 0.13325372 0.28360793 -0.10051249
000030 a8 5b 75 be 2f da f1 3e cb e4 af 3e b8 27 90 be
       -0.23960745 0.47236773 0.34354243 -0.28155303
000040 99 3e 2f 3e ea ca 2e be 63 08 79 3d c8 36 08 be
       0.17113723 -0.17069593 0.060799014 -0.13302147
000050 7a 81 cb 38 86 a7 e4 bd 02 3f e3 3e e9 35 9a 3e
       9.703911e-05 -0.11164765 0.4438401 0.30119255
000060 b7 52 fa be bb 67 f3 3e 59 96 7c 3e 4c 55 91 3c
       -0.4889123 0.47540078 0.24666728 0.017740868
000070 df d9 83 3e 34 6a 92 be f2 b7 0f bd 3c e0 d9 bd
       0.2575216 -0.28596652 -0.035087533 -0.106384724
000080 13 0f a5 3e fc dc 37 be e2 cd d9 3e 51 7b da be
       0.32238063 -0.17955393 0.4253989 -0.42672208
000090 bc f2 17 be 96 0a 96 be 30 6e 28 3d 1c 77 5b be
       -0.1483869 -0.2930495 0.041120708 -0.21432155
0000a0 90 cf dc be ab ec ff be 13 c3 88 3e 54 fd 5c 3c
       -0.43127108 -0.4998525 0.2671133 0.0134881325
0000b0 b0 4d 45 be ba dc c4 be 66 4d c6 be 84 3c 33 be
       -0.19267917 -0.3844965 -0.38730925 -0.17503554
0000c0 83 af fd 3d a5 fe fe 3d a5 88 00 bf ad ef 63 be
       0.12386992 0.12450913 -0.50208503 -0.22259398
0000d0 95 97 37 be 53 d5 9e be a9 f7 84 be bd b8 bb 3e
       -0.17928918 -0.31022128 -0.259702 0.36664382
0000e0 56 a4 02 3e 0c 88 86 be bc 38 fe be fb 6e a2 3c
       0.12758002 -0.2627567 -0.4965266 0.01982831
0000f0 40 00 e4 bc 44 18 5f be 64 84 4a be d0 07 16 be
       -0.02783215 -0.217866 -0.19777066 -0.14651418
000100 73 ad 91 be 9f 45 63 be d5 34 54 be 3c 7a b1 3e
       -0.28452644 -0.22194527 -0.20723279 0.3466357
000110 c3 c5 78 be 4d b3 c1 3e e5 40 be 3d 87 c2 e4 3e
       -0.2429419 0.37832108 0.092897214 0.44679663
000120 04 2f fa 3e 57 47 cd be 69 5f e7 3e 51 a4 ce 3e
       0.48863995 -0.4009349 0.4518998 0.40359738
000130 dd c1 de 3e 73 a4 bf be 35 2c 4a 3e 86 3c 1c be
       0.4350728 -0.37430152 0.19743426 -0.15257463
000140 09 39 44 3e 6e 35 da 3d 8a 7c d4 3e bf 5b c7 be
       0.19162382 0.10654722 0.41501266 -0.38937184
000150 dc 33 0d be b0 d9 50 be 1c 56 3e be 82 b1 df be
       -0.13789314 -0.20395541 -0.18587536 -0.43690115
000160 92 5f fb be 45 55 25 be 95 01 6f 3e ae f1 05 3e
       -0.49096352 -0.16145809 0.23340447 0.13080475
000170 d8 6a e0 3e 13 ff e4 be e7 f5 50 3e 72 ce 50 3e
       0.43831515 -0.44725856 0.20406304 0.20391253
000180 75 33 78 3e d2 3d bf bb e4 58 6c 3e 9a 52 3c bd
       0.2423838 -0.005836227 0.23080784 -0.045977212
000190 8c dd 05 be 20 63 d5 bd 50 c5 d0 3d 0e 88 8d be
       -0.13072795 -0.10419297 0.101938844 -0.27642864
0001a0 3e 32 dc be 10 bd 44 be 94 1e f1 be a0 e2 09 bd
       -0.43007082 -0.19212747 -0.47093642 -0.033663392
0001b0 1f 1d a5 3e ce 65 9b be c5 3e f1 bd b3 d3 b1 3e
       0.3224878 -0.30351108 -0.117795505 0.34731826
0001c0 27 7f a5 be 0b 0b dd 3e 82 93 88 be fa 60 97 3c
       -0.32323572 0.43172488 -0.2667504 0.01847886
0001d0 2e 8e a1 be 38 6b d7 3e 05 7e 8e be df 59 97 be
       -0.31553787 0.4207399 -0.2783052 -0.29560754
0001e0 de 12 72 3c d6 31 86 3e 7c 1a 2d bd bc 0c a8 3e
       0.014775006 0.26209897 -0.042261586 0.32822216
0001f0 19 ea e6 be 23 10 76 bd 10 f4 47 be 1d 4e 04 3e
       -0.45100477 -0.060073983 -0.19526696 0.12920423
000200 16 d6 f4 3e 54 25 e9 3d 04 3a 3a be 69 cb c2 be
       0.47819585 0.11384073 -0.18186194 -0.38045815
000210 d9 4a a3 be ec cb 09 be e6 4f ed 3e 64 2f 97 3d
       -0.31893042 -0.13456696 0.4635002 0.07382086
000220 09 19 8d be 08 51 1a 3e 5b bd a5 3e 9f 03 bf 3c
       -0.27558163 0.15069973 0.3237103 0.023317156
000230 1a 54 b0 3e 21 6c b6 be 2d 5b 88 be 74 2b e9 3e
       0.34439164 -0.3562937 -0.26632062 0.45540965
000240 48 d4 e8 3e 6b 7c 5e be fa eb b7 be 84 83 ee be
       0.45474458 -0.21727149 -0.35922223 -0.46584713
000250 06 f5 c9 be 89 b9 8e 3c 0a bc 54 3e 3b f1 97 3d
       -0.3944475 0.017422454 0.20774856 0.07419058
000260 98 ed 88 be df 54 36 3e 81 7b 3b 3d d9 88 a9 3e
       -0.2674377 0.17805813 0.04577208 0.3311222
000270 7e b3 e9 3e b0 cf 0e 3e fa 50 c9 be 00 52 ca 3e
       0.45644754 0.13946414 -0.39319593 0.39515686
000280 7d d2 ad be 39 51 32 3e 40 3d 5b bc f6 82 87 be
       -0.33949652 0.17413796 -0.013381302 -0.26467103
000290 1b a5 5e be 07 0f 9d 3e 6d 80 e5 3e 1c 06 b6 3e
       -0.2174267 0.30675527 0.44824544 0.35551536
0002a0 4d 56 e6 be 21 cb d4 3e 2d 5d b3 3e 1a d6 04 be
       -0.44987717 0.41561225 0.35032025 -0.12972298
0002b0 ff 55 22 be b3 33 ff bc ee 99 c5 be ef b2 01 3e
       -0.15853117 -0.031152582 -0.38594002 0.12665914
0002c0 13 72 90 3d 27 b3 fd be 43 7c ce 3e 3d b7 9c be
       0.07053008 -0.49550745 0.4032918 -0.3060855
0002d0 6c 12 8b 3e bb af 00 3f 4c f1 95 3e d6 51 51 be
       0.27162492 0.50268143 0.29285657 -0.20441374
0002e0 60 7b 79 be c4 f7 b2 be 4d d6 3f 3e ac a5 af 3e
       -0.2436347 -0.34954655 0.18734093 0.34306085
0002f0 f7 92 94 bc 9b 46 7d 3e 42 04 fc be c0 51 3e be
       -0.018136485 0.24733965 -0.49221998 -0.18585873
000300 66 c1 f9 be 00 a7 ab 3c 44 e2 64 be 28 ac b4 bd
       -0.48780364 0.020953655 -0.22351938 -0.08821899
000310 d0 36 cd bd 20 f7 90 3d d8 4a 9f bd 81 5d 5e be
       -0.1002022 0.07078385 -0.07777947 -0.21715356
000320 1f f5 82 3e ec 58 bc 3e 7c 5d c1 3e 38 2a dc be
       0.25577638 0.36786592 0.37766635 -0.4300096
000330 79 b8 b1 bd 92 3b 95 be a5 64 e3 3e 9a 4b 57 3c
       -0.086777635 -0.2914701 0.44412723 0.013140583
000340 f6 75 00 3f f7 40 b7 be 68 ab 90 3e 02 55 95 3e
       0.50179994 -0.35791752 0.28255773 0.29166418
000350 c9 aa 2e be c2 d0 b3 3e b5 10 ed bd 59 fc 9c be
       -0.17057337 0.35120207 -0.11575452 -0.30661276
000360 6b 4e 81 3e 7a 05 a5 be 65 56 34 be 76 9f 17 3e
       0.2525514 -0.3223074 -0.17611082 0.14806923
000370 ae 98 19 be 52 3a 90 3e e3 19 82 3d 8c 52 cb be
       -0.14999649 0.28169495 0.06352594 -0.39711416
000380 4b 4b de bd b3 f6 3b 3e 67 cd 67 3e 8c 56 bb 3e
       -0.10854205 0.18355827 0.22636949 0.36589468
000390 ea 0b 04 be bb 3c 56 bd dd c9 72 be be cb b1 3e
       -0.1289517 -0.05230401 -0.23709817 0.34725755
0003a0 63 b0 08 be b1 56 aa 3e 46 2b 05 3e 6a 0e de 3d
       -0.13348536 0.33269265 0.13004789 0.10842593
0003b0 1f f5 a6 3e 98 f1 7b be 07 70 1c be bf 73 82 bd
       0.32608888 -0.2460388 -0.1527711 -0.06369733
0003c0 5a da 7b 3e 1c 2f da be 72 b8 69 be 32 9d b4 be
       0.24595013 -0.42614067 -0.22824267 -0.3527618
0003d0 7a 80 ed be 2f 0f 22 3e 89 7f 32 3e f6 70 4e be
       -0.46387082 0.15826105 0.17431463 -0.20160279
0003e0 13 a4 ec 3e 2b 6f 50 be 84 9a 32 be a2 3c a9 be
       0.4621893 -0.20354907 -0.17441756 -0.33054072
0003f0 58 92 83 3e 24 f5 45 be 9f 8a d5 be 89 4c fa be
       0.2569759 -0.19331795 -0.41707322 -0.48886517

fc1.bias f4 [64]
000000 fa fd ec 3e d0 ce c3 bd 0d a3 17 be 53 b7 ca bd
       0.4628752 -0.09560931 -0.14808293 -0.098982476
000010 37 1a c8 3e 51 59 2a bd 4e ab a3 bd d4 54 d5 bc
       0.390825 -0.041589085 -0.07991658 -0.026041426
000020 08 97 ad be fa 4f f6 3e 5e 4d fa 3e c0 9d a8 bd
       -0.3390429 0.48107892 0.4888715 -0.082332134
000030 1c 5d 5e be 67 da 1c be f0 eb a9 3e 40 2c 34 bc
       -0.21715206 -0.15317689 0.3318782 -0.010996878
000040 18 0e 8a bd 7b 4f 2a bd 4b 66 a6 be 90 5d 96 3e
       -0.067409694 -0.041579705 -0.32499918 0.29368258
000050 36 55 e4 3d d6 98 e9 be 89 f6 88 be 18 b2 c3 bc
       0.11149065 -0.45624417 -0.2675059 -0.023888633
000060 74 8d 94 be a8 0a 46 3e 40 3f c7 be 8a 5c d3 be
       -0.2901417 0.19340003 -0.38915443 -0.4128154
000070 9d 0d 4e 3a b9 41 99 be af 5d c7 be 19 94 45 be
       0.0007860305 -0.29932955 -0.38938662 -0.19294776
000080 ac e6 d9 3e d6 e0 77 3c eb 66 c7 be 38 87 15 3e
       0.425588 0.015129289 -0.38945708 0.14602363
000090 7f 80 9d 3e b2 23 dc be d8 e1 cc be fb 30 97 be
       0.30762097 -0.42995983 -0.40016055 -0.29529557
0000a0 c2 23 98 3d 57 26 99 3e b4 71 27 3e bd c9 a1 be
       0.07428695 0.29912063 0.16351968 -0.31599227
0000b0 57 4d 3d be 5e db ca be b6 ea 8d be f5 e9 0f 3e
       -0.18486534 -0.3962049 -0.27718133 0.14054091
0000c0 90 66 55 bd 2c 0b a1 3d 9a cc 20 be 6d 8b d3 3d
       -0.052099764 0.07863459 -0.1570305 0.10329328
0000d0 f5 ae d3 be c0 b5 30 be 56 56 01 3e 4c 12 46 3d
       -0.4134442 -0.17256832 0.12630591 0.048357293
0000e0 e3 07 dd bd c7 be a9 be b2 f3 55 3e 5d 2c 48 be
       -0.1079252 -0.33153364 0.20893744 -0.19548173
0000f0 e2 8e 8b be 4c 96 d2 3e 55 7a 68 3e 85 85 c2 3b
       -0.27257448 0.41130292 0.22702916 0.005936327

fc2.weight f4 [64, 64]
000000 ca 17 80 bd 20 a7 c4 bd 1a fc 19 3c d1 fd 6d 3d
       -0.062545374 -0.09602189 0.009398485 0.058103386
000010 7c 59 f9 bd 32 a3 9a bc 61 d5 94 bd 70 a0 8d 3d
       -0.12175271 -0.018876646 -0.07267261 0.06915367
000020 d6 bd c6 3d 36 8d ce 3d 6c ad c4 3d f6 bd cc 3d
       0.09704177 0.100855276 0.0960339 0.0999717
000030 ab 78 e6 3d a4 64 b3 3d 78 c5 b3 3c 32 22 99 3d
       0.11253484 0.0875943 0.021944746 0.07477225
000040 c0 6a d0 bc 5a 70 c5 bd 75 32 bf bd 02 b8 04 3d
       -0.025441527 -0.0964057 -0.09335796 0.032402046
000050 4f 39 8b bc 38 0c 90 bc 00 e5 cd 3b 94 72 a4 bd
       -0.0169951 -0.017583951 0.0062834024 -0.080296665
000060 c4 ae 73 bd ae 78 9c 3d b8 44 fc bd 1e 9f f3 3d
       -0.05949284 0.07640205 -0.123177946 0.118955836
000070 b3 8d fa bd c1 bb da 3d f6 d0 35 3d 40 0d 44 bb
       -0.12234058 0.106803425 0.044388734 -0.0029915124
000080 81 38 83 bd c8 e1 69 3d f4 37 ea bd a4 54 8b bd
       -0.06407262 0.057100087 -0.114364535 -0.06803253
000090 76 cb 0a bd f0 7d 81 3d ba 22 cb 3d e6 cf f7 bd
       -0.03388544 0.06322849 0.09918733 -0.121002
0000a0 6c ec da bd 5b 82 fc 3d c3 a6 9f bd ce 3f cc bd
       -0.10689625 0.12329551 -0.07795479 -0.09973107
0000b0 68 fa bb bd 56 a2 1f 3d 80 d9 38 bb eb 70 10 bc
       -0.091786206 0.038973175 -0.0028205812 -0.008815984
0000c0 28 a4 f3 bd 60 3d 9a 3d 8e e7 65 3d 62 12 b3 bd
       -0.11896545 0.075312376 0.05612903 -0.087437406
0000d0 c6 49 4d bd 3e f3 c3 bc ba 0b 8c 3d e0 0a 16 bc
       -0.050119184 -0.023919698 0.06838174 -0.009157866
0000e0 43 65 9c bd c4 49 f2 3d eb 96 08 3d 15 dd b7 3d
       -0.07636502 0.11830476 0.03334705 0.08977715
0000f0 92 35 df bd d0 7d 6c 3c fc 0a f9 3d 0c f1 b1 bd
       -0.108988896 0.014434293 0.12160298 -0.08688554
000100 eb f1 ce 3d 86 2e a2 3d c1 b9 d6 bb 19 b8 96 3d
       0.10104736 0.0791903 -0.0065529053 0.073593326
000110 ff 77 f0 3d 5a 7a 10 3d 35 4c 62 bd 61 ab c2 3d
       0.117416374 0.035272934 -0.055248458 0.09505344
000120 48 10 4b 3c 00 6c c0 39 46 70 a9 bd 34 c2 98 bd
       0.0123940185 0.0003670156 -0.082733676 -0.07458916
000130 44 31 c1 3c b4 47 2a 3d 0f 76 74 3d 6c 3e e0 bd
       0.023583062 0.041572288 0.059682902 -0.10949406
000140 f4 53 b3 3d 75 3c 4f 3d 8b c1 c9 bc 0c 8f 8f 3d
       0.08756247 0.050594766 -0.024628421 0.07009706
000150 bd 78 c4 3d 80 a7 50 bd b4 9f 98 bd 93 e9 56 bb
       0.095933415 -0.05094099 -0.07452336 -0.003279303
000160 f0 72 aa 3d c0 2a 24 bb e0 b3 cf bc a8 86 e9 3d
       0.08322704 -0.0025049895 -0.025354326 0.11402637
000170 b2 69 7a 3d 6d e7 23 bd 5e 02 90 3d 5a fd cb bd
       0.061135955 -0.040015627 0.070317015 -0.09960432
000180 a5 52 a6 bd 74 8d 2a 3d b9 f4 de 3c 04 92 67 bd
       -0.08121232 0.041638806 0.027216302 -0.056535736
000190 42 d9 88 3d e8 c7 d2 bd 49 49 d9 bd 5a cf b8 bd
       0.06682064 -0.10292035 -0.10609681 -0.09023924
0001a0 1d 08 85 3d 03 39 7f bd f1 4d eb 3d 84 b7 d1 bd
       0.06495688 -0.06231023 0.114894755 -0.10240081
0001b0 ab eb cb bd 14 14 96 3d 6c 41 fc bd fd 1a 79 3d
       -0.099570595 0.07328048 -0.12317166 0.060816754
0001c0 06 48 b3 3d 5d 42 cc bc 3d 2a 87 bc 54 ec 93 3d
       0.08753972 -0.024933988 -0.016499633 0.072228104
0001d0 97 50 85 bd a0 1e 24 bc 80 67 9f bd 16 60 af 3d
       -0.06509512 -0.010017067 -0.07783413 0.08563249
0001e0 94 5e 99 3c 15 37 df bd af 79 9f 3b 94 50 5a 3d
       0.018721856 -0.10899178 0.0048668007 0.0532995
0001f0 1c af 98 bc a3 66 8a 3d e1 8e f1 3d 48 e0 aa 3d
       -0.018638186 0.06757858 0.1179483 0.083435595
000200 c6 08 ac 3d 34 3a bd 3d 9d 66 56 bd 2c 1d 69 bd
       0.08400111 0.09239617 -0.052343953 -0.056912586
000210 77 74 86 3d 1f 6b 37 bd e2 c5 a6 bd cd 95 c5 bd
       0.06565183 -0.044779893 -0.08143212 -0.09647713
000220 aa 5b f7 3d 10 2f 8c 3c 70 43 a2 3d 58 43 b3 3d
       0.120780304 0.017112285 0.07923019 0.08753079
000230 55 52 10 bd 0a 30 71 3d c9 be cd bb 74 97 f9 bd
       -0.035234768 0.058883704 -0.006278847 -0.121870905
000240 60 32 e8 bd f4 33 a2 bd ec bf df 3d 97 ed 5c bd
       -0.11337733 -0.079200655 0.10925278 -0.05393752
000250 87 a4 45 3c 40 7b 24 bd d4 1b 40 bc 37 19 9b bd
       0.012063152 -0.040156603 -0.011725385 -0.07573169
000260 e4 e7 4e 3d ae 9d 8a 3d 66 6b 8a 3d 5a ad d6 3c
       0.050514117 0.06768356 0.06758766 0.026205707
000270 f4 53 3f bd 70 ef d3 bd ee 47 96 3d 4b 97 db 3d
       -0.046710923 -0.103484035 0.07337938 0.10722216
000280 90 5f b9 bd f8 9c 20 3d 22 e1 a3 bd ab 91 d8 3d
       -0.0905143 0.039212197 -0.08001925 0.10574659
000290 8e 70 86 3d 2e d2 b0 3d a3 d1 3b bd ac 0f fd bd
       0.06564437 0.086338386 -0.045854222 -0.12356505
0002a0 d0 dc 61 3c d4 69 75 3d c6 ef 07 3d 84 d7 3a bd
       0.013785556 0.05991538 0.03318765 -0.045615688
0002b0 c9 9e bc ba bc d3 50 bd cc 51 ef 3d b6 07 8a 3d
       -0.0014390583 -0.050983176 0.116855234 0.06739752
0002c0 04 e7 48 bd da 5e b3 3d f7 3f 92 bd 3d 18 f1 3d
       -0.04904844 0.08758326 -0.071411066 0.11772201
0002d0 91 1e 51 bd d8 bb 92 bd c2 e1 a1 bd 0e 33 fa bd
       -0.05105454 -0.071647346 -0.07904388 -0.12216769
0002e0 fe 63 df bd a9 00 bc 3d 97 9c 4a 3d 5a 6f 3a 3b
       -0.10907744 0.091798134 0.049465742 0.0028447718
0002f0 88 3d d2 3d 66 df a1 bd c1 ca 4a 3d b9 0d bc 3d
       0.102656424 -0.07903938 0.049509767 0.09182305
000300 40 ca a9 bb 04 1d 8e 3d 21 4c a8 3d a2 1f 71 bd
       -0.005181581 0.06939128 0.082176454 -0.058868058
000310 fb 96 16 3d bd 62 57 bc e1 06 8e 3d d6 a6 ab 3d
       0.03676508 -0.0131461 0.06934906 0.08381431
000320 66 bd d5 bd 20 3a 95 3c b0 ba b9 3d ca c0 ac bd
       -0.104365155 0.018216193 0.09068811 -0.08435209
000330 05 14 bd 3d b4 cf 3d bd 6e 83 ca bc 9c 6f 41 bd
       0.09232334 -0.04634066 -0.024720874 -0.04722558
000340 5c 28 5d 3d 23 13 e8 bc 9d 9c 8b bd cb f6 aa 3c
       0.053993568 -0.028329438 -0.06816981 0.020869633
000350 20 06 a1 3d 7c 5f 82 3d 20 4f 0f bc c3 be 87 3d
       0.078624964 0.063658684 -0.008746892 0.06628182
000360 17 75 90 3d 80 5d c8 3d a0 8b 3f bd 23 14 b6 3d
       0.07053583 0.09783459 -0.046764016 0.088905595
000370 89 c7 a8 3c 02 2c ee 3c fe 4c 61 bd 78 95 dc bc
       0.020602958 0.029073719 -0.055005066 -0.026926741
000380 b8 35 21 3d 50 da 96 3d 1a b3 f5 3d f8 70 0c bc
       0.03935787 0.073658586 0.119970515 -0.008571856
000390 8a 61 5a 3d 08 4b 9e bd b9 96 53 bd e1 e4 ab bd
       0.053315677 -0.07729155 -0.051657412 -0.083932646
0003a0 7a 3f bd 3d 11 6a 4a bd b5 8a af bd 30 50 06 bc
       0.09240623 -0.04941756 -0.08571378 -0.008197829
0003b0 ec 76 3b b9 c6 c4 89 3d 32 80 84 bd 2f 6b e3 bd
       -0.00017878012 0.06726985 -0.06469764 -0.11104428
0003c0 c6 02 f1 bd 47 3b 98 3d f1 98 45 bd 1f 12 ba 3d
       -0.11768107 0.07433181 -0.04824156 0.090854876
0003d0 46 76 49 3c 62 06 1d 3d 60 96 9f bd 69 de 33 bd
       0.012296265 0.038336165 -0.07792354 -0.04391328
0003e0 97 f6 15 bd 14 a3 aa 3d 75 3d c9 3d fb b4 ba bd
       -0.03661212 0.08331886 0.09826175 -0.091165505
0003f0 7f 59 ea bc c8 7c eb 3c 89 d9 85 bd 99 c9 43 3d
       -0.028607128 0.028746024 -0.06535632 0.04779968

fc2.bias f4 [64]
000000 7d 11 f1 bd 99 ba 98 bd 4e ac e5 3d e2 5b e3 bd
       -0.11770914 -0.07457466 0.11214505 -0.1110151
000010 9a 3c f7 3d a6 7a 53 3c d6 8c fa bc b0 13 48 bd
       0.12072106 0.01290766 -0.030584734 -0.0488469
000020 c7 66 9a bc 45 95 d5 3d 35 10 57 bd 34 58 f1 3d
       -0.018847836 0.104288615 -0.05250569 0.117844015
000030 14 ff aa 3d 58 3c 9b 3c 8c 33 ab 3d 66 ae a6 bd
       0.083494335 0.018949673 0.08359441 -0.081387326
000040 94 ab 27 bd 29 ad 76 bd a9 eb d6 3d 3f 22 7c bd
       -0.040935114 -0.060223732 0.10494167 -0.061556097
000050 76 b8 30 bd ec e8 09 bd b3 f3 a2 3d 1f bb 07 3d
       -0.043144666 -0.033669397 0.07956638 0.033137437
000060 57 b2 5a 3b 2c d2 47 3b 80 c4 c2 3c 04 8b 16 3d
       0.003337046 0.0030490262 0.02377534 0.03675367
000070 d2 0a fa bd b7 58 ff bd 3e 8a 77 bd 0e 96 f2 bd
       -0.12209095 -0.12468093 -0.060434572 -0.11845027
000080 00 10 7f bd fd 3b f8 bd 1e 04 da bd 75 4e 80 3c
       -0.06227112 -0.12120817 -0.106453165 0.015662411
000090 01 60 e9 bd bb cd 83 3b e7 c9 93 bd b8 6c 3e bd
       -0.113952644 0.0040223277 -0.07216244 -0.0464904
0000a0 fb bf f5 3c 57 de 35 bd e8 5f 1a bd 9a d3 37 3d
       0.02999877 -0.044401493 -0.03768912 0.044879533
0000b0 d9 0b 69 3b 44 6f d3 bb e5 15 4e bc 12 e9 8d ba
       0.003556004 -0.006452473 -0.012578462 -0.0010826907
0000c0 4b 05 45 bd e5 94 a2 3d c6 8f c8 3d e9 dc 59 bd
       -0.04810075 0.07938556 0.097930476 -0.053189192
0000d0 72 a8 9a 3d 23 de 33 bd 04 fe b0 bd 6b 28 a9 bd
       0.0755166 -0.043913018 -0.086422 -0.08259662
0000e0 2a d5 85 bd 63 d7 df bd 40 28 84 3d 7d a3 e3 bd
       -0.065347984 -0.10929754 0.064529896 -0.11115167
0000f0 10 76 65 3c 51 60 cd 3b e6 50 c4 bd a9 6c 84 bd
       0.014005199 0.0062675853 -0.09585743 -0.06466038

fc3.weight f4 [6, 64]
000000 2a cf d0 3c c0 81 39 3c d8 20 ac bd 59 30 dd 3c
       0.025489409 0.011322439 -0.08404702 0.027000593
000010 49 47 d3 bd ca 40 a1 bd f9 9c 86 3c be f8 f0 bd
       -0.10316331 -0.07873686 0.016432272 -0.11766194
000020 a5 6e c3 3d 68 d6 00 3e fd 21 96 bd fe 94 cd 3d
       0.09542588 0.1258179 -0.073307015 0.10038184
000030 12 68 a6 3d c2 bb 97 3d ee 36 32 3c 5f 38 fe 3d
       0.081253186 0.07408859 0.010877354 0.12413096
000040 c0 10 3b bd 07 ea 6e bd 33 48 8b bd 0f 9a 80 bd
       -0.04567027 -0.058328655 -0.0680088 -0.06279384
000050 cd 47 a2 3d f4 14 c8 bd a5 43 15 3d 44 57 55 bc
       0.07923851 -0.097696215 0.036441464 -0.013021294
000060 3c 4e ed bd 73 22 0e bd ab 3a db 3d 44 dc a7 3d
       -0.11587188 -0.034700822 0.107045494 0.08196309
000070 22 32 ab bd 6b c2 aa bd eb 4c aa bc 3a 69 4d bd
       -0.083591715 -0.083378635 -0.02078863 -0.05014918
000080 75 13 97 bd 1b e8 f0 3d 47 80 ad 3d 25 73 0e bb
       -0.07376758 0.117630206 0.084717326 -0.0021736112
000090 b2 15 ed bd df 89 16 3d 66 03 26 bd d4 c2 80 3d
       -0.11576404 0.036752578 -0.040530585 0.062871605
0000a0 46 e4 98 3d 4b 52 a7 3c 2a d0 a1 3d 4d 95 2e 3d
       0.07465415 0.020424983 0.07901032 0.042622853
0000b0 b4 f9 f8 3d 41 6f 93 3d 81 7c cd bc 0a 42 ec bd
       0.12157002 0.071989544 -0.025083782 -0.115360335
0000c0 54 01 69 3c bd b3 63 3c 8d 35 48 3d c7 ea a4 3d
       0.014221508 0.013897833 0.048879195 0.08052593
0000d0 cc 7d 9e 3d 04 04 62 bd 77 20 ea 3d 0c 64 d6 bd
       0.077388376 -0.05517961 0.114319734 -0.10468301
0000e0 41 b6 80 3c 8c 6b dd 3d 39 f8 82 bb 6c 68 d1 bc
       0.015711905 0.108115286 -0.0039968756 -0.025562488
0000f0 38 d3 6a bd 45 c3 b1 3d c5 f1 77 bd 10 de ca bc
       -0.05733034 0.08679823 -0.060533304 -0.02476409
000100 62 e9 b5 bd 2d 3c 9c bd 68 f9 4a 3d 8e 5e eb 3d
       -0.08882405 -0.07628665 0.04955426 0.11492644
000110 a3 26 c5 3d 42 ff ca 3c 9b 08 97 3d 4a ea e4 3d
       0.0962651 0.02477992 0.07374688 0.111774996
000120 66 b4 94 bd b5 47 42 bd 1f ca fd 3d 84 1d 2c 3d
       -0.07260971 -0.047431666 0.12392067 0.042020336
000130 44 90 ca bd 20 90 5b 3c 3c 57 f6 bb 5f fa a2 3d
       -0.09890798 0.013401061 -0.0075177234 0.07957911
000140 58 51 c9 3d ab ee 9c 3d bd 45 23 bd 50 0e cc bd
       0.09829968 0.0766271 -0.03986143 -0.099636674
000150 e5 6f dd bc ec 43 58 3d 52 70 c4 bd 5a d9 3c 3c
       -0.027030895 0.05279915 -0.09591736 0.01152643
000160 87 e7 b8 bd 42 b9 bb 3b ca 95 6d 3d 44 f1 d1 bd
       -0.09028535 0.0057288716 0.058004178 -0.10251096
000170 4c 28 86 3d 23 80 7e bd 50 9d c1 3d e1 a7 26 3d
       0.06550655 -0.06213392 0.09453833 0.040687446
000180 ed 6f 29 3d d6 92 a9 3d 02 ed c3 3c ce e5 7a bd
       0.041366506 0.0827996 0.023916725 -0.061254315
000190 7a f9 9b 3d 21 b2 ec bb d5 03 80 bd 14 8d d7 bd
       0.07615943 -0.007223383 -0.06250731 -0.105249554
0001a0 ff a5 4d bd bf 0e 9c 3d 70 92 47 3d 0d f7 c0 3b
       -0.050207134 0.0762 0.048723638 0.0058888257
0001b0 c4 2b 86 bc 88 4a 91 3c 49 32 08 3d d1 eb 28 bd
       -0.016378291 0.017735735 0.03325108 -0.041240517
0001c0 a6 ec f0 3d 00 9f 48 3d 2e fd 34 3d fa e2 b9 bd
       0.11763887 0.04897976 0.044186763 -0.090764955
0001d0 a5 c1 45 bd 64 28 a7 3d c2 02 9f bd a7 8c f9 bd
       -0.048280377 0.08162001 -0.07764198 -0.121850304
0001e0 09 76 ac bd 14 d4 61 3d 94 0d d8 3d d9 9c ee 3d
       -0.08420951 0.055133894 0.10549465 0.1165101
0001f0 68 ac a0 3d f3 fa 53 3d a3 bb 79 3d f0 28 23 bd
       0.07845384 0.051752996 0.06096996 -0.039833963
000200 73 2d df bd 2e 6a f1 3d 8f 13 b7 bd 8e 97 af bd
       -0.108973406 0.1178783 -0.089392774 -0.08573829
000210 fb 58 31 3d aa d3 40 3d fe d6 cd 3d 58 97 b6 3d
       0.04329775 0.04707686 0.10050772 0.08915585
000220 5d 4b c2 bd a3 8d aa 3c 6b 6c bc 3d 0e 78 9f 3d
       -0.09487031 0.02081949 0.092003666 0.077865705
000230 be bf 37 3d c0 6e 24 3d ba 69 d2 3d db df 8d bd
       0.044860594 0.040144682 0.10274072 -0.06927463
000240 b0 20 84 3c 6a e5 9e 3d b5 a8 a8 3c c5 50 e6 bc
       0.016128868 0.07758601 0.020588258 -0.028114686
000250 de b9 8c 3d 74 81 4b 3d 22 3b b6 3d 42 eb eb 3c
       0.06871389 0.049684003 0.088979974 0.028798703
000260 32 75 2d 3c ea 7e c0 bd 77 25 57 3d 7c 69 5b bd
       0.010587024 -0.09399207 0.052525964 -0.053567395
000270 6a 48 62 bc fb f7 7a 3d 22 d3 26 3d 82 b5 ef 3b
       -0.01381121 0.06127165 0.040728696 0.0073153386
000280 c0 34 ef 3c 23 99 e1 3d 5b 3b 30 3d 1a 7d df 3d
       0.029199958 0.11015537 0.043025356 0.10912533
000290 87 09 d7 bd 6d 86 35 bd 38 69 a6 bc f6 b8 82 bd
       -0.10499864 -0.04431765 -0.020313844 -0.06382935
0002a0 c0 aa d6 bd b0 76 40 bc 28 6c fd 3c 03 d2 51 bc
       -0.10481787 -0.011747047 0.030935362 -0.012806418
0002b0 0a c7 12 3b 8c 94 73 3d 5a 8f 8d bd 97 4c c8 bd
       0.0022396469 0.059467837 -0.06912108 -0.09780233
0002c0 3c a5 50 ba a5 bc d1 3d 00 b5 96 bc 66 46 ee bd
       -0.0007959192 0.10241059 -0.018396854 -0.11634521
0002d0 10 1f 6c bd 2e 90 a1 bd bc 2e e6 3d 25 d9 50 bd
       -0.05764681 -0.07888828 0.112393826 -0.050988335
0002e0 a4 74 b2 bd 91 fc b0 3c eb 5a ab 3d 0e 70 e6 3d
       -0.08713654 0.021604808 0.083669506 0.112518415
0002f0 00 f1 df 3c a1 37 72 3d 16 de a1 3d b8 c2 8b bc
       0.027336597 0.059135083 0.07903688 -0.017060623
000300 75 c4 07 3d 31 eb 1b bd 05 3c 20 3d a3 e7 8e bd
       0.03314634 -0.038066093 0.03911974 -0.06977775
000310 7b c7 64 bd 9a 05 54 bd 68 5d 94 bc 74 7b db 3d
       -0.055854302 -0.051763155 -0.018110946 0.10716906
000320 31 f1 66 bd 40 00 59 3d dd 31 0a 3d f4 b7 fc bd
       -0.05638236 0.052978754 0.03373896 -0.12339774
000330 1d 55 05 3d 36 51 e3 3d 2b e7 f9 bd 39 32 c0 bd
       0.032551873 0.11099474 -0.12202295 -0.09384579
000340 e8 12 58 bd 21 22 87 3d b8 69 88 bc 19 1b a3 bd
       -0.052752405 0.065983064 -0.016651973 -0.07964153
000350 08 30 a0 3d c0 5c d5 bd 43 ab e2 3b 5e 36 81 bc
       0.07821661 -0.10418081 0.0069173886 -0.015772995
000360 0a bd 81 3d 28 9f ef 3d 2d 6f 1b bd 50 ae 90 bc
       0.063348845 0.117002785 -0.037947822 -0.017661244
000370 61 0b 93 3d 63 71 b2 3d f3 5c fe bc 98 f8 94 3d
       0.07179905 0.08713033 -0.031050181 0.07273978
000380 50 c5 d6 bc 21 d3 e8 3c 0d 5c 26 3d 84 09 8b 3d
       -0.026217133 0.028420987 0.04061513 0.06788924
000390 1b 3c d4 3d 6c df ce bc 1c 5a fd bc 44 2a f7 bd
       0.10363027 -0.02525302 -0.030926757 -0.120686084
0003a0 f9 49 04 3d 49 c1 26 3c 7e 3e 64 bd 29 f3 8b 3d
       0.03229711 0.010177919 -0.05572366 0.068334885
0003b0 4d 71 b1 3d 7f 8a d8 bd 2a ac 88 bd 12 e2 a4 39
       0.086641885 -0.10573291 -0.06673463 0.00031448953
0003c0 ed 64 f5 bd 1b f6 d9 3d 8e 71 a2 3d 70 29 d1 bd
       -0.11982141 0.10642644 0.07931815 -0.10212982
0003d0 c8 78 bb 3d 8d ae 7f 3d bc 6d ed 3d d6 64 eb 3d
       0.091538966 0.062422324 0.11593196 0.11493842
0003e0 9c 33 7f bd 54 52 82 bc b2 f2 90 bd e2 c2 a3 bc
       -0.062305078 -0.015908398 -0.070775405 -0.019990388
0003f0 b4 2a f1 bd 85 75 d7 bd 5f 77 25 bd d4 5d 2e 3d
       -0.11775723 -0.10520462 -0.040397044 0.04256995

fc3.bias f4 [6]
000000 4c 96 48 3d ce e5 91 3d c4 a4 d1 3d 19 f6 86 bd
       0.04897146 0.0712391 0.10236505 -0.06589908
000010 f0 a0 9f 3d 20 6d 12 3c
       0.07794368 0.00893715

fc1.weight f4 [64, 4]
000000 72 5b f5 be fc c8 24 be 10 59 f5 3e 18 e4 e0 be
       -0.4792133 -0.16092294 0.47919512 -0.43924022
000010 4c cd e8 be 38 a1 6d be 48 3b 0f be 30 dc 36 bd
       -0.4546913 -0.23206031 -0.13987458 -0.04464358
000020 48 23 2d be 3c d4 0a 3e 8e 57 92 3e b0 e6 cc bd
       -0.1690799 0.13557523 0.28582424 -0.10004938
000030 54 c6 78 be 4c 17 f0 3e dc 6f ae 3e b4 6a 90 be
       -0.24294406 0.46892774 0.34069717 -0.28206408
000040 6c cb 30 3e 18 4e 2d be d0 10 7d 3d 08 23 08 be
       0.172651 -0.16924322 0.06178361 -0.13294613
000050 00 1e c4 ba 38 ad e8 bd 32 59 e2 3e 3e ff 99 3e
       -0.0014962554 -0.11361164 0.44208676 0.30077547
000060 40 f0 f8 be 26 cf f4 3e 98 3d 7e 3e c0 24 94 3c
       -0.48620796 0.47814292 0.24828184 0.01808393
000070 b2 fa 84 3e 52 53 91 be 90 c9 06 bd 78 ce d7 bd
       0.25972515 -0.2838388 -0.03290707 -0.10537428
000080 26 ea a4 3e 48 03 38 be 56 28 da 3e 7a b9 da be
       0.3220989 -0.17970002 0.426089 -0.42719632
000090 bc f2 17 be 96 0a 96 be 30 6e 28 3d 1c 77 5b be
       -0.1483869 -0.2930495 0.041120708 -0.21432155
0000a0 0a 5b dc be 80 cb ff be 00 37 89 3e 00 81 6c 3c
       -0.43038207 -0.49959946 0.26799774 0.014435053
0000b0 b0 4d 45 be ba dc c4 be 66 4d c6 be 84 3c 33 be
       -0.19267917 -0.3844965 -0.38730925 -0.17503554
0000c0 78 85 01 3e e4 0c 02 3e d4 bf ff be 18 36 63 be
       0.1264857 0.1270023 -0.4995104 -0.22188604
0000d0 9c 48 38 be aa f3 9e be 4c 31 85 be 8e 6b bb 3e
       -0.17996448 -0.31045276 -0.26014173 0.36605495
0000e0 ac 23 02 3e cc ad 86 be 76 91 fe be 60 32 98 3c
       0.1270892 -0.26304471 -0.49720353 0.018578708
0000f0 40 00 e4 bc 44 18 5f be 64 84 4a be d0 07 16 be
       -0.02783215 -0.217866 -0.19777066 -0.14651418
000100 70 17 92 be fc eb 63 be e8 17 55 be 74 d4 b0 3e
       -0.28533506 -0.2225799 -0.20809901 0.3453709
000110 a4 d3 75 be bc 2d c3 3e 98 f1 c3 3d 2a 62 e5 3e
       -0.24006516 0.3812083 0.09567565 0.44801456
000120 bc 42 fb 3e d0 25 cc be 76 80 e8 3e ce cf cd 3e
       0.49074352 -0.398726 0.45410508 0.40197605
000130 3c f1 df 3e ec 84 be be 5c bc 4c 3e d8 bb 1b be
       0.43738735 -0.37210786 0.19993728 -0.15208375
000140 84 51 43 3e 58 ec d7 3d 2e 7a d4 3e b4 a5 c7 be
       0.19074064 0.10543126 0.41499466 -0.3899361
000150 dc 33 0d be b0 d9 50 be 1c 56 3e be 82 b1 df be
       -0.13789314 -0.20395541 -0.18587536 -0.43690115
000160 30 d4 fb be 7c 3a 26 be 90 19 6e 3e c0 af 04 3e
       -0.49185324 -0.16233248 0.23251939 0.12957668
000170 ae 6e e1 3e 20 07 e4 be 4c 95 52 3e d8 0f 51 3e
       0.44029754 -0.44536686 0.20564765 0.204162
000180 68 2a 7a 3e 00 b0 7d bb 98 70 6e 3e 30 c4 37 bd
       0.24430239 -0.003870964 0.23285139 -0.044864833
000190 8c dd 05 be 20 63 d5 bd 50 c5 d0 3d 0e 88 8d be
       -0.13072795 -0.10419297 0.101938844 -0.27642864
0001a0 3e 32 dc be 10 bd 44 be 94 1e f1 be a0 e2 09 bd
       -0.43007082 -0.19212747 -0.47093642 -0.033663392
0001b0 62 67 a6 3e ae 26 9a be d8 0e ec bd 7c ca b2 3e
       0.3250075 -0.30107635 -0.11526269 0.34920108
0001c0 e2 69 a6 be 82 0d dc 3e c8 90 89 be a0 d3 97 3c
       -0.32502657 0.42979056 -0.26868272 0.018533528
0001d0 e8 63 a2 be 38 43 d7 3e 7a e3 8e be 2a 5b 97 be
       -0.31716847 0.4204347 -0.27907926 -0.2956174
0001e0 40 a7 58 3c 30 83 85 3e e0 6a 32 bd 32 96 a8 3e
       0.013223469 0.2607665 -0.043558955 0.3292709
0001f0 68 e8 e6 be 30 1f 77 bd c8 1b 48 be 1c 11 04 3e
       -0.45099187 -0.060332477 -0.19541848 0.12897152
000200 0e 68 f3 3e 30 59 e3 3d d4 8c 3c be 0e 2c c3 be
       0.47540325 0.111009955 -0.18413097 -0.3811955
000210 34 1d a3 be a8 95 09 be e6 70 ed 3e 98 ae 98 3d
       -0.31858218 -0.13435996 0.46375197 0.07455176
000220 fa 13 8d be e4 5c 1a 3e 32 cc a5 3e e0 1d c6 3c
       -0.27554303 0.15074497 0.3238235 0.024184167
000230 0a 92 b1 3e 16 32 b5 be ac 1b 87 be 48 05 ea 3e
       0.3468173 -0.35389775 -0.263883 0.45707154
000240 d2 43 e7 3e c8 d8 61 be 7a 33 b9 be 2e 64 ef be
       0.4516893 -0.22055352 -0.36172086 -0.4675612
000250 f4 01 ca be 20 9b 8c 3c bc 9d 54 3e d8 6f 96 3d
       -0.39454615 0.017163813 0.20763296 0.07345551
000260 d4 af 89 be 7c ce 34 3e b0 23 39 3d f4 51 a9 3e
       -0.2689196 0.17656893 0.04520005 0.33070338
000270 b6 6a e8 3e fc f6 0c 3e 32 9d ca be 0e df ca 3e
       0.45393914 0.13766092 -0.39573056 0.39623302
000280 22 89 ad be f4 e2 32 3e 40 3d 5b bc 3c 8d 87 be
       -0.33893687 0.17469388 -0.013381302 -0.2647494
000290 48 9d 5b be 24 95 9e 3e 5e e5 e6 3e 6a 9f b6 3e
       -0.21446717 0.3097316 0.45096868 0.35668498
0002a0 5e f9 e4 be da 32 d6 3e 2c 9e b4 3e f8 64 04 be
       -0.44721502 0.41835672 0.35276926 -0.12929142
0002b0 08 b8 22 be c0 9e ff bc 38 a1 c5 be d8 75 01 3e
       -0.15890515 -0.031203628 -0.38599563 0.1264261
0002c0 78 2b 8e 3d 1a 18 fe be 68 f2 cd 3e cc 24 9d be
       0.06941885 -0.49627763 0.40224004 -0.30692136
0002d0 3c 78 89 3e 00 c1 ff 3e e2 5d 94 3e ec 41 53 be
       0.26849544 0.49951935 0.28977877 -0.20630616
0002e0 34 20 79 be 40 ba b2 be a4 63 40 3e 20 10 b0 3e
       -0.24328691 -0.34907722 0.1878801 0.34387302
0002f0 c0 2a 9c bc 74 9f 7c 3e 7a cb fc be 68 f8 3d be
       -0.019063354 0.24670202 -0.4937399 -0.1855179
000300 66 c1 f9 be 00 a7 ab 3c 44 e2 64 be 28 ac b4 bd
       -0.48780364 0.020953655 -0.22351938 -0.08821899
000310 20 86 ce bd c0 7b 8f 3d f8 6a a0 bd 50 4f 5e be
       -0.10084176 0.07006025 -0.07832903 -0.21709943
000320 82 0a 82 3e aa 72 bb 3e b8 cd c0 3e 78 1c dc be
       0.25398642 0.3661092 0.3765695 -0.4299047
000330 00 29 b0 bd c4 f6 94 be a0 d7 e3 3e 40 c1 63 3c
       -0.0860157 -0.29094517 0.44500446 0.013901055
000340 36 6f ff 3e 74 b8 b8 be ca 37 8f 3e 00 71 94 3e
       0.49889535 -0.36078227 0.2797225 0.28992462
000350 3c 49 31 be 98 78 b2 3e 30 ef ef bd b6 64 9d be
       -0.17313093 0.3485763 -0.11715543 -0.307409
000360 2a d1 80 3e 16 18 a5 be dc 02 35 be 0c 70 18 3e
       0.2515958 -0.3224494 -0.17676872 0.14886492
000370 b4 25 1b be 1a 28 8f 3e 18 f4 80 3d 90 73 cb be
       -0.15151101 0.27960283 0.06296557 -0.39736605
000380 f8 2a da bd c4 2c 3e 3e c0 a5 69 3e 14 d3 bb 3e
       -0.10652727 0.18571764 0.22817135 0.36684477
000390 ac 03 04 be 60 8f 54 bd 8c a5 72 be 32 f8 b1 3e
       -0.12892026 -0.051894546 -0.23695964 0.3475967
0003a0 80 3a 0b be d6 2a a9 3e f0 86 02 3e b0 94 dd 3d
       -0.13596535 0.33040494 0.12746787 0.108193755
0003b0 38 64 a5 3e 14 21 7f be 74 49 1f be 28 3b 81 bd
       0.32303023 -0.24914962 -0.15555364 -0.06310111
0003c0 60 55 7d 3e 96 86 d9 be d4 57 68 be 9e 86 b4 be
       0.24739599 -0.42485493 -0.22689754 -0.35258955
0003d0 8a 99 ed be 54 ad 21 3e 30 59 32 3e 84 c9 4e be
       -0.46406204 0.15788776 0.17416835 -0.2019406
0003e0 d2 fa ea 3e 18 b6 53 be c4 b0 35 be a0 e5 a9 be
       0.45894486 -0.20674932 -0.17743212 -0.33183002
0003f0 38 d1 84 3e 9c 7c 43 be 8a 80 d4 be 2e ed f9 be
       0.2594087 -0.19090503 -0.41504318 -0.48813766

fc1.bias f4 [64]
000000 ae 04 ed 3e d0 ce c3 bd 5c 2d 15 be 18 b3 d1 bd
       0.46292633 -0.09560931 -0.14568084 -0.102392375
000010 1c e2 c8 3e e0 54 30 bd c8 0a 9e bd 60 d1 c2 bc
       0.39235008 -0.043049693 -0.077169 -0.023781478
000020 f8 c4 ad be fa 4f f6 3e a8 ca fa 3e c0 9d a8 bd
       -0.33939338 0.48107892 0.4898274 -0.082332134
000030 38 a0 5b be e4 86 1d be 7a 7e a9 3e 40 2c 34 bc
       -0.21447837 -0.15383488 0.33104306 -0.010996878
000040 40 86 8c bd 30 7a 1e bd e2 80 a5 be 20 93 97 3e
       -0.06861544 -0.038690746 -0.32324892 0.29604435
000050 38 f2 e1 3d d6 98 e9 be 26 98 89 be e0 ec b2 bc
       0.11032528 -0.45624417 -0.26873893 -0.021841466
000060 9a 86 93 be a8 0a 46 3e 40 3f c7 be 8e 06 d2 be
       -0.2881363 0.19340003 -0.38915443 -0.41020626
000070 00 e2 91 ba 4e 91 99 be c8 03 c8 be 14 d1 45 be
       -0.0011129975 -0.2999367 -0.39065385 -0.19318038
000080 6c 73 d8 3e 40 8c 81 3c 5e 29 c7 be 84 13 18 3e
       0.4227556 0.015813947 -0.38898748 0.14851195
000090 72 cd 9b 3e 50 7e dc be 4c a0 cd be a4 3a 98 be
       0.3043018 -0.4306512 -0.4016136 -0.2973224
0000a0 50 46 99 3d d6 a8 9a 3e 14 3e 2a 3e 6c eb a1 be
       0.07484114 0.30206937 0.16625243 -0.31624925
0000b0 e8 9d 3e be 8a 80 cc be da 8d 8d be 64 07 0f 3e
       -0.18614924 -0.39941818 -0.27647287 0.13967663
0000c0 90 66 55 bd b8 9c 9f 3d 40 be 22 be 08 a2 d5 3d
       -0.052099764 0.077935636 -0.15892887 0.10431296
0000d0 82 34 d5 be dc 59 33 be 38 ed 00 3e 70 61 3d 3d
       -0.41641623 -0.17514747 0.12590492 0.0462355
0000e0 68 44 d8 bd 4c 9a a9 be 84 81 53 3e b8 4a 4b be
       -0.105599225 -0.33125532 0.20654875 -0.19852722
0000f0 9c d8 8a be 4a 67 d2 3e a0 20 65 3e 80 ef 09 3c
       -0.27118385 0.41094428 0.22375727 0.008418918

fc2.weight f4 [64, 64]
000000 ca 17 80 bd 20 a7 c4 bd f0 a9 1f 3c 34 8e 6e 3d
       -0.062545374 -0.09602189 0.009745106 0.058241084
000010 4c 24 f9 bd c0 02 98 bc 00 6e 94 bd 70 a0 8d 3d
       -0.12165126 -0.018555999 -0.07247543 0.06915367
000020 b0 07 c7 3d 36 8d ce 3d 6c ad c4 3d f6 bd cc 3d
       0.09718263 0.100855276 0.0960339 0.0999717
000030 08 7f e6 3d a4 64 b3 3d 78 c5 b3 3c 32 22 99 3d
       0.11254698 0.0875943 0.021944746 0.07477225
000040 c0 6a d0 bc 22 2e c5 bd 14 e8 be bd 80 2c 05 3d
       -0.025441527 -0.0962794 -0.09321609 0.03251314
000050 40 2e 8a bc 38 0c 90 bc 00 e5 cd 3b 5e 57 a4 bd
       -0.016867757 -0.017583951 0.0062834024 -0.080244765
000060 50 32 73 bd ae 78 9c 3d b8 44 fc bd 24 a4 f3 3d
       -0.059374154 0.07640205 -0.123177946 0.11896542
000070 00 7d fa bd 8c cb da 3d 1c 3b 36 3d 40 0d 44 bb
       -0.12230873 0.10683355 0.044489965 -0.0029915124
000080 c2 07 83 bd c8 e1 69 3d f4 37 ea bd a4 54 8b bd
       -0.06397964 0.057100087 -0.114364535 -0.06803253
000090 14 a3 0a bd f0 7d 81 3d ba 22 cb 3d b0 a5 f7 bd
       -0.03384693 0.06322849 0.09918733 -0.12092149
0000a0 6c ec da bd b8 d6 fc 3d 8c 36 9f bd ce 3f cc bd
       -0.10689625 0.12345642 -0.07774076 -0.09973107
0000b0 68 fa bb bd d0 17 20 3d 80 d9 38 bb b0 04 10 bc
       -0.091786206 0.03908521 -0.0028205812 -0.00879018
0000c0 28 a4 f3 bd 60 3d 9a 3d 54 61 66 3d 62 12 b3 bd
       -0.11896545 0.075312376 0.056245163 -0.087437406
0000d0 48 cd 4c bd c0 2b c3 bc ba 0b 8c 3d a0 0a 14 bc
       -0.05000046 -0.023824573 0.06838174 -0.009035736
0000e0 d0 14 9c bd c4 49 f2 3d 80 17 09 3d ea d3 b7 3d
       -0.07621157 0.11830476 0.033469677 0.08975966
0000f0 92 35 df bd d0 7d 6c 3c 5e 31 f9 3d 72 0b b2 bd
       -0.108988896 0.014434293 0.12167619 -0.08693589
000100 14 d7 ce 3d 86 2e a2 3d c0 7a c3 bb d4 0c 97 3d
       0.10099617 0.0791903 -0.0059655607 0.07375494
000110 5c b5 f1 3d 98 e6 10 3d d0 07 61 bd f4 ec c3 3d
       0.1180217 0.03537616 -0.05493909 0.095666796
000120 50 f4 51 3c 00 6c c0 39 46 70 a9 bd 34 c2 98 bd
       0.012814596 0.0003670156 -0.082733676 -0.07458916
000130 a8 73 c1 3c b4 47 2a 3d 2c 5e 77 3d 6c 3e e0 bd
       0.02361472 0.041572288 0.060392544 -0.10949406
000140 f4 53 b3 3d 38 b4 4f 3d b8 45 c5 bc f0 b5 90 3d
       0.08756247 0.05070898 -0.024081096 0.07065952
000150 7c fa c4 3d 80 a7 50 bd b4 9f 98 bd 00 e1 2d bb
       0.096180886 -0.05094099 -0.07452336 -0.0026531816
000160 d2 f6 aa 3d c0 2a 24 bb e0 b3 cf bc 1e a2 ea 3d
       0.083478585 -0.0025049895 -0.025354326 0.11456703
000170 44 9d 7a 3d 70 a1 23 bd e0 3f 90 3d 5a fd cb bd
       0.061185136 -0.03994888 0.07043433 -0.09960432
000180 2e f1 a5 bd 04 5f 2b 3d 38 fb e1 3c 20 9d 65 bd
       -0.08102642 0.04183866 0.02758561 -0.05605805
000190 a2 3d 89 3d e8 9e d3 bd d2 2d d8 bd 6e 80 b8 bd
       0.06701209 -0.10333043 -0.105556145 -0.09008871
0001a0 5e ac 86 3d 10 7b 7e bd 30 fa eb 3d 84 b7 d1 bd
       0.06575845 -0.06212908 0.11522329 -0.10240081
0001b0 7c ad ca bd 48 76 96 3d 10 aa fb bd 18 1d 79 3d
       -0.09896371 0.07346779 -0.12288296 0.06081876
0001c0 06 48 b3 3d 68 41 c7 bc 08 7b 85 bc 9c d5 93 3d
       0.08753972 -0.02432318 -0.016294017 0.07218477
0001d0 38 4e 84 bd d0 b0 22 bc 84 38 9e bd 5e a5 af 3d
       -0.064602315 -0.009929851 -0.07725623 0.08576463
0001e0 a8 b6 9a 3c c2 e9 df bd a0 4a a3 3b 00 f2 5c 3d
       0.018885925 -0.10933258 0.004983261 0.053941727
0001f0 30 ce 91 bc c8 dc 89 3d 0a fc f1 3d ae f9 ab 3d
       -0.017798513 0.06731564 0.11815651 0.08397232
000200 c6 08 ac 3d 34 3a bd 3d f4 8c 55 bd 2c 1d 69 bd
       0.08400111 0.09239617 -0.052136377 -0.056912586
000210 ca d5 85 3d fc 80 36 bd 72 48 a6 bd d2 30 c6 bd
       0.06534918 -0.044556603 -0.081192866 -0.096772805
000220 90 ce f6 3d 10 2f 8c 3c 4e e6 a2 3d 58 43 b3 3d
       0.120511174 0.017112285 0.079540834 0.08753079
000230 b0 d9 11 bd 28 93 72 3d 60 1d d7 bb 74 97 f9 bd
       -0.035607994 0.05922237 -0.006564781 -0.121870905
000240 4c 81 e7 bd 4e a7 a1 bd 5a b5 df 3d fc 1a 5e bd
       -0.11303958 -0.07893239 0.10923262 -0.054224953
000250 20 ef 40 3c 40 7b 24 bd d0 99 3a bc a4 4c 9b bd
       0.011775762 -0.040156603 -0.011389211 -0.075829774
000260 94 d6 4d 3d ae 9d 8a 3d 66 6b 8a 3d 88 cf d6 3c
       0.050253466 0.06768356 0.06758766 0.026222005
000270 c4 42 3f bd 70 ef d3 bd 86 d1 96 3d f2 b7 db 3d
       -0.046694532 -0.103484035 0.07364182 0.10728444
000280 d8 06 ba bd ec a5 21 3d e6 46 a3 bd 04 b3 d8 3d
       -0.090833366 0.039464876 -0.07972507 0.105810195
000290 de be 85 3d 7c 9c b1 3d 48 a2 3a bd 1a 1d fd bd
       0.06530546 0.08672425 -0.04556492 -0.12359066
0002a0 d0 dc 61 3c 84 7b 76 3d c0 b0 09 3d cc 83 3a bd
       0.013785556 0.060176387 0.033615828 -0.045535848
0002b0 00 26 db ba b4 14 52 bd bc f7 ef 3d b6 07 8a 3d
       -0.0016719699 -0.051289275 0.117171735 0.06739752
0002c0 04 e7 48 bd da 5e b3 3d 6c e0 92 bd 40 85 f1 3d
       -0.04904844 0.08758326 -0.07171711 0.117929935
0002d0 8c 70 51 bd d8 bb 92 bd 4e 12 a2 bd 0e 33 fa bd
       -0.051132724 -0.071647346 -0.079136476 -0.12216769
0002e0 74 d5 de bd a8 9c bc 3d e0 98 4b 3d c0 79 26 3b
       -0.10880557 0.09209567 0.04970634 0.0025402158
0002f0 ba 7e d1 3d 66 df a1 bd 08 7e 49 3d 5a 3b bb 3d
       0.10229249 -0.07903938 0.04919246 0.0914218
000300 40 ca a9 bb 04 1d 8e 3d b6 78 a7 3d 00 13 74 bd
       -0.005181581 0.06939128 0.08177321 -0.059588432
000310 54 54 13 3d 60 83 63 bc 96 2d 8d 3d 12 11 aa 3d
       0.035969093 -0.013886303 0.068934605 0.08304037
000320 60 7f d7 bd 20 3a 95 3c b0 ba b9 3d ca c0 ac bd
       -0.10522342 0.018216193 0.09068811 -0.08435209
000330 94 f5 bb 3d b4 cf 3d bd d8 04 ce bc 9c 6f 41 bd
       0.091777 -0.04634066 -0.025148794 -0.04722558
000340 5c 28 5d 3d d8 71 eb bc b4 55 8d bd 88 50 a4 3c
       0.053993568 -0.028740808 -0.06901112 0.020057932
000350 da 34 9f 3d 7c 5f 82 3d 20 4f 0f bc 14 12 86 3d
       0.077737525 0.063658684 -0.008746892 0.06546417
000360 56 b6 8e 3d 80 5d c8 3d a0 8b 3f bd 98 80 b4 3d
       0.069683716 0.09783459 -0.046764016 0.0881359
000370 b8 40 a5 3c b0 a3 ea 3c 84 7f 64 bd 78 95 dc bc
       0.020172462 0.028642505 -0.05578567 -0.026926741
000380 f0 f6 1d 3d 50 da 96 3d 16 e6 f4 3d 80 45 18 bc
       0.038565576 0.073658586 0.11957948 -0.009293914
000390 cc 55 57 3d 08 4b 9e bd b8 46 55 bd a2 75 ad bd
       0.052572057 -0.07729155 -0.052069396 -0.08469702
0003a0 7a 3f bd 3d a0 3f 4d bd f4 62 b0 bd 30 50 06 bc
       0.09240623 -0.050109506 -0.08612624 -0.008197829
0003b0 00 9c 3e ba f6 04 88 3d 32 80 84 bd 8e 46 e4 bd
       -0.00072711706 0.06641571 -0.06469764 -0.1114627
0003c0 c6 02 f1 bd 7e 0c 97 3d 50 24 49 bd e2 80 b9 3d
       -0.11768107 0.073754296 -0.049106896 0.090577856
0003d0 b0 db 3b 3c 68 1e 1b 3d 7a 03 a1 bd 14 46 36 bd
       0.011465952 0.037870795 -0.07861991 -0.044500425
0003e0 c0 d6 18 bd 14 a3 aa 3d b0 aa c7 3d bc 49 bc bd
       -0.037314177 0.08331886 0.09749353 -0.09193751
0003f0 90 25 ef bc c8 7c eb 3c 54 6e 87 bd d0 20 41 3d
       -0.029192716 0.028746024 -0.0661284 0.047150433

fc2.bias f4 [64]
000000 36 d7 f0 bd 54 80 98 bd 0c cf e5 3d d6 ec e4 bd
       -0.11759798 -0.07446352 0.11221132 -0.11177985
000010 da 3f f7 3d 70 72 7e 3c 58 5d ee bc b0 13 48 bd
       0.120727256 0.015530214 -0.029097244 -0.0488469
000020 e0 dd 83 bc 72 13 da 3d 40 cf 63 bd 34 58 f1 3d
       -0.01609701 0.1064824 -0.05561757 0.117844015
000030 52 9b aa 3d 58 3c 9b 3c 4e 4e b0 3d ea 1f ac bd
       0.08330406 0.018949673 0.086086854 -0.084045246
000040 94 ab 27 bd 94 26 7f bd 8e 72 d5 3d 4c e7 71 bd
       -0.040935114 -0.06229265 0.1042224 -0.059058473
000050 5c 92 33 bd ec e8 09 bd 56 22 a2 3d a0 bd 09 3d
       -0.04384075 -0.033669397 0.07916705 0.033628106
000060 e0 24 b3 3b 00 80 b5 b7 c0 cf ac 3c c0 c0 16 3d
       0.0054670423 -2.1636486e-05 0.021095157 0.036804914
000070 e0 e4 fa bd 44 4e fe bd 28 0e 70 bd 7e f3 f3 bd
       -0.12250686 -0.12417272 -0.05860725 -0.11911677
000080 8e bc 85 bd 2c fe fe bd 1a 5d df bd b0 d8 7e 3c
       -0.065301046 -0.12450823 -0.109064296 0.015554592
000090 ca de ef bd a0 50 a3 3b 84 2f 8e bd b8 6c 3e bd
       -0.117124155 0.0049839765 -0.06942657 -0.0464904
0000a0 50 fa df 3c 90 87 42 bd 4c de 0f bd 0c 19 2b 3d
       0.027341038 -0.047492564 -0.03512411 0.041771933
0000b0 00 19 c9 3a c0 f6 d4 bb 10 b9 21 bc 80 81 c4 3a
       0.0015342534 -0.0064991415 -0.0098707825 0.0014992207
0000c0 64 45 45 bd 3c 9f 9d 3d d4 28 c5 3d 44 0f 5a bd
       -0.04816188 0.07696387 0.09626928 -0.053237215
0000d0 58 e4 94 3d e0 5f 40 bd c6 ae ad bd 22 4d a7 bd
       0.072701156 -0.046966434 -0.08480601 -0.08169009
0000e0 28 65 83 bd 82 51 df bd d6 d0 88 3d 56 64 ea bd
       -0.064157784 -0.10904218 0.06680457 -0.11444919
0000f0 10 76 65 3c 80 35 8f 3b 66 78 c9 bd 80 87 84 bd
       0.014005199 0.0043703914 -0.09837417 -0.06471157

fc3.weight f4 [6, 64]
000000 80 8d cd 3c 10 c0 11 3c 02 12 ae bd a8 aa d4 3c
       0.025091887 0.008895889 -0.084995285 0.025960281
000010 f0 8b d4 bd aa bb a5 bd a0 c6 79 3c be f8 f0 bd
       -0.103782535 -0.08092435 0.01524511 -0.11766194
000020 7a 7c c0 3d a0 38 ff 3d 3c 63 9b bd fe 94 cd 3d
       0.09398742 0.12461972 -0.07587287 0.10038184
000030 c4 ca a1 3d c2 bb 97 3d e0 08 11 3c 4a 12 f9 3d
       0.079000026 0.07408859 0.008852214 0.121616915
000040 c0 10 3b bd 38 1e 73 bd 0a f7 8d bd 68 dc 84 bd
       -0.04567027 -0.05935499 -0.069318846 -0.06487352
000050 8e d2 a0 3d f4 14 c8 bd 5c c5 0e 3d b0 28 6b bc
       0.0785266 -0.097696215 0.034856185 -0.014352962
000060 90 39 f1 bd 4c 5c 18 bd 32 30 d6 3d 44 dc a7 3d
       -0.11778557 -0.037197396 0.10458411 0.08196309
000070 6a c7 ac bd a4 bb af bd 08 08 bf bc f0 87 4e bd
       -0.08436473 -0.085807115 -0.02331926 -0.05042261
000080 ea 50 9c bd 9a 87 eb 3d da ae aa 3d 80 f8 24 bb
       -0.07632621 0.11500473 0.083341315 -0.0025172532
000090 72 03 f2 bd d4 03 15 3d 84 95 2c bd d4 c2 80 3d
       -0.118170634 0.036380604 -0.042134777 0.062871605
0000a0 f0 d4 93 3d 68 3b 91 3c 7a 8d 9d 3d ac 87 24 3d
       0.07218349 0.017728522 0.07693 0.04016845
0000b0 56 94 f5 3d b2 21 93 3d 88 43 e1 bc 84 73 ee bd
       0.119911835 0.07184161 -0.027498022 -0.116431266
0000c0 20 0c 68 3c 90 77 3d 3c c4 5c 3e 3d 20 a0 9f 3d
       0.014163047 0.01156415 0.046475187 0.07794213
0000d0 c8 80 99 3d 68 db 6c bd 60 17 e5 3d 40 e2 d8 bd
       0.07495266 -0.05782643 0.11186099 -0.10590029
0000e0 40 71 78 3c 30 e0 db 3d 20 1b d0 bb 30 09 e6 bc
       0.01516372 0.1073612 -0.00635089 -0.028080553
0000f0 38 d3 6a bd 48 1b ad 3d 2a ad 81 bd 10 de ca bc
       -0.05733034 0.08452469 -0.063318565 -0.02476409
000100 48 14 b8 bd aa 44 a2 bd 74 e3 46 3d 20 6b e8 3d
       -0.08988243 -0.07923253 0.04855676 0.113485575
000110 30 1c c3 3d 28 12 b4 3c 96 3d 94 3d 4a ea e4 3d
       0.09526861 0.021981314 0.07238309 0.111774996
000120 ce 94 98 bd d8 fa 49 bd d0 86 f7 3d 84 1d 2c 3d
       -0.07450257 -0.04931149 0.1208626 0.042020336
000130 58 7c d0 bd 20 90 5b 3c e0 dd 21 bc f2 b3 9c 3d
       -0.10179967 0.013401061 -0.009879559 0.07651509
000140 58 51 c9 3d ec 59 9a 3d f4 91 29 bd 2c bc d0 bd
       0.09829968 0.075366825 -0.041398957 -0.10192141
000150 48 99 e3 bc ec 43 58 3d c8 80 c8 bd 20 53 22 3c
       -0.027783051 0.05279915 -0.09790188 0.009907514
000160 72 a6 bd bd c0 29 1f 3b e8 2c 61 3d 44 f1 d1 bd
       -0.092602625 0.002428636 0.054974467 -0.10251096
000170 0a e7 83 3d 80 3d 85 bd ee 3e bc 3d 98 c7 24 3d
       0.064405516 -0.06505871 0.091916904 0.04022941
000180 dc b1 1c 3d 64 f8 a2 3d 50 9d b7 3c f0 70 7b bd
       0.038255557 0.07957533 0.02241388 -0.061387002
000190 9e 02 96 3d b0 3e 02 bc cc a2 84 bd 14 8d d7 bd
       0.07324718 -0.007949516 -0.064763635 -0.105249554
0001a0 b4 18 5a bd a4 27 96 3d 3c 67 3c 3d 40 af 3a 3b
       -0.053246215 0.073317796 0.04599689 0.0028485805
0001b0 38 3e 96 bc 88 4a 91 3c f0 e7 f9 3c f4 33 2e bd
       -0.018340215 0.017735735 0.030506104 -0.042530015
0001c0 26 f5 ef 3d d4 32 3c 3d bc c6 28 3d 90 af bf bd
       0.1171668 0.04594691 0.041205153 -0.09359658
0001d0 f0 27 52 bd 6c b0 a0 3d ce 0a a5 bd b4 95 fc bd
       -0.05130762 0.0784615 -0.080587015 -0.12333241
0001e0 ae 0d ae bd ac 5c 5c 3d ee 6a d2 3d 58 14 e8 3d
       -0.08498703 0.053799316 0.102743015 0.11332005
0001f0 68 ac a0 3d ec 5b 48 3d 68 5b 6c 3d f0 28 23 bd
       0.07845384 0.04891579 0.05770436 -0.039833963
000200 7c ab de bd 40 75 f2 3d 42 21 b8 bd be 58 b0 bd
       -0.10872552 0.1183877 -0.089907184 -0.08610676
000210 64 d0 33 3d 08 87 43 3d 62 4b ce 3d 58 97 b6 3d
       0.04389991 0.047736198 0.10072972 0.08915585
000220 30 0f c1 bd 18 8a b6 3c d8 56 bd 3d 0e 78 9f 3d
       -0.09426725 0.022282645 0.0924508 0.077865705
000230 bc 90 3a 3d c0 6e 24 3d 22 92 d2 3d 2a be 8c bd
       0.045548186 0.040144682 0.10281779 -0.068722084
000240 b0 20 84 3c 1e 10 9f 3d f8 29 9e 3c c0 fc e4 bc
       0.016128868 0.07766746 0.019307122 -0.027952552
000250 ae a2 8c 3d 74 81 4b 3d 52 d3 b3 3d 78 a5 e5 3c
       0.06866966 0.049684003 0.087805405 0.028033003
000260 30 c8 49 3c 2c b0 bf bd 10 90 59 3d 7c 69 5b bd
       0.012315795 -0.09359774 0.053115904 -0.053567395
000270 10 b1 5a bc 14 69 7d 3d 60 13 25 3d 20 28 e8 3b
       -0.013347879 0.06186779 0.04030168 0.0070848614
000280 b0 40 f2 3c 28 9a e2 3d 74 dc 2b 3d d0 0e df 3d
       0.029571861 0.11064559 0.041958287 0.10891497
000290 c6 c0 d5 bd d8 14 32 bd 00 d0 a5 bc f6 b8 82 bd
       -0.10437159 -0.04347691 -0.020240784 -0.06382935
0002a0 0a 8d d5 bd f0 da 53 bc 04 5d 01 3d b0 2e 48 bc
       -0.10427292 -0.012930617 0.031582847 -0.012218162
0002b0 c0 8f 1a 3b 8c 94 73 3d ac 1e 8e bd fc 58 c9 bd
       0.0023584217 0.059467837 -0.06939444 -0.098314255
0002c0 80 3d a6 ba 32 7e d3 3d b0 67 90 bc 8a 8e ee bd
       -0.0012683123 0.10326804 -0.017627567 -0.11648281
0002d0 a8 cf 69 bd f4 d0 a0 bd 14 12 e7 3d 24 5e 53 bd
       -0.057082802 -0.07852355 0.11282745 -0.05160345
0002e0 b4 c0 b0 bd c8 95 b1 3c 32 1d ac 3d a2 30 e9 3d
       -0.08630505 0.021677867 0.08404006 0.11386229
0002f0 00 f1 df 3c 90 63 75 3d e2 44 a2 3d b8 c2 8b bc
       0.027336597 0.059909403 0.079232946 -0.017060623
000300 14 4e 05 3d 88 68 27 bd ac 71 1c 3d 0a 4c 92 bd
       0.032545164 -0.040871173 0.038194343 -0.071434096
000310 e0 59 66 bd c8 18 5f bd c0 ab a1 bc 74 7b db 3d
       -0.056238055 -0.054466993 -0.019735217 0.10716906
000320 f4 5d 6d bd 14 94 52 3d 00 68 fc 3c f4 b7 fc bd
       -0.05795093 0.05141075 0.03081131 -0.12339774
000330 a8 9f f3 3c 36 51 e3 3d a0 18 fe bd d2 3a c6 bd
       0.029739216 0.11099474 -0.124070406 -0.09679188
000340 e8 12 58 bd 1a 6f 84 3d 38 66 92 bc 6e 25 a8 bd
       -0.052752405 0.064665034 -0.017871007 -0.08210264
000350 a4 cc 9e 3d c0 5c d5 bd 40 68 ab 3b 38 46 8d bc
       0.07753876 -0.10418081 0.0052309334 -0.017245397
000360 28 3a 7b 3d 2c b7 e8 3d 3c 49 27 bd 50 ae 90 bc
       0.06133476 0.11363062 -0.040841326 -0.017661244
000370 76 ee 91 3d 34 c4 ac 3d 68 a5 09 bd 3c 38 94 3d
       0.07125561 0.0843586 -0.03360501 0.07237288
000380 a0 d3 ee bc 30 f9 ce 3c 48 c2 20 3d ac 67 8a 3d
       -0.029153645 0.025265306 0.03924778 0.06758055
000390 08 50 ce 3d 58 a6 d3 bc c0 83 07 bd 44 2a f7 bd
       0.100738585 -0.025836155 -0.03308463 -0.120686084
0003a0 48 32 f0 3c 60 ba f6 3b cc 11 6f bd c6 d2 85 3d
       0.029320851 0.007529542 -0.05836658 0.065343425
0003b0 50 15 ad 3d b2 b9 d8 bd ee e3 8d bd 00 20 a2 ba
       0.08451331 -0.105822936 -0.0692824 -0.0012369156
0003c0 e4 16 f6 bd b4 eb d3 3d 52 90 9c 3d 08 e1 d6 bd
       -0.12016085 0.10347691 0.076447144 -0.1049214
0003d0 9c 93 b5 3d 08 3f 73 3d 7c af e7 3d 4c e0 e8 3d
       0.08866045 0.059386283 0.11312768 0.11370906
0003e0 0a 27 81 bd 20 b6 8b bc 90 7a 96 bd e8 e1 bc bc
       -0.06306274 -0.017054617 -0.07347596 -0.02305694
0003f0 b4 2a f1 bd 08 6a dd bd 1c 16 32 bd d4 5d 2e 3d
       -0.11775723 -0.108112395 -0.043478116 0.04256995

fc3.bias f4 [6]
000000 e4 23 3e 3d dc bd 8b 3d ae fc d0 3d 66 d4 8c bd
       0.046420947 0.06823322 0.10204445 -0.06876449
000010 12 7e 99 3d 20 ec d7 3b
       0.07494749 0.0065894276
