saved_models/dqn_best_model_episode_18.pt (torch, 87115 bytes, 24 tensors)

fc1.weight f4 [64, 4]
00000000: b039 85be 9aa9 e0bd 4c71 cf3e f1e4 66be
00000010: 35be 17be b053 75be 55cd 983e 65e4 213e
00000020: dbf0 e73d de0d d63e 55e9 a4be ec0e c33d
00000030: 24c0 313d 7264 93be 088c eebe 42c8 c4be
00000040: bc43 033c 9da9 65be fe21 e23e a5b2 843d
00000050: b923 9bbd b095 c53d ac39 723e 26d1 69bd
00000060: f21e 4fbd 57a4 e63c 6c9d 013e 66a8 4dbe
00000070: 3de6 b93d 0bdf c6be 3da3 6f3d ce5a fdbe
00000080: 7ac3 8b3e 1ba7 9abe edd1 c63e 888c cbbe
00000090: 0efd 95be 985d 9ebe d090 ae3d a02b 28bd
000000a0: ccf1 da3e 0da7 d33e 77fa f1be 36cb c8be
000000b0: b7b3 243e 12ba b8be 8e25 d6be dff2 893e
000000c0: ede1 1cbe 0713 953e 44ec 78bd 7173 943e
000000d0: 5298 d43e bc74 fd3e 7659 f1be 25be f33e
000000e0: 9f38 e53e 3137 cebe 62dd d43e 6644 023d
000000f0: ddb8 f53d 72f9 25be 0003 f4be e766 8f3e
00000100: ea1b b03e f514 86be b3ea a13d 32a4 a13b
00000110: b088 e83e 1706 50be e141 713e 1e23 cfbe
00000120: 2622 aa3d cd88 9d3d 4fd4 dd3e 9812 0bbe
00000130: 5863 84bc df64 d5bd eaee 9fbd 2418 973e
00000140: 202b f0bd 3864 aabe 7d89 873e 94d1 bebd
00000150: 87b5 5b3d 6c78 d0be 901d 4fbe 5a28 83be
00000160: ea2c 95be ccaa b8be 68ce debe 2653 e4be
00000170: 3864 85be d5bb 6d3e 0138 edbe d020 77be
00000180: 27c4 7f3e f194 b93d 10a4 d43e 13ab 9b3e
00000190: f060 ba3e 30c0 213d 432d 313e 1d9c dfbe
000001a0: 8e28 9d3e 05ef ec3d 795e debe 2bc8 a03e
000001b0: bc1e 2fbe 60ae a23d 26c7 d0be cedd e3be
000001c0: 385d 22be cc24 4fbe dc03 1e3e 40b5 51be
000001d0: 31c7 57be cabc d6be a562 143a 83f0 8c3e
000001e0: 6357 26bc 2af6 b6be 516f 933e 1030 18be
000001f0: 8510 8e3e 2497 97bd dafd 10be 9e7a 1f3e
00000200: 64fc ff3d 091a 5abe c081 f3bd e55f 1bbe
00000210: 5a4a e4be fe65 f43e 6b99 ee3e f962 213e
00000220: e565 863e ee5b e13d 0f1c a9be ed39 dabe
00000230: 448e 91be 5666 e13e 09be 54be 460e 9c3d
00000240: 44c3 99be 70b3 f6be cef1 d03e 751e d03e
00000250: e2ff 68be 51a9 79be 1915 acbd cb90 793e
00000260: 9215 803d 588d df3e e15d 993d 29d2 ae3e
00000270: af99 18be 251a 463d 4516 c7bd 4381 be3e
00000280: af3f e0be 0666 b9be ed8b d23d 927f 9d3e
00000290: 2ea1 b13e a889 d8bd 7553 cfbe 83ad 913d
000002a0: 9c9e a4be 5edc abbe 8027 82bd c874 8abd
000002b0: c4a1 37bd 7091 b33d 4139 8c3e d705 2d3e
000002c0: 1263 b23d 395b a43d cfa8 edbe 8fb1 b33e
000002d0: 8f00 8b3d 74b4 1c3e 2a1b ca3e 71d4 90be
000002e0: 700c fd3e 2b05 2fbd 9c50 a23e f541 eebb
000002f0: e6cb e93d b047 893e 72e5 e3be f4d8 cf3e
00000300: 91a9 58be 1d1e aa3e 238a 3b3e 3861 d6be
00000310: 87e1 d63e ab53 033e e6f9 f3be 33a9 973e
00000320: c27c 2d3e 8407 1bbe a709 863e 6ba4 febe
00000330: a25f 073e 7c09 953e f440 58be 4324 0e3c
00000340: 1387 6c3d 0ffc 893e d8b2 e83e b72d ff3e
00000350: f2e9 a13e cd76 6fbe a41f c8be 7466 cdbe
00000360: 4939 e63b 6861 b1bd bccb cabe 835a 8e3d
00000370: df76 c53e 1746 b63e 9acb 5d3e bc6e f2be
00000380: 2f7c 703e 49e0 1b3e e712 e1be f792 91be
00000390: 96c2 b23e 80c2 e13e 222f 6ebe df47 353d
000003a0: 869a e8be 58ef 72be 64bd 5e3e a440 c9be
000003b0: 6414 0c3c 4bcf f03d cdb0 d63e 75d8 fcbd
000003c0: c860 6e3c a64a 633e d691 fabe 0d67 d73e
000003d0: 2f83 d2be 44aa 913e 081d d53e 3a10 dcbe
000003e0: d3bf e53e 757c e93e e855 acbe b71f 1a3e
000003f0: 8812 2dbd 6447 f83e 89c3 e3be 03f0 cabd
-0.26020575 -0.10969849 0.40516126 -0.22548272 -0.14818652 -0.23957705 0.29844156 0.15809782
0.113252364 0.41807455 -0.32209268 0.095243305 0.04339613 -0.2878757 -0.4659121 -0.38434035
0.008011755 -0.22427984 0.4416656 0.06479386 -0.07575173 0.09647691 0.23654813 -0.057084225
-0.05056662 0.028154535 0.12657708 -0.2008377 0.090771176 -0.38842043 0.058505286 -0.4948334
0.27297574 -0.30205616 0.38832036 -0.39755654 -0.29294628 -0.3093078 0.085237145 -0.04105723
0.427626 0.41338387 -0.47261402 -0.39217538 0.16084181 -0.3607946 -0.41825527 0.26943108
-0.15320559 0.2911608 -0.060772195 0.28994325 0.4152246 0.49503124 -0.47138566 0.47606006
0.4476976 -0.40276483 0.41575152 0.03180351 0.119981505 -0.16208437 -0.4765854 0.28008196
0.34396297 -0.26187864 0.079060934 0.0049329037 0.45416784 -0.20314823 0.23560287 -0.4045648
0.083072945 0.07692108 0.4332604 -0.13581312 -0.016160652 -0.1041963 -0.07809241 0.29510605
-0.117269754 -0.33279586 0.26472083 -0.093173176 0.053639915 -0.40716875 -0.20226121 -0.25616723
-0.2913583 -0.36067808 -0.4351685 -0.44594687 -0.26053023 0.23216183 -0.4633179 -0.2413361
0.2497717 0.090616114 0.4153142 0.30403957 0.36402082 0.039489925 0.17302422 -0.43673792
0.30695003 0.11569027 -0.43431452 0.31402716 -0.17101568 0.07943416 -0.40776938 -0.4450516
-0.15855873 -0.2022888 0.1543116 -0.20479298 -0.21072079 -0.4194091 0.0005660451 0.27527246
-0.010152671 -0.35734683 0.28795865 -0.14862084 0.27746978 -0.07401875 -0.14159337 0.15574118
0.124993116 -0.21298994 -0.11889982 -0.151733 -0.44587976 0.47734064 0.46601424 0.15760411
0.26249614 0.11003862 -0.3302922 -0.4262232 -0.28428853 0.4402339 -0.20775618 0.0761991
-0.30031788 -0.48183775 0.40809482 0.40648237 -0.22753862 -0.24380995 -0.084024616 0.2437164
0.06254114 0.43662524 0.07488609 0.34144714 -0.14902376 0.048364777 -0.097210445 0.37207994
-0.43798587 -0.3621065 0.10280595 0.3076139 0.34693283 -0.10573131 -0.4049336 0.07113173
-0.3215226 -0.33566564 -0.0635519 -0.067605555 -0.044832006 0.087679744 0.2738743 0.16896759
0.087103024 0.08025212 -0.46417853 0.35096404 0.06787216 0.15303212 0.3947385 -0.2828708
0.49423552 -0.042729538 0.31702125 -0.0072710463 0.11415844 0.26812506 -0.4451099 0.4059521
-0.21158434 0.332261 0.18314414 -0.41871047 0.4196894 0.12824886 -0.47651595 0.29621276
0.16942123 -0.15139586 0.2617924 -0.49734816 0.13220075 0.29108799 -0.21118528 0.008675638
0.057746004 0.26950118 0.45448947 0.49839565 0.316238 -0.23385163 -0.3908664 -0.40117228
0.007025872 -0.08661157 -0.39608562 0.069508575 0.38567254 0.3560035 0.21659699 -0.4735011
0.23484872 0.15222277 -0.43959734 -0.28432438 0.34914082 0.44093704 -0.23260167 0.044257995
-0.45430392 -0.23724115 0.21751934 -0.3930713 0.008549783 0.11758288 0.41931763 -0.123459734
0.014549442 0.22196445 -0.4893939 0.4207081 -0.4111571 0.28450215 0.41623712 -0.4298113
0.44872913 0.45602766 -0.3365929 0.15051161 -0.042254 0.48491967 -0.4448512 -0.0990906

fc1.bias f4 [64]
00000000: d774 e63e a7f1 733e 702e c73d b192 d7be
00000010: 5421 dcbe e7f4 19be ee84 293e defb 64be
00000020: 3f05 f9be c6d0 adbe 907c dcbd fa91 5ebc
00000030: 38ad a93e 7885 b33d 6d2e c1bd 0432 47be
00000040: 963d 33bc c2ad 9f3e 929d 983e 5d5c 193e
00000050: cf72 34be f7be d1be 4212 d03e 8f06 eebe
00000060: 8033 d83e 7f07 83be 5f01 ed3e fc65 cabe
00000070: 302e 8dbd e233 e2be 5581 eabe 7cb9 a93e
00000080: 1cf4 c13c bb22 e6be 45a2 ae3e c371 ad3e
00000090: 8a53 073c 8dbd d13d 48c1 47be 6ff4 c43d
000000a0: c36d 6dbe c0b6 e2be e040 b1be db23 223d
000000b0: 10c2 93be 684f c13e 38af 98be 7030 2bbe
000000c0: 3bcd 493e c5d7 1abd 54e5 1cbe 76cd cebe
000000d0: 2cbf d43c 6f97 96be ae93 03be feda 1a3e
000000e0: 7fdf 1cbe 415a cabe 907d 92be 31e7 6ebd
000000f0: ce38 d9be c1c5 ee3d 81e6 26be 75be 8a3e
0.45011017 0.23822652 0.09725654 -0.42104104 -0.42994177 -0.15034829 0.16554615 -0.22361705
-0.48636815 -0.33948344 -0.10765946 -0.013584608 0.33139968 0.087656915 -0.09432683 -0.19452673
-0.010939976 0.31187254 0.29807717 0.1497664 -0.17621921 -0.40966007 0.4063893 -0.4648938
0.4222679 -0.25591657 0.4629011 -0.39530933 -0.06893575 -0.44180208 -0.45801798 0.33149326
0.02367597 -0.44948372 0.34108177 0.33875856 0.008259663 0.10241232 -0.19507325 0.096169345
-0.23186402 -0.44280052 -0.34619808 0.039584976 -0.28858995 0.37755895 -0.2982118 -0.16717696
0.19707195 -0.03780343 -0.15321857 -0.4039113 0.025970064 -0.2941241 -0.12849304 0.15122601
-0.15319632 -0.39521983 -0.28611422 -0.05832595 -0.4242615 0.11658812 -0.16298868 0.27098432

fc2.weight f4 [64, 64]
00000000: 76ef 903d a0a2 26bd 844a 15bd 5a2f f23d
00000010: 9acb d33d 7cd6 cc3d 485a fe3c 82ff eabd
00000020: a454 75bd 3a58 fd3d 1892 b4bc 989d f03d
00000030: 9abd ffbd d06b 93bd f21b c43d bc14 2fbd
00000040: 6c50 5fbd 40fe e0bb d43e f9bd f6fb 823d
00000050: 4801 bdbd 4ea8 a1bd 8890 08bd 3433 3abd
00000060: 4aae f9bd b62b 9abd b804 50bd 10ed debc
00000070: 1cbe 9ebd 0e8a bd3d 4899 92bd 9e5e 81bd
00000080: f636 c23d e259 c1bd a0ae 87bd 9434 1f3d
00000090: e87e 9abc ccfa af3d acfc e1bd c26b ac3d
000000a0: 50c9 763d 4074 0dbd e820 aa3d f88a 2ebd
000000b0: 34a0 c2bd 44e8 fe3d 3473 e53d 60bd e23d
000000c0: 84da 613d 7877 f4bc 5c42 1dbd 407b fd3b
000000d0: 30eb b1bc e4a3 473d bcba 41bd 54f2 23bd
000000e0: c031 aabd 3c53 383d c0e8 cc3c fc0d c23d
000000f0: ded6 e9bd 90d2 ddbd b4e2 a1bd 40d4 81bb
00000100: 9313 513d e03f 323d c31f e0bd 7441 6e3d
00000110: 441d 8ebd 94d9 8e3d d313 673d a022 f7bc
00000120: f4a4 2bbd 4a1a 973d 534d 463d 0844 4b3d
00000130: ab6b e83d d6e9 fbbd b129 833c f6fe ddbd
00000140: 1b6d c2bc 2f3b bcbd 82a9 cfbd 4cd7 573d
00000150: d400 bdbd 8831 dcbc 2c7e 8e3d 9c4d 843d
00000160: bd05 123d 0f8b 56bc 5678 4bbd 8025 06bc
00000170: 0c49 273d 6474 54bd 98d6 fe3c 1d4d 9cbc
00000180: 2810 cabd 1fd4 5bbd 28ab ecbc 223a 89bd
00000190: 0089 f43b 2027 9a3d 7eae f53d dc0d ec3b
000001a0: bc55 52bd bbd0 8a3c 0880 d0bd fc4d b2bd
000001b0: ddf6 f13c 0f32 17bd 8e5d 0abd 0ebe bebb
000001c0: db6c 9d3d bb7c 3abd e999 54ba b36b 433c
000001d0: e4ac 71bd 6860 54bd f2f4 973d 2d7e 4e3d
000001e0: c9e8 883d ffd7 f43d 001e f139 7a71 96bc
000001f0: 51d3 3abd 2934 21bd 0dd5 da3c ec32 df3d
00000200: b079 383c 40f4 03bd c06b 8d3d e68f dcbd
00000210: ec30 bf3d e069 9bbb 9610 f3bd 1c01 2c3d
00000220: 50c4 bdbd 0818 68bd 00d7 15ba b08a 223d
00000230: 74c1 983d e0b0 e4bd 7424 773d 008a f139
00000240: 0c1c 063d 40ff eebd 504d 7a3c 14ca 763d
00000250: ce6a aa3d 6eb8 8abd 8c5a 69bd 8e45 aa3d
00000260: c2b8 a63d ce8a eebd d69d a2bd 34ba 643d
00000270: f054 34bd 403f 4b3d c0e2 763b 16f5 e8bd
00000280: a035 d5bc 84e4 66bd b85d cfbd 0008 713a
00000290: 5e87 b33d 1c7c c6bd 8412 99bd 74e4 653d
000002a0: 604f 54bc b825 b53d ecea dcbd 2832 b4bd
000002b0: c8f0 d13d b65c 98bd 5096 143c 96ee e5bd
000002c0: f6cf debd c856 49bd 407a 063b 9089 e3bc
000002d0: 3283 dabd b200 9d3d f0d7 12bd 0603 82bd
000002e0: 8c22 9abd ae47 d73d b83a e7bc 0059 d63b
000002f0: 9a9b 9ebd 1048 833c 4403 5c3d 64c8 07bd
00000300: 47e7 f9bc e82f 603d 8d5e cdbc f423 41bd
00000310: ddd2 9b3b 29fe fc3d d1af f3bc 307b 363d
00000320: bc21 b23d e8c7 f33c ac96 d63c f1d3 023d
00000330: 245c b5bd 9120 c63d 240d babd 17be d3bc
00000340: dddc 94bd f084 cabd 1479 1abd b56b b1bc
00000350: 1026 d53d 6667 893d a03e 0cbc b9f5 bd3b
00000360: 2161 8f3c da5c 8bbd f426 36bc a0a4 ec3b
00000370: 9051 fbbd 9833 34bd 1c40 593d c9cd 12bd
00000380: f4e4 f7bd 7e55 bb3d adbb bebd 5f03 7c3c
00000390: 19c2 3cbd bc0a 843d d5c2 a4bd 6eae ff3d
000003a0: 9177 b33d 233a c8bd 1ae2 aabd 7145 d2bc
000003b0: d70b bc3d 1016 bbbd d6fd ccbd b685 16bd
000003c0: 1392 4b3c 78fa c8b9 d0f3 01bd 913d 86bd
000003d0: 822e b43d 37f2 9e3d d8d2 8ebd ee06 533d
000003e0: 4b21 19ba 50d0 cf3d 785d 5bbd a376 c53d
000003f0: 5cf1 34bd 48e8 813d 8c28 f33d deb4 0e3d
0.070769235 -0.040682435 -0.036448017 0.11825438 0.10341568 0.10001847 0.031048909 -0.114745155
-0.059895173 0.123703435 -0.02204232 0.117488086 -0.124873355 -0.07198298 0.09575643 -0.042744383
-0.054520056 -0.0068662465 -0.12170187 0.06395714 -0.0922876 -0.0789343 -0.03334096 -0.045458987
-0.12191446 -0.075278684 -0.05078575 -0.02721265 -0.07751104 0.092548475 -0.07158142 -0.06316875
0.09483139 -0.09440972 -0.06625104 0.0388685 -0.018859342 0.085927576 -0.110345215 0.08418991
0.06025058 -0.034534693 0.083070576 -0.042613 -0.095032126 0.12446645 0.11203614 0.11071277
0.055140033 -0.029842123 -0.038393363 0.00773564 -0.021718591 0.048740283 -0.047297224 -0.040026024
-0.0831027 0.045001253 0.025013328 0.094753236 -0.11417936 -0.10831177 -0.07904568 -0.0039620697
0.051044058 0.043517947 -0.10943558 0.05816789 -0.06939176 0.069750935 0.05641539 -0.030167878
-0.04190536 0.07378061 0.048413586 0.049625427 0.11348661 -0.1230046 0.016011091 -0.108396456
-0.023733666 -0.09190976 -0.10139753 0.052695557 -0.092286736 -0.026879087 0.06957659 0.06460115
0.035650004 -0.013094678 -0.04967531 -0.008187652 0.040841147 -0.05186881 0.031108186 -0.01907974
-0.09866363 -0.05366909 -0.028890207 -0.06700541 0.0074626207 0.07526994 0.11996172 0.0072038006
-0.051351294 0.016945234 -0.1018067 -0.087062806 0.029536659 -0.036912974 -0.033780627 -0.005820996
0.07686778 -0.04552911 -0.00081100926 0.011927533 -0.059002772 -0.051849753 0.074197665 0.0504133
0.06685025 0.119552605 0.00045989454 -0.018364657 -0.045611683 -0.039356384 0.026712919 0.108983845
0.011259481 -0.032215357 0.06905317 -0.10769634 0.09335503 -0.004742846 -0.11868398 0.041993245
-0.09265959 -0.056663543 -0.00057159364 0.039683044 0.07458773 -0.11166549 0.0603375 0.0004606992
0.03274159 -0.11669779 0.015277222 0.06025131 0.083211526 -0.067734584 -0.056971118 0.08314048
0.081407085 -0.11647569 -0.07940261 0.05584164 -0.044026315 0.049620867 0.0037671775 -0.113748714
-0.026026547 -0.056370273 -0.10125297 0.00091946125 0.087660536 -0.09691641 -0.07474235 0.056126073
-0.012958378 0.08845085 -0.10786995 -0.08798629 0.102510035 -0.07439558 0.00906904 -0.11227147
-0.10879509 -0.049155027 0.0020519644 -0.027775556 -0.10669555 0.07666148 -0.035850465 -0.06348233
-0.075261205 0.10511719 -0.028226241 0.0065413713 -0.077445224 0.016025573 0.05371405 -0.03315009
-0.03050579 0.054733187 -0.0250695 -0.04715343 0.0047553615 0.12353165 -0.029746922 0.044551075
0.086978406 0.029758409 0.026194893 0.031940404 -0.08855465 0.0967418 -0.090845376 -0.025847478
-0.07268689 -0.09888637 -0.037713125 -0.021657804 0.104076505 0.06709175 -0.008559853 0.0057971147
0.01750237 -0.068048194 -0.011117686 0.0072217733 -0.12271416 -0.043994516 0.053039655 -0.035840783
-0.12104216 0.09147166 -0.0931314 0.015381663 -0.046083543 0.0644736 -0.08044974 0.12484442
0.0876304 -0.09776714 -0.08343907 -0.025667878 0.09181946 -0.091350675 -0.10009353 -0.03674861
0.0124249635 -0.00038333586 -0.03172666 -0.065547116 0.08797933 0.077610426 -0.06973809 0.05152028
-0.0005841448 0.10147154 -0.053555936 0.09641769 -0.04417549 0.06343132 0.11872968 0.034840457

fc2.bias f4 [64]
00000000: b8f9 58bd d785 903d e82d 5dbd 3f99 9bbd
00000010: 97af 973c ef37 f33d 9859 ccbd 4029 a63c
00000020: ed88 a0bd 4542 963b 28ce 0d3d c0c7 c4bd
00000030: dcd9 b43d 3418 c63c 261d c13d e7f1 5fbd
00000040: 3be3 46bc d19a c4bd 9a5e ae3c e37f bfbc
00000050: 2b47 73bc 8367 013d e988 813d 3725 3c3b
00000060: 8daa ff3d 5402 1ebc 2066 b73d fa26 de3d
00000070: ca38 f6bd 4e5e abbd e4c2 d2bd 9029 f73d
00000080: cf96 f2bd 2d6e af3d c160 433c fc2c eebd
00000090: d320 acbd 1776 f13d 551d 783d 1f2a 10bd
000000a0: a3b8 35bd b99f 0d3d ca60 993d e008 f8bd
000000b0: ae8f 2d3d 2da5 c1bd 52a0 783d 40da 7cbc
000000c0: 1df2 d13d ca3b e7bd cd20 ce3c 9b04 46bd
000000d0: 30f9 edbd 32d6 9bbd a2a7 8abd 19d1 0f3d
000000e0: 0505 9b3d f7bf e43d e3f0 afbc 40e4 02bc
000000f0: c9d1 5fbd de66 c7bd a2d4 853d 15b4 09bb
-0.052972525 0.07056778 -0.053998858 -0.07597589 0.018516345 0.11875903 -0.09978026 0.020283341
-0.078386165 0.0045855367 0.034620434 -0.09608412 0.08830616 0.024181463 0.09429388 -0.054674055
-0.012139137 -0.095998414 0.021285344 -0.02337641 -0.014848511 0.031592857 0.06324942 0.0028708705
0.12483702 -0.00964411 0.08955026 0.10847278 -0.120225504 -0.083675966 -0.10291079 0.12068474
-0.11845171 0.08565936 0.011924923 -0.11629674 -0.08404698 0.11790102 0.06057485 -0.03519642
-0.044365536 0.03457615 0.07489164 -0.12111068 0.04237335 -0.09455333 0.06069977 -0.015432894
0.102512576 -0.11290701 0.025162125 -0.048344236 -0.11619794 -0.07609214 -0.06770255 0.03511152
0.07569317 0.11169427 -0.021477168 -0.007988989 -0.054643426 -0.09736417 0.06534697 -0.0021011878

fc3.weight f4 [6, 64]
00000000: 7828 b93c ac4a b33d d837 9dbc 91b2 a3bd
00000010: de26 aebd ba00 7f3b 6832 76bd 2aaf 87bd
00000020: a11d 4abd 3666 f0bd dc9d 8fbd a3b2 5b3d
00000030: 2df1 083d 331a 06bc a87b d53a c01b dbbd
00000040: 00e1 d33d f2a9 603b b874 a13d a373 f1bd
00000050: 86aa 9f3d 17aa d23d 347e e63d db7d 2cbd
00000060: d36f e4bd 798b aabd d44f 83bd bb03 fa3d
00000070: a442 b73d 4c26 c03d 2d62 e83c 5d4b f2bc
00000080: ea0f 12bc c9f8 aa3d 13e6 b4bd ab8a 05bd
00000090: 3a55 a6bd bb23 d3bc 2a0d 843d a342 aebd
000000a0: bab5 4a3d 4028 c63d 1b74 d6bd a706 30bc
000000b0: a83f 6ebd b7a2 cfbd a23f 083d 1e50 f13d
000000c0: 78e7 96bc 2cc3 75bd 1c46 e4bc 7cd4 07bd
000000d0: 4bf3 38bb 2341 e03d f0ba 243c 8404 5c3b
000000e0: 21cf 2a3d fa24 cebc b3b9 fdbd 18c8 fe3d
000000f0: ce87 ddbd 4736 8c3d 1cc6 b2bc 84b7 a63d
00000100: b8dc ffbc 4165 03bd c8d9 9cbd 07f3 b13d
00000110: 82ee f5bd 41f3 94bd f63b 9f3d cb17 033d
00000120: 4e18 f9bc ff89 7f3d f4cd cdbc 2846 023d
00000130: 94d3 9bbd 3e91 dd3d 195b c93d f5f1 3dbd
00000140: 233f ce3d 778c a6bc 7710 0dbd 0d2a e93d
00000150: 2cf6 813d f8f3 24bd 34a7 4bbd 3987 e53d
00000160: 4dd7 d33d 585c fabc db34 d7bc c199 93bc
00000170: 6cde d3bd 2b52 f3bd c38b 833d e5f4 cfbd
00000180: ab34 7c3d 7785 c03d b186 7abd 3de4 c0ba
00000190: 595c af3d caae a1bd 7d83 17bd 21dd 0f3d
000001a0: 4297 83bc fce9 95bd 0cdf debd de88 e33d
000001b0: 3def b83d c06d ad3c 4583 aabd 2c9e 2bbd
000001c0: aedd f13b c4dd e93d 87dc 8fbd c251 453b
000001d0: cf3c f9bd eec5 17bd b00d fd3d c9b0 a6bc
000001e0: bc6c d23b 08ec 0a3d 7875 243d b3e2 f83d
000001f0: 612c b8bd 9424 80bb 36a5 253d d71b 653d
00000200: 286a b6bd 2168 c7bd bc5c 503d d0fc 1cbd
00000210: 10ba 613d e463 15bd cf77 c93d 51aa 893d
00000220: 10e4 9bbd 6d4c f2bc 0cd8 483d 801c bdbc
00000230: acde 333d 11e0 6bbc ad4b f33d d84d f9bd
00000240: 6941 68bd 6fc7 653c 49bd a73d cc35 a6bd
00000250: d463 1d3d 96de 17bd 07e8 6cbc 44b3 94bd
00000260: 6f39 b6bd 88bc 8bbd d894 1e3d d7e2 523d
00000270: 2ac1 8fbd f6d7 1abd 8076 c5bb c976 ca3d
00000280: 0573 9dbd d0ef 973c 76a2 263c 69ac 40bd
00000290: 3697 fbbd 38c6 fdbd cb6d 053d 9ff5 f93b
000002a0: f953 673d 261e cdbd 47ec a43d f2ad a1bd
000002b0: 74ae 753d 1504 d7bd 23bb 723a 2885 1cbd
000002c0: 3c42 083d 70c1 4abd 733d d0bd 7a5d 683d
000002d0: 0952 6b3d 9188 a43d 50e1 53bd b440 95bd
000002e0: f01d 1dbd 1e19 07bd a690 9dbd 0cf3 8c3d
000002f0: f291 dcbd 43cb 29bd 934c ebbd 40e5 42bd
00000300: 283a cabc 8515 bebd deae efbd 264b c53d
00000310: 38b9 c23c 8506 d03d db06 b2bd 6a86 c8b9
00000320: de87 d63d 5a89 8abd 16a5 853c fca9 d1bd
00000330: 094f d03d 2797 843d 65a4 67bc 3471 983d
00000340: cec4 82bd a179 bd3c 141b 243d 4073 4f3d
00000350: e02f 87bc 706d f53d ad4b d6bd 9e30 5fbd
00000360: f8d3 f93c 666b 80bc e872 1abd 723c e23d
00000370: 1035 c13c 1b65 263d 3c1d e4bd dbe6 9b3d
00000380: 4223 bebd d632 dbbd adf9 8bbd f195 8dbd
00000390: fc09 943d 79ab b53d 1655 53bd f05a 783d
000003a0: d3be a7bd 3f15 bc3d 2693 bdbd 1f23 ccbd
000003b0: f06a 63bd 9002 1e3c 3e31 e23c e01b 7ebd
000003c0: c012 2fbb 10af fa3d 9ef1 923c eb38 bc3c
000003d0: 14a5 50bd 9f50 9cbd 4425 4a3d 4be3 103d
000003e0: 8074 2ebd f6ab 8c3d 8c22 adbd f047 7fbd
000003f0: ddf1 bebd a2b1 63bd 34d8 c6bc 16c2 afbb
0.022602305 0.08754477 -0.019191667 -0.07993043 -0.08503507 0.0038910345 -0.060106665 -0.06625207
-0.049344663 -0.11738245 -0.07012531 0.053637158 0.03343313 -0.008184957 0.0016287463 -0.10698652
0.1034565 0.0034280983 0.078835905 -0.11789634 0.07796197 0.10286348 0.1125454 -0.042112213
-0.11154141 -0.083273835 -0.064117104 0.12207743 0.089482576 0.093823045 0.028367126 -0.029576952
-0.008914927 0.08348233 -0.08832946 -0.032602947 -0.081217244 -0.025773874 0.06447823 -0.08508804
0.049489714 0.09675646 -0.10471364 -0.010743774 -0.058166176 -0.10138457 0.03326381 0.11782859
-0.01842092 -0.060000584 -0.027865462 -0.033161625 -0.0028221186 0.10949924 0.010054335 0.0033572027
0.04170144 -0.025164116 -0.12388935 0.124405086 -0.10816918 0.0684629 -0.021822982 0.081404716
-0.031233177 -0.032078985 -0.07658726 0.08688932 -0.120083824 -0.072729595 0.077751085 0.032005113
-0.030407097 0.062387463 -0.02512262 0.031805187 -0.07608715 0.108187184 0.098318286 -0.046373326
0.10070636 -0.02033065 -0.03443953 0.11384974 0.06345782 -0.04027173 -0.049720004 0.11207432
0.103438 -0.030561611 -0.02627032 -0.018017652 -0.10345158 -0.11880907 0.06423142 -0.10154132
0.061573666 0.094004564 -0.061163608 -0.0014716458 0.08562536 -0.078946665 -0.03699063 0.035122994
-0.016063336 -0.073200196 -0.108823866 0.1111009 0.09030006 0.021170497 -0.08325819 -0.04189889
0.0073811626 0.114192516 -0.07024484 0.0030108546 -0.121698014 -0.037053995 0.12356126 -0.02034797
0.0064216536 0.033916503 0.04015109 0.121526144 -0.089928396 -0.0039106105 0.04044076 0.055934753
-0.089069664 -0.09736658 0.05086969 -0.03832704 0.055109084 -0.036472216 0.09837305 0.067219384
-0.07611859 -0.029577458 0.049034163 -0.023084879 0.04391353 -0.014396683 0.118796684 -0.12173051
-0.056703005 0.014024599 0.081904 -0.0811573 0.03842528 -0.03707751 -0.0144596165 -0.07260755
-0.08897673 -0.06823069 0.038716167 0.051485863 -0.07019265 -0.037803613 -0.006026089 0.09885938
-0.07687954 0.018546969 0.01017057 -0.047039423 -0.122847006 -0.12391323 0.03257541 0.0076281573
0.056476567 -0.10015516 0.08052879 -0.078945056 0.059980825 -0.104988255 0.0009259453 -0.038212925
0.03326629 -0.049500883 -0.101679705 0.05672977 0.05745128 0.080338605 -0.051728547 -0.07287732
-0.03835863 -0.032982938 -0.07693605 0.06882295 -0.10770024 -0.04145361 -0.11489215 -0.04758191
-0.024685934 -0.09281448 -0.11703275 0.09633474 0.02376996 0.101574935 -0.08692714 -0.0003824712
0.10475133 -0.06764479 0.01631407 -0.102375 0.10171325 0.064741425 -0.014138316 0.07443467
-0.06385194 0.023129286 0.040064886 0.05064702 -0.01650232 0.11983764 -0.10463653 -0.054489724
0.030496582 -0.015676212 -0.03770724 0.11046685 0.023584872 0.040623765 -0.111383885 0.076123916
-0.09284069 -0.107030556 -0.06834731 -0.06913365 0.07228467 0.088705964 -0.051594816 0.0606336
-0.08190694 0.0918374 -0.09256582 -0.09967636 -0.055521905 0.009644166 0.027611371 -0.062038302
-0.0026714057 0.12240422 0.017937478 0.02297636 -0.05093868 -0.07632565 0.049351946 0.035373013
-0.04259157 0.068687364 -0.08453855 -0.062324464 -0.093234755 -0.055589326 -0.024273016 -0.005363713

fc3.bias f4 [6]
00000000: e895 233d ca23 8d3d 3397 663d bb3d cd3d
00000010: ca4a c2bc 21c6 ec3d
0.039937884 0.06891592 0.05629654 0.1002154 -0.023717303 0.115612276

fc1.weight f4 [64, 4]
00000000: e034 85be 10c5 e0bd 1c76 cf3e 54db 66be
00000010: 44c4 17be 105f 75be 74c8 983e 9cd5 213e
00000020: c89e e73d defb d53e e2fc a4be d8fe c23d
00000030: a09e 313d 7264 93be 088c eebe 42c8 c4be
00000040: 80da 053c 4884 65be f035 e23e b8fa 843d
00000050: a0c3 9abd 90f5 c53d 1868 723e 00c0 69bd
00000060: 0097 4ebd 80dd e73c 009f 013e 6cb1 4dbe
00000070: 08c1 b93d 10e4 c6be 205f 6f3d ce5a fdbe
00000080: 20c7 8b3e 78a9 9abe 4ad7 c63e 868a cbbe
00000090: 0efd 95be 985d 9ebe d090 ae3d a02b 28bd
000000a0: 0605 db3e 8aba d33e 02ea f1be 10bf c8be
000000b0: 10a6 243e 6aba b8be 4c32 d6be c6fb 893e
000000c0: ec07 1dbe caff 943e 606e 79bd 4471 943e
000000d0: deaa d43e f083 fd3e 304b f1be d8c8 f33e
000000e0: 1c49 e53e fe28 cebe aae8 d43e 9087 023d
000000f0: 08b5 f53d 6807 26be 8a0c f4be 0458 8f3e
00000100: 7c03 b03e 4c2d 86be 588b a13d 0057 9c3b
00000110: be72 e83e a432 50be a41e 713e 7c33 cfbe
00000120: 48c6 a93d 202e 9d3d 10bd dd3e 9c0b 0bbe
00000130: 0062 85bc a08b d5bd c838 a0bd ec0b 973e
00000140: 203e f0bd 3864 aabe ba84 873e a8e4 bebd
00000150: 00d7 5b3d 6c78 d0be 901d 4fbe 5a28 83be
00000160: ea2c 95be ccaa b8be 68ce debe 2653 e4be
00000170: 405d 85be d4c9 6d3e d02b edbe d020 77be
00000180: a4a9 7f3e c04a b93d 18aa d43e b4bc 9b3e
00000190: be6a ba3e 80df 213d d43c 313e 809a dfbe
000001a0: 9a40 9d3e e84d ed3d 7247 debe 8ad0 a03e
000001b0: bc1e 2fbe 60ae a23d 26c7 d0be cedd e3be
000001c0: 385d 22be cc24 4fbe dc03 1e3e 40b5 51be
000001d0: 1cbd 57be 6cc2 d6be 008c 213a 2aea 8c3e
000001e0: 80bf 24bc 2af6 b6be 687c 933e b818 18be
000001f0: 30fe 8d3e 58dd 97bd 481c 11be 687d 1f3e
00000200: 1c11 003e 040d 5abe 985c f3bd 9c57 1bbe
00000210: c835 e4be 2878 f43e 22ae ee3e 746e 213e
00000220: ee50 863e 8823 e13d c231 a9be 5a43 dabe
00000230: 9e78 91be 5a7c e13e d4b2 54be 184c 9c3d
00000240: f2c1 99be eea5 f6be 50f2 d03e 422a d03e
00000250: fc05 69be b0b9 79be 282a acbd 7c81 793e
00000260: 8876 803d 0aa5 df3e 20bd 993d 58da ae3e
00000270: c484 18be 404a 463d b0eb c6bd 5c85 be3e
00000280: 5440 e0be 426c b9be 588c d23d 8279 9d3e
00000290: 52b9 b13e 6029 d8bd 5a3c cfbe a0ea 913d
000002a0: 9c9e a4be 5edc abbe 8027 82bd c874 8abd
000002b0: b04a 38bd 883a b33d 842e 8c3e 7c0d 2d3e
000002c0: c008 b23d c801 a43d 06bd edbe 76aa b33e
000002d0: f831 8b3d 3ccc 1c3e 0029 ca3e d2d0 90be
000002e0: b4f3 fc3e 60ca 2fbd b83a a23e 80a1 f0bb
000002f0: 1020 ea3d 605e 893e aadf e3be 82e3 cf3e
00000300: 247c 58be 5435 aa3e 7ca5 3b3e 3a5c d6be
00000310: 76c9 d63e ec23 033e e00f f4be 4e95 973e
00000320: 04ae 2d3e 50d6 1abe 3222 863e c49b febe
00000330: 5030 073e c8f1 943e 3465 58be 8065 0c3c
00000340: f047 6d3d 3014 8a3e fec9 e83e 4e40 ff3e
00000350: 7c01 a23e 9447 6fbe fc08 c8be 105e cdbe
00000360: 0092 e53b 787e b1bd bccb cabe f849 8e3d
00000370: 728d c53e b45d b63e f4e2 5d3e 4e74 f2be
00000380: 64a6 703e 4001 1c3e fefb e0be 1e8d 91be
00000390: 38db b23e d6da e13e acfe 6dbe 90da 353d
000003a0: 869a e8be 58ef 72be 64bd 5e3e a440 c9be
000003b0: 0014 0b3c 8895 f03d 06c5 d63e 50a1 fcbd
000003c0: 8024 713c f474 633e 207d fabe 5670 d73e
000003d0: f66d d2be b6bf 913e 402e d53e c40a dcbe
000003e0: 86be e53e d676 e93e 4a54 acbe 4035 1a3e
000003f0: d04f 2cbd d65f f83e 2cac e3be b8b2 cabd
-0.26016903 -0.10975087 0.40519798 -0.22544605 -0.14820963 -0.23962045 0.29840434 0.15804142
0.11309582 0.41793722 -0.32224184 0.09521264 0.043364167 -0.2878757 -0.4659121 -0.38434035
0.00816977 -0.22413743 0.44181776 0.06493133 -0.07556844 0.09665978 0.23672521 -0.05706787
-0.050436974 0.028303862 0.1265831 -0.20087212 0.09070021 -0.38845873 0.058440328 -0.4948334
0.27300358 -0.3020742 0.38836128 -0.39754122 -0.29294628 -0.3093078 0.085237145 -0.04105723
0.4277727 0.41353256 -0.47248846 -0.3920827 0.16078973 -0.36079723 -0.41835248 0.269499
-0.15335053 0.29101402 -0.060896277 0.28992665 0.4153661 0.49514723 -0.47127676 0.4761417
0.4478234 -0.4026565 0.4158376 0.031867564 0.119974196 -0.16213763 -0.47665817 0.27996838
0.34377658 -0.26206434 0.07887906 0.0047711134 0.4540004 -0.20331818 0.23546845 -0.40468967
0.08289772 0.07674813 0.43308306 -0.13578647 -0.016282082 -0.10427022 -0.0782333 0.29501283
-0.117305994 -0.33279586 0.2646845 -0.093209565 0.053671837 -0.40716875 -0.20226121 -0.25616723
-0.2913583 -0.36067808 -0.4351685 -0.44594687 -0.26047707 0.23221523 -0.4632249 -0.2413361
0.24967057 0.090474606 0.4153602 0.30417407 0.36409563 0.039519787 0.1730836 -0.43672562
0.3071335 0.11587125 -0.43413883 0.31409103 -0.17101568 0.07943416 -0.40776938 -0.4450516
-0.15855873 -0.2022888 0.1543116 -0.20479298 -0.21068233 -0.41945207 0.0006162524 0.27522403
-0.010055423 -0.35734683 0.28805852 -0.1485318 0.27732992 -0.07415265 -0.14170945 0.15575182
0.12506527 -0.21294028 -0.11882895 -0.15170139 -0.44572282 0.47747922 0.46617228 0.15764791
0.2623362 0.10993105 -0.33045775 -0.4262951 -0.28412336 0.44040185 -0.20771343 0.07631701
-0.3003078 -0.4817347 0.4080987 0.4065724 -0.22756189 -0.2438724 -0.08406478 0.243658
0.06272608 0.43680602 0.07506776 0.34150958 -0.14894396 0.048410654 -0.097129226 0.3721112
-0.43799078 -0.36215407 0.10280675 0.30756766 0.347117 -0.10554767 -0.40475732 0.07124829
-0.3215226 -0.33566564 -0.0635519 -0.067605555 -0.044993103 0.08751398 0.2737924 0.16899675
0.08693075 0.08008152 -0.46433276 0.3509099 0.0679664 0.15312284 0.39484406 -0.28284317
0.4940468 -0.04291761 0.31685424 -0.007343471 0.11431897 0.26829815 -0.4450658 0.40603262
-0.21141106 0.3324381 0.18324846 -0.41867238 0.41950577 0.12806672 -0.47668362 0.29606098
0.16960913 -0.15120816 0.26197964 -0.49728215 0.13202024 0.29090714 -0.21132356 0.008569121
0.057929933 0.26968527 0.45466608 0.49853748 0.31641757 -0.23367149 -0.39069355 -0.40110826
0.00700593 -0.086667 -0.39608562 0.06947702 0.38584477 0.35618365 0.21668607 -0.47354358
0.23500973 0.15234852 -0.43942255 -0.28427976 0.34932876 0.4411227 -0.23241681 0.04439789
-0.45430392 -0.23724115 0.21751934 -0.3930713 0.008488655 0.11747271 0.41947192 -0.123354554
0.014718175 0.22212583 -0.48923588 0.42077893 -0.4109952 0.28466576 0.41636848 -0.42976964
0.4487192 0.45598477 -0.33658057 0.15059376 -0.042068303 0.48510617 -0.44467294 -0.09897369

fc1.bias f4 [64]
00000000: 0476 e63e d0e6 733e d8e2 c63d e296 d7be
00000010: 600c dcbe 4cc5 19be f8aa 293e 580d 65be
00000020: daff f8be c6d0 adbe a830 dcbd 8049 5fbc
00000030: 149a a93e 70d0 b33d 40ec c0bd 3443 47be
00000040: c04a 36bc 9e97 9f3e be86 983e f03c 193e
00000050: 547c 34be d4ba d1be 4212 d03e 5eff edbe
00000060: 3826 d83e 68ff 82be 4419 ed3e fc65 cabe
00000070: 302e 8dbd 183a e2be 8474 eabe 2aa7 a93e
00000080: 0093 c23c d00f e6be 408e ae3e 1888 ad3e
00000090: c04a 083c 289e d13d 0891 47be 281d c53d
000000a0: c879 6dbe aa9e e2be e040 b1be 6078 213d
000000b0: 88d8 93be de5a c13e d6c7 98be 7003 2bbe
000000c0: 68fb 493e 709a 1bbd c8b3 1cbe 3ce5 cebe
000000d0: 8047 d63c da7f 96be f099 03be 280a 1b3e
000000e0: b0b6 1cbe a641 cabe 907d 92be f030 6fbd
000000f0: e022 d9be 281b ef3d 54e9 26be e4d6 8a3e
0.45011914 0.23818517 0.09711236 -0.42107302 -0.4297819 -0.15016669 0.16569126 -0.22368371
-0.486327 -0.33948344 -0.10751468 -0.013628364 0.33125365 0.08779991 -0.09420061 -0.1945923
-0.01112622 0.31170362 0.297903 0.14964652 -0.17625552 -0.4096285 0.4063893 -0.46483892
0.4221666 -0.25585485 0.4630834 -0.39530933 -0.06893575 -0.44184947 -0.4579202 0.3313535
0.023751736 -0.4493394 0.34092903 0.33892894 0.008318603 0.10235244 -0.19488919 0.09624702
-0.23190987 -0.44261676 -0.34619808 0.03942144 -0.28876138 0.3776464 -0.29839963 -0.1670053
0.1972481 -0.03798908 -0.15302956 -0.40409267 0.02615714 -0.29394418 -0.12851691 0.15140593
-0.15304065 -0.3950321 -0.28611422 -0.05839628 -0.4240942 0.116751015 -0.16299945 0.27117074

fc2.weight f4 [64, 64]
00000000: 76ef 903d a0a2 26bd 844a 15bd 5a2f f23d
00000010: 9acb d33d 7cd6 cc3d 485a fe3c 82ff eabd
00000020: a454 75bd 3a58 fd3d 1892 b4bc 989d f03d
00000030: 9abd ffbd d06b 93bd f21b c43d bc14 2fbd
00000040: 6c50 5fbd 40fe e0bb d43e f9bd f6fb 823d
00000050: 4801 bdbd 4ea8 a1bd 8890 08bd 3433 3abd
00000060: 4aae f9bd b62b 9abd b804 50bd 10ed debc
00000070: 1cbe 9ebd 0e8a bd3d 4899 92bd 9e5e 81bd
00000080: f636 c23d e259 c1bd a0ae 87bd 9434 1f3d
00000090: e87e 9abc ccfa af3d acfc e1bd c26b ac3d
000000a0: 50c9 763d 4074 0dbd e820 aa3d f88a 2ebd
000000b0: 34a0 c2bd 44e8 fe3d 3473 e53d 60bd e23d
000000c0: 84da 613d 7877 f4bc 5c42 1dbd 407b fd3b
000000d0: 30eb b1bc e4a3 473d bcba 41bd 54f2 23bd
000000e0: c031 aabd 3c53 383d c0e8 cc3c fc0d c23d
000000f0: ded6 e9bd 90d2 ddbd b4e2 a1bd 40d4 81bb
00000100: 7c4a 513d e03f 323d 02c7 dfbd 7441 6e3d
00000110: 441d 8ebd 5c30 8f3d 28a1 673d a022 f7bc
00000120: 5c48 2bbd 4a1a 973d 68fe 463d 0844 4b3d
00000130: dcc2 e83d 2c91 fbbd b83b 843c f6fe ddbd
00000140: 582b c1bc f2e5 bbbd 8251 cfbd 4cd7 573d
00000150: d400 bdbd 8831 dcbc 2c7e 8e3d 9053 843d
00000160: 18b6 123d 40cd 53bc 94c7 4abd 8025 06bc
00000170: 0c49 273d 6474 54bd 98d6 fe3c 40f0 9abc
00000180: 2810 cabd e442 5bbd d049 ebbc cee7 88bd
00000190: 0089 f43b 2027 9a3d 6607 f63d 808b eb3b
000001a0: bc55 52bd 6027 8c3c 0880 d0bd b8f5 b1bd
000001b0: b04f f33c ec80 16bd 24af 09bd 6036 b9bb
000001c0: 7ac4 9d3d 48cc 39bd 00ac 33ba 1031 463c
000001d0: 44fb 70bd bcc4 53bd f2f4 973d 482f 4f3d
000001e0: 0a41 893d a230 f53d 001e f139 e010 95bc
000001f0: 1426 3abd c806 21bd 7837 dc3c 5e8b df3d
00000200: b079 383c 40f4 03bd c06b 8d3d e68f dcbd
00000210: ec30 bf3d e069 9bbb 9610 f3bd 1c01 2c3d
00000220: 50c4 bdbd 0818 68bd 00d7 15ba b08a 223d
00000230: 74c1 983d e0b0 e4bd 7424 773d 008a f139
00000240: 0c1c 063d 40ff eebd 504d 7a3c 14ca 763d
00000250: ce6a aa3d 6eb8 8abd 8c5a 69bd 8e45 aa3d
00000260: c2b8 a63d ce8a eebd d69d a2bd 34ba 643d
00000270: f054 34bd 403f 4b3d c0e2 763b 16f5 e8bd
00000280: a035 d5bc 84e4 66bd b85d cfbd 0008 713a
00000290: 5e87 b33d 1c7c c6bd 8412 99bd 74e4 653d
000002a0: 604f 54bc b825 b53d ecea dcbd 2832 b4bd
000002b0: c8f0 d13d b65c 98bd 5096 143c 96ee e5bd
000002c0: f6cf debd c856 49bd 407a 063b 9089 e3bc
000002d0: 3283 dabd b200 9d3d f0d7 12bd 0603 82bd
000002e0: 8c22 9abd ae47 d73d b83a e7bc 0059 d63b
000002f0: 9a9b 9ebd 1048 833c 4403 5c3d 64c8 07bd
00000300: 1855 fabc 8c48 603d 488e cebc f423 41bd
00000310: e0d8 993b f4bb fc3d 5076 f4bc 307b 363d
00000320: 86d2 b13d e8c7 f33c 3056 d53c 7403 033d
00000330: 7291 b5bd 14d0 c53d a463 babd 2068 d3bc
00000340: c434 95bd 3cde cabd 0024 1bbd 28fa b0bc
00000350: 1026 d53d 6667 893d a03e 0cbc c0ed bf3b
00000360: 2807 8e3c 2ab3 8bbd 10b8 38bc a0a4 ec3b
00000370: 9051 fbbd 4818 34bd 1c40 593d 4c7d 13bd
00000380: f4e4 f7bd 5e4c bb3d ea0c bfbd a048 7b3c
00000390: e4aa 3cbd da15 843d 8411 a5bd d2cb ff3d
000003a0: 7c83 b33d 2a90 c8bd 1ae2 aabd 6089 d3bc
000003b0: 22d1 bb3d ac69 bbbd 9a55 cdbd c019 17bd
000003c0: 70f4 493c 00f2 0dba 88a0 02bd f88a 86bd
000003d0: 20db b33d 26a8 9e3d 98b7 8ebd d460 523d
000003e0: 0050 40ba ac7f cf3d 785d 5bbd 4023 c53d
000003f0: 285c 35bd 2006 823d 54d7 f23d 3430 0e3d
0.070769235 -0.040682435 -0.036448017 0.11825438 0.10341568 0.10001847 0.031048909 -0.114745155
-0.059895173 0.123703435 -0.02204232 0.117488086 -0.124873355 -0.07198298 0.09575643 -0.042744383
-0.054520056 -0.0068662465 -0.12170187 0.06395714 -0.0922876 -0.0789343 -0.03334096 -0.045458987
-0.12191446 -0.075278684 -0.05078575 -0.02721265 -0.07751104 0.092548475 -0.07158142 -0.06316875
0.09483139 -0.09440972 -0.06625104 0.0388685 -0.018859342 0.085927576 -0.110345215 0.08418991
0.06025058 -0.034534693 0.083070576 -0.042613 -0.095032126 0.12446645 0.11203614 0.11071277
0.055140033 -0.029842123 -0.038393363 0.00773564 -0.021718591 0.048740283 -0.047297224 -0.040026024
-0.0831027 0.045001253 0.025013328 0.094753236 -0.11417936 -0.10831177 -0.07904568 -0.0039620697
0.051096424 0.043517947 -0.109266296 0.05816789 -0.06939176 0.06991646 0.056550175 -0.030167878
-0.041817054 0.07378061 0.048582464 0.049625427 0.113652915 -0.12283549 0.016141757 -0.108396456
-0.023580238 -0.09174718 -0.10122968 0.052695557 -0.092286736 -0.026879087 0.06957659 0.06461251
0.03581819 -0.012927353 -0.04950674 -0.008187652 0.040841147 -0.05186881 0.031108186 -0.018913388
-0.09866363 -0.05353059 -0.02872172 -0.06684838 0.0074626207 0.07526994 0.1201313 0.0071882606
-0.051351294 0.01710862 -0.1018067 -0.08689445 0.029701084 -0.036744043 -0.033614293 -0.005652234
0.077034906 -0.045360833 -0.0006853938 0.012096658 -0.058833376 -0.051701292 0.074197665 0.0505822
0.06701858 0.119721666 0.00045989454 -0.018196523 -0.04544647 -0.039313108 0.026881918 0.10915254
0.011259481 -0.032215357 0.06905317 -0.10769634 0.09335503 -0.004742846 -0.11868398 0.041993245
-0.09265959 -0.056663543 -0.00057159364 0.039683044 0.07458773 -0.11166549 0.0603375 0.0004606992
0.03274159 -0.11669779 0.015277222 0.06025131 0.083211526 -0.067734584 -0.056971118 0.08314048
0.081407085 -0.11647569 -0.07940261 0.05584164 -0.044026315 0.049620867 0.0037671775 -0.113748714
-0.026026547 -0.056370273 -0.10125297 0.00091946125 0.087660536 -0.09691641 -0.07474235 0.056126073
-0.012958378 0.08845085 -0.10786995 -0.08798629 0.102510035 -0.07439558 0.00906904 -0.11227147
-0.10879509 -0.049155027 0.0020519644 -0.027775556 -0.10669555 0.07666148 -0.035850465 -0.06348233
-0.075261205 0.10511719 -0.028226241 0.0065413713 -0.077445224 0.016025573 0.05371405 -0.03315009
-0.030558154 0.054756686 -0.02521433 -0.04715343 0.004695043 0.12340537 -0.029841572 0.044551075
0.08682732 0.029758409 0.026042074 0.031985715 -0.08865632 0.096588284 -0.09101036 -0.025806487
-0.07285455 -0.09905669 -0.03787613 -0.021603659 0.104076505 0.06709175 -0.008559853 0.0058571994
0.017337397 -0.06821282 -0.011274353 0.0072217733 -0.12271416 -0.04396847 0.053039655 -0.036008164
-0.12104216 0.09145425 -0.09328635 0.015337139 -0.04606141 0.0644948 -0.080599815 0.124900475
0.08765313 -0.09793122 -0.08343907 -0.025822341 0.09170748 -0.09151015 -0.10026093 -0.03688979
0.012326345 -0.0005414784 -0.031891376 -0.06569475 0.08782029 0.077469155 -0.069686115 0.051361874
-0.00073361397 0.10131773 -0.053555936 0.09625864 -0.04427734 0.063488245 0.11857477 0.03471394

fc2.bias f4 [64]
00000000: b8f9 58bd 64df 903d e82d 5dbd b8ec 9bbd
00000010: c041 973c 20e3 f23d a4fd cbbd e8ef a63c
00000020: 0acb a0bd 206d 9a3b f466 0e3d 2c77 c4bd
00000030: 4a91 b43d b88c c53c e8be c03d 101b 60bd
00000040: 30d4 44bc 54fc c4bd 48eb ac3c 20fb bdbc
00000050: a079 71bc 1c9f 013d b4df 813d 0068 393b
00000060: 68df ff3d 90ef 1abc 6059 b73d caf0 dd3d
00000070: ca38 f6bd c8bc abbd 7ec4 d2bd 12d1 f63d
00000080: 3a34 f2bd ee76 af3d f049 463c 20fc edbd
00000090: 3834 acbd 2028 f13d d4d8 783d d8d7 10bd
000000a0: c0a1 35bd 08f5 0c3d 28c1 993d fca6 f7bd
000000b0: 2c6e 2d3d 8e9d c1bd 7cfb 783d 40da 7cbc
000000c0: 92d6 d13d ca3b e7bd b8f3 cc3c e4bd 46bd
000000d0: d499 edbd 24eb 9bbd a2a7 8abd f044 103d
000000e0: 3015 9b3d b0d2 e43d f06b aebc 6028 04bc
000000f0: 585a 5fbd 1c07 c7bd 2c36 863d 00e9 02bb
-0.052972525 0.070738584 -0.053998858 -0.0761351 0.01846397 0.11859727 -0.099604875 0.020378068
-0.07851227 0.0047127157 0.034766153 -0.09593043 0.08816774 0.024114951 0.094114125 -0.05471331
-0.01201348 -0.0961844 0.021108285 -0.023191035 -0.01473847 0.03164588 0.06341496 0.0028290749
0.12493783 -0.00945653 0.08952594 0.108369425 -0.120225504 -0.083856165 -0.10291384 0.12051596
-0.11826368 0.08567606 0.012102589 -0.11620355 -0.084083974 0.11775231 0.06075366 -0.035362095
-0.04434371 0.034413368 0.07507545 -0.120923966 0.042341396 -0.09453879 0.06078671 -0.015432894
0.10246004 -0.11290701 0.025018558 -0.048520938 -0.11601606 -0.07613209 -0.06770255 0.035221994
0.075724006 0.11172998 -0.021291703 -0.008066267 -0.054529518 -0.09718153 0.06553301 -0.0019975305

fc3.weight f4 [6, 64]
00000000: 7828 b93c fafc b23d d837 9dbc 800a a4bd
00000010: de26 aebd 80ca 773b 78eb 76bd c20c 88bd
00000020: 88af 4abd 6a96 f0bd 6af8 8fbd fcf9 5a3d
00000030: 8436 083d 00e0 06bc 004d be3a 704f dbbd
00000040: f085 d33d 405d 563b d618 a13d 2cc9 f1bd
00000050: e490 9f3d ce99 d23d 622a e63d e031 2dbd
00000060: 0e85 e4bd 76e7 aabd 4e99 83bd 74da f93d
00000070: a442 b73d 02cb bf3d 6015 e83c f04c f3bc
00000080: 60ee 14bc d0f3 aa3d 6443 b5bd 34af 05bd
00000090: d4b3 a6bd 0892 d4bc 7aaf 833d d09f aebd
000000a0: b8fc 493d 32cc c53d 2ecd d6bd c0eb 32bc
000000b0: a83f 6ebd 24fd cfbd 8489 073d 1e50 f13d
000000c0: 78e7 96bc 2cc3 75bd 60b8 e5bc d48a 08bd
000000d0: 8051 43bb c4e4 df3d f0ba 243c 0048 503b
000000e0: d429 2a3d 80d6 cebc a00b febd 18c8 fe3d
000000f0: 8c9c ddbd 04d9 8b3d 6010 b4bc fc62 a63d
00000100: b8dc ffbc 2cfd 02bd c8d9 9cbd 14ea b13d
00000110: 82ee f5bd 88b7 94bd 9805 9f3d 0095 023d
00000120: 08e9 f8bc 7065 7f3d 00e4 cebc b4dc 013d
00000130: 7610 9cbd 8c70 dd3d f21f c93d c088 3dbd
00000140: a21f ce3d f022 a6bc 2092 0dbd 4e3a e93d
00000150: e0d2 813d 8841 25bd 1037 4cbd d43c e53d
00000160: 4afb d33d 8040 fbbc 4051 d6bc a834 94bc
00000170: 6cde d3bd 669c f3bd 949f 833d a4ad cfbd
00000180: dcc6 7b3d 747d c03d 7c10 7bbd 8078 bcba
00000190: 4e23 af3d 28da a1bd e8fa 17bd 4473 0f3d
000001a0: 6851 84bc 961a 96bd ecf3 debd 864f e33d
000001b0: 7cde b83d c81a ad3c 1ecd aabd 2c9e 2bbd
000001c0: a0d1 f03b c4dd e93d 3624 90bd 00b4 3f3b
000001d0: 3a4d f9bd 9429 18bd b00d fd3d 38b6 a7bc
000001e0: 8098 d03b f8ad 0a3d f4d8 243d f2d1 f83d
000001f0: f860 b8bd 60a8 83bb e8f0 253d 5c47 653d
00000200: 286a b6bd e2bf c7bd bc5c 503d b8b0 1dbd
00000210: 10ba 613d cc00 16bd b21d c93d 2c50 893d
00000220: 722e 9cbd d831 f2bc 1428 483d c885 bebc
00000230: 542a 333d 60a1 6bbc 42f1 f23d 0a77 f9bd
00000240: 08f5 68bd a019 633c fe68 a73d 828f a6bd
00000250: 34a9 1d3d 7c1d 18bd d01f 6fbc 4e04 95bd
00000260: 9046 b6bd c616 8cbd 04f1 1d3d ec7e 523d
00000270: 2ac1 8fbd 6887 1bbd 8076 c5bb f226 ca3d
00000280: 56cd 9dbd d0ef 973c a0d2 233c acb1 40bd
00000290: 94ef fbbd 4420 febd acba 043d a06a f43b
000002a0: fc9f 663d 6478 cdbd 1492 a43d f807 a2bd
000002b0: 74ae 753d ae5d d7bd 00c7 473a 2885 1cbd
000002c0: 3c42 083d 70c1 4abd 9897 d0bd 7ca8 673d
000002d0: 90a0 6a3d 782e a43d 50e1 53bd 0899 95bd
000002e0: 24bb 1dbd 544f 07bd eae7 9dbd 0cf3 8c3d
000002f0: 546e dcbd d47e 2abd f8a5 ebbd 7c95 43bd
00000300: 283a cabc 766c bebd deae efbd 56ed c43d
00000310: 38b9 c23c 52c0 cf3d a464 b2bd 0030 13ba
00000320: 2a4e d63d 90be 8abd b837 843c 1e08 d2bd
00000330: 2ef1 cf3d a251 843d b093 6abc b057 983d
00000340: be22 83bd 4013 bc3c 3466 233d 48b9 4e3d
00000350: 9804 88bc 706d f53d cc9d d6bd 20df 5fbd
00000360: 1051 f93c 08e2 81bc 6c05 1bbd e62a e23d
00000370: 1035 c13c 50ab 253d 2a26 e4bd 3e8e 9b3d
00000380: 2c81 bebd 1046 dbbd 0657 8cbd 24a2 8dbd
00000390: 92ac 933d 024e b53d a80f 54bd 1ca2 773d
000003a0: ca1c a8bd 5eb7 bb3d 48f1 bdbd b880 ccbd
000003b0: f06a 63bd 3010 1b3c 78c4 e03c e01b 7ebd
000003c0: c012 2fbb 10af fa3d a07c 913c 58c2 ba3c
000003d0: b05d 51bd 84ae 9cbd 4425 4a3d e429 103d
000003e0: 4005 2fbd 307e 8c3d 7073 adbd f047 7fbd
000003f0: d032 bfbd 3c6d 64bd 8848 c8bc 0066 b5bb
0.022602305 0.08739658 -0.019191667 -0.08009815 -0.08503507 0.0037809908 -0.060283154 -0.06643058
-0.049483806 -0.11747439 -0.07029803 0.05346106 0.033255115 -0.008232117 0.0014518797 -0.10708511
0.10328281 0.003270939 0.07866065 -0.118059486 0.077913076 0.10283242 0.11238553 -0.042283893
-0.11158191 -0.08344929 -0.06425725 0.1219987 0.089482576 0.093648925 0.028330505 -0.029699773
-0.009090036 0.08347285 -0.08850744 -0.03263779 -0.08139768 -0.02594854 0.06429954 -0.085265756
0.049313277 0.09658088 -0.10488354 -0.010920465 -0.058166176 -0.101557046 0.03309013 0.11782859
-0.01842092 -0.060000584 -0.028042018 -0.03333552 -0.0029803216 0.109323055 0.010054335 0.0031781197
0.041543797 -0.025248766 -0.12404561 0.124405086 -0.108208746 0.06828502 -0.021980464 0.081243485
-0.031233177 -0.031979725 -0.07658726 0.08687225 -0.120083824 -0.07261568 0.07764739 0.03188038
-0.030384555 0.062352598 -0.025255203 0.03170462 -0.07620327 0.10812482 0.09820546 -0.046272993
0.10064627 -0.020280331 -0.034563184 0.11388074 0.06339049 -0.0403457 -0.0498572 0.11193243
0.10350664 -0.030670404 -0.02616179 -0.018091515 -0.10345158 -0.11895065 0.064269215 -0.10140541
0.061468944 0.09398928 -0.061295018 -0.0014379174 0.08551656 -0.07902938 -0.037104517 0.035022035
-0.016152099 -0.073292896 -0.10886368 0.11099152 0.090268105 0.021130934 -0.08339904 -0.04189889
0.007349208 0.114192516 -0.07038157 0.0029251575 -0.12172933 -0.037149027 0.12356126 -0.02047263
0.0063658357 0.033857316 0.040245965 0.12149419 -0.0900287 -0.0040178746 0.04051295 0.055976257
-0.089069664 -0.097533956 0.05086969 -0.03849861 0.055109084 -0.036621854 0.09820117 0.06704745
-0.07626046 -0.029564783 0.048866346 -0.023257151 0.04374154 -0.0143817365 0.118624225 -0.12180908
-0.056874305 0.01386109 0.081743225 -0.08132841 0.038491443 -0.037137493 -0.014594987 -0.07276212
-0.089001775 -0.06840281 0.03855993 0.051390573 -0.07019265 -0.03797093 -0.006026089 0.098707095
-0.0770518 0.018546969 0.009998947 -0.04704444 -0.12301555 -0.12408498 0.032404587 0.0074589998
0.056304917 -0.10032728 0.08035675 -0.07911676 0.059980825 -0.10515915 0.0007620901 -0.038212925
0.03326629 -0.049500883 -0.10185164 0.056557164 0.05728203 0.08016676 -0.051728547 -0.07304579
-0.03850855 -0.033034638 -0.0771025 0.06882295 -0.10763231 -0.04162486 -0.115062654 -0.04774998
-0.024685934 -0.09298031 -0.11703275 0.09615581 0.02376996 0.10144104 -0.08710602 -0.00056147575
0.10464127 -0.06774628 0.01613985 -0.102554545 0.10153423 0.06460883 -0.014317438 0.074386
-0.06403111 0.022958398 0.03989239 0.050469667 -0.016603753 0.11983764 -0.10479316 -0.054656148
0.030434161 -0.01585485 -0.037846968 0.110433385 0.023584872 0.04044658 -0.11140092 0.0759549
-0.09301981 -0.10706723 -0.06852536 -0.069156915 0.072106495 0.088527694 -0.051772743 0.060457334
-0.08208616 0.09165834 -0.09274536 -0.09985489 -0.055521905 0.009464309 0.027437434 -0.062038302
-0.0026714057 0.12240422 0.017759621 0.022797748 -0.051114738 -0.07650474 0.049351946 0.0351962
-0.042729616 0.06860006 -0.084692836 -0.062324464 -0.093358636 -0.055768237 -0.024448648 -0.005535841

fc3.bias f4 [6]
00000000: c4da 223d 44e9 8c3d f0e0 653d d4df cc3d
00000010: 60b1 c3bc b265 ec3d
0.039759412 0.068804294 0.05612272 0.10003629 -0.02388829 0.11542834
