saved_models/dqn_best_model_episode_3149.pt (torch, 87371 bytes, 24 tensors)

fc1.weight f4 [64, 4]
00000000: 5b6d 19be 34d2 463e ad63 d33e 6b09 d6bc
00000010: 09a4 bebd df39 b43e ebb7 c6be 5efd 80bd
00000020: 3ebf cdbe 2e56 0b3d b743 16be 9923 f63d
00000030: de33 d7be ffc3 873d e680 a73d 74c7 e63e
00000040: 6cd3 f33e 9f02 92be c8bd dfbe 204a 113e
00000050: 3317 793e 3fa5 2cbe 715e bcbe 2e23 1f3d
00000060: bc5a f8be ca5a ef3e 4a49 f0be 35f4 ecbd
00000070: aed5 df3e 2a5f f03e a5e5 9d3e 87ac cebe
00000080: f68a 8abe e88a c83e 996c a03b 055f d33c
00000090: 34be f7be fc4e 84be d09e 77be 80a9 3cbc
000000a0: 3d5c ee3b 1ada c5be 8a84 80be 4497 babe
000000b0: 28e7 a03e baf5 6a3e 3d93 e63d b464 17be
000000c0: b910 813e c4be 6ebe 5680 b03e 6491 093d
000000d0: 449e f3be 58d6 203d c289 dabe 4cba 7dbe
000000e0: d662 e63d 0f3b fabe 6e7f e6be a572 533e
000000f0: 9b9b b33d 89a5 c33e 09a3 a33d 5159 493d
00000100: 5721 cb3e eff2 983e ca6d 9abd dcdb e83d
00000110: b03c a63e 9820 c63e 6f29 143e b6d2 f4be
00000120: 1486 bdbe 683d c6be 94da 0abe 5cd0 edbe
00000130: dde4 fb3b 6188 82bd a28e 9ebd a567 ba3e
00000140: 739d 4a3e a2ca 863d a27e 2bbe d128 c33e
00000150: ca4b b83d 9158 1dbe 0c26 4b3e 9909 80be
00000160: cf87 af3e fa98 d43e e347 e13d b151 75bd
00000170: 897b 113e deb3 153e aabc fcbd 0d59 483d
00000180: da6e 49bd 6abc b9be 1350 db3e e431 a6be
00000190: 8692 9ebe 0886 bf3e dc34 bebe b255 88bd
000001a0: 2f75 e1be 3df4 143d 8408 983e 1076 6a3e
000001b0: 781a fd3e 67b1 08be 7b11 f2be 4975 d5be
000001c0: 0a01 e4be 139c af3d a086 e53d b821 f6be
000001d0: 2d5f 493e 21cd 83be 0416 993e 8047 b6be
000001e0: aeef a93e 24cf b8be 8a3e 57be 38de 8a3e
000001f0: 2c6f 8c3d f9b1 a8bd de1b 873e 449e 0a3c
00000200: 8f30 983e 7405 d73e a1d6 f53e 6974 9bbe
00000210: 64e1 c7be bb9a 303e 3d87 efbe 48f8 9e3e
00000220: 138a a2be 25cb 503d e8c5 aebb d1b3 db3d
00000230: ddd1 48be af01 d23e 9bee f3be 8fbb 22bd
00000240: db8a ec3d 4ce5 fd3e 1980 893e 8dc1 99be
00000250: 3365 8bbe d918 5abe 76f4 65bd ac23 253e
00000260: 3eb5 af3e e8aa 07bd 5814 d53e cd5b b03d
00000270: 619f e8bd 2d21 793e ee0d a23e ad13 30be
00000280: 3f5f a03e eca9 ee3e 56b0 613e a45e a83d
00000290: bcaa d43e b757 eb3e 2d5f b8be e42a 74be
000002a0: a013 edbe f0ce dabe dcee a2be 2c2a 4bbe
000002b0: c567 573a 97af f8be 3bde c13e 9393 8ebe
000002c0: 3474 0ebe 287a f8be 38cf dbbe 8a6c bfbe
000002d0: 44a2 37be 5659 f1be 2037 cc3c 50f9 02bd
000002e0: 6d42 883e f9ef e83d 2c98 303d ec58 c43c
000002f0: fa30 bf3d 2e36 f53e 9ab6 883e be8b d8be
00000300: 38e2 c53e 7eed bc3e c332 013e 9602 b33e
00000310: 3b57 d8be 770c fa3e a1f6 1a3e d775 bf3d
00000320: 16a6 73be cd44 c33d 3f1b a23e aafa ccbe
00000330: f963 263e 8db0 ee3e b28f d93e 3111 cfbe
00000340: 8082 353c d79d 033e a101 94be 0ef0 ae3c
00000350: 0d12 b43e 0c7c 953e b7a8 e8be 3f3a e53e
00000360: 5b6d ab3d 55f9 b83e 04d4 c9be 690a 0c3e
00000370: 1b32 3c3d 2502 383e ddbf d7be f126 94bd
00000380: 6232 6a3a 75a1 ec3e d4c0 ebbd 5196 6e3e
00000390: dba9 ff3d 1147 d73e e01e ee3e 930e 3cbe
000003a0: bda6 ba3e 5980 313e fa83 2ebe 753f d13e
000003b0: c1b7 a03e 6d85 52be af6d 983d f31f d0bd
000003c0: 39b2 37be 4c81 fdbd 652d 8a3e d067 e2be
000003d0: e2e3 d53e 0368 30be a2e1 463e c4b3 bdbe
000003e0: 3cc4 d0be e8ff d6be 299f e73e 7551 0f3d
000003f0: 6afb b8be 6603 07be 9af9 08bd 5937 8e3e
-0.14983122 0.19416124 0.41286984 -0.026127538 -0.09308631 0.35200402 -0.38812193 -0.06298326
-0.4018497 0.034017734 -0.14674269 0.120185085 -0.4203176 0.0662918 0.08178882 0.45074046
0.4762224 -0.28517625 -0.4369948 0.14188433 0.24325256 -0.16859911 -0.36790803 0.03885191
-0.48506725 0.46748954 -0.46930915 -0.11570016 0.43717712 0.46947604 0.30839267 -0.40366003
-0.27059144 0.39168477 0.0048957583 0.025802145 -0.483873 -0.2584151 -0.24181676 -0.011515021
0.0072741793 -0.3864296 -0.2510112 -0.36443532 0.31426358 0.229453 0.11258552 -0.14784509
0.2520807 -0.23314959 0.34472913 0.03358592 -0.47581685 0.039266914 -0.42683226 -0.24778098
0.1124932 -0.48873183 -0.45019096 0.20649202 0.08769914 0.3821223 0.07990081 0.049157444
0.39673874 0.29872844 -0.07540472 0.1137006 0.32468176 0.38696742 0.1446893 -0.4781701
-0.37016356 -0.38718724 -0.13559943 -0.46448028 0.0076871947 -0.063736685 -0.07742049 0.364072
0.19786625 0.06581618 -0.16747525 0.38117078 0.089988306 -0.15365817 0.19838732 -0.25007322
0.342833 0.41522962 0.110000394 -0.05989236 0.14207281 0.14619395 -0.12340672 0.04891305
-0.049177982 -0.3627656 0.4283453 -0.3245994 -0.30971164 0.37406945 -0.37149704 -0.0665697
-0.44034716 0.036365736 0.29693997 0.228966 0.49434257 -0.13348924 -0.47278962 -0.41691044
-0.44532043 0.08574691 0.11207318 -0.480726 0.19665213 -0.25742438 0.2989961 -0.35601425
0.33190674 -0.36095536 -0.2101995 0.27122664 0.06857142 -0.082370706 0.26388448 0.008460585
0.29724547 0.41996348 0.4801531 -0.3036225 -0.39039147 0.17246525 -0.46782866 0.310488
-0.31745967 0.050974984 -0.005333651 0.10727657 -0.19611306 0.4101691 -0.4764298 -0.03972965
0.11549922 0.49589002 0.26855543 -0.3003048 -0.27225646 -0.21298541 -0.05614134 0.16126889
0.34317964 -0.033121973 0.41617084 0.086112596 -0.11358524 0.24329062 0.31651253 -0.17195006
0.31322667 0.46614015 0.22039923 0.08221176 0.4153651 0.4596536 -0.36010113 -0.23844486
-0.46304035 -0.42736006 -0.3182286 -0.19840306 0.0008217062 -0.48571464 0.3786486 -0.27846965
-0.13911515 -0.48530698 -0.42931533 -0.37387496 -0.17932993 -0.4713847 0.02492863 -0.031976044
0.2661318 0.11373896 0.043113872 0.023968183 0.093355134 0.47892898 0.26701814 -0.42294115
0.38649154 0.36899942 0.1261702 0.3496291 -0.42254052 0.48837635 0.15133144 0.09348648
-0.23793826 0.09534607 0.31661412 -0.40034992 0.16249074 0.46619073 0.42492443 -0.40442804
0.011078477 0.1285318 -0.28907493 0.021354701 0.35170022 0.29196203 -0.4544122 0.44771
0.08370467 0.36127725 -0.39419568 0.13675846 0.04594622 0.17969568 -0.42138568 -0.0723399
0.0008933899 0.46216932 -0.115113884 0.23299529 0.12483569 0.42046407 0.4650793 -0.18364935
0.36455336 0.17334117 -0.17042533 0.40868726 0.31390193 -0.2055871 0.074427955 -0.10162344
-0.1793908 -0.12378177 0.26987758 -0.44219828 0.41775423 -0.17227177 0.1942201 -0.37051213
-0.40774715 -0.41992116 0.45238617 0.034989793 -0.36129314 -0.1318489 -0.033441164 0.27776602

fc1.bias f4 [64]
00000000: 20f4 a23e 579b 743e 21eb ee3e 9924 4fbe
00000010: 76c6 e1be 71e2 b23e 769c 75be 7eb2 b53e
00000020: f0d9 9f3e 4c28 9abe 5f8a b3bd 25b3 af3c
00000030: 0197 703d 327a d33e 5d96 ecbe 38f9 e7be
00000040: 2d51 82be 3faf e1be 48ce 343e 653a d03e
00000050: a70d e73d c537 c4bd fc77 00bf c1dc 3abe
00000060: e3cd 6b3e 85b9 bd3e 1fec 833e 8d0c b8be
00000070: 17bb 0b3e 4dee e7be 1343 acbd a652 0dbd
00000080: 290c d7bc 380b 7abe 5738 b43e eec6 463e
00000090: 6d5a 8a3e da12 07be cdda 0e3e 65d8 a33e
000000a0: 7c36 fb3e d61b 95bc c8db e1be 3e50 bbbe
000000b0: 04b9 b53e 0cbb 4b3e 42b5 d43e 1a77 c0be
000000c0: 6863 f83e 65ec 2d3e 30a8 2a3e 6080 da3d
000000d0: 126d 0dbe fc8a 37be 4eae 30be 77ae a03e
000000e0: 4dec aabe d672 79be 8776 04be ca9d c13e
000000f0: d288 e33e f6b3 833d 6c2e b2be 4c4f 6cbe
0.31826878 0.23887382 0.46663764 -0.20228805 -0.44096726 0.34938386 -0.23985466 0.3548774
0.3122096 -0.3010887 -0.087666266 0.021447727 0.05873776 0.41304165 -0.46208468 -0.45307326
-0.25452557 -0.44079015 0.17656815 0.40669551 0.11281901 -0.0958095 -0.5018308 -0.18248273
0.23027758 0.37055603 0.25766084 -0.35947075 0.13645588 -0.45298997 -0.08411231 -0.034502648
-0.026250916 -0.24418342 0.35199234 0.19411823 0.27022114 -0.13190785 0.13950653 0.32001033
0.49065006 -0.01820175 -0.44112992 -0.36584657 0.35492718 0.19895571 0.4154454 -0.37590867
0.4851334 0.16984709 0.16665721 0.10669017 -0.13811138 -0.17924112 -0.17253992 0.31383106
-0.33383408 -0.24360213 -0.1293584 0.37815696 0.44440323 0.06430809 -0.34801042 -0.23077124

fc2.weight f4 [64, 64]
00000000: d380 b3bd ea17 b83d ceff debd 4894 d9bc
00000010: 1031 85bc 8790 0dbd 8c0b cc3d 2ccd 91bb
00000020: 5c18 dc3d c044 833c 346b e33d db03 843d
00000030: 5e40 aebd 30e5 9e3d a8eb aabd 7c50 923d
00000040: bd7b 93bd d18c 28bd 7cf1 afbd 96af c53b
00000050: 8e9f f7bd fe98 fa3d 183e 4d3d c6e4 8d3d
00000060: 54c6 803d 0a22 d2bd ecdc 80bd 43e8 4dbd
00000070: a9b8 20bd 80ee acbd fc69 38bd fc4d 92bd
00000080: 8bb7 2dbd 219d 67bd 0756 d73b a813 b7bd
00000090: ce3e 2dbd 00f4 e539 27ad c0bd d94f 3b3d
000000a0: 9f80 253c 4bf8 38bd dce5 213d f0f8 77bd
000000b0: 28af e63c 6890 ce3c 32aa 213d 21b3 6dbc
000000c0: 6ca2 743d f31f 0a3d 0086 a03d e4cd 123d
000000d0: f874 653d b271 bf3c 0ead 213d c9dc 9f3b
000000e0: 2b5f c1bd c089 ca3c f79c b2bd 4a17 fcbd
000000f0: 1b3a 8abd fa5b b23d f0a0 ec3d d045 c03d
00000100: fb24 9c3c b6a6 963d b969 d4bc 6e25 bdbd
00000110: 4ca7 033e 0f93 4d3d a526 13bc 2207 ddbd
00000120: f26e 8d3d 149b f23d f622 52bd a0fb b93c
00000130: 36c8 d1bd 14b5 c7bd 8d78 eabd 4ab6 22bd
00000140: 508d 363c 3032 183c 0c68 b53d e742 ca3d
00000150: 01ce 11bd da2f 343d cd45 71bd 03fc 833d
00000160: c114 abbd 8991 43bd b4c4 bc3d d793 19bd
00000170: 3491 9d3d 78fb e4bd 2789 acbc 6ea7 853d
00000180: b2ca cf3d 9b82 f0bc ad84 babd 7b41 cebd
00000190: 7c87 bc3c 9c11 0f3d 5c23 413d 2cda 82bd
000001a0: 9632 b0bc 3138 55bd 4495 153d 419e 37bd
000001b0: 78f3 aebd 185b 913d 0996 543d 37a2 9b3d
000001c0: dd9c de3d 9648 c43d 1cf4 e73d 31ac 0bbd
000001d0: f262 2dbc 55be 81bd 9381 73bc 6cf0 d0bc
000001e0: f755 083e 33be c63c 41c6 af3d 9772 f23d
000001f0: 52cc e83d 8251 10bd 337e 00be afd9 e9bb
00000200: 07bb 0abd 60c8 efbd 08a1 f33d 1f11 d2bd
00000210: 5f2e febd 3df2 cb3d 0231 aebd 318b 623d
00000220: 5a5f f7bd 7063 d23d 4c44 8f3d e027 423b
00000230: f515 f43d 40b4 83bc 36df e5bd 969f eabc
00000240: b2f6 a53d 0979 bdbd f8f7 0b3d 1e99 40bc
00000250: 0d2a 81bd 113a 333d d3a9 e5bd 34f5 743d
00000260: 851c e83c 6119 cbbd 9b92 223d bf3a d4bc
00000270: 1a80 8ebd bb5f fe3c e1b6 963c f7a5 f73d
00000280: 74d6 ed3d f004 09bd 931e 5abd f11a 3d3d
00000290: fb52 a0bd 9cc4 663d 697a d7bd bb93 0dbd
000002a0: e34e eb3d d11e 85bd c076 61bd 3861 1abd
000002b0: 363a e73d d651 d8bd 9d5c c3bd 1930 2ebd
000002c0: 9d8e c9bd 61fd ce3d 5700 c83d c03e e03d
000002d0: 50ce 5b3d fe1d b2bc 4562 e7bd 02e6 fa3d
000002e0: 0c7b c43d 13cf e13c 79aa b13c b3df ecbd
000002f0: 0965 8c3d 1aa7 7238 7a92 e8bd 8231 893c
00000300: 8053 a73a 0c23 c4bd 40b6 00bd dcce 21bd
00000310: 4ab6 9abd 324a a63d b8f5 b93c 3ca4 d23d
00000320: 904e c9bc fa41 eebd 78ac 33bd b4d7 45bd
00000330: 109a b53d 2853 e73d a21b bf3d 5861 d33c
00000340: a096 c3bb f650 bfbd bc63 2cbd b601 be3d
00000350: f0c7 42bc 68c2 c73c 14d1 e3bd 3a69 ae3d
00000360: bcb7 fe3d b010 f8bc f015 dfbd c8e9 f8bd
00000370: 9c9e 4c3d 1aca d43d 8224 9cbd 40e3 03bc
00000380: 40f7 95bb 4acc babd 0c8a 2b3d 8e26 d2bd
00000390: 54be afbd 606a 6ebc f852 91bd e89c b5bc
000003a0: 96d7 ecbd a857 ae3c 480c b13d 3e57 c3bd
000003b0: ec82 d53d 00a5 143b d8e1 f3bd d498 ca3d
000003c0: f24e f5bd 18b6 a03d ae30 b4bd 5c2a b4bd
000003d0: 844a 323d 44d5 883d 1872 9a3c 842b 3fbd
000003e0: 3043 cb3c d482 593d 109c 49bc f851 e8bd
000003f0: b8c5 ca3d d4d1 6abd c088 26bb bce6 d8bd
-0.08764806 0.08988936 -0.108886346 -0.026559964 -0.016258746 -0.03456166 0.0996314 -0.004449507
0.10746834 0.016023993 0.11104432 0.06446048 -0.08508371 0.07758558 -0.08345729 0.071442574
-0.072013356 -0.041149918 -0.08590981 0.0060328944 -0.120909795 0.12236212 0.050108045 0.06928401
0.06287828 -0.10260399 -0.062921375 -0.05027033 -0.039238606 -0.08443928 -0.04502295 -0.071437806
-0.04241137 -0.056546334 0.0065715346 -0.08939296 -0.042296223 0.00043860078 -0.09408026 0.045730446
0.010101466 -0.045158666 0.03952585 -0.06054014 0.028159693 0.025215343 0.03946895 -0.01450804
0.05972521 0.033721875 0.078380585 0.035840884 0.056019753 0.023369644 0.03947168 0.0048786146
-0.0944198 0.024723887 -0.08721345 -0.123091295 -0.06749364 0.087089494 0.11554134 0.09388316
0.019060602 0.07356016 -0.025929319 -0.09235655 0.12856787 0.050189074 -0.008981382 -0.10792376
0.06905927 0.11845985 -0.051302873 0.022702992 -0.10243265 -0.09751335 -0.114487745 -0.039724626
0.01114209 0.009289309 0.08857736 0.09876042 -0.03559685 0.043990947 -0.058904458 0.06444552
-0.08353568 -0.047746215 0.09217206 -0.037494507 0.07693711 -0.11180776 -0.021061493 0.06526075
0.10146083 -0.029359153 -0.09107337 -0.10071083 0.023013823 0.034928903 0.047152862 -0.06389269
-0.021508496 -0.05205554 0.036519304 -0.044828657 -0.08542532 0.07097453 0.051900897 0.075992994
0.10869763 0.09584157 0.11325857 -0.03409976 -0.010582672 -0.06335131 -0.014862436 -0.025505267
0.13314043 0.024260616 0.08582736 0.118382625 0.11367096 -0.035233982 -0.12548141 -0.0071365456
-0.03386977 -0.117081404 0.11895949 -0.10257172 -0.12411188 0.09958313 -0.08505441 0.055308525
-0.12078734 0.102728724 0.069954485 0.0029625818 0.119182505 -0.01607716 -0.11224215 -0.02864055
0.08103694 -0.09251601 0.03417203 -0.011755256 -0.06306849 0.04375655 -0.11214032 0.059804156
0.028333912 -0.0991695 0.039690595 -0.025906919 -0.06958027 0.031051507 0.01839775 0.12092202
0.11613169 -0.033451974 -0.053251814 0.04616827 -0.07828327 0.056339845 -0.10521395 -0.034564715
0.11489656 -0.065000184 -0.05504489 -0.03769037 0.112904 -0.10562484 -0.09539149 -0.04252634
-0.098416544 0.10106922 0.0976569 0.109494686 0.05366355 -0.021742817 -0.1129804 0.12250902
0.09593782 0.027564561 0.021687733 -0.11566105 0.068552084 5.785292e-05 -0.11356063 0.01674724
0.0012765974 -0.09576997 -0.031423807 -0.039503917 -0.075543 0.081196204 0.022700176 0.102852315
-0.024573594 -0.11633678 -0.04386565 -0.048301414 0.08867276 0.11295158 0.093314424 0.025803253
-0.0059688836 -0.09341614 -0.0420873 0.0927767 -0.011888489 0.024384692 -0.11123863 0.08516164
0.12437388 -0.030281395 -0.10892856 -0.12153965 0.04995595 0.1039011 -0.07624151 -0.008049786
-0.0045765936 -0.09120996 0.0418797 -0.1026126 -0.08581224 -0.014551729 -0.07095903 -0.022169545
-0.11564557 0.021282032 0.086449206 -0.095381245 0.10425362 0.0022681355 -0.11908311 0.09892431
-0.11977948 0.078472316 -0.087983474 -0.08797142 0.043528095 0.06681302 0.018853232 -0.04667236
0.024812311 0.053103283 -0.012305275 -0.11343759 0.09900993 -0.057329014 -0.00254111 -0.10590884

fc2.bias f4 [64]
00000000: 4d85 143d 520e 8cbb 1e14 24bd c2fe d0bd
00000010: 265a a9bd af13 57bd cb0e 2a3c 223e f5bd
00000020: 1a8a a83d ed4a 23bb e076 df3c fe64 003a
00000030: dead 143d 8f89 bc3d ce49 42bd 1cab 97bd
00000040: d670 603d e55d 243d 9a30 eb3d ea76 033d
00000050: 96a7 e1bd 9204 b5bd 1305 6cbd 7d55 a43d
00000060: 86c7 cbbd 17a7 513d 80ba 83bd 0e34 86bd
00000070: c873 803d 1f8e e1bd 1031 0f3c 695f c83d
00000080: 2eca df3d 55ab 3c3c 5390 683c f649 8bbb
00000090: 6c3b 69bd dea3 e6bd 46ab 903d ec3a 9e3d
000000a0: 260b 29bd 437e 77bd 7633 85bd 6abf 4ebd
000000b0: 00b0 b53c 93d0 cfbd 1170 00bd 04b8 e23d
000000c0: 5763 f0bd 9b0c d1bd 8c85 d43d 7886 a7bd
000000d0: 1e76 453c a05a 983b acba b03d 7885 f53d
000000e0: 1b50 90bd 1684 debd 14c8 143d bc12 22bd
000000f0: f417 cfbd a1fc c13c 342e 823c db6d bcbc
0.036259938 -0.004274168 -0.040058248 -0.10204841 -0.082691476 -0.052509006 0.0103795035 -0.119747415
0.08229466 -0.0024916485 0.027278364 0.00048978615 0.036298625 0.09205925 -0.047433667 -0.074056834
0.05479511 0.040128607 0.114838794 0.032095827 -0.110182926 -0.08838762 -0.057622027 0.08024118
-0.099501655 0.05118474 -0.064320564 -0.065528974 0.062720835 -0.110134356 0.008739725 0.09783823
0.109272346 0.011515458 0.014194566 -0.00425076 -0.056941435 -0.11261724 0.07063918 0.07726082
-0.041270398 -0.060423147 -0.06503956 -0.050475515 0.02217865 -0.10147204 -0.031356875 0.110702544
-0.117376976 -0.102074824 0.103770345 -0.08179945 0.012052087 0.004649475 0.08629355 0.11988348
-0.07046529 -0.10865037 0.036323622 -0.039568648 -0.101119906 0.023680033 0.015891172 -0.023001602

fc3.weight f4 [6, 64]
00000000: b971 a03c 0de0 8f3c eae9 8a3d e02c 21bd
00000010: 3169 b93c 8ad5 613b e490 f93d 1894 873c
00000020: a2b1 033d 12b5 813d 8444 ce3d 454e 283d
00000030: 7abc f7bd fa37 643d 6d87 fe3d 8fff 93bd
00000040: 40ac 7cbd 11cf d03d c956 503d 528a dcbc
00000050: 4b0b e03d 3832 e4bd 9589 d63d 2623 47bd
00000060: 7bb2 c1bc d21b d2bc c2f3 f5bd d43c 573d
00000070: 41b4 59bd 6cce ebbd 086c 953d 00b8 02b9
00000080: de16 a9bc 6b56 de3d 4d36 b4bd 03f9 c7bd
00000090: 7434 253d e0b0 8eba 7ebd 75bc 6339 ddbb
000000a0: ab66 9e3c 459b 67bd deed 8b3d dd37 ecbd
000000b0: 0888 d4bc 6506 f0ba 255e 6a3d 3b55 813d
000000c0: f435 313d 922c cf3d 656c 663c 9754 4c3c
000000d0: e3eb 0cbd f4fb 18bd 9312 903d 137e dd3b
000000e0: c6e0 dd3d 04a0 9d3d 062c 953c c0a0 7b3d
000000f0: 983b 903c 7291 a73d 0c06 55bd 2267 c03d
00000100: 8dd2 9dbd 0fab 073e a957 423d 80cd aeba
00000110: 76b8 ccbd aa35 4c3d 3010 603d 6060 f2bd
00000120: b458 f4bb 5b46 8f3d 969f 8abd 0f9e c23c
00000130: 35ee b9bd 07d3 453d 1d2d 00be cb46 a5bd
00000140: 995a b03d 52cd e23d 4fde c53d 4889 a9bd
00000150: ae21 a23d 40b7 a43c fa1a 37bd 3e7d fbbd
00000160: cd71 8c3c 5abc d2bd 0373 d73d 009c 153c
00000170: c3bd 4abd 771f ae3d 7446 02bd 289d 2fbd
00000180: 458a 29bd 319e a93d 7b41 cf3d 5e5a b13d
00000190: 3ed9 0b3d 3166 b13d 4dbe 8c3d 4147 a8bd
000001a0: 35a3 913c 67a6 82bd aee7 073d a145 94bc
000001b0: f844 6bbd 7be9 a43d 9009 463d ba88 893d
000001c0: 8244 e8bc 22b6 263d c74e 09be e7c4 ecbd
000001d0: 98fe 93bd 664d 8b3d 7aeb a6bd 7f97 9d3d
000001e0: b188 0bbb 00d4 2cbd 3e7c ea3d 1cea 2d3d
000001f0: b443 5a3d 93f6 bcbc d57a a5bd 76e1 fd3d
00000200: a19a fdbd 567e 7abd 20b6 ccbd 800c 12bd
00000210: 2eb8 c4bd c61c 14bd f6e1 a43d 42e5 9dbd
00000220: eb1b b63c aaa3 183d 3c61 eebd a07e 4ebd
00000230: f842 c33c 1d6d f23d fb97 15bd 4edb faba
00000240: 2c65 0e3d b719 b53d f4ad be3c b4e0 803c
00000250: e56d bb3d 12c5 563c 269b a43d 5812 283d
00000260: 49fb 86bd 83e7 65bd 4c72 a2bc 7c75 3bbd
00000270: 0ca8 b6bd 6568 62bd 38f5 c1bc a8a9 e7bd
00000280: 73cc e53d 1cdc 8d3d 3d66 af3d d2ca e63d
00000290: e4f4 4ebd 16c7 f0bd fcdc 4abd e270 cebd
000002a0: c4e4 e6bd ec61 bfbd 6ad2 bf3d 7d74 bfbd
000002b0: d4b8 d6bd a2b4 243d 3e20 b63d d560 bcbc
000002c0: abd3 82bd 1359 d63d fdd5 903c 6141 a3bd
000002d0: 8f40 f93d f520 cfbb 9434 213c 26e9 cebd
000002e0: 3019 f8bc 6009 c23d 1d83 6e3d 68f9 b03d
000002f0: b732 b9bd a1f2 22bd b54d 7c3d 02cd bc3d
00000300: 00f2 9b3d 6979 bdbd 5353 06bd e496 a03d
00000310: 81d7 e1bd f053 72bd 22e8 6dbd c404 ffbd
00000320: 9e2b b03d 0ed7 80bd 5212 9f3d a123 323c
00000330: d882 7d3d a3fa a3bd a9b3 423d 409d bcbd
00000340: 48b8 a13d ee32 d33c a5b9 d63d cdea 973d
00000350: 4838 c5bd 1157 343d a3ae ee3d aed8 bd3d
00000360: b952 d0bd 9d7d c23d 9406 7837 7ca2 0abd
00000370: 8019 823d 8c92 df3d 9466 5c3d b27a a9bd
00000380: dad4 4fbd e1c0 b9bd 600d d3bd 23a2 9abd
00000390: 0136 59bd 2c2f 593d 3d06 c1bd 9e96 483d
000003a0: 5997 643d 4fc6 28bc 50d7 e23d 7e45 79bd
000003b0: e8c3 d4bc 88d6 c0bd 5dff ad3c 8031 f7bc
000003c0: 49f8 f83d 561e 0bbd 05d0 b03d 2aeb 88bd
000003d0: b64b 84bd 9937 d4bd d957 90bd 33bc 8dbd
000003e0: 1540 f13d d68d e43d a0e8 fb3c f6c8 fbbd
000003f0: fd6d ec3d 986d f23d 2c28 e7bd e26b 783d
0.019585477 0.01756289 0.06782897 -0.039349437 0.022633167 0.0034459555 0.12185839 0.016550109
0.032151826 0.063333645 0.10071662 0.04109027 -0.12096496 0.055717446 0.12428174 -0.07226478
-0.061687708 0.10195745 0.050864015 -0.026921425 0.10939654 -0.11142391 0.104754604 -0.048617505
-0.023644676 -0.025648031 -0.12009384 0.052548245 -0.05315042 -0.11513981 0.07295996 -0.00012466311
-0.020640787 0.10856327 -0.087994196 -0.09764292 0.040333226 -0.0010886453 -0.014998792 -0.006751226
0.019336065 -0.05654456 0.06832479 -0.115340926 -0.025943771 -0.0018312453 0.05721869 0.063150845
0.043264344 0.10115923 0.014063929 0.01247134 -0.034404647 -0.037349656 0.07034793 0.006759414
0.10833888 0.07696536 0.018209469 0.0614326 0.017606542 0.08182038 -0.05200772 0.09394671
-0.07706175 0.13248847 0.04744688 -0.001333639 -0.09996121 0.049855866 0.054702938 -0.11834788
-0.0074568633 0.06995841 -0.0676872 0.023757009 -0.090786375 0.048296954 -0.1251721 -0.08070143
0.0861103 0.11074318 0.096615426 -0.082781374 0.0791658 0.020106912 -0.04470346 -0.122797474
0.017144108 -0.102898315 0.105199836 0.009131432 -0.049497377 0.08502095 -0.03180547 -0.042874485
-0.04139163 0.08282126 0.10119911 0.08659814 0.034142725 0.086620696 0.068722345 -0.082167156
0.017778018 -0.06379395 0.03317993 -0.018099608 -0.05743882 0.08052345 0.048348963 0.06715532
-0.02835298 0.04070104 -0.13408957 -0.11560994 -0.07226294 0.06801872 -0.08150382 0.07694911
-0.0021291191 -0.042194366 0.114494786 0.042459592 0.053287223 -0.023066794 -0.08080069 0.12396519
-0.12383009 -0.06115564 -0.09995675 -0.035656452 -0.09605442 -0.036160253 0.08050911 -0.07709743
0.02223011 0.037265457 -0.1163964 -0.050413728 0.023835644 0.11837218 -0.036521893 -0.0019138844
0.034764454 0.08842795 0.023276307 0.015732147 0.0915182 0.013108509 0.08037405 0.04103312
-0.065908976 -0.05612899 -0.019829892 -0.04576634 -0.08918771 -0.05527534 -0.0236765 -0.11311656
0.11220636 0.06926748 0.08564422 0.11269154 -0.050526515 -0.11756723 -0.049527153 -0.100801244
-0.11274102 -0.09344849 0.09366305 -0.0934839 -0.10484472 0.040211327 0.088928685 -0.022995392
-0.06388029 0.10466208 0.017680163 -0.079714544 0.12170517 -0.0063210675 0.009839196 -0.10103063
-0.030285448 0.094744444 0.058230508 0.086413205 -0.09042876 -0.03978217 0.061597545 0.0921879
0.07614517 -0.09251673 -0.032794308 0.0784128 -0.11027432 -0.05916208 -0.058082707 -0.12452081
0.08602069 -0.062910184 0.07767166 0.010872752 0.06189236 -0.080067895 0.04753462 -0.092096806
0.07896477 0.025781121 0.10484628 0.074178316 -0.096298754 0.044028345 0.11654403 0.09269844
-0.10172028 0.09496615 1.47834835e-05 -0.033846363 0.0635252 0.109166235 0.053808764 -0.082753554
-0.0507401 -0.09069992 -0.103052855 -0.075504564 -0.053030018 0.053023502 -0.09425018 0.048971765
0.0558084 -0.010301187 0.11076224 -0.06085729 -0.025972322 -0.094159186 0.02123993 -0.03017497
0.12156732 -0.033964477 0.086334266 -0.06685479 -0.06459753 -0.10362167 -0.070480056 -0.06920662
0.11779801 0.111598656 0.030750573 -0.1229419 0.11544416 0.118373096 -0.11286959 0.06064976

fc3.bias f4 [6]
00000000: 4083 8cbc e59f e63d d751 46bd 31fc ac3d
00000010: 3d2d fb3d cf1c ab3d
-0.017152429 0.11260966 -0.048417892 0.08446539 0.12264488 0.08355104

fc1.weight f4 [64, 4]
00000000: 0c73 19be 95de 463e 1b66 d33e 7ab1 d8bc
00000010: eb46 bfbd 9b1f b43e 4dcd c6be 49f0 81bd
00000020: 8bc5 cdbe 1ad9 0b3d 5a48 16be 0b8f f63d
00000030: fa32 d7be f1f7 873d 4574 a73d 9bcf e63e
00000040: 6abd f33e fb0d 92be b0ce dfbe c8f3 103e
00000050: 9200 793e 68a3 2cbe fa78 bcbe 510b 1e3d
00000060: 7449 f8be b061 ef3e 39c5 f0be 00ee ecbd
00000070: e0ea df3e 9879 f03e 3705 9e3e 09de cebe
00000080: 1691 8abe 638a c83e 2cf4 a43b 45c1 d23c
00000090: 34be f7be fc4e 84be d09e 77be 80a9 3cbc
000000a0: d5b0 ef3b 1ada c5be 8a84 80be 4497 babe
000000b0: 8aff a03e 7615 6b3e dbc3 e63d 1344 17be
000000c0: ac18 813e ce94 6ebe 6c86 b03e 6d36 083d
000000d0: 449e f3be 58d6 203d c289 dabe 4cba 7dbe
000000e0: 7dc3 e63d 5c19 fabe a268 e6be 988f 533e
000000f0: 71e5 b33d f1c5 c33e 6307 a43d b62b 4a3d
00000100: e926 cb3e a3f0 983e 1053 9abd 396a e93d
00000110: b011 a63e 66fd c53e 9ef5 133e e3d7 f4be
00000120: 1486 bdbe 683d c6be 94da 0abe 5cd0 edbe
00000130: 287b f43b b1a6 82bd 20c3 9ebd 9274 ba3e
00000140: ef57 4a3e fa4c 863d e6b3 2bbe 6824 c33e
00000150: c135 b63d 261f 1ebe b36c 4a3e cb42 80be
00000160: 4474 af3e bd86 d43e 3bb7 e03d 2fc2 74bd
00000170: d791 113e 99b1 153e d613 fdbd 304b 4a3d
00000180: cbdf 47bd 69ac b9be 5e7c db3e 8b24 a6be
00000190: 7784 9ebe 3195 bf3e f31c bebe 5d0f 89bd
000001a0: f86d e1be a87f 153d 5814 983e 4e70 6a3e
000001b0: f44c fd3e 927f 08be 13f9 f1be 7645 d5be
000001c0: 0a01 e4be 139c af3d a086 e53d b821 f6be
000001d0: 4d2b 493e 24e6 83be 4908 993e 534f b6be
000001e0: 4449 aa3e a48e b8be 858a 56be f2fe 8a3e
000001f0: 359e 8c3d 4fa5 a8bd c74d 873e f981 0d3c
00000200: ba4e 983e 8619 d73e 98fe f53e 9163 9bbe
00000210: 4be8 c7be 338c 303e 8e8d efbe c402 9f3e
00000220: 0daa a2be a2bf 4f3d 5b86 b6bb 0b57 db3d
00000230: fc43 49be 60ce d13e e416 f4be 39d1 23bd
00000240: 5b44 ec3d d5d2 fd3e 7c59 893e 37c6 99be
00000250: 7272 8bbe bf07 5abe 7671 66bd ea1a 253e
00000260: 5ab3 af3e 18f0 07bd ebfe d43e 2019 b13d
00000270: 8d1b e9bd 55eb 783e 0513 a23e 9c09 30be
00000280: 1245 a03e 1ba6 ee3e 3e91 613e 460c a83d
00000290: d7a8 d43e 9853 eb3e bb83 b8be a505 74be
000002a0: a013 edbe f0ce dabe dcee a2be 2c2a 4bbe
000002b0: 5c22 1a39 c7cf f8be 1e94 c13e ee9e 8ebe
000002c0: 3474 0ebe 287a f8be 38cf dbbe 8a6c bfbe
000002d0: 44a2 37be 5659 f1be 2037 cc3c 50f9 02bd
000002e0: 6e0f 883e 9f78 e83d 8513 303d ca56 c23c
000002f0: 514d bf3d b04b f53e 7ade 883e 7b89 d8be
00000300: 3bf6 c53e 5df9 bc3e c684 013e df3f b33e
00000310: dc6b d8be 51fd f93e e5b1 1a3e 1c96 bf3d
00000320: 957a 72be 7fe9 c53d bb82 a23e aafa ccbe
00000330: aa38 263e fba9 ee3e b7a0 d93e c82e cfbe
00000340: 438a 373c c1bb 033e 7c0b 94be cdc0 ad3c
00000350: c423 b43e 3088 953e 45bc e8be 812c e53e
00000360: a883 aa3d 6bd2 b83e 00e8 c9be 72ff 0b3e
00000370: ea7d 3b3d 21e3 373e 00bc d7be deec 94bd
00000380: 2754 603a 72a0 ec3e 12d8 ebbd 0aca 6e3e
00000390: 412d 003e 196a d73e fd52 ee3e 61ae 3bbe
000003a0: 5eba ba3e 9194 313e c86f 2ebe 8c3f d13e
000003b0: 1d95 a03e bdd3 52be c2ae 973d 0cf4 d0bd
000003c0: 39b2 37be 4c81 fdbd 652d 8a3e d067 e2be
000003d0: d0f5 d53e 3a5d 30be aaa4 463e 1daa bdbe
000003e0: 60da d0be c006 d7be 4788 e73e c7af 0e3d
000003f0: c703 b9be 7d33 07be c846 09bd 1a0c 8e3e
-0.14985293 0.19420846 0.41288838 -0.026451815 -0.093396984 0.35180363 -0.38828507 -0.06344659
-0.40189776 0.03414259 -0.14676037 0.12039002 -0.4203108 0.06639088 0.081764735 0.45080265
0.4760545 -0.2852629 -0.43712378 0.14155495 0.24316624 -0.1685921 -0.36811048 0.03858501
-0.4849354 0.46754217 -0.4702547 -0.115688324 0.43733883 0.4696777 0.30863354 -0.40403774
-0.27063817 0.3916808 0.0050339904 0.025726924 -0.483873 -0.2584151 -0.24181676 -0.011515021
0.007314781 -0.3864296 -0.2510112 -0.36443532 0.3144496 0.22957405 0.11267825 -0.14772062
0.25214136 -0.23298952 0.34477556 0.03325503 -0.47581685 0.039266914 -0.42683226 -0.24778098
0.11267755 -0.48847473 -0.45001704 0.20660245 0.08783997 0.38236955 0.080092214 0.049358092
0.39678124 0.2987109 -0.07535374 0.113972135 0.3243537 0.3866989 0.14449164 -0.47820958
-0.37016356 -0.38718724 -0.13559943 -0.46448028 0.0074609704 -0.0637945 -0.07752061 0.3641706
0.19760107 0.06557651 -0.16767845 0.38113713 0.088969715 -0.1544157 0.19768028 -0.2505096
0.3426839 0.41509047 0.109724484 -0.0597555 0.1421579 0.1461853 -0.12357299 0.04938811
-0.04879741 -0.3626435 0.42868322 -0.32449755 -0.30960438 0.37418512 -0.37131462 -0.066923834
-0.44029212 0.036498696 0.2970302 0.22894403 0.49472773 -0.13329914 -0.4726034 -0.41654557
-0.44532043 0.08574691 0.11207318 -0.480726 0.19645424 -0.2576152 0.29889134 -0.35607395
0.33259022 -0.36046326 -0.20951279 0.27147633 0.06866113 -0.08234655 0.26426527 0.008636945
0.29747564 0.4201166 0.48045802 -0.303494 -0.39044413 0.17240982 -0.46787685 0.31056798
-0.31770363 0.050719865 -0.0055702156 0.107099615 -0.1965484 0.40977764 -0.47673714 -0.039994452
0.11536475 0.49574915 0.26826084 -0.30034038 -0.27235752 -0.21292017 -0.05626055 0.16123548
0.34316522 -0.033187956 0.41600737 0.0864737 -0.11382208 0.24308522 0.31655136 -0.17191166
0.31302696 0.46611103 0.22028062 0.08205466 0.41535065 0.45962214 -0.36038002 -0.23830278
-0.46304035 -0.42736006 -0.3182286 -0.19840306 0.00014699384 -0.48596022 0.37808317 -0.2785563
-0.13911515 -0.48530698 -0.42931533 -0.37387496 -0.17932993 -0.4713847 0.02492863 -0.031976044
0.26574272 0.11351132 0.042987365 0.023723025 0.09340919 0.47909307 0.26732236 -0.4229239
0.3866442 0.36909 0.12648305 0.35009667 -0.4226979 0.48826078 0.15106924 0.09354803
-0.23679574 0.096636765 0.31740364 -0.40034992 0.16232553 0.4661406 0.42505428 -0.4046538
0.011202398 0.12864591 -0.28915012 0.021210099 0.35183537 0.29205465 -0.45456138 0.44760516
0.08325893 0.36098036 -0.39434814 0.13671663 0.045774378 0.17957737 -0.4213562 -0.07271741
0.00085574616 0.4621616 -0.115158215 0.2331926 0.12517263 0.42073134 0.4654769 -0.18328239
0.36470312 0.1734183 -0.17034829 0.40868795 0.31363764 -0.20588584 0.07406379 -0.10202798
-0.1793908 -0.12378177 0.26987758 -0.44219828 0.41789103 -0.17223063 0.19398752 -0.3704385
-0.40791607 -0.41997337 0.4522116 0.034835603 -0.36135694 -0.13203235 -0.033514768 0.27743608

fc1.bias f4 [64]
00000000: 21f2 a23e 154b 743e 4803 ef3e ad18 4fbe
00000010: 88df e1be 30db b23e 1e88 75be c0c2 b53e
00000020: d2d4 9f3e 4c28 9abe c16b b3bd 8422 b13c
00000030: 35d0 703d 327a d33e af75 ecbe a0e6 e7be
00000040: 6e48 82be 10da e1be 48ce 343e a626 d03e
00000050: 3689 e63d af68 c6bd 1681 00bf eac1 3abe
00000060: 4229 6c3e 99c8 bd3e 2aed 833e 00dd b7be
00000070: 17bb 0b3e 7d0c e8be 6ed1 aabd 15b5 0cbd
00000080: b808 d5bc e300 7abe 351d b43e 605a 463e
00000090: c848 8a3e c91e 07be c2d8 0e3e 3abe a33e
000000a0: de15 fb3e c244 95bc c8db e1be 609d bbbe
000000b0: 04b9 b53e 0cbb 4b3e 8e82 d43e 2c6c c0be
000000c0: be80 f83e 8bcb 2d3e 67e5 2b3e 2734 da3d
000000d0: c953 0dbe 6376 37be 7c1d 31be 3e9a a03e
000000e0: c1f0 aabe 2d11 79be b050 04be 716a c13e
000000f0: d288 e33e 06e3 833d c343 b2be 2ca0 6cbe
0.31825355 0.23856767 0.4668219 -0.20224257 -0.44115853 0.34932852 -0.23977706 0.35500145
0.31217057 -0.3010887 -0.08760787 0.021622904 0.05879231 0.41304165 -0.46183535 -0.4529314
-0.25445884 -0.4411168 0.17656815 0.40654486 0.1125664 -0.096879356 -0.5019697 -0.18238035
0.23062614 0.37067106 0.2576688 -0.35910797 0.13645588 -0.45322028 -0.08340727 -0.03435238
-0.026005134 -0.24414401 0.35178533 0.19370413 0.27008653 -0.13195337 0.13949874 0.3198107
0.4904012 -0.018221263 -0.44112992 -0.36643505 0.35492718 0.19895571 0.41505855 -0.3758253
0.48535722 0.16972177 0.16786729 0.106544785 -0.13801493 -0.17916255 -0.17296404 0.31367677
-0.33386806 -0.24322958 -0.12921405 0.3777652 0.44440323 0.06439786 -0.34817323 -0.23107976

fc2.weight f4 [64, 64]
00000000: d380 b3bd ea17 b83d ceff debd 4894 d9bc
00000010: 1031 85bc 8790 0dbd 8c0b cc3d 2ccd 91bb
00000020: 5c18 dc3d c044 833c 346b e33d db03 843d
00000030: 5e40 aebd 30e5 9e3d a8eb aabd 7c50 923d
00000040: bd7b 93bd d18c 28bd 7cf1 afbd 96af c53b
00000050: 8e9f f7bd fe98 fa3d 183e 4d3d c6e4 8d3d
00000060: 54c6 803d 0a22 d2bd ecdc 80bd 43e8 4dbd
00000070: a9b8 20bd 80ee acbd fc69 38bd fc4d 92bd
00000080: 8bb7 2dbd 219d 67bd 0756 d73b a813 b7bd
00000090: ce3e 2dbd 00f4 e539 27ad c0bd d94f 3b3d
000000a0: 9f80 253c 4bf8 38bd dce5 213d f0f8 77bd
000000b0: 28af e63c 6890 ce3c 32aa 213d 21b3 6dbc
000000c0: 6ca2 743d f31f 0a3d 0086 a03d e4cd 123d
000000d0: f874 653d b271 bf3c 0ead 213d c9dc 9f3b
000000e0: 2b5f c1bd c089 ca3c f79c b2bd 4a17 fcbd
000000f0: 1b3a 8abd fa5b b23d f0a0 ec3d d045 c03d
00000100: 1820 9b3c 0b49 963d ce1c d2bc d99e bcbd
00000110: 395c 033e d844 4c3d 8686 11bc 1d7c ddbd
00000120: 143a 8d3d 149b f23d ee4c 51bd 701c b83c
00000130: 3d24 d2bd 14b5 c7bd 73cd eabd 8690 23bd
00000140: 10bd 323c 6e7c 143c 0c68 b53d 1c4e ca3d
00000150: e6ce 12bd 52be 353d 6130 72bd ce7d 833d
00000160: b335 a9bd f2bf 43bd fe2d bd3d 0bc6 1abd
00000170: 3491 9d3d 7c9a e4bd 7548 aebc bd64 853d
00000180: aa59 cf3d 9ae9 edbc d210 babd 7488 cebd
00000190: f8ce ba3c 26fb 0f3d 1536 403d fb32 83bd
000001a0: ebfd b1bc 7d2f 56bd 4495 153d 19a6 33bd
000001b0: 78f3 aebd 185b 913d fe9d 533d 3e34 9b3d
000001c0: af26 de3d c331 c43d ca36 e83d 2389 0cbd
000001d0: 4d9d 30bc 103b 82bd 332d 77bc 8acc d2bc
000001e0: 7c20 083e bc11 c53c 194a af3d 52e7 f13d
000001f0: 52cc e83d 035b 11bd 5b88 00be b2ec e3bb
00000200: ee85 0abd 60c8 efbd 08a1 f33d c0f4 d1bd
00000210: 6d2c febd 3df2 cb3d 0231 aebd e3a7 623d
00000220: 6950 f7bd 7063 d23d 4c44 8f3d 8908 443b
00000230: 8029 f43d 40b4 83bc 36df e5bd ad4f eabc
00000240: 8109 a63d 2174 bdbd f8f7 0b3d 9ba4 3fbc
00000250: e20e 81bd ef3c 333d 0299 e5bd af15 753d
00000260: 811e e83c 6119 cbbd 47cf 223d bf3a d4bc
00000270: 1a80 8ebd c966 fe3c 74f2 963c 60bb f73d
00000280: 38e7 ed3d f004 09bd 931e 5abd f11a 3d3d
00000290: 3f44 a0bd 9cc4 663d 6e65 d7bd 946b 0dbd
000002a0: 3064 eb3d b71a 85bd c076 61bd 3861 1abd
000002b0: 363a e73d d651 d8bd dd48 c3bd 6c24 2ebd
000002c0: 4a77 c9bd 2d12 cf3d 5700 c83d fb4c e03d
000002d0: 50ce 5b3d 90bd b1bc a85c e7bd 02e6 fa3d
000002e0: 1795 c43d 6d19 e23c ab09 b23c 9dd2 ecbd
000002f0: 0965 8c3d 4c5f 9038 7a92 e8bd 8231 893c
00000300: 8053 a73a 0c23 c4bd 40b6 00bd dcce 21bd
00000310: 4ab6 9abd 324a a63d b8f5 b93c 3ca4 d23d
00000320: 904e c9bc fa41 eebd 78ac 33bd b4d7 45bd
00000330: 109a b53d 2853 e73d a21b bf3d 5861 d33c
00000340: a096 c3bb f650 bfbd bc63 2cbd b601 be3d
00000350: f0c7 42bc 68c2 c73c 14d1 e3bd 3a69 ae3d
00000360: bcb7 fe3d b010 f8bc f015 dfbd c8e9 f8bd
00000370: 9c9e 4c3d 1aca d43d 8224 9cbd 40e3 03bc
00000380: 40f7 95bb 4acc babd 0c8a 2b3d 8e26 d2bd
00000390: 54be afbd 606a 6ebc f852 91bd e89c b5bc
000003a0: 96d7 ecbd a857 ae3c 480c b13d 3e57 c3bd
000003b0: ec82 d53d 00a5 143b d8e1 f3bd d498 ca3d
000003c0: f24e f5bd 18b6 a03d ae30 b4bd 5c2a b4bd
000003d0: 844a 323d 44d5 883d 1872 9a3c 842b 3fbd
000003e0: 3043 cb3c d482 593d 109c 49bc f851 e8bd
000003f0: b8c5 ca3d d4d1 6abd c088 26bb bce6 d8bd
-0.08764806 0.08988936 -0.108886346 -0.026559964 -0.016258746 -0.03456166 0.0996314 -0.004449507
0.10746834 0.016023993 0.11104432 0.06446048 -0.08508371 0.07758558 -0.08345729 0.071442574
-0.072013356 -0.041149918 -0.08590981 0.0060328944 -0.120909795 0.12236212 0.050108045 0.06928401
0.06287828 -0.10260399 -0.062921375 -0.05027033 -0.039238606 -0.08443928 -0.04502295 -0.071437806
-0.04241137 -0.056546334 0.0065715346 -0.08939296 -0.042296223 0.00043860078 -0.09408026 0.045730446
0.010101466 -0.045158666 0.03952585 -0.06054014 0.028159693 0.025215343 0.03946895 -0.01450804
0.05972521 0.033721875 0.078380585 0.035840884 0.056019753 0.023369644 0.03947168 0.0048786146
-0.0944198 0.024723887 -0.08721345 -0.123091295 -0.06749364 0.087089494 0.11554134 0.09388316
0.018936202 0.073381506 -0.0256485 -0.09209985 0.12828149 0.049870342 -0.008882171 -0.10814688
0.06895843 0.11845985 -0.051098756 0.022474498 -0.10260818 -0.09751335 -0.114649676 -0.03993275
0.010909334 0.0090628695 0.08857736 0.098781794 -0.035841845 0.044370957 -0.05912817 0.0642048
-0.082621954 -0.047790475 0.09237288 -0.037786525 0.07693711 -0.11162278 -0.021274785 0.06513355
0.10124524 -0.029042054 -0.090852395 -0.1008462 0.022803769 0.035151623 0.046926577 -0.06406208
-0.021727523 -0.052291382 0.036519304 -0.043859575 -0.08542532 0.07097453 0.051664345 0.07578324
0.10847222 0.09579804 0.11338575 -0.03431047 -0.010779691 -0.063589215 -0.01508646 -0.025732297
0.13293642 0.024056308 0.08559055 0.11811699 0.11367096 -0.035487186 -0.12552015 -0.0069557065
-0.03381913 -0.117081404 0.11895949 -0.102517605 -0.12410817 0.09958313 -0.08505441 0.05533589
-0.12075884 0.102728724 0.069954485 0.0029912314 0.11921978 -0.01607716 -0.11224215 -0.028602445
0.081072815 -0.092506655 0.03417203 -0.01169696 -0.06301667 0.043759283 -0.112108245 0.059835132
0.028334858 -0.0991695 0.039748456 -0.025906919 -0.06958027 0.031054871 0.018426158 0.12096286
0.11616367 -0.033451974 -0.053251814 0.04616827 -0.07825517 0.056339845 -0.10517393 -0.034526423
0.114937186 -0.06499236 -0.05504489 -0.03769037 0.112904 -0.10562484 -0.09535382 -0.042515203
-0.09837206 0.10110889 0.0976569 0.10952183 0.05366355 -0.021696836 -0.1129697 0.12250902
0.09598749 0.027600015 0.021733126 -0.11563609 0.068552084 6.8842055e-05 -0.11356063 0.01674724
0.0012765974 -0.09576997 -0.031423807 -0.039503917 -0.075543 0.081196204 0.022700176 0.102852315
-0.024573594 -0.11633678 -0.04386565 -0.048301414 0.08867276 0.11295158 0.093314424 0.025803253
-0.0059688836 -0.09341614 -0.0420873 0.0927767 -0.011888489 0.024384692 -0.11123863 0.08516164
0.12437388 -0.030281395 -0.10892856 -0.12153965 0.04995595 0.1039011 -0.07624151 -0.008049786
-0.0045765936 -0.09120996 0.0418797 -0.1026126 -0.08581224 -0.014551729 -0.07095903 -0.022169545
-0.11564557 0.021282032 0.086449206 -0.095381245 0.10425362 0.0022681355 -0.11908311 0.09892431
-0.11977948 0.078472316 -0.087983474 -0.08797142 0.043528095 0.06681302 0.018853232 -0.04667236
0.024812311 0.053103283 -0.012305275 -0.11343759 0.09900993 -0.057329014 -0.00254111 -0.10590884

fc2.bias f4 [64]
00000000: 4d85 143d 8982 93bb 2ce5 23bd c2fe d0bd
00000010: 85ca a8bd 1841 55bd 25b2 2a3c 223e f5bd
00000020: 3204 a83d d939 1ebb e076 df3c 9893 5a3a
00000030: 0b31 143d 6870 bc3d 5052 42bd d108 98bd
00000040: d670 603d 598f 243d 70ce ea3d e951 003d
00000050: 0e4a e1bd 0027 b5bd 7bec 6bbd bb5b a43d
00000060: 0bc8 cbbd 2aee 513d b675 83bd 0e34 86bd
00000070: 9bd9 803d 1f8e e1bd 1031 0f3c 695f c83d
00000080: 10ef df3d bc2d 373c eb0a 673c 0a56 90bb
00000090: 2fc7 6bbd 9eaf e6bd a422 903d 5440 9e3d
000000a0: c158 29bd f9ca 76bd 7633 85bd 05d5 4ebd
000000b0: 00b0 b53c 1967 d0bd 283b 01bd 1042 e33d
000000c0: f664 f1bd 9d3c d1bd 67bc d33d f5ad a7bd
000000d0: 8d42 483c a05a 983b 9e5a b03d 7885 f53d
000000e0: 05fe 8fbd 1684 debd 15e6 133d bc12 22bd
000000f0: 4369 cebd 53c9 c33c ad67 7c3c c959 bdbc
0.036259938 -0.004501645 -0.040013477 -0.10204841 -0.082417525 -0.05206403 0.0104184495 -0.119747415
0.08203925 -0.0024143367 0.027278364 0.0008338033 0.036179584 0.09201127 -0.04744178 -0.074235566
0.05479511 0.04017577 0.11465156 0.031328116 -0.11000453 -0.08845329 -0.057598572 0.08025309
-0.099502645 0.05125252 -0.06418936 -0.065528974 0.06291505 -0.110134356 0.008739725 0.09783823
0.109342694 0.0111803375 0.014101724 -0.004404788 -0.057563003 -0.11263965 0.07037857 0.07727113
-0.041344408 -0.060252164 -0.06503956 -0.05049612 0.02217865 -0.10175914 -0.031550556 0.11096585
-0.11786835 -0.10216639 0.10338669 -0.081874765 0.012222898 0.004649475 0.08611034 0.11988348
-0.07030872 -0.10865037 0.036108095 -0.039568648 -0.10078671 0.02389971 0.015405578 -0.023114102

fc3.weight f4 [6, 64]
00000000: b971 a03c ed1e 933c eae9 8a3d e02c 21bd
00000010: 1483 ba3c 0b82 773b d260 f93d 1894 873c
00000020: e32b 033d 4955 823d 8444 ce3d ead8 283d
00000030: 806b f7bd ea38 653d 0487 fe3d c8ef 93bd
00000040: 40ac 7cbd 577a d13d a4aa 513d e9d5 dabc
00000050: 3f82 e03d 88ce e3bd 93f0 d63d 2d2a 47bd
00000060: e4bf c1bc 2c16 d1bc 4a84 f5bd d43c 573d
00000070: e6e9 58bd 6cce ebbd 086c 953d 00b8 02b9
00000080: a1a1 a8bc 0abb dd3d 8ad5 b4bd 46f9 c7bd
00000090: fd7c 243d e0b0 8eba 9eb2 6fbc 6d3b d7bb
000000a0: 4f25 9e3c 76df 66bd deed 8b3d daf8 ebbd
000000b0: 0888 d4bc d31a f0ba 54aa 6b3d 4a18 823d
000000c0: 8c51 323d 5ca7 cf3d 4e7b 603c 3bcc 4e3c
000000d0: ca50 0cbd f4fb 18bd ec71 903d 137e dd3b
000000e0: b261 de3d 04a0 9d3d 4216 953c c0a0 7b3d
000000f0: 57ca 913c 41d3 a73d 26e9 53bd 1be1 c03d
00000100: 8dd2 9dbd 29ad 073e d855 423d 80cd aeba
00000110: 18bf ccbd ef63 4c3d 5b5c 603d 6060 f2bd
00000120: e27d efbb 3c49 8f3d 969f 8abd 9a82 c23c
00000130: 3bf4 b9bd 5dd3 453d 1d2d 00be f946 a5bd
00000140: 995a b03d 04ce e23d a1c9 c53d dd8f a9bd
00000150: 7f21 a23d cdb3 a43c d92f 37bd 0e90 fbbd
00000160: 0ab8 8c3c c8be d2bd 7773 d73d 009c 153c
00000170: 05c3 4abd 771f ae3d 7446 02bd 289d 2fbd
00000180: 9851 29bd 3f91 a93d d19f ce3d 5e5a b13d
00000190: 7656 0a3d 3166 b13d efbc 8c3d 094b a8bd
000001a0: ff0d 913c 5fac 82bd aee7 073d 3955 94bc
000001b0: f844 6bbd 7be9 a43d 84d7 453d d280 893d
000001c0: 274c e8bc 49a3 263d 383d 09be 2cc6 ecbd
000001d0: 8600 94bd 664d 8b3d 47ec a6bd 7f97 9d3d
000001e0: 22d3 09bb 00d4 2cbd 4552 ea3d 1cea 2d3d
000001f0: 2b3a 5a3d deb7 bcbc bf80 a5bd b9da fd3d
00000200: a19a fdbd 4246 7abd 20b6 ccbd 800c 12bd
00000210: bec0 c4bd 7766 14bd 6ed4 a43d 42e5 9dbd
00000220: 5df8 b53c 99f6 183d 3c61 eebd b368 4ebd
00000230: 65a1 c33c d370 f23d eea1 15bd 181a f7ba
00000240: 2c65 0e3d 1c20 b53d de10 bf3c 6703 813c
00000250: 6971 bb3d 6178 573c 4be7 a43d a9e5 273d
00000260: 7100 87bd 04f8 65bd 2336 a2bc 7c75 3bbd
00000270: fca7 b6bd 6568 62bd 38f5 c1bc a8a9 e7bd
00000280: bce5 e53d b7ab 8d3d e531 af3d 57c6 e63d
00000290: 434f 4fbd 16c7 f0bd 66b1 4abd 206d cebd
000002a0: 6be8 e6bd e44f bfbd 6ad2 bf3d 8342 bfbd
000002b0: d4b8 d6bd 5da8 243d 294f b63d ea9b babc
000002c0: 5ab2 82bd 8e6b d63d 8927 903c 881e a3bd
000002d0: 5e51 f93d f520 cfbb 835b 213c 26e9 cebd
000002e0: 3acf f6bc 6009 c23d 1d83 6e3d 68f9 b03d
000002f0: e437 b9bd 57f0 22bd 4b15 7c3d 77f1 bc3d
00000300: 00f2 9b3d 1e2a bebd eadc 06bd e496 a03d
00000310: f19f e2bd d217 74bd 96b5 6fbd c404 ffbd
00000320: 8f73 af3d ac47 81bd 5212 9f3d 1c91 2f3c
00000330: ff79 7c3d dfe8 a4bd a9b3 423d e9af bcbd
00000340: 48b8 a13d 28f6 d03c 90e3 d53d e41c 973d
00000350: e401 c6bd b734 333d 7ea5 ee3d a1ac bd3d
00000360: c45f d0bd f59d c13d 3f38 a6b9 7ca2 0abd
00000370: 6541 813d 8c92 df3d 9466 5c3d b27a a9bd
00000380: 869c 4fbd ec8f b9bd 62be d2bd 23a2 9abd
00000390: 3cc5 57bd c52c 593d a4c7 c1bd 14fa 463d
000003a0: 8da2 643d 22c9 2dbc 50d7 e23d ec9c 79bd
000003b0: e8c3 d4bc 88d6 c0bd c503 ab3c ca31 f8bc
000003c0: b877 f83d b1a0 0cbd 674b b03d 2c46 89bd
000003d0: 4adb 84bd 9937 d4bd 5412 91bd 33bc 8dbd
000003e0: 9938 f13d d68d e43d 685e fb3c f6c8 fbbd
000003f0: 34a1 eb3d 0d0f f23d a83f e8bd c921 773d
0.019585477 0.017959082 0.06782897 -0.039349437 0.022767581 0.003776672 0.1217667 0.016550109
0.032024276 0.06363923 0.10071662 0.04122249 -0.12081051 0.05596248 0.12428096 -0.07223469
-0.061687708 0.102284126 0.051188126 -0.026713328 0.109623425 -0.11123377 0.10495105 -0.048624206
-0.02365107 -0.025523268 -0.11988123 0.052548245 -0.052957438 -0.11513981 0.07295996 -0.00012466311
-0.020584883 0.108266905 -0.08829792 -0.09764342 0.04015826 -0.0010886453 -0.014629988 -0.0065683634
0.0193049 -0.056365453 0.06832479 -0.11522074 -0.025943771 -0.0018318541 0.057535484 0.06352289
0.0435348 0.10139343 0.013701273 0.0126219345 -0.034256734 -0.037349656 0.07052979 0.006759414
0.10858478 0.07696536 0.01819909 0.0614326 0.017796678 0.0819459 -0.05173602 0.094179355
-0.07706175 0.13249649 0.04744515 -0.001333639 -0.09997386 0.04989999 0.054775577 -0.11834788
-0.0073087076 0.0699639 -0.0676872 0.023743916 -0.090797864 0.048297275 -0.1251721 -0.080701776
0.0861103 0.110744506 0.09657598 -0.08279393 0.07916545 0.020105267 -0.044723365 -0.122833356
0.0171776 -0.10290295 0.1052007 0.009131432 -0.04950239 0.08502095 -0.03180547 -0.042874485
-0.04133758 0.082796566 0.10089076 0.08659814 0.03377386 0.086620696 0.06871974 -0.08217437
0.01770687 -0.063805334 0.03317993 -0.018107044 -0.05743882 0.08052345 0.048301235 0.06714024
-0.028356625 0.040683065 -0.1340226 -0.11561236 -0.07226662 0.06801872 -0.08150535 0.07694911
-0.0021030386 -0.042194366 0.11441473 0.042459592 0.05327813 -0.023036893 -0.08081197 0.12395234
-0.12383009 -0.06110216 -0.09995675 -0.035656452 -0.09607075 -0.03623053 0.0804833 -0.07709743
0.022213155 0.03734455 -0.1163964 -0.050392818 0.02388067 0.11837926 -0.03653138 -0.0018852381
0.034764454 0.08844015 0.023323473 0.015748693 0.09152491 0.013151259 0.08051928 0.040990505
-0.06591881 -0.05614473 -0.019801205 -0.04576634 -0.08918759 -0.05527534 -0.0236765 -0.11311656
0.11225459 0.06917518 0.085544385 0.11268299 -0.0506127 -0.11756723 -0.049485587 -0.10079408
-0.11274799 -0.0934141 0.09366305 -0.09338858 -0.10484472 0.040199626 0.08901817 -0.022779424
-0.06381674 0.10469733 0.017596977 -0.07964808 0.12173723 -0.0063210675 0.009848478 -0.10103063
-0.03012811 0.094744444 0.058230508 0.086413205 -0.090438634 -0.039779987 0.061543744 0.09225743
0.07614517 -0.09285377 -0.032925524 0.0784128 -0.11065663 -0.05959303 -0.058522783 -0.12452081
0.08566963 -0.063124985 0.07767166 0.010715749 0.061639782 -0.08052229 0.04753462 -0.0921324
0.07896477 0.025508001 0.10443795 0.07378557 -0.09668329 0.043751445 0.11652659 0.09261442
-0.10174516 0.09453956 -0.00031703894 -0.033846363 0.06311301 0.109166235 0.053808764 -0.082753554
-0.05068638 -0.09060654 -0.10290219 -0.075504564 -0.05267833 0.05302121 -0.094619066 0.048578337
0.055819083 -0.010607036 0.11076224 -0.060940668 -0.025972322 -0.094159186 0.02087582 -0.030297179
0.121322095 -0.034332935 0.08608132 -0.06702837 -0.064871386 -0.10362167 -0.07083574 -0.06920662
0.11778373 0.111598656 0.030684665 -0.1229419 0.115053564 0.11819277 -0.113402665 0.060334954

fc3.bias f4 [6]
00000000: 2226 8bbc d9b5 e63d 4993 46bd 6c17 ac3d
00000010: 94ab fa3d 3233 aa3d
-0.016985957 0.112651534 -0.048480306 0.08402905 0.12239757 0.08310546
