saved_models/dqn_best_model_episode_145.pt (torch, 87147 bytes, 24 tensors)

fc1.weight f4 [64, 4]
-0.3036325 0.33537906 0.33456007 -0.062941074 0.45031673 -0.24563362 0.037542067 0.34214494
0.37989062 -0.43594006 0.2504765 0.019360965 -0.21284431 0.15529343 0.12790102 0.24388455
0.39952764 -0.03597764 0.3771392 0.4557212 0.060923792 0.010649914 0.07863445 -0.22798459
0.46092036 0.24215841 -0.17757432 0.49615628 0.03910245 0.19310278 0.13725746 -0.35706872
-0.3009565 -0.0019363576 -0.0010096328 0.095919356 0.2285863 0.13876987 -0.20728612 0.4937361
-0.43910724 0.42161533 0.38702643 -0.30296153 0.40248904 0.08948484 -0.25206837 0.35028806
-0.18522424 -0.08517278 0.028004568 0.38076523 0.4079425 0.29917336 0.025649203 0.33787832
0.30623382 0.24993299 -0.2899803 -0.24212329 -0.3030047 0.36060435 0.04062295 -0.12300639
-0.046468284 0.37681344 0.028135372 -0.3941907 0.2611111 0.06311866 -0.18021443 0.16218773
0.34062734 0.33047292 0.007441643 -0.0044070636 0.015677446 -0.3796801 -0.009860976 0.37978148
-0.39347476 -0.3433286 0.05085987 -0.44775462 0.018404348 0.3739172 -0.19949988 -0.0783787
-0.24932677 -0.113676906 0.11573267 -0.47407252 0.22270446 0.31194124 -0.0027111385 0.25808948
0.2815423 -0.31457156 0.41263008 -0.013600135 0.038942054 -0.22785878 -0.21251075 -0.1960355
0.042336337 0.04654444 0.36031184 0.039437596 -0.42552722 -0.059404016 -0.3737247 -0.28234804
-0.03309849 0.33503053 -0.47501445 0.33143666 -0.11356007 -0.42062268 0.17351452 0.07377674
-0.23395841 -0.04841841 0.3129891 -0.08155453 0.47449675 -0.45032933 0.12766117 0.41603294
0.30483752 0.16944851 0.20971577 -0.2525881 -0.15140046 -0.44066474 0.2958196 0.38789073
-0.13979024 -0.18205667 0.01691991 -0.4120016 0.44759822 0.47868782 0.45560807 -0.121983185
0.28553876 -0.2215822 -0.3659972 -0.25662586 -0.03280191 0.38744336 0.17729929 0.4514775
-0.07410195 -0.32894257 -0.11980857 0.39075488 0.3112835 -0.49824476 0.25094566 0.08655443
0.21623959 0.4274449 -0.39429763 -0.40376243 0.34957543 -0.063532084 -0.24097052 0.2974221
-0.34513703 0.32940194 -0.4600154 -0.060977586 -0.32361394 -0.0127103925 -0.2704041 -0.32401234
0.41217664 -0.22372974 0.17925322 0.1880494 -0.14011382 0.40924937 -0.05093383 0.42979652
0.08466638 -0.2369463 0.25223225 -0.32636943 0.17200544 -0.122835636 0.43952796 0.2409447
-0.36624712 -0.4126396 0.006621234 0.12007382 -0.49389097 -0.2753401 -0.48354322 0.47882354
0.26364437 -0.24373378 -0.42105296 0.3880872 0.021236995 -0.14649883 0.20022179 -0.39364654
0.16750108 0.3165205 0.3216408 -0.11212488 0.23300965 -0.062970355 0.3248653 0.1265334
0.21664186 -0.2027474 -0.44369602 -0.1954074 0.34018588 -0.29695725 0.0004938812 0.29978585
0.2033205 0.20284812 0.15538342 0.2649269 0.268094 0.45304635 0.19419768 -0.22408122
0.17967953 0.34280086 -0.045747142 0.42615044 0.06063653 0.0288181 0.051639475 0.35645148
-0.24926297 -0.11944831 0.25080538 0.022763649 0.28880778 -0.25213647 -0.22158861 -0.14167994
-0.14634728 0.41103783 0.39447704 -0.12505107 -0.3188155 0.1751351 -0.34564325 0.24770677
00000000: b875 9bbe ceb6 ab3e 754b ab3e 40e7 80bd
00000010: ea8f e63e 6187 7bbe b6c5 193d 9f2d af3e
00000020: 0681 c23e 8933 dfbe 753e 803e e39a 9e3c
00000030: dcf3 59be 3e05 1f3e 7cf8 023e dfbc 793e
00000040: e38e cc3e 4a5d 13bd 6418 c13e 4a54 e93e
00000050: 3a8b 793d fa7c 2e3c 190b a13d cb74 69be
00000060: c1fd eb3e 60f8 773e 0bd6 35be 3208 fe3e
00000070: e429 203d bcbc 453e 388d 0c3e b6d1 b6be
00000080: f816 9abe 61cd fdba a855 84ba 5e71 c43d
00000090: 8712 6a3e b019 0e3e d042 54be faca fc3e
000000a0: aad2 e0be f7dd d73e 5428 c63e c61d 9bbe
000000b0: 0b13 ce3e d443 b73d 1b0f 81be f558 b33e
000000c0: 6cab 3dbe 116f aebd d669 e53c a9f3 c23e
000000d0: d7dd d03e 402d 993e 471e d23c 63fe ac3e
000000e0: aeca 9c3e 6fee 7f3e 4c78 94be 2bef 77be
000000f0: 6f23 9bbe 22a1 b83e 4064 263d c6ea fbbd
00000100: 8755 3ebd b1ed c03e 277c e63c 5dd3 c9be
00000110: 5bb0 853e 5b44 813d 228a 38be 8a14 263e
00000120: b566 ae3e bf33 a93e 07d9 f33b 2169 90bb
00000130: fd6d 803c 6e65 c2be ee8f 21bc b872 c23e
00000140: 8675 c9be c4c8 afbe 7052 503d 1840 e5be
00000150: b7c4 963c 1372 bf3e b249 4cbe 0385 a0bd
00000160: 844f 7fbe 70cf e8bd 4005 ed3d a2b9 f2be
00000170: a30c 643e c3b6 9f3e 5bad 31bb 4e24 843e
00000180: 5026 903e 860f a1be 4044 d33e 1ad3 5ebc
00000190: b481 1f3d d053 69be 6b9c 59be 88bd 48be
000001a0: de68 2d3d 62a5 3e3d cb7a b83e 5189 213d
000001b0: b4de d9be a051 73bd d858 bfbe ec8f 90be
000001c0: 4892 07bd 1f89 ab3e 1835 f3be 11b2 a93e
000001d0: 2f92 e8bd db5b d7be caad 313e 4218 973d
000001e0: cb92 6fbe 6252 46bd 1b40 a03e 1006 a7bd
000001f0: 3df1 f23e 9191 e6be 9cb9 023e 4502 d53e
00000200: aa13 9c3e e983 2d3e bbbf 563e 3a53 81be
00000210: b908 1bbe cf9e e1be ab75 973e 9d99 c63e
00000220: 2c25 0fbe 106d 3abe a09b 8a3c e0f1 d2be
00000230: 982b e53e 9216 f53e 7645 e93e 52d2 f9bd
00000240: 2332 923e 72e6 62be fc63 bbbe 7764 83be
00000250: 4c5b 06bd fa5e c63e f28d 353e 0f28 e73e
00000260: c3c2 97bd 296b a8be 325e f5bd 0611 c83e
00000270: 8d60 9f3e f019 ffbe f37b 803e 7343 b13d
00000280: e96d 5d3e 0fda da3e 61e1 c9be f3b9 cebe
00000290: 8dfb b23e 1c1d 82bd fac0 76be b647 983e
000002a0: cdb5 b0be 5fa7 a83e 2387 ebbe a2c3 79bd
000002b0: bab0 a5be 403f 50bc 6872 8abe f2e4 a5be
000002c0: d108 d33e 6919 65be 288e 373e 0690 403e
000002d0: ff79 0fbe 2289 d13e fe9f 50bd 4a0e dc3e
000002e0: 9165 ad3d 0da2 72be 9624 813e e519 a7be
000002f0: 3222 303e 4091 fbbd cf09 e13e 35ba 763e
00000300: be84 bbbe 7f45 d3be f0f6 d83b 43e9 f53d
00000310: 47df fcbe 61f9 8cbe fa92 f7be 5c28 f53e
00000320: 65fc 863e 5995 79be 4194 d7be 5eb3 c63e
00000330: 35f9 ad3c ca03 16be f106 4d3e 0a8c c9be
00000340: 6785 2b3e fa0e a23e 1aae a43e bba1 e5bd
00000350: 159a 6e3e 9af6 80bd bf54 a63e f991 013e
00000360: 5dd7 5d3e 049d 4fbe 202c e3be e118 48be
00000370: d82c ae3e c80a 98be ce77 013a 887d 993e
00000380: 4033 503e 6bb7 4f3e d51c 1f3e 80a4 873e
00000390: 9e43 893e b1f5 e73e c2db 463e 8c75 65be
000003a0: e9fd 373e 9883 af3e 5b61 3bbd 6430 da3e
000003b0: 035e 783d f013 ec3c ea83 533d cf80 b63e
000003c0: cb3e 7fbe 51a1 f4bd 9069 803e d57a ba3c
000003d0: 9dde 933e 0818 81be 20e8 62be 8c14 11be
000003e0: 10dc 15be 8d73 d23e e5f8 c93e 630d 00be
000003f0: c93b a3be 9e56 333e 27f8 b0be d8a6 7d3e

fc1.bias f4 [64]
0.011590699 -0.42143053 -0.46318617 -0.39429283 0.40980798 -0.09874433 0.49984944 -0.162856
0.14164211 0.31667957 -0.4341091 0.2744169 -0.4988371 0.033868667 -0.046505004 -0.3440214
-0.34124473 0.10675501 -0.29155007 -0.20705588 0.07643926 0.24190518 -0.2250961 0.1802442
-0.015181878 -0.37116438 0.4846865 -0.4043134 -0.28596917 0.38294667 -0.30049697 -0.22321877
0.05413056 0.48389062 0.21663576 -0.07416711 0.081349686 -0.3361392 0.19501534 -0.46397483
-0.37373453 -0.25842273 -0.21108462 -0.041082025 0.3731544 0.17466973 -0.34787923 0.08229752
-0.122628234 -0.12689319 0.30585143 0.4242222 0.15598586 0.08669829 -0.23113704 0.17899321
0.025952445 -0.34551394 0.0002906547 0.12704219 0.3519168 0.18914667 -0.45297232 0.1657955
00000000: eae6 3d3c bec5 d7be bd26 edbe c0e0 c9be
00000010: 5ad2 d13e 783a cabd 44ec ff3e b9c3 26be
00000020: a10a 113e d323 a23e 8c43 debe 5f80 8c3e
00000030: 9467 ffbe dfb9 0a3d 087c 3ebd 9323 b0be
00000040: a1b7 aebe 5fa2 da3d 0d46 95be 7506 54be
00000050: 308c 9c3d feb5 773e 987f 66be f091 383e
00000060: 69bd 78bc 4209 bebe d428 f83e 2a02 cfbe
00000070: 8d6a 92be 9611 c43e bdda 99be 7693 64be
00000080: 02b8 5d3d 83c0 f73e c4d5 5d3e ede4 97bd
00000090: aa9a a63d 701a acbe 1ab2 473e 1c8e edbe
000000a0: 225a bfbe fc4f 84be 9126 58be a045 28bd
000000b0: 180e bf3e 9fdc 323e 3a1d b2be 9a8b a83d
000000c0: 8324 fbbd 4af0 01be 8f98 9c3e a733 d93e
000000d0: c2ba 1f3e e08e b13d 30af 6cbe ff49 373e
000000e0: 399a d43c 34e7 b0be 0363 9839 5917 023e
000000f0: 702e b43e aaaf 413e fdeb e7be 4cc6 293e

fc2.weight f4 [64, 64]
0.084643394 0.0076267105 -0.05962536 0.07619358 0.058843676 -0.069838315 0.12260065 0.037720133
0.11696072 0.03775187 -0.017957777 -0.070023276 -0.018766705 -0.10248458 -0.09457291 0.09863833
-0.01299702 0.005591903 -0.043010496 -0.099453375 -0.0024756938 -0.059157234 -0.0023847073 0.11976319
-0.06663562 -0.099136114 -0.12327063 0.08624184 -0.07337935 -0.03654459 -0.09519388 -0.005638849
0.0016598952 0.0903289 -0.08695942 -0.06254567 -0.023511603 0.11689732 -0.057628963 -0.084133245
-0.0118011255 0.11803531 -0.10585012 0.05489403 -0.09599122 -0.004980472 0.033011228 -0.087156855
-0.098069444 -0.013630138 -0.05718524 0.1135228 -0.10030266 -0.0026413389 -0.018612549 0.120435275
-0.10615828 -0.01593816 0.101487204 -0.09483302 -0.078008875 -0.08317696 -0.091909975 0.09402265
0.034844454 0.10789956 -0.036245745 -0.011032728 -0.016776215 0.04997277 0.08118619 0.014169611
-0.049220383 -0.047099464 0.07744691 0.09384142 0.051398285 0.032298334 0.096395895 -0.037753034
0.05422884 -0.10318433 0.09362274 -0.005238702 0.110526025 0.083575904 -0.05521883 0.049650222
-0.027671631 0.0036513114 0.032893926 0.06611319 -0.087760895 0.12455214 0.09853855 -0.10218033
0.032817982 -0.06692332 -0.116769716 0.0600535 0.06869746 -0.017962947 0.0425325 0.12303229
-0.038676273 -0.02851903 -0.08733446 -0.012484267 0.07434819 0.027135225 0.07568333 -0.030765148
-0.089941815 -0.07936021 0.013049343 -0.050104637 -0.047253903 -0.06527731 0.09018658 -0.10210603
0.020263545 -0.021523634 0.049042705 -0.09567478 0.08775596 0.07062081 -0.11034514 -0.076421164
0.011454791 0.07840487 0.012888372 -0.051405504 -0.08432943 -0.10301833 -0.07866648 -0.07612617
0.029984504 -0.072481275 -0.12273665 0.0861242 0.057078257 -0.010054305 0.057134733 0.07014507
0.0680017 -0.041934058 -0.078387424 -0.10842435 -0.07249832 -0.12430936 -0.05808553 -0.10859412
-0.0019219667 -0.09339923 0.0036115795 0.014712885 0.11617647 0.10114135 -0.11579837 0.11033815
-0.043082282 0.11820203 0.017172143 -0.038725063 0.035196647 0.087203175 -0.06714028 -0.091508254
-0.12183648 0.023960963 -0.011987701 -0.06470421 0.060170352 -0.09943017 0.044973016 -0.05620809
-0.050556228 0.05459036 -0.043149382 -0.08967222 0.017341569 -0.0048718154 -0.0152130425 0.029958248
0.040346637 0.09910101 0.11502318 -0.080804825 -0.11506298 0.045620784 0.088931635 -0.09029457
-0.04638943 -0.112400755 -0.07744782 0.11553432 -0.006858647 0.040729955 -0.11178778 -0.07267012
0.08374645 0.03332284 -0.03445819 0.060119882 -0.00057554245 -0.05126086 0.018587738 -0.030361041
-0.06043838 0.011959285 0.11877513 0.046858847 -0.059079915 0.051542908 0.123131365 0.027386472
-0.12438436 -0.016100392 -0.05607511 0.09090884 -0.012283593 -0.046455726 -0.12209234 -0.07662769
-0.014767125 0.07494934 -0.0142484605 -0.0278067 0.108977586 0.0099924505 0.11751875 0.002987668
-0.05965486 -0.11061613 -0.04564175 0.049596354 -0.024049684 -0.11292802 0.07521221 -0.09824461
0.025464892 0.044380516 -0.033852637 0.05435902 0.038161844 -0.12366381 0.040521786 -0.04810205
0.002322331 -0.123757586 0.09301941 0.06914194 -0.079588264 -0.05429469 -0.09156492 -0.02188164
00000000: 8459 ad3d 7ce9 f93b b939 74bd 610b 9c3d
00000010: 1106 713d 6407 8fbd 0d16 fb3d 6d80 1a3d
00000020: 1a89 ef3d b4a1 1a3d 301c 93bc 5d68 8fbd
00000030: a2bc 99bc 6fe3 d1bd 71af c1bd e502 ca3d
00000040: 74f1 54bc 483c b73b c62b 30bd 36ae cbbd
00000050: 403f 22bb db4e 72bd c048 1cbb 6746 f53d
00000060: 4278 88bd e007 cbbd 5075 fcbd 909f b03d
00000070: ea47 96bd c8af 15bd 02f5 c2bd 18c6 b8bb
00000080: d790 d93a 5cfe b83d c817 b2bd f217 80bd
00000090: 689b c0bc dd67 ef3d 590c 6cbd 0d4e acbd
000000a0: 8259 41bc 7fbc f13d f3c7 d8bd 90d8 603d
000000b0: 0b97 c4bd 3a33 a3bb c836 073d 4b7f b2bd
000000c0: a2d8 c8bd f150 5fbc 123b 6abd a47e e83d
000000d0: 7b6b cdbd 501a 2dbb 5879 98bc c5a6 f63d
000000e0: 8369 d9bd be90 82bc 86d8 cf3d d037 c2bd
000000f0: 1ec3 9fbd af58 aabd 4c3b bcbd f28e c03d
00000100: 0fb9 0e3d 72fa dc3d 6b76 14bd 9dc2 34bc
00000110: 466e 89bc 3fb0 4c3d f244 a63d a827 683c
00000120: 509b 49bd 5eeb 40bd 7c9c 9e3d ee2f c03d
00000130: 0287 523d 424b 043d 366b c53d eda2 1abd
00000140: 0f1f 5e3d 4e52 d3bd 47bd bf3d 6ba9 abbb
00000150: 785b e23d d829 ab3d 242d 62bd 085e 4b3d
00000160: 9eaf e2bc d74a 6f3b c8bb 063d 5a66 873d
00000170: fcbb b3bd 3115 ff3d 94ce c93d ec43 d1bd
00000180: 266c 063d 180f 89bd f624 efbd a9fa 753d
00000190: 41b1 8c3d 0827 93bc 8f36 2e3d 5af8 fb3d
000001a0: 036b 1ebd bea0 e9bc 69dc b2bd d08a 4cbc
000001b0: dd43 983d b14a de3c ddff 9a3d 3107 fcbc
000001c0: 6a33 b8bd 9b87 a2bd e9cc 553c 853a 4dbd
000001d0: 4f8d 41bd 1cb0 85bd beb3 b83d f71c d1bd
000001e0: bcff a53c 5552 b0bc 01e1 483d 24f1 c3bd
000001f0: 66b9 b33d a5a1 903d a2fc e1bd b382 9cbd
00000200: e0ac 3b3c bc92 a03d c029 533c 948e 52bd
00000210: e8b4 acbd 46fb d2bd e41b a1bd 0ae8 9bbd
00000220: 10a2 f53c 1071 94bd 5a5d fbbd e261 b03d
00000230: e4ca 693d d0ba 24bc 1c06 6a3d 38a8 8f3d
00000240: 7a44 8b3d 0cc3 2bbd 9689 a0bd 960d debd
00000250: 007a 94bd e895 febd 18eb 6dbd 9866 debd
00000260: 80ea fbba 1848 bfbd 40b0 6c3b 500e 713c
00000270: eeed ed3d 3223 cf3d b227 edbd f8f8 e13d
00000280: 0c77 30bd e813 f23d 98ac 8c3c 2c9e 1ebd
00000290: 5c2a 103d 9497 b23d d880 89bd ae68 bbbd
000002a0: 6885 f9bd c849 c43c 1068 44bc a483 84bd
000002b0: 3075 763d 0ca2 cbbd a035 383d 743a 66bd
000002c0: 0c14 4fbd 249a 5f3d 68bd 30bd 12a6 b7bd
000002d0: e80f 8e3c c0a3 9fbb 2040 79bc 006b f53c
000002e0: 8442 253d 78f5 ca3d 4691 eb3d 007d a5bd
000002f0: 24a6 ebbd dcdc 3a3d ca21 b63d 5cec b8bd
00000300: d802 3ebd 5e32 e6bd f69c 9ebd 429d ec3d
00000310: 80be e0bb 74d4 263d fef0 e4bd 12d4 94bd
00000320: 4283 ab3d 887d 083d 0824 0dbd 4440 763d
00000330: 00e0 16ba e8f6 51bd 5045 983c b8b7 f8bc
00000340: 3c8e 77bd e0f0 433c 6040 f33d 10ef 3f3d
00000350: c8fd 71bd a81e 533d 4c2c fc3d 9859 e03c
00000360: 3abd febd f8e4 83bc 04af 65bd 6a2e ba3d
00000370: 2041 49bc 5c48 3ebd 8c0b fabd faee 9cbd
00000380: d0f1 71bc 0a7f 993d 6072 69bc e0ca e3bc
00000390: a42f df3d 60b7 233c acad f03d c0cc 433b
000003a0: a858 74bd b68a e2bd d8f2 3abd 8c25 4b3d
000003b0: d803 c5bc ce46 e7bd dc08 9a3d 7834 c9bd
000003c0: c09b d03c 58c8 353d 10a9 0abd 90a7 5e3d
000003d0: 984f 1c3d 7443 fdbd 2cfa 253d a806 45bd
000003e0: 4032 183b 9e74 fdbd f680 be3d 4a9a 8d3d
000003f0: 2cff a2bd 1c64 5ebd 6486 bbbd 2041 b3bc

fc2.bias f4 [64]
0.0718605 0.0908918 0.0746247 0.09633285 -0.059618697 0.01631226 -0.00054325163 -0.08162598
0.09848128 0.052878838 0.11950476 -0.04965404 -0.026002524 -0.087812334 0.070934094 -0.009875104
0.11377159 0.016198874 0.0025534779 0.103666216 0.0011345815 0.016283138 0.09394122 -0.050626818
-0.002711016 0.03594354 -0.11294381 0.058544174 -0.005294834 0.056395013 0.048233744 0.10991504
0.080441535 -0.033861976 -0.01312986 -0.053355947 -0.12114632 -0.011780918 -0.019188896 0.045489572
-0.07284595 -0.09163727 -0.080979414 -0.12090233 -0.062198717 0.10242295 0.11739018 -0.092487
-0.03645087 -0.07727313 0.079754785 -0.01774067 0.097923264 0.116530076 0.047223434 0.037955247
-0.008631054 0.06893252 -0.063186675 0.09156759 -0.11317971 -0.048833136 -0.03183937 -0.087292835
00000000: 992b 933d 7b25 ba3d d6d4 983d 284a c53d
00000010: bc32 74bd 4aa1 853c 0069 0eba 862b a7bd
00000020: 8eb0 c93d 7b97 583d e9be f43d 0962 4bbd
00000030: 3f03 d5bc f4d6 b3bd e545 913d 30cb 21bc
00000040: 1401 e93d 80b3 843c 4058 273b f44e d43d
00000050: 3db6 943a 3764 853c 4164 c03d 115e 4fbd
00000060: 4dab 31bb 8939 133d 164f e7bd 04cc 6f3d
00000070: 4980 adbb 75fe 663d bf90 453d 231b e13d
00000080: 88be a43d dbb2 0abd a01e 57bc c48b 5abd
00000090: 901b f8bd c004 41bc 0832 9dbc 4653 3a3d
000000a0: 4230 95bd 52ac bbbd 89d8 a5bd a49b f7bd
000000b0: 15c4 7ebd 20c3 d13d 436a f03d d369 bdbd
000000c0: 824d 15bd 6041 9ebd 7a56 a33d e254 91bc
000000d0: fe8b c83d 52a7 ee3d 5c6d 413d f676 1b3d
000000e0: 4469 0dbc 7e2c 8d3d 0468 81bd ca87 bb3d
000000f0: c4ca e7bd 4105 48bd 006a 02bd 96c6 b2bd

fc3.weight f4 [6, 64]
-0.09792237 -0.062396757 0.028572455 0.10112746 -0.0287932 0.09663523 -0.012219623 -0.03217298
-0.03944701 0.07159071 -0.051541336 0.034929026 0.05714078 -0.10508727 0.12000158 -0.11181256
-0.056930885 -0.07840031 -0.056871817 0.025648892 -0.10839509 0.10454075 0.11813941 -0.09835761
-0.031836756 0.046300456 -0.052697368 -0.07753628 0.056043237 0.058484517 0.01016494 -0.016181959
-0.019854035 0.12126103 -0.051350832 -0.12461807 -0.1109814 -0.013287768 0.10436326 0.0046270974
0.06902247 0.12182045 -0.06296455 0.103652045 0.08002269 0.024852512 0.0054798 0.096666515
-0.055144895 -0.09510316 0.004519454 0.05124956 -0.029646123 0.078055665 0.11391984 0.00590974
-0.10675465 -0.03151335 0.106903285 -0.07383417 0.124524266 0.061013877 -0.10746223 0.08695842
-0.04912999 -0.04461491 0.09118062 0.10256475 0.105329126 0.02256051 0.026409596 0.034266002
0.12442765 0.040607464 -0.0073295236 0.046702176 -0.10606752 0.007393546 0.0007584895 0.047806144
0.11574795 -0.02713871 0.11355384 0.058070198 -0.011820977 0.10771119 0.07695019 -0.015982691
0.052393466 0.07014169 0.006010236 0.09890877 0.10028392 -0.06674733 0.06213936 0.11724391
0.09161132 0.09751183 0.013731629 -0.09963758 0.05066116 0.0876133 -0.10357997 0.08138601
0.06940802 -0.030348014 0.077824965 -0.056090105 0.0313981 0.114825375 -0.018304318 0.07158651
0.004763549 0.08503048 0.05982534 -0.036528967 0.098931715 0.116818 0.06953239 0.08814801
0.033731755 0.091991335 0.08858962 0.11789924 -0.123628944 -0.07590015 -0.10455108 0.12030052
-0.08183728 0.09753599 0.0030436069 0.01644814 0.04575397 -0.08710938 0.09278573 -0.08332732
-0.050638974 0.03783908 0.060293496 0.08883533 0.07055344 -0.078507066 0.03560114 0.05536966
-0.037588492 -0.1050105 0.102802604 0.023388058 -0.10744945 0.017595712 0.013853244 -0.054970585
0.087744236 -0.10798247 -0.045879442 -0.07408743 -0.08939532 -0.09762949 -0.06704155 0.022294248
-0.102266535 -0.039698653 -0.082087204 -0.06619105 -0.017746303 0.05781035 0.08133805 0.10349884
-0.055337626 -0.10163754 0.122834764 -0.0582904 0.0016919718 0.026436806 0.0881751 -0.07322597
-0.04682842 0.030520717 -0.06575426 0.015486976 -0.030277764 -0.10819408 0.100818664 0.056910023
-0.030384792 -0.06370628 -0.08730996 0.11543413 -0.015989153 -0.0010308127 0.015804008 -0.016051978
-0.0025975807 -0.092109516 -0.09349704 0.10480976 -0.015332505 -0.0032764354 0.075134635 0.042723894
-0.086220965 0.03279051 0.055316005 0.10836532 -0.10525154 0.0632178 -0.014534714 -0.039989993
-0.009776639 -0.109636456 -0.11560543 0.03808327 0.018819058 0.051471043 0.033571437 0.08436418
0.048955575 -0.074488066 0.077820584 0.048664182 0.009550922 -0.0065970286 0.05485096 -0.012844362
0.028018216 -0.025905343 -0.04431218 0.030235112 0.010739852 -0.030223802 -0.04485996 -0.054924354
-0.09809784 0.053312358 -0.09332313 -0.030808533 0.009333836 0.043384403 0.0013632685 0.03194763
-0.039129652 -0.073290706 -0.11389725 0.03183548 -0.029457774 0.07973492 -0.07258595 -0.12086245
-6.767204e-05 -0.111381054 0.10563403 0.009444878 0.085258715 0.112668164 -0.1013083 -0.094074935
00000000: 868b c8bd be93 7fbd c810 ea3c ea1b cf3d
00000010: b8df ebbc b1e8 c53d d034 48bc d1c7 03bd
00000020: 3093 21bd 269e 923d 021d 53bd bd11 0f3d
00000030: 730c 6a3d ff37 d7bd 63c3 f53d fcfd e4bd
00000040: 5c30 69bd 5790 a0bd 6cf2 68bd a01d d23c
00000050: 3ffe ddbd 7619 d63d 13f3 f13d b76f c9bd
00000060: 4267 02bd 8ca5 3d3d 32d9 57bd 57cb 9ebd
00000070: 988d 653d 768d 6f3d d98a 263c 0790 84bc
00000080: eea4 a2bc b457 f83d 4055 52bd c237 ffbd
00000090: 374a e3bd f0b4 59bc 68bc d53d e89e 973b
000000a0: a75b 8d3d 007d f93d 8ff3 80bd 8647 d43d
000000b0: f0e2 a33d 7f97 cb3c e58f b33b 18f9 c53d
000000c0: 9ddf 61bd 72c5 c2bd ee17 943b 0feb 513d
000000d0: 6ddc f2bc a6db 9f3d ce4e e93d 7ea6 c13b
000000e0: 2fa2 dabd 2414 01bd 1cf0 da3d 5f36 97bd
000000f0: 9406 ff3d b0e9 793d 2815 dcbd 4217 b23d
00000100: 873c 49bd 20be 36bd e8bc ba3d 780d d23d
00000110: ccb6 d73d d2d0 b83c f058 d83c 825a 0c3d
00000120: ecd3 fe3d 0354 263d 802c f0bb c84a 3f3d
00000130: ee39 d9bd 8f45 f23b 5ed5 463a 60d0 433d
00000140: 430d ed3d 0052 debc ea8e e83d 04db 6d3d
00000150: c5ac 41bc af97 dc3d 1098 9d3d 22ee 82bc
00000160: 889a 563d 72a6 8f3d 84f1 c43b ae90 ca3d
00000170: a861 cd3d d3b2 88bd d785 7e3d 931d f03d
00000180: b79e bb3d 48b4 c73d a0fa 603c ca0e ccbd
00000190: 1482 4f3d 9a6e b33d bc21 d4bd b5ad a63d
000001a0: cb25 8e3d 669c f8bc b262 9f3d bdbe 65bd
000001b0: 4b9b 003d 9129 eb3d f0f2 95bc f39b 923d
000001c0: 8c17 9c3b 7624 ae3d 6a0b 753d 669f 15bd
000001d0: b69c ca3d 473e ef3d ff66 8e3d f286 b43d
000001e0: 4f2a 0a3d f465 bc3d 7a6e b53d 2875 f13d
000001f0: 2c31 fdbd 8a71 9bbd e01e d6bd 1e60 f63d
00000200: 4e9a a7bd f3c0 c73d 4077 473b 40be 863c
00000210: 8468 3b3d 6766 b2bd 7206 be3d 84a7 aabd
00000220: d06a 4fbd 27fd 1a3d 50f6 763d 4cef b53d
00000230: 527e 903d 50c8 a0bd 80d2 113d 4ccb 623d
00000240: 64f6 19bd bf0f d7bd 2c8a d23d 5098 bf3c
00000250: 750e dcbd e224 903c b7f8 623c d628 61bd
00000260: 40b3 b33d ea25 ddbd 15ec 3bbd 27bb 97bd
00000270: e514 b7bd f8f1 c7bd 154d 89bd 6da2 b63c
00000280: 1e71 d1bd 0e9b 22bd 561d a8bd 2c8f 87bd
00000290: b260 91bc 8cca 6c3d 9094 a63d 33f7 d33d
000002a0: b5a9 62bd 5827 d0bd cb90 fb3d eac1 6ebd
000002b0: 27c5 dd3a 0092 d83c 2695 b43d 7ff7 95bd
000002c0: 28cf 3fbd 9506 fa3c 2baa 86bd 16bd 7d3c
000002d0: 1309 f8bc dc94 ddbd 047a ce3d 7c1a 693d
000002e0: 87e9 f8bc 7078 82bd 90cf b2bd bb68 ec3d
000002f0: affb 82bc 561c 87ba 6877 813c 707f 83bc
00000300: 2c3c 2abb eaa3 bcbd 607b bfbd 80a6 d63d
00000310: 3035 7bbc 77b9 56bb 30e0 993d 40ff 2e3d
00000320: 9e94 b0bd 584f 063d 0993 623d a3ee dd3d
00000330: 1f8e d7bd 5578 813d 0223 6ebc 8ccc 23bd
00000340: 322e 20bc 1489 e0bd 8ac2 ecbd 34fd 1b3d
00000350: 6d2a 9a3c 4dd3 523d 3482 093d 21c7 ac3d
00000360: a485 483d 338d 98bd 6660 9f3d 1854 473d
00000370: 787b 1c3c e32b d8bb 66ab 603d 2971 52bc
00000380: 7586 e53c 7137 d4bc b080 35bd a0af f73c
00000390: 34f6 2f3c e897 f7bc 14bf 37bd 5cf8 60bd
000003a0: 85e7 c8bd 0f5e 5a3d 3220 bfbd 2d62 fcbc
000003b0: f2ec 183c d8b3 313d b3af b23a 85db 023d
000003c0: 6a46 20bd 7019 96bd f642 e9bd ec65 023d
000003d0: 6e51 f1bc 104c a33d f1a7 94bd bb86 f7bd
000003e0: 26eb 8db8 c01b e4bd a856 d83d b1be 1a3c
000003f0: 1f9c ae3d 91be e63d ba7a cfbd 5caa c0bd

fc3.bias f4 [6]
0.1179662 0.11599431 0.122171775 0.08284109 -0.056008153 -0.080832064
00000000: 4398 f13d 6d8e ed3d 3235 fa3d 97a8 a93d
00000010: ce68 65bd 488b a5bd

fc1.weight f4 [64, 4]
-0.30434477 0.3346569 0.33385974 -0.06362927 0.45084715 -0.24526 0.038270473 0.34253418
0.38085395 -0.43506277 0.25137472 0.019588113 -0.21393353 0.15418583 0.12715489 0.24408358
0.4008211 -0.034709215 0.37838268 0.45644248 0.061436594 0.0109241605 0.07874358 -0.22775114
0.46025157 0.24130452 -0.17823696 0.4964717 0.039458036 0.19377095 0.1376599 -0.35710007
-0.30080473 -0.0016815066 -0.0009917021 0.09620714 0.22938597 0.13976389 -0.2068491 0.4933048
-0.4380901 0.4226728 0.38773733 -0.302871 0.40203792 0.08882439 -0.25266302 0.35036516
-0.18511534 -0.0853135 0.028052032 0.3806569 0.40657544 0.29783654 0.024379611 0.33735383
0.30501127 0.24871153 -0.29101264 -0.24212456 -0.30212128 0.36146533 0.041228533 -0.12299311
-0.04526472 0.37799728 0.029267848 -0.3937738 0.25987446 0.061911523 -0.18126094 0.16229308
0.33929414 0.3291309 0.0062823296 -0.0043800473 0.015110433 -0.38002354 -0.010194123 0.37941062
-0.39347476 -0.3433286 0.05085987 -0.44775462 0.019218981 0.37492126 -0.19891453 -0.07908511
-0.24932677 -0.113676906 0.11573267 -0.47407252 0.22151363 0.3107494 -0.0038847923 0.25790834
0.2809602 -0.31525594 0.41186935 -0.01334542 0.03902304 -0.22785878 -0.21240741 -0.1960355
0.0435341 0.047715068 0.36131787 0.03983462 -0.42552722 -0.059404016 -0.3737247 -0.28234804
-0.03349173 0.3345793 -0.4755382 0.33102202 -0.11356473 -0.42058563 0.17352325 0.07383007
-0.23398179 -0.048181295 0.31293768 -0.08161247 0.47323865 -0.45158297 0.12645888 0.41595227
0.3061461 0.17073196 0.21095192 -0.25316697 -0.15051013 -0.439928 0.29666865 0.38881695
-0.13979024 -0.18205667 0.01691991 -0.4120016 0.44876468 0.4798844 0.4565993 -0.12216872
0.28501415 -0.22206664 -0.3664487 -0.25654006 -0.031576037 0.38866436 0.17839909 0.4518836
-0.07414299 -0.32903045 -0.119853854 0.39080608 0.3118322 -0.4978888 0.25135118 0.08675337
0.2151292 0.42644596 -0.3953181 -0.40398842 0.34889877 -0.06439936 -0.24151611 0.2978804
-0.34419203 0.3303156 -0.4596566 -0.06079364 -0.32361394 -0.0127103925 -0.2704041 -0.32401234
0.41155964 -0.22429305 0.17846453 0.18782675 -0.14122355 0.40811008 -0.051989675 0.43003255
0.08484399 -0.23682886 0.2523625 -0.32623798 0.17135835 -0.12340522 0.4389764 0.2412582
-0.36642355 -0.4128064 0.0065026283 0.11978638 -0.49392545 -0.27547586 -0.48341423 0.47882736
0.26276207 -0.2446832 -0.4216724 0.38790828 0.02155447 -0.14617229 0.20052671 -0.39375353
0.1669656 0.31631094 0.32128197 -0.11229175 0.23387265 -0.062351823 0.32566065 0.12707525
0.21663988 -0.20291728 -0.44342548 -0.19530052 0.3398847 -0.29740185 0.00033903122 0.30035603
0.20438248 0.20393443 0.15643638 0.26476413 0.26928282 0.45415664 0.19527167 -0.22407383
0.17863333 0.34175783 -0.046746016 0.42577773 0.059561133 0.027695417 0.050711453 0.35669285
-0.24910802 -0.11972481 0.25113553 0.022557378 0.28908777 -0.25192976 -0.2211467 -0.14143443
-0.14529252 0.41210395 0.39547396 -0.124596596 -0.3181818 0.17574275 -0.34501994 0.24846184
00000000: 14d3 9bbe 2658 ab3e aaef aa3e 1050 82bd
00000010: 70d5 e63e 7025 7bbe 80c1 1c3d a460 af3e
00000020: 4aff c23e 8cc0 debe 30b4 803e 4077 a03c
00000030: 6411 5bbe e4e2 1d3e e434 023e 0cf1 793e
00000040: 6c38 cd3e 402b 0ebd 60bb c13e d4b2 e93e
00000050: f0a4 7b3d 40fb 323c 5044 a13d 9837 69be
00000060: 18a6 eb3e 8818 773e c083 36be 8a31 fe3e
00000070: c09e 213d e46b 463e b8f6 0c3e d2d5 b6be
00000080: 1403 9abe 0066 dcba 00fc 81ba 4008 c53d
00000090: 28e4 6a3e 441e 0f3e 40d0 53be 7292 fc3e
000000a0: 584d e0be 9268 d83e 8285 c63e e811 9bbe
000000b0: ead7 cd3e 90e9 b53d 0c5d 81be 1063 b33e
000000c0: e08e 3dbe d8b8 aebd 60cd e53c 76e5 c23e
000000d0: a82a d03e 087e 983e c0b7 c73c a4b9 ac3e
000000e0: 702a 9c3e 3cae 7e3e 9cff 94be 80ef 77be
000000f0: a4af 9abe fc11 b93e 40df 283d d0e3 fbbd
00000100: 8067 39bd dc88 c13e 20c3 ef3c b89c c9be
00000110: 440e 853e f096 7d3d 789c 39be 2830 263e
00000120: f6b7 ad3e d883 a83e 00dc cd3b 8086 8fbb
00000130: c091 773c 7292 c2be 4005 27bc 1c42 c23e
00000140: 8675 c9be c4c8 afbe 7052 503d 1840 e5be
00000150: 2071 9d3c aef5 bf3e 40b0 4bbe 60f7 a1bd
00000160: 844f 7fbe 70cf e8bd 4005 ed3d a2b9 f2be
00000170: 78d4 623e 8c1a 9f3e 0098 7ebb 900c 843e
00000180: 04da 8f3e 3a69 a1be 8ae0 d23e c0a6 5abc
00000190: a0d6 1f3d d053 69be 5481 59be 88bd 48be
000001a0: d050 323d e070 433d a8fe b83e a029 233d
000001b0: b4de d9be a051 73bd d858 bfbe ec8f 90be
000001c0: a02e 09bd fa4d ab3e be79 f3be b87b a93e
000001d0: a094 e8bd 0057 d7be 14b0 313e 3834 973d
000001e0: ec98 6fbe c059 45bd 5e39 a03e 7024 a7bd
000001f0: 564c f23e e235 e7be 707e 013e b2f7 d43e
00000200: 2ebf 9c3e 5cd4 2e3e c803 583e 1a9f 81be
00000210: 541f 1abe 3e3e e1be f4e4 973e 0413 c73e
00000220: 2c25 0fbe 106d 3abe a09b 8a3c e0f1 d2be
00000230: 7cc4 e53e 68b3 f53e 62c7 e93e 9833 fabd
00000240: 60ed 913e 7065 63be 2a9f bbbe 3859 83be
00000250: e055 01bd 04ff c63e 40ae 363e 4a5d e73e
00000260: 48d8 97bd ae76 a8be f075 f5bd bc17 c83e
00000270: 78a8 9f3e 48eb febe 1ab1 803e c0ab b13d
00000280: d44a 5c3e 2057 da3e 2267 cabe 92d7 cebe
00000290: dca2 b23e d0e3 83bd 0050 77be c883 983e
000002a0: f039 b0be 201f a93e 1c58 ebbe c002 79bd
000002b0: bab0 a5be 403f 50bc 6872 8abe f2e4 a5be
000002c0: f2b7 d23e 14ad 65be 68bf 363e a855 403e
000002d0: e89c 10be cef3 d03e 20f3 54bd 3a2d dc3e
000002e0: b0c2 ad3d 4483 72be a835 813e aa08 a7be
000002f0: 9078 2f3e e0bb fcbd 84c1 e03e 640c 773e
00000300: de9b bbbe 5c5b d3be 0014 d53b 9052 f53d
00000310: cce3 fcbe 2c0b 8dbe 1282 f7be dc28 f53e
00000320: c088 863e 3c8e 7abe 72e5 d7be ea9b c63e
00000330: 0093 b03c 30ae 15be e056 4d3e 109a c9be
00000340: 08f9 2a3e 82f3 a13e 127f a43e 38f9 e5bd
00000350: 507c 6f3e a064 7fbd febc a63e 0420 023e
00000360: d8d6 5d3e 8cc9 4fbe aa08 e3be dcfc 47be
00000370: 5e05 ae3e 0e45 98be 00c0 b139 44c8 993e
00000380: a449 513e 30d4 503e dc30 203e 2a8f 873e
00000390: 70df 893e 3887 e83e 4cf5 473e 9c73 65be
000003a0: a8eb 363e e2fa ae3e c078 3fbd 8aff d93e
000003b0: 60f6 733d 80e1 e23c d0b6 4f3d 72a0 b63e
000003c0: 2c16 7fbe 4832 f5bd d694 803e 40ca b83c
000003d0: 5003 943e f0fc 80be 4874 62be 30d4 10be
000003e0: 90c7 14be 4aff d23e 907b ca3e 802c ffbd
000003f0: bae8 a2be e8f5 333e 74a6 b0be c86c 7e3e

fc1.bias f4 [64]
0.010811269 -0.42088515 -0.4622159 -0.39532882 0.41109908 -0.09826481 0.49907345 -0.16234499
0.14193451 0.31746465 -0.4330514 0.27380598 -0.49887937 0.03249973 -0.04773605 -0.34316212
-0.34002548 0.10552955 -0.29286253 -0.20757073 0.07643926 0.24272382 -0.2250961 0.1790384
-0.015791237 -0.37108105 0.48588192 -0.4043134 -0.2865644 0.38298076 -0.30054837 -0.22449493
0.05541545 0.4849074 0.21663576 -0.07298136 0.08083892 -0.33488804 0.195045 -0.4633746
-0.37481886 -0.2592194 -0.21016723 -0.041082025 0.37241745 0.17353225 -0.34770715 0.08173972
-0.12291753 -0.12690157 0.30494785 0.42450243 0.1555565 0.08750594 -0.231121 0.17866927
0.027026415 -0.34436548 -0.00077211857 0.12595183 0.35176414 0.18942714 -0.45189482 0.16659635
00000000: c021 313c 427e d7be 90a7 ecbe 8a68 cabe
00000010: 947b d23e 103f c9bd 8e86 ff3e c43d 26be
00000020: 4857 113e ba8a a23e eab8 ddbe 4c30 8c3e
00000030: 1e6d ffbe 701e 053d e086 43bd f2b2 afbe
00000040: d217 aebe e01f d83d 14f2 95be 6c8d 54be
00000050: 308c 9c3d 988c 783e 987f 66be d855 373e
00000060: a05c 81bc 56fe bdbe 84c5 f83e 2a02 cfbe
00000070: 92b8 92be 0e16 c43e 7ae1 99be 00e2 65be
00000080: 50fb 623d c845 f83e c4d5 5d3e 4077 95bd
00000090: e08e a53d 7276 abbe e0b9 473e 703f edbe
000000a0: 42e8 bfbe 68b8 84be 1436 57be a045 28bd
000000b0: 80ad be3e 70b2 313e ac06 b2be 2867 a73d
000000c0: 30bc fbbd 7cf2 01be 2022 9c3e 6258 d93e
000000d0: 344a 1f3e 5036 b33d fcaa 6cbe 14f5 363e
000000e0: 8066 dd3c ac50 b0be 0068 4aba 84f9 003e
000000f0: 6e1a b43e 30f9 413e c25e e7be 3c98 2a3e

fc2.weight f4 [64, 64]
0.08492978 0.008268058 -0.05915317 0.07679282 0.059485957 -0.069838315 0.12324193 0.03782752
0.117463276 0.03839384 -0.0178442 -0.06937605 -0.018167287 -0.10185532 -0.094431 0.09875202
-0.012890145 0.0062357187 -0.042618558 -0.09886032 -0.0024756938 -0.058928996 -0.0023847073 0.12038313
-0.066168785 -0.099136114 -0.12267037 0.08624184 -0.072797075 -0.036054775 -0.09496172 -0.005027324
0.0018664002 0.09091528 -0.08695942 -0.062186375 -0.023511603 0.117514834 -0.057036415 -0.08366302
-0.011688635 0.118688375 -0.105758116 0.05489403 -0.09535459 -0.0043655187 0.033011228 -0.08653276
-0.09757748 -0.013104856 -0.05655369 0.1135228 -0.09997967 -0.0020179302 -0.018612549 0.12105307
-0.105529115 -0.015742242 0.10211478 -0.094193205 -0.07755278 -0.08290322 -0.09170003 0.09457888
0.034697056 0.1076927 -0.036354557 -0.011085138 -0.016994044 0.049757138 0.08097902 0.013965666
-0.049232513 -0.047303468 0.07734805 0.093634486 0.051348656 0.032089546 0.09619214 -0.037870675
0.054032326 -0.1033909 0.09341541 -0.005327165 0.110526025 0.083382025 -0.05521883 0.049444392
-0.027858257 0.0034649968 0.03267899 0.06611319 -0.0879349 0.124455094 0.09855126 -0.102363825
0.03260742 -0.0670204 -0.116769716 0.059843972 0.0685626 -0.018164188 0.042456076 0.122977346
-0.038876325 -0.028725997 -0.08745277 -0.012484267 0.074133754 0.026948422 0.07569301 -0.030981287
-0.089962035 -0.07940577 0.0129903555 -0.05005108 -0.04746221 -0.06549822 0.09013894 -0.1023065
0.020053819 -0.021730259 0.048838228 -0.095889 0.08768195 0.070467636 -0.110541746 -0.07638645
0.011454791 0.07840487 0.012888372 -0.051405504 -0.08432943 -0.10301833 -0.07866648 -0.07612617
0.029984504 -0.072481275 -0.12273665 0.0861242 0.057078257 -0.010054305 0.057134733 0.07014507
0.0680017 -0.041934058 -0.078387424 -0.10842435 -0.07249832 -0.12430936 -0.05808553 -0.10859412
-0.0019219667 -0.09339923 0.0036115795 0.014712885 0.11617647 0.10114135 -0.11579837 0.11033815
-0.043082282 0.11820203 0.017172143 -0.038725063 0.035196647 0.087203175 -0.06714028 -0.091508254
-0.12183648 0.023960963 -0.011987701 -0.06470421 0.060170352 -0.09943017 0.044973016 -0.05620809
-0.050556228 0.05459036 -0.043149382 -0.08967222 0.017341569 -0.0048718154 -0.0152130425 0.029958248
0.040346637 0.09910101 0.11502318 -0.080804825 -0.11506298 0.045620784 0.088931635 -0.09029457
-0.04638943 -0.112400755 -0.07744782 0.11553432 -0.006858647 0.040729955 -0.11178778 -0.07267012
0.08374645 0.03332284 -0.03445819 0.060119882 -0.00057554245 -0.05126086 0.018587738 -0.030361041
-0.06043838 0.011959285 0.11877513 0.046858847 -0.059079915 0.051542908 0.123131365 0.027386472
-0.12438436 -0.016100392 -0.05607511 0.09090884 -0.012283593 -0.046455726 -0.12209234 -0.07662769
-0.014767125 0.07494934 -0.0142484605 -0.0278067 0.108977586 0.0099924505 0.11751875 0.002987668
-0.05965486 -0.11061613 -0.04564175 0.049596354 -0.024049684 -0.11292802 0.07521221 -0.09824461
0.025464892 0.044380516 -0.033852637 0.05435902 0.038161844 -0.12366381 0.040521786 -0.04810205
0.002322331 -0.123757586 0.09301941 0.06914194 -0.079588264 -0.05429469 -0.09156492 -0.02188164
00000000: aaef ad3d c076 073c 984a 72bd 8e45 9d3d
00000010: 8ca7 733d 6407 8fbd 4466 fc3d 08f1 1a3d
00000020: 9690 f03d dc42 1d3d 002e 92bc 0815 8ebd
00000030: 90d3 94bc 8699 d0bd 0a65 c1bd 803e ca3d
00000040: 3031 53bc 0055 cc3b cc90 2ebd 4877 cabd
00000050: 403f 22bb 885f 71bd c048 1cbb 6e8b f63d
00000060: 8083 87bd e007 cbbd 9a3a fbbd 909f b03d
00000070: a216 95bd 2cae 13bd 4a7b c2bd 40bc a4bb
00000080: 00a2 f43a ca31 ba3d c817 b2bd 24b7 7ebd
00000090: 689b c0bc 9eab f03d 049f 69bd 8457 abbd
000000a0: b081 3fbc e412 f33d b697 d8bd 90d8 603d
000000b0: 4449 c3bd a00c 8fbb c836 073d 1638 b1bd
000000c0: b4d6 c7bd c0b5 56bc d8a4 67bd a47e e83d
000000d0: 24c2 ccbd 403f 04bb 5879 98bc acea f73d
000000e0: a61f d8bd e0f5 80bc 8e21 d13d 5ee8 c0bd
000000f0: fed3 9ebd 2ac9 a9bd 3acd bbbd 92b2 c13d
00000100: 801e 0e3d fe8d dc3d 84e8 14bd 709e 35bc
00000110: 1837 8bbc 24ce 4b3d 54d8 a53d 40d0 643c
00000120: 08a8 49bd 48c1 41bd a868 9e3d 70c3 bf3d
00000130: f852 523d 5470 033d 6200 c53d 481e 1bbd
00000140: 0051 5d3d 9cbe d3bd 9450 bf3d 808f aebb
00000150: 785b e23d 32c4 aa3d 242d 62bd 3486 4a3d
00000160: 0037 e4bc 0015 633b 68da 053d 5a66 873d
00000170: 3617 b4bd 50e2 fe3d 3ed5 c93d 20a4 d1bd
00000180: 5c8f 053d fe41 89bd f624 efbd f41e 753d
00000190: 8c6a 8c3d 10cd 94bc 6ce6 2d3d 8cdb fb3d
000001a0: c83c 1fbd c852 ebbc 701a b3bd d08a 4cbc
000001b0: 70d3 973d f0c2 dc3c f004 9b3d 78cc fdbc
000001c0: 043e b8bd 7e9f a2bd 80d5 543c 5c02 4dbd
000001d0: bc67 42bd ee23 86bd c49a b83d 1286 d1bd
000001e0: e847 a43c a803 b2bc 980a 483d 7461 c4bd
000001f0: 9892 b33d 5651 903d b663 e2bd 8070 9cbd
00000200: e0ac 3b3c bc92 a03d c029 533c 948e 52bd
00000210: e8b4 acbd 46fb d2bd e41b a1bd 0ae8 9bbd
00000220: 10a2 f53c 1071 94bd 5a5d fbbd e261 b03d
00000230: e4ca 693d d0ba 24bc 1c06 6a3d 38a8 8f3d
00000240: 7a44 8b3d 0cc3 2bbd 9689 a0bd 960d debd
00000250: 007a 94bd e895 febd 18eb 6dbd 9866 debd
00000260: 80ea fbba 1848 bfbd 40b0 6c3b 500e 713c
00000270: eeed ed3d 3223 cf3d b227 edbd f8f8 e13d
00000280: 0c77 30bd e813 f23d 98ac 8c3c 2c9e 1ebd
00000290: 5c2a 103d 9497 b23d d880 89bd ae68 bbbd
000002a0: 6885 f9bd c849 c43c 1068 44bc a483 84bd
000002b0: 3075 763d 0ca2 cbbd a035 383d 743a 66bd
000002c0: 0c14 4fbd 249a 5f3d 68bd 30bd 12a6 b7bd
000002d0: e80f 8e3c c0a3 9fbb 2040 79bc 006b f53c
000002e0: 8442 253d 78f5 ca3d 4691 eb3d 007d a5bd
000002f0: 24a6 ebbd dcdc 3a3d ca21 b63d 5cec b8bd
00000300: d802 3ebd 5e32 e6bd f69c 9ebd 429d ec3d
00000310: 80be e0bb 74d4 263d fef0 e4bd 12d4 94bd
00000320: 4283 ab3d 887d 083d 0824 0dbd 4440 763d
00000330: 00e0 16ba e8f6 51bd 5045 983c b8b7 f8bc
00000340: 3c8e 77bd e0f0 433c 6040 f33d 10ef 3f3d
00000350: c8fd 71bd a81e 533d 4c2c fc3d 9859 e03c
00000360: 3abd febd f8e4 83bc 04af 65bd 6a2e ba3d
00000370: 2041 49bc 5c48 3ebd 8c0b fabd faee 9cbd
00000380: d0f1 71bc 0a7f 993d 6072 69bc e0ca e3bc
00000390: a42f df3d 60b7 233c acad f03d c0cc 433b
000003a0: a858 74bd b68a e2bd d8f2 3abd 8c25 4b3d
000003b0: d803 c5bc ce46 e7bd dc08 9a3d 7834 c9bd
000003c0: c09b d03c 58c8 353d 10a9 0abd 90a7 5e3d
000003d0: 984f 1c3d 7443 fdbd 2cfa 253d a806 45bd
000003e0: 4032 183b 9e74 fdbd f680 be3d 4a9a 8d3d
000003f0: 2cff a2bd 1c64 5ebd 6486 bbbd 2041 b3bc

fc2.bias f4 [64]
0.072509736 0.09069908 0.0746247 0.09633285 -0.059618697 0.01624699 -0.00054325163 -0.08155742
0.09848128 0.052432477 0.11971247 -0.04969707 -0.025086433 -0.086818755 0.072129935 -0.009875104
0.11316872 0.017463267 0.0025534779 0.103666216 0.0011808574 0.01719962 0.0927891 -0.051090866
-0.0042058825 0.036488935 -0.11206603 0.05919954 -0.0052658617 0.056022435 0.047774613 0.11116831
0.08124831 -0.03325145 -0.01312986 -0.053355947 -0.12144868 -0.011780918 -0.019188896 0.044739485
-0.07205087 -0.0912997 -0.08025403 -0.11972223 -0.061303645 0.10115285 0.11619015 -0.092557505
-0.03524244 -0.07677001 0.08087227 -0.01766117 0.09920716 0.117739454 0.04658407 0.036725044
-0.008746013 0.06893252 -0.063186675 0.0908007 -0.114037976 -0.049795404 -0.03183937 -0.087292835
00000000: fc7f 943d 70c0 b93d d6d4 983d 284a c53d
00000010: bc32 74bd 6818 853c 0069 0eba 9407 a7bd
00000020: 8eb0 c93d 70c3 563d d02b f53d 288f 4bbd
00000030: 1082 cdbc 08ce b1bd dcb8 933d 30cb 21bc
00000040: 00c5 e73d 200f 8f3c 4058 273b f44e d43d
00000050: 00c7 9a3a 38e6 8c3c 3608 be3d a844 51bd
00000060: 80d1 89bb 6c75 153d e082 e5bd 387b 723d
00000070: 408d acbb c877 653d 50af 433d 36ac e33d
00000080: 8465 a63d ac32 08bd a01e 57bc c48b 5abd
00000090: 16ba f8bd c004 41bc 0832 9dbc c040 373d
000000a0: 688f 93bd 56fb babd 3a5c a4bd ee30 f5bd
000000b0: 8819 7bbd 3a29 cf3d 1af5 ed3d ca8e bdbd
000000c0: 605a 10bd 9839 9dbd 5ca0 a53d 28ae 90bc
000000d0: 202d cb3d 6221 f13d f0ce 3e3d 006d 163d
000000e0: 704b 0fbc 7e2c 8d3d 0468 81bd b8f5 b93d
000000f0: be8c e9bd 44f6 4bbd 006a 02bd 96c6 b2bd

fc3.weight f4 [6, 64]
-0.09826143 -0.062199652 0.028572455 0.10112746 -0.0287932 0.09624618 -0.012219623 -0.03265795
-0.03944701 0.07178795 -0.052417308 0.034379825 0.056689397 -0.105887964 0.12015732 -0.11181256
-0.05692509 -0.07899019 -0.056871817 0.025648892 -0.10822722 0.10399915 0.118196785 -0.09819594
-0.031776488 0.046163693 -0.053240344 -0.07731445 0.055766612 0.05859579 0.009514317 -0.016436398
-0.02044788 0.121680796 -0.051350832 -0.12461807 -0.111480534 -0.013287768 0.10436326 0.0051639974
0.069160864 0.12127334 -0.063592896 0.10305059 0.07949345 0.024941102 0.005669832 0.09634605
-0.055878192 -0.09577602 0.0046014637 0.05133781 -0.030299306 0.078264624 0.11356798 0.0060715824
-0.106673345 -0.03151335 0.106903285 -0.07440786 0.12458035 0.061296 -0.10746223 0.08695842
-0.048836857 -0.045227006 0.09118062 0.10256475 0.105329126 0.0229031 0.026409596 0.034290373
0.12442765 0.040021032 -0.007416129 0.046787485 -0.10607427 0.007458493 0.00013618171 0.047806144
0.11503714 -0.027746484 0.11355384 0.058070198 -0.012403563 0.10738981 0.076326355 -0.01657106
0.05235374 0.06961538 0.0061199814 0.098292515 0.100444645 -0.067420006 0.06220074 0.11718921
0.09209134 0.09744333 0.013731629 -0.09963758 0.05116965 0.0876133 -0.10357997 0.080877125
0.06880525 -0.029551119 0.07783884 -0.055996656 0.031435266 0.11436568 -0.018898249 0.07196191
0.0041344464 0.08531749 0.059179053 -0.037119895 0.09888139 0.1162664 0.06924698 0.08749616
0.033001944 0.091991335 0.08858962 0.1177413 -0.123995975 -0.07654674 -0.10455108 0.12030052
-0.082060635 0.096304804 0.0030436069 0.01644814 0.04575397 -0.08751884 0.09278573 -0.084301874
-0.050638974 0.036602065 0.059096754 0.088314846 0.06976071 -0.07948701 0.03440045 0.05536966
-0.038785756 -0.10599665 0.102802604 0.023388058 -0.10867719 0.016516015 0.012610272 -0.05621615
0.08635597 -0.10917579 -0.04653649 -0.07529372 -0.08940698 -0.098836794 -0.06766628 0.021370873
-0.102895975 -0.040490672 -0.082087204 -0.06619105 -0.01833798 0.05781035 0.08133805 0.102210194
-0.056557804 -0.10226475 0.12178336 -0.059106454 0.0010147691 0.025169194 0.08693083 -0.073497444
-0.047863975 0.029654726 -0.0669432 0.01425688 -0.031251162 -0.109372586 0.10043292 0.055499554
-0.031563744 -0.06370628 -0.08730996 0.11475591 -0.017239496 -0.0022627413 0.015804008 -0.016051978
-0.0029226243 -0.09336388 -0.09349704 0.10480976 -0.015332505 -0.0036605597 0.075134635 0.04160711
-0.086220965 0.031534776 0.054133534 0.10771491 -0.10610631 0.06210375 -0.015773445 -0.039989993
-0.011035234 -0.11064762 -0.11560543 0.03808327 0.017561987 0.05041091 0.032290563 0.08310145
0.047453895 -0.07567793 0.07700491 0.047423452 0.009395272 -0.007859841 0.054235384 -0.013973281
0.027366161 -0.026824653 -0.04431218 0.030235112 0.010051534 -0.030223802 -0.04485996 -0.056256935
-0.099346906 0.052581146 -0.09443265 -0.031684205 0.008670136 0.042088747 8.249283e-05 0.031680256
-0.04023187 -0.07417448 -0.11512789 0.030585855 -0.030547336 0.0785393 -0.072918266 -0.12229179
-0.0013257116 -0.111381054 0.10563403 0.00873211 0.08396833 0.11140491 -0.1013083 -0.094074935
00000000: 4a3d c9bd 10c5 7ebd c810 ea3c ea1b cf3d
00000010: b8df ebbc b81c c53d d034 48bc 58c4 05bd
00000020: 3093 21bd 9005 933d 88b3 56bd dcd1 0c3d
00000030: 2433 683d cadb d8bd 0a15 f63d fcfd e4bd
00000040: 482a 69bd 9cc5 a1bd 6cf2 68bd a01d d23c
00000050: 3ca6 ddbd 82fd d43d 2811 f23d f41a c9bd
00000060: 1028 02bd 2416 3d3d 8c12 5abd 0a57 9ebd
00000070: 886b 643d 2402 703d f0e1 1b3c a0a5 86bc
00000080: 5082 a7bc c833 f93d 4055 52bd c237 ffbd
00000090: e84f e4bd f0b4 59bc 68bc d53d c036 a93b
000000a0: 36a4 8d3d 285e f83d fe3c 82bd 300c d33d
000000b0: 76cd a23d 4851 cc3c 00ca b93b 1451 c53d
000000c0: 88e0 64bd 3826 c4bd e0c7 963b 9847 523d
000000d0: 4036 f8bc 3449 a03d 5496 e83d 20f4 c63b
000000e0: 8e77 dabd 2414 01bd 1cf0 da3d 2663 98bd
000000f0: fc23 ff3d 8411 7b3d 2815 dcbd 4217 b23d
00000100: 2809 48bd f43f 39bd e8bc ba3d 780d d23d
00000110: ccb6 d73d 489f bb3c f058 d83c 1074 0c3d
00000120: ecd3 fe3d 18ed 233d 0003 f3bb 3ca4 3f3d
00000130: 783d d9bd 6066 f43b 00cc 0e39 60d0 433d
00000140: 9898 eb3d 984c e3bc ea8e e83d 04db 6d3d
00000150: 5038 4bbc 30ef db3d fe50 9c3d 08c0 87bc
00000160: e070 563d 8292 8e3d 208a c83b 964d c93d
00000170: ecb5 cd3d 8013 8abd 34c6 7e3d e600 f03d
00000180: 629a bc3d 5e90 c73d a0fa 603c ca0e ccbd
00000190: 4497 513d 9a6e b33d bc21 d4bd e8a2 a53d
000001a0: c4e9 8c3d 3015 f2bc f869 9f3d c05c 65bd
000001b0: 44c2 003d 8e38 ea3d 80d0 9abc c460 933d
000001c0: 407a 873b f0ba ae3d bc65 723d 080b 18bd
000001d0: 5482 ca3d 141d ee3d 5cd1 8d3d 3031 b33d
000001e0: 0c2d 073d f465 bc3d 7a6e b53d 5a22 f13d
000001f0: 9af1 fdbd 8ac4 9cbd e01e d6bd 1e60 f63d
00000200: 680f a8bd 743b c53d 4077 473b 40be 863c
00000210: 8468 3b3d 143d b3bd 7206 be3d 76a6 acbd
00000220: d06a 4fbd 0cec 153d 700f 723d 6ade b43d
00000230: b4de 8e3d 16ca a2bd 7ce7 0c3d 4ccb 623d
00000240: d0dd 1ebd c614 d9bd 2c8a d23d 5098 bf3c
00000250: 2692 debd 984c 873c 509b 4e3c e842 66bd
00000260: 66db b03d 8e97 dfbd 0c9d 3ebd 9833 9abd
00000270: 021b b7bd f26a cabd 9e94 8abd f811 af3c
00000280: 20bb d2bd 8cd9 25bd 561d a8bd 2c8f 87bd
00000290: 8839 96bc 8cca 6c3d 9094 a63d 9453 d13d
000002a0: 28a9 67bd 2e70 d1bd 8e69 f93d 9c19 72bd
000002b0: 0002 853a a02f ce3c ca08 b23d d485 96bd
000002c0: 040d 44bd 78ee f23c 8419 89bd b095 693c
000002d0: 3801 00bd bcfe dfbd c6af cd3d 8053 633d
000002e0: fc48 01bd 7078 82bd 90cf b2bd 2605 eb3d
000002f0: d839 8dbc 804a 14bb 6877 813c 707f 83bc
00000300: 8089 3fbb 9035 bfbd 607b bfbd 80a6 d63d
00000310: 3035 7bbc 00e6 6fbb 30e0 993d 386c 2a3d
00000320: 9e94 b0bd 9c2a 013d 20bb 5d3d a299 dc3d
00000330: 444e d9bd 8060 7e3d 5037 81bc 8ccc 23bd
00000340: 20cd 34bc 389b e2bd 8ac2 ecbd 34fd 1b3d
00000350: 28de 8f3c ac7b 4e3d 1c43 043d 1831 aa3d
00000360: 045f 423d 08fd 9abd c0b4 9d3d 183f 423d
00000370: a0ee 193c 90c6 00bc ec25 5e3d 30f0 64bc
00000380: 002f e03c 60bf dbbc b080 35bd a0af f73c
00000390: 30af 243c e897 f7bc 14bf 37bd ac6d 66bd
000003a0: 6476 cbbd 545f 573d e865 c1bd 4cc7 01bd
000003b0: 300d 0e3c 4065 2c3d 0000 ad38 28c3 013d
000003c0: 2cca 24bd cae8 97bd 2cc8 ebbd 308f fa3c
000003d0: 683e fabc 36d9 a03d 2c56 95bd 1e74 fabd
000003e0: 80c3 adba c01b e4bd a856 d83d 2011 0f3c
000003f0: 96f7 ab3d 4228 e43d ba7a cfbd 5caa c0bd

fc3.bias f4 [6]
0.11768606 0.115316555 0.12093121 0.08156325 -0.05734904 -0.08211587
00000000: 6405 f13d 162b ec3d c8aa f73d a20a a73d
00000010: d4e6 6abd 5e2c a8bd
