saved_models/dqn_best_model_episode_992.pt (torch, 87147 bytes, 24 tensors)

fc1.weight f4 [64, 4]
00000000: 725b f5be 6ad6 24be 1059 f53e 18e4 e0be
00000010: 4ccd e8be 38a1 6dbe 483b 0fbe 30dc 36bd
00000020: 5942 30be a2fd 073e 24d9 903e aebf cdbd
00000030: aa4c 74be 477a f23e cff7 af3e 560a 90be
00000040: e5b7 2e3e 30c9 2ebe 4cd0 793d 8469 09be
00000050: 1849 183b df32 e0bd 7833 e43e cb09 9a3e
00000060: 5640 fbbe f373 f23e d8a2 7b3e 9e2f 8c3c
00000070: e69e 833e 349f 92be 70ac 0fbd 7694 dbbd
00000080: 5461 a53e 9357 37be cb6b d93e e81f dabe
00000090: bcf2 17be 960a 96be 306e 283d 1c77 5bbe
000000a0: e2fc dcbe c600 00bf 9a90 883e 7f25 563c
000000b0: b04d 45be badc c4be 664d c6be 843c 33be
000000c0: 8210 fc3d 92a0 fd3d 5cb5 00bf fb20 64be
000000d0: 3d14 37be 90b6 9ebe 2bce 84be b6f8 bb3e
000000e0: 0eb7 033e a2c3 85be 74e6 fdbe 0900 b53c
000000f0: 4000 e4bc 4418 5fbe 6484 4abe d007 16be
00000100: 8068 91be 923b 63be aaa2 53be 0eac b13e
00000110: 0681 79be 5b4d c13e 2023 bc3d 42cc e43e
00000120: 0984 f93e 3310 cebe b005 e73e 2a1a cf3e
00000130: 6888 de3e e6d8 bfbe 7b93 483e 8a35 1cbe
00000140: 410a 443e c070 d93d c7b2 d33e c4e3 c6be
00000150: dc33 0dbe b0d9 50be 1c56 3ebe 82b1 dfbe
00000160: 742f fbbe ed4d 25be d363 6f3e 7432 063e
00000170: 13a2 e03e a1a7 e4be e646 523e a789 503e
00000180: 0ced 773e 615f bdbb 5636 6b3e 9620 3cbd
00000190: 8cdd 05be 2063 d5bd 50c5 d03d 0e88 8dbe
000001a0: 3e32 dcbe 10bd 44be 941e f1be a0e2 09bd
000001b0: 29d7 a43e 9795 9bbe 381e f2bd e87a b13e
000001c0: 8d25 a5be 6855 dd3e be47 88be 9bc7 953c
000001d0: ef1d a1be fdac d73e c83f 8ebe 3e62 97be
000001e0: b461 803c 6dab 863e 461d 2cbd 2218 a83e
000001f0: 25d2 e6be bf44 75bd 689a 47be d892 043e
00000200: 281d f53e 086b ea3d e46c 39be 4289 c3be
00000210: 3086 a3be 1cfb 09be 4a21 ed3e 5219 963d
00000220: 3c0e 8dbe 5666 1a3e c9bd a53e 630e be3c
00000230: 8d20 b03e 429f b6be b776 88be 6c3b e93e
00000240: f09b e93e ebdf 5cbe 6fa1 b7be ce63 ecbe
00000250: 6ee1 c9be 49df 8e3c 66da 543e 81e3 973d
00000260: 7f67 88be a065 373e 92c7 3c3d e8b5 a93e
00000270: 167d ea3e b944 103e c79f c8be 56d6 c93e
00000280: 3cec adbe c41d 323e 403d 5bbc f682 87be
00000290: ffa7 5fbe 6487 9c3e eb2a e53e a11c b63e
000002a0: 5ae0 e6be 1a3d d43e 26c2 b23e 55c4 04be
000002b0: e248 22be bd46 00bd 31a0 c5be 398e 013e
000002c0: f8bb 933d 7b02 fdbe 3d18 cf3e 8562 9cbe
000002d0: c09b 8b3e 90f4 003f 4ea1 963e 671e 50be
000002e0: cd02 7abe 9b0d b3be 185d 3f3e a378 af3e
000002f0: 866e 8fbc 74e7 7d3e 4eaf fbbe b852 3ebe
00000300: 66c1 f9be 00a7 ab3c 44e2 64be 28ac b4bd
00000310: b694 cdbd 8cdb 903d d4cf 9ebd 815d 5ebe
00000320: ca62 833e c7c8 bc3e 6358 c23e 6692 dbbe
00000330: 6a2f b5bd 7c35 95be e0db e23e 1328 493c
00000340: a4b2 003f 82ef b6be 51fc 903e 6c26 963e
00000350: 3db6 2dbe 194b b43e afbf ecbd 66fe 9cbe
00000360: b8d5 803e 69d1 a5be 1a6a 34be f6a9 173e
00000370: b160 1abe ab16 903e db8b 7a3d 6243 cbbe
00000380: 608d ddbd 7115 3c3e d410 673e b394 ba3e
00000390: 8cfd 03be 002a 56bd ddcb 72be 47c9 b13e
000003a0: 75e6 07be 508e aa3e aac0 053e bbb4 dd3d
000003b0: b197 a73e 6590 7abe 4a21 1cbe 6074 83bd
000003c0: 9abd 7a3e cc5e dabe 3e91 6bbe 69e5 b3be
000003d0: 7a80 edbe 2f0f 223e 897f 323e f670 4ebe
000003e0: 3559 ed3e 4907 4fbe 9fce 31be 4c28 a8be
000003f0: 8c4d 833e ef2f 46be 8e1c d6be 028e fabe
-0.4792133 -0.16097417 0.47919512 -0.43924022 -0.4546913 -0.23206031 -0.13987458 -0.04464358
-0.1721281 0.13280347 0.28290665 -0.100463256 -0.2385737 0.47358915 0.3436875 -0.28132886
0.17062338 -0.17068934 0.060989663 -0.13419157 0.0023236927 -0.10947203 0.44570518 0.30085596
-0.49072522 0.47354087 0.24573839 0.01711255 0.25707167 -0.28637087 -0.03507656 -0.10721676
0.32300818 -0.179045 0.42465052 -0.42602468 -0.1483869 -0.2930495 0.041120708 -0.21432155
-0.43161684 -0.5000118 0.26672822 0.013070463 -0.19267917 -0.3844965 -0.38730925 -0.17503554
0.12307836 0.12384142 -0.5027673 -0.22278206 -0.17878814 -0.3099866 -0.25938544 0.3671319
0.12862799 -0.26125818 -0.49589884 0.022094743 -0.02783215 -0.217866 -0.19777066 -0.14651418
-0.2840004 -0.22190693 -0.2066752 0.3470158 -0.24365625 0.3775433 0.09186387 0.44687086
0.48733547 -0.40246734 0.45121527 0.4044965 0.43463445 -0.37470168 0.1958751 -0.15254799
0.19144537 0.106172085 0.41347334 -0.38845646 -0.13789314 -0.20395541 -0.18587536 -0.43690115
-0.4905964 -0.16143008 0.23377924 0.13105184 0.43873653 -0.4465914 0.20534858 0.2036501
0.2421152 -0.0057791923 0.22969946 -0.045929514 -0.13072795 -0.10419297 0.101938844 -0.27642864
-0.43007082 -0.19212747 -0.47093642 -0.033663392 0.32195404 -0.30387565 -0.1182217 0.34664083
-0.3225521 0.43229222 -0.26617235 0.018283656 -0.3146815 0.42124167 -0.27783036 -0.2956714
0.015671588 0.26302662 -0.042020105 0.32830912 -0.45082203 -0.059880015 -0.19492495 0.12946641
0.47873807 0.11446196 -0.18107945 -0.38190657 -0.31938314 -0.13474697 0.4631446 0.07329048
-0.27549922 0.150781 0.32371357 0.02320022 0.34399834 -0.3566838 -0.26653072 0.45553148
0.45626783 -0.21569793 -0.35865352 -0.46169895 -0.39429802 0.017440455 0.20786437 0.0741644
-0.2664146 0.1790986 0.046088763 0.33146596 0.45798558 0.14088716 -0.391844 0.39421338
-0.33969295 0.17394167 -0.013381302 -0.26467103 -0.21841429 0.30572045 0.44759306 0.35568717
-0.45093042 0.41452867 0.34913749 -0.1296552 -0.15848115 -0.03131746 -0.3859878 0.1265191
0.072135866 -0.49415955 0.4044818 -0.30543914 0.27267265 0.5037317 0.2941994 -0.20324098
-0.24415131 -0.34971318 0.18687856 0.34271726 -0.017508756 0.24795324 -0.49157184 -0.18586242
-0.48780364 0.020953655 -0.22351938 -0.08821899 -0.1003813 0.07073125 -0.07754484 -0.21715356
0.25661308 0.3687193 0.3795806 -0.4288513 -0.08846934 -0.29142368 0.44308376 0.012277621
0.50272584 -0.35729605 0.28317502 0.2932619 -0.1696405 0.35213545 -0.11559998 -0.3066284
0.25163054 -0.3238633 -0.176186 0.14810929 -0.15075947 0.28142294 0.061168533 -0.39699847
-0.10817981 0.18367554 0.22565013 0.36441574 -0.12889689 -0.052286148 -0.2371058 0.34723875
-0.13271506 0.333117 0.13061777 0.10825487 0.3273292 -0.24469145 -0.15247074 -0.06418681
0.2448639 -0.4265045 -0.23004624 -0.35135964 -0.46387082 0.15826105 0.17431463 -0.20160279
0.46357122 -0.20217623 -0.17363976 -0.32843244 0.256451 -0.19354223 -0.4181866 -0.48936468

fc1.bias f4 [64]
00000000: fafd ec3e d0ce c3bd 2d17 18be 1514 c8bd
00000010: de92 c73e 528a 24bd 2aa6 a7bd f1b5 dcbc
00000020: 2136 adbe fa4f f63e 4417 fa3e c09d a8bd
00000030: 20b9 5fbe 8350 1cbe 5c71 ab3e 402c 34bc
00000040: 5f24 89bd 7a6d 2dbd aab2 a6be 65f7 953e
00000050: ce21 e53d d698 e9be 50d2 88be 1703 c4bc
00000060: b490 94be a80a 463e 403f c7be b3e1 d3be
00000070: 3de1 a23a 2905 99be 81e2 c6be c84e 45be
00000080: 1f2f da3e 8b7e 6e3c c768 c7be 4f57 153e
00000090: 2cd5 9e3e f224 dcbe ee5a ccbe 34d6 96be
000000a0: f7bc 973d 4cb6 983e 1d56 263e c1da a1be
000000b0: d2ba 3bbe 2529 cabe 7e23 8ebe e61f 113e
000000c0: 9066 55bd 75da a03d f999 1ebe 1eb1 cf3d
000000d0: cffa d2be b0e7 2fbe 5714 013e 6791 463d
000000e0: 5eb7 debd a7be a9be e9b4 563e fd41 47be
000000f0: 6f4a 8bbe 4c96 d23e 3f34 6a3e d44e ab3b
0.4628752 -0.09560931 -0.14852591 -0.09769455 0.38979238 -0.040170975 -0.0818599 -0.026942225
-0.3383036 0.48107892 0.48845875 -0.082332134 -0.21847963 -0.15265088 0.33484924 -0.010996878
-0.0669639 -0.042340733 -0.32558185 0.2929031 0.11188088 -0.45624417 -0.26722956 -0.023927255
-0.2901665 0.19340003 -0.38915443 -0.41383132 0.0012426745 -0.2988675 -0.38844684 -0.19268334
0.42614076 0.014556537 -0.38947126 0.14584087 0.31022012 -0.42996937 -0.39913124 -0.294603
0.07409089 0.2982658 0.16243787 -0.31612208 -0.18332985 -0.39484516 -0.27761453 0.14172325
-0.052099764 0.07854167 -0.15488423 0.10141204 -0.41206977 -0.17178226 0.12605415 0.04847851
-0.10874818 -0.3315327 0.20967449 -0.19458766 -0.27205226 0.41130292 0.22871493 0.005227903

fc2.weight f4 [64, 64]
00000000: ca17 80bd 20a7 c4bd a6a9 193c 7313 6e3d
00000010: 9e41 f9bd 32a3 9abc 77f1 94bd 70a0 8d3d
00000020: aacb c63d 368d ce3d 6cad c43d f6bd cc3d
00000030: 198a e63d a464 b33d 78c5 b33c 3222 993d
00000040: c06a d0bc db66 c5bd d323 bfbd 96de 043d
00000050: ae03 8bbc 380c 90bc 00e5 cd3b 4b61 a4bd
00000060: e492 73bd ae78 9c3d b844 fcbd 1e9f f33d
00000070: be84 fabd d1c0 da3d 1cec 353d 400d 44bb
00000080: bb28 83bd c8e1 693d f437 eabd a454 8bbd
00000090: dda1 0abd f07d 813d ba22 cb3d e0bf f7bd
000000a0: 6cec dabd 388b fc3d 04b6 9fbd ce3f ccbd
000000b0: 68fa bbbd d8bd 1f3d 80d9 38bb 6ee9 0fbc
000000c0: 28a4 f3bd 603d 9a3d 0703 663d 6212 b3bd
000000d0: 3a28 4dbd 91c2 c3bc ba0b 8c3d 0bb3 15bc
000000e0: 105c 9cbd c449 f23d c9af 083d b1fb b73d
000000f0: 9235 dfbd d07d 6c3c 991d f93d dfb7 b1bd
00000100: ebf1 ce3d 862e a23d 96a3 e0bb 504f 973d
00000110: 8e62 f03d 7f38 153d 4a79 61bd 846d c23d
00000120: 5b08 443c 006c c039 4670 a9bd 34c2 98bd
00000130: b981 c73c b447 2a3d aa27 783d 6c3e e0bd
00000140: f453 b33d a1e0 503d 1790 cbbc 5534 8f3d
00000150: f3bf c43d 80a7 50bd b49f 98bd 7d93 5fbb
00000160: f2a5 aa3d c02a 24bb e0b3 cfbc 6284 e93d
00000170: eaee 7c3d 7d60 21bd 7605 913d 5afd cbbd
00000180: 7f7d a5bd 1a01 2a3d fcbe db3c 2e9b 65bd
00000190: b375 893d e4c2 d2bd c1f6 dabd b4c6 b7bd
000001a0: ca54 833d b22f 7ebd 83a9 eb3d 84b7 d1bd
000001b0: 3e2e cbbd 67b6 963d 2484 fcbd ed56 7d3d
000001c0: 0648 b33d a255 cebc 3212 85bc 67e8 963d
000001d0: 43be 85bd 4bfa 1bbc c6c4 9ebd 2c2c b03d
000001e0: 27fa 9b3c 0835 dfbd 270b ad3b 0b93 593d
000001f0: ddda 9ebc a366 8a3d 0314 f23d 30be aa3d
00000200: c608 ac3d 343a bd3d 1891 56bd 2c1d 69bd
00000210: 5e8f 863d 275e 37bd f3b3 a6bd e264 c5bd
00000220: 9088 f73d 102f 8c3c 0fc1 a13d 5843 b33d
00000230: 1801 0ebd 86f0 703d a033 c8bb 7497 f9bd
00000240: ed58 e8bd 2b26 a2bd 78f2 df3d 6b8b 5cbd
00000250: d982 463c 407b 24bd d806 42bc 04eb 9abd
00000260: 4a79 4f3d ae9d 8a3d 666b 8a3d 6cbe d73c
00000270: cac5 3ebd 70ef d3bd d263 963d 51d2 db3d
00000280: aa39 b9bd f92d 203d 3d04 a4bd e8c6 d83d
00000290: 1c9e 863d 31ad b03d 5ee7 3bbd 1dc1 fcbd
000002a0: d0dc 613c c29f 753d 6e93 073d ec49 3abd
000002b0: 5e87 b7ba ce46 50bd c035 ef3d b607 8a3d
000002c0: 04e7 48bd da5e b33d ad14 92bd 6916 f13d
000002d0: d3ae 50bd d8bb 92bd 89b4 a1bd 0e33 fabd
000002e0: 284d dfbd caf1 bb3d d0d7 4a3d ba1c 423b
000002f0: 2a8c d23d 66df a1bd af1d 4b3d 075d bc3d
00000300: 40ca a9bb 041d 8e3d bd8b a83d 9d02 71bd
00000310: a2a4 193d c337 45bc d14a 8e3d 4f92 ad3d
00000320: 2fd7 d3bd 203a 953c b0ba b93d cac0 acbd
00000330: 5ff6 bb3d b4cf 3dbd 8bfc cbbc 9c6f 41bd
00000340: 5c28 5d3d 5d27 e7bc cf9b 89bd 58b5 b13c
00000350: e527 a23d 7c5f 823d 204f 0fbc b0bb 893d
00000360: 1ed5 913d 805d c83d a08b 3fbd d7fa b73d
00000370: bfde a93c 8f52 ef3c be4b 62bd 7895 dcbc
00000380: d97e 223d 50da 963d d2ef f53d a1a3 00bc
00000390: 9c3e 5c3d 084b 9ebd 9ff7 52bd 8757 abbd
000003a0: 7a3f bd3d 07fa 49bd d347 afbd 3050 06bc
000003b0: d3ae 003a e551 8a3d 3280 84bd 0f40 e7bd
000003c0: c602 f1bd a792 983d 9e28 44bd 339d ba3d
000003d0: f72c 583c 590a 1d3d 23d1 9dbd 4ed9 33bd
000003e0: b295 15bd 14a3 aa3d c3a8 c83d a431 b9bd
000003f0: 0591 e0bc c87c eb3c f8c2 84bd 766f 453d
-0.062545374 -0.09602189 0.009378826 0.058124017 -0.121707186 -0.018876646 -0.07272618 0.06915367
0.097068146 0.100855276 0.0960339 0.0999717 0.11256809 0.0875943 0.021944746 0.07477225
-0.025441527 -0.09638759 -0.09333005 0.032438837 -0.016969528 -0.017583951 0.0062834024 -0.0802637
-0.059466258 0.07640205 -0.123177946 0.118955836 -0.1223235 0.10681308 0.044414625 -0.0029915124
-0.06404253 0.057100087 -0.114364535 -0.06803253 -0.03384577 0.06322849 0.09918733 -0.12097144
-0.10689625 0.12331241 -0.077983886 -0.09973107 -0.091786206 0.03899941 -0.0028205812 -0.008783681
-0.11896545 0.075312376 0.05615523 -0.087437406 -0.05008719 -0.023896487 0.06838174 -0.009136925
-0.07634747 0.11830476 0.033370767 0.08983553 -0.108988896 0.014434293 0.121638484 -0.08677649
0.10104736 0.0791903 -0.0068554385 0.073881745 0.11737548 0.036430832 -0.05504731 0.09493545
0.011964883 0.0003670156 -0.082733676 -0.07458916 0.024353849 0.041572288 0.0605847 -0.10949406
0.08756247 0.050995473 -0.02484898 0.069924034 0.09606924 -0.05094099 -0.07452336 -0.003411501
0.08332433 -0.0025049895 -0.025354326 0.11402203 0.061751284 -0.03939866 0.0708112 -0.09960432
-0.08080577 0.041504957 0.026824467 -0.056056194 0.067119025 -0.10291079 -0.10691596 -0.089734465
0.064126566 -0.062057205 0.11506941 -0.10240081 -0.09920929 0.07359009 -0.12329891 0.061850477
0.08753972 -0.025187317 -0.016244028 0.07368546 -0.0653043 -0.009520124 -0.07752375 0.08602175
0.01904018 -0.10898787 0.0052808705 0.053118747 -0.019391472 0.06757858 0.11820223 0.08337057
0.08400111 0.09239617 -0.052384466 -0.056912586 0.06570314 -0.044767525 -0.08139791 -0.096383825
0.12086594 0.017112285 0.07898151 0.08753079 -0.03466901 0.05882313 -0.00610967 -0.121870905
-0.11345086 -0.07917436 0.10934919 -0.053843897 0.012116157 -0.040156603 -0.011842452 -0.07564357
0.05065278 0.06768356 0.06758766 0.026335917 -0.046575345 -0.103484035 0.07343258 0.10733474
-0.09044202 0.039106343 -0.08008621 0.10584813 0.06573126 0.08626784 -0.045874946 -0.12341521
0.013785556 0.05996681 0.033099584 -0.045480654 -0.0014002135 -0.050848775 0.11680174 0.06739752
-0.04904844 0.08758326 -0.0713285 0.117718525 -0.050947975 -0.071647346 -0.078957625 -0.12216769
-0.10903388 0.09176977 0.04952222 0.0029619173 0.102806404 -0.07903938 0.049588855 0.09197431
-0.005181581 0.06939128 0.08229778 -0.058840383 0.03751052 -0.01203722 0.06947864 0.08475172
-0.103437774 0.018216193 0.09068811 -0.08435209 0.09177851 -0.04634066 -0.024900695 -0.04722558
0.053993568 -0.028217012 -0.06719171 0.021692917 0.079177655 0.063658684 -0.008746892 0.06725252
0.07120727 0.09783459 -0.046764016 0.08983391 0.020736096 0.029214172 -0.055248015 -0.026926741
0.039671753 0.073658586 0.12008633 -0.007851512 0.053770646 -0.07729155 -0.05150568 -0.08366304
0.09240623 -0.04931071 -0.08558621 -0.008197829 0.00049088633 0.067539014 -0.06469764 -0.11291515
-0.11768107 0.07449847 -0.047890298 0.091120146 0.013194314 0.038339946 -0.07705905 -0.04390841
-0.036519714 0.08331886 0.09797814 -0.09042671 -0.0274129 0.028746024 -0.064825 0.048202

fc2.bias f4 [64]
00000000: 35fe f0bd 8bf9 95bd fa5d e53d b70b e4bd
00000010: e935 f73d 099d 4f3c 6f4a f6bc b013 48bd
00000020: 87c1 9fbc a6cd d33d a6bc 4fbd 3458 f13d
00000030: 9573 ac3d 583c 9b3c 1240 aa3d efd2 a5bd
00000040: 94ab 27bd e0ff 6abd 212b d83d 8628 80bd
00000050: d77a 2fbd ece8 09bd 5e6d a43d 1944 093d
00000060: 159b 223b 6848 6b3b 2db5 cf3c 048b 163d
00000070: 6279 f9bd c42d febd bfab 78bd 41ef f1bd
00000080: 2629 7abd 896a f4bd 480f d3bd deae 7d3c
00000090: 4d2b e7bd 9d9f 823b 835b 95bd b86c 3ebd
000000a0: 5036 f83c 865e 31bd 5fce 1cbd 2bf6 3b3d
000000b0: 4c67 c33b 446f d3bb 61ba 5abc 8652 89bb
000000c0: 7187 44bd 68d4 a53d 6800 c93d 430f 5fbd
000000d0: 0282 9c3d f333 30bd 9579 b0bd 75db a9bd
000000e0: 71cc 85bd 30e3 ddbd ffde 833d dbd5 e0bd
000000f0: 1076 653c a563 f13b b281 c1bd a96c 84bd
-0.11767236 -0.07322987 0.11199565 -0.11135047 0.120708294 0.012671717 -0.03006479 -0.0488469
-0.01950146 0.10341959 -0.05071702 0.117844015 0.08420483 0.018949673 0.08313002 -0.08096873
-0.040935114 -0.057372928 0.10555101 -0.06257729 -0.04284176 -0.033669397 0.08028673 0.03351221
0.0024811674 0.0035901312 0.025354946 0.03675367 -0.12181355 -0.12411073 -0.060710665 -0.11813212
-0.0610744 -0.119343825 -0.10305649 0.015483586 -0.11287556 0.0039863125 -0.07292845 -0.0464904
0.030299336 -0.043303035 -0.03828275 0.04588906 0.0059632417 -0.006452473 -0.0133501 -0.0041907458
-0.04798073 0.08097154 0.098145306 -0.054457914 0.076419845 -0.043018293 -0.0861694 -0.08293811
-0.06533135 -0.10834348 0.064390175 -0.1097829 0.014005199 0.007366615 -0.094485655 -0.06466038

fc3.weight f4 [6, 64]
00000000: 9b09 d13c 6599 3c3c 9732 abbd dac4 eb3c
00000010: 09fc d2bd bcdc a1bd 244e 8e3c bef8 f0bd
00000020: d083 c23d ace2 003e cd43 95bd fe94 cd3d
00000030: 4798 a53d c2bb 973d 8f32 3d3c 0eb7 fe3d
00000040: c010 3bbd eac0 68bd 7d27 8abd e3b6 79bd
00000050: e4b7 a23d f414 c8bd 7a68 1a3d a0e7 4cbc
00000060: d4e5 ebbd 8584 0cbd 85fa da3d 44dc a73d
00000070: 27e7 aabd b7b2 aabd c17e 9fbc 2877 4dbd
00000080: 21a3 98bd 9603 f23d 722f b03d 7f71 0ebb
00000090: 27a4 ebbd 251f 163d c9b2 21bd d4c2 803d
000000a0: 3b50 993d 5599 af3c e563 a13d cb4a 2f3d
000000b0: 27d8 fb3d 416f 933d 642a ccbc 05a9 e8bd
000000c0: bd47 6e3c 86e3 5b3c 0f36 463d acdc a83d
000000d0: 21ce 9d3d 2f25 60bd 7bad ea3d 1976 d5bd
000000e0: c7af 803c 4292 df3d 8cb2 50bb 3bb1 cfbc
000000f0: 38d3 6abd 9e9f b33d c79f 75bd 10de cabc
00000100: d3a1 b5bd 9222 9abd 4412 4d3d f282 ef3d
00000110: 8a84 c53d 917e d23c 54dc 983d 4aea e43d
00000120: 205e 94bd e523 41bd 8806 003e 841d 2c3d
00000130: 0f81 c8bd 2090 5b3c abc4 e2bb 3128 a53d
00000140: 5851 c93d 4afe 9f3d 0ddc 20bd 388a c9bd
00000150: 86ba dabc ec43 583d 57a9 c1bd 7724 443c
00000160: c890 b7bd 5023 f43b 6ac3 713d 44f1 d1bd
00000170: 839a 863d cf8f 7abd 484f c33d 6f70 273d
00000180: e4d0 2d3d c953 ac3d 99b6 d13c 7a4f 79bd
00000190: c257 9e3d 517c ebbb f7c2 7bbd 148d d7bd
000001a0: 97e8 48bd 4e29 9e3d 7f92 4b3d 7462 e93b
000001b0: d087 71bc 884a 913c c63b 0b3d bbff 24bd
000001c0: 8917 f13d fe3d 4d3d 166f 383d 4e41 b7bd
000001d0: ddae 41bd 85be a93d c1e6 9cbd 56c9 f8bd
000001e0: fd71 acbd ecf0 663d 990e da3d 256d f03d
000001f0: 68ac a03d ba43 593d 341b 7e3d f028 23bd
00000200: 7d41 dfbd ccd5 f13d df44 b5bd 2b97 b3bd
00000210: c0d3 2a3d d114 403d b5b3 cd3d 5897 b63d
00000220: 876d c2bd f25a a23c 8fb6 bd3d 0e78 9f3d
00000230: bd0c 353d c06e 243d a543 d43d c3a7 8dbd
00000240: b020 843c a605 9f3d 46e2 bc3c 3739 e0bc
00000250: 1909 8d3d 7481 4b3d bd87 ba3d 12ac ee3c
00000260: afda 043c 29cb bfbd 3c06 583d 7c69 5bbd
00000270: 6b9c 7dbc 00b2 7a3d f463 2d3d 9e8f dc3b
00000280: e1dd ef3c df59 e23d 424a 353d 064e df3d
00000290: e68f d6bd dac7 37bd fe03 a7bc f6b8 82bd
000002a0: 1921 d6bd ab71 10bc b4c2 fb3c 04fb 4ebc
000002b0: 4705 963b 8c94 733d d51c 8abd 76e9 c8bd
000002c0: dbc4 40ba 289b d03d be52 9bbc b365 ebbd
000002d0: 2f80 6cbd 498e a0bd f41b e73d bbf5 52bd
000002e0: 339e b2bd 7a65 b53c b697 ac3d ed6d e43d
000002f0: 00f1 df3c b355 723d 80c9 a43d b8c2 8bbc
00000300: f32c 073d fd9c 17bd d03e 223d 3b65 8abd
00000310: a0b3 65bd 544c 50bd 187c 8cbc 747b db3d
00000320: 8db6 66bd 4a05 5a3d d3e2 0e3d f4b7 fcbd
00000330: 0157 093d 3651 e33d 7f03 f9bd 24e1 bdbd
00000340: e812 58bd ef50 8a3d a5ae 84bc 0435 a0bd
00000350: 6c5f a03d c05c d5bd e132 053c fb24 7ebc
00000360: 06b9 823d e066 f33d 2740 17bd 50ae 90bc
00000370: 9d2c 933d 266c b43d ca63 f6bc 411a 953d
00000380: ced5 cebc 3be6 f43c e608 2d3d ac8d 8b3d
00000390: 0cea d63d b8e0 cdbc cb60 f4bc 442a f7bd
000003a0: f549 093d 4699 363c 994f 60bd 3a8c 8e3d
000003b0: c596 b53d 7f8a d8bd 8d3e 87bd 2b53 a73a
000003c0: 3060 f5bd 3d57 dc3d 8031 a43d f251 cebd
000003d0: 1f6e bd3d d384 823d e58e ef3d d2f8 eb3d
000003e0: 4930 7fbd 73bd 70bc 5ab9 8ebd 7f70 9abc
000003f0: b42a f1bd 9d85 d4bd 76b7 20bd d45d 2e3d
0.025517276 0.0115111815 -0.083592586 0.02878039 -0.10301978 -0.0790343 0.017371245 -0.11766194
0.094977975 0.12586468 -0.072883226 0.10038184 0.08085685 0.07408859 0.011547699 0.12437259
-0.04567027 -0.056824602 -0.06745813 -0.06096543 0.079452306 -0.097696215 0.037697293 -0.012506396
-0.115184456 -0.034306068 0.10692314 0.08196309 -0.0834487 -0.083348684 -0.01946962 -0.050162464
-0.07452989 0.1181709 0.086027995 -0.002173513 -0.11505919 0.036650795 -0.039477143 0.062871605
0.07486006 0.02143542 0.078803815 0.042795938 0.12297087 0.071989544 -0.024922557 -0.11360363
0.014543471 0.013420945 0.048391398 0.08245215 0.077053316 -0.05472296 0.1145887 -0.10422916
0.015708817 0.10916568 -0.0031844703 -0.025353065 -0.05733034 0.08770679 -0.05996683 -0.02476409
-0.08868756 -0.07526125 0.050066248 0.11694898 0.096444204 0.025695117 0.07463899 0.111774996
-0.072445154 -0.047153372 0.12502491 0.042020336 -0.09790241 0.013401061 -0.0069204173 0.080643065
0.09829968 0.07812174 -0.039272357 -0.09840816 -0.02670027 0.05279915 -0.09456127 0.0119715845
-0.08963162 0.0074504986 0.059024252 -0.10251096 0.065724395 -0.061172303 0.09536606 0.04087871
0.04243554 0.08414418 0.025599765 -0.06086681 0.07731582 -0.0071864505 -0.06146523 -0.105249554
-0.04904994 0.07722722 0.049700256 0.007122332 -0.014741853 0.017735735 0.03399255 -0.040282946
0.11772067 0.05010795 0.045027815 -0.08948003 -0.047285903 0.08288292 -0.076612 -0.12147777
-0.08420179 0.056382105 0.106473155 0.11739568 0.07845384 0.053043105 0.06203766 -0.039833963
-0.10901163 0.11808357 -0.08851027 -0.087690674 0.041705847 0.046894852 0.10044042 0.08915585
-0.09493547 0.019818757 0.09263336 0.077865705 0.0442016 0.040144682 0.10364465 -0.06916764
0.016128868 0.07764749 0.023057114 -0.027371032 0.06886501 0.049684003 0.09107921 0.029134784
0.008108779 -0.093649216 0.05274032 -0.053567395 -0.0154791875 0.06120491 0.04233165 0.0067309877
0.029280605 0.11052298 0.04426027 0.10903554 -0.10476665 -0.044868328 -0.020387646 -0.06382935
-0.104555316 -0.008816163 0.03073249 -0.012633089 0.004578266 0.059467837 -0.067437805 -0.09810154
-0.00073535525 0.10185844 -0.018960353 -0.11494007 -0.057739433 -0.07839639 0.112846285 -0.051503878
-0.0872158 0.022143114 0.08427374 0.11153779 0.027336597 0.05916376 0.080462456 -0.017060623
0.03300185 -0.03701495 0.039610684 -0.067575894 -0.056079507 -0.050854042 -0.017149016 0.10716906
-0.056326438 0.0532277 0.034884285 -0.12339774 0.03353024 0.11099474 -0.1215887 -0.09271458
-0.052752405 0.06753718 -0.016196558 -0.07822612 0.078307 -0.10418081 0.008129806 -0.0155117465
0.06382947 0.11884856 -0.036926415 -0.017661244 0.07186244 0.0880969 -0.03007688 0.07280398
-0.025248434 0.029894939 0.042244814 0.06814131 0.1049386 -0.025131568 -0.02983131 -0.120686084
0.033517797 0.011144942 -0.05476341 0.0696034 0.08866648 -0.10573291 -0.066037275 0.0012765875
-0.11981237 0.10758827 0.08017254 -0.100742236 0.092495196 0.063729905 0.11697177 0.11522068
-0.062301908 -0.014693606 -0.06968947 -0.01885247 -0.11775723 -0.10377047 -0.039237462 0.04256995

fc3.bias f4 [6]
00000000: 8059 4b3d 3923 943d a26f d73d a6bf 84bd
00000010: 80d7 a13d f8f4 243c
0.0496459 0.07233281 0.10519339 -0.064818665 0.079024315 0.010068171

fc1.weight f4 [64, 4]
00000000: 725b f5be fcc8 24be 1059 f53e 18e4 e0be
00000010: 4ccd e8be 38a1 6dbe 483b 0fbe 30dc 36bd
00000020: 4823 2dbe 3cd4 0a3e 8e57 923e b0e6 ccbd
00000030: 54c6 78be 4c17 f03e dc6f ae3e b46a 90be
00000040: 6ccb 303e 184e 2dbe d010 7d3d 0823 08be
00000050: 001e c4ba 38ad e8bd 3259 e23e 3eff 993e
00000060: 40f0 f8be 26cf f43e 983d 7e3e c024 943c
00000070: b2fa 843e 5253 91be 90c9 06bd 78ce d7bd
00000080: 26ea a43e 4803 38be 5628 da3e 7ab9 dabe
00000090: bcf2 17be 960a 96be 306e 283d 1c77 5bbe
000000a0: 0a5b dcbe 80cb ffbe 0037 893e 0081 6c3c
000000b0: b04d 45be badc c4be 664d c6be 843c 33be
000000c0: 7885 013e e40c 023e d4bf ffbe 1836 63be
000000d0: 9c48 38be aaf3 9ebe 4c31 85be 8e6b bb3e
000000e0: ac23 023e ccad 86be 7691 febe 6032 983c
000000f0: 4000 e4bc 4418 5fbe 6484 4abe d007 16be
00000100: 7017 92be fceb 63be e817 55be 74d4 b03e
00000110: a4d3 75be bc2d c33e 98f1 c33d 2a62 e53e
00000120: bc42 fb3e d025 ccbe 7680 e83e cecf cd3e
00000130: 3cf1 df3e ec84 bebe 5cbc 4c3e d8bb 1bbe
00000140: 8451 433e 58ec d73d 2e7a d43e b4a5 c7be
00000150: dc33 0dbe b0d9 50be 1c56 3ebe 82b1 dfbe
00000160: 30d4 fbbe 7c3a 26be 9019 6e3e c0af 043e
00000170: ae6e e13e 2007 e4be 4c95 523e d80f 513e
00000180: 682a 7a3e 00b0 7dbb 9870 6e3e 30c4 37bd
00000190: 8cdd 05be 2063 d5bd 50c5 d03d 0e88 8dbe
000001a0: 3e32 dcbe 10bd 44be 941e f1be a0e2 09bd
000001b0: 6267 a63e ae26 9abe d80e ecbd 7cca b23e
000001c0: e269 a6be 820d dc3e c890 89be a0d3 973c
000001d0: e863 a2be 3843 d73e 7ae3 8ebe 2a5b 97be
000001e0: 40a7 583c 3083 853e e06a 32bd 3296 a83e
000001f0: 68e8 e6be 301f 77bd c81b 48be 1c11 043e
00000200: 0e68 f33e 3059 e33d d48c 3cbe 0e2c c3be
00000210: 341d a3be a895 09be e670 ed3e 98ae 983d
00000220: fa13 8dbe e45c 1a3e 32cc a53e e01d c63c
00000230: 0a92 b13e 1632 b5be ac1b 87be 4805 ea3e
00000240: d243 e73e c8d8 61be 7a33 b9be 2e64 efbe
00000250: f401 cabe 209b 8c3c bc9d 543e d86f 963d
00000260: d4af 89be 7cce 343e b023 393d f451 a93e
00000270: b66a e83e fcf6 0c3e 329d cabe 0edf ca3e
00000280: 2289 adbe f4e2 323e 403d 5bbc 3c8d 87be
00000290: 489d 5bbe 2495 9e3e 5ee5 e63e 6a9f b63e
000002a0: 5ef9 e4be da32 d63e 2c9e b43e f864 04be
000002b0: 08b8 22be c09e ffbc 38a1 c5be d875 013e
000002c0: 782b 8e3d 1a18 febe 68f2 cd3e cc24 9dbe
000002d0: 3c78 893e 00c1 ff3e e25d 943e ec41 53be
000002e0: 3420 79be 40ba b2be a463 403e 2010 b03e
000002f0: c02a 9cbc 749f 7c3e 7acb fcbe 68f8 3dbe
00000300: 66c1 f9be 00a7 ab3c 44e2 64be 28ac b4bd
00000310: 2086 cebd c07b 8f3d f86a a0bd 504f 5ebe
00000320: 820a 823e aa72 bb3e b8cd c03e 781c dcbe
00000330: 0029 b0bd c4f6 94be a0d7 e33e 40c1 633c
00000340: 366f ff3e 74b8 b8be ca37 8f3e 0071 943e
00000350: 3c49 31be 9878 b23e 30ef efbd b664 9dbe
00000360: 2ad1 803e 1618 a5be dc02 35be 0c70 183e
00000370: b425 1bbe 1a28 8f3e 18f4 803d 9073 cbbe
00000380: f82a dabd c42c 3e3e c0a5 693e 14d3 bb3e
00000390: ac03 04be 608f 54bd 8ca5 72be 32f8 b13e
000003a0: 803a 0bbe d62a a93e f086 023e b094 dd3d
000003b0: 3864 a53e 1421 7fbe 7449 1fbe 283b 81bd
000003c0: 6055 7d3e 9686 d9be d457 68be 9e86 b4be
000003d0: 8a99 edbe 54ad 213e 3059 323e 84c9 4ebe
000003e0: d2fa ea3e 18b6 53be c4b0 35be a0e5 a9be
000003f0: 38d1 843e 9c7c 43be 8a80 d4be 2eed f9be
-0.4792133 -0.16092294 0.47919512 -0.43924022 -0.4546913 -0.23206031 -0.13987458 -0.04464358
-0.1690799 0.13557523 0.28582424 -0.10004938 -0.24294406 0.46892774 0.34069717 -0.28206408
0.172651 -0.16924322 0.06178361 -0.13294613 -0.0014962554 -0.11361164 0.44208676 0.30077547
-0.48620796 0.47814292 0.24828184 0.01808393 0.25972515 -0.2838388 -0.03290707 -0.10537428
0.3220989 -0.17970002 0.426089 -0.42719632 -0.1483869 -0.2930495 0.041120708 -0.21432155
-0.43038207 -0.49959946 0.26799774 0.014435053 -0.19267917 -0.3844965 -0.38730925 -0.17503554
0.1264857 0.1270023 -0.4995104 -0.22188604 -0.17996448 -0.31045276 -0.26014173 0.36605495
0.1270892 -0.26304471 -0.49720353 0.018578708 -0.02783215 -0.217866 -0.19777066 -0.14651418
-0.28533506 -0.2225799 -0.20809901 0.3453709 -0.24006516 0.3812083 0.09567565 0.44801456
0.49074352 -0.398726 0.45410508 0.40197605 0.43738735 -0.37210786 0.19993728 -0.15208375
0.19074064 0.10543126 0.41499466 -0.3899361 -0.13789314 -0.20395541 -0.18587536 -0.43690115
-0.49185324 -0.16233248 0.23251939 0.12957668 0.44029754 -0.44536686 0.20564765 0.204162
0.24430239 -0.003870964 0.23285139 -0.044864833 -0.13072795 -0.10419297 0.101938844 -0.27642864
-0.43007082 -0.19212747 -0.47093642 -0.033663392 0.3250075 -0.30107635 -0.11526269 0.34920108
-0.32502657 0.42979056 -0.26868272 0.018533528 -0.31716847 0.4204347 -0.27907926 -0.2956174
0.013223469 0.2607665 -0.043558955 0.3292709 -0.45099187 -0.060332477 -0.19541848 0.12897152
0.47540325 0.111009955 -0.18413097 -0.3811955 -0.31858218 -0.13435996 0.46375197 0.07455176
-0.27554303 0.15074497 0.3238235 0.024184167 0.3468173 -0.35389775 -0.263883 0.45707154
0.4516893 -0.22055352 -0.36172086 -0.4675612 -0.39454615 0.017163813 0.20763296 0.07345551
-0.2689196 0.17656893 0.04520005 0.33070338 0.45393914 0.13766092 -0.39573056 0.39623302
-0.33893687 0.17469388 -0.013381302 -0.2647494 -0.21446717 0.3097316 0.45096868 0.35668498
-0.44721502 0.41835672 0.35276926 -0.12929142 -0.15890515 -0.031203628 -0.38599563 0.1264261
0.06941885 -0.49627763 0.40224004 -0.30692136 0.26849544 0.49951935 0.28977877 -0.20630616
-0.24328691 -0.34907722 0.1878801 0.34387302 -0.019063354 0.24670202 -0.4937399 -0.1855179
-0.48780364 0.020953655 -0.22351938 -0.08821899 -0.10084176 0.07006025 -0.07832903 -0.21709943
0.25398642 0.3661092 0.3765695 -0.4299047 -0.0860157 -0.29094517 0.44500446 0.013901055
0.49889535 -0.36078227 0.2797225 0.28992462 -0.17313093 0.3485763 -0.11715543 -0.307409
0.2515958 -0.3224494 -0.17676872 0.14886492 -0.15151101 0.27960283 0.06296557 -0.39736605
-0.10652727 0.18571764 0.22817135 0.36684477 -0.12892026 -0.051894546 -0.23695964 0.3475967
-0.13596535 0.33040494 0.12746787 0.108193755 0.32303023 -0.24914962 -0.15555364 -0.06310111
0.24739599 -0.42485493 -0.22689754 -0.35258955 -0.46406204 0.15788776 0.17416835 -0.2019406
0.45894486 -0.20674932 -0.17743212 -0.33183002 0.2594087 -0.19090503 -0.41504318 -0.48813766

fc1.bias f4 [64]
00000000: ae04 ed3e d0ce c3bd 5c2d 15be 18b3 d1bd
00000010: 1ce2 c83e e054 30bd c80a 9ebd 60d1 c2bc
00000020: f8c4 adbe fa4f f63e a8ca fa3e c09d a8bd
00000030: 38a0 5bbe e486 1dbe 7a7e a93e 402c 34bc
00000040: 4086 8cbd 307a 1ebd e280 a5be 2093 973e
00000050: 38f2 e13d d698 e9be 2698 89be e0ec b2bc
00000060: 9a86 93be a80a 463e 403f c7be 8e06 d2be
00000070: 00e2 91ba 4e91 99be c803 c8be 14d1 45be
00000080: 6c73 d83e 408c 813c 5e29 c7be 8413 183e
00000090: 72cd 9b3e 507e dcbe 4ca0 cdbe a43a 98be
000000a0: 5046 993d d6a8 9a3e 143e 2a3e 6ceb a1be
000000b0: e89d 3ebe 8a80 ccbe da8d 8dbe 6407 0f3e
000000c0: 9066 55bd b89c 9f3d 40be 22be 08a2 d53d
000000d0: 8234 d5be dc59 33be 38ed 003e 7061 3d3d
000000e0: 6844 d8bd 4c9a a9be 8481 533e b84a 4bbe
000000f0: 9cd8 8abe 4a67 d23e a020 653e 80ef 093c
0.46292633 -0.09560931 -0.14568084 -0.102392375 0.39235008 -0.043049693 -0.077169 -0.023781478
-0.33939338 0.48107892 0.4898274 -0.082332134 -0.21447837 -0.15383488 0.33104306 -0.010996878
-0.06861544 -0.038690746 -0.32324892 0.29604435 0.11032528 -0.45624417 -0.26873893 -0.021841466
-0.2881363 0.19340003 -0.38915443 -0.41020626 -0.0011129975 -0.2999367 -0.39065385 -0.19318038
0.4227556 0.015813947 -0.38898748 0.14851195 0.3043018 -0.4306512 -0.4016136 -0.2973224
0.07484114 0.30206937 0.16625243 -0.31624925 -0.18614924 -0.39941818 -0.27647287 0.13967663
-0.052099764 0.077935636 -0.15892887 0.10431296 -0.41641623 -0.17514747 0.12590492 0.0462355
-0.105599225 -0.33125532 0.20654875 -0.19852722 -0.27118385 0.41094428 0.22375727 0.008418918

fc2.weight f4 [64, 64]
00000000: ca17 80bd 20a7 c4bd f0a9 1f3c 348e 6e3d
00000010: 4c24 f9bd c002 98bc 006e 94bd 70a0 8d3d
00000020: b007 c73d 368d ce3d 6cad c43d f6bd cc3d
00000030: 087f e63d a464 b33d 78c5 b33c 3222 993d
00000040: c06a d0bc 222e c5bd 14e8 bebd 802c 053d
00000050: 402e 8abc 380c 90bc 00e5 cd3b 5e57 a4bd
00000060: 5032 73bd ae78 9c3d b844 fcbd 24a4 f33d
00000070: 007d fabd 8ccb da3d 1c3b 363d 400d 44bb
00000080: c207 83bd c8e1 693d f437 eabd a454 8bbd
00000090: 14a3 0abd f07d 813d ba22 cb3d b0a5 f7bd
000000a0: 6cec dabd b8d6 fc3d 8c36 9fbd ce3f ccbd
000000b0: 68fa bbbd d017 203d 80d9 38bb b004 10bc
000000c0: 28a4 f3bd 603d 9a3d 5461 663d 6212 b3bd
000000d0: 48cd 4cbd c02b c3bc ba0b 8c3d a00a 14bc
000000e0: d014 9cbd c449 f23d 8017 093d ead3 b73d
000000f0: 9235 dfbd d07d 6c3c 5e31 f93d 720b b2bd
00000100: 14d7 ce3d 862e a23d c07a c3bb d40c 973d
00000110: 5cb5 f13d 98e6 103d d007 61bd f4ec c33d
00000120: 50f4 513c 006c c039 4670 a9bd 34c2 98bd
00000130: a873 c13c b447 2a3d 2c5e 773d 6c3e e0bd
00000140: f453 b33d 38b4 4f3d b845 c5bc f0b5 903d
00000150: 7cfa c43d 80a7 50bd b49f 98bd 00e1 2dbb
00000160: d2f6 aa3d c02a 24bb e0b3 cfbc 1ea2 ea3d
00000170: 449d 7a3d 70a1 23bd e03f 903d 5afd cbbd
00000180: 2ef1 a5bd 045f 2b3d 38fb e13c 209d 65bd
00000190: a23d 893d e89e d3bd d22d d8bd 6e80 b8bd
000001a0: 5eac 863d 107b 7ebd 30fa eb3d 84b7 d1bd
000001b0: 7cad cabd 4876 963d 10aa fbbd 181d 793d
000001c0: 0648 b33d 6841 c7bc 087b 85bc 9cd5 933d
000001d0: 384e 84bd d0b0 22bc 8438 9ebd 5ea5 af3d
000001e0: a8b6 9a3c c2e9 dfbd a04a a33b 00f2 5c3d
000001f0: 30ce 91bc c8dc 893d 0afc f13d aef9 ab3d
00000200: c608 ac3d 343a bd3d f48c 55bd 2c1d 69bd
00000210: cad5 853d fc80 36bd 7248 a6bd d230 c6bd
00000220: 90ce f63d 102f 8c3c 4ee6 a23d 5843 b33d
00000230: b0d9 11bd 2893 723d 601d d7bb 7497 f9bd
00000240: 4c81 e7bd 4ea7 a1bd 5ab5 df3d fc1a 5ebd
00000250: 20ef 403c 407b 24bd d099 3abc a44c 9bbd
00000260: 94d6 4d3d ae9d 8a3d 666b 8a3d 88cf d63c
00000270: c442 3fbd 70ef d3bd 86d1 963d f2b7 db3d
00000280: d806 babd eca5 213d e646 a3bd 04b3 d83d
00000290: debe 853d 7c9c b13d 48a2 3abd 1a1d fdbd
000002a0: d0dc 613c 847b 763d c0b0 093d cc83 3abd
000002b0: 0026 dbba b414 52bd bcf7 ef3d b607 8a3d
000002c0: 04e7 48bd da5e b33d 6ce0 92bd 4085 f13d
000002d0: 8c70 51bd d8bb 92bd 4e12 a2bd 0e33 fabd
000002e0: 74d5 debd a89c bc3d e098 4b3d c079 263b
000002f0: ba7e d13d 66df a1bd 087e 493d 5a3b bb3d
00000300: 40ca a9bb 041d 8e3d b678 a73d 0013 74bd
00000310: 5454 133d 6083 63bc 962d 8d3d 1211 aa3d
00000320: 607f d7bd 203a 953c b0ba b93d cac0 acbd
00000330: 94f5 bb3d b4cf 3dbd d804 cebc 9c6f 41bd
00000340: 5c28 5d3d d871 ebbc b455 8dbd 8850 a43c
00000350: da34 9f3d 7c5f 823d 204f 0fbc 1412 863d
00000360: 56b6 8e3d 805d c83d a08b 3fbd 9880 b43d
00000370: b840 a53c b0a3 ea3c 847f 64bd 7895 dcbc
00000380: f0f6 1d3d 50da 963d 16e6 f43d 8045 18bc
00000390: cc55 573d 084b 9ebd b846 55bd a275 adbd
000003a0: 7a3f bd3d a03f 4dbd f462 b0bd 3050 06bc
000003b0: 009c 3eba f604 883d 3280 84bd 8e46 e4bd
000003c0: c602 f1bd 7e0c 973d 5024 49bd e280 b93d
000003d0: b0db 3b3c 681e 1b3d 7a03 a1bd 1446 36bd
000003e0: c0d6 18bd 14a3 aa3d b0aa c73d bc49 bcbd
000003f0: 9025 efbc c87c eb3c 546e 87bd d020 413d
-0.062545374 -0.09602189 0.009745106 0.058241084 -0.12165126 -0.018555999 -0.07247543 0.06915367
0.09718263 0.100855276 0.0960339 0.0999717 0.11254698 0.0875943 0.021944746 0.07477225
-0.025441527 -0.0962794 -0.09321609 0.03251314 -0.016867757 -0.017583951 0.0062834024 -0.080244765
-0.059374154 0.07640205 -0.123177946 0.11896542 -0.12230873 0.10683355 0.044489965 -0.0029915124
-0.06397964 0.057100087 -0.114364535 -0.06803253 -0.03384693 0.06322849 0.09918733 -0.12092149
-0.10689625 0.12345642 -0.07774076 -0.09973107 -0.091786206 0.03908521 -0.0028205812 -0.00879018
-0.11896545 0.075312376 0.056245163 -0.087437406 -0.05000046 -0.023824573 0.06838174 -0.009035736
-0.07621157 0.11830476 0.033469677 0.08975966 -0.108988896 0.014434293 0.12167619 -0.08693589
0.10099617 0.0791903 -0.0059655607 0.07375494 0.1180217 0.03537616 -0.05493909 0.095666796
0.012814596 0.0003670156 -0.082733676 -0.07458916 0.02361472 0.041572288 0.060392544 -0.10949406
0.08756247 0.05070898 -0.024081096 0.07065952 0.096180886 -0.05094099 -0.07452336 -0.0026531816
0.083478585 -0.0025049895 -0.025354326 0.11456703 0.061185136 -0.03994888 0.07043433 -0.09960432
-0.08102642 0.04183866 0.02758561 -0.05605805 0.06701209 -0.10333043 -0.105556145 -0.09008871
0.06575845 -0.06212908 0.11522329 -0.10240081 -0.09896371 0.07346779 -0.12288296 0.06081876
0.08753972 -0.02432318 -0.016294017 0.07218477 -0.064602315 -0.009929851 -0.07725623 0.08576463
0.018885925 -0.10933258 0.004983261 0.053941727 -0.017798513 0.06731564 0.11815651 0.08397232
0.08400111 0.09239617 -0.052136377 -0.056912586 0.06534918 -0.044556603 -0.081192866 -0.096772805
0.120511174 0.017112285 0.079540834 0.08753079 -0.035607994 0.05922237 -0.006564781 -0.121870905
-0.11303958 -0.07893239 0.10923262 -0.054224953 0.011775762 -0.040156603 -0.011389211 -0.075829774
0.050253466 0.06768356 0.06758766 0.026222005 -0.046694532 -0.103484035 0.07364182 0.10728444
-0.090833366 0.039464876 -0.07972507 0.105810195 0.06530546 0.08672425 -0.04556492 -0.12359066
0.013785556 0.060176387 0.033615828 -0.045535848 -0.0016719699 -0.051289275 0.117171735 0.06739752
-0.04904844 0.08758326 -0.07171711 0.117929935 -0.051132724 -0.071647346 -0.079136476 -0.12216769
-0.10880557 0.09209567 0.04970634 0.0025402158 0.10229249 -0.07903938 0.04919246 0.0914218
-0.005181581 0.06939128 0.08177321 -0.059588432 0.035969093 -0.013886303 0.068934605 0.08304037
-0.10522342 0.018216193 0.09068811 -0.08435209 0.091777 -0.04634066 -0.025148794 -0.04722558
0.053993568 -0.028740808 -0.06901112 0.020057932 0.077737525 0.063658684 -0.008746892 0.06546417
0.069683716 0.09783459 -0.046764016 0.0881359 0.020172462 0.028642505 -0.05578567 -0.026926741
0.038565576 0.073658586 0.11957948 -0.009293914 0.052572057 -0.07729155 -0.052069396 -0.08469702
0.09240623 -0.050109506 -0.08612624 -0.008197829 -0.00072711706 0.06641571 -0.06469764 -0.1114627
-0.11768107 0.073754296 -0.049106896 0.090577856 0.011465952 0.037870795 -0.07861991 -0.044500425
-0.037314177 0.08331886 0.09749353 -0.09193751 -0.029192716 0.028746024 -0.0661284 0.047150433

fc2.bias f4 [64]
00000000: 36d7 f0bd 5480 98bd 0ccf e53d d6ec e4bd
00000010: da3f f73d 7072 7e3c 585d eebc b013 48bd
00000020: e0dd 83bc 7213 da3d 40cf 63bd 3458 f13d
00000030: 529b aa3d 583c 9b3c 4e4e b03d ea1f acbd
00000040: 94ab 27bd 9426 7fbd 8e72 d53d 4ce7 71bd
00000050: 5c92 33bd ece8 09bd 5622 a23d a0bd 093d
00000060: e024 b33b 0080 b5b7 c0cf ac3c c0c0 163d
00000070: e0e4 fabd 444e febd 280e 70bd 7ef3 f3bd
00000080: 8ebc 85bd 2cfe febd 1a5d dfbd b0d8 7e3c
00000090: cade efbd a050 a33b 842f 8ebd b86c 3ebd
000000a0: 50fa df3c 9087 42bd 4cde 0fbd 0c19 2b3d
000000b0: 0019 c93a c0f6 d4bb 10b9 21bc 8081 c43a
000000c0: 6445 45bd 3c9f 9d3d d428 c53d 440f 5abd
000000d0: 58e4 943d e05f 40bd c6ae adbd 224d a7bd
000000e0: 2865 83bd 8251 dfbd d6d0 883d 5664 eabd
000000f0: 1076 653c 8035 8f3b 6678 c9bd 8087 84bd
-0.11759798 -0.07446352 0.11221132 -0.11177985 0.120727256 0.015530214 -0.029097244 -0.0488469
-0.01609701 0.1064824 -0.05561757 0.117844015 0.08330406 0.018949673 0.086086854 -0.084045246
-0.040935114 -0.06229265 0.1042224 -0.059058473 -0.04384075 -0.033669397 0.07916705 0.033628106
0.0054670423 -2.1636486e-05 0.021095157 0.036804914 -0.12250686 -0.12417272 -0.05860725 -0.11911677
-0.065301046 -0.12450823 -0.109064296 0.015554592 -0.117124155 0.0049839765 -0.06942657 -0.0464904
0.027341038 -0.047492564 -0.03512411 0.041771933 0.0015342534 -0.0064991415 -0.0098707825 0.0014992207
-0.04816188 0.07696387 0.09626928 -0.053237215 0.072701156 -0.046966434 -0.08480601 -0.08169009
-0.064157784 -0.10904218 0.06680457 -0.11444919 0.014005199 0.0043703914 -0.09837417 -0.06471157

fc3.weight f4 [6, 64]
00000000: 808d cd3c 10c0 113c 0212 aebd a8aa d43c
00000010: f08b d4bd aabb a5bd a0c6 793c bef8 f0bd
00000020: 7a7c c03d a038 ff3d 3c63 9bbd fe94 cd3d
00000030: c4ca a13d c2bb 973d e008 113c 4a12 f93d
00000040: c010 3bbd 381e 73bd 0af7 8dbd 68dc 84bd
00000050: 8ed2 a03d f414 c8bd 5cc5 0e3d b028 6bbc
00000060: 9039 f1bd 4c5c 18bd 3230 d63d 44dc a73d
00000070: 6ac7 acbd a4bb afbd 0808 bfbc f087 4ebd
00000080: ea50 9cbd 9a87 eb3d daae aa3d 80f8 24bb
00000090: 7203 f2bd d403 153d 8495 2cbd d4c2 803d
000000a0: f0d4 933d 683b 913c 7a8d 9d3d ac87 243d
000000b0: 5694 f53d b221 933d 8843 e1bc 8473 eebd
000000c0: 200c 683c 9077 3d3c c45c 3e3d 20a0 9f3d
000000d0: c880 993d 68db 6cbd 6017 e53d 40e2 d8bd
000000e0: 4071 783c 30e0 db3d 201b d0bb 3009 e6bc
000000f0: 38d3 6abd 481b ad3d 2aad 81bd 10de cabc
00000100: 4814 b8bd aa44 a2bd 74e3 463d 206b e83d
00000110: 301c c33d 2812 b43c 963d 943d 4aea e43d
00000120: ce94 98bd d8fa 49bd d086 f73d 841d 2c3d
00000130: 587c d0bd 2090 5b3c e0dd 21bc f2b3 9c3d
00000140: 5851 c93d ec59 9a3d f491 29bd 2cbc d0bd
00000150: 4899 e3bc ec43 583d c880 c8bd 2053 223c
00000160: 72a6 bdbd c029 1f3b e82c 613d 44f1 d1bd
00000170: 0ae7 833d 803d 85bd ee3e bc3d 98c7 243d
00000180: dcb1 1c3d 64f8 a23d 509d b73c f070 7bbd
00000190: 9e02 963d b03e 02bc cca2 84bd 148d d7bd
000001a0: b418 5abd a427 963d 3c67 3c3d 40af 3a3b
000001b0: 383e 96bc 884a 913c f0e7 f93c f433 2ebd
000001c0: 26f5 ef3d d432 3c3d bcc6 283d 90af bfbd
000001d0: f027 52bd 6cb0 a03d ce0a a5bd b495 fcbd
000001e0: ae0d aebd ac5c 5c3d ee6a d23d 5814 e83d
000001f0: 68ac a03d ec5b 483d 685b 6c3d f028 23bd
00000200: 7cab debd 4075 f23d 4221 b8bd be58 b0bd
00000210: 64d0 333d 0887 433d 624b ce3d 5897 b63d
00000220: 300f c1bd 188a b63c d856 bd3d 0e78 9f3d
00000230: bc90 3a3d c06e 243d 2292 d23d 2abe 8cbd
00000240: b020 843c 1e10 9f3d f829 9e3c c0fc e4bc
00000250: aea2 8c3d 7481 4b3d 52d3 b33d 78a5 e53c
00000260: 30c8 493c 2cb0 bfbd 1090 593d 7c69 5bbd
00000270: 10b1 5abc 1469 7d3d 6013 253d 2028 e83b
00000280: b040 f23c 289a e23d 74dc 2b3d d00e df3d
00000290: c6c0 d5bd d814 32bd 00d0 a5bc f6b8 82bd
000002a0: 0a8d d5bd f0da 53bc 045d 013d b02e 48bc
000002b0: c08f 1a3b 8c94 733d ac1e 8ebd fc58 c9bd
000002c0: 803d a6ba 327e d33d b067 90bc 8a8e eebd
000002d0: a8cf 69bd f4d0 a0bd 1412 e73d 245e 53bd
000002e0: b4c0 b0bd c895 b13c 321d ac3d a230 e93d
000002f0: 00f1 df3c 9063 753d e244 a23d b8c2 8bbc
00000300: 144e 053d 8868 27bd ac71 1c3d 0a4c 92bd
00000310: e059 66bd c818 5fbd c0ab a1bc 747b db3d
00000320: f45d 6dbd 1494 523d 0068 fc3c f4b7 fcbd
00000330: a89f f33c 3651 e33d a018 febd d23a c6bd
00000340: e812 58bd 1a6f 843d 3866 92bc 6e25 a8bd
00000350: a4cc 9e3d c05c d5bd 4068 ab3b 3846 8dbc
00000360: 283a 7b3d 2cb7 e83d 3c49 27bd 50ae 90bc
00000370: 76ee 913d 34c4 ac3d 68a5 09bd 3c38 943d
00000380: a0d3 eebc 30f9 ce3c 48c2 203d ac67 8a3d
00000390: 0850 ce3d 58a6 d3bc c083 07bd 442a f7bd
000003a0: 4832 f03c 60ba f63b cc11 6fbd c6d2 853d
000003b0: 5015 ad3d b2b9 d8bd eee3 8dbd 0020 a2ba
000003c0: e416 f6bd b4eb d33d 5290 9c3d 08e1 d6bd
000003d0: 9c93 b53d 083f 733d 7caf e73d 4ce0 e83d
000003e0: 0a27 81bd 20b6 8bbc 907a 96bd e8e1 bcbc
000003f0: b42a f1bd 086a ddbd 1c16 32bd d45d 2e3d
0.025091887 0.008895889 -0.084995285 0.025960281 -0.103782535 -0.08092435 0.01524511 -0.11766194
0.09398742 0.12461972 -0.07587287 0.10038184 0.079000026 0.07408859 0.008852214 0.121616915
-0.04567027 -0.05935499 -0.069318846 -0.06487352 0.0785266 -0.097696215 0.034856185 -0.014352962
-0.11778557 -0.037197396 0.10458411 0.08196309 -0.08436473 -0.085807115 -0.02331926 -0.05042261
-0.07632621 0.11500473 0.083341315 -0.0025172532 -0.118170634 0.036380604 -0.042134777 0.062871605
0.07218349 0.017728522 0.07693 0.04016845 0.119911835 0.07184161 -0.027498022 -0.116431266
0.014163047 0.01156415 0.046475187 0.07794213 0.07495266 -0.05782643 0.11186099 -0.10590029
0.01516372 0.1073612 -0.00635089 -0.028080553 -0.05733034 0.08452469 -0.063318565 -0.02476409
-0.08988243 -0.07923253 0.04855676 0.113485575 0.09526861 0.021981314 0.07238309 0.111774996
-0.07450257 -0.04931149 0.1208626 0.042020336 -0.10179967 0.013401061 -0.009879559 0.07651509
0.09829968 0.075366825 -0.041398957 -0.10192141 -0.027783051 0.05279915 -0.09790188 0.009907514
-0.092602625 0.002428636 0.054974467 -0.10251096 0.064405516 -0.06505871 0.091916904 0.04022941
0.038255557 0.07957533 0.02241388 -0.061387002 0.07324718 -0.007949516 -0.064763635 -0.105249554
-0.053246215 0.073317796 0.04599689 0.0028485805 -0.018340215 0.017735735 0.030506104 -0.042530015
0.1171668 0.04594691 0.041205153 -0.09359658 -0.05130762 0.0784615 -0.080587015 -0.12333241
-0.08498703 0.053799316 0.102743015 0.11332005 0.07845384 0.04891579 0.05770436 -0.039833963
-0.10872552 0.1183877 -0.089907184 -0.08610676 0.04389991 0.047736198 0.10072972 0.08915585
-0.09426725 0.022282645 0.0924508 0.077865705 0.045548186 0.040144682 0.10281779 -0.068722084
0.016128868 0.07766746 0.019307122 -0.027952552 0.06866966 0.049684003 0.087805405 0.028033003
0.012315795 -0.09359774 0.053115904 -0.053567395 -0.013347879 0.06186779 0.04030168 0.0070848614
0.029571861 0.11064559 0.041958287 0.10891497 -0.10437159 -0.04347691 -0.020240784 -0.06382935
-0.10427292 -0.012930617 0.031582847 -0.012218162 0.0023584217 0.059467837 -0.06939444 -0.098314255
-0.0012683123 0.10326804 -0.017627567 -0.11648281 -0.057082802 -0.07852355 0.11282745 -0.05160345
-0.08630505 0.021677867 0.08404006 0.11386229 0.027336597 0.059909403 0.079232946 -0.017060623
0.032545164 -0.040871173 0.038194343 -0.071434096 -0.056238055 -0.054466993 -0.019735217 0.10716906
-0.05795093 0.05141075 0.03081131 -0.12339774 0.029739216 0.11099474 -0.124070406 -0.09679188
-0.052752405 0.064665034 -0.017871007 -0.08210264 0.07753876 -0.10418081 0.0052309334 -0.017245397
0.06133476 0.11363062 -0.040841326 -0.017661244 0.07125561 0.0843586 -0.03360501 0.07237288
-0.029153645 0.025265306 0.03924778 0.06758055 0.100738585 -0.025836155 -0.03308463 -0.120686084
0.029320851 0.007529542 -0.05836658 0.065343425 0.08451331 -0.105822936 -0.0692824 -0.0012369156
-0.12016085 0.10347691 0.076447144 -0.1049214 0.08866045 0.059386283 0.11312768 0.11370906
-0.06306274 -0.017054617 -0.07347596 -0.02305694 -0.11775723 -0.108112395 -0.043478116 0.04256995

fc3.bias f4 [6]
00000000: e423 3e3d dcbd 8b3d aefc d03d 66d4 8cbd
00000010: 127e 993d 20ec d73b
0.046420947 0.06823322 0.10204445 -0.06876449 0.07494749 0.0065894276
