saved_models/dqn_best_model_episode_520.pt (torch, 87147 bytes, 24 tensors)

fc1.weight f4 [64, 4]
00000000: 725b f5be 6ad6 24be 1059 f53e 18e4 e0be
00000010: 4ccd e8be 38a1 6dbe 483b 0fbe 30dc 36bd
00000020: 7605 30be 5c27 083e 720e 913e 63b3 cdbd
00000030: 1be3 74be 451d f23e 9008 b03e ae1c 90be
00000040: e123 2f3e 80d9 2ebe 26ea 783d 644a 08be
00000050: fa2a 063a 6ead e3bd ac6f e33e 5720 9a3e
00000060: c18a fabe e12b f33e 2c69 7c3e 86ff 8f3c
00000070: 9fc1 833e fa7f 92be 216a 10bd 1512 dabd
00000080: f21b a53e cbc4 37be a2b6 d93e 9773 dabe
00000090: bcf2 17be 960a 96be 306e 283d 1c77 5bbe
000000a0: 8ad6 dcbe bcf5 ffbe dbb6 883e 572b 5b3c
000000b0: b04d 45be badc c4be 664d c6be 843c 33be
000000c0: c81e fd3d 8f7c fe3d 699d 00bf 0704 64be
000000d0: cb65 37be 98d1 9ebe 79ee 84be 46cb bb3e
000000e0: 8cc2 023e 467b 86be 7c2a febe 9c70 a33c
000000f0: 4000 e4bc 4418 5fbe 6484 4abe d007 16be
00000100: ab9c 91be 4b42 63be b7fe 53be 388a b13e
00000110: bd12 79be 348b c13e f797 bd3d cec1 e43e
00000120: c002 fa3e 2377 cdbe 0337 e73e 8eda ce3e
00000130: 7ca4 de3e 8dbd bfbe 75c9 493e 2849 1cbe
00000140: 8e24 443e 0128 da3d e452 d43e 3948 c7be
00000150: dc33 0dbe b0d9 50be 1c56 3ebe 82b1 dfbe
00000160: 9659 fbbe 244d 25be 0713 6f3e 1d04 063e
00000170: 986f e03e fbf7 e4be e718 513e 96c5 503e
00000180: 5e2b 783e 95ac bfbb eb37 6c3e b850 3cbd
00000190: 8cdd 05be 2063 d5bd 50c5 d03d 0e88 8dbe
000001a0: 3e32 dcbe 10bd 44be 941e f1be a0e2 09bd
000001b0: 2606 a53e 197b 9bbe f6a2 f1bd 6dbb b13e
000001c0: a66d a5be 101c dd3e 3374 88be e9fd 963c
000001d0: 886a a1be bc7f d73e 8a68 8ebe 7a5b 97be
000001e0: d368 753c c64c 863e de77 2cbd a604 a83e
000001f0: 25d2 e6be 5f20 76bd 7cc4 47be 7651 043e
00000200: 4ef9 f43e eec8 e93d 3109 3abe 5dc7 c2be
00000210: 2054 a3be b0d3 09be 4b49 ed3e 4713 973d
00000220: 491c 8dbe dd46 1a3e d3b9 a53e 0401 bf3c
00000230: 873d b03e 7883 b6be 0f71 88be 8619 e93e
00000240: ca0c e93e 6204 5ebe 03be b7be 673a eebe
00000250: 98fb c9be 1e87 8e3c c0ac 543e 93d2 973d
00000260: 6fc8 88be fb9e 363e 3403 3c3d 65ad a93e
00000270: 5bf2 e93e e648 0f3e 051b c9be 973e ca3e
00000280: adce adbe d958 323e 403d 5bbc f682 87be
00000290: 22fd 5ebe 1ee1 9c3e 8e5c e53e a306 b63e
000002a0: bb80 e6be 559f d43e 7333 b33e 85cc 04be
000002b0: 1047 22be e82b ffbc 7d9a c5be d1b9 013e
000002c0: 49ed 903d f8a1 fdbe 9b93 ce3e 09af 9cbe
000002d0: cb43 8b3e 91c9 003f 7125 963e 7017 51be
000002e0: af8c 79be d601 b3be 05ad 3f3e df92 af3e
000002f0: 22fe 93bc 795b 7d3e 23e7 fbbe 8c4f 3ebe
00000300: 66c1 f9be 00a7 ab3c 44e2 64be 28ac b4bd
00000310: 8a29 cdbd cb0c 913d 4030 9fbd 815d 5ebe
00000320: 4a1f 833e 1985 bc3e e98e c13e 440f dcbe
00000330: 393d b2bd f334 95be f452 e33e ee43 553c
00000340: fb86 003f a021 b7be 80ce 903e 4e75 953e
00000350: c245 2ebe d503 b43e 08c8 ecbd 0ffc 9cbe
00000360: ff57 813e 0112 a5be 6755 34be 7c90 173e
00000370: 24a5 19be 3c48 903e 696b 813d 874d cbbe
00000380: 0579 debd 6fd1 3b3e a399 673e 412c bb3e
00000390: 0c17 04be 6331 56bd 73c8 72be 30c1 b13e
000003a0: 9988 08be 9864 aa3e a85f 053e 22b3 dd3d
000003b0: b827 a73e cb88 7bbe 301b 1cbe 23e4 82bd
000003c0: 69a1 7b3e ed47 dabe 8ff9 69be 6295 b4be
000003d0: 7a80 edbe 2f0f 223e 897f 323e f670 4ebe
000003e0: 8fdc ec3e 59fe 4fbe aa38 32be cf1d a9be
000003f0: 8080 833e f617 46be 0f93 d5be a559 fabe
-0.4792133 -0.16097417 0.47919512 -0.43924022 -0.4546913 -0.23206031 -0.13987458 -0.04464358
-0.17189583 0.13296264 0.28331333 -0.10043981 -0.23914759 0.47287956 0.34381533 -0.2814688
0.1710353 -0.17075157 0.060770176 -0.13309628 0.00051180983 -0.111170635 0.44421136 0.30102798
-0.48933986 0.47494414 0.24649495 0.017577898 0.2573366 -0.28613263 -0.035257462 -0.1064798
0.32247883 -0.17946164 0.4252215 -0.42666313 -0.1483869 -0.2930495 0.041120708 -0.21432155
-0.4313243 -0.49992168 0.26702008 0.013377032 -0.19267917 -0.3844965 -0.38730925 -0.17503554
0.12359387 0.124261014 -0.5024019 -0.22267161 -0.17909925 -0.31019282 -0.2596319 0.36678523
0.12769526 -0.26265925 -0.49641788 0.019951157 -0.02783215 -0.217866 -0.19777066 -0.14651418
-0.2843984 -0.22193258 -0.20702635 0.34675765 -0.24323554 0.37801516 0.092575006 0.4467911
0.48830223 -0.40129957 0.45159158 0.4040112 0.43484867 -0.37449303 0.19705756 -0.15262282
0.1915457 0.106521614 0.4146949 -0.3892229 -0.13789314 -0.20395541 -0.18587536 -0.43690115
-0.49091786 -0.16142708 0.23347102 0.13087507 0.4383514 -0.44720444 0.20419656 0.20387873
0.24235293 -0.005849431 0.23068206 -0.045975417 -0.13072795 -0.10419297 0.101938844 -0.27642864
-0.43007082 -0.19212747 -0.47093642 -0.033663392 0.32231253 -0.30367354 -0.117986605 0.34713307
-0.32310218 0.43185472 -0.26651153 0.01843162 -0.3152659 0.4208964 -0.27814132 -0.2956198
0.014978605 0.26230448 -0.0421065 0.32816046 -0.45082203 -0.060089465 -0.19508547 0.129217
0.47846454 0.114152774 -0.18167569 -0.38042727 -0.3190012 -0.13459659 0.4634498 0.07376724
-0.27560642 0.15066095 0.32368335 0.023315914 0.34421942 -0.35647178 -0.26648757 0.45527285
0.4551757 -0.2168136 -0.35887155 -0.46528932 -0.39449763 0.017398413 0.20769024 0.07413211
-0.2671542 0.17834084 0.045901492 0.33140102 0.45692715 0.13992652 -0.39278427 0.39500877
-0.33946744 0.17416705 -0.013381302 -0.26467103 -0.2177625 0.306405 0.44797176 0.35551938
-0.4502009 0.4152781 0.3500019 -0.12968643 -0.1584742 -0.031148866 -0.38594428 0.1266854
0.070765086 -0.49537635 0.4034699 -0.3060229 0.2720016 0.50307566 0.2932544 -0.20419097
-0.24370073 -0.34962338 0.18718345 0.3429174 -0.018065516 0.24741925 -0.4919978 -0.18585032
-0.48780364 0.020953655 -0.22351938 -0.08821899 -0.100176886 0.07082518 -0.07772875 -0.21715356
0.2560981 0.36820295 0.37804344 -0.42980397 -0.087030835 -0.2914196 0.44399226 0.013016684
0.50205964 -0.3576784 0.28282547 0.2919106 -0.17018798 0.35159174 -0.115615904 -0.30661055
0.25262448 -0.32240298 -0.17610703 0.1480121 -0.15004402 0.2818011 0.06319315 -0.39707586
-0.108629264 0.18341611 0.22617202 0.365572 -0.12899417 -0.052293193 -0.23709278 0.34717703
-0.13333358 0.33279872 0.13024771 0.108251825 0.3264749 -0.24563901 -0.15244746 -0.0639117
0.24573292 -0.42633 -0.22849105 -0.3527022 -0.46387082 0.15826105 0.17431463 -0.20160279
0.46262023 -0.2031187 -0.17404428 -0.33030555 0.25683975 -0.19345078 -0.4171376 -0.48896518

fc1.bias f4 [64]
00000000: fafd ec3e d0ce c3bd 39ee 17be 91b1 c9bd
00000010: 1109 c83e c549 29bd bb9c a4bd bbfe d6bc
00000020: 6588 adbe fa4f f63e eb3f fa3e c09d a8bd
00000030: d3af 5ebe 21ae 1cbe ea0b aa3e 402c 34bc
00000040: 9dc8 89bd 5288 2bbd 3982 a6be d63a 963e
00000050: fd45 e43d d698 e9be 67ed 88be 21c6 c3bc
00000060: 9f90 94be a80a 463e 403f c7be 9d77 d3be
00000070: 89cf 6d3a 8529 99be fd46 c7be 1690 45be
00000080: 890f da3e 32cd 763c b969 c7be a359 153e
00000090: 92c5 9d3e a12b dcbe 67b7 ccbe 0cfc 96be
000000a0: fe32 983d 83fb 983e ff1b 273e a4c5 a1be
000000b0: ce0e 3dbe 8aa4 cabe 39fb 8dbe 6c0c 103e
000000c0: 9066 55bd f51e a13d 7d50 20be f901 d33d
000000d0: 8188 d3be 8354 30be 6b67 013e 0b85 463d
000000e0: 3688 ddbd bbc8 a9be f111 563e 08cd 47be
000000f0: 8b9d 8bbe 4c96 d23e 6fee 683e 97c5 bd3b
0.4628752 -0.09560931 -0.14836968 -0.09848321 0.39069417 -0.041330118 -0.080377065 -0.026244512
-0.33893123 0.48107892 0.4887689 -0.082332134 -0.21746759 -0.153008 0.33212215 -0.010996878
-0.06727717 -0.041878052 -0.32521227 0.29341763 0.11146162 -0.45624417 -0.26743624 -0.023898186
-0.29016587 0.19340003 -0.38915443 -0.41302195 0.00090717577 -0.2991449 -0.38921347 -0.19293246
0.42589977 0.015063571 -0.38947847 0.14584975 0.30814797 -0.43002036 -0.39983675 -0.29489172
0.07431601 0.29879388 0.16319273 -0.315961 -0.18462679 -0.39578658 -0.2773073 0.14067239
-0.052099764 0.07867233 -0.15655704 0.10303111 -0.41315082 -0.17219739 0.12637107 0.048466723
-0.10816996 -0.33160958 0.20905282 -0.19511807 -0.27268633 0.41130292 0.22747205 0.005791377

fc2.weight f4 [64, 64]
00000000: ca17 80bd 20a7 c4bd 062a 1a3c d002 6e3d
00000010: 2752 f9bd 32a3 9abc 3ad7 94bd 70a0 8d3d
00000020: 4bc4 c63d 368d ce3d 6cad c43d f6bd cc3d
00000030: f675 e63d a464 b33d 78c5 b33c 3222 993d
00000040: c06a d0bc 8b6f c5bd 4229 bfbd a1c6 043d
00000050: 212b 8bbc 380c 90bc 00e5 cd3b f760 a4bd
00000060: 35a7 73bd ae78 9c3d b844 fcbd 1e9f f33d
00000070: 5996 fabd 0daf da3d c2d3 353d 400d 44bb
00000080: d136 83bd c8e1 693d f437 eabd a454 8bbd
00000090: 11ca 0abd f07d 813d ba22 cb3d bace f7bd
000000a0: 6cec dabd 0786 fc3d 52a4 9fbd ce3f ccbd
000000b0: 68fa bbbd 0ea7 1f3d 80d9 38bb 798d 10bc
000000c0: 28a4 f3bd 603d 9a3d dbec 653d 6212 b3bd
000000d0: 8b3b 4dbd caf5 c3bc ba0b 8c3d 5702 16bc
000000e0: 9a61 9cbd c449 f23d 2f9a 083d dde0 b73d
000000f0: 9235 dfbd d07d 6c3c 140d f93d 4f04 b2bd
00000100: ebf1 ce3d 862e a23d d0be d7bb 3df2 963d
00000110: dd68 f03d edd0 103d 8f0c 62bd 8198 c23d
00000120: e9df 4a3c 006c c039 4670 a9bd 34c2 98bd
00000130: c35b c23c b447 2a3d e9ac 743d 6c3e e0bd
00000140: f453 b33d 7cb9 4f3d 1bf3 c9bc a680 8f3d
00000150: 1ba1 c43d 80a7 50bd b49f 98bd c042 59bb
00000160: fa95 aa3d c02a 24bb e0b3 cfbc 717b e93d
00000170: e8fb 7a3d e557 23bd 1242 903d 5afd cbbd
00000180: 9f1d a6bd a58e 2a3d 1cc3 dd3c 2d81 67bd
00000190: e3f9 883d e8c7 d2bd cd87 d9bd 1695 b8bd
000001a0: 9ddc 843d 09d4 7ebd 046c eb3d 84b7 d1bd
000001b0: 61b6 cbbd 8348 963d f23f fcbd 6dc9 793d
000001c0: 0648 b33d 7243 ccbc 7965 86bc bc5a 943d
000001d0: 1858 85bd b8d1 21bc d75f 9fbd bba1 af3d
000001e0: 5633 9a3c 3639 dfbd 766d a33b b320 5a3d
000001f0: b220 99bc a366 8a3d d0b0 f13d f4cb aa3d
00000200: c608 ac3d 343a bd3d 74b8 56bd 2c1d 69bd
00000210: 4464 863d d1de 37bd 2ff5 a6bd cba1 c5bd
00000220: 224f f73d 102f 8c3c 2810 a23d 5843 b33d
00000230: 372b 10bd 4dbd 703d 76da cdbb 7497 f9bd
00000240: 056a e8bd 7e66 a2bd 1b98 df3d 0d0d 5dbd
00000250: 5f2e 453c 407b 24bd 29f7 41bc cf39 9bbd
00000260: 01cc 4e3d ae9d 8a3d 666b 8a3d 5c0a d63c
00000270: f77d 3fbd 70ef d3bd 3114 963d 297f db3d
00000280: 7e69 b9bd 2046 203d 850a a4bd 9163 d83d
00000290: 3069 863d b092 b03d 4337 3cbd 1f33 fdbd
000002a0: d0dc 613c c302 753d e7a0 073d bffe 3abd
000002b0: b868 c1ba 99e8 50bd 8918 ef3d b607 8a3d
000002c0: 04e7 48bd da5e b33d f84b 92bd b5ec f03d
000002d0: 7562 51bd d8bb 92bd 3102 a2bd 0e33 fabd
000002e0: 0199 dfbd c3ca bb3d f641 4a3d 7816 393b
000002f0: 863b d23d 66df a1bd 22b7 4a3d 7d0c bc3d
00000300: 40ca a9bb 041d 8e3d 6159 a83d cb07 71bd
00000310: c939 173d 7918 54bc 2b19 8e3d 1400 ac3d
00000320: ad69 d5bd 203a 953c b0ba b93d cac0 acbd
00000330: a016 bd3d b4cf 3dbd 1949 cabc 9c6f 41bd
00000340: 5c28 5d3d ffda e7bc 5843 8bbd aa42 ac3c
00000350: 4b45 a13d 7c5f 823d 204f 0fbc f019 883d
00000360: 76b9 903d 805d c83d a08b 3fbd 4f69 b63d
00000370: 6d2a a93c 1194 ee3c 8732 61bd 7895 dcbc
00000380: ce9e 213d 50da 963d 00bd f53d d109 0abc
00000390: 6dda 5a3d 084b 9ebd e95e 53bd 1bb5 abbd
000003a0: 7a3f bd3d fd45 4abd c279 afbd 3050 06bc
000003b0: 8a6e b5b7 acf2 893d 3280 84bd bd91 e3bd
000003c0: c602 f1bd 517e 983d 1033 45bd a62f ba3d
000003d0: ac19 4c3c 5011 1d3d a83f 9fbd 7ecf 33bd
000003e0: 32d6 15bd 14a3 aa3d e642 c93d 5d69 babd
000003f0: 8cf7 e8bc c87c eb3c ef98 85bd 0037 443d
-0.062545374 -0.09602189 0.009409433 0.05810815 -0.121738724 -0.018876646 -0.07267614 0.06915367
0.09705409 0.100855276 0.0960339 0.0999717 0.11252968 0.0875943 0.021944746 0.07477225
-0.025441527 -0.09640416 -0.09334041 0.03241599 -0.016988339 -0.017583951 0.0062834024 -0.08026307
-0.059485633 0.07640205 -0.123177946 0.118955836 -0.12235708 0.106779195 0.0443914 -0.0029915124
-0.0640694 0.057100087 -0.114364535 -0.06803253 -0.03388411 0.06322849 0.09918733 -0.12099977
-0.10689625 0.12330251 -0.077950135 -0.09973107 -0.091786206 0.038977675 -0.0028205812 -0.008822792
-0.11896545 0.075312376 0.056134086 -0.087437406 -0.050105613 -0.023920912 0.06838174 -0.009155831
-0.076358035 0.11830476 0.033350166 0.08978436 -0.108988896 0.014434293 0.121606976 -0.08692228
0.10104736 0.0791903 -0.006584026 0.07370422 0.11738751 0.035355497 -0.055187758 0.09501744
0.012382486 0.0003670156 -0.082733676 -0.07458916 0.023725396 0.041572288 0.059735212 -0.10949406
0.08756247 0.050714 -0.024652055 0.070069596 0.09601041 -0.05094099 -0.07452336 -0.0033151358
0.08329387 -0.0025049895 -0.025354326 0.11400498 0.061275393 -0.039878745 0.07043852 -0.09960432
-0.081111185 0.041639943 0.027070574 -0.056519676 0.06688287 -0.10292035 -0.10621605 -0.09012811
0.06487391 -0.06221393 0.11495212 -0.10240081 -0.099468954 0.07338049 -0.12316884 0.06098311
0.08753972 -0.024934504 -0.016405808 0.07243869 -0.06510943 -0.009876661 -0.07781952 0.085757695
0.018823307 -0.10899584 0.004987414 0.05325384 -0.018692348 0.06757858 0.118013024 0.08339682
0.08400111 0.09239617 -0.052422002 -0.056912586 0.06562093 -0.04489023 -0.08152234 -0.0965
0.1207564 0.017112285 0.07913238 0.08753079 -0.035197463 0.05877428 -0.006282146 -0.121870905
-0.113483466 -0.07929705 0.10917684 -0.053967524 0.0120349815 -0.040156603 -0.011838713 -0.075793855
0.050487522 0.06768356 0.06758766 0.026127987 -0.04675099 -0.103484035 0.0732807 0.10717613
-0.09053324 0.039129376 -0.08009819 0.10565866 0.06563032 0.086217284 -0.04595114 -0.12363266
0.013785556 0.059817087 0.033112433 -0.0456531 -0.001475594 -0.051003072 0.116746016 0.06739752
-0.04904844 0.08758326 -0.07143396 0.11763898 -0.051119287 -0.071647346 -0.07910574 -0.12216769
-0.10917855 0.09169533 0.04937931 0.0028242152 0.102652594 -0.07903938 0.049491055 0.091820695
-0.005181581 0.06939128 0.08220173 -0.058845323 0.036920343 -0.012945288 0.06938394 0.083984524
-0.10420547 0.018216193 0.09068811 -0.08435209 0.09232831 -0.04634066 -0.024693059 -0.04722558
0.053993568 -0.028302668 -0.06799954 0.021027882 0.07874545 0.063658684 -0.008746892 0.06645572
0.07066624 0.09783459 -0.046764016 0.08906805 0.020650113 0.029123338 -0.054979827 -0.026926741
0.03945809 0.073658586 0.119989395 -0.008425192 0.053430963 -0.07729155 -0.051604185 -0.083841525
0.09240623 -0.049383152 -0.08568145 -0.008197829 -2.1628355e-05 0.06735739 -0.06469764 -0.11111782
-0.11768107 0.07445968 -0.0481444 0.090911195 0.0124572925 0.03834659 -0.07775813 -0.04389905
-0.036581226 0.08331886 0.09827213 -0.09102128 -0.028438352 0.028746024 -0.065233104 0.047904015

fc2.bias f4 [64]
00000000: c911 f1bd e266 98bd bb72 e53d a331 e3bd
00000010: 161f f73d 4afd 4f3c f7aa fabc b013 48bd
00000020: e312 9cbc 7602 d53d ea5f 55bd 3458 f13d
00000030: e130 ab3d 583c 9b3c 61b2 aa3d 6240 a6bd
00000040: 94ab 27bd 7f62 74bd 6a43 d73d ab16 7dbd
00000050: 1f9e 2fbd ece8 09bd d07c a33d 7333 083d
00000060: ce17 483b 12a4 613b 522e c53c 048b 163d
00000070: 4bfe f9bd 9a19 ffbd 544a 78bd c376 f2bd
00000080: 8569 7dbd 0e75 f7bd 2bc7 d8bd 06b8 803c
00000090: 857a e8bd d76e 813b 4736 94bd b86c 3ebd
000000a0: 4804 f83c 863e 34bd 13bf 1bbd 4b4c 393d
000000b0: 5146 7c3b 446f d3bb 5d6f 53bc 9b5b cbba
000000c0: c392 44bd cb3c a33d 8ece c83d 264d 5abd
000000d0: b954 9b3d 5560 32bd 264d b1bd 0c33 a9bd
000000e0: 34d9 85bd 8ae2 dfbd 91ab 833d dcc9 e2bd
000000f0: 1076 653c 4514 d23b 0b7c c3bd a96c 84bd
-0.117709704 -0.07441498 0.11203524 -0.11093452 0.12066476 0.012694666 -0.0305991 -0.0488469
-0.019051975 0.1040086 -0.052093424 0.117844015 0.08358932 0.018949673 0.08334804 -0.08117749
-0.040935114 -0.059664246 0.10510905 -0.061789196 -0.042875405 -0.033669397 0.079827905 0.03325219
0.0030531767 0.003443007 0.024069939 0.03675367 -0.12206706 -0.12456055 -0.06061776 -0.11839058
-0.06186821 -0.12082873 -0.10584863 0.01571275 -0.11351494 0.0039499807 -0.07236915 -0.0464904
0.030275479 -0.04400494 -0.03802402 0.045238774 0.003849406 -0.006452473 -0.012904969 -0.0015514971
-0.047991525 0.0797058 0.09805022 -0.05329623 0.07584519 -0.0435489 -0.08657293 -0.082616895
-0.06535569 -0.10931881 0.06429208 -0.11073658 0.014005199 0.0064111077 -0.09545144 -0.06466038

fc3.weight f4 [6, 64]
00000000: 7491 d03c c171 3a3c dbaf abbd 0cf7 db3c
00000010: 4c04 d3bd ff5c a1bd 3658 873c bef8 f0bd
00000020: e264 c33d 23e3 003e 85e5 95bd fe94 cd3d
00000030: bd50 a63d c2bb 973d b539 373c 5d5d fe3d
00000040: c010 3bbd ef39 6ebd 73b0 8abd b954 80bd
00000050: 849b a23d f414 c8bd eb75 163d 69c3 50bc
00000060: e7d8 ecbd fc9b 0dbd df4c db3d 44dc a73d
00000070: b30b abbd 1e94 aabd 3c05 a8bc 8958 4dbd
00000080: 20ff 96bd 7f15 f13d 8a14 ae3d 7f71 0ebb
00000090: bef3 ecbd 912b 163d 7a20 26bd d4c2 803d
000000a0: 4df5 983d c023 aa3c 63a2 a13d c1bf 2e3d
000000b0: d234 f93d 416f 933d a634 ccbc af34 ecbd
000000c0: 4fff 6a3c 5e7c 623c 8165 483d 4f70 a53d
000000d0: ee87 9e3d 1097 61bd 9b4c ea3d c7e2 d5bd
000000e0: cfaf 803c 7a6f dd3d fd30 7ebb 5a0f d0bc
000000f0: 38d3 6abd 73bb b13d a2f7 76bd 10de cabc
00000100: eecd b5bd 5e94 9bbd 512f 4b3d 4c38 ec3d
00000110: 1033 c53d 195a cd3c 865c 973d 4aea e43d
00000120: ce91 94bd 1db3 41bd 0c7c fe3d 841d 2c3d
00000130: cfef c9bd 2090 5b3c 68da f0bb 97ac a33d
00000140: 5851 c93d 4b69 9d3d 07ff 22bd d683 cbbd
00000150: f755 ddbc ec43 583d f5f9 c3bd 3605 3e3c
00000160: d178 b8bd e7b1 c93b 6af1 6e3d 44f1 d1bd
00000170: f138 863d 573f 7dbd e124 c23d dbb3 263d
00000180: 15eb 2a3d 1c63 aa3d 008d c53c cee5 7abd
00000190: 3da7 9c3d fec2 ebbb 4904 7fbd 148d d7bd
000001a0: e039 4cbd 49c3 9c3d d2bc 483d b759 cc3b
000001b0: f0b6 83bc 884a 913c fc48 093d 7c0b 28bd
000001c0: cf16 f13d 1b11 4a3d 2e3b 363d 9438 b9bd
000001d0: 4a66 44bd 47ed a73d 265d 9ebd 4a6e f9bd
000001e0: ff73 acbd 63d3 623d 4c9b d83d 2549 ef3d
000001f0: 68ac a03d 1d5d 553d 9438 7b3d f028 23bd
00000200: 8227 dfbd 088f f13d aa4f b6bd 8adc afbd
00000210: a707 303d cea9 403d 7503 ce3d 5897 b63d
00000220: 2256 c2bd 9090 a93c cc9e bc3d 0e78 9f3d
00000230: 6680 373d c06e 243d 8742 d33d eddc 8dbd
00000240: b020 843c ad2a 9f3d 0ea3 ab3c e64c e5bc
00000250: e7c8 8c3d 7481 4b3d 701d b73d d5cb ed3c
00000260: aa92 2c3c aa5b c0bd ed3e 573d 7c69 5bbd
00000270: 9fa6 65bc 1aff 7a3d 346c 283d 024f f23b
00000280: 3f43 f03c 08a3 e13d d66e 313d 8384 df3d
00000290: 3417 d7bd 461e 36bd cd4e a5bc f6b8 82bd
000002a0: d69b d6bd b4de 33bc 925f fd3c dc91 51bc
000002b0: 3613 1e3b 8c94 733d 0dcf 8cbd 8bf2 c7bd
000002c0: f7eb 40ba 397e d13d 658d 97bc 0cac edbd
000002d0: ef0d 6cbd d746 a1bd e46a e63d 97e6 50bd
000002e0: 2582 b2bd b0ab b23c de83 ab3d f3d9 e53d
000002f0: 00f1 df3c 220e 723d f82d a23d b8c2 8bbc
00000300: 9a23 083d c186 1abd 430b 213d 1a39 8ebd
00000310: d7c6 64bd d6cc 52bd 2be0 92bc 747b db3d
00000320: e1ce 66bd 4191 593d 03b8 0b3d f4b7 fcbd
00000330: 3ca0 063d 3651 e33d 208d f9bd a46e bfbd
00000340: e812 58bd 79be 873d 9c45 87bc 3575 a2bd
00000350: a749 a03d c05c d5bd 6c37 ec3b 0089 80bc
00000360: e01c 823d e7ac f03d fffb 19bd 50ae 90bc
00000370: a70e 933d 931e b33d 55d3 fbbc ca02 953d
00000380: 96b3 d3bc dc80 ec3c e9b9 273d db2f 8b3d
00000390: 5006 d53d 75f0 cdbc fb74 fbbc 442a f7bd
000003a0: 61da 053d beb4 2c3c c21a 63bd 9dbc 8c3d
000003b0: 0541 b23d 7f8a d8bd bc18 88bd c8d8 083a
000003c0: 3060 f5bd 7ebc da3d ea26 a33d b16a d0bd
000003d0: 5f2f bc3d 67a9 803d e81d ee3d 79a6 eb3d
000003e0: f930 7fbd 1453 80bc c74d 90bd 4a03 a0bc
000003f0: b42a f1bd 97ae d6bd 94b4 23bd d45d 2e3d
0.025459982 0.01137966 -0.08383151 0.0268512 -0.10303554 -0.07879066 0.016521554 -0.11766194
0.09540726 0.12586646 -0.07319168 0.10038184 0.08120868 0.07408859 0.011183192 0.124201514
-0.04567027 -0.05816072 -0.06771936 -0.062661596 0.079398185 -0.097696215 0.03673355 -0.012741902
-0.11564808 -0.034572586 0.107080214 0.08196309 -0.08351841 -0.08329032 -0.020510308 -0.05013326
-0.0737288 0.11771678 0.08500011 -0.002173513 -0.11569928 0.036662642 -0.040558316 0.062871605
0.074686624 0.020769 0.07892301 0.04266334 0.12168278 0.071989544 -0.024927448 -0.11533486
0.014343097 0.013823597 0.048924927 0.08078062 0.0774077 -0.055075705 0.114403926 -0.10443645
0.015708832 0.10812278 -0.0038786524 -0.025397945 -0.05733034 0.08678331 -0.060294755 -0.02476409
-0.088771686 -0.07596658 0.04960567 0.11534175 0.0962888 0.025067376 0.07390694 0.111774996
-0.072543725 -0.047289956 0.12426004 0.042020336 -0.09860193 0.013401061 -0.007350255 0.07991903
0.09829968 0.07686099 -0.039793994 -0.09937255 -0.02701853 0.05279915 -0.0956916 0.011597922
-0.09007419 0.006155241 0.0583357 -0.10251096 0.065538295 -0.061827984 0.0947969 0.040698867
0.041728098 0.08319685 0.024115086 -0.061254315 0.07649086 -0.0071948757 -0.062259946 -0.105249554
-0.04985988 0.07654435 0.049008198 0.006236281 -0.016078442 0.017735735 0.03351687 -0.041026577
0.117719285 0.04933272 0.044490032 -0.090439945 -0.047949113 0.08199554 -0.077326104 -0.12179239
-0.08420562 0.055377375 0.105764955 0.11683873 0.07845384 0.052090753 0.061333254 -0.039833963
-0.108962074 0.11794859 -0.089019135 -0.08586986 0.042976048 0.04703694 0.10059253 0.08915585
-0.09489085 0.020698816 0.092099756 0.077865705 0.044800185 0.040144682 0.103154235 -0.06926904
0.016128868 0.07771812 0.020951774 -0.02799077 0.068742566 0.049684003 0.08941162 0.029027859
0.010533014 -0.093924835 0.052550245 -0.053567395 -0.014016776 0.06127844 0.041118816 0.0073946724
0.02932894 0.11017424 0.043318592 0.109139465 -0.105024725 -0.044462465 -0.020179177 -0.06382935
-0.10478942 -0.0109783895 0.03092936 -0.012791123 0.0024120337 0.059467837 -0.06875429 -0.09763058
-0.000735938 0.10229153 -0.01850004 -0.11605081 -0.057630476 -0.0787484 0.112508565 -0.051001158
-0.08716229 0.021810383 0.08374761 0.11223211 0.027336597 0.05909551 0.07918924 -0.017060623
0.033237077 -0.037726168 0.03931738 -0.06944485 -0.05585369 -0.051464878 -0.017929157 0.10716906
-0.05634964 0.05311704 0.034111034 -0.12339774 0.032867655 0.11099474 -0.121851206 -0.09347275
-0.052752405 0.06628127 -0.016512685 -0.07932512 0.07826548 -0.10418081 0.0072087552 -0.015690327
0.06353164 0.117517285 -0.037593838 -0.017661244 0.07180529 0.08746066 -0.03074042 0.072759226
-0.02584247 0.028870039 0.040948782 0.06796237 0.10401595 -0.025139073 -0.03069543 -0.120686084
0.032678965 0.010541139 -0.05544544 0.06871913 0.08703808 -0.10573291 -0.06645343 0.0005220291
-0.11981237 0.10680483 0.07966407 -0.101766 0.09188723 0.06282311 0.11626798 0.115063615
-0.062302563 -0.015664615 -0.07046085 -0.019532818 -0.11775723 -0.10482519 -0.039967135 0.04256995

fc3.bias f4 [6]
00000000: 0b30 493d cb8c 923d f563 d23d 163f 86bd
00000010: 3261 a03d d6c5 173c
0.049118083 0.071557604 0.102729715 -0.065550014 0.078310385 0.009263476

fc1.weight f4 [64, 4]
00000000: 725b f5be fcc8 24be 1059 f53e 18e4 e0be
00000010: 4ccd e8be 38a1 6dbe 483b 0fbe 30dc 36bd
00000020: 4823 2dbe 3cd4 0a3e 8e57 923e b0e6 ccbd
00000030: 54c6 78be 4c17 f03e dc6f ae3e b46a 90be
00000040: 6ccb 303e 184e 2dbe d010 7d3d 0823 08be
00000050: 001e c4ba 38ad e8bd 3259 e23e 3eff 993e
00000060: 40f0 f8be 26cf f43e 983d 7e3e c024 943c
00000070: b2fa 843e 5253 91be 90c9 06bd 78ce d7bd
00000080: 26ea a43e 4803 38be 5628 da3e 7ab9 dabe
00000090: bcf2 17be 960a 96be 306e 283d 1c77 5bbe
000000a0: 0a5b dcbe 80cb ffbe 0037 893e 0081 6c3c
000000b0: b04d 45be badc c4be 664d c6be 843c 33be
000000c0: 7885 013e e40c 023e d4bf ffbe 1836 63be
000000d0: 9c48 38be aaf3 9ebe 4c31 85be 8e6b bb3e
000000e0: ac23 023e ccad 86be 7691 febe 6032 983c
000000f0: 4000 e4bc 4418 5fbe 6484 4abe d007 16be
00000100: 7017 92be fceb 63be e817 55be 74d4 b03e
00000110: a4d3 75be bc2d c33e 98f1 c33d 2a62 e53e
00000120: bc42 fb3e d025 ccbe 7680 e83e cecf cd3e
00000130: 3cf1 df3e ec84 bebe 5cbc 4c3e d8bb 1bbe
00000140: 8451 433e 58ec d73d 2e7a d43e b4a5 c7be
00000150: dc33 0dbe b0d9 50be 1c56 3ebe 82b1 dfbe
00000160: 30d4 fbbe 7c3a 26be 9019 6e3e c0af 043e
00000170: ae6e e13e 2007 e4be 4c95 523e d80f 513e
00000180: 682a 7a3e 00b0 7dbb 9870 6e3e 30c4 37bd
00000190: 8cdd 05be 2063 d5bd 50c5 d03d 0e88 8dbe
000001a0: 3e32 dcbe 10bd 44be 941e f1be a0e2 09bd
000001b0: 6267 a63e ae26 9abe d80e ecbd 7cca b23e
000001c0: e269 a6be 820d dc3e c890 89be a0d3 973c
000001d0: e863 a2be 3843 d73e 7ae3 8ebe 2a5b 97be
000001e0: 40a7 583c 3083 853e e06a 32bd 3296 a83e
000001f0: 68e8 e6be 301f 77bd c81b 48be 1c11 043e
00000200: 0e68 f33e 3059 e33d d48c 3cbe 0e2c c3be
00000210: 341d a3be a895 09be e670 ed3e 98ae 983d
00000220: fa13 8dbe e45c 1a3e 32cc a53e e01d c63c
00000230: 0a92 b13e 1632 b5be ac1b 87be 4805 ea3e
00000240: d243 e73e c8d8 61be 7a33 b9be 2e64 efbe
00000250: f401 cabe 209b 8c3c bc9d 543e d86f 963d
00000260: d4af 89be 7cce 343e b023 393d f451 a93e
00000270: b66a e83e fcf6 0c3e 329d cabe 0edf ca3e
00000280: 2289 adbe f4e2 323e 403d 5bbc 3c8d 87be
00000290: 489d 5bbe 2495 9e3e 5ee5 e63e 6a9f b63e
000002a0: 5ef9 e4be da32 d63e 2c9e b43e f864 04be
000002b0: 08b8 22be c09e ffbc 38a1 c5be d875 013e
000002c0: 782b 8e3d 1a18 febe 68f2 cd3e cc24 9dbe
000002d0: 3c78 893e 00c1 ff3e e25d 943e ec41 53be
000002e0: 3420 79be 40ba b2be a463 403e 2010 b03e
000002f0: c02a 9cbc 749f 7c3e 7acb fcbe 68f8 3dbe
00000300: 66c1 f9be 00a7 ab3c 44e2 64be 28ac b4bd
00000310: 2086 cebd c07b 8f3d f86a a0bd 504f 5ebe
00000320: 820a 823e aa72 bb3e b8cd c03e 781c dcbe
00000330: 0029 b0bd c4f6 94be a0d7 e33e 40c1 633c
00000340: 366f ff3e 74b8 b8be ca37 8f3e 0071 943e
00000350: 3c49 31be 9878 b23e 30ef efbd b664 9dbe
00000360: 2ad1 803e 1618 a5be dc02 35be 0c70 183e
00000370: b425 1bbe 1a28 8f3e 18f4 803d 9073 cbbe
00000380: f82a dabd c42c 3e3e c0a5 693e 14d3 bb3e
00000390: ac03 04be 608f 54bd 8ca5 72be 32f8 b13e
000003a0: 803a 0bbe d62a a93e f086 023e b094 dd3d
000003b0: 3864 a53e 1421 7fbe 7449 1fbe 283b 81bd
000003c0: 6055 7d3e 9686 d9be d457 68be 9e86 b4be
000003d0: 8a99 edbe 54ad 213e 3059 323e 84c9 4ebe
000003e0: d2fa ea3e 18b6 53be c4b0 35be a0e5 a9be
000003f0: 38d1 843e 9c7c 43be 8a80 d4be 2eed f9be
-0.4792133 -0.16092294 0.47919512 -0.43924022 -0.4546913 -0.23206031 -0.13987458 -0.04464358
-0.1690799 0.13557523 0.28582424 -0.10004938 -0.24294406 0.46892774 0.34069717 -0.28206408
0.172651 -0.16924322 0.06178361 -0.13294613 -0.0014962554 -0.11361164 0.44208676 0.30077547
-0.48620796 0.47814292 0.24828184 0.01808393 0.25972515 -0.2838388 -0.03290707 -0.10537428
0.3220989 -0.17970002 0.426089 -0.42719632 -0.1483869 -0.2930495 0.041120708 -0.21432155
-0.43038207 -0.49959946 0.26799774 0.014435053 -0.19267917 -0.3844965 -0.38730925 -0.17503554
0.1264857 0.1270023 -0.4995104 -0.22188604 -0.17996448 -0.31045276 -0.26014173 0.36605495
0.1270892 -0.26304471 -0.49720353 0.018578708 -0.02783215 -0.217866 -0.19777066 -0.14651418
-0.28533506 -0.2225799 -0.20809901 0.3453709 -0.24006516 0.3812083 0.09567565 0.44801456
0.49074352 -0.398726 0.45410508 0.40197605 0.43738735 -0.37210786 0.19993728 -0.15208375
0.19074064 0.10543126 0.41499466 -0.3899361 -0.13789314 -0.20395541 -0.18587536 -0.43690115
-0.49185324 -0.16233248 0.23251939 0.12957668 0.44029754 -0.44536686 0.20564765 0.204162
0.24430239 -0.003870964 0.23285139 -0.044864833 -0.13072795 -0.10419297 0.101938844 -0.27642864
-0.43007082 -0.19212747 -0.47093642 -0.033663392 0.3250075 -0.30107635 -0.11526269 0.34920108
-0.32502657 0.42979056 -0.26868272 0.018533528 -0.31716847 0.4204347 -0.27907926 -0.2956174
0.013223469 0.2607665 -0.043558955 0.3292709 -0.45099187 -0.060332477 -0.19541848 0.12897152
0.47540325 0.111009955 -0.18413097 -0.3811955 -0.31858218 -0.13435996 0.46375197 0.07455176
-0.27554303 0.15074497 0.3238235 0.024184167 0.3468173 -0.35389775 -0.263883 0.45707154
0.4516893 -0.22055352 -0.36172086 -0.4675612 -0.39454615 0.017163813 0.20763296 0.07345551
-0.2689196 0.17656893 0.04520005 0.33070338 0.45393914 0.13766092 -0.39573056 0.39623302
-0.33893687 0.17469388 -0.013381302 -0.2647494 -0.21446717 0.3097316 0.45096868 0.35668498
-0.44721502 0.41835672 0.35276926 -0.12929142 -0.15890515 -0.031203628 -0.38599563 0.1264261
0.06941885 -0.49627763 0.40224004 -0.30692136 0.26849544 0.49951935 0.28977877 -0.20630616
-0.24328691 -0.34907722 0.1878801 0.34387302 -0.019063354 0.24670202 -0.4937399 -0.1855179
-0.48780364 0.020953655 -0.22351938 -0.08821899 -0.10084176 0.07006025 -0.07832903 -0.21709943
0.25398642 0.3661092 0.3765695 -0.4299047 -0.0860157 -0.29094517 0.44500446 0.013901055
0.49889535 -0.36078227 0.2797225 0.28992462 -0.17313093 0.3485763 -0.11715543 -0.307409
0.2515958 -0.3224494 -0.17676872 0.14886492 -0.15151101 0.27960283 0.06296557 -0.39736605
-0.10652727 0.18571764 0.22817135 0.36684477 -0.12892026 -0.051894546 -0.23695964 0.3475967
-0.13596535 0.33040494 0.12746787 0.108193755 0.32303023 -0.24914962 -0.15555364 -0.06310111
0.24739599 -0.42485493 -0.22689754 -0.35258955 -0.46406204 0.15788776 0.17416835 -0.2019406
0.45894486 -0.20674932 -0.17743212 -0.33183002 0.2594087 -0.19090503 -0.41504318 -0.48813766

fc1.bias f4 [64]
00000000: ae04 ed3e d0ce c3bd 5c2d 15be 18b3 d1bd
00000010: 1ce2 c83e e054 30bd c80a 9ebd 60d1 c2bc
00000020: f8c4 adbe fa4f f63e a8ca fa3e c09d a8bd
00000030: 38a0 5bbe e486 1dbe 7a7e a93e 402c 34bc
00000040: 4086 8cbd 307a 1ebd e280 a5be 2093 973e
00000050: 38f2 e13d d698 e9be 2698 89be e0ec b2bc
00000060: 9a86 93be a80a 463e 403f c7be 8e06 d2be
00000070: 00e2 91ba 4e91 99be c803 c8be 14d1 45be
00000080: 6c73 d83e 408c 813c 5e29 c7be 8413 183e
00000090: 72cd 9b3e 507e dcbe 4ca0 cdbe a43a 98be
000000a0: 5046 993d d6a8 9a3e 143e 2a3e 6ceb a1be
000000b0: e89d 3ebe 8a80 ccbe da8d 8dbe 6407 0f3e
000000c0: 9066 55bd b89c 9f3d 40be 22be 08a2 d53d
000000d0: 8234 d5be dc59 33be 38ed 003e 7061 3d3d
000000e0: 6844 d8bd 4c9a a9be 8481 533e b84a 4bbe
000000f0: 9cd8 8abe 4a67 d23e a020 653e 80ef 093c
0.46292633 -0.09560931 -0.14568084 -0.102392375 0.39235008 -0.043049693 -0.077169 -0.023781478
-0.33939338 0.48107892 0.4898274 -0.082332134 -0.21447837 -0.15383488 0.33104306 -0.010996878
-0.06861544 -0.038690746 -0.32324892 0.29604435 0.11032528 -0.45624417 -0.26873893 -0.021841466
-0.2881363 0.19340003 -0.38915443 -0.41020626 -0.0011129975 -0.2999367 -0.39065385 -0.19318038
0.4227556 0.015813947 -0.38898748 0.14851195 0.3043018 -0.4306512 -0.4016136 -0.2973224
0.07484114 0.30206937 0.16625243 -0.31624925 -0.18614924 -0.39941818 -0.27647287 0.13967663
-0.052099764 0.077935636 -0.15892887 0.10431296 -0.41641623 -0.17514747 0.12590492 0.0462355
-0.105599225 -0.33125532 0.20654875 -0.19852722 -0.27118385 0.41094428 0.22375727 0.008418918

fc2.weight f4 [64, 64]
00000000: ca17 80bd 20a7 c4bd f0a9 1f3c 348e 6e3d
00000010: 4c24 f9bd c002 98bc 006e 94bd 70a0 8d3d
00000020: b007 c73d 368d ce3d 6cad c43d f6bd cc3d
00000030: 087f e63d a464 b33d 78c5 b33c 3222 993d
00000040: c06a d0bc 222e c5bd 14e8 bebd 802c 053d
00000050: 402e 8abc 380c 90bc 00e5 cd3b 5e57 a4bd
00000060: 5032 73bd ae78 9c3d b844 fcbd 24a4 f33d
00000070: 007d fabd 8ccb da3d 1c3b 363d 400d 44bb
00000080: c207 83bd c8e1 693d f437 eabd a454 8bbd
00000090: 14a3 0abd f07d 813d ba22 cb3d b0a5 f7bd
000000a0: 6cec dabd b8d6 fc3d 8c36 9fbd ce3f ccbd
000000b0: 68fa bbbd d017 203d 80d9 38bb b004 10bc
000000c0: 28a4 f3bd 603d 9a3d 5461 663d 6212 b3bd
000000d0: 48cd 4cbd c02b c3bc ba0b 8c3d a00a 14bc
000000e0: d014 9cbd c449 f23d 8017 093d ead3 b73d
000000f0: 9235 dfbd d07d 6c3c 5e31 f93d 720b b2bd
00000100: 14d7 ce3d 862e a23d c07a c3bb d40c 973d
00000110: 5cb5 f13d 98e6 103d d007 61bd f4ec c33d
00000120: 50f4 513c 006c c039 4670 a9bd 34c2 98bd
00000130: a873 c13c b447 2a3d 2c5e 773d 6c3e e0bd
00000140: f453 b33d 38b4 4f3d b845 c5bc f0b5 903d
00000150: 7cfa c43d 80a7 50bd b49f 98bd 00e1 2dbb
00000160: d2f6 aa3d c02a 24bb e0b3 cfbc 1ea2 ea3d
00000170: 449d 7a3d 70a1 23bd e03f 903d 5afd cbbd
00000180: 2ef1 a5bd 045f 2b3d 38fb e13c 209d 65bd
00000190: a23d 893d e89e d3bd d22d d8bd 6e80 b8bd
000001a0: 5eac 863d 107b 7ebd 30fa eb3d 84b7 d1bd
000001b0: 7cad cabd 4876 963d 10aa fbbd 181d 793d
000001c0: 0648 b33d 6841 c7bc 087b 85bc 9cd5 933d
000001d0: 384e 84bd d0b0 22bc 8438 9ebd 5ea5 af3d
000001e0: a8b6 9a3c c2e9 dfbd a04a a33b 00f2 5c3d
000001f0: 30ce 91bc c8dc 893d 0afc f13d aef9 ab3d
00000200: c608 ac3d 343a bd3d f48c 55bd 2c1d 69bd
00000210: cad5 853d fc80 36bd 7248 a6bd d230 c6bd
00000220: 90ce f63d 102f 8c3c 4ee6 a23d 5843 b33d
00000230: b0d9 11bd 2893 723d 601d d7bb 7497 f9bd
00000240: 4c81 e7bd 4ea7 a1bd 5ab5 df3d fc1a 5ebd
00000250: 20ef 403c 407b 24bd d099 3abc a44c 9bbd
00000260: 94d6 4d3d ae9d 8a3d 666b 8a3d 88cf d63c
00000270: c442 3fbd 70ef d3bd 86d1 963d f2b7 db3d
00000280: d806 babd eca5 213d e646 a3bd 04b3 d83d
00000290: debe 853d 7c9c b13d 48a2 3abd 1a1d fdbd
000002a0: d0dc 613c 847b 763d c0b0 093d cc83 3abd
000002b0: 0026 dbba b414 52bd bcf7 ef3d b607 8a3d
000002c0: 04e7 48bd da5e b33d 6ce0 92bd 4085 f13d
000002d0: 8c70 51bd d8bb 92bd 4e12 a2bd 0e33 fabd
000002e0: 74d5 debd a89c bc3d e098 4b3d c079 263b
000002f0: ba7e d13d 66df a1bd 087e 493d 5a3b bb3d
00000300: 40ca a9bb 041d 8e3d b678 a73d 0013 74bd
00000310: 5454 133d 6083 63bc 962d 8d3d 1211 aa3d
00000320: 607f d7bd 203a 953c b0ba b93d cac0 acbd
00000330: 94f5 bb3d b4cf 3dbd d804 cebc 9c6f 41bd
00000340: 5c28 5d3d d871 ebbc b455 8dbd 8850 a43c
00000350: da34 9f3d 7c5f 823d 204f 0fbc 1412 863d
00000360: 56b6 8e3d 805d c83d a08b 3fbd 9880 b43d
00000370: b840 a53c b0a3 ea3c 847f 64bd 7895 dcbc
00000380: f0f6 1d3d 50da 963d 16e6 f43d 8045 18bc
00000390: cc55 573d 084b 9ebd b846 55bd a275 adbd
000003a0: 7a3f bd3d a03f 4dbd f462 b0bd 3050 06bc
000003b0: 009c 3eba f604 883d 3280 84bd 8e46 e4bd
000003c0: c602 f1bd 7e0c 973d 5024 49bd e280 b93d
000003d0: b0db 3b3c 681e 1b3d 7a03 a1bd 1446 36bd
000003e0: c0d6 18bd 14a3 aa3d b0aa c73d bc49 bcbd
000003f0: 9025 efbc c87c eb3c 546e 87bd d020 413d
-0.062545374 -0.09602189 0.009745106 0.058241084 -0.12165126 -0.018555999 -0.07247543 0.06915367
0.09718263 0.100855276 0.0960339 0.0999717 0.11254698 0.0875943 0.021944746 0.07477225
-0.025441527 -0.0962794 -0.09321609 0.03251314 -0.016867757 -0.017583951 0.0062834024 -0.080244765
-0.059374154 0.07640205 -0.123177946 0.11896542 -0.12230873 0.10683355 0.044489965 -0.0029915124
-0.06397964 0.057100087 -0.114364535 -0.06803253 -0.03384693 0.06322849 0.09918733 -0.12092149
-0.10689625 0.12345642 -0.07774076 -0.09973107 -0.091786206 0.03908521 -0.0028205812 -0.00879018
-0.11896545 0.075312376 0.056245163 -0.087437406 -0.05000046 -0.023824573 0.06838174 -0.009035736
-0.07621157 0.11830476 0.033469677 0.08975966 -0.108988896 0.014434293 0.12167619 -0.08693589
0.10099617 0.0791903 -0.0059655607 0.07375494 0.1180217 0.03537616 -0.05493909 0.095666796
0.012814596 0.0003670156 -0.082733676 -0.07458916 0.02361472 0.041572288 0.060392544 -0.10949406
0.08756247 0.05070898 -0.024081096 0.07065952 0.096180886 -0.05094099 -0.07452336 -0.0026531816
0.083478585 -0.0025049895 -0.025354326 0.11456703 0.061185136 -0.03994888 0.07043433 -0.09960432
-0.08102642 0.04183866 0.02758561 -0.05605805 0.06701209 -0.10333043 -0.105556145 -0.09008871
0.06575845 -0.06212908 0.11522329 -0.10240081 -0.09896371 0.07346779 -0.12288296 0.06081876
0.08753972 -0.02432318 -0.016294017 0.07218477 -0.064602315 -0.009929851 -0.07725623 0.08576463
0.018885925 -0.10933258 0.004983261 0.053941727 -0.017798513 0.06731564 0.11815651 0.08397232
0.08400111 0.09239617 -0.052136377 -0.056912586 0.06534918 -0.044556603 -0.081192866 -0.096772805
0.120511174 0.017112285 0.079540834 0.08753079 -0.035607994 0.05922237 -0.006564781 -0.121870905
-0.11303958 -0.07893239 0.10923262 -0.054224953 0.011775762 -0.040156603 -0.011389211 -0.075829774
0.050253466 0.06768356 0.06758766 0.026222005 -0.046694532 -0.103484035 0.07364182 0.10728444
-0.090833366 0.039464876 -0.07972507 0.105810195 0.06530546 0.08672425 -0.04556492 -0.12359066
0.013785556 0.060176387 0.033615828 -0.045535848 -0.0016719699 -0.051289275 0.117171735 0.06739752
-0.04904844 0.08758326 -0.07171711 0.117929935 -0.051132724 -0.071647346 -0.079136476 -0.12216769
-0.10880557 0.09209567 0.04970634 0.0025402158 0.10229249 -0.07903938 0.04919246 0.0914218
-0.005181581 0.06939128 0.08177321 -0.059588432 0.035969093 -0.013886303 0.068934605 0.08304037
-0.10522342 0.018216193 0.09068811 -0.08435209 0.091777 -0.04634066 -0.025148794 -0.04722558
0.053993568 -0.028740808 -0.06901112 0.020057932 0.077737525 0.063658684 -0.008746892 0.06546417
0.069683716 0.09783459 -0.046764016 0.0881359 0.020172462 0.028642505 -0.05578567 -0.026926741
0.038565576 0.073658586 0.11957948 -0.009293914 0.052572057 -0.07729155 -0.052069396 -0.08469702
0.09240623 -0.050109506 -0.08612624 -0.008197829 -0.00072711706 0.06641571 -0.06469764 -0.1114627
-0.11768107 0.073754296 -0.049106896 0.090577856 0.011465952 0.037870795 -0.07861991 -0.044500425
-0.037314177 0.08331886 0.09749353 -0.09193751 -0.029192716 0.028746024 -0.0661284 0.047150433

fc2.bias f4 [64]
00000000: 36d7 f0bd 5480 98bd 0ccf e53d d6ec e4bd
00000010: da3f f73d 7072 7e3c 585d eebc b013 48bd
00000020: e0dd 83bc 7213 da3d 40cf 63bd 3458 f13d
00000030: 529b aa3d 583c 9b3c 4e4e b03d ea1f acbd
00000040: 94ab 27bd 9426 7fbd 8e72 d53d 4ce7 71bd
00000050: 5c92 33bd ece8 09bd 5622 a23d a0bd 093d
00000060: e024 b33b 0080 b5b7 c0cf ac3c c0c0 163d
00000070: e0e4 fabd 444e febd 280e 70bd 7ef3 f3bd
00000080: 8ebc 85bd 2cfe febd 1a5d dfbd b0d8 7e3c
00000090: cade efbd a050 a33b 842f 8ebd b86c 3ebd
000000a0: 50fa df3c 9087 42bd 4cde 0fbd 0c19 2b3d
000000b0: 0019 c93a c0f6 d4bb 10b9 21bc 8081 c43a
000000c0: 6445 45bd 3c9f 9d3d d428 c53d 440f 5abd
000000d0: 58e4 943d e05f 40bd c6ae adbd 224d a7bd
000000e0: 2865 83bd 8251 dfbd d6d0 883d 5664 eabd
000000f0: 1076 653c 8035 8f3b 6678 c9bd 8087 84bd
-0.11759798 -0.07446352 0.11221132 -0.11177985 0.120727256 0.015530214 -0.029097244 -0.0488469
-0.01609701 0.1064824 -0.05561757 0.117844015 0.08330406 0.018949673 0.086086854 -0.084045246
-0.040935114 -0.06229265 0.1042224 -0.059058473 -0.04384075 -0.033669397 0.07916705 0.033628106
0.0054670423 -2.1636486e-05 0.021095157 0.036804914 -0.12250686 -0.12417272 -0.05860725 -0.11911677
-0.065301046 -0.12450823 -0.109064296 0.015554592 -0.117124155 0.0049839765 -0.06942657 -0.0464904
0.027341038 -0.047492564 -0.03512411 0.041771933 0.0015342534 -0.0064991415 -0.0098707825 0.0014992207
-0.04816188 0.07696387 0.09626928 -0.053237215 0.072701156 -0.046966434 -0.08480601 -0.08169009
-0.064157784 -0.10904218 0.06680457 -0.11444919 0.014005199 0.0043703914 -0.09837417 -0.06471157

fc3.weight f4 [6, 64]
00000000: 808d cd3c 10c0 113c 0212 aebd a8aa d43c
00000010: f08b d4bd aabb a5bd a0c6 793c bef8 f0bd
00000020: 7a7c c03d a038 ff3d 3c63 9bbd fe94 cd3d
00000030: c4ca a13d c2bb 973d e008 113c 4a12 f93d
00000040: c010 3bbd 381e 73bd 0af7 8dbd 68dc 84bd
00000050: 8ed2 a03d f414 c8bd 5cc5 0e3d b028 6bbc
00000060: 9039 f1bd 4c5c 18bd 3230 d63d 44dc a73d
00000070: 6ac7 acbd a4bb afbd 0808 bfbc f087 4ebd
00000080: ea50 9cbd 9a87 eb3d daae aa3d 80f8 24bb
00000090: 7203 f2bd d403 153d 8495 2cbd d4c2 803d
000000a0: f0d4 933d 683b 913c 7a8d 9d3d ac87 243d
000000b0: 5694 f53d b221 933d 8843 e1bc 8473 eebd
000000c0: 200c 683c 9077 3d3c c45c 3e3d 20a0 9f3d
000000d0: c880 993d 68db 6cbd 6017 e53d 40e2 d8bd
000000e0: 4071 783c 30e0 db3d 201b d0bb 3009 e6bc
000000f0: 38d3 6abd 481b ad3d 2aad 81bd 10de cabc
00000100: 4814 b8bd aa44 a2bd 74e3 463d 206b e83d
00000110: 301c c33d 2812 b43c 963d 943d 4aea e43d
00000120: ce94 98bd d8fa 49bd d086 f73d 841d 2c3d
00000130: 587c d0bd 2090 5b3c e0dd 21bc f2b3 9c3d
00000140: 5851 c93d ec59 9a3d f491 29bd 2cbc d0bd
00000150: 4899 e3bc ec43 583d c880 c8bd 2053 223c
00000160: 72a6 bdbd c029 1f3b e82c 613d 44f1 d1bd
00000170: 0ae7 833d 803d 85bd ee3e bc3d 98c7 243d
00000180: dcb1 1c3d 64f8 a23d 509d b73c f070 7bbd
00000190: 9e02 963d b03e 02bc cca2 84bd 148d d7bd
000001a0: b418 5abd a427 963d 3c67 3c3d 40af 3a3b
000001b0: 383e 96bc 884a 913c f0e7 f93c f433 2ebd
000001c0: 26f5 ef3d d432 3c3d bcc6 283d 90af bfbd
000001d0: f027 52bd 6cb0 a03d ce0a a5bd b495 fcbd
000001e0: ae0d aebd ac5c 5c3d ee6a d23d 5814 e83d
000001f0: 68ac a03d ec5b 483d 685b 6c3d f028 23bd
00000200: 7cab debd 4075 f23d 4221 b8bd be58 b0bd
00000210: 64d0 333d 0887 433d 624b ce3d 5897 b63d
00000220: 300f c1bd 188a b63c d856 bd3d 0e78 9f3d
00000230: bc90 3a3d c06e 243d 2292 d23d 2abe 8cbd
00000240: b020 843c 1e10 9f3d f829 9e3c c0fc e4bc
00000250: aea2 8c3d 7481 4b3d 52d3 b33d 78a5 e53c
00000260: 30c8 493c 2cb0 bfbd 1090 593d 7c69 5bbd
00000270: 10b1 5abc 1469 7d3d 6013 253d 2028 e83b
00000280: b040 f23c 289a e23d 74dc 2b3d d00e df3d
00000290: c6c0 d5bd d814 32bd 00d0 a5bc f6b8 82bd
000002a0: 0a8d d5bd f0da 53bc 045d 013d b02e 48bc
000002b0: c08f 1a3b 8c94 733d ac1e 8ebd fc58 c9bd
000002c0: 803d a6ba 327e d33d b067 90bc 8a8e eebd
000002d0: a8cf 69bd f4d0 a0bd 1412 e73d 245e 53bd
000002e0: b4c0 b0bd c895 b13c 321d ac3d a230 e93d
000002f0: 00f1 df3c 9063 753d e244 a23d b8c2 8bbc
00000300: 144e 053d 8868 27bd ac71 1c3d 0a4c 92bd
00000310: e059 66bd c818 5fbd c0ab a1bc 747b db3d
00000320: f45d 6dbd 1494 523d 0068 fc3c f4b7 fcbd
00000330: a89f f33c 3651 e33d a018 febd d23a c6bd
00000340: e812 58bd 1a6f 843d 3866 92bc 6e25 a8bd
00000350: a4cc 9e3d c05c d5bd 4068 ab3b 3846 8dbc
00000360: 283a 7b3d 2cb7 e83d 3c49 27bd 50ae 90bc
00000370: 76ee 913d 34c4 ac3d 68a5 09bd 3c38 943d
00000380: a0d3 eebc 30f9 ce3c 48c2 203d ac67 8a3d
00000390: 0850 ce3d 58a6 d3bc c083 07bd 442a f7bd
000003a0: 4832 f03c 60ba f63b cc11 6fbd c6d2 853d
000003b0: 5015 ad3d b2b9 d8bd eee3 8dbd 0020 a2ba
000003c0: e416 f6bd b4eb d33d 5290 9c3d 08e1 d6bd
000003d0: 9c93 b53d 083f 733d 7caf e73d 4ce0 e83d
000003e0: 0a27 81bd 20b6 8bbc 907a 96bd e8e1 bcbc
000003f0: b42a f1bd 086a ddbd 1c16 32bd d45d 2e3d
0.025091887 0.008895889 -0.084995285 0.025960281 -0.103782535 -0.08092435 0.01524511 -0.11766194
0.09398742 0.12461972 -0.07587287 0.10038184 0.079000026 0.07408859 0.008852214 0.121616915
-0.04567027 -0.05935499 -0.069318846 -0.06487352 0.0785266 -0.097696215 0.034856185 -0.014352962
-0.11778557 -0.037197396 0.10458411 0.08196309 -0.08436473 -0.085807115 -0.02331926 -0.05042261
-0.07632621 0.11500473 0.083341315 -0.0025172532 -0.118170634 0.036380604 -0.042134777 0.062871605
0.07218349 0.017728522 0.07693 0.04016845 0.119911835 0.07184161 -0.027498022 -0.116431266
0.014163047 0.01156415 0.046475187 0.07794213 0.07495266 -0.05782643 0.11186099 -0.10590029
0.01516372 0.1073612 -0.00635089 -0.028080553 -0.05733034 0.08452469 -0.063318565 -0.02476409
-0.08988243 -0.07923253 0.04855676 0.113485575 0.09526861 0.021981314 0.07238309 0.111774996
-0.07450257 -0.04931149 0.1208626 0.042020336 -0.10179967 0.013401061 -0.009879559 0.07651509
0.09829968 0.075366825 -0.041398957 -0.10192141 -0.027783051 0.05279915 -0.09790188 0.009907514
-0.092602625 0.002428636 0.054974467 -0.10251096 0.064405516 -0.06505871 0.091916904 0.04022941
0.038255557 0.07957533 0.02241388 -0.061387002 0.07324718 -0.007949516 -0.064763635 -0.105249554
-0.053246215 0.073317796 0.04599689 0.0028485805 -0.018340215 0.017735735 0.030506104 -0.042530015
0.1171668 0.04594691 0.041205153 -0.09359658 -0.05130762 0.0784615 -0.080587015 -0.12333241
-0.08498703 0.053799316 0.102743015 0.11332005 0.07845384 0.04891579 0.05770436 -0.039833963
-0.10872552 0.1183877 -0.089907184 -0.08610676 0.04389991 0.047736198 0.10072972 0.08915585
-0.09426725 0.022282645 0.0924508 0.077865705 0.045548186 0.040144682 0.10281779 -0.068722084
0.016128868 0.07766746 0.019307122 -0.027952552 0.06866966 0.049684003 0.087805405 0.028033003
0.012315795 -0.09359774 0.053115904 -0.053567395 -0.013347879 0.06186779 0.04030168 0.0070848614
0.029571861 0.11064559 0.041958287 0.10891497 -0.10437159 -0.04347691 -0.020240784 -0.06382935
-0.10427292 -0.012930617 0.031582847 -0.012218162 0.0023584217 0.059467837 -0.06939444 -0.098314255
-0.0012683123 0.10326804 -0.017627567 -0.11648281 -0.057082802 -0.07852355 0.11282745 -0.05160345
-0.08630505 0.021677867 0.08404006 0.11386229 0.027336597 0.059909403 0.079232946 -0.017060623
0.032545164 -0.040871173 0.038194343 -0.071434096 -0.056238055 -0.054466993 -0.019735217 0.10716906
-0.05795093 0.05141075 0.03081131 -0.12339774 0.029739216 0.11099474 -0.124070406 -0.09679188
-0.052752405 0.064665034 -0.017871007 -0.08210264 0.07753876 -0.10418081 0.0052309334 -0.017245397
0.06133476 0.11363062 -0.040841326 -0.017661244 0.07125561 0.0843586 -0.03360501 0.07237288
-0.029153645 0.025265306 0.03924778 0.06758055 0.100738585 -0.025836155 -0.03308463 -0.120686084
0.029320851 0.007529542 -0.05836658 0.065343425 0.08451331 -0.105822936 -0.0692824 -0.0012369156
-0.12016085 0.10347691 0.076447144 -0.1049214 0.08866045 0.059386283 0.11312768 0.11370906
-0.06306274 -0.017054617 -0.07347596 -0.02305694 -0.11775723 -0.108112395 -0.043478116 0.04256995

fc3.bias f4 [6]
00000000: e423 3e3d dcbd 8b3d aefc d03d 66d4 8cbd
00000010: 127e 993d 20ec d73b
0.046420947 0.06823322 0.10204445 -0.06876449 0.07494749 0.0065894276
