saved_models/dqn_best_model_episode_715.pt (torch, 87339 bytes, 24 tensors)

fc1.weight f4 [64, 4]
0.27045155 0.08593416 -0.3115389 -0.23265013 -0.38035253 0.1886573 -0.2042737 -0.47186643
0.32876778 0.349434 0.32091486 0.24995054 0.32879937 -0.38290855 0.021158772 0.16503012
-0.030185342 -0.28282917 -0.09107149 -0.2816878 -0.44826505 0.1518977 0.2913708 0.3851402
-0.19877264 0.25628197 -0.32005128 -0.032864396 0.27100703 0.3427182 -0.21196444 0.35294026
0.3933549 -0.4782686 0.3001008 -0.038374364 0.15932669 0.29325065 0.042103183 -0.106415465
-0.49191925 -0.22565052 -0.34707358 0.1602544 -0.30498487 -0.060019255 -0.20527792 -0.068220675
0.067424834 -0.49440527 0.3928796 0.14960325 0.39172027 -0.2087646 -0.08557194 -0.2487518
0.36293358 0.07427378 -0.14388372 0.43366796 -0.44738662 0.20891535 0.15383656 -0.10021517
0.08021662 0.14355457 -0.05907251 -0.09310359 0.33159414 -0.12351565 -0.42985824 -0.13828193
-0.28881842 0.41321832 -0.08373855 -0.057708208 0.4444758 -0.36456633 0.46764684 -0.037843276
0.1213208 -0.24589752 -0.48176435 -0.28670633 0.3331148 0.25483367 -0.4273079 -0.1085321
-0.39317515 0.17480959 0.0937605 -0.08711919 -0.34268588 0.25748935 -0.13363336 -0.2301296
0.31880173 0.10458099 0.13389835 0.35631296 -0.04937901 0.4891734 -0.18352391 -0.28364438
0.1901094 -0.26243022 0.08981135 -0.04813052 -0.014118251 -0.48233196 -0.082103774 0.23740004
0.20668514 -0.058656055 -0.20644045 0.07007021 -0.14183086 0.02283584 -0.13818264 -0.32983744
0.27858955 0.0027178677 0.49545932 -0.46116498 -0.36799327 0.37570494 0.2557879 -0.07446409
-0.23627199 -0.031595055 -0.03892338 0.14855535 -0.07470394 -0.11729281 0.13141423 0.04655516
0.20342655 -0.40013126 -0.29782292 -0.25574046 -0.49292913 0.3872818 0.068326704 0.45652103
-0.31799334 -0.12277806 0.30615637 -0.118243776 0.30556348 -0.3419322 -0.41497517 0.11059027
0.49042562 -0.39849877 -0.39033175 -0.33441314 0.28762913 0.37707186 -0.044248488 0.40817472
0.099326655 -0.3027104 0.37817302 0.33673283 0.028183324 -0.12849532 -0.1856875 0.39059618
-0.22134082 0.03437684 -0.24348013 0.4635561 -0.22065634 -0.14970796 0.09802163 -0.35558283
0.07040966 -0.49420667 -0.1726301 -0.41047734 -0.24674422 0.4674282 -0.27443144 -0.21979699
0.36283988 0.2020669 -0.045912944 0.008935108 0.4524239 0.39445734 0.3192953 0.2852306
0.14853178 -0.40646094 -0.45679417 -0.22598363 -0.23342404 -0.03487977 -0.06410467 0.27728698
0.32606173 0.013712375 -0.10356682 -0.047609936 0.16253382 0.31947967 -0.38797167 0.40481496
0.28908917 -0.44830966 -0.42008626 -0.43691865 -0.48255795 -0.26803988 -0.043128014 -0.309973
-0.14511544 -0.016544774 0.42418328 -0.47836486 0.48151767 0.0095219975 0.3181789 -0.3416472
-0.37165973 0.22123918 -0.15125659 -0.31582946 0.21489027 -0.49235123 0.06857905 -0.4533935
0.153411 0.42670578 0.11429921 0.4004841 0.14790149 0.02046079 0.08340927 0.3493193
0.4081463 0.081954874 0.42349127 0.25366357 -0.37571216 -0.21554257 -0.4442442 0.00487889
-0.17309237 -0.17895144 -0.050765455 -0.3225593 -0.13495548 0.25692946 -0.050512627 0.119704634
00000000: a078 8a3e 40fe af3d 0782 9fbe d63b 6ebe
00000010: 91bd c2be 612f 413e 202d 51be 7a98 f1be
00000020: 4054 a83e 03e9 b23e f44e a43e 09f3 7f3e
00000030: 6458 a83e 970c c4be 2955 ad3c a8fd 283e
00000040: 4047 f7bc fcce 90be b083 babd 6239 90be
00000050: ff82 e5be 128b 1b3e 8e2e 953e 1931 c53e
00000060: 0e8b 4bbe 6437 833e c3dd a3be d19c 06bd
00000070: 6fc1 8a3e c378 af3e 350d 59be 96b4 b43e
00000080: d065 c93e 9fdf f4be d0a6 993e 702e 1dbd
00000090: 8926 233e f324 963e 6374 2c3d 5af0 d9bd
000000a0: d7dc fbbe ee10 67be a1b3 b1be bb19 243e
000000b0: fa26 9cbe c0d6 75bd 6034 52be 48b7 8bbd
000000c0: 0816 8a3d b022 fdbe 8427 c93e 9831 193e
000000d0: 8f8f c83e 63c6 55be 5740 afbd cbb8 7ebe
000000e0: 6ed2 b93e da1c 983d 4156 13be ba09 de3e
000000f0: dc0f e5be e8ed 553e 5587 1d3e 9c3d cdbd
00000100: 9c48 a43d f8ff 123e 04f6 71bd 18ad bebd
00000110: b5c6 a93e c6f5 fcbd 6116 dcbe c799 0dbe
00000120: 02e0 93be 5a91 d33e 1e7f abbd 715f 6cbd
00000130: 5592 e33e 70a8 babe 686f ef3e 8d01 1bbd
00000140: 0a77 f83d 8fcc 7bbe d1a9 f6be 2ccb 92be
00000150: 068e aa3e 8f79 823e 1ac8 dabe 1446 debd
00000160: 414e c9be 4901 333e 8105 c03d 8c6b b2bd
00000170: 8674 afbe a5d5 833e 2fd7 08be 18a7 6bbe
00000180: fb39 a33e 8f2e d63d a61c 093e a76e b63e
00000190: a541 4abd f074 fa3e b1ed 3bbe d639 91be
000001a0: 0aac 423e 415d 86be 03ef b73d 8224 45bd
000001b0: 3d50 67bc 37f4 f6be 0626 a8bd ff18 733e
000001c0: 45a5 533e 5541 70bd 2065 53be f880 8f3d
000001d0: 1c3c 11be 3a12 bb3c c07f 0dbe 74e0 a8be
000001e0: 4aa3 8e3e 411e 323b d8ac fd3e d11d ecbe
000001f0: 9d69 bcbe 665c c03e a2f6 823e a180 98bd
00000200: 49f1 71be d169 01bd 1f6e 1fbd e51e 183e
00000210: 61fe 98bd 3637 f0bd 7491 063e a0b0 3e3d
00000220: 0d4f 503e 01de ccbe 3f7c 98be 6af0 82be
00000230: 3561 fcbe cd49 c63e dfee 8b3d 20bd e93e
00000240: 06d0 a2be 1073 fbbd 87c0 9c3e cb29 f2bd
00000250: d172 9c3e bd11 afbe a077 d4be 277d e23d
00000260: 1119 fb3e 0808 ccbe 90d9 c7be 3338 abbe
00000270: 2044 933e 900f c13e e73d 35bd 47fc d03e
00000280: c66b cb3d dcfc 9abe e59f c13e 3f68 ac3e
00000290: b7e0 e63c 4794 03be dd24 3ebe 39fc c73e
000002a0: 2ba7 62be bbce 0c3d db52 79be 3a57 ed3e
000002b0: bcf3 61be 0b4d 19be 90bf c83d f40e b6be
000002c0: f132 903d a808 fdbe f2c5 30be 162a d2be
000002d0: 84aa 7cbe c052 ef3e 4782 8cbe 7612 61be
000002e0: 26c6 b93e a0ea 4e3e 360f 3cbd 8f64 123c
000002f0: 1ba4 e73e 50f6 c93e ac7a a33e bf09 923e
00000300: b718 183e a61b d0be ede0 e9be 4168 67be
00000310: b606 6fbe 17de 0ebd 4f49 83bd 8ff8 8d3e
00000320: 90f1 a63e dfa9 603c d71a d4bd a302 43bd
00000330: 446f 263e d792 a33e 39a4 c6be e843 cf3e
00000340: 7f03 943e d888 e5be 8c15 d7be cdb3 dfbe
00000350: d611 f7be 863c 89be 00a7 30bd c8b4 9ebe
00000360: 2499 14be e888 87bc 8d2e d93e 3dec f4be
00000370: 7c89 f63e 2702 1c3c 58e8 a23e 62ec aebe
00000380: 2f4a bebe 868c 623e 02e3 1abe 66b4 a1be
00000390: 320c 5c3e 7615 fcbe 2c73 8c3d 3123 e8be
000003a0: c617 1d3e 2e79 da3e b415 ea3d 410c cd3e
000003b0: 7d73 173e 639d a73c 7bd2 aa3d fbd9 b23e
000003c0: 8df8 d03e f5d7 a73d d9d3 d83e 31e0 813e
000003d0: 585d c0be 31b7 5cbe fa73 e3be 18df 9f3b
000003e0: 203f 31be 0c3f 37be 70ef 4fbd 7e26 a5be
000003f0: c531 0abe 428c 833e 54e6 4ebd b427 f53d

fc1.bias f4 [64]
0.07413957 0.16740687 -0.46313813 0.38031504 0.2298407 -0.0375842 -0.20490862 0.2179001
0.35518467 -0.11607811 -0.43093842 -0.289253 -0.46479315 0.1286584 -0.19658183 -0.3913022
0.19627059 -0.16106376 0.113894396 0.3599907 0.004737294 0.4720851 -0.13065635 0.15537517
-0.41016468 -0.32997778 0.1965741 0.31216753 -0.47555688 0.40728146 -0.19739445 0.4245152
0.373198 0.05233776 -0.41190246 0.14424947 -0.32125854 0.26711443 -0.41545466 0.3461241
0.04549341 -0.39084378 0.4991378 0.36814943 -0.062005132 -0.38624159 0.21127766 0.36415365
0.15555371 -0.032983545 0.41653308 -0.20822948 0.31907892 -0.18829376 0.40053222 -0.11500378
-0.28350896 0.03916634 -0.21707648 -0.41972455 0.33758456 0.33036366 0.46236166 -0.35749218
00000000: 7dd6 973d b56c 2b3e 7120 edbe a7b8 c23e
00000010: 5c5b 6b3e e4f1 19bd 91d3 51be 3421 5f3e
00000020: c4da b53e 5cba edbd f6a3 dcbe f818 94be
00000030: 5ef9 edbe 07bf 033e bf4c 49be c358 c8be
00000040: 28fb 483e e6ed 24be 7741 e93d b350 b83e
00000050: 4d3b 9b3b 23b5 f13e c7ca 05be ab1a 1f3e
00000060: 1b01 d2be d9f2 a8be b94a 493e 6cd4 9f3e
00000070: 317c f3be 3287 d03e c521 4abe 0e5a d93e
00000080: cf13 bf3e 1e60 563d e1e4 d2be 22b6 133e
00000090: 007c a4be 39c3 883e 79b6 d4be 2e37 b13e
000000a0: 4c57 3a3d ad1c c8be fd8e ff3e 157e bc3e
000000b0: 18f9 7dbd 75c1 c5be 2c59 583e 5972 ba3e
000000c0: 7949 1f3e c119 07bd d343 d53e 1c3a 55be
000000d0: 505e a33e 14d0 40be 8f12 cd3e 1a87 ebbd
000000e0: 1628 91be e26c 203d 4c49 5ebe 23e6 d6be
000000f0: e2d7 ac3e 6d25 a93e abba ec3e 3709 b7be

fc2.weight f4 [64, 64]
-0.032095492 0.013287425 -0.032371745 -0.05261132 0.03781885 -0.0393153 0.012136564 -0.044462726
-0.05311571 -0.09570858 -0.02589862 -0.08332552 -0.09630041 0.075337246 0.08078268 0.05307071
-0.07728824 -0.04174131 -0.03084208 0.06477888 0.033993408 -0.09960663 0.0405664 0.024651974
-0.085365504 0.10259907 0.015347391 0.013081446 -0.019545197 0.090951964 -0.07896657 -0.008567095
-0.06104037 0.097577676 -0.08064607 -0.09046936 0.0061879456 -0.035886645 -0.00041165948 -0.06536275
0.011837229 -0.027981251 0.025209472 -0.11190462 -0.0033189356 -0.0828823 -0.091828 -0.014589146
0.021118894 -0.077630535 -0.012872264 -0.12007202 0.10853323 -0.038869947 -0.036210895 0.07776688
-0.1064062 -0.12140116 -0.024868757 0.027995095 0.080328494 -0.09722784 -0.0650316 -0.06112671
0.08974977 -0.122201815 -0.07723342 -0.039855406 -0.09679493 0.05616072 -0.07947086 0.06472476
0.06830847 0.08596741 0.008870289 -0.10404906 0.0419631 -0.10586578 0.10005309 0.102888554
-0.109604195 -0.052730188 -0.08408883 0.048813105 -0.038296998 0.050455034 -0.042831525 0.08178584
-0.106490284 -0.086838216 -0.02737534 -0.00740619 0.014970928 -0.09071836 0.111918315 0.0761732
-0.10998133 0.0035148114 0.030376941 -0.08428691 -0.10355544 -0.022478461 -0.029066548 -0.0401192
0.03743896 -0.0773859 -0.08776654 -0.014147118 0.029748157 -0.08230807 -0.06958915 -0.077559456
-0.06646687 0.12197657 -0.028143391 0.01947537 0.012554839 0.08102137 -0.083484724 -0.06802502
0.01730591 0.08434762 -0.12403737 0.00019745529 -0.038331673 0.027923137 0.01888962 0.052172244
0.12040484 0.071706526 0.086812854 -0.036602907 0.009449288 0.10723842 -0.08828619 -0.019946324
0.021709165 0.021864168 0.02298116 -0.10312921 -0.10993153 -0.069963306 -0.074192874 -0.015334308
0.0135752475 -0.07426316 -0.075412095 -0.04766342 -0.011111438 -0.100784205 0.014900041 -0.012826438
0.08471868 0.12148408 -0.087907925 0.053960115 -0.12290069 0.048544917 0.027462196 0.02108128
-0.090405956 -0.015746986 0.06762296 -0.06463148 -0.01236227 0.055126254 0.09395733 0.0050823144
0.021354645 0.105372556 0.030423652 -0.04960989 0.12403241 -0.0068602054 0.09036939 -0.03236462
-0.1037842 0.089145906 0.028454062 -0.09558533 -0.06542234 -0.019813478 0.08128921 -0.095262095
0.11718918 0.07421282 0.024809336 -0.1220328 -0.025652999 -0.06272932 0.10476865 -0.019727824
-0.079138234 0.09025976 -0.11045335 0.060115352 0.043651804 0.08870081 0.097119346 0.048938494
-0.011058449 0.019957075 0.027551709 0.02082397 0.0332954 0.09535662 -0.09258451 0.0056586536
0.057230677 -0.1209133 -0.102212474 0.020987758 -0.03095888 -0.11392637 0.08896883 0.00881686
0.0059772455 0.09558251 0.05511293 0.07828009 -0.123281 0.073200785 0.053420957 -0.02834944
-0.042757917 -0.12546447 -0.04533117 -0.052264635 -0.017241916 0.032333836 -0.1247267 -0.005299443
-0.07556048 -0.061832283 0.034227 -0.11227669 0.047307972 -0.111232415 -0.123487815 0.06798459
-0.0398817 0.085782 0.015367294 -0.07775633 0.021615164 0.12128942 0.096329436 0.08275584
0.0072506643 -0.06887963 -0.0052253865 -0.014682258 0.07534102 0.014939781 0.07437612 -0.122403406
00000000: 9076 03bd 80b3 593c 3c98 04bd f87e 57bd
00000010: f0e7 1a3d 1409 21bd 70d8 463c 8c1e 36bd
00000020: dc8f 59bd dc02 c4bd 5829 d4bc 92a6 aabd
00000030: 2639 c5bd 6a4a 9a3d 6471 a53d ac60 593d
00000040: 4c49 9ebd f0f8 2abd 88a8 fcbc caaa 843d
00000050: ac3c 0b3d 90fe cbbd f428 263d f0f2 c93c
00000060: 1cd4 aebd 761f d23d a073 7b3c 9053 563c
00000070: 401d a0bc 0645 ba3d 3ab9 a1bd 005d 0cbc
00000080: 7805 7abd ced6 c73d c429 a5bd 0048 b9bd
00000090: 40c4 ca3b e0fd 12bd 00d4 d7b9 e8dc 85bd
000000a0: f0f0 413c f038 e5bc 1884 ce3c 402e e5bd
000000b0: 8082 59bb 32be a9bd 5210 bcbd 5007 6fbc
000000c0: 8801 ad3c c2fc 9ebd 30e6 52bc 52e8 f5bd
000000d0: ac46 de3d 1836 1fbd e051 14bd 3e44 9f3d
000000e0: 7eeb d9bd 2ca1 f8bd 90b9 cbbc f855 e53c
000000f0: 4483 a43d 641f c7bd 4a2f 85bd 0060 7abd
00000100: bace b73d f244 fabd 8e2c 9ebd 6c3f 23bd
00000110: 6c3c c6bd c808 663d 9ec1 a2bd 6a8e 843d
00000120: 50e5 8b3d ae0f b03d b054 113c ac17 d5bd
00000130: 80e1 2b3d 28d0 d8bd a2e8 cc3d 3cb7 d23d
00000140: 2a78 e0bd 9cfb 57bd c436 acbd 40f0 473d
00000150: 50dd 1cbd f0a9 4e3d 1c70 2fbd 567f a73d
00000160: 9417 dabd 3cd8 b1bd 4042 e0bc a0af f2bb
00000170: a048 753c 8cca b9bd 6e35 e53d b200 9c3d
00000180: e43d e1bd c058 663b 10d9 f83c 9e9e acbd
00000190: e014 d4bd c024 b8bc f81c eebc 0854 24bd
000001a0: 9859 193d 807c 9ebd f2be b3bd 50c9 67bc
000001b0: 68b2 f33c 2291 a8bd c284 8ebd 7ed7 9ebd
000001c0: c81f 88bd dace f93d f88c e6bc d08a 9f3c
000001d0: d0b2 4d3c 88ee a53d 0afa aabd b450 8bbd
000001e0: 20c5 8d3c 72be ac3d 4e07 febd 000c 4f39
000001f0: ac01 1dbd 10bf e43c 68be 9a3c 90b2 553d
00000200: d096 f63d dfda 923d f0ca b13d eeec 15bd
00000210: 30d1 1a3c d19f db3d 64cf b4bd 7966 a3bc
00000220: 6bd7 b13c 7c1c b33c fc42 bc3c 6835 d3bd
00000230: c823 e1bd ec48 8fbd 6ff2 97bd c03c 7bbc
00000240: b76a 5e3c 4917 98bd a871 9abd b83a 43bd
00000250: c00c 36bc f367 cebd 4d1f 743c fb25 52bc
00000260: fd80 ad3d a5cc f83d 1209 b4bd 4805 5d3d
00000270: 5bb3 fbbd 09d7 463d 66f8 e03c a6b2 ac3c
00000280: c226 b9bd d3ff 80bc e87d 8a3d 825d 84bd
00000290: 1e8b 4abc 11cc 613d b36c c03d 8b89 a63b
000002a0: f0ef ae3c 91cd d73d 063b f93c bd33 4bbd
000002b0: b404 fe3d 93cb e0bb 9613 b93d c490 04bd
000002c0: d08c d4bd 2192 b63d 7e18 e93c 3ec2 c3bd
000002d0: 26fc 85bd e04f a2bc f57a a63d c618 c3bd
000002e0: e100 f03d e4fc 973d f33c cb3c 55ec f9bd
000002f0: 3d26 d2bc 3b78 80bd f290 d63d 3f9c a1bc
00000300: 3a13 a2bd 1cda b83d 5e35 e2bd 843b 763d
00000310: 3ccc 323d c5a8 b53d 82e6 c63d bb73 483d
00000320: 7f2e 35bc 057d a33c 1fb4 e13c 0897 aa3c
00000330: c260 083d 554a c33d f39c bdbd 3a6c b93b
00000340: b76a 6a3d 64a1 f7bd c654 d1bd 85ee ab3c
00000350: 7a9d fdbc 3b52 e9bd 4a35 b63d 9774 103c
00000360: c5dc c33b c3c0 c33d 18be 613d 5051 a03d
00000370: c07a fcbd 4bea 953d efcf 5a3d 163d e8bc
00000380: ed22 2fbd c279 00be 2dad 39bd 7113 56bd
00000390: eb3e 8dbc 7c70 043d b670 ffbd f3a6 adbb
000003a0: 74bf 9abd d943 7dbd 9c31 0c3d 52f1 e5bd
000003b0: 01c6 413d d2cd e3bd 2ee7 fcbd 813b 8b3d
000003c0: fe5a 23bd 79ae af3d 1ac7 7b3c b63e 9fbd
000003d0: 4912 b13c 9666 f83d 5e48 c53d e57b a93d
000003e0: fb96 ed3b c310 8dbd b839 abbb da8d 70bc
000003f0: 654c 9a3d fcc5 743c 8252 983d a3ae fabd

fc2.bias f4 [64]
-0.015086085 -0.05362846 0.10787613 0.115988776 0.009265588 0.016810115 0.10793991 -0.004103681
-0.019578576 0.11107379 -0.11052827 -0.055852026 0.05641358 0.012183176 0.11869232 0.06811359
0.016214812 0.095082186 -0.019700035 0.011570081 0.09283359 -0.04458008 0.06269116 0.11564067
0.07067908 -0.0825177 0.017412007 -0.077999726 0.034751873 -0.056182638 0.007034906 -0.043799773
-0.10189549 0.08162078 -0.07228975 0.009367635 0.07653331 0.086270876 0.014671479 0.049375866
-0.08542453 0.057996616 -0.006227538 -0.07510817 -0.03402947 -0.09027989 0.014476877 0.038967937
0.009559393 -0.022199929 0.12017317 -0.11486508 -0.040634785 0.054986455 0.045607347 0.020517845
-0.11745414 -0.029834367 -0.031932905 -0.025914758 -0.113120526 0.058367692 0.12596942 0.024629295
00000000: a02b 77bc 84a9 5bbd 29ee dc3d 868b ed3d
00000010: b1ce 173c 5eb5 893c 990f dd3d 2c78 86bb
00000020: 4063 a0bc a87a e33d a55c e2bd 18c5 64bd
00000030: ed11 673d f29b 473c f614 f33d 237f 8b3d
00000040: edd4 843c 73ba c23d f861 a1bc 7090 3d3c
00000050: 8a1f be3d 9a99 36bd 3964 803d 04d5 ec3d
00000060: 32c0 903d 0aff a8bd a0a3 8e3c 52be 9fbd
00000070: fb57 0e3d c41f 66bd 1285 e63b 6467 33bd
00000080: 95ae d0bd cc28 a73d a60c 94bd b57a 193c
00000090: 7fbd 9c3d c9ae b03d a560 703c 593e 4a3d
000000a0: 0ef3 aebd dc8d 6d3d 6010 ccbb 50d2 99bd
000000b0: 7c62 0bbd aae4 b8bd 6c30 6d3c d89c 1f3d
000000c0: 009f 1c3c a0dc b5bc 5a1d f63d 623e ebbd
000000d0: a970 26bd 7a39 613d c5ce 3a3d 0a15 a83c
000000e0: cc8b f0bd 3467 f4bc 14cc 02bd 304b d4bc
000000f0: bcab e7bd f612 6f3d 21fe 003e 60c3 c93c

fc3.weight f4 [6, 64]
-0.07531284 0.013032556 -0.04729817 0.070031874 0.06250635 0.021695994 -0.048937656 0.100082226
0.092503116 0.032645572 0.08837565 0.073251516 0.11587639 -0.08896096 -0.11815698 -0.03907686
0.030944444 0.043174133 0.033392295 -0.06290573 -0.025612023 0.081860594 -0.04822135 0.10673961
-0.047011685 0.09600896 0.017302468 -0.014961753 0.072421625 0.022629842 -0.06801322 -0.11956303
-0.0723321 0.089379236 -0.04932256 0.0071383417 -0.10571994 -0.011935672 0.084002614 0.11340184
0.020171246 -0.0675727 -0.019956395 0.049245372 -0.03992475 0.11776384 0.06081063 0.11541415
0.029041719 -0.060742974 -0.072492406 -0.077160746 0.007535113 -0.0030435293 -0.11176415 -0.037289225
0.09515735 0.059741378 0.11667654 0.02501811 -0.017204568 -0.011740239 0.0010552396 -0.10665855
0.03722045 0.026955351 0.005721592 -0.016183332 -0.03222358 0.031692833 0.06006301 0.06847285
-0.08191071 -0.09498456 0.07633275 -0.08298255 -0.017943628 -0.07053914 0.048077118 -0.08605626
0.05012397 0.06951868 0.05935225 -0.1090572 -0.099490926 -0.043882385 -0.08031457 -0.07670444
-0.08431783 -0.030085767 -0.059701085 0.04933484 0.0016840779 0.098236695 -0.05208648 -0.04882638
0.091226116 0.10194653 -0.096615344 0.0831363 0.07957498 0.12277886 -0.021109547 0.058523826
0.10761341 -0.09726399 -0.0357465 0.08184484 -0.06793229 -0.0055708294 0.047630236 0.11493305
0.07292691 0.039904818 0.008248698 0.076449424 0.10689471 0.0024291398 0.06340124 0.1181465
0.011459263 0.017266672 -0.025346842 -0.018287763 -0.060789853 0.03945311 -0.022249212 -0.082216546
-0.08414231 -0.09209886 -0.06605288 -0.11754879 0.05773167 -0.10924347 0.022581145 0.07099662
0.051876623 0.097369105 0.12118141 0.03924481 0.07720682 0.02174601 0.004784331 0.030082893
0.029305339 -0.103388175 0.007825911 0.039751843 -0.048322715 -0.05303142 0.10082353 -0.044021115
-0.08146335 0.057943355 -0.033661544 0.07419836 0.022460954 -0.06906107 0.054543253 0.10350968
0.10238319 -0.07608798 -0.01964967 0.084196605 -0.060737878 0.057532053 0.08271057 -0.05161876
-0.03262978 -0.095890105 0.047096908 0.11381094 0.019614272 -0.051796664 -0.063868925 0.09302512
0.0936614 -0.08348405 0.034217335 -0.00918524 0.11182436 0.03853539 -0.001989626 -0.068777785
0.09763357 -0.10609861 0.009980252 0.035982594 -0.09675123 -0.03513735 0.024684291 -0.103200376
0.120060235 0.03493592 0.04312223 -0.11950134 -0.05024426 0.0112828165 0.096535794 -0.032839175
-0.11065647 -0.02714841 -0.06176641 -0.11033768 -0.05317357 -0.05198794 0.1196346 0.030733285
-0.11852617 -0.04742725 0.08353636 0.03697002 -0.087232895 -0.069866456 -0.08747024 -0.0060044974
0.1171208 0.010807951 0.11522646 0.033559773 0.05832389 -0.07557072 0.015842061 0.0408891
0.10110636 0.12545148 0.11929351 0.093754664 0.07785632 -0.015722882 -0.08474011 0.026455147
0.039621696 0.015533075 0.12010975 0.071598694 -0.10931793 -0.06271023 -0.0134891365 0.08655826
0.09925427 0.09401558 0.010418279 -0.033411577 0.105949305 -0.057794034 0.11170852 0.076990366
0.006223188 0.039186254 0.011645166 0.0025632828 -0.01194939 -0.028965471 -0.013989605 -0.119246736
00000000: 9e3d 9abd 8086 553c babb 41bd df6c 8f3d
00000010: 5403 803d ccbb b13c da72 48bd e9f7 cc3d
00000020: 4672 bd3d 5db7 053d 4bfe b43d e404 963d
00000030: 9a50 ed3d 2a31 b6bd 49fc f1bd 0f0f 20bd
00000040: 347f fd3c 5cd7 303d 5cc6 083d b8d4 80bd
00000050: 4ed0 d1bc 87a6 a73d c083 45bd 4c9a da3d
00000060: 538f 40bd 58a0 c43d e8bd 8d3c 2422 75bc
00000070: ca51 943d 3862 b93c 844a 8bbd 76dd f4bd
00000080: da22 94bd 760c b73d 7406 4abd c0e8 e93b
00000090: b283 d8bd d68d 43bc 9009 ac3d 393f e83d
000000a0: 2b3e a53c 8e63 8abd 987b a3bc 84b5 493d
000000b0: 2288 23bd 2b2e f13d 9114 793d 415e ec3d
000000c0: e6e8 ed3c a0cd 78bd e676 94bd 7406 9ebd
000000d0: 1ce9 f63b f375 47bb 9ae4 e4bd 96bc 18bd
000000e0: dbe1 c23d 60b3 743d 1cf4 ee3d c8f2 cc3c
000000f0: 98f0 8cbc 225a 40bc f74f 8a3a cc6f dabd
00000100: 7874 183d 78d1 dc3c 317c bb3b e892 84bc
00000110: dffc 03bd 58d0 013d a104 763d 7e3b 8c3d
00000120: cdc0 a7bd 4487 c2bd 5854 9c3d c1f2 a9bd
00000130: 84fe 92bc d376 90bd 83ec 443d 443e b0bd
00000140: cb4e 4d3d cf5f 8e3d 581b 733d 6259 dfbd
00000150: e6c1 cbbd 04be 33bd f77b a4bd 3817 9dbd
00000160: d4ae acbd 6d76 f6bc 2089 74bd 5413 4a3d
00000170: 47bc dc3a 5230 c93d a258 55bd 2cfe 47bd
00000180: c2d4 ba3d 58c9 d03d 44de c5bd 5d43 aa3d
00000190: 35f8 a23d 7c73 fb3d eeed acbc aeb6 6f3d
000001a0: 6b64 dc3d 5832 c7bd ec6a 12bd 449e a73d
000001b0: 1620 8bbd 818b b6bb ec17 433d 0562 eb3d
000001c0: b45a 953d 3c73 233d 8c25 073c 8491 9c3d
000001d0: 9deb da3d 3432 1f3b 82d8 813d cbf6 f13d
000001e0: a2bf 3b3c d672 8d3c 2ea4 cfbc 38d0 95bc
000001f0: c8fe 78bd 9699 213d fb43 b6bc 2661 a8bd
00000200: ce52 acbd 549e bcbd bb46 87bd 6cbd f0bd
00000210: 0b78 6c3d 0abb dfbd 18fc b83c ad66 913d
00000220: 957c 543d 7469 c73d f62d f83d 2abf 203d
00000230: 9c1e 9e3d b024 b23c e1c5 9c3b 6670 f63c
00000240: c011 f03c 2ebd d3bd 4038 003c d4d2 223d
00000250: 0aee 45bd 7937 59bd 917c ce3d 7c4f 34bd
00000260: 42d6 a6bd 0356 6d3d b0e0 09bd 4ff5 973d
00000270: 0900 b83c e46f 8dbd bf68 5f3d e2fc d33d
00000280: 47ae d13d 04d4 9bbd 58f8 a0bc 456f ac3d
00000290: 48c8 78bd bba6 6b3d 2964 a93d 316e 53bd
000002a0: cea6 05bd 0862 c4bd b0e8 403d b615 e93d
000002b0: 1cae a03c bd28 54bd b6cd 82bd f483 be3d
000002c0: 8cd1 bf3d b0f9 aabd 7a27 0c3d b07d 16bc
000002d0: 2c04 e53d 49d7 1d3d 6364 02bb 5edb 8cbd
000002e0: 1cf4 c73d 3a4a d9bd 3684 233c 7c62 133d
000002f0: 8225 c6bd 2fec 0fbd b636 ca3c b85a d3bd
00000300: 24e2 f53d f818 0f3d efa0 303d 1ebd f4bd
00000310: edcc 4dbd 90db 383c 8fb4 c53d 5f82 06bd
00000320: dc9f e2bd 5866 debc c6fe 7cbd b9f8 e1bd
00000330: 88cc 59bd 4ef1 54bd fc02 f53d 5fc4 fb3c
00000340: d9bd f2bd 1343 42bd 1c15 ab3d e06d 173d
00000350: 29a7 b2bd 2516 8fbd 9923 b3bd 60c1 c4bb
00000360: 08dd ef3d d513 313c dafb eb3d f975 093d
00000370: 08e5 6e3d d2c4 9abd 36c7 813c 547b 273d
00000380: da10 cf3d 5a76 003e 2850 f43d 7202 c03d
00000390: 2273 9f3d 46cd 80bc 398c adbd 77b8 d83c
000003a0: 5c4a 223d 707e 7e3c 1afc f53d 56a2 923d
000003b0: 14e2 dfbd 396e 80bd 8a01 5dbc 7545 b13d
000003c0: d345 cb3d 3e8b c03d 6eb1 2a3c 94da 08bd
000003d0: f3fb d83d 70b9 6cbd 70c7 e43d 20ad 9d3d
000003e0: e2eb cb3b c481 203d 5ecb 3e3c c0fc 273b
000003f0: 60c7 43bc ff48 edbc a834 65bc a237 f4bd

fc3.bias f4 [6]
0.054101422 -0.034265228 -0.01285329 -0.11635534 0.03767323 -0.068044454
00000000: 7499 5d3d b259 0cbd 9b96 52bc b54b eebd
00000010: 3f4f 1a3d e45a 8bbd

fc1.weight f4 [64, 4]
0.27381927 0.08853507 -0.3091144 -0.23275793 -0.38271672 0.18629688 -0.2042737 -0.47186643
0.3278662 0.34953403 0.31970942 0.2507196 0.3246615 -0.3870778 0.018722475 0.16747922
-0.030185342 -0.28282917 -0.09107149 -0.2816878 -0.45097542 0.14960259 0.2903697 0.38215977
-0.19918382 0.2559861 -0.3205576 -0.033504426 0.26767057 0.33917236 -0.21496785 0.35392803
0.39597863 -0.4764946 0.30225784 -0.03661084 0.15491974 0.28934813 0.037650645 -0.11174238
-0.49272937 -0.22588027 -0.3472916 0.15910536 -0.30498487 -0.060019255 -0.20527792 -0.068220675
0.07084936 -0.4923336 0.3961686 0.15222543 0.39576572 -0.20550889 -0.08194566 -0.24551004
0.36459768 0.07722157 -0.14182615 0.433047 -0.44767708 0.20854491 0.15348154 -0.10062164
0.082686365 0.14488494 -0.057156682 -0.09337956 0.327299 -0.1268264 -0.43345755 -0.14272863
-0.29187644 0.4104926 -0.08651346 -0.057334006 0.44154382 -0.3678633 0.46523917 -0.037727356
0.1268583 -0.24164426 -0.47821254 -0.28378797 0.32819164 0.2504025 -0.43230194 -0.11439413
-0.39296162 0.17501569 0.093890965 -0.086851 -0.3441471 0.2561217 -0.13431537 -0.23009133
0.31476057 0.10086328 0.12982452 0.352265 -0.05337733 0.48544544 -0.18666804 -0.28554988
0.18539762 -0.2663532 0.085850716 -0.051231384 -0.016058564 -0.4834221 -0.08246219 0.23574066
0.21050745 -0.05530399 -0.20326835 0.07391304 -0.14183086 0.02304852 -0.13818264 -0.32983744
0.28201866 0.0057420135 0.49899727 -0.45965832 -0.36454308 0.37908983 0.2590161 -0.07449144
-0.2341227 -0.030299544 -0.03767377 0.15120405 -0.07815951 -0.11900669 0.1288845 0.04311675
0.20217532 -0.40078515 -0.30049235 -0.2542166 -0.4968167 0.38374293 0.065389216 0.45335853
-0.31799334 -0.12277806 0.30597848 -0.11842209 0.30756283 -0.34078747 -0.41249174 0.113216996
0.49416983 -0.39598686 -0.38763916 -0.3311203 0.28537184 0.37592494 -0.046100736 0.40701473
0.103327274 -0.30046195 0.38063055 0.33607185 0.029632866 -0.12646002 -0.18520367 0.39026928
-0.22259063 0.03299892 -0.24559355 0.4605708 -0.22065634 -0.14987415 0.09802163 -0.35558283
0.07002896 -0.49394155 -0.17248875 -0.4111892 -0.24295789 0.47117704 -0.2709331 -0.21821773
0.3602233 0.19946462 -0.048091233 0.007835507 0.44783705 0.3901934 0.31490594 0.28122306
0.15211034 -0.40443563 -0.45404273 -0.2239033 -0.23720974 -0.036702275 -0.06580609 0.274486
0.32726228 0.015337586 -0.10096502 -0.0447585 0.16645396 0.32286328 -0.38463193 0.40578336
0.2833597 -0.45207274 -0.42436427 -0.4409973 -0.48255795 -0.26803988 -0.043128014 -0.309973
-0.1427142 -0.015977263 0.42665356 -0.4768868 0.48496407 0.0114094615 0.32044816 -0.33980155
-0.37133765 0.22156554 -0.15108001 -0.31575108 0.21084386 -0.4950332 0.06608111 -0.45598888
0.14934862 0.42285597 0.1106171 0.39544892 0.1441952 0.017629921 0.07971269 0.34501654
0.4037863 0.07808989 0.41931713 0.24923235 -0.37537324 -0.21498436 -0.4442442 0.0061335564
-0.17309237 -0.17919046 -0.050765455 -0.3225593 -0.13170022 0.2601835 -0.047309577 0.119904935
00000000: 0a32 8c3e e051 b53d 3e44 9ebe 1858 6ebe
00000010: 72f3 c3be 9cc4 3e3e 202d 51be 7a98 f1be
00000020: 14de a73e 20f6 b23e f4b0 a33e 525e 803e
00000030: 083a a63e 102f c6be e05f 993c ac7f 2b3e
00000040: 4047 f7bc fcce 90be b083 babd 6239 90be
00000050: 40e6 e6be 6c31 193e 56ab 943e 72aa c33e
00000060: d8f6 4bbe 9c10 833e 2020 a4be f03b 09bd
00000070: 1e0c 893e 00a8 ad3e 8820 5cbe 0e36 b53e
00000080: b6bd ca3e 1af7 f3be 8ac1 9a3e 40f5 15bd
00000090: 48a3 1e3e 7025 943e 9037 1a3d 30d9 e4bd
000000a0: 0647 fcbe 284d 67be 34d0 b1be 84ec 223e
000000b0: fa26 9cbe c0d6 75bd 6034 52be 48b7 8bbd
000000c0: 7819 913d 2613 fcbe 9cd6 ca3e fce0 1b3e
000000d0: cea1 ca3e ec70 52be 20d3 a7bd fc66 7bbe
000000e0: 8cac ba3e 5826 9e3d e03a 11be 56b8 dd3e
000000f0: ee35 e5be cc8c 553e 442a 1d3e b812 cebd
00000100: 7857 a93d b85c 143e 201d 6abd c83d bfbd
00000110: bc93 a73e c8de 01be 26ee ddbe 7427 12be
00000120: d470 95be 162c d23e f82d b1bd 10d7 6abd
00000130: 0812 e23e 9458 bcbe d433 ee3e 0088 1abd
00000140: 24e7 013e 9871 77be 46d8 f4be a84c 91be
00000150: bc08 a83e c234 803e ae56 ddbe 7847 eabd
00000160: 4432 c9be 5037 333e e849 c03d f0de b1bd
00000170: 0c34 b0be 6222 833e f889 09be 109d 6bbe
00000180: 4c28 a13e 6891 ce3d b8f0 043e 145c b43e
00000190: 30a2 5abd 4e8c f83e e825 3fbe 9833 92be
000001a0: e0d8 3d3e 725f 88be 80d2 af3d 00d8 51bd
000001b0: 408d 83bc 1a83 f7be f0e1 a8bd 0066 713e
000001c0: 448f 573e 7086 62bd 9425 50be b85f 973d
000001d0: 1c3c 11be 40d0 bc3c c07f 0dbe 74e0 a8be
000001e0: c064 903e 8027 bc3b 927c ff3e 5658 ebbe
000001f0: 64a5 babe 1018 c23e c29d 843e f88e 98bd
00000200: dcbd 6fbe c036 f8bc d04f 1abd 3cd5 1a3e
00000210: 1812 a0bd c8b9 f3bd 4cfa 033e 309b 303d
00000220: 0c07 4f3e b633 cdbe 22da 99be ae28 82be
00000230: c25e febe f479 c43e c8ea 853d 9c1e e83e
00000240: 06d0 a2be 1073 fbbd 36a9 9c3e 4887 f2bd
00000250: e078 9d3e b27b aebe 1e32 d3be 50de e73d
00000260: d403 fd3e cabe cabe a478 c6be 9a88 a9be
00000270: 421c 923e 3c79 c03e 20d4 3cbd 3c64 d03e
00000280: 409d d33d 26d6 99be 02e2 c23e 9c11 ac3e
00000290: a0c0 f23c bc7e 01be 08a6 3dbe 60d1 c73e
000002a0: ccee 63be e029 073d e07c 7bbe f0cf eb3e
000002b0: bcf3 61be 9c78 19be 90bf c83d f40e b6be
000002c0: 586b 8f3d e8e5 fcbe e4a0 30be 6487 d2be
000002d0: f4c9 78be 1e3e f13e beb7 8abe 7874 5fbe
000002e0: 306f b83e 7440 4c3e 50fb 44bd 8060 003c
000002f0: e64a e53e 6ec7 c73e 5a3b a13e 78fc 8f3e
00000300: d0c2 1b3e 3012 cfbe 4a78 e8be e846 65be
00000310: 1ce7 72be 2055 16bd 58c5 86bd 6e89 8c3e
00000320: ec8e a73e 804a 7b3c c0c6 cebd b054 37bd
00000330: e872 2a3e 564e a53e 7aee c4be d6c2 cf3e
00000340: 8614 913e 1476 e7be 4646 d9be 66ca e1be
00000350: d611 f7be 863c 89be 00a7 30bd c8b4 9ebe
00000360: ac23 12be c0e2 82bc 5672 da3e 822a f4be
00000370: 364d f83e c0ee 3a3c c811 a43e 78fa adbe
00000380: f81f bebe 14e2 623e b8b4 1abe 20aa a1be
00000390: 74e7 573e fe74 fdbe 8855 873d 6077 e9be
000003a0: d8ee 183e 9480 d83e 388b e23d 4878 ca3e
000003b0: e8a7 133e a06c 903c 6840 a33d 02a6 b03e
000003c0: 14bd ce3e 98ed 9f3d bcb0 d63e c436 7f3e
000003d0: ec30 c0be dc24 5cbe fa73 e3be 00fc c83b
000003e0: 203f 31be b47d 37be 70ef 4fbd 7e26 a5be
000003f0: 6cdc 06be c636 853e b0c7 41bd b890 f53d

fc1.bias f4 [64]
0.07740915 0.16508454 -0.46331972 0.37656724 0.2298407 -0.040688574 -0.20500326 0.2145378
0.3579886 -0.120755255 -0.43210018 -0.289253 -0.46111333 0.13286728 -0.1947549 -0.39169806
0.1983726 -0.16566813 0.11127758 0.35677928 0.010432899 0.46682966 -0.13045925 0.15399343
-0.4144919 -0.33407116 0.19140202 0.3100689 -0.471456 0.4074937 -0.1939187 0.42787755
0.3757707 0.04866743 -0.41287172 0.13999224 -0.3214364 0.26980323 -0.4113167 0.34425282
0.04922706 -0.3900351 0.49684662 0.36798346 -0.062358975 -0.38240302 0.20795614 0.35934383
0.15930432 -0.0362916 0.41831124 -0.20426548 0.3130216 -0.18829376 0.40292174 -0.11157763
-0.28316975 0.03493023 -0.2216798 -0.42377704 0.33303815 0.33159184 0.46212286 -0.3541152
00000000: b088 9e3d ec0b 293e 3e38 edbe 6ccd c03e
00000010: 5c5b 6b3e 10a9 26bd 60ec 51be ccaf 5b3e
00000020: 484a b73e 884e f7bd 3c3c ddbe f818 94be
00000030: 0c17 ecbe 5c0e 083e d46d 47be a68c c8be
00000040: 3022 4b3e e8a4 29be 80e5 e33d c6ab b63e
00000050: c0ee 2a3c 4c04 ef3e 1c97 05be 74b0 1d3e
00000060: 4838 d4be 600b abbe e4fe 433e 5ac1 9e3e
00000070: ae62 f1be 04a3 d03e a092 46be c412 db3e
00000080: 0465 c03e 8057 473d ec63 d3be 205a 0f3e
00000090: 5093 a4be a623 8a3e 1a98 d2be e841 b03e
000000a0: 50a2 493d aeb2 c7be ae62 fe3e 5468 bc3e
000000b0: 206c 7fbd 54ca c3be 74f2 543e eafb b73e
000000c0: ac20 233e 80a6 14bd e42c d63e f82a 51be
000000d0: 5e44 a03e 14d0 40be c24b ce3e d082 e4bd
000000e0: a0fb 90be 0013 0f3d 0800 63be 4ef9 d8be
000000f0: fa83 aa3e 68c6 a93e 5e9b ec3e 964e b5be

fc2.weight f4 [64, 64]
-0.032095492 0.013287425 -0.032371745 -0.05261132 0.03781885 -0.0393153 0.012136564 -0.044462726
-0.05311571 -0.09570858 -0.02589862 -0.08332552 -0.09630041 0.075337246 0.08078268 0.05307071
-0.07728824 -0.04174131 -0.03084208 0.06477888 0.033993408 -0.09960663 0.0405664 0.024651974
-0.085365504 0.10259907 0.015347391 0.013081446 -0.019545197 0.090951964 -0.07896657 -0.008567095
-0.06104037 0.097577676 -0.08064607 -0.09046936 0.0061879456 -0.035886645 -0.00041165948 -0.06536275
0.011837229 -0.027981251 0.025209472 -0.11190462 -0.0033189356 -0.0828823 -0.091828 -0.014589146
0.021118894 -0.077630535 -0.012872264 -0.12007202 0.10853323 -0.038869947 -0.036210895 0.07776688
-0.1064062 -0.12140116 -0.024868757 0.027995095 0.080328494 -0.09722784 -0.0650316 -0.06112671
0.08974977 -0.122201815 -0.07723342 -0.039855406 -0.09679493 0.05616072 -0.07947086 0.06472476
0.06830847 0.08596741 0.008870289 -0.10404906 0.0419631 -0.10586578 0.10005309 0.102888554
-0.109604195 -0.052730188 -0.08408883 0.048813105 -0.038296998 0.050455034 -0.042831525 0.08178584
-0.106490284 -0.086838216 -0.02737534 -0.00740619 0.014970928 -0.09071836 0.111918315 0.0761732
-0.10998133 0.0035148114 0.030376941 -0.08428691 -0.10355544 -0.022478461 -0.029066548 -0.0401192
0.03743896 -0.0773859 -0.08776654 -0.014147118 0.029748157 -0.08230807 -0.06958915 -0.077559456
-0.06646687 0.12197657 -0.028143391 0.01947537 0.012554839 0.08102137 -0.083484724 -0.06802502
0.01730591 0.08434762 -0.12403737 0.00019745529 -0.038331673 0.027923137 0.01888962 0.052172244
0.12206203 0.07277252 0.088452905 -0.036777586 0.009449288 0.1066072 -0.08668943 -0.018256947
0.021400034 0.02356784 0.024959132 -0.10312921 -0.111248866 -0.06872907 -0.07258333 -0.015321672
0.015271008 -0.072915465 -0.07364446 -0.04678102 -0.011111438 -0.0990902 0.014862657 -0.01124014
0.08631311 0.12322268 -0.08811732 0.053749472 -0.12152144 0.0483139 0.029040202 0.022800148
-0.090776086 -0.017000288 0.06762296 -0.063326076 -0.013378277 0.056561008 0.094059214 0.006749496
0.020613343 0.10531345 0.030351073 -0.049841166 0.12403241 -0.005126819 0.09204984 -0.030718416
-0.1037842 0.088847995 0.030093506 -0.09388459 -0.06542234 -0.019813478 0.08186528 -0.09365247
0.11837186 0.07421282 0.026475847 -0.12056491 -0.024082184 -0.060586825 0.10453741 -0.01800479
-0.076146245 0.090487316 -0.10680625 0.06470382 0.043651804 0.09087607 0.097347096 0.052456185
-0.006553963 0.02307704 0.028410375 0.02082397 0.037644178 0.09913105 -0.088743255 0.005888492
0.06021312 -0.11770521 -0.100832194 0.025312454 -0.030735224 -0.11083223 0.08919604 0.0090446025
0.009855449 0.09758967 0.059706226 0.08139646 -0.11997612 0.073428065 0.05705549 -0.026823357
-0.041090608 -0.12271348 -0.043490946 -0.050264254 -0.017204091 0.03628421 -0.12122704 -0.0016712099
-0.0710208 -0.05893977 0.036670372 -0.11204898 0.048309177 -0.10999328 -0.119886234 0.07172458
-0.03891982 0.08759874 0.019103602 -0.07478899 0.024356991 0.12128942 0.10003181 0.08642663
0.007477626 -0.06546202 -0.0017289966 -0.010633081 0.0793207 0.015322417 0.07460372 -0.121060416
00000000: 9076 03bd 80b3 593c 3c98 04bd f87e 57bd
00000010: f0e7 1a3d 1409 21bd 70d8 463c 8c1e 36bd
00000020: dc8f 59bd dc02 c4bd 5829 d4bc 92a6 aabd
00000030: 2639 c5bd 6a4a 9a3d 6471 a53d ac60 593d
00000040: 4c49 9ebd f0f8 2abd 88a8 fcbc caaa 843d
00000050: ac3c 0b3d 90fe cbbd f428 263d f0f2 c93c
00000060: 1cd4 aebd 761f d23d a073 7b3c 9053 563c
00000070: 401d a0bc 0645 ba3d 3ab9 a1bd 005d 0cbc
00000080: 7805 7abd ced6 c73d c429 a5bd 0048 b9bd
00000090: 40c4 ca3b e0fd 12bd 00d4 d7b9 e8dc 85bd
000000a0: f0f0 413c f038 e5bc 1884 ce3c 402e e5bd
000000b0: 8082 59bb 32be a9bd 5210 bcbd 5007 6fbc
000000c0: 8801 ad3c c2fc 9ebd 30e6 52bc 52e8 f5bd
000000d0: ac46 de3d 1836 1fbd e051 14bd 3e44 9f3d
000000e0: 7eeb d9bd 2ca1 f8bd 90b9 cbbc f855 e53c
000000f0: 4483 a43d 641f c7bd 4a2f 85bd 0060 7abd
00000100: bace b73d f244 fabd 8e2c 9ebd 6c3f 23bd
00000110: 6c3c c6bd c808 663d 9ec1 a2bd 6a8e 843d
00000120: 50e5 8b3d ae0f b03d b054 113c ac17 d5bd
00000130: 80e1 2b3d 28d0 d8bd a2e8 cc3d 3cb7 d23d
00000140: 2a78 e0bd 9cfb 57bd c436 acbd 40f0 473d
00000150: 50dd 1cbd f0a9 4e3d 1c70 2fbd 567f a73d
00000160: 9417 dabd 3cd8 b1bd 4042 e0bc a0af f2bb
00000170: a048 753c 8cca b9bd 6e35 e53d b200 9c3d
00000180: e43d e1bd c058 663b 10d9 f83c 9e9e acbd
00000190: e014 d4bd c024 b8bc f81c eebc 0854 24bd
000001a0: 9859 193d 807c 9ebd f2be b3bd 50c9 67bc
000001b0: 68b2 f33c 2291 a8bd c284 8ebd 7ed7 9ebd
000001c0: c81f 88bd dace f93d f88c e6bc d08a 9f3c
000001d0: d0b2 4d3c 88ee a53d 0afa aabd b450 8bbd
000001e0: 20c5 8d3c 72be ac3d 4e07 febd 000c 4f39
000001f0: ac01 1dbd 10bf e43c 68be 9a3c 90b2 553d
00000200: a8fb f93d c209 953d cc26 b53d 18a4 16bd
00000210: 30d1 1a3c e054 da3d 3a8a b1bd 988f 95bc
00000220: 204f af3c 5811 c13c 1877 cc3c 6835 d3bd
00000230: 72d6 e3bd d4c1 8cbd 92a6 94bd c007 7bbc
00000240: 4033 7a3c b454 95bd e8d2 96bd 749d 3fbd
00000250: c00c 36bc ceef cabd 8082 733c 9028 38bc
00000260: eec4 b03d 2c5c fc3d da76 b4bd 6828 5c3d
00000270: 3ce0 f8bd cce4 453d b8e5 ed3c 60c7 ba3c
00000280: d0e8 b9bd 3044 8bbc e87d 8a3d 1ab1 81bd
00000290: 9030 5bbc 84ac 673d 1ea2 c03d e02a dd3b
000002a0: 50dd a83c 94ae d73d d0a2 f83c 4026 4cbd
000002b0: b404 fe3d e0fe a7bb a084 bc3d 30a5 fbbc
000002c0: d08c d4bd f0f5 b53d a886 f63c 9046 c0bd
000002d0: 26fc 85bd e04f a2bc fca8 a73d decc bfbd
000002e0: f26c f23d e4fc 973d e0e3 d83c bcea f6bd
000002f0: 0048 c5bc e429 78bd b617 d63d c87e 93bc
00000300: 90f2 9bbd 6a51 b93d 3cbd dabd 7083 843d
00000310: 3ccc 323d 3c1d ba3d ea5d c73d 4cdc 563d
00000320: a0c2 d6bb 100c bd3c e0bc e83c 0897 aa3c
00000330: c830 1a3d 3805 cb3d 06bf b5bd 40f4 c03b
00000340: 08a2 763d 6e0f f1bd 1c81 cebd 105c cf3c
00000350: 70c8 fbbc 02fc e2bd 6aac b63d d02f 143c
00000360: c078 213c 18dd c73d 848e 743d 30b3 a63d
00000370: 0ab6 f5bd 7461 963d 04b3 693d a8bc dbbc
00000380: a04e 28bd 3451 fbbd 9023 32bd e4e1 4dbd
00000390: 98ef 8cbc c09e 143d e245 f8bd 800c dbba
000003a0: 5a73 91bd d46a 71bd ac33 163d f079 e5bd
000003b0: d8df 453d 2844 e1bd ea86 f5bd 56e4 923d
000003c0: 646a 1fbd f866 b33d 287f 9c3c f82a 99bd
000003d0: 5088 c73c 9666 f83d 7add cc3d 7200 b13d
000003e0: e006 f53b f410 86bd 809f e2ba 6036 2ebc
000003f0: e472 a23d e00a 7b3c d6c9 983d 86ee f7bd

fc2.bias f4 [64]
-0.015086085 -0.05362846 0.10952143 0.120287105 0.0047345012 0.017101407 0.11051202 -0.0033465177
-0.01993315 0.10960464 -0.11165753 -0.052690163 0.06079106 0.008158937 0.11369863 0.06852631
0.020161033 0.09921619 -0.019700035 0.011797875 0.09902948 -0.040638268 0.06459668 0.11564067
0.0647068 -0.08732672 0.017412007 -0.07759477 0.034966975 -0.055761665 0.006027445 -0.043799773
-0.10657132 0.076169536 -0.07228975 0.0050110817 0.07239303 0.08086789 0.01689589 0.051421613
-0.08792579 0.057996616 -0.006227538 -0.07510817 -0.035624355 -0.08727412 0.018251106 0.034888297
0.0049047023 -0.022199929 0.115419105 -0.11486508 -0.045267344 0.057487562 0.043678105 0.022788748
-0.11902647 -0.034607172 -0.027645543 -0.025914758 -0.113120526 0.061424717 0.12207526 0.024629295
00000000: a02b 77bc 84a9 5bbd c64c e03d 1659 f63d
00000010: e023 9b3b 4018 8c3c 2054 e23d 4051 5bbb
00000020: d84a a3bc 6678 e03d b4ac e4bd a4d1 57bd
00000030: 0c00 793d 10ad 053c d4da e83d 8657 8c3d
00000040: c028 a53c dc31 cb3d f861 a1bc e04b 413c
00000050: f8cf ca3d 5074 26bd 444b 843d 04d5 ec3d
00000060: 0085 843d 5ad8 b2bd a0a3 8e3c 02ea 9ebd
00000070: 8839 0f3d 5866 64bd e081 c53b 6467 33bd
00000080: 1042 dabd c6fe 9b3d a60c 94bd 0034 a43b
00000090: cc42 943d 109e a53d 4069 8a3c 789f 523d
000000a0: 7012 b4bd dc8d 6d3d 6010 ccbb 50d2 99bd
000000b0: d8ea 11bd c6bc b2bd 5883 953c 08e7 0e3d
000000c0: a0b7 a03b a0dc b5bc da60 ec3d 623e ebbd
000000d0: 406a 39bd 1478 6b3d d0e7 323d 78af ba3c
000000e0: 26c4 f3bd 40c0 0dbd e878 e2bc 304b d4bc
000000f0: bcab e7bd 7c98 7b3d 9802 fa3d 60c3 c93c

fc3.weight f4 [6, 64]
-0.07531284 0.013032556 -0.050621495 0.069406524 0.061935022 0.021497354 -0.05156505 0.09986548
0.09114705 0.02984415 0.09159641 0.07352793 0.116579965 -0.09286027 -0.1221713 -0.0420423
0.03187266 0.042513832 0.033392295 -0.06290573 -0.024486601 0.081516534 -0.049215972 0.10673961
-0.05033569 0.09628339 0.017302468 -0.016494662 0.069100514 0.023254573 -0.072319046 -0.11956303
-0.07279429 0.093236685 -0.04932256 0.00616242 -0.106632486 -0.008743271 0.08387008 0.11129968
0.015807882 -0.0675727 -0.019956395 0.049245372 -0.0380729 0.117868885 0.06079161 0.115917325
0.029510528 -0.060742974 -0.07010105 -0.077160746 0.006285429 -0.0051733553 -0.11181204 -0.04159008
0.09571974 0.060806796 0.1165991 0.02501811 -0.017204568 -0.008535907 -0.0012320131 -0.10665855
0.03722045 0.026955351 0.004410416 -0.01780212 -0.03564772 0.031692833 0.060820878 0.06902583
-0.082514286 -0.09261517 0.07223347 -0.08375941 -0.021349445 -0.06468889 0.044363618 -0.08713977
0.046608612 0.06624921 0.05935225 -0.1090572 -0.10181339 -0.046460435 -0.07948403 -0.07670444
-0.07883684 -0.03379546 -0.059701085 0.04893656 0.00048550963 0.096140504 -0.046882004 -0.04882638
0.08761844 0.099124014 -0.096615344 0.07970923 0.07602273 0.11849557 -0.02441737 0.058049142
0.1132313 -0.09726399 -0.0357465 0.08184484 -0.071894586 -0.00894551 0.045695752 0.1109803
0.06922902 0.039904818 0.0055693984 0.076449424 0.10343596 0.006511748 0.05987917 0.1205734
0.007920742 0.013428658 -0.028457046 -0.018287763 -0.060789853 0.03627646 -0.025464848 -0.082216546
-0.08414231 -0.09209886 -0.06769043 -0.119810596 0.054001927 -0.10939123 0.021654412 0.07128623
0.051324412 0.09905812 0.116942406 0.03920956 0.073606744 0.0208361 0.0006593913 0.028483137
0.02568753 -0.106892765 0.007825911 0.039751843 -0.05187586 -0.0557134 0.09864138 -0.044021115
-0.080882624 0.054084733 -0.033661544 0.07343869 0.020585015 -0.071807474 0.054974794 0.10350968
0.09857233 -0.080084205 -0.01964967 0.08039226 -0.064720735 0.052207664 0.07930747 -0.052779198
-0.033109218 -0.095890105 0.047096908 0.11381094 0.015566066 -0.055399492 -0.066112876 0.08889738
0.08967763 -0.08348405 0.031089291 -0.00918524 0.10812305 0.03866364 -0.0057392567 -0.07005529
0.09383063 -0.11018363 0.0067483634 0.035982594 -0.09675123 -0.038978174 0.021157458 -0.103200376
0.120060235 0.03493592 0.041167557 -0.12196311 -0.054635033 0.0112828165 0.09530038 -0.033338293
-0.11100297 -0.02900125 -0.06692836 -0.11261444 -0.05745481 -0.05502245 0.11496389 0.02907072
-0.12280668 -0.051516235 0.08353636 0.03697002 -0.09185134 -0.07297596 -0.09210661 -0.0060044974
0.11408076 0.006298259 0.11522646 0.032488674 0.05642046 -0.07902959 0.012285411 0.0408891
0.09658308 0.120201424 0.11929351 0.089230135 0.0731101 -0.022175342 -0.08875607 0.025109157
0.03559044 0.015533075 0.12010975 0.071598694 -0.114125505 -0.06698556 -0.016325817 0.08171274
0.09446238 0.09401558 0.0057618767 -0.033411577 0.10165942 -0.060833305 0.107277885 0.0740577
0.0016568899 0.034316808 0.007854521 0.0025632828 -0.01194939 -0.034217715 -0.017983302 -0.119246736
00000000: 9e3d 9abd 8086 553c 7c58 4fbd 0225 8e3d
00000010: 94af 7d3d 381b b03c e035 53bd 4686 cc3d
00000020: 4eab ba3d b87b f43c e696 bb3d d095 963d
00000030: 7ac1 ee3d 862d bebd f234 fabd 8c34 2cbd
00000040: e88c 023d fc22 2e3d 5cc6 083d b8d4 80bd
00000050: 2098 c8bc 24f2 a63d b096 49bd 4c9a da3d
00000060: cc2c 4ebd 3a30 c53d e8bd 8d3c d01f 87bc
00000070: 9284 8d3d 6080 be3c 021c 94bd 76dd f4bd
00000080: 2c15 95bd e0f2 be3d 7406 4abd 20ee c93b
00000090: 2262 dabd f03f 0fbc 14c4 ab3d 16f1 e33d
000000a0: 887f 813c 8e63 8abd 987b a3bc 84b5 493d
000000b0: 54f2 1bbd 3e65 f13d a000 793d 1066 ed3d
000000c0: 10c0 f13c a0cd 78bd 2491 8fbd 7406 9ebd
000000d0: 00f6 cd3b 4085 a9bb b6fd e4bd 5c5a 2abd
000000e0: b608 c43d 8c10 793d 82cb ee3d c8f2 cc3c
000000f0: 98f0 8cbc 30da 0bbc 807b a1ba cc6f dabd
00000100: 7874 183d 78d1 dc3c 4085 903b c0d5 91bc
00000110: 5803 12bd 58d0 013d 501f 793d 6a5d 8d3d
00000120: 40fd a8bd 06ad bdbd 24ef 933d 0e8a abbd
00000130: 08e5 aebc 9c7b 84bd a0b6 353d 5676 b2bd
00000140: ace8 3e3d aaad 873d 581b 733d 6259 dfbd
00000150: 8a83 d0bd 4c4d 3ebd 86c8 a2bd 3817 9dbd
00000160: 3675 a1bd 1c6d 0abd 2089 74bd b471 483d
00000170: 008c fe39 50e5 c43d 5807 40bd 2cfe 47bd
00000180: 4c71 b33d 8801 cb3d 44de c5bd 983e a33d
00000190: ceb1 9b3d cead f23d f006 c8bc f0c4 6d3d
000001a0: d0e5 e73d 5832 c7bd ec6a 12bd 449e a73d
000001b0: 783d 93bd 3090 12bc 782b 3b3d a449 e33d
000001c0: f2c7 8d3d 3c73 233d 807f b63b 8491 9c3d
000001d0: 3cd6 d33d 8060 d53b dc43 753d 30ef f63d
000001e0: 00c6 013c e003 5c3c c01e e9bc 38d0 95bc
000001f0: c8fe 78bd a096 143d a89b d0bc 2661 a8bd
00000200: ce52 acbd 549e bcbd 48a1 8abd 425f f5bd
00000210: 2031 5d3d 8208 e0bd 9864 b13c 84fe 913d
00000220: 8c39 523d fcde ca3d 807f ef3d 349a 203d
00000230: 22bf 963d 78b0 aa3c 00db 2c3a 7855 e93c
00000240: a86e d23c 98ea dabd 4038 003c d4d2 223d
00000250: c87b 54bd bc33 64bd 7e04 ca3d 7c4f 34bd
00000260: caa5 a5bd f487 5d3d b0e0 09bd 0667 963d
00000270: e8a1 a83c cc0f 93bd 402d 613d e2fc d33d
00000280: 4ae0 c93d 3003 a4bd 58f8 a0bc b2a4 a43d
00000290: 4e8c 84bd b4d7 553d f46b a23d 002f 58bd
000002a0: 889d 07bd 0862 c4bd b0e8 403d b615 e93d
000002b0: d008 7f3c 94ea 62bd 3066 87bd d40f b63d
000002c0: e8a8 b73d b0f9 aabd f8ae fe3c b07d 16bc
000002d0: 9e6f dd3d c45d 1e3d 6010 bcbb 2679 8fbd
000002e0: 462a c03d f4a7 e1bd 6021 dd3b 7c62 133d
000002f0: 8225 c6bd 94a7 1fbd 6852 ad3c b85a d3bd
00000300: 24e2 f53d f818 0f3d 509f 283d ccc7 f9bd
00000310: fcc8 5fbd 90db 383c d82c c33d bc8d 08bd
00000320: 8655 e3bd 0894 edbc bc11 89bd 66a2 e6bd
00000330: bc55 6bbd 385f 61bd 3072 eb3d b825 ee3c
00000340: 1282 fbbd b002 53bd 1c15 ab3d e06d 173d
00000350: 8e1c bcbd 6c74 95bd 64a2 bcbd 60c1 c4bb
00000360: 2ca3 e93d a061 ce3b dafb eb3d d812 053d
00000370: 2419 673d 44da a1bd c048 493c 547b 273d
00000380: 5acd c53d 2a2c f63d 2850 f43d 4abe b63d
00000390: c0ba 953d 10a9 b5bc bec5 b5bd b8b1 cd3c
000003a0: 48c7 113d 707e 7e3c 1afc f53d 56a2 923d
000003b0: a2ba e9bd ba2f 89bd b8bd 85bc 0259 a73d
000003c0: 7e75 c13d 3e8b c03d 20ce bc3b 94da 08bd
000003d0: d032 d03d 582c 79bd 82b4 db3d 90ab 973d
000003e0: 002c d93a c88f 0c3d 40b0 003c c0fc 273b
000003f0: 60c7 43bc e027 0cbd b851 93bc a237 f4bd

fc3.bias f4 [6]
0.053155884 -0.03770782 -0.016747877 -0.121113494 0.033457294 -0.072814405
00000000: fcb9 593d 8473 1abd d832 89bc 5a0a f8bd
00000010: 840a 093d b81f 95bd
