saved_models/dqn_best_model_episode_14.pt (torch, 87115 bytes, 24 tensors)

fc1.weight f4 [64, 4]
-0.28792024 -0.3217064 -0.23122227 -0.2195707 -0.17606351 -0.33507842 0.45123476 -0.060660068
-0.0959068 0.38845628 -0.47702122 0.32711145 -0.28493977 0.42750785 0.08569873 0.40632522
0.4300755 0.16476198 -0.29454648 0.21160977 -0.44994307 0.08730519 0.19835633 -0.10459131
-0.45310998 -0.4884284 0.42013323 -0.48733282 0.48828045 -0.3029386 -0.25037736 -0.4002482
-0.10463277 0.23089093 -0.10596218 0.4425458 -0.014552355 -0.14549166 -0.05244702 -0.35310566
-0.05322506 0.050603338 0.2523035 0.05332586 -0.3826846 -0.28101546 -0.3254227 -0.0732736
0.22776285 0.38454556 -0.3392794 -0.39919335 -0.08204377 0.28932512 0.31479472 -0.21506813
0.33520636 -0.23398519 0.120248534 -0.46400276 -0.061449274 0.14920129 -0.1360322 -0.15078524
-0.46809518 -0.043873217 0.23490304 -0.37045622 -0.32832426 0.044277783 -0.34633422 -0.39709848
-0.0780928 0.29896528 -0.11466264 0.23116225 0.19099103 0.4619728 -0.48144922 0.4460223
0.39146712 -0.4443739 0.28614068 -0.1260505 0.030794758 -0.21493076 0.45010042 0.38848323
0.2995718 0.28156897 -0.25929368 0.16529566 -0.24505419 -0.39946073 -0.108426034 0.0915127
0.09642547 0.03288485 -0.079005204 0.40631393 -0.2911867 -0.11197233 0.27069628 -0.4877761
-0.18487483 0.15766987 0.23183817 0.3302507 0.45778894 -0.0029897722 0.088363074 -0.3196895
0.48735335 -0.13976005 -0.17071803 0.37633073 0.118233144 -0.1374215 0.31752092 -0.35695437
-0.3784512 -0.41646445 0.10685616 0.36252218 -0.47229195 0.09179271 -0.3903278 -0.21449834
-0.29849857 -0.102273464 0.02843374 -0.45153028 -0.043600127 0.36557326 -0.023400452 -0.43356735
-0.15604602 -0.23413287 -0.36692733 0.49171716 -0.35498485 0.3964915 -0.43907052 0.1361019
0.20060083 -0.39202738 0.24831004 0.29193556 0.058541458 -0.10756735 0.09277816 -0.09155087
0.44275558 -0.28477338 0.38586548 -0.33959818 0.058935087 0.056257296 -0.23140639 -0.17542022
-0.08063051 0.28703874 0.4665062 -0.29789045 0.21134113 -0.4867639 -0.04474738 0.17170663
-0.22724105 0.41304606 0.22179729 -0.36471462 0.14764836 0.23438165 0.2986382 -0.2529539
-0.4181425 -0.47840947 -0.34304684 -0.32869524 0.4150801 0.38569847 0.08683492 -0.106460385
-0.3144845 -0.18317325 0.23929965 0.397887 -0.108238116 0.37075356 -0.00999338 -0.068058066
-0.26092356 -0.17152506 -0.4559406 -0.44646692 -0.27426767 -0.28832716 0.025628865 -0.33973736
0.08296236 0.19354512 0.11661971 0.17975657 -0.3239174 -0.1574586 -0.021281421 -0.30767435
0.26870295 0.37950808 0.39413553 -0.49345726 -0.3179228 -0.035036314 0.093511224 0.23433009
0.25487825 -0.15577632 -0.09300651 0.24918932 -0.28169125 0.1925784 -0.40752214 -0.34459668
-0.38309225 0.018464372 0.4131835 0.30197564 -0.054670885 0.36510444 -0.45784166 -0.45345622
-0.22068882 -0.19512157 0.37366766 -0.023259617 -0.46132058 0.33315587 -0.3052224 -0.24968499
-0.08121362 -0.44193757 -0.28098863 0.21125412 0.41401124 0.18765341 -0.14092009 0.11131753
0.12972252 0.4338288 -0.018395405 0.26370686 -0.13943112 -0.29048544 -0.32538664 0.046491683
00000000: 486a 93be b4b6 a4be 88c5 6cbe 24d7 60be
00000010: fe49 34be 668f abbe 3e08 e73e b176 78bd
00000020: c96a c4bd bee3 c63e 203c f4be 277b a73e
00000030: a0e3 91be 4fe2 da3e d182 af3d dc09 d03e
00000040: db32 dc3e 5db7 283e ccce 96be 3bb0 583e
00000050: f05e e6be 10cd b23d ec1d 4b3e f833 d6bd
00000060: 08fe e7be 4a13 fabe b41b d73e b083 f9be
00000070: e5ff f93e c51a 9bbe 7631 80be 55ed ccbe
00000080: b549 d6bd ac6e 6c3e b302 d9bd 5d95 e23e
00000090: 006d 6ebc c4fb 14be b0d2 56bd 44ca b4be
000000a0: 8502 5abd 7245 4f3d ed2d 813e 386c 5a3d
000000b0: 3cef c3be 42e1 8fbe ce9d a6be 7810 96bd
000000c0: aa3a 693e 28e3 c43e 08b6 adbe 1263 ccbe
000000d0: 9006 a8bd 6c22 943e c62c a13e d23a 5cbe
000000e0: 2ba0 ab3e d099 6fbe dd44 f63d c591 edbe
000000f0: 3cb2 7bbd 39c8 183e 064c 0bbe 7267 1abe
00000100: 2caa efbe 67b4 33bd 6c8a 703e 70ac bdbe
00000110: 1e1a a8be 9f5c 353d b852 b1be 7e50 cbbe
00000120: 1eef 9fbd fa11 993e 3fd4 eabd ccb5 6c3e
00000130: 2793 433e b387 ec3e 8380 f6be 095d e43e
00000140: 616e c83e fa84 e3be 0881 923e 6213 01be
00000150: 4a45 fc3c cf16 5cbe 9073 e63e 46e7 c63e
00000160: 7a61 993e cf29 903e 24c2 84be 4443 293e
00000170: 7cef 7abe 1e86 ccbe 780e debd 036b bb3d
00000180: b87a c53d 44b2 063d 7bcd a1bd 6108 d03e
00000190: 6c16 95be c051 e5bd b498 8a3e cabd f9be
000001a0: d44f 3dbe 3674 213e fc66 6d3e 9f16 a93e
000001b0: 5063 ea3e 0ef0 43bb b3f7 b43d 58ae a3be
000001c0: 6186 f93e 421d 0fbe b5d0 2ebe 6cae c03e
000001d0: 3824 f23d 39b8 0cbe 1a92 a23e b9c2 b6be
000001e0: 5bc4 c1be d43a d5be 67d7 da3d 829c b93e
000001f0: 40d0 f1be d1fd bb3d 0cd9 c7be 74a5 5bbe
00000200: ced4 98be c074 d1bd e0ed e83c fa2e e7be
00000210: 0c96 32bd 6b2c bb3e 4eb2 bfbc 8afc ddbe
00000220: 87ca 1fbe 87c0 6fbe e6dd bbbe 5ac2 fb3e
00000230: 93c0 b5be ef00 cb3e dacd e0be 4c5e 0b3e
00000240: 4e6a 4d3e d0b7 c8be fd44 7e3e 9478 953e
00000250: 2bc9 6f3d 454c dcbd 7a02 be3d 067f bbbd
00000260: dcb0 e23e d1cd 91be 2990 c53e d0df adbe
00000270: eb65 713d 0d6e 663d ccf5 6cbe 5ca1 33be
00000280: 9c21 a5bd bef6 923e e7d9 ee3e 1985 98be
00000290: cf69 583e 1e39 f9be 0749 37bd ddd3 2f3e
000002a0: e1b1 68be c67a d33e d41e 633e e0bb babe
000002b0: 2231 173e be01 703e 1be7 983e 2c83 81be
000002c0: c616 d6be 16f2 f4be d6a3 afbe be4a a8be
000002d0: 6185 d43e 457a c53e 82d6 b13d e707 dabd
000002e0: 1d04 a1be c591 3bbe f80a 753e d8b7 cb3e
000002f0: f2ab ddbd 69d3 bd3e 46bb 23bc 0762 8bbd
00000300: c697 85be 44a4 2fbe 0c71 e9be 5097 e4be
00000310: d06c 8cbe 9e9f 93be a0f3 d13c 0ef2 adbe
00000320: 2be8 a93d b130 463e 51d6 ee3d 1b12 383e
00000330: 80d8 a5be d43c 21be 6056 aebc 7e87 9dbe
00000340: 6f93 893e e24e c23e 22cc c93e 6ea6 fcbe
00000350: c7c6 a2be 3d82 0fbd d082 bf3d 3af4 6f3e
00000360: 677f 823e d483 1fbe 327a bebd 7c2b 7f3e
00000370: d639 90be 4633 453e bea6 d0be fa6e b0be
00000380: ab24 c4be 9842 973c ca8c d33e 8d9c 9a3e
00000390: 94ee 5fbd f8ee ba3e 396a eabe 6a2b e8be
000003a0: 40fc 61be f3cd 47be 5e51 bf3e f48a bebc
000003b0: 3632 ecbe 6893 aa3e 1c46 9cbe 6cad 7fbe
000003c0: 5453 a6bd a445 e2be bedd 8fbe 0053 583e
000003d0: 48f9 d33e 3728 403e 5b4d 10be 72fa e33d
000003e0: fbd5 043e cf1e de3e f6b1 96bc 9604 873e
000003f0: 08c7 0ebe 82ba 94be 1499 a6be 106e 3e3d

fc1.bias f4 [64]
-0.4647414 0.012470635 -0.11662389 0.10376051 -0.34927058 -0.38105053 -0.114212036 -0.30692118
0.23078169 -0.47285503 -0.36050257 -0.45417857 -0.23506825 -0.18856986 0.24832225 0.18461084
0.251888 0.39894235 0.3942531 0.123513974 -0.35707158 0.057906255 -0.30072594 -0.11002243
-0.3645803 -0.44307208 -0.23391363 0.48577952 -0.46842977 0.41355282 0.09129304 -0.11685424
-0.14084715 0.0991732 -0.40402097 0.39720145 0.45035607 -0.33930272 -0.12314761 -0.14667575
-0.4560645 0.20153707 0.13508335 0.45846093 0.38857788 0.07025798 0.43332353 0.090551056
0.12483251 -0.020531476 -0.4890034 -0.4692945 0.089180656 -0.17603886 0.3224228 -0.3536216
0.37747526 0.314041 0.47302628 0.4031121 0.08013782 -0.25485343 -0.45222545 -0.26875764
00000000: 96f2 edbe a251 4c3c 82d8 eebd 6480 d43d
00000010: 98d3 b2be 0e19 c3be 00e8 e9bd c624 9dbe
00000020: 0952 6c3e 0e1a f2be cb93 b8be 188a e8be
00000030: bbb5 70be 7518 41be 3048 7e3e a00a 3d3e
00000040: 77f7 803e 2c42 cc3e 8bdb c93e e5f4 fc3d
00000050: 16d2 b6be 1c2f 6d3d c0f8 99be 7153 e1bd
00000060: 45aa babe 58da e2be 0e87 6fbe 18b8 f83e
00000070: 07d6 efbe 32bd d33e d8f7 ba3d 4751 efbd
00000080: 3c3a 10be 521b cb3d d6db cebe fd5d cb3e
00000090: 1295 e63e 16b9 adbe d034 fcbd 2b32 16be
000000a0: 4981 e9be bc5f 4e3e 4a53 0a3e 64bb ea3e
000000b0: aef3 c63e 6ae3 8f3d 95dc dd3e d572 b93d
000000c0: 30a8 ff3d a031 a8bc a75e fabe 5e47 f0be
000000d0: 59a4 b63d 8843 34be 9a14 a53e e40d b5be
000000e0: 7044 c13e fbc9 a03e 8030 f23e b664 ce3e
000000f0: 4c1f a43d 267c 82be 188a e7be 9a9a 89be

fc2.weight f4 [64, 64]
-0.104110464 0.075578734 -0.01617008 -0.091839805 -0.015885085 0.046261236 0.09744477 -0.10776513
-0.10596657 0.07784429 0.0047127283 0.033600688 -0.048209354 -0.019827312 0.11188819 -0.04257469
0.005035705 -0.116936944 0.11314955 0.08657616 0.0049308864 0.12005143 0.09616836 0.02288053
-0.00069021183 0.039522782 0.12193479 0.060247116 0.0633917 0.010501755 0.11939428 0.032713514
0.03342992 -0.07293597 -0.099615045 -0.007716996 -0.0044375127 0.045713656 -0.10995848 -0.08841258
0.018289782 -0.08892113 0.04659108 -0.016300071 0.12321398 -0.056309085 0.015891587 -0.07232115
0.08576891 0.11601132 -0.064191 -0.009079695 0.06067279 -0.035573475 -0.08954591 -0.0019300743
0.10976505 0.10934282 -0.10169617 0.11850861 -0.042458426 0.0032022728 0.08426366 -0.08180846
-0.05538751 0.020531312 0.04604125 0.082008705 -0.021864932 -0.06601557 0.07079926 -0.086581506
0.033724587 0.026357755 -0.09719053 0.048935115 0.06326446 -0.070174225 -0.0030303388 0.11708852
-0.0018243971 -0.007232423 0.01776234 0.044847462 -0.10334448 -0.074534334 -0.024490053 -0.111305386
-0.12048725 -0.110602245 -0.07628328 0.03523578 -0.0542221 -0.06655843 0.06473592 -0.07049132
-0.049626216 -0.090964995 0.0064477623 -0.020164212 -0.052205067 -0.082656205 0.05434131 0.0054504676
0.089522034 -0.0033909003 -0.049119584 0.0694297 0.094152436 0.03505584 0.09736262 0.09277615
0.01916425 -0.0855885 -0.013651028 0.061733365 0.09886798 -0.07540186 -0.107099585 -0.07006917
0.0627161 0.07071699 0.10627842 0.12240539 -0.07327202 -0.015594121 -0.0823668 -0.0046979636
-0.11466409 -0.012541384 0.010955509 0.005348265 -0.10828324 0.02852188 -0.076336354 -0.03994891
-0.037288208 -0.072505236 0.12446065 0.04081665 -0.03186749 -0.024554186 -0.09486899 -0.023191828
-0.083987586 0.03860118 0.07737272 -0.09234335 0.07791629 -0.037225746 -0.05509613 0.03893479
0.11787931 -0.094751775 -0.0122515345 -0.11826254 -0.08665498 0.002692632 0.027844716 -0.11861382
0.08673833 -0.08509464 0.10411451 0.03648948 -0.056947127 0.05815153 -0.07038886 0.0029559927
0.042785045 -0.026769506 0.04464377 0.052343737 -0.06867403 0.00059024163 0.1040182 -0.10965744
-0.031756192 0.011139646 -0.018238718 0.072669655 0.111182354 0.08440489 0.056271248 -0.102853656
-0.06285593 -0.020066444 -0.04401616 0.03870159 -0.10745139 0.07940916 0.09693023 0.07645145
-0.09766686 -0.11258033 0.010516299 -0.032442156 -0.020818472 -0.016818434 0.05936739 -0.11455914
0.087522574 0.030637443 0.11618925 0.12138449 0.009942563 0.08612726 -0.015523959 0.042921912
-0.1118595 0.08492219 -0.09904595 0.09923436 -0.014920505 -0.060085516 0.123589985 -0.01348232
0.08715556 -0.06354153 -0.07610547 0.10430978 -0.09418572 0.05265534 0.067463495 -0.029985085
-0.01803945 -0.04906081 0.054064233 0.046667945 0.02424895 -0.09016022 -0.016267493 0.111032896
-0.013142203 0.052524008 0.017567527 -0.053722274 -0.049799666 0.04240894 0.105977684 -0.065699816
-0.080630586 0.11257501 0.121364005 -0.08071542 0.07982588 -0.10764492 0.0938392 0.08689955
-0.045181736 0.0070300284 0.07931942 0.0619689 -0.11025353 -0.075968616 -0.074129306 -0.11521019
00000000: de37 d5bd 06c9 9a3d 1e77 84bc 8216 bcbd
00000010: 7021 82bc 6c7c 3d3d 2091 c73d f7b3 dcbd
00000020: 0005 d9bd d46c 9f3d 3b6d 9a3b e0a0 093d
00000030: 2c77 45bd e36c a2bc a325 e53d cc62 2ebd
00000040: 8e02 a53b a37c efbd f4ba e73d d74e b13d
00000050: 4693 a13b 86dd f53d ebf3 c43d f36f bb3c
00000060: 55ef 34ba a4e2 213d f2b8 f93d aec5 763d
00000070: 82d3 813d 8e0f 2c3c fd84 f43d 9bfe 053d
00000080: d0ed 083d 745f 95bd f902 ccbd dbde fcbb
00000090: 8e68 91bb 3e3e 3b3d e931 e1bd a811 b5bd
000000a0: 74d4 953c 481c b6bd 4ad6 3e3d ba87 85bc
000000b0: 9c57 fc3d 5ba4 66bd 132f 823c 1c1d 94bd
000000c0: 9ca7 af3d 5897 ed3d 9276 83bd 00c3 14bc
000000d0: 0884 783d 7eb5 11bd d963 b7bd 8cfa fcba
000000e0: 80cc e03d 21ef df3d 1546 d0bd a4b4 f23d
000000f0: e3e8 2dbd 39dd 513b 6d92 ac3d 328b a7bd
00000100: 04de 62bd 4831 a83c c095 3c3d 2ef4 a73d
00000110: 161e b3bc 2c33 87bd 34ff 903d a551 b1bd
00000120: cb22 0a3d 38ec d73c d40b c7bd 3070 483d
00000130: cc90 813d 81b7 8fbd a698 46bb 1bcc ef3d
00000140: 9c20 efba f6fd ecbb 5482 913c f9b1 373d
00000150: 45a6 d3bd 75a5 98bd 5d9f c8bc 14f4 e3bd
00000160: 05c2 f6bd 6e83 e2bd 693a 9cbd 6553 103d
00000170: fe17 5ebd c94f 88bd 4494 843d c15d 90bd
00000180: dc44 4bbd db4b babd c047 d33b 6b2f a5bc
00000190: fbd4 55bd a847 a9bd fe94 5e3d d699 b23b
000001a0: 5457 b73d de39 5ebb 9e31 49bd 2931 8e3d
000001b0: fed2 c03d b696 0f3d 0e66 c73d 6c01 be3d
000001c0: 58fe 9c3c 0649 afbd 90a8 5fbc 20dc 7c3d
000001d0: 4c7b ca3d 4a6c 9abd 0757 dbbd 6d80 8fbd
000001e0: 4c71 803d 12d4 903d 80a8 d93d adaf fa3d
000001f0: a40f 96bd 7c7e 7fbc edaf a8bd 60f1 99bb
00000200: 02d5 eabd 617a 4dbc bc7e 333c 8040 af3b
00000210: 9ac3 ddbd b8a6 e93c 3c56 9cbd 78a1 23bd
00000220: 85bb 18bd a07d 94bd 3ae5 fe3d 5c2f 273d
00000230: 7c87 02bd dc25 c9bc ac4a c2bd cafc bdbc
00000240: af01 acbd 451c 1e3d 9775 9e3d 831e bdbd
00000250: 9392 9f3d 067a 18bd 7bac 61bd 167a 1f3d
00000260: b56a f13d 380d c2bd a9ba 48bc a133 f2bd
00000270: 2b78 b1bd de76 303b 9a1a e43c cdeb f2bd
00000280: dea3 b13d 1946 aebd fd39 d53d fe75 153d
00000290: 6441 69bd 4c30 6e3d 0928 90bd 54b9 413b
000002a0: 5f3f 2f3d b94b dbbc 63dc 363d 6366 563d
000002b0: f8a4 8cbd 72ba 1a3a 7e07 d53d 1494 e0bd
000002c0: c812 02bd 1083 363c 5d69 95bc d4d3 943d
000002d0: 93b3 e33d 79dc ac3d ae7c 663d f0a4 d2bd
000002e0: 9cba 80bd 6262 a4bc 4a4a 34bd 8f85 1e3d
000002f0: 790f dcbd 45a1 a23d 5b83 c63d 9492 9c3d
00000300: 9005 c8bd 8490 e6bd 8e4c 2c3c 11e2 04bd
00000310: 808b aabc d0c6 89bc 382b 733d fb9d eabd
00000320: 093f b33d 60fb fa3c a1f4 ed3d 6e98 f83d
00000330: 22e6 223c 7d63 b03d 3458 7ebc e3ce 2f3d
00000340: 9816 e5bd afeb ad3d 9ad8 cabd 623b cb3d
00000350: 2275 74bc 3b1c 76bd bf1c fd3d f3e4 5cbc
00000360: 9d7e b23d 1022 82bd 2fdd 9bbd 5ea0 d53d
00000370: 71e4 c0bd 20ad 573d 4d2a 8a3d 48a3 f5bc
00000380: 78c7 93bc fdf3 48bd 7572 5d3d e326 3f3d
00000390: bca5 c63c eca5 b8bd 6843 85bc 3765 e33d
000003a0: 6552 57bc 6a23 573d c6e9 8f3c e30b 5cbd
000003b0: bcfa 4bbd ffb4 2d3d d40a d93d a08d 86bd
000003c0: a621 a5bd ba8d e63d b18d f83d 204e a5bd
000003d0: c07b a33d f174 dcbd c42e c03d 64f8 b13d
000003e0: 7c10 39bd 275c e63b 3872 a23d 1ad3 7d3d
000003f0: 9acc e1bd 6f95 9bbd 1bd1 97bd 52f3 ebbd

fc2.bias f4 [64]
0.022272909 -0.098643474 0.07126399 0.01447321 -0.061814267 0.124184616 -0.0740149 -0.09392668
0.11914254 -0.0728004 -0.03383554 -0.083289154 -0.0495657 -0.027469013 0.068480104 -0.124389805
0.030434685 0.123317294 -0.11162473 0.033105135 -0.026998969 0.04288398 -0.078592524 0.07194649
-0.08373428 -0.06214245 0.0057684705 0.05572279 0.039189123 -0.12350233 0.09631492 0.020006005
-0.11507445 0.100293584 -0.010894415 -0.086002156 -0.024332438 -0.07753232 0.057922214 -0.08649055
-0.09594147 -0.0060038613 0.021510435 -0.08812076 0.12005965 -0.12325146 -0.10098851 -0.02092286
-0.049940184 0.10213388 0.026616579 -0.091855064 -0.04933096 -0.059296843 0.054266512 -0.11995897
0.049638554 -0.090011716 -0.10984616 0.020303622 0.062971525 -0.119548514 -0.056028157 0.06559331
00000000: ad75 b63c 9705 cabd dbf2 913d 0b21 6d3c
00000010: f530 7dbd 8154 fe3d 2095 97bd a25c c0bd
00000020: 0101 f43d 6018 95bd 2397 0abd 8193 aabd
00000030: 6705 4bbd b206 e1bc 4c3f 8c3d 15c0 febd
00000040: 2952 f93c c78d fc3d 829b e4bd 4099 073d
00000050: f12c ddbc 1da7 2f3d 1ef5 a0bd ae58 933d
00000060: e17c abbd 1589 7ebd 7005 bd3b 953d 643d
00000070: c684 203d caee fcbd c240 c53d a2e3 a33c
00000080: 27ac ebbd b966 cd3d 7d7e 32bc e621 b0bd
00000090: d254 c7bc 44c9 9ebd d83f 6d3d f521 b1bd
000000a0: f67c c4bd 0abc c4bb a736 b03c a878 b4bd
000000b0: d5e1 f53d 436b fcbd 10d3 cebd 6b66 abbc
000000c0: 148e 4cbd 912b d13d 030b da3c 821e bcbd
000000d0: 430f 4abd 3fe1 72bd 9046 5e3d 0cad f5bd
000000e0: cc51 4b3d 1058 b8bd 06f7 e0bd c853 a63c
000000f0: 37f7 803d dad5 f4bd c87d 65bd c955 863d

fc3.weight f4 [6, 64]
0.056401595 0.00039559804 -0.12035035 -0.04008507 -0.06653182 -0.10865252 0.07346163 -0.055212982
0.0962836 0.07282594 0.08398024 0.02319014 0.011924063 0.080490015 -0.11010534 -0.03180384
0.0045508435 -0.11152221 0.10311538 0.12147242 -0.10033359 -0.03404315 -0.0037928398 -0.109212264
-0.045139454 -0.06934025 -0.097202316 0.069719695 0.023249852 0.037336763 -0.114721924 -0.048727
-0.06764957 0.052220866 -0.031212226 0.044982806 0.07626444 -0.03851579 -0.10435779 -0.05494898
0.084218726 0.07454716 0.045718417 -0.037917025 0.08037359 -0.024441382 0.12483193 -0.0967056
0.083717465 -0.09940189 0.07921867 -0.1209538 0.0588236 -0.06347103 0.008531254 -0.03426972
-0.02777017 -0.07524569 -0.046228003 -0.11644789 0.07500416 -0.022667795 0.0660833 -0.01790559
0.105836414 0.11146831 0.06089622 -0.11715219 -0.047519628 -0.052204497 -0.0729607 0.0017938389
-0.059060086 -0.08693427 -0.11003753 -0.051064115 0.0072647007 -0.044904966 -0.093710355 0.034284897
-0.10341446 0.06072742 0.0007500205 -0.06658511 -0.017721443 0.113572724 -0.027904537 0.027394116
-0.07973893 0.0141702555 -0.0023259327 0.086016126 0.08833906 -0.11697394 0.11115207 -0.003118703
0.1143253 -0.07436286 0.03136938 -0.10333221 -0.11775073 -0.07703919 0.0711329 -0.018407222
0.010293618 0.1222094 0.08245292 0.1182681 0.08036129 -0.041061603 0.08749616 0.049175758
0.009659663 -0.054625466 -0.03891614 0.00193681 0.0514344 -0.0005606842 0.07988081 0.016626593
0.101745285 -0.044075757 -0.010581068 -0.07801761 0.0075798924 0.05536573 0.1040114 -0.069962695
0.066308215 0.0925601 0.01097684 -0.102032065 -0.07505204 0.032148458 -0.06895829 0.017093359
0.10933918 -0.017677858 0.10892304 0.09275994 -0.07131877 0.04749107 -0.08709376 0.036364183
-0.11141732 0.014529849 -0.1134129 -0.09921956 0.02594097 -0.07727357 0.0030545725 0.11350715
0.083145715 0.0827221 -0.076665774 -0.10551229 0.06605328 -0.113039404 -0.11117171 0.04896421
0.05116884 -0.09931734 -0.10484225 0.12179865 0.0013183769 -0.10218857 -0.07120863 0.02542785
0.085759506 -0.07205561 0.11076965 -0.03806888 0.05096746 0.027338648 0.06919779 0.025554508
0.06338221 -0.009549264 -0.011155486 0.03746679 0.0018743277 -0.114584744 0.06716451 0.017003357
-0.069223784 0.0021899089 0.10418991 0.033294693 -0.112534925 0.027922017 0.09703104 -0.114190236
-0.09571015 0.03550499 -0.057716936 -0.06221036 -0.09880881 -0.11612021 0.10647675 -0.02356955
0.079506375 0.06505516 0.004654075 0.026987093 -0.0025393849 0.030676868 -0.04131701 -0.106141366
0.027194733 0.09386874 0.015300278 -0.083716676 -0.10079129 -0.025892248 -0.11690507 0.0557798
0.0036938356 -0.01895894 0.077943675 0.12435983 0.0106883375 -0.020744845 -0.041911833 0.080797635
-0.07689153 -0.026724905 -0.10573846 -0.09854047 -0.006733993 0.104340866 0.03109928 0.050069146
0.1079413 -0.12469448 -0.051448032 0.112011515 0.10072407 0.120881945 -0.004894167 0.09322658
-0.10848501 -0.026644073 -0.111273766 -0.015132246 -0.0010335594 -0.06813642 -0.12368365 -0.11117984
-0.11995915 0.03158835 -0.09861275 -0.042892143 0.12359298 0.06507096 -0.022313297 0.029642936
00000000: 5c05 673d 4568 cf39 3f7a f6bd 3e30 24bd
00000010: d641 88bd 3685 debd 0d73 963d 0227 62bd
00000020: 5630 c53d c425 953d d5fd ab3d 40f9 bd3c
00000030: 255d 433c f3d7 a43d e97e e1bd be44 02bd
00000040: 3e1f 953b c265 e4bd 282e d33d 88c6 f83d
00000050: b27b cdbd d470 0bbd 4b91 78bb aeaa dfbd
00000060: 26e4 38bd 4302 8ebd 0212 c7bd 33c9 8e3d
00000070: 7976 be3c 6fee 183d 54f3 eabd f695 47bd
00000080: dc8b 8abd 8ce5 553d c8b0 ffbc e43f 383d
00000090: 8830 9c3d bcc2 1dbd 89b9 d5bd 2f12 61bd
000000a0: de7a ac3d 2eac 983d 3c43 3b3d e24e 1bbd
000000b0: e99a a43d 4b39 c8bc e2a7 ff3d 960d c6bd
000000c0: 1074 ab3d 3893 cbbd 663d a23d a0b6 f7bd
000000d0: 04f1 703d 19fd 81bd acc6 0b3c 685e 0cbd
000000e0: 447e e3bc 6a1a 9abd 9359 3dbd 3b7c eebd
000000f0: c89b 993d d0b1 b9bc ae56 873d beae 92bc
00000100: c3c0 d83d 7f49 e43d 516e 793d 7ded efbd
00000110: f1a3 42bd 62d4 55bd 6b6c 95bd 3f1f eb3a
00000120: fde8 71bd 980a b2bd 5b5b e1bd 9b28 51bd
00000130: ba0c ee3b 45ee 37bd 37eb bfbd 526e 0c3d
00000140: f6ca d3bd 51bd 783d 069d 443a c65d 88bd
00000150: 8f2c 91bc d198 e83d 0e98 e4bc a069 e03c
00000160: 2a4e a3bd 5c2a 683c ad6e 18bb 3929 b03d
00000170: 1ceb b43d 0890 efbd b2a3 e33d 2763 4cbb
00000180: 6223 ea3d 8e4b 98bd 2e7d 003d d69f d3bd
00000190: 4b27 f1bd b9c6 9dbd 20ae 913d beca 96bc
000001a0: 90a6 283c ec48 fa3d 14dd a83d 8c36 f23d
000001b0: 7694 a43d 3630 28bd 3031 b33d 856c 493d
000001c0: 9043 1e3c f4be 5fbd 8866 1fbd 8fdc fd3a
000001d0: e1ac 523d e1fa 12ba 8d98 a33d 7e34 883c
000001e0: d55f d03d c888 34bd 375c 2dbc b2c7 9fbd
000001f0: bf60 f83b 2dc7 623d ee03 d53d 9a48 8fbd
00000200: 9acc 873d 2690 bd3d 34d8 333c 30f6 d0bd
00000210: e2b4 99bd 1aae 033d 013a 8dbd 5f07 8c3c
00000220: 38ed df3d 28d1 90bc 0b13 df3d ecf8 bd3d
00000230: 930f 92bd ff85 423d 375e b2bd 9cf2 143d
00000240: c42e e4bd 9b0e 6e3c 0645 e8bd a033 cbbd
00000250: 2882 d43c 9b41 9ebd 392f 483b 7076 e83d
00000260: 4d48 aa3d 346a a93d f202 9dbd d416 d8bd
00000270: f146 873d 3481 e7bd fead e3bd b28e 483d
00000280: 6b96 513d e466 cbbd 89b7 d6bd 9271 f93d
00000290: 63cd ac3a 3e48 d1bd d5d5 91bd 114e d03c
000002a0: aea2 af3d e491 93bd 33db e23d 1dee 1bbd
000002b0: 41c3 503d 4df5 df3c 92b7 8d3d b057 d13c
000002c0: 88ce 813d 8474 1cbc 80c5 36bc c776 193d
000002d0: 00ac f53a 68ab eabd 8c8d 893d a04a 8b3c
000002e0: 33c5 8dbd 9384 0f3b 8561 d53d 0460 083d
000002f0: b678 e6bd b7bc e43c 36b8 c63d 92dc e9bd
00000300: af03 c4bd ae6d 113d 9868 6cbd 4ad0 7ebd
00000310: 465c cabd 6fd0 edbd 7b10 da3d ee14 c1bc
00000320: 3dd4 a23d a43b 853d 3681 983b 0914 dd3c
00000330: cf6b 26bb 0e4e fb3c 063c 29bd a560 d9bd
00000340: 7dc7 de3c 413e c03d 04ae 7a3c a673 abbd
00000350: aa6b cebd fb1b d4bc ed6b efbd 5c79 643d
00000360: 4714 723b c74f 9bbc efa0 9f3d 5eb0 fe3d
00000370: 231e 2f3c 18f1 a9bc beab 2bbd 3b79 a53d
00000380: 4e79 9dbd 30ee dabc 688d d8bd 96cf c9bd
00000390: d4a8 dcbb aab0 d53d ebc3 fe3c 4e15 4d3d
000003a0: 5410 dd3d d25f ffbd 2cbb 52bd 4b66 e53d
000003b0: 6c48 ce3d f490 f73d 405f a0bb 94ed be3d
000003c0: 642d debd ac44 dabc 80e3 e3bd 3ded 77bc
000003d0: 8078 87ba 1b8b 8bbd da4d fdbd 42b2 e3bd
000003e0: 25ad f5bd c962 013d 7bf5 c9bd acaf 2fbd
000003f0: 511e fd3d ec43 853d 60ca b6bc bed5 f23c

fc3.bias f4 [6]
0.017801588 -0.08206557 -0.097521156 -0.06549087 0.07964866 -0.10084758
00000000: a3d4 913c fe11 a8bd 2cb9 c7bd 1420 86bd
00000010: d61e a33d 2d89 cebd

fc1.weight f4 [64, 4]
-0.28792024 -0.3217064 -0.23122227 -0.2195707 -0.17596716 -0.33509505 0.451334 -0.060560167
-0.09583068 0.38854522 -0.47696275 0.32700378 -0.2849995 0.42745107 0.085632026 0.40642595
0.43022197 0.16490757 -0.2944026 0.21171224 -0.44994307 0.08730519 0.19835633 -0.10459131
-0.45310998 -0.4884284 0.42013323 -0.48733282 0.488428 -0.30279028 -0.25024176 -0.40019017
-0.10448712 0.23103726 -0.10583943 0.44258493 -0.014552355 -0.14549166 -0.05244702 -0.35310566
-0.053174913 0.050586283 0.2523805 0.05343461 -0.3826846 -0.28101546 -0.3254227 -0.0732736
0.22790706 0.38468927 -0.33913612 -0.39926314 -0.0819028 0.2894625 0.31491882 -0.21495754
0.33521914 -0.23399878 0.12020743 -0.46408063 -0.06159258 0.14905834 -0.13615847 -0.15081728
-0.46809518 -0.043907702 0.23490304 -0.37045622 -0.32832426 0.044243276 -0.34633422 -0.39709848
-0.07824069 0.29881704 -0.11479008 0.23104542 0.19111788 0.46209425 -0.48132938 0.44614905
0.39157438 -0.44426757 0.28623033 -0.12595493 0.030861378 -0.2148416 0.45015323 0.38836282
0.2994278 0.2814235 -0.2594235 0.16518462 -0.24499351 -0.39951873 -0.108426034 0.0915702
0.09647858 0.03288442 -0.07895243 0.40638512 -0.2911867 -0.11197233 0.27069628 -0.4877761
-0.1847381 0.15780061 0.23196667 0.33035445 0.45783573 -0.002919972 0.08831161 -0.31978142
0.48746383 -0.139741 -0.17065603 0.37644875 0.11837441 -0.13728732 0.31764323 -0.35700017
-0.37839907 -0.41652632 0.10692054 0.36258924 -0.47229195 0.09175819 -0.3903278 -0.21449834
-0.29849857 -0.102273464 0.02843374 -0.45153028 -0.043464363 0.36570936 -0.023283184 -0.4335397
-0.15592235 -0.23402816 -0.366818 0.4918362 -0.3551228 0.3963626 -0.43907326 0.13601804
0.2005527 -0.3921033 0.24823737 0.29191673 0.05847889 -0.107617855 0.09271562 -0.09153426
0.44289637 -0.2846325 0.38599718 -0.33954757 0.058802724 0.056126 -0.23152047 -0.17547488
-0.08073759 0.28694606 0.4664933 -0.29779226 0.21134019 -0.48669434 -0.04470253 0.17180341
-0.22738951 0.41289842 0.22165602 -0.36480302 0.14770627 0.23445082 0.2986279 -0.25292647
-0.4181425 -0.47840947 -0.34304684 -0.32869524 0.41498113 0.38558853 0.086741626 -0.10653186
-0.31439972 -0.18313825 0.23940116 0.39794296 -0.10838097 0.37061435 -0.010127485 -0.06809938
-0.26092356 -0.17152506 -0.4559406 -0.44646692 -0.27426767 -0.28832716 0.025628865 -0.33973736
0.08310819 0.19368744 0.11676049 0.179851 -0.3239174 -0.1574586 -0.021281421 -0.30767435
0.2685588 0.37936556 0.39400864 -0.49356222 -0.3178202 -0.03501129 0.093611956 0.23443484
0.2550224 -0.15563333 -0.09287435 0.24928969 -0.2815988 0.19267088 -0.40752214 -0.34459668
-0.38315946 0.01845628 0.41319138 0.301934 -0.054648697 0.36515933 -0.45781088 -0.453398
-0.22078353 -0.19515336 0.3735745 -0.023359299 -0.4614451 0.33303112 -0.3053012 -0.24968499
-0.08132166 -0.44201678 -0.2810775 0.21114457 0.41415823 0.18779975 -0.1407733 0.11143571
0.12987107 0.43397677 -0.01824987 0.26381612 -0.13943112 -0.29048544 -0.32538664 0.046491683
00000000: 486a 93be b4b6 a4be 88c5 6cbe 24d7 60be
00000010: bc30 34be 9491 abbe 4015 e73e f00d 78bd
00000020: e042 c4bd 66ef c63e 7634 f4be 0a6d a73e
00000030: 74eb 91be deda da3e d85f af3d 1017 d03e
00000040: 0e46 dc3e 88dd 283e f0bb 96be 18cb 583e
00000050: f05e e6be 10cd b23d ec1d 4b3e f833 d6bd
00000060: 08fe e7be 4a13 fabe b41b d73e b083 f9be
00000070: 3c13 fa3e 5407 9bbe b01f 80be bae5 ccbe
00000080: 58fd d5bd 0895 6c3e 58c2 d8bd 7e9a e23e
00000090: 006d 6ebc c4fb 14be b0d2 56bd 44ca b4be
000000a0: f0cd 59bd 9033 4f3d 0438 813e 40de 5a3d
000000b0: 3cef c3be 42e1 8fbe ce9d a6be 7810 96bd
000000c0: 7860 693e fef5 c43e 40a3 adbe 386c ccbe
000000d0: a8bc a7bd 6e34 943e 0a3d a13e d41d 5cbe
000000e0: d8a1 ab3e 609d 6fbe 502f f63d fa9b edbe
000000f0: 8048 7cbd c0a2 183e 206d 0bbe d86f 1abe
00000100: 2caa efbe 90d8 33bd 6c8a 703e 70ac bdbe
00000110: 1e1a a8be 7038 353d b852 b1be 7e50 cbbe
00000120: a83c a0bd 8cfe 983e 1017 ebbd 2c97 6c3e
00000130: 68b4 433e 9e97 ec3e ce70 f6be a66d e43e
00000140: 707c c83e 0a77 e3be c88c 923e 54fa 00be
00000150: 00d1 fc3c 70ff 5bbe 7c7a e63e 7ed7 c63e
00000160: 9a4e 993e be16 903e 28d3 84be 2826 293e
00000170: 94df 7abe b88d ccbe 780e debd 2889 bb3d
00000180: 9096 c53d d0b1 063d d0b1 a1bd b611 d03e
00000190: 6c16 95be c051 e5bd b498 8a3e cabd f9be
000001a0: fc2b 3dbe 7c96 213e ac88 6d3e 3824 a93e
000001b0: 7269 ea3e 005d 3fbb b8dc b43d 64ba a3be
000001c0: dc94 f93e 4418 0fbe 74c0 2ebe e4bd c03e
000001d0: 486e f23d 0c95 0cbe 22a2 a23e bac8 b6be
000001e0: 86bd c1be f042 d5be 28f9 da3d 4ca5 b93e
000001f0: 40d0 f1be b8eb bb3d 0cd9 c7be 74a5 5bbe
00000200: ced4 98be c074 d1bd e0ed e83c fa2e e7be
00000210: b007 32bd 423e bb3e 60bc bebc eaf8 ddbe
00000220: 1caa 1fbe 14a5 6fbe 92cf bbbe f4d1 fb3e
00000230: a8d2 b5be 0af0 ca3e 36ce e0be 5048 0b3e
00000240: b05d 4d3e c4c1 c8be f031 7e3e 1c76 953e
00000250: 9087 6f3d c066 dcbd b0e1 bd3d 5076 bbbd
00000260: 50c3 e23e 5abb 91be 6ca1 c53e 2ed9 adbe
00000270: 20db 703d 60e4 653d b413 6dbe b0af 33be
00000280: c059 a5bd 98ea 923e 36d8 ee3e 3a78 98be
00000290: 9069 583e 0030 f9be 001a 37bd 3ced 2f3e
000002a0: ccd8 68be 6c67 d33e ccf9 623e 76c7 babe
000002b0: 5040 173e e013 703e c2e5 983e 947f 81be
000002c0: c616 d6be 16f2 f4be d6a3 afbe be4a a8be
000002d0: 6878 d43e dc6b c53e 98a5 b13d 602d dabd
000002e0: 00f9 a0be 9888 3bbe 9425 753e 2ebf cb3e
000002f0: d8f6 ddbd 2ac1 bd3e c0ed 25bc b077 8bbd
00000300: c697 85be 44a4 2fbe 0c71 e9be 5097 e4be
00000310: d06c 8cbe 9e9f 93be a0f3 d13c 0ef2 adbe
00000320: a034 aa3d 0056 463e 2020 ef3d dc2a 383e
00000330: 80d8 a5be d43c 21be 6056 aebc 7e87 9dbe
00000340: 8a80 893e 343c c23e 80bb c93e 30b4 fcbe
00000350: 54b9 a2be 0068 0fbd a0b7 bf3d b00f 703e
00000360: 4c92 823e 585e 1fbe e834 bebd cc45 7f3e
00000370: b82d 90be 844b 453e bea6 d0be fa6e b0be
00000380: 7a2d c4be a031 973c d28d d33e 1897 9a3e
00000390: 50d7 5fbd 2af6 ba3e 3066 eabe c823 e8be
000003a0: 1415 62be 48d6 47be 2845 bf3e 005c bfbc
000003b0: 8842 ecbe 0e83 aa3e 7050 9cbe 6cad 7fbe
000003c0: f88b a6bd 0650 e2be 64e9 8fbe 4836 583e
000003d0: 8c0c d43e 944e 403e e026 10be 6838 e43d
000003e0: ecfc 043e 3432 de3e c080 95bc e812 873e
000003f0: 08c7 0ebe 82ba 94be 1499 a6be 106e 3e3d

fc1.bias f4 [64]
-0.4647414 0.012570083 -0.11653465 0.10370791 -0.3491251 -0.38105053 -0.114212036 -0.3067729
0.23092753 -0.47285503 -0.3604747 -0.45417857 -0.23492396 -0.18842983 0.24829888 0.18446797
0.25185353 0.39890784 0.39410412 0.12364197 -0.35696107 0.057905436 -0.30086797 -0.10996431
-0.36454648 -0.44307208 -0.23377842 0.4858114 -0.4683177 0.41369236 0.09135729 -0.11688876
-0.14084715 0.09930897 -0.40390015 0.39706588 0.4502929 -0.33937466 -0.12300557 -0.14680612
-0.45616376 0.20159751 0.13493603 0.45851785 0.38857788 0.07015562 0.43337882 0.0904116
0.12483251 -0.020531476 -0.48885912 -0.4692945 0.089037776 -0.17593354 0.3225668 -0.35352916
0.37742108 0.31409913 0.4729259 0.40298748 0.08002782 -0.25470698 -0.45207763 -0.26875764
00000000: 96f2 edbe c0f2 4d3c b8a9 eebd d064 d43d
00000010: 86c0 b2be 0e19 c3be 00e8 e9bd 5611 9dbe
00000020: 4478 6c3e 0e1a f2be 2490 b8be 188a e8be
00000030: e88f 70be c0f3 40be 1042 7e3e 2ce5 3c3e
00000040: f2f2 803e a63d cc3e 04c8 c93e 0038 fd3d
00000050: 9ac3 b6be 402e 6d3d 5e0b 9abe f834 e1bd
00000060: d6a5 babe 58da e2be 9c63 6fbe 46bc f83e
00000070: 56c7 efbe 7ccf d33e 8819 bb3d 6063 efbd
00000080: 3c3a 10be 8062 cb3d 00cc cebe 384c cb3e
00000090: ca8c e63e 84c2 adbe 58ea fbbd 5854 16be
000000a0: 4c8e e9be 946f 4e3e ac2c 0a3e dac2 ea3e
000000b0: aef3 c63e c0ad 8f3d d4e3 dd3e b829 b93d
000000c0: 30a8 ff3d a031 a8bc be4b fabe 5e47 f0be
000000d0: 7059 b63d ec27 34be 7a27 a53e c601 b5be
000000e0: 563d c13e 9ad1 a03e 5823 f23e 6054 ce3e
000000f0: a0e5 a33d f468 82be b876 e7be 9a9a 89be

fc2.weight f4 [64, 64]
-0.104110464 0.075498074 -0.01631841 -0.09198657 -0.016033486 0.046261236 0.09744477 -0.107909456
-0.106114164 0.07784429 0.0045801997 0.033600688 -0.04835762 -0.019974232 0.111744225 -0.042722538
0.005001202 -0.11697146 0.11300157 0.0864277 0.004796639 0.11991994 0.09602 0.022819698
-0.0008380711 0.039522782 0.12179786 0.060099095 0.06324379 0.010362014 0.11927861 0.03267902
0.03342992 -0.07308371 -0.099728525 -0.007856607 -0.0045689493 0.045641363 -0.11010221 -0.088561445
0.018143311 -0.08904524 0.04644434 -0.016447872 0.12321398 -0.05645719 0.015769526 -0.07246876
0.08576891 0.11601132 -0.06433876 -0.009079695 0.060525 -0.03568673 -0.08969286 -0.0019869655
0.10964131 0.10919459 -0.10179825 0.118402064 -0.0425646 0.003054008 0.084115624 -0.08180846
-0.05538751 0.020531312 0.045891732 0.081859455 -0.022014022 -0.06601557 0.07079926 -0.08672859
0.033575132 0.026357755 -0.09733075 0.048935115 0.06311518 -0.07032338 -0.003177002 0.11693905
-0.0018574595 -0.007266432 0.017612904 0.044698134 -0.10348588 -0.074661955 -0.024639249 -0.111305386
-0.120636374 -0.110602245 -0.07642211 0.03508699 -0.054370597 -0.066702604 0.06473592 -0.07052247
-0.049626216 -0.09111434 0.0064477623 -0.020310357 -0.05232565 -0.08270347 0.05419475 0.005301103
0.08937302 -0.00341852 -0.049268886 0.069280684 0.094152436 0.034906745 0.09733145 0.092626736
0.01916425 -0.0855885 -0.013800174 0.061733365 0.09871893 -0.07540186 -0.10724732 -0.070185944
0.06268217 0.07056753 0.106246665 0.12227321 -0.07327202 -0.015743181 -0.08251606 -0.0046979636
-0.11466409 -0.012467444 0.011052087 0.0054483265 -0.10819401 0.02852188 -0.076336354 -0.03994891
-0.037188858 -0.072505236 0.12455349 0.04081665 -0.031901613 -0.024588972 -0.094908595 -0.023202375
-0.08395307 0.038635686 0.07747272 -0.092246294 0.07796019 -0.03712961 -0.05501774 0.03887929
0.11797647 -0.094751775 -0.012153447 -0.11829546 -0.086559325 0.002667755 0.027941957 -0.1185793
0.08673833 -0.08512184 0.10421178 0.036499128 -0.056851953 0.05815153 -0.07043038 0.0029138029
0.042745024 -0.026676089 0.044618204 0.052314714 -0.06867403 0.00058591366 0.10411568 -0.10968095
-0.031756192 0.011139646 -0.018145591 0.072669655 0.111148074 0.084503695 0.05636716 -0.10281916
-0.062756956 -0.020081043 -0.043924198 0.03873585 -0.10735637 0.07948816 0.097020596 0.07645145
-0.09766686 -0.11266716 0.0106630325 -0.03229755 -0.020670325 -0.016818434 0.05936739 -0.114409894
0.08766849 0.030637443 0.11630948 0.12138449 0.010089919 0.08627264 -0.015375555 0.043068126
-0.111825004 0.084956706 -0.09889947 0.09938167 -0.014779508 -0.06010461 0.12373768 -0.013421863
0.08730319 -0.06354153 -0.075985715 0.104458034 -0.094036505 0.052800342 0.067416236 -0.029950604
-0.01803945 -0.048914507 0.054033846 0.046808645 0.024282902 -0.09008466 -0.016119793 0.111180976
-0.012997195 0.052546382 0.017712578 -0.053575188 -0.049799666 0.042556435 0.10591744 -0.065553695
-0.080630586 0.11257501 0.12151092 -0.08071542 0.07997304 -0.10769157 0.093988255 0.08702226
-0.04524687 0.007176861 0.07922201 0.06209916 -0.11026327 -0.075820655 -0.07398236 -0.11521019
00000000: de37 d5bd bc9e 9a3d 30ae 85bc 7463 bcbd
00000010: a858 83bc 6c7c 3d3d 2091 c73d a2ff dcbd
00000020: 6252 d9bd d46c 9f3d 8015 963b e0a0 093d
00000030: a412 46bd 00a1 a3bc 28da e43d d4fd 2ebd
00000040: 20e1 a33b bc8e efbd 5e6d e73d 0201 b13d
00000050: 202d 9d3b 9698 f53d 22a6 c43d 60f0 ba3c
00000060: 00b2 5bba a4e2 213d 2871 f93d 782a 763d
00000070: f685 813d 70c5 293c 5848 f43d 70da 053d
00000080: d0ed 083d eaac 95bd 783e ccbd 00b9 00bc
00000090: 20b7 95bb 70f2 3a3d 447d e1bd b45f b5bd
000000a0: 48a1 943c 5a5d b6bd 6c3c 3e3d b0bd 86bc
000000b0: 9c57 fc3d a83f 67bd 182f 813c 806a 94bd
000000c0: 9ca7 af3d 5897 ed3d 0ac4 83bd 00c3 14bc
000000d0: 10e9 773d 402c 12bd e4b0 b7bd c037 02bb
000000e0: a08b e03d 6aa1 df3d 9a7b d0bd c87c f23d
000000f0: 3858 2ebd c025 483b d044 ac3d 328b a7bd
00000100: 04de 62bd 4831 a83c f8f8 3b3d eea5 a73d
00000110: c056 b4bc 2c33 87bd 34ff 903d c29e b1bd
00000120: 1486 093d 38ec d73c 5855 c7bd 3070 483d
00000130: 8842 813d b405 90bd 4035 50bb be7d ef3d
00000140: 0076 f3ba 401b eebb f048 903c 6415 373d
00000150: 68f0 d3bd 5ee8 98bd 40d8 c9bc 14f4 e3bd
00000160: 3410 f7bd 6e83 e2bd 3283 9cbd 60b7 0f3d
00000170: b4b3 5ebd 609b 88bd 4494 843d 166e 90bd
00000180: dc44 4bbd 289a babd c047 d33b e861 a6bc
00000190: 6c53 56bd 7060 a9bd 50fb 5d3d e0b4 ad3b
000001a0: 3409 b73d 4009 60bb 2cce 49bd 08e3 8d3d
000001b0: fed2 c03d 60fa 0e3d b655 c73d 16b3 bd3d
000001c0: 58fe 9c3c 0649 afbd 201a 62bc 20dc 7c3d
000001d0: 262d ca3d 4a6c 9abd 7ca4 dbbd a6bd 8fbd
000001e0: 825f 803d b685 903d da97 d93d 606a fa3d
000001f0: a40f 96bd d8f7 80bc 2efe a8bd 60f1 99bb
00000200: 02d5 eabd 4044 4cbc d013 353c e087 b23b
00000210: d294 ddbd b8a6 e93c 3c56 9cbd 78a1 23bd
00000220: 5853 18bd a07d 94bd e615 ff3d 5c2f 273d
00000230: 44ab 02bd d06e c9bc 705f c2bd e812 bebc
00000240: 96ef abbd 7440 1e3d 04aa 9e3d a0eb bcbd
00000250: 98a9 9f3d 3815 18bd 485a 61bd e43f 1f3d
00000260: a69d f13d 380d c2bd 401f 47bc e444 f2bd
00000270: 0446 b1bd 80d5 2e3b 88e6 e43c b4d9 f2bd
00000280: dea3 b13d 5c54 aebd fc6c d53d 1c80 153d
00000290: 98dd 68bd 4c30 6e3d ce3d 90bd 80f5 3e3b
000002a0: 6815 2f3d d087 dabc 94c1 363d f447 563d
000002b0: f8a4 8cbd 0098 193a 9a3a d53d 68a0 e0bd
000002c0: c812 02bd 1083 363c 10a6 94bc d4d3 943d
000002d0: 9aa1 e33d 4610 ad3d 40e1 663d da92 d2bd
000002e0: b886 80bd 0081 a4bc dce9 33bd 7ca9 1e3d
000002f0: a8dd dbbd b0ca a23d bcb2 c63d 9492 9c3d
00000300: 9005 c8bd 0abe e6bd 00b4 2e3c 704a 04bd
00000310: d054 a9bc d0c6 89bc 382b 733d bc4f eabd
00000320: 8a8b b33d 60fb fa3c aa33 ee3d 6e98 f83d
00000330: 3050 253c b6af b03d c0e9 7bbc 3468 303d
00000340: 8204 e5bd c8fd ad3d ce8b cabd 9e88 cb3d
00000350: c025 72bc 4030 76bd 2e6a fd3d 60e7 5bbc
00000360: 04cc b23d 1022 82bd 669e 9bbd 18ee d53d
00000370: 3696 c0bd 2c45 583d 8611 8a3d f85a f5bc
00000380: 78c7 93bc 945a 48bd 9852 5d3d 6cba 3f3d
00000390: f0ec c63c 4e7e b8bd a80d 84bc dab2 e33d
000003a0: 30f2 54bc e03a 573d f819 913c a871 5bbd
000003b0: bcfa 4bbd a84f 2e3d 3eeb d83d 0441 86bd
000003c0: a621 a5bd ba8d e63d b8da f83d 204e a5bd
000003d0: e8c8 a33d 668d dcbd ea7c c03d ba38 b23d
000003e0: c854 39bd e02b eb3b 263f a23d b05b 7e3d
000003f0: b6d1 e1bd dc47 9bbd 1084 97bd 52f3 ebbd

fc2.bias f4 [64]
0.022124559 -0.098792434 0.07136661 0.014621332 -0.06177388 0.12407151 -0.074020684 -0.09378861
0.119179815 -0.0728004 -0.03397566 -0.08327763 -0.049418673 -0.02755414 0.06862457 -0.12424745
0.030454993 0.12345494 -0.111717135 0.033105135 -0.027121693 0.042838797 -0.078575775 0.07194649
-0.083606824 -0.062193498 0.0058579296 0.055641383 0.039263576 -0.12356144 0.09645069 0.01986079
-0.11493917 0.100259066 -0.010762498 -0.08601853 -0.0244658 -0.07748783 0.058063447 -0.08660044
-0.09594147 -0.006042421 0.021362692 -0.088089794 0.119913116 -0.12336029 -0.10098851 -0.021034434
-0.049940184 0.102279484 0.026579678 -0.091727436 -0.04937701 -0.059157327 0.05439326 -0.11991939
0.049774542 -0.089877516 -0.10983564 0.020338133 0.06287405 -0.11946477 -0.056028157 0.06574173
00000000: 903e b53c b053 cabd a828 923d 508e 6f3c
00000010: 9c06 7dbd 3419 fe3d 2898 97bd 3e14 c0bd
00000020: 8c14 f43d 6018 95bd 102a 0bbd 768d aabd
00000030: 3c6b 4abd 38b9 e1bc 0a8b 8c3d 7275 febd
00000040: c07c f93c f2d5 fc3d f4cb e4bd 4099 073d
00000050: 502e debc bc77 2f3d 56ec a0bd ae58 933d
00000060: 0e3a abbd 9cbe 7ebd e0f3 bf3b 38e8 633d
00000070: d8d2 203d c80d fdbd f087 c53d 18b3 a23c
00000080: 3a65 ebbd a054 cd3d 3055 30bc 7c2a b0bd
00000090: 806c c8bc f0b1 9ebd f0d3 6d3d 925b b1bd
000000a0: f67c c4bd 80ff c5bb d000 af3c 6c68 b4bd
000000b0: 0295 f53d 52a4 fcbd 10d3 cebd 6850 acbc
000000c0: 148e 4cbd e877 d13d a0bd d93c 98db bbbd
000000d0: 8c3f 4abd f44e 72bd 78cb 5e3d 4c98 f5bd
000000e0: 64e0 4b3d b411 b8bd 82f1 e0bd 289c a63c
000000f0: 1cc4 803d f2a9 f4bd c87d 65bd 9aa3 863d

fc3.weight f4 [6, 64]
0.056265086 0.00026287138 -0.12038487 -0.040221542 -0.06653182 -0.10865252 0.07332355 -0.055344045
0.0962009 0.07282594 0.08384204 0.02319014 0.011784792 0.080368325 -0.11024028 -0.031944856
0.0045163333 -0.111661 0.10304041 0.12147242 -0.10033359 -0.034123525 -0.003853172 -0.109212264
-0.045279205 -0.06939769 -0.09725726 0.0695782 0.023192659 0.037276655 -0.11485885 -0.048857808
-0.06778669 0.052186355 -0.031321064 0.044948295 0.076133355 -0.038627476 -0.10449663 -0.05508837
0.084218726 0.07454716 0.045591503 -0.038056105 0.08023147 -0.02457875 0.12483193 -0.0967056
0.083717465 -0.09954144 0.07921867 -0.12108825 0.0588236 -0.0636092 0.008393288 -0.03426972
-0.027909294 -0.0753759 -0.046362966 -0.11648241 0.074865386 -0.022667795 0.0660833 -0.018045694
0.105696365 0.11133258 0.060935825 -0.11729266 -0.047549665 -0.0521788 -0.07310283 0.0016592294
-0.05908507 -0.08693427 -0.11017868 -0.05102451 0.0071223974 -0.04502286 -0.09384887 0.034142897
-0.10341446 0.06058961 0.0006867498 -0.06658511 -0.017713651 0.11348972 -0.02794148 0.027394116
-0.07988191 0.0141402185 -0.0023975372 0.08587244 0.08833043 -0.11697394 0.11101037 -0.003252402
0.11418435 -0.07436286 0.03129852 -0.10333221 -0.11788601 -0.077133864 0.07099274 -0.018545374
0.010293618 0.12224901 0.082323 0.11812781 0.080218196 -0.041197553 0.08749616 0.049185514
0.009659663 -0.054768473 -0.03891614 0.001799807 0.051474005 -0.00070388615 0.07973884 0.016666189
0.10160284 -0.04419385 -0.010720432 -0.07801761 0.0074374676 0.055405334 0.1040114 -0.070105985
0.06616378 0.09241621 0.010913894 -0.10217692 -0.075097814 0.032087788 -0.06910434 0.01695025
0.109250754 -0.017677858 0.10877733 0.09275994 -0.07146509 0.047354653 -0.087237895 0.036219507
-0.111477986 0.014382705 -0.11347416 -0.09921956 0.025880307 -0.077370256 0.0029553026 0.11350715
0.08299999 0.08266184 -0.07672644 -0.10565893 0.06596431 -0.113039404 -0.11131711 0.04882078
0.0510239 -0.09931734 -0.10494685 0.12173799 0.0011752397 -0.10231964 -0.071353555 0.02528292
0.085759506 -0.07205561 0.11062816 -0.03821367 0.05082035 0.02719061 0.06919779 0.025493845
0.06338221 -0.0096954405 -0.011155486 0.037322655 0.0018743277 -0.11473104 0.067016825 0.017003357
-0.06936994 0.0020517707 0.104045734 0.033294693 -0.11268099 0.027861357 0.09703104 -0.11433682
-0.09585127 0.035366073 -0.05774294 -0.06235178 -0.09880881 -0.116090596 0.106334075 -0.023706838
0.07953948 0.06505516 0.0045116246 0.027027354 -0.0026824176 0.030546874 -0.041457787 -0.106285155
0.027169198 0.09372455 0.015261531 -0.083716676 -0.100777134 -0.025973663 -0.11691345 0.0557798
0.0035499632 -0.018945828 0.077906445 0.12421556 0.010697633 -0.020744845 -0.0420527 0.0806606
-0.07703377 -0.026724905 -0.10584667 -0.09859121 -0.006871313 0.10424814 0.03095615 0.049925715
0.1079413 -0.12464732 -0.05158086 0.11186868 0.100579485 0.120737225 -0.004894167 0.09328738
-0.10848501 -0.026787788 -0.111273766 -0.0152721405 -0.0010335594 -0.06827979 -0.12382476 -0.11117984
-0.120102376 0.031462 -0.09875359 -0.042892143 0.12344997 0.06507526 -0.022313297 0.029499233
00000000: 3876 663d 00d2 8939 588c f6bd 58bf 24bd
00000010: d641 88bd 3685 debd a82a 963d 70b0 62bd
00000020: fa04 c53d c425 953d 60b5 ab3d 40f9 bd3c
00000030: 0015 413c 2698 a43d a8c5 e1bd 9cd8 02bd
00000040: c0fd 933b 86ae e4bd da06 d33d 88c6 f83d
00000050: b27b cdbd 1cc5 0bbd 8085 7cbb aeaa dfbd
00000060: b076 39bd 6020 8ebd d02e c7bd 047f 8e3d
00000070: 88fe bd3c 68af 183d 1e3b ebbd 201f 48bd
00000080: c0d3 8abd 5cc1 553d 844a 00bd b41b 383d
00000090: ceeb 9b3d d837 1ebd 5402 d6bd 58a4 61bd
000000a0: de7a ac3d 2eac 983d 28be 3a3d b8e0 1bbd
000000b0: 6650 a43d 6059 c9bc e2a7 ff3d 960d c6bd
000000c0: 1074 ab3d 62dc cbbd 663d a23d 1efd f7bd
000000d0: 04f1 703d 8a45 82bd 0084 093c 685e 0cbd
000000e0: 08a2 e4bc ae5e 9abd 18e7 3dbd 548e eebd
000000f0: 0653 993d d0b1 b9bc ae56 873d 90d4 93bc
00000100: 5677 d83d 5602 e43d d897 793d 2237 f0bd
00000110: 70c3 42bd 70b9 55bd f0b6 95bd 807a d93a
00000120: 3003 72bd 980a b2bd 5ca5 e1bd 14ff 50bd
00000130: 0063 e93b e469 38bd d633 c0bd 6cd9 0b3d
00000140: f6ca d3bd d02c 783d 0007 343a c65d 88bd
00000150: 381c 91bc 4c6d e83d 88e5 e4bc a069 e03c
00000160: 2099 a3bd 60ac 673c 0020 1dbb e4dd af3d
00000170: 96e6 b43d 0890 efbd 6859 e33d 4026 55bb
00000180: 7cd9 e93d 8e4b 98bd e032 003d d69f d3bd
00000190: 386e f1bd 5cf8 9dbd a464 913d 78ec 97bc
000001a0: 90a6 283c b05d fa3d f698 a83d feec f13d
000001b0: 7049 a43d c4be 28bd 3031 b33d c076 493d
000001c0: 9043 1e3c e854 60bd 8866 1fbd 80e7 eb3a
000001d0: 68d6 523d 0085 38ba 1e4e a33d 8887 883c
000001e0: 2615 d03d 9c04 35bd c0a4 2fbc b2c7 9fbd
000001f0: 00b6 f33b b4f0 623d ee03 d53d ba93 8fbd
00000200: e080 873d b644 bd3d 30d0 323c 2242 d1bd
00000210: e2cc 99bd 7c6e 033d 9486 8dbd 40db 8a3c
00000220: dcbe df3d 28d1 90bc a6c6 de3d ecf8 bd3d
00000230: 4a5c 92bd f4f6 413d c8a9 b2bd e85a 143d
00000240: 924e e4bd 70a5 6b3c 2465 e8bd a033 cbbd
00000250: f002 d43c 4c74 9ebd c0ad 413b 7076 e83d
00000260: e6fb a93d 9c4a a93d c022 9dbd b663 d8bd
00000270: 4c18 873d 3481 e7bd 3afa e3bd 4cf8 473d
00000280: 70fe 503d e466 cbbd 60ee d6bd c451 f93d
00000290: 800a 9a3a f68c d1bd d021 92bd 201e cf3c
000002a0: aea2 af3d e491 93bd 0491 e23d f085 1cbd
000002b0: 0029 503d d8be de3c 92b7 8d3d 78d8 d03c
000002c0: 88ce 813d a0d9 1ebc 80c5 36bc a4df 183d
000002d0: 00ac f53a 1cf8 eabd 1e40 893d a04a 8b3c
000002e0: d411 8ebd 0077 063b ee15 d53d 0460 083d
000002f0: 4ac5 e6bd 803d e43c 36b8 c63d 6c29 eabd
00000300: ac4d c4bd 04dc 103d dc83 6cbd 9464 7fbd
00000310: 465c cabd e8c0 edbd aec5 d93d d834 c2bc
00000320: 98e5 a23d a43b 853d 40d6 933b 7868 dd3c
00000330: 80cb 2fbb 703d fa3c a4cf 29bd 08ac d9bd
00000340: f091 de3c a8f2 bf3d 800b 7a3c a673 abbd
00000350: 3e64 cebd b8c6 d4bc 5270 efbd 5c79 643d
00000360: 80a6 683b 4834 9bbc 6a8d 9f3d ba64 fe3d
00000370: 2045 2f3c 18f1 a9bc 743f 2cbd 6231 a53d
00000380: e2c3 9dbd 30ee dabc 24c6 d8bd 30ea c9bd
00000390: c028 e1bb 0c80 d53d c097 fd3c e87e 4c3d
000003a0: 5410 dd3d 1847 ffbd 7446 53bd 681b e53d
000003b0: 9efc cd3d 1445 f73d 405f a0bb 740d bf3d
000003c0: 642d debd 1072 dbbc 80e3 e3bd 0038 7abc
000003d0: 8078 87ba 46d6 8bbd d697 fdbd 42b2 e3bd
000003e0: 3cf8 f5bd 4cde 003d 523f cabd acaf 2fbd
000003f0: 56d3 fc3d 2e46 853d 60ca b6bc 60a8 f13c

fc3.bias f4 [6]
0.017662093 -0.08220728 -0.097667545 -0.06563251 0.07966313 -0.100993276
00000000: 18b0 903c 4a5c a8bd ec05 c8bd 566a 86bd
00000010: 6c26 a33d 90d5 cebd

exp_avg f4 [64, 4]
0.0 0.0 0.0 0.0 0.00029477818 -8.906807e-06 0.00035393427 0.0010516325
0.026007846 0.040626194 0.0026602289 -0.0023248265 -0.008011947 -0.009394795 -0.0016080828 0.0014245736
0.1532257 0.16491522 0.016308147 0.0015090195 0.0 0.0 0.0 0.0
0.0 0.0 0.0 0.0 0.13893338 0.13406749 0.012257749 0.00012712325
0.07385025 0.07717468 0.0068936753 0.00042303355 0.0 0.0 0.0 0.0
0.010760403 0.0053415047 0.002315605 0.00080699293 0.0 0.0 0.0 0.0
0.11094981 0.105494216 0.012832293 -3.8922943e-05 0.12946232 0.14454326 0.01439235 0.000820099
0.0028256665 -0.0044716997 -0.0004453678 -0.00022081388 -0.05753008 -0.056026053 -0.004879864 5.6653866e-05
0.0 -1.4488784e-06 0.0 0.0 0.0 -3.2003467e-05 0.0 0.0
-0.084379226 -0.091526136 -0.007355669 -0.0012768544 0.048215922 0.045642927 0.0077315806 0.0032114289
0.028453236 0.02353812 0.0041967304 0.00078084343 0.0008556015 0.0018229915 0.00026146643 -0.0023157073
-0.06544746 -0.07771192 -0.0065563335 -0.00318423 0.00010984458 -3.0831663e-05 0.0 0.00028521995
0.018163752 0.011689801 0.0008455447 0.00057254446 0.0 0.0 0.0 0.0
0.034311447 0.046158567 0.0072265794 0.0037135826 0.01098577 0.006279483 0.0009710124 -0.001822915
0.032662112 0.018637842 0.00372096 0.0030104932 0.07954776 0.064533874 0.010151275 -0.00012845139
2.3391847e-05 -2.362309e-05 0.00014436644 0.00017563954 0.0 -1.2321121e-05 0.0 0.0
0.0 0.0 0.0 0.0 0.076987095 0.08437453 0.008503357 9.727964e-06
0.0011106549 0.00031710134 0.0005907529 0.003819414 -0.047661863 -0.048102044 -0.003333712 -0.0011736791
0.0031853158 -0.0010433191 0.00024981168 -0.0012298493 -0.0012805515 -0.00013234331 -0.00028622503 5.529216e-05
0.11894704 0.11316378 0.015508296 0.00033293164 -0.050710976 -0.06366591 -0.0053059054 -0.00014398491
-0.01501407 -0.013136851 -0.0017511505 0.00056397624 -0.0026675225 0.00054292276 -4.088661e-05 0.0029647357
-0.0938397 -0.09903286 -0.009321874 -0.00014835242 0.0062156413 0.0107090585 0.001354456 0.0005423622
0.0 0.0 0.0 0.0 -0.0201335 -0.029714739 -0.002579179 -0.0031562066
0.00092092314 0.0003321047 0.0006193837 0.0028493088 -0.05660433 -0.05470662 -0.0065611596 0.0004167259
0.0 0.0 0.0 0.0 0.0 0.0 0.0 0.0
0.13388824 0.13167655 0.015427986 0.0022322075 0.0 0.0 0.0 0.0
-0.09532809 -0.109778814 -0.0093218805 -0.00030331002 0.0008016874 0.00036129082 0.0007498167 0.003940355
0.15975675 0.14439832 0.016160835 0.002608115 0.002254747 0.0045378446 0.0 0.0
-0.00045038533 -4.0876643e-05 -0.00019565018 -0.000119074626 0.0009230324 0.010274687 0.0007459818 0.00022129827
-0.00012452951 1.4382636e-06 -0.00016878717 -0.00067075936 -0.016712964 -0.027433522 -0.0016615274 0.0
-0.0005171349 -0.00026984327 -0.00020322883 -0.002275115 0.14033958 0.14130008 0.015281153 0.003770382
0.103486426 0.10332131 0.010100356 0.002357002 0.0 0.0 0.0 0.0
00000000: 0000 0000 0000 0000 0000 0000 0000 0000
00000010: 758c 9a39 726e 15b7 4190 b939 eed6 893a
00000020: 680e d53c a767 263d 3c57 2e3b 1e5c 18bb
00000030: 8b44 03bc a0ec 19bc 4ec6 d2ba c2b8 ba3a
00000040: 33e7 1c3e 89df 283e aa98 853c 4bca c53a
00000050: 0000 0000 0000 0000 0000 0000 0000 0000
00000060: 0000 0000 0000 0000 0000 0000 0000 0000
00000070: 8d44 0e3e fd48 093e bad4 483c 634c 0539
00000080: cd3e 973d c20d 9e3d 57e4 e13b 9aca dd39
00000090: 0000 0000 0000 0000 0000 0000 0000 0000
000000a0: 674c 303c ca07 af3b 68c1 173b 618c 533a
000000b0: 0000 0000 0000 0000 0000 0000 0000 0000
000000c0: a739 e33d 5a0d d83d 8a3e 523c 3141 23b8
000000d0: c591 043e 2603 143e e4cd 6b3c eafb 563a
000000e0: d12e 393b 5687 92bb 4180 e9b9 468a 67b9
000000f0: a9a4 6bbd 937b 65bd 44e7 9fbb a09f 6d38
00000100: 0000 0000 1577 c2b5 0000 0000 0000 0000
00000110: 0000 0000 763b 06b8 0000 0000 0000 0000
00000120: 04cf acbd 0e72 bbbd d307 f1bb 205c a7ba
00000130: 0f7e 453d 14f4 3a3d 3359 fd3b d676 523b
00000140: c316 e93c 04d3 c03c ba84 893b 84b1 4c3a
00000150: 724a 603a 72f1 ee3a 6e15 8939 1fc3 17bb
00000160: 5109 86bd 6d27 9fbd 83d6 d6bb 84ae 50bb
00000170: 5c5c e638 3f51 01b8 0000 0000 9389 9539
00000180: 26cc 943c 9486 3f3c 8ba7 5d3a cf16 163a
00000190: 0000 0000 0000 0000 0000 0000 0000 0000
000001a0: 298a 0c3d c410 3d3d f1cc ec3b 945f 733b
000001b0: a9fd 333c 1fc4 cd3b 8a8b 7e3a e1ee eeba
000001c0: b5c8 053d 63ae 983c 5adb 733b b24b 453b
000001d0: f0e9 a23d 562a 843d 8951 263c e8b0 06b9
000001e0: 9c39 c437 332a c6b7 1261 1739 e12b 3839
000001f0: 0000 0000 d0b6 4eb7 0000 0000 0000 0000
00000200: 0000 0000 0000 0000 0000 0000 0000 0000
00000210: 69ab 9d3d 8ecc ac3d aa51 0b3c 4a35 2337
00000220: 6593 913a 9f40 a639 c2dc 1a3a 224f 7a3b
00000230: 1639 43bd a606 45bd 687a 5abb 23d6 99ba
00000240: bbc0 503b fbbf 88ba 28f9 8239 e532 a1ba
00000250: 2ed8 a7ba a3c5 0ab9 7910 96b9 81e9 6738
00000260: 819a f33d 69c2 e73d 8216 7e3c 548d ae39
00000270: 50b6 4fbd 4663 82bd 29dd adbb a8fa 16b9
00000280: 93fd 75bc f23b 57bc dc86 e5ba ced7 133a
00000290: 9ad1 2ebb ee52 0e3a aa7d 2bb8 034c 423b
000002a0: 072f c0bd bdd1 cabd c6ba 18bc 0d8f 1bb9
000002b0: 94ac cb3b 0c75 2f3c 0088 b13a 502d 0e3a
000002c0: 0000 0000 0000 0000 0000 0000 0000 0000
000002d0: 03ef a4bc 536c f3bc 7107 29bb 5cd8 4ebb
000002e0: 1b6a 713a 571e ae39 235e 223a 78bb 3a3b
000002f0: f1d9 67bd 0c14 60bd fffe d6bb 017c da39
00000300: 0000 0000 0000 0000 0000 0000 0000 0000
00000310: 0000 0000 0000 0000 0000 0000 0000 0000
00000320: 001a 093e 38d6 063e aac5 7c3c 3a4a 123b
00000330: 0000 0000 0000 0000 0000 0000 0000 0000
00000340: 603b c3bd b7d3 e0bd cdba 18bc 9505 9fb9
00000350: 5528 523a a26b bd39 598f 443a 181e 813b
00000360: 4697 233e 27dd 133e ba63 843c e9ec 2a3b
00000370: 61c4 133b 33b2 943b 0000 0000 0000 0000
00000380: b221 ecb9 f672 2bb8 7227 4db9 b4b7 f9b8
00000390: a8f7 713a 2957 283c fe8d 433a 4d0c 6839
000003a0: 2394 02b9 5c0a c135 76fc 30b9 e6d5 2fba
000003b0: a0e9 88bc 44bc e0bc 9cc7 d9ba 0000 0000
000003c0: 5690 07ba c079 8db9 d319 55b9 191a 15bb
000003d0: 2eb5 0f3e f8b0 103e cd5d 7a3c 8318 773b
000003e0: b1f0 d33d 1f9a d33d f77b 253c ef77 1a3b
000003f0: 0000 0000 0000 0000 0000 0000 0000 0000
