saved_models/dqn_best_model_episode_5050.pt (torch, 87179 bytes, 24 tensors)

fc1.weight f4 [64, 4]
00000000: aedc 9bbe f063 ab3e 6caa aa3e e514 89bd
00000010: f22c e73e 9c3f 78be e659 343d 612c b43e
00000020: e288 c13e 77e7 dfbe 3f24 803e 94c8 d83c
00000030: 2aff 57be 3e4e 203e eae0 003e 0981 6c3e
00000040: 24d9 cb3e 8fa4 18bd b93d bf3e 5e55 e03e
00000050: 9184 6e3d 41d1 fd3b b599 9d3d 6cd2 6dbe
00000060: ab7a ec3e a715 7a3e e79a 2cbe ad5b 033f
00000070: 7037 323d cf61 473e 7ad8 0f3e 508f b4be
00000080: 4a1c 9fbe fec5 e3b9 d36f 42bc 866d aa3d
00000090: 5fb4 6c3e 4357 0c3e f5f7 4dbe 4f21 023f
000000a0: 53e6 e1be 95be d63e 6141 c53e d537 9bbe
000000b0: 8dc1 cd3e b0ec b73d c14b 80be 0890 b23e
000000c0: 9e35 35be e534 b1bd a089 113d e991 c83e
000000d0: 952c d33e 91c5 9a3e 9aac f63c e1d5 b03e
000000e0: 3b76 9e3e 2e3c 813e 86ff 92be ab88 6bbe
000000f0: 3ed1 9bbe 5bf4 b73e f5eb 213d 2e3b fbbd
00000100: 2549 49bd e1b1 bf3e 38b8 d53c 7736 cabe
00000110: cec0 863e 9b4a 873d 4cb2 31be 9d53 2d3e
00000120: 3721 b13e dbaf aa3e a8f3 6e3c ef0b 8d3c
00000130: 0e09 d93c 4dcb bebe 60df b33a ebf0 c93e
00000140: 8675 c9be c4c8 afbe 7052 503d 1840 e5be
00000150: 8f24 a33c 2462 be3e 8bed 4bbe c3f4 a6bd
00000160: 844f 7fbe 70cf e8bd 4005 ed3d a2b9 f2be
00000170: b519 653e 605c a03e 314f f13b 0695 8f3e
00000180: 038d 8f3e 81d2 a0be bc18 d43e 64e7 0ebc
00000190: 9656 143d 19e6 69be 98dd 5abe 88bd 48be
000001a0: 7b4b 1e3d 2fea 343d c711 b93e 1696 4c3d
000001b0: b4de d9be a051 73bd d858 bfbe ec8f 90be
000001c0: 8103 05bd 50be aa3e 75b8 edbe 0a3d b23e
000001d0: 6fa0 03be 3c5c d8be a909 243e 3468 583d
000001e0: 5460 70be c9a8 41bd bd97 a13e 2aed 9ebd
000001f0: 3326 f43e 44a6 e5be 7d30 073e f745 d73e
00000200: d2f1 9a3e 1f32 2b3e d0b9 513e 49fe 86be
00000210: cd38 2ebe 0dea e3be 6ffe 8c3e ffb2 ba3e
00000220: 2c25 0fbe 106d 3abe a09b 8a3c e0f1 d2be
00000230: 0369 e33e adb3 f33e 0bbf e63e 0b7f 0abe
00000240: d9dd 913e 407e 60be c9b8 babe 4da7 83be
00000250: cc90 11bd 4265 c53e 4fe9 303e 7f5d e33e
00000260: 2692 a5bd 7372 a9be d5af 02be 953c c43e
00000270: bfd5 9d3e ab3c 00bf b2f4 7e3e 1dde b93d
00000280: a643 5f3e 6996 db3e 9fff c8be b611 cdbe
00000290: c996 b43e 347a 7dbd 72a6 6fbe 899c a43e
000002a0: 5c5c b1be d800 a83e 94e6 ebbe 8707 7cbd
000002b0: bab0 a5be 403f 50bc 6872 8abe f2e4 a5be
000002c0: 531a d63e 3935 61be 8242 423e 07f8 503e
000002d0: 54e0 0dbe f955 d23e 5337 3dbd 7d75 e13e
000002e0: 6be9 a43d aa1d 74be b884 803e 8af5 a4be
000002f0: 2a5c 323e bef8 f7bd 3673 e23e ae83 753e
00000300: 8cf4 b8be 6c8b d2be 6c72 1b3c 435a fb3d
00000310: f1e7 fbbe 27bf 8dbe 3b19 f8be cb86 f43e
00000320: 6127 863e 23a9 78be cb86 d9be c8be c43e
00000330: 70b7 a63c 2b30 16be 6dfd 4a3e 3c58 c7be
00000340: 4efa 303e 919b a33e 56d7 a93e c081 c5bd
00000350: 5444 6c3e 1baf 83bd 1a67 a63e 35c2 043e
00000360: a984 5a3e 3fcd 4fbe 8f89 e4be 337f 4cbe
00000370: 14c7 ad3e 3122 98be afd4 b83b 9602 9e3e
00000380: 1700 503e 548f 4e3e f20b 1d3e d133 873e
00000390: 8082 873e 7624 e73e 0309 433e 886f 70be
000003a0: 9c07 3d3e 0684 b03e 2565 2cbd d4db de3e
000003b0: ea36 833d 4667 fd3c c29c 5a3d 8c04 b43e
000003c0: 3557 75be e4f3 f2bd be67 843e d289 0c3d
000003d0: 04a2 943e c783 7fbe 4244 60be d6d0 fdbd
000003e0: fe0e 16be 7524 d23e 17c5 c93e 6190 01be
000003f0: c7f5 a8be 2600 323e f7e4 bbbe 91d6 643e
-0.30441803 0.33474684 0.33333147 -0.066934384 0.45151478 -0.24243015 0.044031046 0.35190108
0.37799746 -0.4373128 0.25027654 0.02646283 -0.21093431 0.15654847 0.12585798 0.23096098
0.39814103 -0.03726631 0.37351778 0.4381513 0.058231894 0.0077458923 0.07695333 -0.23224801
0.46187338 0.24422322 -0.16855966 0.5131176 0.0435099 0.19470905 0.14047423 -0.3526559
-0.3107627 -0.0004344433 -0.011867481 0.08321671 0.23115681 0.13705163 -0.2011412 0.50832075
-0.44121036 0.41942278 0.38526443 -0.30316034 0.4018673 0.089806914 -0.25057796 0.34875512
-0.17696235 -0.08652667 0.03553164 0.3917382 0.4124495 0.30228856 0.0301116 0.34538177
0.30949578 0.25241226 -0.28710574 -0.23001353 -0.30433077 0.35928616 0.039531667 -0.12267147
-0.04914202 0.37440398 0.026088819 -0.39494678 0.26318973 0.06606027 -0.17353171 0.16926427
0.34595653 0.33337292 0.014584459 0.017217604 0.026493575 -0.3726448 0.0013723187 0.39441618
-0.39347476 -0.3433286 0.05085987 -0.44775462 0.019914893 0.3718425 -0.19914834 -0.08152153
-0.24932677 -0.113676906 0.11573267 -0.47407252 0.22373088 0.31320477 0.0073641767 0.28043383
0.2803727 -0.31410602 0.4142512 -0.00872216 0.036215387 -0.22841682 -0.21373594 -0.1960355
0.038646203 0.044168647 0.36146376 0.04994782 -0.42552722 -0.059404016 -0.3737247 -0.28234804
-0.032474045 0.33348322 -0.46429792 0.34812194 -0.1285417 -0.4225787 0.1601931 0.05283375
-0.23474246 -0.047280107 0.3156108 -0.07760079 0.47685394 -0.44853413 0.1320209 0.42045566
0.3026262 0.16718338 0.20481038 -0.2636588 -0.17013855 -0.44514504 0.27537867 0.36464688
-0.13979024 -0.18205667 0.01691991 -0.4120016 0.44416055 0.4759802 0.4506763 -0.13525026
0.2848957 -0.2192316 -0.36469105 -0.25713578 -0.03553848 0.38553816 0.172765 0.4440727
-0.08084516 -0.3309513 -0.12762387 0.3832747 0.30827138 -0.5009257 0.24898031 0.09075568
0.2180315 0.4288819 -0.39257523 -0.40052575 0.3527129 -0.06188412 -0.23403338 0.32150677
-0.34640777 0.32813144 -0.46074355 -0.061530616 -0.32361394 -0.0127103925 -0.2704041 -0.32401234
0.4181696 -0.21992959 0.18970683 0.20407115 -0.13855106 0.41081217 -0.04619534 0.4403495
0.080523334 -0.23839441 0.25101256 -0.3221858 0.1741797 -0.12107991 0.44228524 0.23976013
-0.36124074 -0.41121995 0.0094877295 0.122730754 -0.49200395 -0.276849 -0.4845675 0.4775909
0.2620192 -0.2428327 -0.4248565 0.38426805 0.020351142 -0.14666812 0.19823237 -0.38934505
0.17282984 0.31954625 0.331721 -0.096438885 0.2307294 -0.06429883 0.32500535 0.12964709
0.21339668 -0.20293139 -0.446362 -0.19970398 0.33940947 -0.29713586 0.0056405882 0.30861348
0.20312534 0.20171863 0.15336588 0.2640672 0.2646675 0.45145005 0.19046406 -0.23480046
0.18459934 0.34475726 -0.042088646 0.4352709 0.064069584 0.030933034 0.053372152 0.3515972
-0.23959048 -0.11862925 0.258604 0.034311123 0.29029858 -0.24952613 -0.21901038 -0.12393348
-0.14654157 0.4104344 0.3940818 -0.12652732 -0.33000013 0.17382869 -0.36698124 0.22347476

fc1.bias f4 [64]
00000000: ad4a 1c3c 5e87 d3be aece ecbe e3b8 cdbe
00000010: 6577 cf3e c0b7 cfbd e7f9 013f caf2 21be
00000020: 72f2 033e e3c5 a63e 0a6c dfbe c46a 8c3e
00000030: c2bf f9be ee33 233d e700 2cbd 99c9 b0be
00000040: e01d b0be 3461 e53d e72b 8fbe a7cb 43be
00000050: 308c 9c3d 4cf7 773e 987f 66be d09d 413e
00000060: 7fe9 60bc 1aa9 bfbe 4fcb f73e 2a02 cfbe
00000070: c96f 8cbe be93 b93e b52f 98be 9335 60be
00000080: 47fc 4e3d 12c2 eb3e c4d5 5d3e 1afe a4bd
00000090: 60cf a23d e695 aebe 0e41 3f3e 5ab3 eebe
000000a0: e856 bebe 2eb9 7cbe af83 59be a045 28bd
000000b0: 95a5 c53e a675 373e 8625 b4be 223a af3d
000000c0: 2a08 f5bd 2ab4 02be b600 9b3e 34fa d83e
000000d0: 75fb 293e 4807 b23d c860 71be 3112 3c3e
000000e0: 59a3 d43c a10d b4be 05fb 093c bf6e 063e
000000f0: b31e ba3e 27f5 463e f000 e8be bc70 123e
0.0095392885 -0.41314214 -0.46251434 -0.4018012 0.40520778 -0.101424694 0.50771946 -0.15815273
0.12885454 0.3257285 -0.43637115 0.27425206 -0.48779112 0.039844446 -0.041993048 -0.34528807
-0.34397793 0.11200181 -0.27963182 -0.19120656 0.07643926 0.2421543 -0.2250961 0.18907857
-0.013727545 -0.37433702 0.483973 -0.4043134 -0.27429035 0.3624553 -0.29723898 -0.21895437
0.05053356 0.460465 0.21663576 -0.080562785 0.0794971 -0.34098738 0.1867716 -0.4662121
-0.3717568 -0.24680015 -0.2124164 -0.041082025 0.38602892 0.17915973 -0.35184878 0.0855601
-0.11964448 -0.1276404 0.3027398 0.4237839 0.1659983 0.08692795 -0.23572075 0.18366314
0.025956796 -0.35166648 0.008421664 0.13128184 0.36351547 0.19429456 -0.45313215 0.14300817

fc2.weight f4 [64, 64]
00000000: d378 af3d 59eb feb7 d9c8 80bd e7e1 8c3d
00000010: a8ac 523d 6407 8fbd bbf5 eb3d 7565 1a3d
00000020: 0dae df3d db03 f73c 4932 95bc 6596 9ebd
00000030: 47fa dabc 3968 e0bd dde2 c1bd bdce ca3d
00000040: cc4f 55bc 3b10 e0ba 937e 2fbd e160 dcbd
00000050: 403f 22bb 1184 67bd c048 1cbb 7fa7 e63d
00000060: c921 92bd e007 cbbd 234a 05be 909f b03d
00000070: 828b a5bd 142b 36bd 9ec5 c3bd 1d2e 5cbc
00000080: e671 953a 27ad a83d c817 b2bd f219 7fbd
00000090: 689b c0bc 2575 e03d c99c 86bd d6be b9bd
000000a0: f60c 42bc 71fa e13d 4b82 d2bd 90d8 603d
000000b0: 9be4 d3bd 3820 4bbc c836 073d d3be c1bd
000000c0: 7643 dabd 96d1 b2bc 9e56 85bd a47e e83d
000000d0: d008 cbbd cd21 1fbc 5879 98bc d2af e63d
000000e0: dc13 e8bd 5878 84bc 15da c03d 5ccc d1bd
000000f0: 72ba afbd d954 abbd 4d82 bcbd 6e1b b13d
00000100: 0d0c 0f3d 1668 dc3d 4b08 15bd e33c 0cbc
00000110: af7c 8cbc 0e89 503d 5b12 a63d e6b2 6f3c
00000120: 9583 35bd d21d 42bd accf 9e3d bc15 c03d
00000130: 6edc 593d e853 043d 27ae c63d ba15 1abd
00000140: 2a2c 5f3d 2e38 d3bd 7f57 c03d f931 cfbb
00000150: 785b e23d 1e00 ac3d 242d 62bd 6e56 4b3d
00000160: 5de1 e5bc 44d8 883b e0b5 043d 5a66 873d
00000170: c3c4 b2bd 2162 003e 739b cb3d b246 d2bd
00000180: 46d0 083d cd8d 89bd f624 efbd a00b 773d
00000190: d45f 8f3d eeb9 94bc 9aa3 2d3d 28f3 fa3d
000001a0: ae05 1cbd 8a72 eabc 4682 b2bd d08a 4cbc
000001b0: cd9d 973d 8805 de3c 855a a13d f818 01bd
000001c0: 3446 aebd 7fc6 98bd af8a 4d3c e716 40bd
000001d0: 7496 40bd a556 86bd 32a8 bb3d b020 d2bd
000001e0: a71e a53c 93fc abbc 8473 483d 2f66 c5bd
000001f0: aad2 b83d 5ba3 923d 87a3 e1bd 7f1c 93bd
00000200: e0ac 3b3c bc92 a03d c029 533c 948e 52bd
00000210: e8b4 acbd 46fb d2bd e41b a1bd 0ae8 9bbd
00000220: 10a2 f53c 1071 94bd 5a5d fbbd e261 b03d
00000230: e4ca 693d d0ba 24bc 1c06 6a3d 38a8 8f3d
00000240: 7a44 8b3d 0cc3 2bbd 9689 a0bd 960d debd
00000250: 007a 94bd e895 febd 18eb 6dbd 9866 debd
00000260: 80ea fbba 1848 bfbd 40b0 6c3b 500e 713c
00000270: eeed ed3d 3223 cf3d b227 edbd f8f8 e13d
00000280: 0c77 30bd e813 f23d 98ac 8c3c 2c9e 1ebd
00000290: 5c2a 103d 9497 b23d d880 89bd ae68 bbbd
000002a0: 6885 f9bd c849 c43c 1068 44bc a483 84bd
000002b0: 3075 763d 0ca2 cbbd a035 383d 743a 66bd
000002c0: 0c14 4fbd 249a 5f3d 68bd 30bd 12a6 b7bd
000002d0: e80f 8e3c c0a3 9fbb 2040 79bc 006b f53c
000002e0: 8442 253d 78f5 ca3d 4691 eb3d 007d a5bd
000002f0: 24a6 ebbd dcdc 3a3d ca21 b63d 5cec b8bd
00000300: d802 3ebd 5e32 e6bd f69c 9ebd 429d ec3d
00000310: 80be e0bb 74d4 263d fef0 e4bd 12d4 94bd
00000320: 4283 ab3d 887d 083d 0824 0dbd 4440 763d
00000330: 00e0 16ba e8f6 51bd 5045 983c b8b7 f8bc
00000340: 3c8e 77bd e0f0 433c 6040 f33d 10ef 3f3d
00000350: c8fd 71bd a81e 533d 4c2c fc3d 9859 e03c
00000360: 3abd febd f8e4 83bc 04af 65bd 6a2e ba3d
00000370: 2041 49bc 5c48 3ebd 8c0b fabd faee 9cbd
00000380: d0f1 71bc 0a7f 993d 6072 69bc e0ca e3bc
00000390: a42f df3d 60b7 233c acad f03d c0cc 433b
000003a0: a858 74bd b68a e2bd d8f2 3abd 8c25 4b3d
000003b0: d803 c5bc ce46 e7bd dc08 9a3d 7834 c9bd
000003c0: c09b d03c 58c8 353d 10a9 0abd 90a7 5e3d
000003d0: 984f 1c3d 7443 fdbd 2cfa 253d a806 45bd
000003e0: 4032 183b 9e74 fdbd f680 be3d 4a9a 8d3d
000003f0: 2cff a2bd 1c64 5ebd 6486 bbbd 2041 b3bc
0.08567967 -3.0388752e-05 -0.06288309 0.06879025 0.05143419 -0.069838315 0.11521479 0.037694413
0.109218694 0.030153206 -0.018212454 -0.07743529 -0.02673067 -0.10957379 -0.09467099 0.099027134
-0.013019513 -0.0017094681 -0.04284532 -0.10760666 -0.0024756938 -0.056522433 -0.0023847073 0.11262416
-0.0713535 -0.099136114 -0.13016562 0.08624184 -0.0808325 -0.044474676 -0.09559177 -0.013438729
0.0011401742 0.08236151 -0.08695942 -0.062280603 -0.023511603 0.109598435 -0.06572873 -0.09069602
-0.01184391 0.11034096 -0.10278758 0.05489403 -0.103463374 -0.012397818 0.033011228 -0.09460225
-0.106573984 -0.021828454 -0.065106615 0.1135228 -0.0991379 -0.009712649 -0.018612549 0.11264004
-0.11331913 -0.016170666 0.09416596 -0.102440566 -0.085804835 -0.08365793 -0.092045404 0.0864781
0.034923602 0.1076204 -0.036384862 -0.008559438 -0.017149298 0.050911956 0.0810897 0.014630055
-0.04431494 -0.04739172 0.07754454 0.093791455 0.053188734 0.03230658 0.09701186 -0.037618376
0.054485478 -0.1031345 0.093916886 -0.006323096 0.110526025 0.0839846 -0.05521883 0.049642973
-0.028061563 0.0041761715 0.032400012 0.06611319 -0.087289356 0.12537433 0.09941759 -0.1026739
0.03340175 -0.067164995 -0.116769716 0.06031382 0.070007 -0.018155064 0.04239235 0.122534096
-0.038091354 -0.02861907 -0.08716254 -0.012484267 0.07403145 0.027102247 0.07878593 -0.031517953
-0.08509484 -0.07459735 0.012545272 -0.04689684 -0.047018483 -0.06559495 0.0916294 -0.10260141
0.020156218 -0.02099446 0.04893829 -0.096386306 0.09024556 0.07160064 -0.110175185 -0.071831696
0.011454791 0.07840487 0.012888372 -0.051405504 -0.08432943 -0.10301833 -0.07866648 -0.07612617
0.029984504 -0.072481275 -0.12273665 0.0861242 0.057078257 -0.010054305 0.057134733 0.07014507
0.0680017 -0.041934058 -0.078387424 -0.10842435 -0.07249832 -0.12430936 -0.05808553 -0.10859412
-0.0019219667 -0.09339923 0.0036115795 0.014712885 0.11617647 0.10114135 -0.11579837 0.11033815
-0.043082282 0.11820203 0.017172143 -0.038725063 0.035196647 0.087203175 -0.06714028 -0.091508254
-0.12183648 0.023960963 -0.011987701 -0.06470421 0.060170352 -0.09943017 0.044973016 -0.05620809
-0.050556228 0.05459036 -0.043149382 -0.08967222 0.017341569 -0.0048718154 -0.0152130425 0.029958248
0.040346637 0.09910101 0.11502318 -0.080804825 -0.11506298 0.045620784 0.088931635 -0.09029457
-0.04638943 -0.112400755 -0.07744782 0.11553432 -0.006858647 0.040729955 -0.11178778 -0.07267012
0.08374645 0.03332284 -0.03445819 0.060119882 -0.00057554245 -0.05126086 0.018587738 -0.030361041
-0.06043838 0.011959285 0.11877513 0.046858847 -0.059079915 0.051542908 0.123131365 0.027386472
-0.12438436 -0.016100392 -0.05607511 0.09090884 -0.012283593 -0.046455726 -0.12209234 -0.07662769
-0.014767125 0.07494934 -0.0142484605 -0.0278067 0.108977586 0.0099924505 0.11751875 0.002987668
-0.05965486 -0.11061613 -0.04564175 0.049596354 -0.024049684 -0.11292802 0.07521221 -0.09824461
0.025464892 0.044380516 -0.033852637 0.05435902 0.038161844 -0.12366381 0.040521786 -0.04810205
0.002322331 -0.123757586 0.09301941 0.06914194 -0.079588264 -0.05429469 -0.09156492 -0.02188164

fc2.bias f4 [64]
00000000: 3ed4 833d f797 b83d d6d4 983d 284a c53d
00000010: bc32 74bd 3ddb fb3c 0069 0eba b30f a1bd
00000020: 8eb0 c93d 5d29 573d db82 e73d e54e 49bd
00000030: 0af7 c5bc 92c2 c5bd 6b41 813d 30cb 21bc
00000040: 5484 ec3d 8166 723c 4058 273b f44e d43d
00000050: d152 073c 636f 233c d5cf c93d 590e 40bd
00000060: 184f b83b eeb5 103d 45af eebd a0de 653d
00000070: 4978 e4bb 79e5 6c3d 57d9 763d d29c c43d
00000080: cb28 913d 60f7 0fbd a01e 57bc c48b 5abd
00000090: 2011 e8bd c004 41bc 0832 9dbc f3f3 423d
000000a0: 93d8 92bd 24c7 bcbd 39c7 b6bd 7baa 08be
000000b0: f8c3 8fbd fe74 df3d 3503 023e c421 cabd
000000c0: 188d 27bd 7695 aabd 300f 9f3d a689 84bc
000000d0: b3fc b63d 7a4f e63d 91db 8a3d 149b 463d
000000e0: b53f eebb 7e2c 8d3d 0468 81bd c791 d83d
000000f0: 5682 d1bd ed0a 2cbd 006a 02bd 96c6 b2bd
0.06436966 0.0901336 0.0746247 0.09633285 -0.059618697 0.03074419 -0.00054325163 -0.078643225
0.09848128 0.05252968 0.113042556 -0.049147505 -0.024165649 -0.09656252 0.063113056 -0.009875104
0.11548677 0.014794947 0.0025534779 0.103666216 0.008259491 0.009975287 0.09854094 -0.046888683
0.005624663 0.03532975 -0.11654524 0.056120515 -0.006972347 0.05783603 0.060265865 0.096002236
0.07087859 -0.035148025 -0.01312986 -0.053355947 -0.11331391 -0.011780918 -0.019188896 0.04759593
-0.071702145 -0.092176706 -0.089247175 -0.13346283 -0.070198 0.10910986 0.12696536 -0.098697215
-0.04090604 -0.08329289 0.07766569 -0.016178917 0.08934917 0.11245628 0.0678016 0.048487738
-0.007270778 0.06893252 -0.063186675 0.1057468 -0.10229938 -0.042002607 -0.03183937 -0.087292835

fc3.weight f4 [6, 64]
00000000: 778c c6bd 504a 83bd c810 ea3c ea1b cf3d
00000010: b8df ebbc 89d4 e43d d034 48bc f4bf 09bd
00000020: 3093 21bd d757 903d c11b 32bd 51d2 0d3d
00000030: 6ca7 7c3d 374c c4bd c4fb f43d fcfd e4bd
00000040: 1b45 68bd b4e0 9ebd 6cf2 68bd a01d d23c
00000050: 0764 ddbd f037 de3d ec5b f53d 8088 c8bd
00000060: 9e8c 0bbd 7277 393d 01ee 58bd a5d0 9fbd
00000070: d1b1 693d bb5e 6e3d 4844 b33c 7d2d 49bc
00000080: a156 1ebc 2106 f63d 4055 52bd c237 ffbd
00000090: 2d18 d2bd f0b4 59bc 68bc d53d 1442 2d3b
000000a0: ecf6 8c3d 0d3c fa3d 6c0d 59bd b86b df3d
000000b0: 8b60 a33d 0007 ef3c 2c67 c33b e617 d23d
000000c0: d0c0 50bd 9f1f b1bd 004d 923b 4ecb 563d
000000d0: e43f d3bc d603 9c3d 45a7 fa3d 9e8e 183c
000000e0: 3390 dabd 2414 01bd 1cf0 da3d f41a 8ebd
000000f0: 16f0 043e 3d96 6c3d 2815 dcbd 4217 b23d
00000100: 2adc 63bd ae7f 3ebd e8bc ba3d 780d d23d
00000110: ccb6 d73d 6efb 9e3c f058 d83c abe3 d73c
00000120: ecd3 fe3d 9da5 1a3d 1e35 23bc 708e 3a3d
00000130: c9a6 e2bd 59bf 0c39 e0fd 7db7 60d0 433d
00000140: a64a f03d 59bf d5bc ea8e e83d 04db 6d3d
00000150: 9edb 91bc 9929 cd3d a673 933d a242 afbc
00000160: 76d1 473d 4ce1 893d c8a2 a13a 54dc ca3d
00000170: 4933 dd3d 4db0 86bd b11e 5c3d b077 e33d
00000180: de86 a63d a81d c33d a0fa 603c ca0e ccbd
00000190: 840e 303d 9a6e b33d bc21 d4bd 5e07 943d
000001a0: 6c9e 833d cdc5 0bbd 6736 8a3d c0f7 75bd
000001b0: cd4e d63c 3feb db3d fbeb c2bc 02d0 553d
000001c0: 918c 55b9 6d38 a03d 6b17 793d a17d 23bd
000001d0: 0fd3 c93d a154 e83d 548a 8a3d c2d5 ac3d
000001e0: c1a4 0f3d f465 bc3d 7a6e b53d 605a e13d
000001f0: 524d 07be c176 9ebd e01e d6bd 1e60 f63d
00000200: 9451 9dbd 0bc8 cc3d 4077 473b 40be 863c
00000210: 8468 3b3d 2a9e 71bd 7206 be3d 70e7 a3bd
00000220: d06a 4fbd 6712 273d bfd3 893d 9215 bd3d
00000230: 26a2 9c3d 72e8 88bd 64c8 1c3d 4ccb 623d
00000240: 855d 10bd 75af d5bd 2c8a d23d 5098 bf3c
00000250: 2b8b d3bd c508 ad3c 450d 9a3c 3fa1 50bd
00000260: d8c3 bc3d 5c84 d8bd 1254 34bd da24 93bd
00000270: 67a2 b0bd 1bf2 c2bd 16fd 32bd bb26 e03c
00000280: 495f aebd a5c0 18bd 561d a8bd 2c8f 87bd
00000290: 6b36 623b 8cca 6c3d 9094 a63d 5043 e03d
000002a0: bc43 53bd 956d cebd e983 0d3e efce 59bd
000002b0: e06e 903b daca 133d da8a be3d 29d9 75bd
000002c0: d9bf 35bd 3cbb 413d 4675 82bd 9d31 a23c
000002d0: cb24 debc 7bf0 d9bd 9907 fb3d d846 8a3d
000002e0: 6809 e5bc 7078 82bd 90cf b2bd 3c2f 063e
000002f0: 5287 7abb e0a7 fb3a 6877 813c 707f 83bc
00000300: a349 c83a 4afa b5bd 607b bfbd 80a6 d63d
00000310: 3035 7bbc 7cea e13c 30e0 993d 3b43 463d
00000320: 9e94 b0bd 4997 153d 4af6 813d 5953 e23d
00000330: 2d6e cfbd 70cb 9b3d f6cb 41bc 8ccc 23bd
00000340: 9e2a eebb c00a dfbd 8ac2 ecbd 34fd 1b3d
00000350: 5200 bf3c d256 5e3d 8344 203d 2c64 b73d
00000360: 2be5 643d e585 93bd e1fb a33d f419 513d
00000370: 9255 4b3c 5457 82bb 18b2 a63d 26b7 d1bb
00000380: 1194 3c3d f56c c1bc b080 35bd a0af f73c
00000390: 9584 0c3d e897 f7bc 14bf 37bd 25e3 45bd
000003a0: 9aa9 c0bd 80f6 5d3d 980c 9fbd af8c b6bc
000003b0: ff71 4f3c 5cea 5c3d 2218 e83b df50 353d
000003c0: 481f 18bd 4411 68bd 8ac4 e4bd 7263 163d
000003d0: 1fad d4bc 4f5a a93d 2d87 45bd ff97 debd
000003e0: 6a39 263b c01b e4bd a856 d83d 9905 e83c
000003f0: b72a c93d 5372 ed3d ba7a cfbd 5caa c0bd
-0.0969476 -0.06410658 0.028572455 0.10112746 -0.0287932 0.1117335 -0.012219623 -0.033630326
-0.03944701 0.07048004 -0.0434835 0.0346244 0.061683103 -0.09584849 0.11962083 -0.11181256
-0.05670653 -0.077577025 -0.056871817 0.025648892 -0.10810094 0.10850513 0.11980423 -0.0979166
-0.03406965 0.045279928 -0.052961353 -0.07803468 0.057054345 0.05819581 0.021883145 -0.012278912
-0.009664209 0.12012888 -0.051350832 -0.12461807 -0.102585174 -0.013287768 0.10436326 0.002643709
0.06883034 0.12218485 -0.052991316 0.109092176 0.079773985 0.029178143 0.005963227 0.102584645
-0.05096513 -0.08648609 0.0044647455 0.05243998 -0.025787301 0.07617919 0.122389354 0.009311346
-0.10672035 -0.03151335 0.106903285 -0.06938735 0.1298221 0.057760466 -0.10746223 0.08695842
-0.055629887 -0.046508484 0.09118062 0.10256475 0.105329126 0.019407 0.026409596 0.026353678
0.12442765 0.037755597 -0.009961395 0.045545995 -0.11066968 0.00013422723 -1.5139085e-05 0.047806144
0.11732988 -0.026092218 0.11355384 0.058070198 -0.017804917 0.100177 0.071997926 -0.021394078
0.048783742 0.06732425 0.0012331838 0.099053055 0.108007975 -0.065765955 0.053740207 0.11106813
0.081311926 0.09527141 0.013731629 -0.09963758 0.042982593 0.0876133 -0.10357997 0.07227968
0.06426701 -0.034124184 0.06748658 -0.060050726 0.026160622 0.10738229 -0.023794165 0.052200325
-0.00020365628 0.07823262 0.06081335 -0.03991473 0.09854709 0.11344267 0.06764665 0.084392086
0.03506923 0.091991335 0.08858962 0.11003566 -0.13213089 -0.07737494 -0.10455108 0.12030052
-0.076815754 0.09999093 0.0030436069 0.01644814 0.04575397 -0.058988728 0.09278573 -0.080031276
-0.050638974 0.040789034 0.067298405 0.0923263 0.07648115 -0.066849604 0.038277045 0.05536966
-0.035245437 -0.104338564 0.102802604 0.023388058 -0.103292786 0.021122346 0.018805156 -0.050935026
0.09217042 -0.105721205 -0.04402549 -0.07184763 -0.08624726 -0.09518834 -0.043698393 0.027362218
-0.08514268 -0.037293095 -0.082087204 -0.06619105 0.00345173 0.05781035 0.08133805 0.10950339
-0.05157827 -0.10079495 0.13819851 -0.053175863 0.0044077486 0.036082126 0.093038276 -0.060021553
-0.044372413 0.0472977 -0.063700244 0.019799048 -0.027117154 -0.10641571 0.122573085 0.067517936
-0.027958587 -0.06370628 -0.08730996 0.13103956 -0.003822763 0.0019199811 0.015804008 -0.016051978
0.0015280735 -0.088856295 -0.09349704 0.10480976 -0.015332505 0.027577631 0.075134635 0.04840396
-0.086220965 0.03652123 0.06345804 0.110510536 -0.10128436 0.07607162 -0.011828413 -0.039989993
-0.007268264 -0.10890722 -0.11560543 0.03808327 0.023315582 0.054282017 0.039127838 0.08954653
0.055882614 -0.07203273 0.080070265 0.05105014 0.012410538 -0.0039776955 0.081394374 -0.006400007
0.046039645 -0.023611525 -0.04431218 0.030235112 0.034306128 -0.030223802 -0.04485996 -0.048312325
-0.09407349 0.05419016 -0.07766074 -0.02228388 0.012661456 0.05393444 0.007082955 0.044266578
-0.037139207 -0.05665709 -0.11170299 0.036715932 -0.025961457 0.08269178 -0.048224617 -0.10868835
0.0025363811 -0.111381054 0.10563403 0.028322982 0.098226 0.11594071 -0.1013083 -0.094074935

fc3.bias f4 [6]
00000000: 90e2 fc3d 1f57 e53d 247d 043e ff12 ba3d
00000010: 0d4c 39bd 8634 8ebd
0.12347901 0.11198258 0.12938362 0.090856545 -0.045238543 -0.06943612

fc1.weight f4 [64, 4]
00000000: b3db 9bbe 6464 ab3e fbb5 aa3e adab 88bd
00000010: 2d3d e73e 6c47 78be 1166 343d d832 b43e
00000020: 6192 c13e 14e6 dfbe ef22 803e 9019 d83c
00000030: 5ff9 57be c350 203e 0dd9 003e 49ae 6c3e
00000040: 25d4 cb3e 83a4 18bd ec42 bf3e 1e60 e03e
00000050: 2674 6e3d 2bce fd3b 1096 9d3d adda 6dbe
00000060: 9892 ec3e 881a 7a3e 78a6 2cbe ee67 033f
00000070: 751d 323d 0660 473e f8d4 0f3e cc9f b4be
00000080: 0d16 9fbe 6543 e0b9 0f24 41bc 414a aa3d
00000090: 75d6 6c3e 375a 0c3e a1ee 4dbe c232 023f
000000a0: 53e6 e1be 95be d63e 6141 c53e d537 9bbe
000000b0: c6c2 cd3e 51f2 b73d 7856 80be 428b b23e
000000c0: 323e 35be ca1c b1bd 43e8 103d d587 c83e
000000d0: 7b29 d33e 34c5 9a3e 1d51 f63c d7d8 b03e
000000e0: 7a6b 9e3e ab3a 813e 6305 93be 76da 6bbe
000000f0: 3ed1 9bbe 5bf4 b73e f2eb 213d d53b fbbd
00000100: eb47 49bd eab1 bf3e 17b8 d53c 9c36 cabe
00000110: ced8 863e 2850 873d 8d96 31be 32ab 2d3e
00000120: a115 b13e b0ae aa3e 70a9 6c3c 5d8a 8a3c
00000130: a6a0 d93c 6cca bebe e37e bd3a d90b ca3e
00000140: 8675 c9be c4c8 afbe 7052 503d 1840 e5be
00000150: 6df9 a33c a367 be3e 8ae2 4bbe 195d a6bd
00000160: 844f 7fbe 70cf e8bd 4005 ed3d a2b9 f2be
00000170: 906e 653e 465f a03e e1b1 f23b 03c4 8f3e
00000180: d69d 8f3e c4d1 a0be 9621 d43e af07 0bbc
00000190: d64f 143d 19e6 69be 98dd 5abe 88bd 48be
000001a0: f3da 1e3d 5bf8 343d b512 b93e 4b11 4d3d
000001b0: b4de d9be a051 73bd d858 bfbe ec8f 90be
000001c0: 9145 03bd 55cb aa3e 82ab edbe 0658 b23e
000001d0: c773 03be 955a d8be 8a34 243e 10a6 593d
000001e0: 2837 70be a770 41bd 46a7 a13e e7c1 9ebd
000001f0: 982e f43e b8a4 e5be 1c2a 073e ab4a d73e
00000200: 09ef 9a3e 3733 2b3e 43bd 513e af0a 87be
00000210: 36a6 2ebe ebf1 e3be c701 8d3e 65a0 ba3e
00000220: 2c25 0fbe 106d 3abe a09b 8a3c e0f1 d2be
00000230: 2d66 e33e 12b5 f33e bdbf e63e 269e 0abe
00000240: 04dd 913e b181 60be f1c4 babe bdb1 83be
00000250: 46eb 11bd 0e64 c53e 0feb 303e 143c e33e
00000260: 6b6a a6bd 877b a9be dcd3 02be c811 c43e
00000270: 87cc 9d3e 293a 00bf c6cc 7e3e ba40 b93d
00000280: 4d4a 5f3e 0497 db3e 76fe c8be a407 cdbe
00000290: 51a3 b43e 9572 7dbd 2bb2 6fbe 568c a43e
000002a0: 5c5c b1be ca00 a83e 94e6 ebbe f414 7cbd
000002b0: bab0 a5be 403f 50bc 6872 8abe f2e4 a5be
000002c0: 2922 d63e 1c36 61be 3c3a 423e 2315 513e
000002d0: 2dbc 0dbe 4557 d23e 8023 3dbd 919e e13e
000002e0: e7eb a43d 041e 74be f483 803e 6df1 a4be
000002f0: b565 323e d6ff f7bd 7c7b e23e 80d1 753e
00000300: 05f7 b8be 9690 d2be 1f1b 1b3c cc97 fb3d
00000310: a4f2 fbbe 89be 8dbe 0a24 f8be d78d f43e
00000320: 762c 863e b0ae 78be 386f d9be 12dc c43e
00000330: e627 a73c 902e 16be 5503 4b3e 1e5b c7be
00000340: 0d1f 313e 6f9a a33e 8fda a93e 18f2 c4bd
00000350: b657 6c3e bdaa 83bd 9f63 a63e 0dc0 043e
00000360: ea9b 5a3e ebc8 4fbe 0986 e4be 583d 4cbe
00000370: 78eb ad3e ff1f 98be f5f5 bb3b 8335 9e3e
00000380: fef1 4f3e 5c8b 4e3e e012 1d3e 412d 873e
00000390: 4492 873e e426 e73e 7e1b 433e 7126 70be
000003a0: 5ae5 3c3e ea82 b03e f3f7 2cbd 7c9c de3e
000003b0: 631f 833d 4241 fd3c 8cd4 5a3d 1011 b43e
000003c0: 6170 75be 1cf9 f2bd 205c 843e 609e 0b3d
000003d0: ee9b 943e 998c 7fbe a13f 60be 2bb9 fdbd
000003e0: 7b11 16be 5223 d23e 2dc1 c93e 90a9 01be
000003f0: b9f2 a8be 5700 323e 1cd7 bbbe 36e0 643e
-0.30441055 0.3347503 0.33341965 -0.066733696 0.4516386 -0.24245995 0.04404265 0.3519504
0.3780699 -0.43730223 0.25026652 0.026379377 -0.21091221 0.15655808 0.12582798 0.2311336
0.3981029 -0.037266266 0.37355745 0.43823332 0.058216237 0.0077455244 0.07694638 -0.2322795
0.46205592 0.24424183 -0.16860378 0.5133046 0.043485124 0.19470224 0.14046085 -0.35278165
-0.3107151 -0.00042774822 -0.011788382 0.08314944 0.23128684 0.13706289 -0.20110561 0.508587
-0.44121036 0.41942278 0.38526443 -0.30316034 0.40187663 0.08981765 -0.2506597 0.3487187
-0.17699507 -0.08648069 0.035377752 0.39166132 0.41242585 0.3022858 0.030067975 0.34540436
0.30941373 0.25240073 -0.28715047 -0.23032555 -0.30433077 0.35928616 0.039531656 -0.122672714
-0.049140852 0.37440425 0.026088757 -0.3949479 0.26337284 0.066070855 -0.17342587 0.16959837
0.34586814 0.333364 0.014444694 0.01691168 0.026565861 -0.3726381 0.0014457371 0.39462164
-0.39347476 -0.3433286 0.05085987 -0.44775462 0.020016396 0.37188444 -0.19910637 -0.08123226
-0.24932677 -0.113676906 0.11573267 -0.47407252 0.22405457 0.31322688 0.0074064587 0.28079233
0.28050107 -0.31410038 0.41431874 -0.008485719 0.03620895 -0.22841682 -0.21373594 -0.1960355
0.038783025 0.044182163 0.36147085 0.05006532 -0.42552722 -0.059404016 -0.3737247 -0.28234804
-0.032048766 0.33358255 -0.46419913 0.34832782 -0.12837134 -0.4225661 0.16035667 0.053136885
-0.2345854 -0.047226574 0.31572932 -0.07751828 0.47691798 -0.44852233 0.13199657 0.42049155
0.30260494 0.16718756 0.20482354 -0.26375338 -0.17055592 -0.44520506 0.27540419 0.36450496
-0.13979024 -0.18205667 0.01691991 -0.4120016 0.4441389 0.47599083 0.4506816 -0.13536891
0.28488934 -0.21924473 -0.3647838 -0.2572154 -0.035624765 0.38552898 0.17277168 0.44381773
-0.08125766 -0.33102056 -0.1277613 0.38294816 0.30820104 -0.50088745 0.24882802 0.09045549
0.21805687 0.42888653 -0.39256638 -0.40044892 0.3528085 -0.061876852 -0.2340781 0.32138318
-0.34640777 0.32813102 -0.46074355 -0.06154342 -0.32361394 -0.0127103925 -0.2704041 -0.32401234
0.41822937 -0.21993297 0.18967527 0.2041822 -0.13841315 0.41082206 -0.046176434 0.4406629
0.08052807 -0.23839575 0.25100672 -0.32215443 0.1742161 -0.12109344 0.44234836 0.24005699
-0.3612596 -0.41125935 0.009466915 0.12284812 -0.49208558 -0.2768443 -0.48464996 0.47764465
0.26205796 -0.24285388 -0.42467666 0.3844915 0.020404767 -0.146662 0.1982549 -0.38936704
0.17297001 0.3195376 0.3317456 -0.09616488 0.23080334 -0.0642905 0.3249788 0.12963887
0.21348539 -0.20291488 -0.4463351 -0.19945276 0.3396871 -0.2971191 0.0057361075 0.309002
0.20307156 0.20170349 0.15339231 0.26401713 0.2647878 0.4514686 0.19053456 -0.23452164
0.18446866 0.3447488 -0.04222865 0.43478763 0.06402471 0.030914906 0.053425357 0.35169268
-0.2396865 -0.1186392 0.25851536 0.034086585 0.29025215 -0.24955977 -0.21899273 -0.123888336
-0.14655106 0.41042572 0.39405194 -0.12662339 -0.32997683 0.17382942 -0.36687553 0.22351155

fc1.bias f4 [64]
00000000: 1ab4 1d3c cc76 d3be 20ca ecbe 39a4 cdbe
00000010: f675 cf3e 98c3 cfbd f90b 023f aefd 21be
00000020: e3e1 033e 01e9 a63e 0a6c dfbe 4369 8c3e
00000030: 78c9 f9be 1c20 233d c4aa 2cbd 99c9 b0be
00000040: aa1d b0be e31a e63d 864a 8fbe 949e 43be
00000050: 308c 9c3d d330 783e 987f 66be 4a1b 423e
00000060: 06da 5cbc 03aa bfbe 02e7 f73e 2a02 cfbe
00000070: f23e 8cbe 13ba b93e 4122 98be 4420 60be
00000080: 63c6 4e3d b0a0 eb3e c4d5 5d3e 8221 a5bd
00000090: 76c2 a23d a0b3 aebe 55d9 3e3e 4fd3 eebe
000000a0: 6d51 bebe 1eb2 7cbe 8e84 59be a045 28bd
000000b0: 4eb4 c53e 9cc9 373e 2924 b4be 8aa8 af3d
000000c0: cacc f4bd 76aa 02be e917 9b3e d600 d93e
000000d0: a13f 2a3e 3831 b23d b93a 71be 878e 3c3e
000000e0: 81ef d33c e9ef b3be de3d 033c 3a6f 063e
000000f0: 5104 ba3e a5eb 463e 1706 e8be 8f7a 123e
0.009625459 -0.41301572 -0.4624796 -0.40164354 0.40519685 -0.101447284 0.5079952 -0.15819427
0.12879138 0.32599643 -0.43637115 0.27424058 -0.4878652 0.039825544 -0.042155042 -0.34528807
-0.34397632 0.11235597 -0.27986544 -0.19103462 0.07643926 0.24237375 -0.2250961 0.18955722
-0.013479715 -0.37434396 0.48418432 -0.4043134 -0.27391773 0.36274776 -0.29713634 -0.21887308
0.050482165 0.46021032 0.21663576 -0.08063032 0.07947247 -0.34121418 0.18637593 -0.4664559
-0.37171498 -0.24677321 -0.21241972 -0.041082025 0.38614124 0.17948002 -0.35183838 0.08577068
-0.11953123 -0.12760338 0.3029168 0.4238345 0.16625835 0.08700794 -0.23557557 0.18413745
0.02587104 -0.35143974 0.008010356 0.13128367 0.36331418 0.19425829 -0.45317146 0.14304565

fc2.weight f4 [64, 64]
00000000: ad7a af3d 9c3c 13b9 70c8 80bd 20a9 8c3d
00000010: f43b 523d 6407 8fbd 87bc eb3d 7565 1a3d
00000020: 7d74 df3d e01d f63c 4932 95bc 99cf 9ebd
00000030: c7e2 dbbc 97a0 e0bd 5ce2 c1bd eccf ca3d
00000040: cc4f 55bc 4d65 eeba 0681 2fbd 2d9b dcbd
00000050: 403f 22bb 7893 67bd c048 1cbb 936e e63d
00000060: 8821 92bd e007 cbbd b265 05be 909f b03d
00000070: 79c5 a5bd c79a 36bd 9ec5 c3bd 47f9 5dbc
00000080: e671 953a e773 a83d c817 b2bd 7c1b 7fbd
00000090: 689b c0bc a03c e03d b1d6 86bd a4f5 b9bd
000000a0: f60c 42bc 0dc0 e13d 498a d2bd 90d8 603d
000000b0: b51d d4bd 25eb 4cbc c836 073d 37f7 c1bd
000000c0: d37e dabd 0fbc b3bc 9490 85bd a47e e83d
000000d0: e50a cbbd 3ee3 20bc 5879 98bc 1b76 e63d
000000e0: 314c e8bd e85d 84bc f5a0 c03d c905 d2bd
000000f0: b5f3 afbd d954 abbd de79 bcbd ffe1 b03d
00000100: 6213 0f3d 1803 dc3d 1db6 15bd 329d 0cbc
00000110: ded2 8dbc 3e7d 503d 54ca a53d f6a4 6f3c
00000120: a491 35bd 18d3 42bd accf 9e3d 3bca bf3d
00000130: 5f5b 593d 65e1 033d 85a5 c63d b715 1abd
00000140: fa2b 5f3d 877c d3bd 9a3a c03d 9a90 d6bb
00000150: 785b e23d f8fb ab3d 242d 62bd 0fe9 4a3d
00000160: ec27 e7bc faf5 883b 5c37 043d 5a66 873d
00000170: 88f8 b2bd b952 003e 74bf cb3d 96b9 d2bd
00000180: cbb2 083d 7aed 89bd f624 efbd bede 763d
00000190: b859 8f3d ef96 95bc 08c0 2c3d a690 fa3d
000001a0: ab10 1cbd 0ae7 ebbc 4682 b2bd d08a 4cbc
000001b0: c040 973d a807 dd3c c345 a13d 2ada 01bd
000001c0: 9346 aebd 36fd 98bd 106a 493c b546 40bd
000001d0: ffbb 40bd d0a2 86bd 04b2 bb3d 4295 d2bd
000001e0: 6d2e a43c 7617 acbc a5f5 473d 85d3 c5bd
000001f0: ffe8 b83d 7f66 923d 92a3 e1bd a346 93bd
00000200: e0ac 3b3c bc92 a03d c029 533c 948e 52bd
00000210: e8b4 acbd 46fb d2bd e41b a1bd 0ae8 9bbd
00000220: 10a2 f53c 1071 94bd 5a5d fbbd e261 b03d
00000230: e4ca 693d d0ba 24bc 1c06 6a3d 38a8 8f3d
00000240: 7a44 8b3d 0cc3 2bbd 9689 a0bd 960d debd
00000250: 007a 94bd e895 febd 18eb 6dbd 9866 debd
00000260: 80ea fbba 1848 bfbd 40b0 6c3b 500e 713c
00000270: eeed ed3d 3223 cf3d b227 edbd f8f8 e13d
00000280: 0c77 30bd e813 f23d 98ac 8c3c 2c9e 1ebd
00000290: 5c2a 103d 9497 b23d d880 89bd ae68 bbbd
000002a0: 6885 f9bd c849 c43c 1068 44bc a483 84bd
000002b0: 3075 763d 0ca2 cbbd a035 383d 743a 66bd
000002c0: 0c14 4fbd 249a 5f3d 68bd 30bd 12a6 b7bd
000002d0: e80f 8e3c c0a3 9fbb 2040 79bc 006b f53c
000002e0: 8442 253d 78f5 ca3d 4691 eb3d 007d a5bd
000002f0: 24a6 ebbd dcdc 3a3d ca21 b63d 5cec b8bd
00000300: d802 3ebd 5e32 e6bd f69c 9ebd 429d ec3d
00000310: 80be e0bb 74d4 263d fef0 e4bd 12d4 94bd
00000320: 4283 ab3d 887d 083d 0824 0dbd 4440 763d
00000330: 00e0 16ba e8f6 51bd 5045 983c b8b7 f8bc
00000340: 3c8e 77bd e0f0 433c 6040 f33d 10ef 3f3d
00000350: c8fd 71bd a81e 533d 4c2c fc3d 9859 e03c
00000360: 3abd febd f8e4 83bc 04af 65bd 6a2e ba3d
00000370: 2041 49bc 5c48 3ebd 8c0b fabd faee 9cbd
00000380: d0f1 71bc 0a7f 993d 6072 69bc e0ca e3bc
00000390: a42f df3d 60b7 233c acad f03d c0cc 433b
000003a0: a858 74bd b68a e2bd d8f2 3abd 8c25 4b3d
000003b0: d803 c5bc ce46 e7bd dc08 9a3d 7834 c9bd
000003c0: c09b d03c 58c8 353d 10a9 0abd 90a7 5e3d
000003d0: 984f 1c3d 7443 fdbd 2cfa 253d a806 45bd
000003e0: 4032 183b 9e74 fdbd f680 be3d 4a9a 8d3d
000003f0: 2cff a2bd 1c64 5ebd 6486 bbbd 2041 b3bc
0.085683204 -0.00014041591 -0.062882304 0.068681955 0.051326707 -0.069838315 0.11510568 0.037694413
0.1091089 0.030043542 -0.018212454 -0.0775444 -0.026841534 -0.1096813 -0.09467003 0.09902939
-0.013019513 -0.0018188149 -0.042847656 -0.10771785 -0.0024756938 -0.05653712 -0.0023847073 0.11251559
-0.07135302 -0.099136114 -0.13027075 0.08624184 -0.080943055 -0.0445812 -0.09559177 -0.013548202
0.0011401742 0.082252316 -0.08695942 -0.06228207 -0.023511603 0.10949063 -0.06583918 -0.09080055
-0.01184391 0.11022959 -0.10280282 0.05489403 -0.10357229 -0.012507235 0.033011228 -0.094709806
-0.10668721 -0.02194026 -0.06521717 0.1135228 -0.09914187 -0.009819804 -0.018612549 0.112529956
-0.11342657 -0.01615806 0.094057 -0.1025501 -0.08591405 -0.08365793 -0.09202932 0.08636855
0.034930594 0.107427776 -0.03655063 -0.0085824 -0.017312463 0.05090069 0.08095232 0.014626732
-0.044328347 -0.047564596 0.07754454 0.09364744 0.053065654 0.032197375 0.09699539 -0.037618365
0.0544853 -0.10326486 0.09386177 -0.0065479996 0.110526025 0.083976686 -0.05521883 0.04953867
-0.028217278 0.0041797133 0.032279357 0.06611319 -0.0873881 0.12531556 0.09948626 -0.10289304
0.033373635 -0.06734748 -0.116769716 0.060271017 0.06999534 -0.018260447 0.042175323 0.12234621
-0.038101833 -0.028796691 -0.08716254 -0.012484267 0.07385397 0.02698119 0.07874634 -0.031702198
-0.08509555 -0.07470171 0.012293354 -0.04694243 -0.047054287 -0.06574023 0.09164813 -0.10282375
0.020041669 -0.02100728 0.04881825 -0.09659485 0.090288155 0.07148456 -0.11017527 -0.07191207
0.011454791 0.07840487 0.012888372 -0.051405504 -0.08432943 -0.10301833 -0.07866648 -0.07612617
0.029984504 -0.072481275 -0.12273665 0.0861242 0.057078257 -0.010054305 0.057134733 0.07014507
0.0680017 -0.041934058 -0.078387424 -0.10842435 -0.07249832 -0.12430936 -0.05808553 -0.10859412
-0.0019219667 -0.09339923 0.0036115795 0.014712885 0.11617647 0.10114135 -0.11579837 0.11033815
-0.043082282 0.11820203 0.017172143 -0.038725063 0.035196647 0.087203175 -0.06714028 -0.091508254
-0.12183648 0.023960963 -0.011987701 -0.06470421 0.060170352 -0.09943017 0.044973016 -0.05620809
-0.050556228 0.05459036 -0.043149382 -0.08967222 0.017341569 -0.0048718154 -0.0152130425 0.029958248
0.040346637 0.09910101 0.11502318 -0.080804825 -0.11506298 0.045620784 0.088931635 -0.09029457
-0.04638943 -0.112400755 -0.07744782 0.11553432 -0.006858647 0.040729955 -0.11178778 -0.07267012
0.08374645 0.03332284 -0.03445819 0.060119882 -0.00057554245 -0.05126086 0.018587738 -0.030361041
-0.06043838 0.011959285 0.11877513 0.046858847 -0.059079915 0.051542908 0.123131365 0.027386472
-0.12438436 -0.016100392 -0.05607511 0.09090884 -0.012283593 -0.046455726 -0.12209234 -0.07662769
-0.014767125 0.07494934 -0.0142484605 -0.0278067 0.108977586 0.0099924505 0.11751875 0.002987668
-0.05965486 -0.11061613 -0.04564175 0.049596354 -0.024049684 -0.11292802 0.07521221 -0.09824461
0.025464892 0.044380516 -0.033852637 0.05435902 0.038161844 -0.12366381 0.040521786 -0.04810205
0.002322331 -0.123757586 0.09301941 0.06914194 -0.079588264 -0.05429469 -0.09156492 -0.02188164

fc2.bias f4 [64]
00000000: 429b 833d 882f b83d d6d4 983d 284a c53d
00000010: bc32 74bd fb68 fe3c 0069 0eba c489 a1bd
00000020: 8eb0 c93d 8bd3 583d 6359 e73d f5b5 49bd
00000030: 3293 c7bc b568 c6bd 499e 813d 30cb 21bc
00000040: 9384 ec3d 8166 723c 4058 273b f44e d43d
00000050: 8f2b 003c 776a 233c 7ff2 ca3d 2b49 41bd
00000060: 3dbb b93b 6bca 103d 25b8 eebd 89c1 653d
00000070: 6fd2 e3bb 9101 6d3d 6695 773d 1aae c43d
00000080: e7b1 913d 60f0 0fbd a01e 57bc c48b 5abd
00000090: 9971 e8bd c004 41bc 0832 9dbc 9b18 443d
000000a0: a430 92bd 52c6 bcbd 3083 b6bd ca8a 08be
000000b0: 73b1 8fbd f327 e03d 2df0 013e 2dce c9bd
000000c0: c8b2 27bd 7077 aabd 840f 9f3d 262e 84bc
000000d0: 75f7 b63d 78df e63d 16aa 8b3d b921 473d
000000e0: f85d eebb 7e2c 8d3d 0468 81bd e6ca d83d
000000f0: 0897 d1bd 2652 2cbd 006a 02bd 96c6 b2bd
0.064260975 0.08993441 0.0746247 0.09633285 -0.059618697 0.031055918 -0.00054325163 -0.07887605
0.09848128 0.052936118 0.11296346 -0.049245793 -0.02436218 -0.0968794 0.063290186 -0.009875104
0.11548724 0.014794947 0.0025534779 0.103666216 0.007822885 0.009974114 0.09909534 -0.04718892
0.0056680725 0.03534929 -0.116562165 0.056092773 -0.006952576 0.057862822 0.06044521 0.0960352
0.0711401 -0.03514135 -0.01312986 -0.053355947 -0.11349792 -0.011780918 -0.019188896 0.047875028
-0.07138184 -0.09217514 -0.08911741 -0.13334194 -0.07016268 0.1094512 0.12689276 -0.09853778
-0.040941983 -0.08323562 0.07766631 -0.016135287 0.089339174 0.11273092 0.06819551 0.048616145
-0.0072743855 0.06893252 -0.063186675 0.10585575 -0.10233885 -0.04207053 -0.03183937 -0.087292835

fc3.weight f4 [6, 64]
00000000: 5467 c6bd 62aa 82bd c810 ea3c ea1b cf3d
00000010: b8df ebbc 17d3 e53d d034 48bc 88e6 08bd
00000020: 3093 21bd 680f 913d 2252 31bd 0178 0d3d
00000030: fd6b 7c3d 4c87 c3bd 1425 f53d fcfd e4bd
00000040: 1b45 68bd b4e0 9ebd 6cf2 68bd a01d d23c
00000050: 2e8c dcbd f639 de3d 142c f63d 477c c7bd
00000060: f9cc 09bd 82ac 393d cd89 58bd 71c6 9fbd
00000070: 8fb1 693d de6b 6e3d 9802 b73c a7a4 47bc
00000080: 20b1 1abc 5b06 f63d 4055 52bd c237 ffbd
00000090: ba28 d1bd f0b4 59bc 68bc d53d cbef 3d3b
000000a0: 2ea3 8d3d 0f3c fa3d 5c14 58bd 5d3c e03d
000000b0: cf80 a33d 678a f23c 208c d23b 824e d23d
000000c0: 3494 50bd 14ac b0bd 7c64 923b ea96 583d
000000d0: 1423 d3bc 62d6 9c3d 65bd fb3d 6858 203c
000000e0: de8f dabd 2414 01bd 1cf0 da3d 9511 8dbd
000000f0: 875c 053e 5be3 6d3d 2815 dcbd 4217 b23d
00000100: 18e9 63bd ecf8 3dbd e8bc ba3d 780d d23d
00000110: ccb6 d73d 1fe8 a23c f058 d83c 8160 d83c
00000120: ecd3 fe3d 3286 1b3d ba93 20bc 7319 3a3d
00000130: 155a e2bd c251 063a 6cdf 9a37 60d0 433d
00000140: a64a f03d 59bf d5bc ea8e e83d 04db 6d3d
00000150: 4763 8ebc 4429 cd3d 6535 943d 1109 acbc
00000160: 887a 483d 5be0 893d 3dde 9f3a dadb ca3d
00000170: ef33 dd3d 1eaf 86bd 7f25 5e3d 7081 e33d
00000180: 894f a73d 781f c33d a0fa 603c ca0e ccbd
00000190: 1406 323d 9a6e b33d bc21 d4bd 5591 943d
000001a0: 5251 843d 27c8 0bbd 17fd 8a3d 4249 75bd
000001b0: 9a5c d63c 91cb dc3d 3a8b bfbc 1312 573d
000001c0: bf95 33b8 93f1 a03d d019 793d 2fd9 21bd
000001d0: 50d6 c93d 3da7 e83d d177 8b3d 91ce ad3d
000001e0: eba8 0f3d f465 bc3d 7a6e b53d ca50 e23d
000001f0: e1d6 06be 57ca 9dbd e01e d6bd 1e60 f63d
00000200: 535f 9dbd 4bd7 cc3d 4077 473b 40be 863c
00000210: 8468 3b3d be68 71bd 7206 be3d 29a9 a3bd
00000220: d06a 4fbd 4230 273d f1e8 893d a0f0 bc3d
00000230: 5462 9c3d a6d0 88bd d3c5 1c3d 4ccb 623d
00000240: 855d 10bd 75af d5bd 2c8a d23d 5098 bf3c
00000250: 4c86 d3bd 7107 ad3c 8738 9a3c e06f 50bd
00000260: 6a02 bd3d 6084 d8bd 2456 34bd dd24 93bd
00000270: 80a8 b0bd 20f2 c2bd 18cc 32bd 15a4 e03c
00000280: bb80 aebd a5c0 18bd 561d a8bd 2c8f 87bd
00000290: 25dc 623b 8cca 6c3d 9094 a63d c84e e03d
000002a0: b93c 53bd 956d cebd c876 0d3e ab33 59bd
000002b0: c86e 903b 33f5 133d 469b be3d bd21 76bd
000002c0: f9c7 35bd 1888 413d 4675 82bd 8b59 a23c
000002d0: fa1e debc 24d7 d9bd e83a fb3d bc62 8a3d
000002e0: 6809 e5bc 7078 82bd 90cf b2bd 2d4b 063e
000002f0: a8bb 78bb 825a fc3a 6877 813c 707f 83bc
00000300: bc0b c83a 04fc b5bd 607b bfbd 80a6 d63d
00000310: 3035 7bbc e963 e13c 30e0 993d 9542 463d
00000320: 9e94 b0bd af91 153d 32ed 813d 5953 e23d
00000330: 8477 cfbd 8fc3 9b3d 5ed9 41bc 8ccc 23bd
00000340: 9e2a eebb c00a dfbd 8ac2 ecbd 34fd 1b3d
00000350: f8e8 be3c d256 5e3d 9f36 203d 535e b73d
00000360: 7bd8 643d e585 93bd e1fb a33d f419 513d
00000370: 9255 4b3c 5457 82bb ca95 a63d 6faf d1bb
00000380: 056f 3c3d f56c c1bc b080 35bd a0af f73c
00000390: c93d 0c3d e897 f7bc 14bf 37bd ebe9 45bd
000003a0: 40ae c0bd 80f6 5d3d d01d 9fbd 7782 b6bc
000003b0: ff71 4f3c aec9 5c3d e58c e73b 763a 353d
000003c0: e520 18bd 434d 68bd 8ac4 e4bd 3f54 163d
000003d0: bfad d4bc f059 a93d a0d0 45bd cfaf debd
000003e0: 6a39 263b c01b e4bd a856 d83d b694 e73c
000003f0: fc16 c93d 6f6d ed3d ba7a cfbd 5caa c0bd
-0.09687677 -0.06380154 0.028572455 0.10112746 -0.0287932 0.11221903 -0.012219623 -0.033422977
-0.03944701 0.07083017 -0.04329122 0.034538273 0.061626423 -0.0954729 0.11969963 -0.11181256
-0.05670653 -0.077577025 -0.056871817 0.025648892 -0.10768925 0.10850899 0.12020126 -0.09740501
-0.033642743 0.045330532 -0.052865792 -0.078015216 0.0570541 0.05820834 0.022340104 -0.012185252
-0.009441644 0.12012931 -0.051350832 -0.12461807 -0.10212846 -0.013287768 0.10436326 0.002898204
0.0691589 0.122184865 -0.05275379 0.109490134 0.07983553 0.029607011 0.0064253956 0.102688804
-0.050922588 -0.08626571 0.004467545 0.052878298 -0.025773562 0.07658078 0.122919835 0.009786703
-0.10671972 -0.03151335 0.106903285 -0.06888119 0.13023578 0.05807815 -0.10746223 0.08695842
-0.055642217 -0.04637997 0.09118062 0.10256475 0.105329126 0.019886075 0.026409596 0.026413204
0.12442765 0.037969775 -0.009800846 0.045434427 -0.11052338 0.0005123877 1.846227e-05 0.047806144
0.11732988 -0.026092218 0.11355384 0.058070198 -0.017381324 0.100176364 0.07236747 -0.021000417
0.04894498 0.067322455 0.001219697 0.099052146 0.10800921 -0.0657637 0.054234978 0.111086726
0.08169467 0.095274866 0.013731629 -0.09963758 0.043462828 0.0876133 -0.10357997 0.072542824
0.06460823 -0.034126427 0.06786554 -0.059884317 0.026167203 0.10781015 -0.023381818 0.05250747
-4.2816388e-05 0.078585766 0.060815632 -0.039513763 0.0985533 0.11360023 0.068099625 0.08486665
0.035073202 0.091991335 0.08858962 0.110505655 -0.13167907 -0.07704609 -0.10455108 0.12030052
-0.07684197 0.100020014 0.0030436069 0.01644814 0.04575397 -0.05893778 0.09278573 -0.07991249
-0.050638974 0.040817507 0.06733883 0.09225583 0.07635942 -0.066804215 0.038274597 0.05536966
-0.035245437 -0.104338564 0.102802604 0.023388058 -0.103283495 0.021121712 0.018825782 -0.050887942
0.09228976 -0.105721235 -0.044027463 -0.071847655 -0.08625889 -0.09518838 -0.04365167 0.02742199
-0.08520647 -0.037293095 -0.082087204 -0.06619105 0.003461608 0.05781035 0.08133805 0.10952526
-0.05157158 -0.10079495 0.13814843 -0.05302779 0.0044077374 0.036122512 0.0930696 -0.06009077
-0.044380162 0.04724893 -0.063700244 0.019818088 -0.02711438 -0.10636738 0.12267095 0.06757113
-0.027958587 -0.06370628 -0.08730996 0.13114615 -0.0037953649 0.0019253048 0.015804008 -0.016051978
0.0015262286 -0.08885959 -0.09349704 0.10480976 -0.015332505 0.027513461 0.075134635 0.04840334
-0.086220965 0.036515888 0.063440695 0.110510536 -0.10130218 0.07605659 -0.0118316095 -0.039989993
-0.007268264 -0.10890722 -0.11560543 0.03808327 0.023304448 0.054282017 0.03911459 0.08953538
0.055870514 -0.07203273 0.080070265 0.05105014 0.012410538 -0.0039776955 0.08134039 -0.006399087
0.046004314 -0.023611525 -0.04431218 0.030235112 0.03423861 -0.030223802 -0.04485996 -0.048318785
-0.094082355 0.05419016 -0.07769358 -0.022279007 0.012661456 0.053903274 0.0070663565 0.044245206
-0.037140746 -0.056714308 -0.11170299 0.036701437 -0.025961755 0.08269107 -0.048294663 -0.108733766
0.0025363811 -0.111381054 0.10563403 0.028269153 0.09818837 0.115931384 -0.1013083 -0.094074935

fc3.bias f4 [6]
00000000: 80c7 fd3d 9732 e63d 5185 043e 0106 ba3d
00000010: 0683 39bd 6061 8ebd
0.12391567 0.11240118 0.12941481 0.090831764 -0.04529097 -0.069521666
