saved_models/dqn_best_model_episode_3815.pt (torch, 87179 bytes, 24 tensors)

fc1.weight f4 [64, 4]
0	0xbef55b72	-0.4792133
1	0xbe24d66a	-0.16097417
2	0x3ef55910	0.47919512
3	0xbee0e418	-0.43924022
4	0xbee8cd4c	-0.4546913
5	0xbe6da138	-0.23206031
6	0xbe0f3b48	-0.13987458
7	0xbd36dc30	-0.04464358
8	0xbe2f0fa3	-0.17095809
9	0x3e099b57	0.13438164
10	0x3e9198cf	0.28436896
11	0xbdcadae5	-0.09905032
12	0xbe776785	-0.24160583
13	0x3ef1a66d	0.47197285
14	0x3eae57b6	0.34051293
15	0xbe8f344a	-0.2796958
16	0x3e302695	0.17202218
17	0xbe2bd948	-0.16782105
18	0x3d7e8430	0.062137783
19	0xbe0a8346	-0.1352664
20	0x3b85eb3b	0.0040868795
21	0xbddf027d	-0.108891465
22	0x3ee435e4	0.44572365
23	0x3e99fb8b	0.30074725
24	0xbf001fe0	-0.5004864
25	0x3eed0d96	0.46299428
26	0x3e76e17b	0.24109451
27	0x3c6c8f40	0.01443845
28	0x3e844c55	0.25839487
29	0xbe911aa0	-0.28340626
30	0xbcf1b15d	-0.029503519
31	0xbddc2e7f	-0.10751056
32	0x3ea4be8f	0.32176635
33	0xbe397d27	-0.18114148
34	0x3ed5e7e6	0.41778487
35	0xbed997bc	-0.42498577
36	0xbe17f2bc	-0.1483869
37	0xbe960a96	-0.2930495
38	0x3d286e30	0.041120708
39	0xbe5b771c	-0.21432155
40	0xbeddacb3	-0.43295822
41	0xbf0001ac	-0.5000255
42	0x3e8795cd	0.26481476
43	0x3c3f29c9	0.011667677
44	0xbe454db0	-0.19267917
45	0xbec4dcba	-0.3844965
46	0xbec64d66	-0.38730925
47	0xbe333c84	-0.17503554
48	0x3dfde5b4	0.12397328
49	0x3e00e7d5	0.12588437
50	0xbf006c36	-0.50165117
51	0xbe689003	-0.22711186
52	0xbe3409a6	-0.17581806
53	0xbe9dff16	-0.30858678
54	0xbe838bf4	-0.25692713
55	0x3ebd0878	0.36920524
56	0x3e039bdd	0.12852426
57	0xbe846020	-0.25854588
58	0xbefea221	-0.4973307
59	0x3cec4912	0.028843436
60	0xbce40040	-0.02783215
61	0xbe5f1844	-0.217866
62	0xbe4a8464	-0.19777066
63	0xbe1607d0	-0.14651418
64	0xbe90902c	-0.28234994
65	0xbe615a87	-0.2200719
66	0xbe517909	-0.20456327
67	0x3eb31824	0.34979355
68	0xbe7a8395	-0.24464257
69	0x3ec0cc48	0.37655854
70	0x3db56609	0.08857352
71	0x3ee4f101	0.4471512
72	0x3ef709ea	0.4824975
73	0xbed0e901	-0.40802768
74	0x3ee2be7f	0.44285962
75	0x3ed0e0b8	0.40796447
76	0x3ee0687e	0.4382972
77	0xbebda98d	-0.3704342
78	0x3e4e012d	0.20117636
79	0xbe1e7bce	-0.15476915
80	0x3e4327f8	0.19058216
81	0x3dd8b93f	0.10582208
82	0x3ed51cbb	0.41623482
83	0xbec3198a	-0.38105422
84	0xbe0d33dc	-0.13789314
85	0xbe50d9b0	-0.20395541
86	0xbe3e561c	-0.18587536
87	0xbedfb182	-0.43690115
88	0xbefb1745	-0.4904119
89	0xbe2393b6	-0.15974316
90	0x3e6fb08b	0.2340719
91	0x3e07d6fa	0.13265601
92	0x3ee4d110	0.44690752
93	0xbedfe6f0	-0.4373088
94	0x3e5b6eaf	0.21428941
95	0x3e4eeb39	0.20206918
96	0x3e768af3	0.24076442
97	0xbbd29a2a	-0.006427069
98	0x3e692ee5	0.22771795
99	0xbd317503	-0.04332448
100	0xbe05dd8c	-0.13072795
101	0xbdd56320	-0.10419297
102	0x3dd0c550	0.101938844
103	0xbe8d880e	-0.27642864
104	0xbedc323e	-0.43007082
105	0xbe44bd10	-0.19212747
106	0xbef11e94	-0.47093642
107	0xbd09e2a0	-0.033663392
108	0x3ea54c32	0.32284695
109	0xbe9adf1c	-0.30248344
110	0xbdef6206	-0.11688618
111	0x3eb02c9e	0.3440904
112	0xbea25bcc	-0.3171066
113	0x3edf1557	0.43570969
114	0xbe844049	-0.25830296
115	0x3c809513	0.015696084
116	0xbea3a7ab	-0.31963858
117	0x3ed5abdc	0.4173268
118	0xbe9065f8	-0.28202796
119	0xbe9753fc	-0.29556262
120	0x3c8ce285	0.017197857
121	0x3e8829c6	0.2659437
122	0xbd346264	-0.044039145
123	0x3ea86fb4	0.32897723
124	0xbee6d2d8	-0.45082736
125	0xbd72be60	-0.059263587
126	0xbe476c5d	-0.19474931
127	0x3e052f02	0.13006213
128	0x3ef471d1	0.47743085
129	0x3de8db7a	0.11369987
130	0xbe3bc283	-0.18335919
131	0xbec6d7c6	-0.38836497
132	0xbea559ba	-0.32295018
133	0xbe0ba487	-0.13636981
134	0x3eeb556e	0.45963615
135	0x3d91df27	0.07122641
136	0xbe8c28fe	-0.27375025
137	0x3e1bf785	0.1523114
138	0x3ea68dc4	0.32530034
139	0x3cb5fa13	0.022213971
140	0x3ead9405	0.33901992
141	0xbeb947dd	-0.3618764
142	0xbe8b0bdc	-0.27157485
143	0x3ee8cdf8	0.45469642
144	0x3eea836e	0.45803398
145	0xbe591bd2	-0.21202019
146	0xbeb72f38	-0.35778213
147	0xbee704f2	-0.4512096
148	0xbec9904c	-0.39367902
149	0x3c972617	0.01845078
150	0x3e558a8c	0.20853633
151	0x3d9b3b34	0.075796515
152	0xbe88bf7f	-0.267086
153	0x3e3736fa	0.17892066
154	0x3d32bb50	0.043635666
155	0x3ea8ddfd	0.32981864
156	0x3eed5d39	0.46360186
157	0x3e13f4db	0.14448874
158	0xbec3cc6d	-0.38241902
159	0x3ec79b5f	0.38985726
160	0xbeae5e5e	-0.3405637
161	0x3e3139c1	0.17307188
162	0xbc5b3d40	-0.013381302
163	0xbe8782f6	-0.26467103
164	0xbe61557b	-0.22005264
165	0x3e9c0d5c	0.30478942
166	0x3ee2a488	0.44266152
167	0x3eb63eb3	0.3559471
168	0xbee70411	-0.4512029
169	0x3ed3d390	0.41372347
170	0x3eb2ecb7	0.34946224
171	0xbe046123	-0.1292768
172	0xbe22109b	-0.15826647
173	0xbcf6ddf3	-0.03013513
174	0xbec5abb8	-0.38607574
175	0x3e02dfd4	0.12780696
176	0x3da1c542	0.07898952
177	0xbef95ea0	-0.48705006
178	0x3ed2b380	0.41152573
179	0xbe99c4bd	-0.30032912
180	0x3e8a8053	0.2705103
181	0x3f0090a0	0.5022068
182	0x3e93d7d5	0.28875604
183	0xbe4c8ae8	-0.19974864
184	0xbe7b054b	-0.24513738
185	0xbeb3a7c6	-0.35088938
186	0x3e3e1dca	0.18566051
187	0x3eae89af	0.3408942
188	0xbc423f62	-0.011855932
189	0x3e80a5e4	0.25126565
190	0xbefc6abe	-0.49300188
191	0xbe3cc166	-0.1843315
192	0xbef9c166	-0.48780364
193	0x3caba700	0.020953655
194	0xbe64e244	-0.22351938
195	0xbdb4ac28	-0.08821899
196	0xbdcfad53	-0.10140481
197	0x3d8fb09e	0.07016109
198	0xbd960e46	-0.07326941
199	0xbe5e5d81	-0.21715356
200	0x3e838421	0.25686744
201	0x3ebd4704	0.36968243
202	0x3ec05a81	0.3756905
203	0xbeda66db	-0.42656597
204	0xbdb5ac48	-0.08870751
205	0xbe93ccb4	-0.28867114
206	0x3ee39467	0.4444916
207	0x3c561e18	0.013068698
208	0x3f00e938	0.50355864
209	0xbeb6feb1	-0.3574119
210	0x3e92ff9d	0.28710642
211	0x3e98f582	0.29874808
212	0xbe3058d6	-0.17221388
213	0x3eb35b97	0.35030815
214	0xbdf1b00c	-0.118011564
215	0xbe9d5239	-0.30726793
216	0x3e81457f	0.25248334
217	0xbea68bd8	-0.32528567
218	0xbe31be2a	-0.17357698
219	0x3e17d53b	0.14827435
220	0xbe1ed784	-0.155119
221	0x3e8e6d31	0.2781768
222	0x3d657cab	0.056027096
223	0xbeca5216	-0.39515752
224	0xbdd8adde	-0.105800375
225	0x3e3d3ba4	0.18479782
226	0x3e6b04f6	0.22951111
227	0x3eb78ca7	0.35849497
228	0xbe02f6f7	-0.12789522
229	0xbd557d1f	-0.052121278
230	0xbe71bc35	-0.23606952
231	0x3eb1f41e	0.3475656
232	0xbe08a9be	-0.13346002
233	0x3ea986f5	0.33110777
234	0x3e076e97	0.1322578
235	0x3ddf01bc	0.10889003
236	0x3ea87963	0.3290511
237	0xbe79f13c	-0.2440843
238	0xbe1a821b	-0.15088694
239	0xbd8b7026	-0.068085
240	0x3e792c77	0.24333368
241	0xbed94401	-0.42434695
242	0xbe715d7b	-0.23570816
243	0xbeb41761	-0.35174087
244	0xbeed807a	-0.46387082
245	0x3e220f2f	0.15826105
246	0x3e327f89	0.17431463
247	0xbe4e70f6	-0.20160279
248	0x3eedecda	0.46469766
249	0xbe4cfd03	-0.20018391
250	0xbe2dcbb8	-0.16972244
251	0xbea33890	-0.3187909
252	0x3e816db4	0.2527901
253	0xbe4b798f	-0.1987059
254	0xbed91809	-0.4240115
255	0xbefcaa26	-0.49348563

fc1.bias f4 [64]
0	0x3eecfdfa	0.4628752
1	0xbdc3ced0	-0.09560931
2	0xbe15a51e	-0.14613768
3	0xbdc5620a	-0.0963784
4	0x3ec61624	0.38688767
5	0xbd25c90f	-0.040474948
6	0xbdbdbe69	-0.092648335
7	0xbce3dfcb	-0.027816674
8	0xbead59be	-0.3385753
9	0x3ef64ffa	0.48107892
10	0x3ef95f98	0.48705745
11	0xbda89dc0	-0.082332134
12	0xbe6195d2	-0.22029808
13	0xbe19cf60	-0.15020514
14	0x3eae1a0d	0.3400425
15	0xbc342c40	-0.010996878
16	0xbd83847e	-0.06421755
17	0xbd343a08	-0.044000655
18	0xbea77e8e	-0.3271374
19	0x3e977821	0.2958384
20	0x3dedae4e	0.116055116
21	0xbee998d6	-0.45624417
22	0xbe880c14	-0.26571715
23	0xbca8fdc5	-0.02062882
24	0xbe948a87	-0.29011938
25	0x3e460aa8	0.19340003
26	0xbec73f40	-0.38915443
27	0xbed5a99b	-0.4173096
28	0x3b93169e	0.00448878
29	0xbe9a5adc	-0.30147445
30	0xbec55856	-0.38543957
31	0xbe44b2c6	-0.19208822
32	0x3ed9e164	0.42554772
33	0x3c4431ae	0.011974735
34	0xbec72045	-0.38891807
35	0x3e10ecbe	0.1415281
36	0x3ea2b5dc	0.31779373
37	0xbedb4f4d	-0.4283394
38	0xbeccd9f0	-0.40010023
39	0xbe962399	-0.29324034
40	0x3d95f52a	0.07322152
41	0x3e9805be	0.2969188
42	0x3e25aaf1	0.1617849
43	0xbea12f54	-0.3148142
44	0xbe346aba	-0.17618838
45	0xbec9772b	-0.3934873
46	0xbe8f0ca7	-0.2793934
47	0x3e17ad7d	0.14812274
48	0xbd556690	-0.052099764
49	0x3d9f7d60	0.07787585
50	0xbe1943a3	-0.14967208
51	0x3dcfdea9	0.10149891
52	0xbed0603d	-0.40698424
53	0xbe3176b5	-0.1733044
54	0x3e020143	0.12695794
55	0x3d49d1fd	0.049272526
56	0xbde46db8	-0.1115374
57	0xbea97dfa	-0.33103925
58	0x3e577638	0.2104119
59	0xbe474cee	-0.1946294
60	0xbe89d791	-0.26922277
61	0x3ed2964c	0.41130292
62	0x3e6f1b61	0.23350288
63	0xb9c21632	-0.000370191

fc2.weight f4 [64, 64]
0	0xbd8017ca	-0.062545374
1	0xbdc4a720	-0.09602189
2	0x3c1d2f22	0.009593757
3	0x3d77080b	0.060310405
4	0xbe04e372	-0.12977389
5	0xbcb3b715	-0.021937886
6	0xbd80bf84	-0.06286529
7	0x3d86402c	0.065552086
8	0x3dbfebfd	0.09371183
9	0x3dce8d36	0.100855276
10	0x3dc4ad6c	0.0960339
11	0x3dccbdf6	0.0999717
12	0x3dec92a7	0.11551409
13	0x3db364a4	0.0875943
14	0x3cb3c578	0.021944746
15	0x3d992232	0.07477225
16	0xbcd06ac0	-0.025441527
17	0xbdbd80bc	-0.0925307
18	0xbdcf1739	-0.10111851
19	0x3cd347b7	0.025791032
20	0xbc8a7761	-0.016902627
21	0xbc900c38	-0.017583951
22	0x3bcde500	0.0062834024
23	0xbdbb677c	-0.091505975
24	0xbd75a709	-0.05997375
25	0x3d9c78ae	0.07640205
26	0xbdfc44b8	-0.123177946
27	0x3de554c4	0.111978084
28	0xbdea118c	-0.11429128
29	0x3ded5d8a	0.11590107
30	0x3d3dbe33	0.046323966
31	0xbb440d40	-0.0029915124
32	0xbd8125ae	-0.06306015
33	0x3d69e1c8	0.057100087
34	0xbded8486	-0.115975425
35	0xbd8b54a4	-0.06803253
36	0xbd0a2ff2	-0.03373713
37	0x3d817df0	0.06322849
38	0x3dc9dba5	0.09856347
39	0xbdf55105	-0.11978344
40	0xbddaec6c	-0.10689625
41	0x3dffec18	0.12496203
42	0xbd903137	-0.07040637
43	0xbdcc3fce	-0.09973107
44	0xbdbbfa68	-0.091786206
45	0x3d24112b	0.040055435
46	0xbb38d980	-0.0028205812
47	0xbb9cfd14	-0.0047909115
48	0xbdf3a428	-0.11896545
49	0x3d9360b9	0.07196183
50	0x3d696836	0.05698415
51	0xbdb31262	-0.087437406
52	0xbd626d0d	-0.05527978
53	0xbca328f1	-0.019916983
54	0x3d8c0bba	0.06838174
55	0xbbc25e49	-0.00593165
56	0xbd99340b	-0.074806295
57	0x3df249c4	0.11830476
58	0x3d126ff1	0.035751287
59	0x3dac7285	0.0842028
60	0xbddf3592	-0.108988896
61	0x3c6c7dd0	0.014434293
62	0x3df86cf9	0.1213016
63	0xbdb2d051	-0.087311395
64	0x3dcef1eb	0.10104736
65	0x3da22e86	0.0791903
66	0xbc0a7892	-0.008451598
67	0x3d958a6b	0.07301792
68	0x3def7371	0.116919406
69	0x3d274f32	0.04084701
70	0xbd5fb6ef	-0.05461782
71	0x3dbfb51b	0.09360715
72	0x3c212902	0.009836437
73	0x39c06c00	0.0003670156
74	0xbda97046	-0.082733676
75	0xbd98c234	-0.07458916
76	0x3ccc42a6	0.024934124
77	0x3d2b5cdd	0.04183661
78	0x3d798033	0.060913276
79	0xbde03e6c	-0.10949406
80	0x3db353f4	0.08756247
81	0x3d4f4896	0.050606333
82	0xbcd40e1d	-0.025885636
83	0x3d8d2e19	0.06893558
84	0x3dc2fb7e	0.095206246
85	0xbd50a780	-0.05094099
86	0xbd989fb4	-0.07452336
87	0xbb8ab58e	-0.004233069
88	0x3da84ffd	0.082183816
89	0xbb242ac0	-0.0025049895
90	0xbccfb3e0	-0.025354326
91	0x3de7ca80	0.11317921
92	0x3d7d6dcd	0.061872292
93	0xbd1e64e2	-0.038670428
94	0x3d92074b	0.07130297
95	0xbdcbfd5a	-0.09960432
96	0xbda5e3a6	-0.08100061
97	0x3d26a479	0.040684197
98	0x3cb33e9e	0.021880444
99	0xbd657239	-0.056017134
100	0x3d881140	0.06643915
101	0xbdd2c2e4	-0.10291079
102	0xbde3e556	-0.11127727
103	0xbdb7c9a5	-0.089740075
104	0x3d80cd14	0.062891155
105	0xbd7d31e1	-0.061815146
106	0x3dec45c9	0.11536748
107	0xbdd1b784	-0.10240081
108	0xbdcd0ef7	-0.1001262
109	0x3d95f016	0.073211834
110	0xbdfd7eb2	-0.12377681
111	0x3d837b37	0.06419986
112	0x3db34806	0.08753972
113	0xbcd183a5	-0.025575468
114	0xbc89ae5c	-0.016806774
115	0x3d9c5328	0.07633048
116	0xbd885c6e	-0.066582546
117	0xbc268c15	-0.010165234
118	0xbda0d72a	-0.07853539
119	0x3daeacd5	0.08529059
120	0x3c9e96ad	0.019358957
121	0xbddf4f87	-0.109038405
122	0x3bb691b7	0.00557157
123	0x3d538aaf	0.05164593
124	0xbcba6547	-0.02275337
125	0x3d8a66a3	0.06757858
126	0x3df0aa57	0.1175124
127	0x3da8572b	0.08219751
128	0x3dac08c6	0.08400111
129	0x3dbd3a34	0.09239617
130	0xbd54ed3b	-0.051984053
131	0xbd691d2c	-0.056912586
132	0x3d850300	0.06494713
133	0xbd33a501	-0.04385853
134	0xbda7684a	-0.081741884
135	0xbdc6c7b6	-0.097060606
136	0x3df5ecc3	0.12008049
137	0x3c8c2f10	0.017112285
138	0x3da2a63d	0.07941864
139	0x3db34358	0.08753079
140	0xbd0b5745	-0.034018774
141	0x3d7095be	0.058736555
142	0xbbd31989	-0.006442253
143	0xbdf99774	-0.121870905
144	0xbde8ed57	-0.11373394
145	0xbd9fbf6f	-0.07800185
146	0x3ddf89d4	0.109149605
147	0xbd5ef9c7	-0.054437425
148	0x3c385fc6	0.011253303
149	0xbd247b40	-0.040156603
150	0xbc44ab34	-0.012003709
151	0xbd9b9c1d	-0.075981356
152	0x3d4dac9c	0.05021344
153	0x3d8a9dae	0.06768356
154	0x3d8a6b66	0.06758766
155	0x3cd6085f	0.026127039
156	0xbd40043a	-0.04687903
157	0xbdd3ef70	-0.103484035
158	0x3d9927b1	0.07478274
159	0x3ddb2a28	0.107014
160	0xbdbab1c4	-0.09115937
161	0x3d26b30a	0.04069809
162	0xbda254b2	-0.079263106
163	0x3dd850fb	0.10562321
164	0x3d85449b	0.06507226
165	0x3db01923	0.085985444
166	0xbd397d5a	-0.04528556
167	0xbdfd51c2	-0.1236911
168	0x3c61dcd0	0.013785556
169	0x3d7d2e8f	0.06181198
170	0x3d07a4fa	0.03311632
171	0xbd3bfe9a	-0.045897104
172	0xbb1e7d2f	-0.0024183502
173	0xbd527c42	-0.051388033
174	0x3df111b0	0.11770952
175	0x3d8a089a	0.06739922
176	0xbd48e704	-0.04904844
177	0x3db35eda	0.08758326
178	0xbd93ac2f	-0.07210576
179	0x3df60b2e	0.12013851
180	0xbd51cd7f	-0.051221367
181	0xbd92bbd8	-0.071647346
182	0xbda2976f	-0.0793904
183	0xbdfa330e	-0.12216769
184	0xbddbeeb3	-0.10738888
185	0x3dbc1e0c	0.091854185
186	0x3d51540c	0.051105544
187	0x3b1a5ea2	0.002355494
188	0x3dd18329	0.10230095
189	0xbda1df66	-0.07903938
190	0x3d484169	0.048890505
191	0x3dbb644d	0.0914999
192	0xbba9ca40	-0.005181581
193	0x3d8e1d04	0.06939128
194	0x3dab07c0	0.083510876
195	0xbd70ce16	-0.05879029
196	0x3d18646c	0.037205145
197	0xbc1882ee	-0.00930856
198	0x3d90a4f6	0.07062714
199	0x3dae220e	0.08502589
200	0xbdd350eb	-0.10318168
201	0x3c953a20	0.018216193
202	0x3db9bab0	0.09068811
203	0xbdacc0ca	-0.08435209
204	0x3db1fd43	0.08690884
205	0xbd3dcfb4	-0.04634066
206	0xbcdbc82b	-0.026828846
207	0xbd416f9c	-0.04722558
208	0x3d5d285c	0.053993568
209	0xbcdf0585	-0.027224312
210	0xbd88bf1c	-0.06677076
211	0x3cb0dca2	0.02158958
212	0x3da04ebc	0.078275174
213	0x3d825f7c	0.063658684
214	0xbc0f4f20	-0.008746892
215	0x3d8a73f6	0.06760399
216	0x3d909d03	0.070611976
217	0x3dc85d80	0.09783459
218	0xbd3f8ba0	-0.046764016
219	0x3db861b0	0.090030074
220	0x3cb3302b	0.021873554
221	0x3cf8914a	0.030342717
222	0xbd747633	-0.059683036
223	0xbcdc9578	-0.026926741
224	0x3d1aea8c	0.037821338
225	0x3d96da50	0.073658586
226	0x3df885c6	0.1213489
227	0xbc06a183	-0.008217218
228	0x3d56bd5b	0.052426677
229	0xbd9e4b08	-0.07729155
230	0xbd4d8ed1	-0.05018503
231	0xbdaf8ace	-0.08571397
232	0x3dbd3f7a	0.09240623
233	0xbd467dc2	-0.048459776
234	0xbdace617	-0.08442324
235	0xbc065030	-0.008197829
236	0x3ae33db2	0.0017337112
237	0x3d862f5d	0.065520026
238	0xbd848032	-0.06469764
239	0xbdf9efdb	-0.12203952
240	0xbdf102c6	-0.11768107
241	0x3d99b691	0.07505525
242	0xbd4b121b	-0.049577814
243	0x3db7f7a6	0.08982782
244	0x3c59a383	0.013283613
245	0x3d1c03a0	0.038089395
246	0xbd9d82aa	-0.07690938
247	0xbd338c5e	-0.043835036
248	0xbd12c72f	-0.035834488
249	0x3daaa314	0.08331886
250	0x3dc3e2e0	0.09564757
251	0xbdba1ed8	-0.09087914
252	0xbcd38fc6	-0.025825392
253	0x3ceb7cc8	0.028746024
254	0xbd8709bf	-0.06593656
255	0x3d3ffcd5	0.04687198

fc2.bias f4 [64]
0	0xbdeb17b2	-0.11479129
1	0xbd8bced5	-0.068265595
2	0x3de412f8	0.111364305
3	0xbdeb7c60	-0.11498332
4	0x3df616ef	0.12016093
5	0x3c58d646	0.0132346805
6	0xbce220e1	-0.027603569
7	0xbd4813b0	-0.0488469
8	0xbca15767	-0.019694997
9	0x3dd76c53	0.10518708
10	0xbd44aae5	-0.04801454
11	0x3df15834	0.117844015
12	0x3db5d180	0.088778496
13	0x3c9b3c58	0.018949673
14	0x3da535ab	0.08066877
15	0xbda14103	-0.07873728
16	0xbd27ab94	-0.040935114
17	0xbd5545ae	-0.052068405
18	0x3de88721	0.11353899
19	0xbd7eaa56	-0.062174164
20	0xbd16caeb	-0.03681461
21	0xbd09e8ec	-0.033669397
22	0x3dac173a	0.084028676
23	0x3d1e974d	0.03871851
24	0xb72e2f4f	-1.0382223e-05
25	0x3a20c55c	0.00061329245
26	0x3d02f245	0.031969327
27	0x3d168b04	0.03675367
28	0xbdf874b6	-0.12131636
29	0xbe0107d9	-0.1260065
30	0xbd813305	-0.06308559
31	0xbde6deaa	-0.112729385
32	0xbd724f1e	-0.059157483
33	0xbde7e0c0	-0.113221645
34	0xbdc72bc9	-0.09725148
35	0x3c74a18d	0.014931095
36	0xbde8449c	-0.11341211
37	0x3b7015e0	0.0036634132
38	0xbd9c4eef	-0.07632243
39	0xbd3e6cb8	-0.0464904
40	0x3cfc05dd	0.030764515
41	0xbd2b096a	-0.041757025
42	0xbd130dd9	-0.035901878
43	0x3d424179	0.04742572
44	0x3c62fa9a	0.013853693
45	0xbbcfc378	-0.0063404404
46	0xbc57a270	-0.013161287
47	0xbc291945	-0.010320966
48	0xbd44fe26	-0.048093937
49	0x3daac032	0.083374396
50	0x3dc6b811	0.09703077
51	0xbd6445a2	-0.05573047
52	0x3da0de81	0.07854939
53	0xbd2ef3e6	-0.04271307
54	0xbdabba0f	-0.08385097
55	0xbda97676	-0.08274548
56	0xbd84d32e	-0.06485592
57	0xbdd901a6	-0.105960175
58	0x3d88060f	0.066417806
59	0xbdd959d2	-0.10612835
60	0x3c657610	0.014005199
61	0x3c5c4873	0.013445008
62	0xbdbcd1b2	-0.09219684
63	0xbd846ca9	-0.06466038

fc3.weight f4 [6, 64]
0	0x3d2c87bb	0.04212163
1	0x3c3dc4db	0.0115825785
2	0xbda83a40	-0.08214235
3	0x3cdea641	0.027178885
4	0xbdd00580	-0.10157299
5	0xbda2da38	-0.07951778
6	0x3c74762d	0.014920753
7	0xbdf0f8be	-0.11766194
8	0x3dc75783	0.097334884
9	0x3e01a49e	0.12660453
10	0xbd9582e1	-0.07300354
11	0x3dcd94fe	0.10038184
12	0x3da55358	0.08072537
13	0x3d97bbc2	0.07408859
14	0x3c53b47e	0.012921451
15	0x3dfdabce	0.12386285
16	0xbd3b10c0	-0.04567027
17	0xbd6f6b43	-0.058451902
18	0xbd84a031	-0.064758666
19	0xbd7c2d5f	-0.061566707
20	0x3daf8b59	0.085715
21	0xbdc814f4	-0.097696215
22	0x3d21cca0	0.039501786
23	0xbc0f4bc7	-0.008746094
24	0xbdebf323	-0.11520984
25	0xbd0a8c2f	-0.033825096
26	0x3ddbf262	0.1073959
27	0x3da7dc44	0.08196309
28	0xbda6c3d6	-0.081428215
29	0xbdab7763	-0.083723806
30	0xbc9a4a8e	-0.018834379
31	0xbd59154c	-0.052998826
32	0xbd96905b	-0.07351752
33	0x3defc8c5	0.117082156
34	0x3dac8c5c	0.08425209
35	0xbafe9175	-0.0019422012
36	0xbdee7aa7	-0.11644488
37	0x3d081184	0.03321983
38	0xbd259537	-0.040425505
39	0x3d80c2d4	0.062871605
40	0x3d98671d	0.07441542
41	0x3ce928a8	0.02846177
42	0x3da17184	0.078829795
43	0x3d2df722	0.042472012
44	0x3dfe4623	0.12415721
45	0x3d936f41	0.071989544
46	0xbcb79985	-0.022412071
47	0xbde71d68	-0.11284906
48	0x3c6ff7e6	0.014646506
49	0x3c4ef7bd	0.012632308
50	0x3d42c86b	0.047554415
51	0x3dabbf9f	0.08386158
52	0x3d9ed656	0.07755725
53	0xbd5ef2b8	-0.054430693
54	0x3deaf946	0.114733264
55	0xbdd190a5	-0.10232667
56	0x3c23e7be	0.010003982
57	0x3ddde757	0.1083514
58	0xbb6ae140	-0.0035839826
59	0xbcd3f135	-0.025871852
60	0xbd6ad338	-0.05733034
61	0x3db22256	0.08697955
62	0xbd761043	-0.060074102
63	0xbccade10	-0.02476409
64	0xbdb7b38e	-0.08969794
65	0xbd96e1b3	-0.073672675
66	0x3d569912	0.052392073
67	0x3df68efc	0.12038991
68	0x3dc81cbf	0.09771108
69	0x3cdfe2a6	0.027329754
70	0x3d9d2e3a	0.07674833
71	0x3de4ea4a	0.111774996
72	0xbd9326d8	-0.07185143
73	0xbd3a4b47	-0.045481946
74	0x3e015efc	0.1263389
75	0x3d2c1d84	0.042020336
76	0xbdc40dfa	-0.09572978
77	0x3c5b9020	0.013401061
78	0xbba1a753	-0.0049332767
79	0x3da76aa1	0.08174635
80	0x3dc95158	0.09829968
81	0x3da7dd67	0.08196526
82	0xbd15a540	-0.036534548
83	0xbdc63b6f	-0.09679305
84	0xbcbf2bfd	-0.023336405
85	0x3d5843ec	0.05279915
86	0xbdbb639b	-0.091498576
87	0x3c654ef8	0.013995878
88	0xbdb4171c	-0.0879347
89	0x3c2b828c	0.0104681365
90	0x3d77aa4b	0.06046514
91	0xbdd1f144	-0.10251096
92	0x3d89965f	0.06718134
93	0xbd761b02	-0.06008435
94	0x3dc325e3	0.09528711
95	0x3d46be99	0.04852161
96	0x3d36fc38	0.04467413
97	0x3dae3db1	0.085078605
98	0x3cf3b50e	0.02974942
99	0xbd78cb16	-0.060740553
100	0x3d9fc2dd	0.07800839
101	0xbbe08ce8	-0.006852735
102	0xbd713e0d	-0.058897067
103	0xbdd78d14	-0.105249554
104	0xbd429912	-0.04750926
105	0x3da20e6b	0.07912906
106	0x3d57187a	0.052513577
107	0x3c17c43a	0.009263093
108	0xbc515297	-0.012776039
109	0x3c914a88	0.017735735
110	0x3d0f6340	0.03500676
111	0xbd18e16d	-0.037324358
112	0x3df11789	0.11772067
113	0x3d53ac74	0.051678136
114	0x3d37ab57	0.044841137
115	0xbdb28c28	-0.08718139
116	0xbd3bb636	-0.045828067
117	0x3dae8497	0.08521383
118	0xbd99411f	-0.07483124
119	0xbdf4b8a1	-0.11949278
120	0xbda43729	-0.080183335
121	0x3d734f76	0.05940195
122	0x3ddcc5cd	0.10779915
123	0x3dea1954	0.11430612
124	0x3da0ac68	0.07845384
125	0x3d6109e5	0.054941077
126	0x3d7c46f7	0.061591115
127	0xbd2328f0	-0.039833963
128	0xbdd06402	-0.10175325
129	0x3deecedc	0.11660549
130	0xbdb62bbb	-0.0889506
131	0xbdbcd7ed	-0.09220872
132	0x3d29e819	0.04148111
133	0x3d35c607	0.044378307
134	0x3dcc5fcc	0.09979209
135	0x3db69758	0.08915585
136	0xbdc1d6d8	-0.09464806
137	0x3c53bc59	0.012923324
138	0x3dbcc97f	0.0921812
139	0x3d9f780e	0.077865705
140	0x3d2584ca	0.04040984
141	0x3d246ec0	0.040144682
142	0x3dc4b345	0.096045054
143	0xbd910222	-0.07080485
144	0x3c8420b0	0.016128868
145	0x3d9add5f	0.075617544
146	0x3cb82b85	0.02248169
147	0xbcdcf9d3	-0.026974594
148	0x3d883288	0.06650263
149	0x3d4b8174	0.049684003
150	0x3dc1b4de	0.09458326
151	0x3cdad079	0.026710736
152	0x3a097d87	0.000524484
153	0xbdc30ecc	-0.09524307
154	0x3d517799	0.051139448
155	0xbd5b697c	-0.053567395
156	0xbc812b6f	-0.015767781
157	0x3d6f65b9	0.05844662
158	0x3d38ee36	0.04514905
159	0x3bb1b6eb	0.005423417
160	0x3cc621fe	0.02418613
161	0x3de0c16a	0.10974391
162	0x3d2fe618	0.042944044
163	0x3ddd279f	0.10798573
164	0xbdd82332	-0.10553588
165	0xbd4689a7	-0.04847112
166	0xbcb8b359	-0.022546457
167	0xbd82b8f6	-0.06382935
168	0xbdd8b459	-0.105812736
169	0xbb633eee	-0.003467496
170	0x3cec30c4	0.028831847
171	0xbc6d2dff	-0.014476298
172	0x3c114f7d	0.008869049
173	0x3d73948c	0.059467837
174	0xbd861fc4	-0.065490276
175	0xbdd065b7	-0.101756506
176	0xba14215a	-0.0005650722
177	0x3dca1e0a	0.09869011
178	0xbcc4f2bb	-0.024041524
179	0xbde7b12b	-0.11313089
180	0xbd7a28b8	-0.06107399
181	0xbda2467c	-0.079236
182	0x3de4ae26	0.11166029
183	0xbd7536eb	-0.059866827
184	0xbdd17a2b	-0.1022838
185	0x3caf71c1	0.021416547
186	0x3dac5aa7	0.08415728
187	0x3ddcd384	0.10782531
188	0x3cdff100	0.027336597
189	0x3d6eb344	0.05827643
190	0x3dacbdcf	0.084346406
191	0xbc8bc2b8	-0.017060623
192	0x3d234d73	0.039868783
193	0xbd19f7f1	-0.03758997
194	0x3d1cd885	0.038292427
195	0xbd8069e0	-0.06270194
196	0xbd5d8d38	-0.054089755
197	0xbd5b01e0	-0.053468585
198	0xbc697dbf	-0.014251172
199	0x3ddb7b74	0.10716906
200	0xbd657562	-0.056020148
201	0x3d614986	0.055001758
202	0x3d0c0412	0.03418357
203	0xbdfcb7f4	-0.12339774
204	0x3cf9df5a	0.03050201
205	0x3de35136	0.11099474
206	0xbdf65ba0	-0.12029195
207	0xbdc12fc3	-0.09432938
208	0xbd5812e8	-0.052752405
209	0x3d93f85f	0.072251074
210	0xbc67963e	-0.014134942
211	0xbd984e91	-0.0743686
212	0x3da307a2	0.0796044
213	0xbdd55cc0	-0.10418081
214	0x3c2ccf72	0.010547506
215	0xbc0392ba	-0.008030588
216	0x3d86ad78	0.06576055
217	0x3df163fe	0.1178665
218	0xbd1efd90	-0.038816035
219	0xbc90ae50	-0.017661244
220	0x3d97e757	0.074171714
221	0x3db079b0	0.0861696
222	0xbcd8c9b2	-0.026463363
223	0x3da4c14e	0.080446824
224	0xbce318d9	-0.02772181
225	0x3cee8351	0.02911535
226	0x3d3e4507	0.04645255
227	0x3d8b6b38	0.0680756
228	0x3dd45b33	0.10368957
229	0xbccd97ec	-0.025096856
230	0xbcd5d91a	-0.026104499
231	0xbdf72a44	-0.120686084
232	0x3d02fbdc	0.031978473
233	0x3c8beb53	0.017079985
234	0xbd646e42	-0.055769213
235	0x3d8a0bb9	0.06740517
236	0x3dc76f47	0.09738021
237	0xbdd92803	-0.10603335
238	0xbd8451d0	-0.06460917
239	0x3ba02267	0.0048869136
240	0xbdf50e52	-0.11965622
241	0x3dd4f3ab	0.103980385
242	0x3d9d8eda	0.076932624
243	0xbdc153af	-0.094397895
244	0x3db811c7	0.08987766
245	0x3d83dce9	0.0643862
246	0x3deed4dd	0.11661694
247	0x3deeaa7b	0.1165361
248	0xbd714250	-0.05890113
249	0xbc3e8d64	-0.01163039
250	0xbd8d8151	-0.06909431
251	0xbcc55ef6	-0.024093132
252	0xbdf12ab4	-0.11775723
253	0xbdd4e0d9	-0.10394449
254	0xbd221ea3	-0.03958
255	0x3d2e5dd4	0.04256995

fc3.bias f4 [6]
0	0x3d5f585e	0.054527633
1	0x3d98e12f	0.07464825
2	0x3de18d03	0.11013224
3	0xbd832553	-0.064036034
4	0x3da73227	0.08163863
5	0x3c5c09d8	0.013430081

fc1.weight f4 [64, 4]
0	0xbef55b72	-0.4792133
1	0xbe24d66a	-0.16097417
2	0x3ef55910	0.47919512
3	0xbee0e418	-0.43924022
4	0xbee8cd4c	-0.4546913
5	0xbe6da138	-0.23206031
6	0xbe0f3b48	-0.13987458
7	0xbd36dc30	-0.04464358
8	0xbe2ef699	-0.17086257
9	0x3e099f97	0.13439785
10	0x3e914270	0.28371
11	0xbdcd9daf	-0.100398414
12	0xbe7678e1	-0.24069549
13	0x3ef1fc82	0.4726296
14	0x3eae9b46	0.3410284
15	0xbe8fdb6e	-0.280971
16	0x3e300722	0.17190221
17	0xbe2c606e	-0.1683366
18	0x3d7eff6d	0.06225531
19	0xbe0b0da4	-0.13579422
20	0x3b8c01ac	0.0042726602
21	0xbdde6b18	-0.1086027
22	0x3ee47272	0.44618565
23	0x3e99b7fc	0.3002318
24	0xbeff599b	-0.4987305
25	0x3eee2673	0.4651371
26	0x3e792430	0.2433021
27	0x3c8418b1	0.016125055
28	0x3e848d2a	0.2588895
29	0xbe90db28	-0.28292203
30	0xbcf0c329	-0.029389935
31	0xbddc0808	-0.10743719
32	0x3ea4c6ff	0.32183072
33	0xbe3983c7	-0.18116675
34	0x3ed711e2	0.4200583
35	0xbed9a7ae	-0.42510742
36	0xbe17f2bc	-0.1483869
37	0xbe960a96	-0.2930495
38	0x3d286e30	0.041120708
39	0xbe5b771c	-0.21432155
40	0xbedd1396	-0.43179005
41	0xbf0001ac	-0.5000255
42	0x3e885c9a	0.2663315
43	0x3c527409	0.012845048
44	0xbe454db0	-0.19267917
45	0xbec4dcba	-0.3844965
46	0xbec64d66	-0.38730925
47	0xbe333c84	-0.17503554
48	0x3dfce29d	0.123479106
49	0x3e003c92	0.12523106
50	0xbf004d5d	-0.50118047
51	0xbe662aa8	-0.2247721
52	0xbe33db48	-0.17564118
53	0xbe9e0a54	-0.30867255
54	0xbe82d56b	-0.2555345
55	0x3ebd5139	0.3697603
56	0x3e03dcb7	0.12877165
57	0xbe8461d6	-0.25855893
58	0xbefe8616	-0.49711674
59	0x3ce7d558	0.028299972
60	0xbce40040	-0.02783215
61	0xbe5f1844	-0.217866
62	0xbe4a8464	-0.19777066
63	0xbe1607d0	-0.14651418
64	0xbe909a7d	-0.28242865
65	0xbe619c13	-0.22032194
66	0xbe51b115	-0.20477708
67	0x3eb2f439	0.34951952
68	0xbe7a9f7b	-0.244749
69	0x3ec0ab79	0.37630823
70	0x3db78509	0.08960921
71	0x3ee52349	0.44753483
72	0x3ef76ab5	0.48323599
73	0xbed07724	-0.40715897
74	0x3ee3cfef	0.44494578
75	0x3ed0cee1	0.40782836
76	0x3ee022a2	0.43776423
77	0xbebdf089	-0.37097576
78	0x3e4cd40e	0.20002767
79	0xbe1cf6ac	-0.15328473
80	0x3e436030	0.19079661
81	0x3dda15da	0.10648699
82	0x3ed458dd	0.41474047
83	0xbec46f8e	-0.3836636
84	0xbe0d33dc	-0.13789314
85	0xbe50d9b0	-0.20395541
86	0xbe3e561c	-0.18587536
87	0xbedfb182	-0.43690115
88	0xbefae25a	-0.49000818
89	0xbe23c84f	-0.1599438
90	0x3e703ba8	0.23460257
91	0x3e07d265	0.13263853
92	0x3ee3fe6a	0.4453004
93	0xbee0d4ed	-0.4391245
94	0x3e5a4bd1	0.21317984
95	0x3e4ee690	0.2020514
96	0x3e775d1b	0.2415661
97	0xbbb90f73	-0.0056475936
98	0x3e68bb6a	0.22727743
99	0xbd37f160	-0.044907928
100	0xbe05dd8c	-0.13072795
101	0xbdd56320	-0.10419297
102	0x3dd0c550	0.101938844
103	0xbe8d880e	-0.27642864
104	0xbedc323e	-0.43007082
105	0xbe44bd10	-0.19212747
106	0xbef11e94	-0.47093642
107	0xbd09e2a0	-0.033663392
108	0x3ea57a69	0.32319954
109	0xbe9ad8c3	-0.302435
110	0xbdec599e	-0.115405306
111	0x3eb09147	0.34485838
112	0xbea248c6	-0.31696147
113	0x3edf36b5	0.43596426
114	0xbe84a52f	-0.25907275
115	0x3c864d11	0.01639417
116	0xbea1c7a8	-0.31597638
117	0x3ed740b8	0.42041564
118	0xbe8e8153	-0.27833042
119	0xbe9760c6	-0.2956602
120	0x3c876f4d	0.016532565
121	0x3e87b6b4	0.2650658
122	0xbd340546	-0.04395034
123	0x3ea849e1	0.32868865
124	0xbee6d2d8	-0.45082736
125	0xbd72c740	-0.05927205
126	0xbe47929d	-0.19489522
127	0x3e052f8f	0.13006423
128	0x3ef4b0bc	0.47791088
129	0x3de902aa	0.11377461
130	0xbe3ad2a3	-0.18244414
131	0xbec66484	-0.38748562
132	0xbea493ae	-0.3214392
133	0xbe0ae126	-0.1356245
134	0x3eec3d43	0.4614049
135	0x3d934f1d	0.07192824
136	0xbe8c4c67	-0.2740204
137	0x3e1bdb12	0.15220287
138	0x3ea66819	0.32501295
139	0x3cb5123c	0.022103421
140	0x3eaf92c5	0.34291664
141	0xbeb6f13d	-0.35730925
142	0xbe88dbf8	-0.26730323
143	0x3ee97393	0.4559599
144	0x3eea6ab2	0.45784527
145	0xbe598101	-0.21240617
146	0xbeb7f96f	-0.3593249
147	0xbee7e849	-0.45294407
148	0xbec9c75d	-0.39409915
149	0x3c9639a0	0.018338025
150	0x3e5518d6	0.20810255
151	0x3d9a7c22	0.07543208
152	0xbe89183d	-0.26776305
153	0x3e365665	0.17806394
154	0x3d350c48	0.044201165
155	0x3ea8df70	0.3298297
156	0x3eed08c0	0.46295738
157	0x3e13d118	0.14435232
158	0xbec4b44e	-0.38418812
159	0x3ec7fce4	0.39060128
160	0xbeaebaaa	-0.34126788
161	0x3e30812f	0.1723678
162	0xbc5b3d40	-0.013381302
163	0xbe8782f6	-0.26467103
164	0xbe61344b	-0.21992604
165	0x3e9c0a1b	0.3047646
166	0x3ee3260f	0.44364974
167	0x3eb694cc	0.35660398
168	0xbee730f1	-0.45154527
169	0x3ed3c213	0.41359004
170	0x3eb25a8f	0.34834716
171	0xbe048418	-0.12941015
172	0xbe223883	-0.1584187
173	0xbcf85ef6	-0.030318718
174	0xbec5a2aa	-0.38600665
175	0x3e029d6e	0.12755367
176	0x3da14355	0.07874171
177	0xbef97738	-0.4872377
178	0x3ed27550	0.41105127
179	0xbe9a16b0	-0.30095434
180	0x3e8af77c	0.2714194
181	0x3f00b610	0.50277805
182	0x3e949960	0.29023266
183	0xbe4da299	-0.20081557
184	0xbe7a7341	-0.24458028
185	0xbeb36a59	-0.35042074
186	0x3e3f2572	0.18666628
187	0x3eaee643	0.3416005
188	0xbc52eaa2	-0.012873324
189	0x3e8000eb	0.250007
190	0xbefc93c7	-0.49331495
191	0xbe3da450	-0.18519711
192	0xbef9c166	-0.48780364
193	0x3caba700	0.020953655
194	0xbe64e244	-0.22351938
195	0xbdb4ac28	-0.08821899
196	0xbdd0a3c1	-0.101874836
197	0x3d8ec964	0.06972006
198	0xbd963175	-0.07333652
199	0xbe5e5d81	-0.21715356
200	0x3e83aee5	0.2571937
201	0x3ebd4978	0.36970115
202	0x3ec07d2d	0.37595502
203	0xbed9cd0e	-0.42539257
204	0xbdb556be	-0.088544354
205	0xbe93c2e2	-0.2885962
206	0x3ee36cc5	0.44418922
207	0x3c4c4c64	0.012469385
208	0x3f00eae9	0.50358444
209	0xbeb6db04	-0.3571397
210	0x3e928371	0.28615907
211	0x3e983fa7	0.29736063
212	0xbe2efa78	-0.17087734
213	0x3eb3ccb8	0.35117126
214	0xbdee26f2	-0.11628522
215	0xbe9d2c0c	-0.30697668
216	0x3e81395b	0.2523907
217	0xbea69bd5	-0.32540765
218	0xbe320cde	-0.17387721
219	0x3e17f169	0.14838184
220	0xbe1dd16d	-0.15411921
221	0x3e8ed8fe	0.27899927
222	0x3d672eeb	0.05644123
223	0xbecadc49	-0.3962119
224	0xbdd84d8e	-0.105616674
225	0x3e3d53a9	0.18488945
226	0x3e6b32c2	0.22968581
227	0x3eb7ee26	0.3592388
228	0xbe031652	-0.12801483
229	0xbd553d8b	-0.052060645
230	0xbe7208e7	-0.23636208
231	0x3eb20509	0.34769467
232	0xbe08cc97	-0.13359295
233	0x3ea9bfc6	0.33154124
234	0x3e0648a7	0.13113652
235	0x3ddfb818	0.10923785
236	0x3ea8f678	0.3300054
237	0xbe78b910	-0.24289346
238	0xbe19bdcf	-0.15013812
239	0xbd8abac1	-0.06773902
240	0x3e79163a	0.24324885
241	0xbed9781b	-0.42474446
242	0xbe714e23	-0.23564963
243	0xbeb3e31c	-0.35134208
244	0xbeed807a	-0.46387082
245	0x3e220f2f	0.15826105
246	0x3e327f89	0.17431463
247	0xbe4e70f6	-0.20160279
248	0x3eedca74	0.46443522
249	0xbe4d5e24	-0.20055443
250	0xbe2fb76c	-0.17159814
251	0xbea4ddd1	-0.32200482
252	0x3e81fcd3	0.25388202
253	0xbe4a38ba	-0.19748202
254	0xbed823d5	-0.42214838
255	0xbefc839a	-0.49319154

fc1.bias f4 [64]
0	0x3eecfdfa	0.4628752
1	0xbdc3ced0	-0.09560931
2	0xbe16286f	-0.14663862
3	0xbdc764d4	-0.09736028
4	0x3ec63d05	0.3871843
5	0xbd24f052	-0.04026825
6	0xbdb90d9b	-0.09035798
7	0xbce0af6e	-0.027427401
8	0xbead4f3f	-0.33849522
9	0x3ef64ffa	0.48107892
10	0x3ef9fad7	0.48824188
11	0xbda89dc0	-0.082332134
12	0xbe61f2a0	-0.2206521
13	0xbe195058	-0.14972055
14	0x3eae25da	0.34013253
15	0xbc342c40	-0.010996878
16	0xbd840a76	-0.06447308
17	0xbd321e48	-0.04348591
18	0xbea73750	-0.32659388
19	0x3e970afc	0.29500568
20	0x3deb2004	0.11480716
21	0xbee998d6	-0.45624417
22	0xbe88092a	-0.26569492
23	0xbcb05831	-0.021526428
24	0xbe94675f	-0.28985116
25	0x3e460aa8	0.19340003
26	0xbec73f40	-0.38915443
27	0xbed51070	-0.41614103
28	0x3b91ed1a	0.0044533135
29	0xbe995cb1	-0.2995353
30	0xbec5c31e	-0.38625425
31	0xbe44b23a	-0.19208613
32	0x3ed9b53b	0.4252108
33	0x3c533a2a	0.012892285
34	0xbec74051	-0.38916257
35	0x3e1540c9	0.14575495
36	0x3ea22748	0.31670594
37	0xbedb82e3	-0.42873296
38	0xbecd2d94	-0.40073836
39	0xbe9641d1	-0.2934709
40	0x3d94843f	0.072517864
41	0x3e986428	0.29763913
42	0x3e256c65	0.1615463
43	0xbea1526e	-0.315082
44	0xbe34d058	-0.17657602
45	0xbec9a21b	-0.3938149
46	0xbe8eab45	-0.27865043
47	0x3e173ed3	0.1477006
48	0xbd556690	-0.052099764
49	0x3d9e90ba	0.07742448
50	0xbe198a3c	-0.14994138
51	0x3dcf9f66	0.10137825
52	0xbed0dd3c	-0.40793788
53	0xbe3126d6	-0.17299971
54	0x3e01debc	0.12682623
55	0x3d47dccb	0.04879455
56	0xbde21ffa	-0.11041255
57	0xbea972c1	-0.33095363
58	0x3e571b12	0.2100642
59	0xbe467ef5	-0.19384368
60	0xbe89ec74	-0.26938212
61	0x3ed2964c	0.41130292
62	0x3e6dcc15	0.23222382
63	0x3aa0f819	0.001228097

fc2.weight f4 [64, 64]
0	0xbd8017ca	-0.062545374
1	0xbdc4a720	-0.09602189
2	0x3c1b0950	0.0094626695
3	0x3d76c549	0.06024674
4	0xbe034840	-0.1282053
5	0xbcb5298a	-0.022114534
6	0xbd82be30	-0.06383932
7	0x3d86402c	0.065552086
8	0x3dc1ac3c	0.09456679
9	0x3dce8d36	0.100855276
10	0x3dc4ad6c	0.0960339
11	0x3dccbdf6	0.0999717
12	0x3debb52b	0.115091644
13	0x3db364a4	0.0875943
14	0x3cb3c578	0.021944746
15	0x3d992232	0.07477225
16	0xbcd06ac0	-0.025441527
17	0xbdbe2e6a	-0.092861965
18	0xbdcb9a71	-0.09941567
19	0x3cde3fe0	0.027130067
20	0xbc888c7f	-0.016668556
21	0xbc900c38	-0.017583951
22	0x3bcde500	0.0062834024
23	0xbdb73cdd	-0.089471556
24	0xbd746dcd	-0.059675027
25	0x3d9c78ae	0.07640205
26	0xbdfc44b8	-0.123177946
27	0x3de571e8	0.112033665
28	0xbdebfce3	-0.11522844
29	0x3deafe8e	0.11474334
30	0x3d3d40f4	0.046204522
31	0xbb440d40	-0.0029915124
32	0xbd8128a6	-0.06306581
33	0x3d69e1c8	0.057100087
34	0xbdedc722	-0.11610247
35	0xbd8b54a4	-0.06803253
36	0xbd0a2231	-0.033724014
37	0x3d817df0	0.06322849
38	0x3dca4513	0.09876456
39	0xbdf57102	-0.11984445
40	0xbddaec6c	-0.10689625
41	0x3e001145	0.12506588
42	0xbd9190dc	-0.07107708
43	0xbdcc3fce	-0.09973107
44	0xbdbbfa68	-0.091786206
45	0x3d2433eb	0.040088575
46	0xbb38d980	-0.0028205812
47	0xbbae544c	-0.0053201076
48	0xbdf3a428	-0.11896545
49	0x3d985633	0.07438316
50	0x3d69bb31	0.057063285
51	0xbdb31262	-0.087437406
52	0xbd5dde86	-0.054167293
53	0xbca69bea	-0.020338017
54	0x3d8c0bba	0.06838174
55	0xbbcaf418	-0.006193649
56	0xbd98ffeb	-0.074706875
57	0x3df249c4	0.11830476
58	0x3d11e32c	0.03561704
59	0x3dae0204	0.08496478
60	0xbddf3592	-0.108988896
61	0x3c6c7dd0	0.014434293
62	0x3df8bb44	0.12145093
63	0xbdb43a40	-0.08800173
64	0x3dcef1eb	0.10104736
65	0x3da22e86	0.0791903
66	0xbc1b588f	-0.009481563
67	0x3d969593	0.07352748
68	0x3def8522	0.11695315
69	0x3d1ef85c	0.038811073
70	0xbd63a989	-0.055581603
71	0x3dc01f25	0.0938094
72	0x3c283d43	0.010268512
73	0x39c06c00	0.0003670156
74	0xbda97046	-0.082733676
75	0xbd98c234	-0.07458916
76	0x3cd4aff9	0.025962817
77	0x3d2b5cdd	0.04183661
78	0x3d7becde	0.06150519
79	0xbde03e6c	-0.10949406
80	0x3db353f4	0.08756247
81	0x3d510523	0.05103029
82	0xbcd3c583	-0.025851017
83	0x3d8d82a0	0.0690968
84	0x3dc3d2d2	0.09561695
85	0xbd50a780	-0.05094099
86	0xbd989fb4	-0.07452336
87	0xbb8da48f	-0.0043225954
88	0x3da94934	0.082659155
89	0xbb242ac0	-0.0025049895
90	0xbccfb3e0	-0.025354326
91	0x3de7a569	0.11310846
92	0x3d7f70b6	0.06236335
93	0xbd1d5b7e	-0.038417332
94	0x3d931a78	0.07182783
95	0xbdcbfd5a	-0.09960432
96	0xbda4c1a3	-0.08044746
97	0x3d27b8a8	0.040947586
98	0x3cb37456	0.02190606
99	0xbd652eb3	-0.05595274
100	0x3d8957de	0.067062125
101	0xbdd2c2e4	-0.10291079
102	0xbde4039e	-0.111335024
103	0xbdb6912e	-0.089144096
104	0x3d7ff2d3	0.062487435
105	0xbd7db64a	-0.061941423
106	0x3dea66ff	0.11445426
107	0xbdd1b784	-0.10240081
108	0xbdcc2318	-0.09967631
109	0x3d9700bf	0.07373189
110	0xbdfd3f53	-0.12365594
111	0x3d852873	0.06501856
112	0x3db34806	0.08753972
113	0xbcd5fbb5	-0.026121
114	0xbc858bcc	-0.016302012
115	0x3d9c181e	0.076217875
116	0xbd87e36c	-0.06635174
117	0xbc1a23dd	-0.009407965
118	0xbda01568	-0.07816583
119	0x3dafe806	0.08589177
120	0x3c9eb428	0.019373015
121	0xbddf33c7	-0.108985476
122	0x3bc08847	0.0058756205
123	0x3d555097	0.05207881
124	0xbcb559dd	-0.022137577
125	0x3d8a66a3	0.06757858
126	0x3df1c45c	0.11805031
127	0x3da97105	0.0827351
128	0x3dac08c6	0.08400111
129	0x3dbd3a34	0.09239617
130	0xbd56f065	-0.05247535
131	0xbd691d2c	-0.056912586
132	0x3d851abd	0.064992405
133	0xbd34052f	-0.043950256
134	0xbda6b4d4	-0.08139959
135	0xbdc6ad9a	-0.097010806
136	0x3df6095e	0.120135054
137	0x3c8c2f10	0.017112285
138	0x3da1b47f	0.07895755
139	0x3db34358	0.08753079
140	0xbd0b5a57	-0.0340217
141	0x3d722643	0.05911852
142	0xbbd066c7	-0.0063599083
143	0xbdf99774	-0.121870905
144	0xbde82121	-0.11334444
145	0xbd9f6857	-0.07783573
146	0x3ddf85b9	0.109141774
147	0xbd5ee720	-0.054419637
148	0x3c392f19	0.011302733
149	0xbd247b40	-0.040156603
150	0xbc431340	-0.011906445
151	0xbd9b9dee	-0.07598482
152	0x3d4d9fa1	0.050201062
153	0x3d8a9dae	0.06768356
154	0x3d8a6b66	0.06758766
155	0x3cd69e42	0.02619851
156	0xbd3e5444	-0.04646708
157	0xbdd3ef70	-0.103484035
158	0x3d998231	0.07495535
159	0x3ddc0417	0.107429676
160	0xbdba96b9	-0.09110779
161	0x3d2501db	0.040284973
162	0xbda3371c	-0.07969496
163	0x3dd888bf	0.10572957
164	0x3d855efb	0.06512257
165	0x3db05b90	0.08611214
166	0xbd388231	-0.045046035
167	0xbdfd1728	-0.12357932
168	0x3c61dcd0	0.013785556
169	0x3d7d288d	0.06180625
170	0x3d07961a	0.033102132
171	0xbd3a1388	-0.045428783
172	0xbb1a47c6	-0.0023541315
173	0xbd52686a	-0.05136911
174	0x3df144e6	0.117807195
175	0x3d89b298	0.06723517
176	0xbd48e704	-0.04904844
177	0x3db35eda	0.08758326
178	0xbd9393f2	-0.07205953
179	0x3df4aeeb	0.119474255
180	0xbd51cf3c	-0.051223025
181	0xbd92bbd8	-0.071647346
182	0xbda2743a	-0.07932325
183	0xbdfa330e	-0.12216769
184	0xbddbd42f	-0.1073383
185	0x3dbce31d	0.09223006
186	0x3d51ac8f	0.051189955
187	0x3b1d820e	0.0024033817
188	0x3dd19b58	0.102347076
189	0xbda1df66	-0.07903938
190	0x3d487796	0.04894217
191	0x3dbb7b43	0.0915437
192	0xbba9ca40	-0.005181581
193	0x3d8e1d04	0.06939128
194	0x3dab05fd	0.083507515
195	0xbd71120c	-0.0588551
196	0x3d19c375	0.037539918
197	0xbc18cf8e	-0.009326829
198	0x3d90a4f6	0.07062714
199	0x3daed0ad	0.085358955
200	0xbdd295f2	-0.10282506
201	0x3c953a20	0.018216193
202	0x3db9bab0	0.09068811
203	0xbdacc0ca	-0.08435209
204	0x3db38bac	0.08766875
205	0xbd3dcfb4	-0.04634066
206	0xbcda25bd	-0.026629323
207	0xbd416f9c	-0.04722558
208	0x3d5d285c	0.053993568
209	0xbcdf05dc	-0.027224474
210	0xbd8813e7	-0.06644421
211	0x3cb3bfa6	0.021941971
212	0x3da132e2	0.07871033
213	0x3d825f7c	0.063658684
214	0xbc0f4f20	-0.008746892
215	0x3d8b226f	0.06793677
216	0x3d918314	0.07105079
217	0x3dc85d80	0.09783459
218	0xbd3f8ba0	-0.046764016
219	0x3db926ab	0.090405785
220	0x3cb3302b	0.021873554
221	0x3cf8914a	0.030342717
222	0xbd714da9	-0.058911953
223	0xbcdc9578	-0.026926741
224	0x3d1cfa65	0.038324732
225	0x3d96da50	0.073658586
226	0x3df885c6	0.1213489
227	0xbc00a5d7	-0.007852039
228	0x3d589db8	0.052884787
229	0xbd9e4b08	-0.07729155
230	0xbd4d8ed1	-0.05018503
231	0xbdae689a	-0.08516045
232	0x3dbd3f7a	0.09240623
233	0xbd474a4a	-0.048654832
234	0xbdace617	-0.08442324
235	0xbc065030	-0.008197829
236	0x3ac8b5e5	0.0015312998
237	0x3d8752b7	0.066075735
238	0xbd848032	-0.06469764
239	0xbdf85501	-0.12125588
240	0xbdf102c6	-0.11768107
241	0x3d99b691	0.07505525
242	0xbd48f0e0	-0.04905784
243	0x3db8682e	0.09004246
244	0x3c5fabc5	0.013651793
245	0x3d1c83df	0.0382117
246	0xbd9cdc12	-0.076591626
247	0xbd3369fc	-0.043802246
248	0xbd136ed2	-0.03599436
249	0x3daaa314	0.08331886
250	0x3dc3fa8b	0.09569272
251	0xbdb94686	-0.090466544
252	0xbcd22580	-0.025652647
253	0x3ceb7cc8	0.028746024
254	0xbd8620e3	-0.065492414
255	0x3d41d7d9	0.04732499

fc2.bias f4 [64]
0	0xbdeb9ce5	-0.11504535
1	0xbd8d1a7c	-0.06889817
2	0x3de438e2	0.11143662
3	0xbdead8a7	-0.114671044
4	0x3df66489	0.12030894
5	0x3c5df162	0.01354632
6	0xbce4324d	-0.027856017
7	0xbd4813b0	-0.0488469
8	0xbca132da	-0.019677568
9	0x3dd4b897	0.1038677
10	0xbd44c697	-0.048040953
11	0x3df15834	0.117844015
12	0x3db3f928	0.08787757
13	0x3c9b3c58	0.018949673
14	0x3da7b15c	0.081881255
15	0xbda3022b	-0.07959398
16	0xbd27ab94	-0.040935114
17	0xbd55ad4c	-0.052167222
18	0x3de472a8	0.111546814
19	0xbd8045b3	-0.06263294
20	0xbd228929	-0.039681587
21	0xbd09e8ec	-0.033669397
22	0x3da97e14	0.082760006
23	0x3d1c1c9f	0.038113233
24	0x3ab1a1b7	0.0013552223
25	0x3a7b3d2b	0.0009584005
26	0x3cfb65e0	0.030688226
27	0x3d168b04	0.03675367
28	0xbdf888df	-0.12135481
29	0xbe0021a4	-0.12512833
30	0xbd80ebe8	-0.062949955
31	0xbde7e458	-0.1132285
32	0xbd739100	-0.059464455
33	0xbdeaab68	-0.114584744
34	0xbdc79b12	-0.09746374
35	0x3c74a18d	0.014931095
36	0xbde806bb	-0.11329409
37	0x3b6bbc2f	0.003597032
38	0xbd9a92ea	-0.07547553
39	0xbd3e6cb8	-0.0464904
40	0x3cf7147c	0.030161135
41	0xbd29cd99	-0.04145584
42	0xbd15a758	-0.036536545
43	0x3d403e7c	0.04693459
44	0x3c4229e1	0.011850805
45	0xbbd36f44	-0.006452473
46	0xbc584441	-0.013199867
47	0xbc18fb88	-0.0093373135
48	0xbd4518ae	-0.04811924
49	0x3daa4a4a	0.08314951
50	0x3dc6a1cb	0.09698828
51	0xbd65eaf1	-0.05613226
52	0x3d9f5914	0.07780662
53	0xbd2fb37c	-0.04289578
54	0xbdac5b97	-0.08415907
55	0xbda8c8ee	-0.08241449
56	0xbd845d62	-0.06463124
57	0xbddaaf4f	-0.10677969
58	0x3d87c56d	0.06629453
59	0xbdda9839	-0.106735654
60	0x3c657610	0.014005199
61	0x3c4cd06c	0.0125008635
62	0xbdbcbde3	-0.092159055
63	0xbd846ca9	-0.06466038

fc3.weight f4 [6, 64]
0	0x3d1f0942	0.03882719
1	0x3c3b096a	0.011415819
2	0xbda8aad3	-0.08235707
3	0x3cde5cdb	0.027143886
4	0xbdd08808	-0.10182196
5	0xbda2a11d	-0.07940886
6	0x3c76729d	0.015041974
7	0xbdf0f8be	-0.11766194
8	0x3dc4c59b	0.09608003
9	0x3dfb7eea	0.12280066
10	0xbd95472f	-0.07288968
11	0x3dcd94fe	0.10038184
12	0x3da5549b	0.08072778
13	0x3d97bbc2	0.07408859
14	0x3c462de3	0.012095901
15	0x3dfe5a60	0.124195814
16	0xbd3b10c0	-0.04567027
17	0xbd6eeae6	-0.058329485
18	0xbd868ded	-0.06570039
19	0xbd7cabcb	-0.061687272
20	0x3da57ded	0.08080659
21	0xbdc814f4	-0.097696215
22	0x3d1d4d88	0.038404018
23	0xbc251e00	-0.010077953
24	0xbdeeb9d9	-0.116565414
25	0xbd0bbdda	-0.034116603
26	0x3ddbee24	0.10738781
27	0x3da7dc44	0.08196309
28	0xbda7b627	-0.0818904
29	0xbdaaac21	-0.08333612
30	0xbca1ef60	-0.019767463
31	0xbd5d93fb	-0.054096203
32	0xbd973abc	-0.073842496
33	0x3df0a490	0.11750138
34	0x3dacbe32	0.084347144
35	0xbafe9175	-0.0019422012
36	0xbded4a32	-0.11586417
37	0x3d081184	0.03321983
38	0xbd26f39b	-0.040759664
39	0x3d80c2d4	0.062871605
40	0x3d98d1d9	0.074619
41	0x3cc4f6e0	0.0240435
42	0x3da0667f	0.078320496
43	0x3d2e34e6	0.042530917
44	0x3dfa080f	0.12208568
45	0x3d936f41	0.071989544
46	0xbcbe0348	-0.023194924
47	0xbde7f5cc	-0.11326179
48	0x3c6e47bd	0.014543471
49	0x3c54dc66	0.012992
50	0x3d48b715	0.049002726
51	0x3da8e85e	0.082474455
52	0x3d9ee222	0.07757975
53	0xbd60bb5b	-0.054866176
54	0x3dea933a	0.114538625
55	0xbdd2b072	-0.102875605
56	0x3c2120a0	0.009834439
57	0x3ddd07ec	0.107925266
58	0xbb64ca6c	-0.0034910692
59	0xbcc7656c	-0.024340354
60	0xbd6ad338	-0.05733034
61	0x3db255e2	0.08707787
62	0xbd7372a0	-0.059435487
63	0xbccade10	-0.02476409
64	0xbdb411ca	-0.087924555
65	0xbd976e9b	-0.07394143
66	0x3d531575	0.051534135
67	0x3df63e1c	0.12023565
68	0x3dc7c9a6	0.09755258
69	0x3cdbe807	0.026844038
70	0x3d9da068	0.07696611
71	0x3de4ea4a	0.111774996
72	0xbd93b2ce	-0.07211839
73	0xbd3dcfea	-0.04634086
74	0x3e013a05	0.12619789
75	0x3d2c1d84	0.042020336
76	0xbdc56685	-0.09638695
77	0x3c5b9020	0.013401061
78	0xbbb640b1	-0.005561911
79	0x3da720f4	0.08160582
80	0x3dc95158	0.09829968
81	0x3da81112	0.08206381
82	0xbd199984	-0.03749992
83	0xbdc5bd66	-0.096552655
84	0xbccf48f7	-0.025303347
85	0x3d5843ec	0.05279915
86	0xbdbcfcae	-0.09227882
87	0x3c62ab0d	0.013834727
88	0xbdb54f5c	-0.08853027
89	0x3c24b35d	0.010052529
90	0x3d76758b	0.06017069
91	0xbdd1f144	-0.10251096
92	0x3d891889	0.06694133
93	0xbd76f398	-0.060290903
94	0x3dc3fa05	0.09569172
95	0x3d3df405	0.046375293
96	0x3d348438	0.044071406
97	0x3daea487	0.08527475
98	0x3cf2c6d8	0.029635832
99	0xbd78cb16	-0.060740553
100	0x3da00dd9	0.07815141
101	0xbbe08ce8	-0.006852735
102	0xbd718cde	-0.058972232
103	0xbdd78d14	-0.105249554
104	0xbd436cc4	-0.04771115
105	0x3da18f06	0.07888608
106	0x3d533ef6	0.051573716
107	0x3c10ac07	0.008830077
108	0xbc552fc1	-0.013011874
109	0x3c914a88	0.017735735
110	0x3d0f5e62	0.03500212
111	0xbd1a32dd	-0.037646163
112	0x3df11789	0.11772067
113	0x3d51ea24	0.051248685
114	0x3d389dcb	0.045072358
115	0xbdb2cb75	-0.087302126
116	0xbd3d3b64	-0.046199217
117	0x3dadbfd9	0.08483858
118	0xbd99f527	-0.07517462
119	0xbdf5ee48	-0.12008339
120	0xbda4a65a	-0.080395415
121	0x3d72250a	0.059117354
122	0x3ddc9f74	0.10772601
123	0x3debce4d	0.11513958
124	0x3da0ac68	0.07845384
125	0x3d6052d7	0.054766502
126	0x3d7de062	0.061981566
127	0xbd2328f0	-0.039833963
128	0xbdd2a4fc	-0.102853745
129	0x3def0355	0.116705574
130	0xbdb5cd53	-0.08877053
131	0xbdbcaa2f	-0.092121474
132	0x3d28af39	0.04118273
133	0x3d370a29	0.044687424
134	0x3dcd228e	0.100163564
135	0x3db69758	0.08915585
136	0xbdc20eaf	-0.09475457
137	0x3c3cdda2	0.011527451
138	0x3dbd16fd	0.092329
139	0x3d9f780e	0.077865705
140	0x3d274a53	0.040842365
141	0x3d246ec0	0.040144682
142	0x3dc8bc60	0.09801555
143	0xbd906803	-0.07051089
144	0x3c8420b0	0.016128868
145	0x3d9ba1b1	0.075991996
146	0x3cc43fa7	0.023956133
147	0xbcdc97bd	-0.026927823
148	0x3d88d385	0.06680969
149	0x3d4b8174	0.049684003
150	0x3dc23bac	0.09484038
151	0x3ce1e56c	0.027575217
152	0xba56a271	-0.0008187658
153	0xbdc2505c	-0.094879836
154	0x3d5221fe	0.05130195
155	0xbd5b697c	-0.053567395
156	0xbc845967	-0.016155912
157	0x3d70bf65	0.058776278
158	0x3d3868cc	0.045021817
159	0x3bab9c48	0.005237136
160	0x3cc6aeb4	0.024253227
161	0x3de17c0b	0.110099874
162	0x3d31a32d	0.043368507
163	0x3ddd279f	0.10798573
164	0xbdd78366	-0.10523109
165	0xbd468571	-0.048467103
166	0xbcb73586	-0.02236439
167	0xbd82b8f6	-0.06382935
168	0xbdd8304d	-0.10556088
169	0xbbbbabc9	-0.0057272655
170	0x3ced8de1	0.028998317
171	0xbc6666a5	-0.014062558
172	0x3c07f9bf	0.00829929
173	0x3d73948c	0.059467837
174	0xbd8783e9	-0.06616957
175	0xbdd03cad	-0.10167823
176	0xba3b857d	-0.0007153375
177	0x3dcb18cb	0.09916838
178	0xbcbe261b	-0.02321153
179	0xbde83955	-0.1133906
180	0xbd79a0ed	-0.060944486
181	0xbda23a6c	-0.07921299
182	0x3de4ebd3	0.111777924
183	0xbd6cfbfc	-0.0578575
184	0xbdd1d5f8	-0.102458894
185	0x3cb1020b	0.02160742
186	0x3daccf91	0.08438028
187	0x3dde7463	0.10862043
188	0x3cdff100	0.027336597
189	0x3d6f8b2d	0.058482338
190	0x3dac9634	0.084270865
191	0xbc8bc2b8	-0.017060623
192	0x3d1ab4f3	0.037770223
193	0xbd18c448	-0.037296563
194	0x3d2749fe	0.04084205
195	0xbd80f4e4	-0.06296709
196	0xbd5d940a	-0.05409626
197	0xbd56c7ea	-0.052436747
198	0xbc6d5901	-0.014486552
199	0x3ddb7b74	0.10716906
200	0xbd6621c8	-0.05618456
201	0x3d5c3f44	0.053771272
202	0x3d0d5ace	0.034510426
203	0xbdfcb7f4	-0.12339774
204	0x3d020611	0.031744067
205	0x3de35136	0.11099474
206	0xbdf6cfe0	-0.12051368
207	0xbdbfdc2b	-0.093681656
208	0xbd5812e8	-0.052752405
209	0x3d934247	0.07190376
210	0xbc634095	-0.013870378
211	0xbd99d176	-0.07510655
212	0x3da23d4b	0.07921847
213	0xbdd55cc0	-0.10418081
214	0x3c266349	0.010155507
215	0xbc2cd1ec	-0.010548096
216	0x3d845767	0.06461983
217	0x3df3d474	0.119057566
218	0xbd1c3a3b	-0.03814147
219	0xbc90ae50	-0.017661244
220	0x3d97e17f	0.07416057
221	0x3db1fe0f	0.08691036
222	0xbce23f7d	-0.027618164
223	0x3d9d67ac	0.076857895
224	0xbcdd5433	-0.027017688
225	0x3cf36d59	0.029715227
226	0x3d3dafb7	0.046310153
227	0x3d8b6b38	0.0680756
228	0x3dd5dd8a	0.10442646
229	0xbccd97ec	-0.025096856
230	0xbcda2d04	-0.026632793
231	0xbdf72a44	-0.120686084
232	0x3d060e80	0.032728672
233	0x3c66f5c9	0.014096686
234	0xbd617b66	-0.055049323
235	0x3d8c4ae0	0.06850219
236	0x3dc0f424	0.09421566
237	0xbdd88a7f	-0.10573291
238	0xbd85b796	-0.06529157
239	0x3b8daf1d	0.0043238536
240	0xbdf50e52	-0.11965622
241	0x3dd7c717	0.1053602
242	0x3d9fc177	0.07800572
243	0xbdc5fc91	-0.09667314
244	0x3db9af19	0.090666
245	0x3d83becb	0.06432875
246	0x3def5358	0.116858184
247	0x3df08967	0.117449574
248	0xbd738713	-0.05945499
249	0xbc472d2a	-0.012156764
250	0xbd8d3ea9	-0.06896717
251	0xbcbae912	-0.022816215
252	0xbdf12ab4	-0.11775723
253	0xbdd39ced	-0.103326656
254	0xbd231e68	-0.03982392
255	0x3d2e5dd4	0.04256995

fc3.bias f4 [6]
0	0x3d5976b6	0.053091727
1	0x3d97d8ef	0.07414424
2	0x3de0e3e3	0.10980966
3	0xbd838dfa	-0.06423564
4	0x3da5ed14	0.0810186
5	0x3c532e91	0.01288952
