saved_models/dqn_best_model_episode_8815.pt (torch, 87371 bytes, 24 tensors)

fc1.weight f4 [64, 4]
0	0xbe1619f6	-0.14658341
1	0x3e47b364	0.19502026
2	0x3ed08b14	0.40731108
3	0xbcabb1eb	-0.020958861
4	0xbdbcebe3	-0.09224679
5	0x3eb49fb3	0.3527809
6	0xbec1e649	-0.37871006
7	0xbd63d0e0	-0.05561912
8	0xbece4e16	-0.4029395
9	0x3d0ebc2c	0.034847423
10	0xbe16e3aa	-0.14735284
11	0x3dfb4c9a	0.1227047
12	0xbed772fe	-0.4207992
13	0x3d7f72ef	0.06236547
14	0x3dad1f3e	0.084532246
15	0x3ee76ac4	0.45198643
16	0x3ef416c1	0.4767361
17	0xbe90b676	-0.28264207
18	0xbee06c50	-0.43832636
19	0x3e165abe	0.14683053
20	0x3e790a5f	0.24320363
21	0xbe2efab3	-0.17087822
22	0xbeb9a46c	-0.36258256
23	0x3d13fb51	0.036128346
24	0xbef8ac82	-0.48569113
25	0x3ef0acd0	0.47006845
26	0xbee4f3ac	-0.44717157
27	0xbdeef5f9	-0.11668009
28	0x3ee0d882	0.43915182
29	0x3eefebab	0.46859488
30	0x3e9a7040	0.30163765
31	0xbecb4d14	-0.39707243
32	0xbe8a35e6	-0.26994246
33	0x3ec844f7	0.39115116
34	0x3bedc6af	0.007256351
35	0x3d0e990d	0.03481393
36	0xbef7be34	-0.483873
37	0xbe844efc	-0.2584151
38	0xbe779ed0	-0.24181676
39	0xbc3ca980	-0.011515021
40	0x3beabf2e	0.0071639037
41	0xbec5da1a	-0.3864296
42	0xbe80848a	-0.2510112
43	0xbeba9744	-0.36443532
44	0x3ea11c19	0.3146675
45	0x3e6b6c44	0.22990519
46	0x3dd3e935	0.10347215
47	0xbe1abc22	-0.1511083
48	0x3e7cdf86	0.24694642
49	0xbe73d8bf	-0.23813151
50	0x3eb35743	0.35027513
51	0x3d23e08c	0.040009066
52	0xbef39e44	-0.47581685
53	0x3d20d658	0.039266914
54	0xbeda89c2	-0.42683226
55	0xbe7dba4c	-0.24778098
56	0x3de5918f	0.11209404
57	0xbefb01fc	-0.4902495
58	0xbee6a55a	-0.45048028
59	0x3e519213	0.20465879
60	0x3db5856d	0.088633396
61	0x3ec32811	0.38116506
62	0x3d9e2c97	0.077233486
63	0x3d5c0a8d	0.053721
64	0x3ecaa861	0.39581588
65	0x3e98adb2	0.2982002
66	0xbda4ad30	-0.080408454
67	0x3ddc822f	0.10767018
68	0x3ea62289	0.32448223
69	0x3ec6d171	0.38831666
70	0x3e1dcb8b	0.15409677
71	0xbef56810	-0.47930956
72	0xbebd8614	-0.37016356
73	0xbec63d68	-0.38718724
74	0xbe0ada94	-0.13559943
75	0xbeedd05c	-0.46448028
76	0x3bc65f39	0.006053832
77	0xbd88ddf7	-0.066829614
78	0xbd9cc0dc	-0.076539725
79	0x3eb9ca27	0.36287042
80	0x3e48d30f	0.19611762
81	0x3d8845ae	0.06653915
82	0xbe20f862	-0.1571975
83	0x3ec2f730	0.38079214
84	0x3dbbb5e9	0.09165556
85	0xbe1de828	-0.15420592
86	0x3e52ff36	0.20605168
87	0xbe7dbe83	-0.24779706
88	0x3eaf0e7c	0.34190738
89	0x3ed4bcdb	0.41550335
90	0x3df828ea	0.12117179
91	0xbd876535	-0.066111006
92	0x3e0f91ce	0.14020464
93	0x3e15a029	0.14611878
94	0xbde7ba37	-0.113148145
95	0x3d2bcba1	0.041942243
96	0xbd4d7f50	-0.050170243
97	0xbeba5999	-0.36396483
98	0x3edac5b2	0.42728955
99	0xbea683a1	-0.325223
100	0xbe9bdcfe	-0.3044204
101	0x3ec1ca1c	0.3784951
102	0xbec555b9	-0.38541964
103	0xbd8e234b	-0.06940325
104	0xbee1ca40	-0.44099617
105	0x3d14c396	0.036319338
106	0x3e95c6a0	0.292531
107	0x3e67ec06	0.2264863
108	0x3efe7a93	0.49702892
109	0xbe0754d5	-0.13215955
110	0xbef30f06	-0.474724
111	0xbed87779	-0.4227865
112	0xbee4010a	-0.44532043
113	0x3daf9c13	0.08574691
114	0x3de586a0	0.11207318
115	0xbef621b8	-0.480726
116	0x3e4913bb	0.19636433
117	0xbe84e563	-0.25956258
118	0x3e99bd6f	0.3002734
119	0xbeb5d910	-0.35517168
120	0x3ea82702	0.3284226
121	0xbeb9f23f	-0.36317632
122	0xbe60a863	-0.21939234
123	0x3e88a403	0.2668763
124	0x3d8b646d	0.06806264
125	0xbdb0fc6c	-0.08641896
126	0x3e85c525	0.26126972
127	0x3c1b175b	0.009466018
128	0x3e98bafb	0.29830155
129	0x3ed67145	0.41883293
130	0x3ef06e27	0.4695904
131	0xbe9b2352	-0.30300385
132	0xbec2d063	-0.3804961
133	0x3e3a91ad	0.18219633
134	0xbeef83fd	-0.46780387
135	0x3e9ea5d1	0.30985883
136	0xbe9e161e	-0.3087625
137	0x3d741cc3	0.05959774
138	0x3a6317a1	0.0008662884
139	0x3de8eb24	0.113729745
140	0xbe479124	-0.1948896
141	0x3ed2eaaa	0.4119466
142	0xbeec9d87	-0.46213934
143	0xbd04fce6	-0.032467745
144	0x3de99dd6	0.11407058
145	0x3efe369a	0.49651033
146	0x3e91104a	0.2833274
147	0xbe9a7195	-0.3016478
148	0xbe89abb3	-0.2688881
149	0xbe5c35a2	-0.21504834
150	0xbd5738a4	-0.05254425
151	0x3e266c96	0.1625236
152	0x3eae8c37	0.3409135
153	0xbd083d72	-0.033261724
154	0x3eda93f7	0.42691013
155	0x3da524ba	0.08063646
156	0xbde6b557	-0.112650566
157	0x3e7aa07b	0.24475281
158	0x3ea43d36	0.3207795
159	0xbe29a75b	-0.16567747
160	0x3ea034b5	0.31290212
161	0x3eee6f1b	0.46569142
162	0x3e67eae9	0.22648205
163	0x3db8efb8	0.09030098
164	0x3ed487a9	0.4150975
165	0x3eebfed8	0.46092868
166	0xbeb5e674	-0.35527384
167	0xbe7c112a	-0.24615923
168	0xbeed13a0	-0.46304035
169	0xbedacef0	-0.42736006
170	0xbea2eedc	-0.3182286
171	0xbe4b2a2c	-0.19840306
172	0x3aca3003	0.0015425686
173	0xbef88e82	-0.48546225
174	0x3ec22eb3	0.37926254
175	0xbe8e9546	-0.27848262
176	0xbe0e7434	-0.13911515
177	0xbef87a28	-0.48530698
178	0xbedbcf38	-0.42931533
179	0xbebf6c8a	-0.37387496
180	0xbe37a244	-0.17932993
181	0xbef15956	-0.4713847
182	0x3ccc3720	0.02492863
183	0xbd02f950	-0.031976044
184	0x3e8a72a1	0.2704058
185	0x3de7ef23	0.113249086
186	0x3d2de8e6	0.042458437
187	0x3cde171f	0.027110634
188	0x3dc1f617	0.09470766
189	0x3ef485a5	0.47758213
190	0x3e849a5e	0.25899023
191	0xbed772dd	-0.4207982
192	0x3ec58142	0.38575178
193	0x3ebc1f39	0.3674257
194	0x3dfcd327	0.123449616
195	0x3eaf9cca	0.34299308
196	0xbed75fea	-0.42065364
197	0x3efacbfe	0.4898376
198	0x3e201ece	0.15636751
199	0x3daa4508	0.08313948
200	0xbe7abca7	-0.24486028
201	0x3db3750c	0.08762559
202	0x3e9e2122	0.30884653
203	0xbec8903e	-0.39172548
204	0x3e28d5cf	0.16487812
205	0x3eee3f2d	0.46532574
206	0x3ed709e4	0.41999733
207	0xbecb051a	-0.3965233
208	0x3c2aa98b	0.010416399
209	0x3e04efce	0.12982103
210	0xbe94949a	-0.29019624
211	0x3ccdb8e1	0.025112571
212	0x3eb29669	0.3488038
213	0x3e963a8b	0.2934154
214	0xbee689d6	-0.45027035
215	0x3ee3c7fb	0.4448851
216	0x3daff981	0.08592511
217	0x3eb8c557	0.36088058
218	0xbec6c26a	-0.388202
219	0x3e108d1f	0.14116333
220	0x3d45a508	0.04825309
221	0x3e37c3a3	0.17945723
222	0xbed63934	-0.41840518
223	0xbd8a4205	-0.067508735
224	0x3ab267bc	0.0013611238
225	0x3eec9407	0.46206686
226	0xbdec26a5	-0.11530808
227	0x3e695895	0.22787698
228	0x3e0029f6	0.12516007
229	0x3ed6da8a	0.41963607
230	0x3ee4ab3c	0.4466189
231	0xbe3e1de3	-0.18566088
232	0x3eba44b6	0.36380547
233	0x3e32b215	0.17450745
234	0xbe33893f	-0.17532824
235	0x3ed38f89	0.41320446
236	0x3ea30c9c	0.31845558
237	0xbe48e138	-0.19617164
238	0x3da59055	0.0808417
239	0xbdcf77d8	-0.1013028
240	0xbe37b239	-0.1793908
241	0xbdfd814c	-0.12378177
242	0x3e8a2d65	0.26987758
243	0xbee267d0	-0.44219828
244	0x3ed3a5f6	0.41337556
245	0xbe307587	-0.17232333
246	0x3e551d92	0.20812061
247	0xbec10b60	-0.3770399
248	0xbed0fccc	-0.4081787
249	0xbed608e8	-0.4180367
250	0x3ee6a4aa	0.45047504
251	0x3d03aaf6	0.032145463
252	0xbeb77579	-0.35831812
253	0xbe08641d	-0.1331944
254	0xbcf22beb	-0.029561957
255	0x3e8dd54f	0.27701804

fc1.bias f4 [64]
0	0x3ea312f5	0.318504
1	0x3e796ecd	0.24358673
2	0x3ef0103c	0.46887386
3	0xbe4e8171	-0.20166565
4	0xbeddc07a	-0.4331091
5	0x3eafc068	0.34326482
6	0xbe735ef6	-0.23766693
7	0x3eb6172f	0.35564563
8	0x3ea2af06	0.31774157
9	0xbe9a284c	-0.3010887
10	0xbdb3c83d	-0.08778427
11	0x3c8ab749	0.0169331
12	0x3d77f046	0.060531877
13	0x3ed37a32	0.41304165
14	0xbeed27e3	-0.46319494
15	0xbee55b84	-0.44796383
16	0xbe8502c1	-0.25978664
17	0xbedf3986	-0.43598574
18	0x3e34ce48	0.17656815
19	0x3ecf5e48	0.40501618
20	0x3def53a6	0.116858765
21	0xbdb2ee48	-0.08736855
22	0xbf00f688	-0.50376177
23	0xbe37aeb9	-0.17937745
24	0x3e6ac33f	0.22926043
25	0x3ebe716c	0.3719591
26	0x3e8306f5	0.25591245
27	0xbeb8a9b6	-0.3606698
28	0x3e0bbb17	0.13645588
29	0xbee62fca	-0.44958335
30	0xbdb6cd29	-0.0892585
31	0xbd080a50	-0.03321296
32	0xbcf63845	-0.030056128
33	0xbe744bf2	-0.23857096
34	0x3eb82316	0.35964268
35	0x3e490ca0	0.19633722
36	0x3e8ad6c9	0.27116993
37	0xbe0565d7	-0.1302713
38	0x3e0d2f0a	0.13787475
39	0x3ea3b73f	0.31975743
40	0x3efe99a4	0.49726593
41	0xbcbc5d9b	-0.022993853
42	0xbee1dbc8	-0.44112992
43	0xbebafc5d	-0.36520663
44	0x3eb5b904	0.35492718
45	0x3e4bbb0c	0.19895571
46	0x3ed40c3a	0.41415578
47	0xbebdc10d	-0.3706135
48	0x3efa7633	0.48918304
49	0x3e2a8464	0.16652066
50	0x3e238b0b	0.1597101
51	0x3de5dc92	0.11223711
52	0xbe096e5e	-0.13421008
53	0xbe36ade0	-0.17839766
54	0xbe2d8d73	-0.1694849
55	0x3e9f693b	0.31134972
56	0xbea94937	-0.3306367
57	0xbe7c0550	-0.24611402
58	0xbe07c2b9	-0.13257875
59	0x3ec61446	0.38687342
60	0x3ee388d2	0.44440323
61	0x3d80908e	0.062775716
62	0xbeb346e3	-0.3501502
63	0xbe6cadcd	-0.23113175

fc2.weight f4 [64, 64]
0	0xbdb380d3	-0.08764806
1	0x3db817ea	0.08988936
2	0xbddeffce	-0.108886346
3	0xbcd99448	-0.026559964
4	0xbc853110	-0.016258746
5	0xbd0d9087	-0.03456166
6	0x3dcc0b8c	0.0996314
7	0xbb91cd2c	-0.004449507
8	0x3ddc185c	0.10746834
9	0x3c8344c0	0.016023993
10	0x3de36b34	0.11104432
11	0x3d8403db	0.06446048
12	0xbdae405e	-0.08508371
13	0x3d9ee530	0.07758558
14	0xbdaaeba8	-0.08345729
15	0x3d92507c	0.071442574
16	0xbd937bbd	-0.072013356
17	0xbd288cd1	-0.041149918
18	0xbdaff17c	-0.08590981
19	0x3bc5af96	0.0060328944
20	0xbdf79f8e	-0.120909795
21	0x3dfa98fe	0.12236212
22	0x3d4d3e18	0.050108045
23	0x3d8de4c6	0.06928401
24	0x3d80c654	0.06287828
25	0xbdd2220a	-0.10260399
26	0xbd80dcec	-0.062921375
27	0xbd4de843	-0.05027033
28	0xbd20b8a9	-0.039238606
29	0xbdacee80	-0.08443928
30	0xbd3869fc	-0.04502295
31	0xbd924dfc	-0.071437806
32	0xbd2db78b	-0.04241137
33	0xbd679d21	-0.056546334
34	0x3bd75607	0.0065715346
35	0xbdb713a8	-0.08939296
36	0xbd2d3ece	-0.042296223
37	0x39e5f400	0.00043860078
38	0xbdc0ad27	-0.09408026
39	0x3d3b4fd9	0.045730446
40	0x3c25809f	0.010101466
41	0xbd38f84b	-0.045158666
42	0x3d21e5dc	0.03952585
43	0xbd77f8f0	-0.06054014
44	0x3ce6af28	0.028159693
45	0x3cce9068	0.025215343
46	0x3d21aa32	0.03946895
47	0xbc6db321	-0.01450804
48	0x3d74a26c	0.05972521
49	0x3d0a1ff3	0.033721875
50	0x3da08600	0.078380585
51	0x3d12cde4	0.035840884
52	0x3d6574f8	0.056019753
53	0x3cbf71b2	0.023369644
54	0x3d21ad0e	0.03947168
55	0x3b9fdcc9	0.0048786146
56	0xbdc15f2b	-0.0944198
57	0x3cca89c0	0.024723887
58	0xbdb29cf7	-0.08721345
59	0xbdfc174a	-0.123091295
60	0xbd8a3a1b	-0.06749364
61	0x3db25bfa	0.087089494
62	0x3deca0f0	0.11554134
63	0x3dc045d0	0.09388316
64	0x3cb34727	0.021884514
65	0x3d933ac7	0.07188945
66	0xbcc3c72d	-0.023898685
67	0xbdc15921	-0.09440828
68	0x3df7ea5e	0.12105249
69	0x3d3227d8	0.04349503
70	0xbc2e82ba	-0.010651285
71	0xbddbb04d	-0.10726986
72	0x3d8bc5e1	0.06824852
73	0x3df29b14	0.11845985
74	0xbd51f073	-0.0512547
75	0x3cbe5b55	0.02323691
76	0xbdc6cec0	-0.09707403
77	0xbdc7b514	-0.09751335
78	0xbde76cfb	-0.11300083
79	0xbd229177	-0.039689507
80	0x3c38cfb4	0.011279989
81	0x3c1e18e4	0.009649489
82	0x3db5680c	0.08857736
83	0x3dc616ee	0.09672342
84	0xbd12598a	-0.035729922
85	0x3d54b5df	0.05193126
86	0xbd702b28	-0.058634907
87	0x3d83589d	0.06413386
88	0xbdacf48e	-0.084450826
89	0xbd4e170a	-0.05031494
90	0x3dbb0cd6	0.09133308
91	0xbd1df277	-0.03856131
92	0x3d9d9134	0.07693711
93	0xbdd90e15	-0.10598389
94	0xbc85b747	-0.016322745
95	0x3d92ec6f	0.071740024
96	0x3dd17d73	0.10229006
97	0xbcee7b57	-0.029111547
98	0xbdbe619e	-0.09295963
99	0xbdd39f82	-0.10333158
100	0x3cc13034	0.023582555
101	0x3d13625f	0.035982486
102	0x3d486a82	0.0489297
103	0xbd7f636e	-0.062350683
104	0xbcab720f	-0.02092841
105	0xbd55e2cd	-0.052218247
106	0x3d159544	0.036519304
107	0xbd3c4fd6	-0.045974575
108	0xbdaef378	-0.08542532
109	0x3d915b18	0.07097453
110	0x3d577413	0.05260093
111	0x3d9c6dd7	0.07638138
112	0x3ddfb8f9	0.109239526
113	0x3dc3ac4e	0.09554349
114	0x3ddede03	0.10882189
115	0xbd0884b4	-0.03332968
116	0xbc5eeb89	-0.013605961
117	0xbd82d720	-0.06388688
118	0xbc8252f7	-0.015908701
119	0xbcde85a3	-0.027163332
120	0x3e07d109	0.13263334
121	0x3ccd3c06	0.025053035
122	0x3dafc91c	0.085832804
123	0x3df46daa	0.11934979
124	0x3de8cc52	0.11367096
125	0xbd0977cd	-0.033561517
126	0xbe01e348	-0.12684357
127	0xbbd36441	-0.00645116
128	0xbd0cb079	-0.034347985
129	0xbdefc860	-0.117081404
130	0x3df3a108	0.11895949
131	0xbdd2f6e5	-0.10300998
132	0xbdfe4639	-0.12415738
133	0x3dcbf23d	0.09958313
134	0xbdae3102	-0.08505441
135	0x3d60542c	0.054767773
136	0xbdf84d35	-0.12124101
137	0x3dd26370	0.102728724
138	0x3d8f444c	0.069954485
139	0x3b1f195a	0.0024276585
140	0x3df2fb2b	0.11864313
141	0xbc83b440	-0.01607716
142	0xbde5df36	-0.11224215
143	0xbceeb226	-0.029137682
144	0x3da4e864	0.080521375
145	0xbdbd7f73	-0.09252825
146	0x3d0bf7f8	0.03417203
147	0xbc485bee	-0.012228949
148	0xbd822951	-0.06355537
149	0x3d3319e2	0.043725856
150	0xbde6bd48	-0.11266571
151	0x3d72d1f2	0.05928225
152	0x3ce7e413	0.028306996
153	0xbdcb1961	-0.0991695
154	0x3d20a03a	0.039215304
155	0xbcd43abf	-0.025906919
156	0xbd8e801a	-0.06958027
157	0x3cfe25bf	0.031023858
158	0x3c921e7a	0.017836798
159	0x3df68fdf	0.1203916
160	0x3decc0bc	0.11560199
161	0xbd0904f0	-0.033451974
162	0xbd5a1e93	-0.053251814
163	0x3d3d1af1	0.04616827
164	0xbda16a0a	-0.078815535
165	0x3d66c49c	0.056339845
166	0xbdd88aea	-0.10573371
167	0xbd0fab17	-0.035075273
168	0x3dea45aa	0.114390686
169	0xbd85198f	-0.064990155
170	0xbd6176c0	-0.05504489
171	0xbd1a6138	-0.03769037
172	0x3de73a36	0.112904
173	0xbdd851d6	-0.10562484
174	0xbdc46d63	-0.09591176
175	0xbd2f547d	-0.042805184
176	0xbdca93e1	-0.09891487
177	0x3dce1b28	0.100637734
178	0x3dc80057	0.0976569
179	0x3ddf23d8	0.108955085
180	0x3d5bce50	0.05366355
181	0xbcb61551	-0.022226961
182	0xbde8a1c5	-0.1135898
183	0x3dfae602	0.12250902
184	0x3dc38dfb	0.09548565
185	0x3cdd9480	0.02704835
186	0x3cad9b3a	0.021192182
187	0xbdee08c2	-0.11622764
188	0x3d8c6509	0.068552084
189	0x3733e7a1	1.0723162e-05
190	0xbde8927a	-0.11356063
191	0x3c893182	0.01674724
192	0x3aa75380	0.0012765974
193	0xbdc4230c	-0.09576997
194	0xbd00b640	-0.031423807
195	0xbd21cedc	-0.039503917
196	0xbd9ab64a	-0.075543
197	0x3da64a32	0.081196204
198	0x3cb9f5b8	0.022700176
199	0x3dd2a43c	0.102852315
200	0xbcc94e90	-0.024573594
201	0xbdee41fa	-0.11633678
202	0xbd33ac78	-0.04386565
203	0xbd45d7b4	-0.048301414
204	0x3db59a10	0.08867276
205	0x3de75328	0.11295158
206	0x3dbf1ba2	0.093314424
207	0x3cd36158	0.025803253
208	0xbbc396a0	-0.0059688836
209	0xbdbf50f6	-0.09341614
210	0xbd2c63bc	-0.0420873
211	0x3dbe01b6	0.0927767
212	0xbc42c7f0	-0.011888489
213	0x3cc7c268	0.024384692
214	0xbde3d114	-0.11123863
215	0x3dae693a	0.08516164
216	0x3dfeb7bc	0.12437388
217	0xbcf810b0	-0.030281395
218	0xbddf15f0	-0.10892856
219	0xbdf8e9c8	-0.12153965
220	0x3d4c9e9c	0.04995595
221	0x3dd4ca1a	0.1039011
222	0xbd9c2482	-0.07624151
223	0xbc03e340	-0.008049786
224	0xbb95f740	-0.0045765936
225	0xbdbacc4a	-0.09120996
226	0x3d2b8a0c	0.0418797
227	0xbdd2268e	-0.1026126
228	0xbdafbe54	-0.08581224
229	0xbc6e6a60	-0.014551729
230	0xbd9152f8	-0.07095903
231	0xbcb59ce8	-0.022169545
232	0xbdecd796	-0.11564557
233	0x3cae57a8	0.021282032
234	0x3db10c48	0.086449206
235	0xbdc3573e	-0.095381245
236	0x3dd582ec	0.10425362
237	0x3b14a500	0.0022681355
238	0xbdf3e1d8	-0.11908311
239	0x3dca98d4	0.09892431
240	0xbdf54ef2	-0.11977948
241	0x3da0b618	0.078472316
242	0xbdb430ae	-0.087983474
243	0xbdb42a5c	-0.08797142
244	0x3d324a84	0.043528095
245	0x3d88d544	0.06681302
246	0x3c9a7218	0.018853232
247	0xbd3f2b84	-0.04667236
248	0x3ccb4330	0.024812311
249	0x3d5982d4	0.053103283
250	0xbc499c10	-0.012305275
251	0xbde851f8	-0.11343759
252	0x3dcac5b8	0.09900993
253	0xbd6ad1d4	-0.057329014
254	0xbb2688c0	-0.00254111
255	0xbdd8e6bc	-0.10590884

fc2.bias f4 [64]
0	0x3d14854d	0.036259938
1	0xba72fa92	-0.0009268905
2	0xbd2624b9	-0.040562365
3	0xbdd0fec2	-0.10204841
4	0xbdb4899d	-0.0881531
5	0xbd60b5ba	-0.054860808
6	0x3c7698a3	0.01505104
7	0xbdf53e22	-0.119747415
8	0x3db07758	0.08616513
9	0x3952f8b9	0.00020119817
10	0x3cdf76e0	0.027278364
11	0xbb62fb45	-0.0034634632
12	0x3d0cd4a1	0.034382466
13	0x3dc917f9	0.098190255
14	0xbd3e427a	-0.046450116
15	0xbd992720	-0.074781656
16	0x3d6070d6	0.05479511
17	0x3d3544c8	0.044255048
18	0x3df54683	0.1197634
19	0x3d107983	0.035272133
20	0xbdd655bf	-0.104655735
21	0xbdb78af4	-0.0896205
22	0xbd65679b	-0.05600701
23	0x3da45544	0.080240756
24	0xbdc96472	-0.098336115
25	0x3d3e203e	0.046417467
26	0xbd893d41	-0.067011364
27	0xbd86340e	-0.065528974
28	0x3d6bbda3	0.0575539
29	0xbde0697f	-0.10957622
30	0x3c0f3110	0.008739725
31	0x3dc85f69	0.09783823
32	0x3dde8a67	0.10866242
33	0x3c6cd298	0.014454506
34	0x3c6ad682	0.014333369
35	0xbb8f0bf7	-0.00436544
36	0xbd5f9079	-0.05458114
37	0xbde6f527	-0.11277228
38	0x3d963eac	0.073361725
39	0x3d930952	0.07179512
40	0xbd2d9631	-0.04237956
41	0xbd871b15	-0.06596962
42	0xbd853376	-0.06503956
43	0xbd66d815	-0.056358416
44	0x3cb5b000	0.02217865
45	0xbdd00c9f	-0.10158657
46	0xbcd096be	-0.025462504
47	0x3de25e88	0.11053187
48	0xbdeaefe8	-0.1147154
49	0xbdc4b11d	-0.09604094
50	0x3de5e0ae	0.11224495
51	0xbdaf37b1	-0.08555544
52	0x3c4d8e72	0.012546169
53	0x3b985aa0	0.004649475
54	0x3db6cbcc	0.0892559
55	0x3df78bc4	0.12087205
56	0xbd91486b	-0.07093891
57	0xbdde8416	-0.10865037
58	0x3d167043	0.036728155
59	0xbd2212bc	-0.039568648
60	0xbdd79dfb	-0.10528179
61	0x3cac59ff	0.021039007
62	0x3c9ce246	0.019150864
63	0xbc8b5099	-0.017006205

fc3.weight f4 [6, 64]
0	0x3ca071b9	0.019585477
1	0x3c8ba058	0.017044231
2	0x3d8e7bc1	0.06957198
3	0xbd212ce0	-0.039349437
4	0x3cb65c36	0.022260766
5	0xbaeb06a4	-0.0017931056
6	0x3e019021	0.12652637
7	0x3c879418	0.016550109
8	0x3d230c07	0.039806392
9	0x3d7a7ba4	0.06115307
10	0x3dce4484	0.10071662
11	0x3d358916	0.04432019
12	0xbdf8dc2a	-0.12151368
13	0x3d61094a	0.0549405
14	0x3e020924	0.126988
15	0xbd93ec46	-0.072228
16	0xbd7cac40	-0.061687708
17	0x3dd26413	0.10272994
18	0x3d56eebd	0.052473772
19	0xbce584a6	-0.028017353
20	0x3ddd7b38	0.10814518
21	0xbde3f53e	-0.111307606
22	0x3dd2be77	0.102902345
23	0xbd1fa268	-0.038973242
24	0xbca2adaa	-0.0198582
25	0xbcd03bb8	-0.025419101
26	0xbdf6c567	-0.1204937
27	0x3d573cd4	0.052548245
28	0xbd61bae0	-0.05510986
29	0xbde881ea	-0.11352904
30	0x3d956c08	0.07295996
31	0xb902b800	-0.00012466311
32	0xbcb27ab1	-0.02178702
33	0x3de3627c	0.11102769
34	0xbdb32482	-0.08747198
35	0xbdc2fcf9	-0.09520907
36	0x3d2e7b7c	0.042598233
37	0xba8eb0e0	-0.0010886453
38	0xbc7f0d36	-0.015567115
39	0xbbe214d5	-0.006899456
40	0x3cb0addd	0.02156728
41	0xbd6b334a	-0.05742196
42	0x3d8bedde	0.06832479
43	0xbde8d64a	-0.113689974
44	0xbcd48808	-0.025943771
45	0x3a3454b1	0.0006879075
46	0x3d63736c	0.055529997
47	0x3d8823f0	0.066474795
48	0x3d329c99	0.043606374
49	0x3dcd6343	0.10028698
50	0x3cac69b9	0.021046506
51	0x3c43fc7b	0.0119620515
52	0xbd08bf10	-0.033385336
53	0xbd18fbf4	-0.037349656
54	0x3d91b5ec	0.07114777
55	0x3bf46dbe	0.0074593714
56	0x3ddb1ceb	0.10698875
57	0x3d9da004	0.07696536
58	0x3c952c06	0.018209469
59	0x3d7ba0c0	0.0614326
60	0x3c8b270e	0.016986396
61	0x3da7f56c	0.082011074
62	0xbd57a6ec	-0.052649423
63	0x3dc028c0	0.093827724
64	0xbd9dd28d	-0.07706175
65	0x3e06b710	0.1315577
66	0x3d4724f6	0.048619233
67	0xbaaecd80	-0.001333639
68	0xbdccb40e	-0.0999528
69	0x3d4db59e	0.05022203
70	0x3d66cf62	0.05635012
71	0xbdf26060	-0.11834788
72	0xbbe7e438	-0.0070767663
73	0x3d8d5021	0.06900049
74	0xbd8a9f96	-0.0676872
75	0x3cda5502	0.026651863
76	0xbdbafd46	-0.09130339
77	0x3d461f8b	0.048369925
78	0xbdfb4a68	-0.12270051
79	0xbda5267f	-0.08063983
80	0x3db05a99	0.0861103
81	0x3de39c3b	0.11113783
82	0x3dc8869e	0.09791301
83	0xbda94994	-0.08265987
84	0x3da191f5	0.07889167
85	0x3ca05044	0.019569524
86	0xbd3f0d23	-0.046643388
87	0xbdf50d77	-0.11965459
88	0x3c97c6bb	0.01852738
89	0xbdd11e20	-0.10210824
90	0x3dd6e4b0	0.104928374
91	0x3c159c00	0.009131432
92	0xbd4bfab6	-0.049799643
93	0x3dafeff0	0.08590686
94	0xbd024674	-0.03180547
95	0xbd2f9d28	-0.042874485
96	0xbd2568d4	-0.040383175
97	0x3dac1991	0.08403314
98	0x3dcf7d29	0.10131294
99	0x3db576e5	0.08860568
100	0x3d129ed0	0.035795987
101	0x3db16631	0.086620696
102	0x3d8be192	0.068301335
103	0xbda8069e	-0.08204387
104	0x3ca0ea82	0.019643072
105	0xbd833ef5	-0.064084925
106	0x3d07e7ae	0.03317993
107	0xbca2efbb	-0.019889703
108	0xbd6b44f8	-0.05743882
109	0x3da890ba	0.082307294
110	0x3d42a1c3	0.04751755
111	0x3d894df1	0.06704319
112	0xbce95a8e	-0.028485563
113	0x3d2672c6	0.0406368
114	0xbe0c3f86	-0.13696107
115	0xbdedeaf1	-0.11617077
116	0xbd945450	-0.07242644
117	0x3d8b4d66	0.06801872
118	0xbda6b10c	-0.08139238
119	0x3d9daf97	0.07699507
120	0xbb699d5f	-0.003564678
121	0xbd2cd400	-0.042194366
122	0x3deae261	0.114689596
123	0x3d2dea1c	0.042459592
124	0x3d5b38c9	0.05352095
125	0xbcc14446	-0.023592126
126	0xbda3ee05	-0.08004383
127	0x3dfce842	0.12348987
128	0xbdfd9aa1	-0.12383009
129	0xbd7a4d07	-0.061108615
130	0xbdc9a9f6	-0.098468706
131	0xbd120c80	-0.035656452
132	0xbdc4b099	-0.09603996
133	0xbd0c64d2	-0.034275837
134	0x3daa6874	0.08320704
135	0xbd9de542	-0.07709743
136	0x3d08f8f5	0.03344055
137	0x3d195f7d	0.03744458
138	0xbdee613c	-0.1163964
139	0xbd58f5d3	-0.05296881
140	0x3cc47ad0	0.023984343
141	0x3df333b7	0.11875098
142	0xbd11bbc6	-0.035579465
143	0xbb069b1c	-0.002053923
144	0x3d0e652c	0.034764454
145	0x3db57ab5	0.08861295
146	0x3cc12c8c	0.023580812
147	0x3c8748a2	0.016514126
148	0x3dbc52a2	0.091954485
149	0x3c557355	0.013027986
150	0x3da3a909	0.07991225
151	0x3cdd1072	0.02698538
152	0xbd842a77	-0.06453412
153	0xbd62ea1e	-0.055399053
154	0xbca0ca46	-0.019627701
155	0xbd3b757c	-0.04576634
156	0xbdb5904d	-0.08865414
157	0xbd612c62	-0.054973967
158	0xbcc1f538	-0.0236765
159	0xbde7a9a8	-0.11311656
160	0x3df39a6f	0.1189469
161	0x3d9105dc	0.07081196
162	0x3db0e70d	0.086378194
163	0x3de89c27	0.11357909
164	0xbd45eaa9	-0.048319492
165	0xbdf0c716	-0.11756723
166	0xbd4bc74e	-0.04975062
167	0xbdcdd2e3	-0.10049989
168	0xbde520fd	-0.11187933
169	0xbdbf4781	-0.0933981
170	0x3dbfd26a	0.09366305
171	0xbdc38ce9	-0.09548361
172	0xbdd6b8d4	-0.10484472
173	0x3d28b80f	0.041191157
174	0x3db645bd	0.0890002
175	0xbcc0bbc6	-0.023527037
176	0xbd828bbb	-0.06374308
177	0x3dd6b4f8	0.10483736
178	0x3cb747b7	0.022373063
179	0xbda22c6c	-0.07918629
180	0x3df8b0b2	0.12143077
181	0xbbcf20f5	-0.0063210675
182	0x3c1bdfee	0.009513838
183	0xbdce584c	-0.10075435
184	0xbcf4fdba	-0.029906143
185	0x3dc20960	0.094744444
186	0x3d6e831d	0.058230508
187	0x3db0f968	0.086413205
188	0xbdb98422	-0.090584055
189	0xbd202d7d	-0.03910588
190	0x3d7e8e70	0.062147558
191	0x3dbc21aa	0.091861084
192	0x3d9bf200	0.07614517
193	0xbdc08c43	-0.09401753
194	0xbd1864bf	-0.037205454
195	0x3da096e4	0.0784128
196	0xbdde4d88	-0.10854632
197	0xbd6ab9a8	-0.05730596
198	0xbd81d478	-0.06339353
199	0xbdff04c4	-0.12452081
200	0x3d978efb	0.07400318
201	0xbd8646ad	-0.06556449
202	0x3d9f1252	0.07767166
203	0x3c1af327	0.009457386
204	0x3d799338	0.060931414
205	0xbd9e7588	-0.07737261
206	0x3d4ae763	0.049537074
207	0xbdbc1e5b	-0.09185477
208	0x3da1b848	0.07896477
209	0x3cbd7955	0.023129145
210	0x3ddb204a	0.10699518
211	0x3d9afc4a	0.075676516
212	0xbdc35450	-0.09537566
213	0x3d2f6a44	0.042825952
214	0x3de458ec	0.11149773
215	0x3dbd54b9	0.09244675
216	0xbdcb06a9	-0.0991338
217	0x3dcb232c	0.09918818
218	0xb8b785c3	-8.751035e-05
219	0xbd0aa27c	-0.033846363
220	0x3d8706f2	0.065931216
221	0x3ddf19a4	0.108935624
222	0x3d5c6694	0.053808764
223	0xbda97ab2	-0.082753554
224	0xbd5ea9e2	-0.05436123
225	0xbdb53461	-0.08847881
226	0xbdd2e94c	-0.10298404
227	0xbd96d5a2	-0.07364966
228	0xbd530135	-0.051514823
229	0x3d592f2c	0.053023502
230	0xbdc0ed87	-0.09420305
231	0x3d505f72	0.050872274
232	0x3d675af0	0.05648321
233	0xbc2a0429	-0.010376968
234	0x3de2d750	0.11076224
235	0xbd858ac5	-0.06520609
236	0xbcd4c3e8	-0.025972322
237	0xbdbcd681	-0.09220601
238	0x3caef59d	0.021357352
239	0xbd0afaac	-0.033930466
240	0x3df498d2	0.11943211
241	0xbd0636e3	-0.032767188
242	0x3dbc0a0c	0.09181604
243	0xbd8bf130	-0.06833112
244	0xbd871862	-0.065964475
245	0xbdd43799	-0.10362167
246	0xbd8f4fa2	-0.06997611
247	0xbd8d59e1	-0.06901909
248	0x3de8d449	0.11368615
249	0x3de48dd6	0.111598656
250	0x3cfbec3c	0.030752294
251	0xbdfbc8f6	-0.1229419
252	0x3deee602	0.11664964
253	0x3dea26c0	0.11433172
254	0xbddfd3f2	-0.10929097
255	0x3d7a82b5	0.06115981

fc3.bias f4 [6]
0	0xbc6a231c	-0.014290597
1	0x3dec5d36	0.11541216
2	0xbd2eff0b	-0.042723697
3	0x3daf18dc	0.085496634
4	0x3dfeebbf	0.12447309
5	0x3db2b5ad	0.08726058

fc1.weight f4 [64, 4]
0	0xbe16e956	-0.14737448
1	0x3e47a7a4	0.19497544
2	0x3ed0d66d	0.40788594
3	0xbcab8f7f	-0.020942448
4	0xbdbcfe3f	-0.09228181
5	0x3eb49b1d	0.35274592
6	0xbec2e437	-0.3806474
7	0xbd6817e0	-0.056663394
8	0xbece4216	-0.40284795
9	0x3d0e4804	0.03473665
10	0xbe16e273	-0.14734821
11	0x3dfac385	0.12244324
12	0xbed7a738	-0.42119765
13	0x3d7f3a45	0.06231143
14	0x3dabd362	0.083899274
15	0x3ee730fb	0.45154557
16	0x3ef422df	0.47682855
17	0xbe90a092	-0.28247505
18	0xbee04957	-0.43805954
19	0x3e151e30	0.14562297
20	0x3e781e06	0.24230203
21	0xbe2ffceb	-0.17186324
22	0xbeb9a1ea	-0.36256343
23	0x3d16aacb	0.036783975
24	0xbef8f41b	-0.48623738
25	0x3ef05904	0.46942914
26	0xbee6a3bf	-0.45046803
27	0xbdeed34c	-0.116613954
28	0x3ee0ab62	0.43880755
29	0x3ef00178	0.4687612
30	0x3e99dc70	0.30050993
31	0xbecba9a8	-0.39777875
32	0xbe8a3fb6	-0.27001733
33	0x3ec85538	0.39127517
34	0x3bb0ef6e	0.005399636
35	0x3d09125d	0.03346478
36	0xbef7be34	-0.483873
37	0xbe844efc	-0.2584151
38	0xbe779ed0	-0.24181676
39	0xbc3ca980	-0.011515021
40	0x3beabf2e	0.0071639037
41	0xbec5da1a	-0.3864296
42	0xbe80848a	-0.2510112
43	0xbeba9744	-0.36443532
44	0x3ea110c7	0.31458113
45	0x3e6b62f8	0.22986972
46	0x3dd60009	0.104492255
47	0xbe19acca	-0.1500732
48	0x3e7d74a8	0.24751532
49	0xbe731eff	-0.23742293
50	0x3eb2fbd1	0.34957746
51	0x3d214058	0.039368004
52	0xbef39e44	-0.47581685
53	0x3d20d658	0.039266914
54	0xbeda89c2	-0.42683226
55	0xbe7dba4c	-0.24778098
56	0x3de59734	0.1121048
57	0xbefb1033	-0.49035797
58	0xbee69359	-0.45034292
59	0x3e51807c	0.20459169
60	0x3db4d497	0.08829611
61	0x3ec333ae	0.38125366
62	0x3d9e4690	0.077283025
63	0x3d5a949c	0.05336438
64	0x3ecac2b3	0.3960167
65	0x3e98b8c8	0.29828477
66	0xbda02f42	-0.07821514
67	0x3dde8bd0	0.10866511
68	0x3ea62a78	0.32454276
69	0x3ec6c152	0.38819367
70	0x3e1cfa4a	0.15329853
71	0xbef5c515	-0.48001924
72	0xbebd8614	-0.37016356
73	0xbec63d68	-0.38718724
74	0xbe0ada94	-0.13559943
75	0xbeedd05c	-0.46448028
76	0x3bc42aae	0.005986533
77	0xbd889134	-0.0666832
78	0xbd9d79ae	-0.07689224
79	0x3eb9cc0a	0.36288482
80	0x3e490dd9	0.19634189
81	0x3d8813c9	0.06644399
82	0xbe20c492	-0.15699986
83	0x3ec2c41b	0.38040242
84	0x3dbbada9	0.091639824
85	0xbe1d804d	-0.15380974
86	0x3e5210be	0.20514199
87	0xbe7e048e	-0.24806425
88	0x3eaf25dc	0.34208572
89	0x3ed4ab6e	0.4153704
90	0x3df834ee	0.121194705
91	0xbd857c6b	-0.065178715
92	0x3e0fdf90	0.14050126
93	0x3e15a5f7	0.14614092
94	0xbde9256f	-0.11384093
95	0x3d2c4bcd	0.042064477
96	0xbd4c3ae3	-0.049860846
97	0xbeb9ff3c	-0.3632754
98	0x3edaf0ce	0.42761844
99	0xbea6732b	-0.3250974
100	0xbe9c58a7	-0.30536386
101	0x3ec1624e	0.37770313
102	0xbec49d95	-0.38401476
103	0xbd8c5421	-0.06851984
104	0xbee1c13c	-0.4409274
105	0x3d154d75	0.036450822
106	0x3e95ee3c	0.2928332
107	0x3e67b39d	0.22627111
108	0x3efe5228	0.49672055
109	0xbe0782dd	-0.13233514
110	0xbef34d8a	-0.47520095
111	0xbed812f4	-0.4220196
112	0xbee4010a	-0.44532043
113	0x3daf9c13	0.08574691
114	0x3de586a0	0.11207318
115	0xbef621b8	-0.480726
116	0x3e47f633	0.19527511
117	0xbe852a11	-0.26008657
118	0x3e99358d	0.29923669
119	0xbeb5e298	-0.3552444
120	0x3ea93aee	0.33052772
121	0xbeb8e6f6	-0.3611371
122	0xbe5ec2c4	-0.21753985
123	0x3e893700	0.26799774
124	0x3d88ba44	0.06676152
125	0xbdb26cae	-0.08712135
126	0x3e854386	0.2602808
127	0x3c112ec5	0.008861248
128	0x3e98b2fa	0.29824048
129	0x3ed68217	0.41896126
130	0x3ef09d99	0.46995237
131	0xbe9b2fb1	-0.30309823
132	0xbec3d199	-0.38245848
133	0x3e38a31a	0.18030968
134	0xbeef4fe9	-0.46740654
135	0x3e9e7fc2	0.30956846
136	0xbe9e6593	-0.3093687
137	0x3d71d9bf	0.05904555
138	0x3a11c431	0.0005560546
139	0x3de80d39	0.11330647
140	0xbe47ddae	-0.19518158
141	0x3ed2bc90	0.41159487
142	0xbeed731f	-0.46376893
143	0xbd09812c	-0.033570454
144	0x3dea1861	0.11430431
145	0x3efe23c9	0.49636677
146	0x3e90c0ba	0.2827204
147	0xbe9a7911	-0.3017049
148	0xbe89ec11	-0.26937917
149	0xbe5c05cf	-0.21486591
150	0xbd590b5b	-0.052989345
151	0x3e261aa3	0.16221099
152	0x3eaed0e1	0.34143737
153	0xbd0880ed	-0.03332608
154	0x3edaad12	0.42710167
155	0x3da64ad2	0.081197396
156	0xbde688ac	-0.11256537
157	0x3e7a79de	0.24460551
158	0x3ea467e8	0.32110524
159	0xbe2a9bac	-0.16660947
160	0x3ea03196	0.3128783
161	0x3eee7667	0.4657471
162	0x3e66eed2	0.2255204
163	0x3db6e75c	0.08930847
164	0x3ed48033	0.41504058
165	0x3eebd7db	0.46063122
166	0xbeb5dad5	-0.35518518
167	0xbe7a8a97	-0.2446693
168	0xbeed13a0	-0.46304035
169	0xbedacef0	-0.42736006
170	0xbea2eedc	-0.3182286
171	0xbe4b2a2c	-0.19840306
172	0x3accbfea	0.001562116
173	0xbef88931	-0.4854217
174	0x3ec23340	0.37929726
175	0xbe8e8ad3	-0.2784029
176	0xbe0e7434	-0.13911515
177	0xbef87a28	-0.48530698
178	0xbedbcf38	-0.42931533
179	0xbebf6c8a	-0.37387496
180	0xbe37a244	-0.17932993
181	0xbef15956	-0.4713847
182	0x3ccc3720	0.02492863
183	0xbd02f950	-0.031976044
184	0x3e8a3e62	0.2700072
185	0x3de806bc	0.113294095
186	0x3d2b79f1	0.04186434
187	0x3cd81745	0.026378283
188	0x3dc17048	0.09445244
189	0x3ef49da4	0.4777652
190	0x3e84969a	0.2589615
191	0xbed7c160	-0.4213972
192	0x3ec58718	0.3857963
193	0x3ebc31ef	0.36756846
194	0x3dfdb91b	0.12388822
195	0x3eafb264	0.3431579
196	0xbed780fb	-0.42090592
197	0x3efaa73a	0.4895571
198	0x3e1fbcba	0.15599337
199	0x3dac7c39	0.08422131
200	0xbe7b4948	-0.24539673
201	0x3db2a397	0.087226085
202	0x3e9ddb9f	0.3083162
203	0xbec94215	-0.3930823
204	0x3e286a9c	0.16446918
205	0x3eee5380	0.4654808
206	0x3ed6ea83	0.41975793
207	0xbecbc8d5	-0.3980166
208	0x3c2b7758	0.0104654655
209	0x3e04b55c	0.12959808
210	0xbe94e620	-0.2908182
211	0x3cc89ba5	0.02448828
212	0x3eb2b996	0.34907216
213	0x3e9613c9	0.2931197
214	0xbee6caeb	-0.4507669
215	0x3ee414c9	0.44547108
216	0x3dafaed6	0.08578269
217	0x3eb8d884	0.36102688
218	0xbec706e2	-0.3887244
219	0x3e0f643c	0.1400308
220	0x3d437013	0.047714304
221	0x3e37dda4	0.17955643
222	0xbed69513	-0.4191061
223	0xbd899893	-0.06718554
224	0x3abed6ef	0.0014559905
225	0x3eec9ae4	0.46211922
226	0xbdeca341	-0.11554576
227	0x3e68d494	0.22737342
228	0x3e001121	0.12506534
229	0x3ed6e225	0.4196941
230	0x3ee5dcf7	0.44895145
231	0xbe3da49d	-0.18519826
232	0x3eba45ec	0.3638147
233	0x3e328baf	0.17436098
234	0xbe329ca4	-0.17442566
235	0x3ed3bb01	0.4135361
236	0x3ea32b6f	0.31869075
237	0xbe48c120	-0.19604921
238	0x3da33219	0.0796854
239	0xbdd128ae	-0.10212837
240	0xbe37b239	-0.1793908
241	0xbdfd814c	-0.12378177
242	0x3e8a2d65	0.26987758
243	0xbee267d0	-0.44219828
244	0x3ed406c9	0.41411427
245	0xbe305cc3	-0.17222886
246	0x3e535962	0.20639566
247	0xbec0f496	-0.37686604
248	0xbed0bd49	-0.40769413
249	0xbed608e8	-0.4180367
250	0x3ee6f77e	0.45110697
251	0x3d068c04	0.032848373
252	0xbeb78d3f	-0.3584995
253	0xbe0854c9	-0.13313593
254	0xbcf52171	-0.029923173
255	0x3e8ddf6d	0.27709523

fc1.bias f4 [64]
0	0x3ea30aa6	0.31844062
1	0x3e78db4c	0.24302405
2	0x3eeff2eb	0.4686502
3	0xbe4ef46b	-0.20210426
4	0xbede29ba	-0.4339121
5	0x3eafd348	0.34340882
6	0xbe74153e	-0.23836228
7	0x3eb5e0ca	0.35523063
8	0x3ea22d58	0.3167522
9	0xbe9a284c	-0.3010887
10	0xbdb3c83d	-0.08778427
11	0x3c91069a	0.017703343
12	0x3d75f484	0.06004764
13	0x3ed37a32	0.41304165
14	0xbeed2e0e	-0.463242
15	0xbee5cfc2	-0.4488507
16	0xbe84747a	-0.25870115
17	0xbedf787e	-0.43646616
18	0x3e34ce48	0.17656815
19	0x3ecf5a76	0.40498704
20	0x3dee7031	0.116424926
21	0xbdb53f00	-0.08849907
22	0xbf00ddb9	-0.5033832
23	0xbe38455e	-0.17995211
24	0x3e6b163b	0.22957699
25	0x3ebe30a1	0.37146476
26	0x3e82fac5	0.25581947
27	0xbeb88d8e	-0.36045498
28	0x3e0bbb17	0.13645588
29	0xbee72452	-0.45144898
30	0xbdb1ec64	-0.08687666
31	0xbd0e74c7	-0.034779336
32	0xbcf21ae7	-0.029553844
33	0xbe75d2d9	-0.24006213
34	0x3eb7e055	0.3591334
35	0x3e48c49f	0.19606255
36	0x3e8acd85	0.27109924
37	0xbe05c1ce	-0.13062212
38	0x3e0d9046	0.13824567
39	0x3ea3e00d	0.32006875
40	0x3efe18c6	0.49628276
41	0xbcb3d38c	-0.02195146
42	0xbee1dbc8	-0.44112992
43	0xbebaf808	-0.36517358
44	0x3eb5b904	0.35492718
45	0x3e4bbb0c	0.19895571
46	0x3ed42630	0.41435385
47	0xbebe4aa6	-0.37166327
48	0x3efa0be9	0.48837212
49	0x3e2b269a	0.16713944
50	0x3e22fa75	0.15915854
51	0x3de38bd9	0.11110658
52	0xbe0a033d	-0.13477798
53	0xbe36ecef	-0.1786382
54	0xbe2de305	-0.16981132
55	0x3e9fa535	0.3118073
56	0xbea992f6	-0.33119935
57	0xbe7bb33f	-0.24580096
58	0xbe06efa3	-0.13177352
59	0x3ec61fcf	0.38696143
60	0x3ee388d2	0.44440323
61	0x3d814057	0.063111
62	0xbeb2f167	-0.349498
63	0xbe6ca1b4	-0.2310856

fc2.weight f4 [64, 64]
0	0xbdb380d3	-0.08764806
1	0x3db817ea	0.08988936
2	0xbddeffce	-0.108886346
3	0xbcd99448	-0.026559964
4	0xbc853110	-0.016258746
5	0xbd0d9087	-0.03456166
6	0x3dcc0b8c	0.0996314
7	0xbb91cd2c	-0.004449507
8	0x3ddc185c	0.10746834
9	0x3c8344c0	0.016023993
10	0x3de36b34	0.11104432
11	0x3d8403db	0.06446048
12	0xbdae405e	-0.08508371
13	0x3d9ee530	0.07758558
14	0xbdaaeba8	-0.08345729
15	0x3d92507c	0.071442574
16	0xbd937bbd	-0.072013356
17	0xbd288cd1	-0.041149918
18	0xbdaff17c	-0.08590981
19	0x3bc5af96	0.0060328944
20	0xbdf79f8e	-0.120909795
21	0x3dfa98fe	0.12236212
22	0x3d4d3e18	0.050108045
23	0x3d8de4c6	0.06928401
24	0x3d80c654	0.06287828
25	0xbdd2220a	-0.10260399
26	0xbd80dcec	-0.062921375
27	0xbd4de843	-0.05027033
28	0xbd20b8a9	-0.039238606
29	0xbdacee80	-0.08443928
30	0xbd3869fc	-0.04502295
31	0xbd924dfc	-0.071437806
32	0xbd2db78b	-0.04241137
33	0xbd679d21	-0.056546334
34	0x3bd75607	0.0065715346
35	0xbdb713a8	-0.08939296
36	0xbd2d3ece	-0.042296223
37	0x39e5f400	0.00043860078
38	0xbdc0ad27	-0.09408026
39	0x3d3b4fd9	0.045730446
40	0x3c25809f	0.010101466
41	0xbd38f84b	-0.045158666
42	0x3d21e5dc	0.03952585
43	0xbd77f8f0	-0.06054014
44	0x3ce6af28	0.028159693
45	0x3cce9068	0.025215343
46	0x3d21aa32	0.03946895
47	0xbc6db321	-0.01450804
48	0x3d74a26c	0.05972521
49	0x3d0a1ff3	0.033721875
50	0x3da08600	0.078380585
51	0x3d12cde4	0.035840884
52	0x3d6574f8	0.056019753
53	0x3cbf71b2	0.023369644
54	0x3d21ad0e	0.03947168
55	0x3b9fdcc9	0.0048786146
56	0xbdc15f2b	-0.0944198
57	0x3cca89c0	0.024723887
58	0xbdb29cf7	-0.08721345
59	0xbdfc174a	-0.123091295
60	0xbd8a3a1b	-0.06749364
61	0x3db25bfa	0.087089494
62	0x3deca0f0	0.11554134
63	0x3dc045d0	0.09388316
64	0x3cae2042	0.021255616
65	0x3d93c00d	0.07214365
66	0xbcc68ba2	-0.024236504
67	0xbdc1cffa	-0.094634965
68	0x3df96bdc	0.12178776
69	0x3d351c7d	0.04421662
70	0xbc496b1e	-0.012293605
71	0xbddba256	-0.107243225
72	0x3d8b8818	0.06813067
73	0x3df29b14	0.11845985
74	0xbd51f073	-0.0512547
75	0x3cbed536	0.023295026
76	0xbdc959e5	-0.09831599
77	0xbdc7b514	-0.09751335
78	0xbde81c0b	-0.11333474
79	0xbd2261ae	-0.039643936
80	0x3c3a84ff	0.011384248
81	0x3c1f64a7	0.009728587
82	0x3db5680c	0.08857736
83	0x3dc5518e	0.09634696
84	0xbd11dd3c	-0.035611376
85	0x3d4f192f	0.050561126
86	0xbd6fe678	-0.0585694
87	0x3d83ae02	0.06429674
88	0xbdad26e7	-0.08454686
89	0xbd4e2ad6	-0.05033382
90	0x3dba5273	0.09097757
91	0xbd1be4fb	-0.03806017
92	0x3d9d9134	0.07693711
93	0xbddb7769	-0.10716135
94	0xbc95dd7d	-0.01829409
95	0x3d90a8f9	0.07063479
96	0x3dd1726f	0.102269046
97	0xbcf42dba	-0.02980696
98	0xbdbe9b9b	-0.09307023
99	0xbdd306b4	-0.10304013
100	0x3cc11baa	0.023572762
101	0x3d120147	0.03564575
102	0x3d47e355	0.048800785
103	0xbd80438a	-0.06262882
104	0xbcab72b2	-0.020928714
105	0xbd55377c	-0.052054867
106	0x3d159544	0.036519304
107	0xbd3c661d	-0.04599582
108	0xbdaef378	-0.08542532
109	0x3d915b18	0.07097453
110	0x3d579cb8	0.052639693
111	0x3d9c79e2	0.07640435
112	0x3ddfbe98	0.10925025
113	0x3dc28db5	0.09499685
114	0x3ddf09ed	0.10890565
115	0xbd08a109	-0.0333567
116	0xbc56d9bf	-0.013113438
117	0xbd8274a4	-0.06369904
118	0xbc808983	-0.01569057
119	0xbcdb892c	-0.026798807
120	0x3e07e721	0.13271762
121	0x3ccccdc7	0.025000466
122	0x3db00670	0.08594978
123	0x3df481e4	0.11938837
124	0x3de8cc52	0.11367096
125	0xbd0945e4	-0.03351392
126	0xbe01e2f0	-0.12684226
127	0xbbdd8675	-0.0067604133
128	0xbd0b5403	-0.034015667
129	0xbdefc860	-0.117081404
130	0x3df3a108	0.11895949
131	0xbdd246f5	-0.1026744
132	0xbdfe4639	-0.12415738
133	0x3dcbf23d	0.09958313
134	0xbdae3102	-0.08505441
135	0x3d61a068	0.055084616
136	0xbdf79a0d	-0.1208993
137	0x3dd26370	0.102728724
138	0x3d8f444c	0.069954485
139	0x3b33aad5	0.0027415056
140	0x3df3a6f3	0.118970774
141	0xbc83b440	-0.01607716
142	0xbde5df36	-0.11224215
143	0xbcebfc0a	-0.028806705
144	0x3da591d5	0.08084456
145	0xbdbd7592	-0.092509404
146	0x3d0bf7f8	0.03417203
147	0xbc42ecce	-0.011897279
148	0xbd817a25	-0.06322125
149	0x3d331cb1	0.043728534
150	0xbde6139b	-0.11234208
151	0x3d7425e1	0.059606437
152	0x3ce7e413	0.028306996
153	0xbdcb1961	-0.0991695
154	0x3d22022a	0.039552845
155	0xbcd43abf	-0.025906919
156	0xbd8e801a	-0.06958027
157	0x3cfe2767	0.031024648
158	0x3c94997d	0.018139595
159	0x3df73cd5	0.1207215
160	0x3ded6903	0.11592295
161	0xbd0904f0	-0.033451974
162	0xbd5a1e93	-0.053251814
163	0x3d3d1af1	0.04616827
164	0xbda0c045	-0.078491725
165	0x3d66c49c	0.056339845
166	0xbdd7deef	-0.10540568
167	0xbd0e4b11	-0.034739558
168	0x3deaf2b9	0.11472077
169	0xbd85110a	-0.064973906
170	0xbd6176c0	-0.05504489
171	0xbd1a6138	-0.03769037
172	0x3de73a36	0.112904
173	0xbdd851d6	-0.10562484
174	0xbdc3c1f9	-0.09558482
175	0xbd2e990d	-0.04262643
176	0xbdc9e704	-0.09858516
177	0x3dcec86d	0.10096822
178	0x3dc80057	0.0976569
179	0x3ddfcbb1	0.10927523
180	0x3d5bce50	0.05366355
181	0xbcb35ec6	-0.021895777
182	0xbde7f52d	-0.113260604
183	0x3dfae602	0.12250902
184	0x3dc43ba5	0.09581689
185	0x3ce03b23	0.027371949
186	0x3cb04faa	0.021522362
187	0xbded65e9	-0.115917034
188	0x3d8c6509	0.068552084
189	0x37faac91	2.988268e-05
190	0xbde8927a	-0.11356063
191	0x3c893182	0.01674724
192	0x3aa75380	0.0012765974
193	0xbdc4230c	-0.09576997
194	0xbd00b640	-0.031423807
195	0xbd21cedc	-0.039503917
196	0xbd9ab64a	-0.075543
197	0x3da64a32	0.081196204
198	0x3cb9f5b8	0.022700176
199	0x3dd2a43c	0.102852315
200	0xbcc94e90	-0.024573594
201	0xbdee41fa	-0.11633678
202	0xbd33ac78	-0.04386565
203	0xbd45d7b4	-0.048301414
204	0x3db59a10	0.08867276
205	0x3de75328	0.11295158
206	0x3dbf1ba2	0.093314424
207	0x3cd36158	0.025803253
208	0xbbc396a0	-0.0059688836
209	0xbdbf50f6	-0.09341614
210	0xbd2c63bc	-0.0420873
211	0x3dbe01b6	0.0927767
212	0xbc42c7f0	-0.011888489
213	0x3cc7c268	0.024384692
214	0xbde3d114	-0.11123863
215	0x3dae693a	0.08516164
216	0x3dfeb7bc	0.12437388
217	0xbcf810b0	-0.030281395
218	0xbddf15f0	-0.10892856
219	0xbdf8e9c8	-0.12153965
220	0x3d4c9e9c	0.04995595
221	0x3dd4ca1a	0.1039011
222	0xbd9c2482	-0.07624151
223	0xbc03e340	-0.008049786
224	0xbb95f740	-0.0045765936
225	0xbdbacc4a	-0.09120996
226	0x3d2b8a0c	0.0418797
227	0xbdd2268e	-0.1026126
228	0xbdafbe54	-0.08581224
229	0xbc6e6a60	-0.014551729
230	0xbd9152f8	-0.07095903
231	0xbcb59ce8	-0.022169545
232	0xbdecd796	-0.11564557
233	0x3cae57a8	0.021282032
234	0x3db10c48	0.086449206
235	0xbdc3573e	-0.095381245
236	0x3dd582ec	0.10425362
237	0x3b14a500	0.0022681355
238	0xbdf3e1d8	-0.11908311
239	0x3dca98d4	0.09892431
240	0xbdf54ef2	-0.11977948
241	0x3da0b618	0.078472316
242	0xbdb430ae	-0.087983474
243	0xbdb42a5c	-0.08797142
244	0x3d324a84	0.043528095
245	0x3d88d544	0.06681302
246	0x3c9a7218	0.018853232
247	0xbd3f2b84	-0.04667236
248	0x3ccb4330	0.024812311
249	0x3d5982d4	0.053103283
250	0xbc499c10	-0.012305275
251	0xbde851f8	-0.11343759
252	0x3dcac5b8	0.09900993
253	0xbd6ad1d4	-0.057329014
254	0xbb2688c0	-0.00254111
255	0xbdd8e6bc	-0.10590884

fc2.bias f4 [64]
0	0x3d14854d	0.036259938
1	0xbaab1339	-0.0013051993
2	0xbd24caad	-0.04023235
3	0xbdd0fec2	-0.10204841
4	0xbdb2eefa	-0.087369874
5	0xbd5fd21a	-0.054643728
6	0x3c6fa90c	0.014627706
7	0xbdf53e22	-0.119747415
8	0x3dafa731	0.08576811
9	0xb9f8b59e	-0.0004743756
10	0x3cdf76e0	0.027278364
11	0xbb443a8a	-0.0029942119
12	0x3d0e403a	0.03472922
13	0x3dc6ffe0	0.09716773
14	0xbd3f4fbd	-0.046706904
15	0xbd991790	-0.07475197
16	0x3d6070d6	0.05479511
17	0x3d319128	0.043351322
18	0x3df36bd1	0.11885799
19	0x3d0f339a	0.03496132
20	0xbdd83e48	-0.10558754
21	0xbdb6fd2d	-0.08935008
22	0xbd6774f0	-0.056508005
23	0x3da4c20e	0.080448255
24	0xbdca1fd1	-0.0986935
25	0x3d414a70	0.04719013
26	0xbd88874d	-0.066664316
27	0xbd86340e	-0.065528974
28	0x3d6fd982	0.05855704
29	0xbddfbfe7	-0.10925274
30	0x3c0f3110	0.008739725
31	0x3dc85f69	0.09783823
32	0x3dddca5b	0.10829612
33	0x3c5d8b29	0.013521948
34	0x3c66db32	0.014090346
35	0xbb847b91	-0.0040430506
36	0xbd6133ff	-0.054981228
37	0xbde71cd3	-0.11284795
38	0x3d958179	0.073000856
39	0x3d94d2c1	0.072667606
40	0xbd2d9d2c	-0.04238622
41	0xbd8565d7	-0.06513565
42	0xbd853376	-0.06503956
43	0xbd62d51e	-0.055379026
44	0x3cb5b000	0.02217865
45	0xbdcfdf78	-0.10150045
46	0xbcd6b577	-0.026209576
47	0x3de27479	0.11057372
48	0xbdeb8df3	-0.11501684
49	0xbdc6bad6	-0.09703605
50	0x3de4b3a5	0.11167077
51	0xbdadc386	-0.08484559
52	0x3c48d011	0.012256638
53	0x3b985aa0	0.004649475
54	0x3db62804	0.08894351
55	0x3df6edc1	0.12057067
56	0xbd910f39	-0.070829816
57	0xbdde8416	-0.10865037
58	0x3d167043	0.036728155
59	0xbd2212bc	-0.039568648
60	0xbdd61850	-0.10453856
61	0x3cb14ea0	0.021643937
62	0x3c97f93f	0.018551467
63	0xbc9495c2	-0.018137816

fc3.weight f4 [6, 64]
0	0x3ca071b9	0.019585477
1	0x3c8b9a0d	0.01704123
2	0x3d8e7bc1	0.06957198
3	0xbd212ce0	-0.039349437
4	0x3cb806a1	0.022464098
5	0xbac391f2	-0.0014920814
6	0x3e01091f	0.12601136
7	0x3c879418	0.016550109
8	0x3d1c6a65	0.038187403
9	0x3d7a597a	0.061120488
10	0x3dce4484	0.10071662
11	0x3d364a18	0.044504255
12	0xbdf8e13b	-0.12152334
13	0x3d6190e3	0.055069815
14	0x3e0190cd	0.12652893
15	0xbd93f8fc	-0.072252244
16	0xbd7cac40	-0.061687708
17	0x3dd25ed0	0.1027199
18	0x3d57d933	0.05269737
19	0xbce430b3	-0.027855253
20	0x3ddd9d5d	0.1082103
21	0xbde4159c	-0.11136934
22	0x3dd25ce9	0.102716275
23	0xbd27b5e2	-0.04094494
24	0xbca772d4	-0.020440497
25	0xbccdf949	-0.025143282
26	0xbdf6dcfc	-0.12053868
27	0x3d573cd4	0.052548245
28	0xbd60a2fe	-0.05484294
29	0xbde99054	-0.114044815
30	0x3d956c08	0.07295996
31	0xb902b800	-0.00012466311
32	0xbcb7fab3	-0.02245841
33	0x3de29a3e	0.110645756
34	0xbdb32482	-0.08747198
35	0xbdc3d809	-0.0956269
36	0x3d2d6e41	0.042341474
37	0xba8eb0e0	-0.0010886453
38	0xbc7fac13	-0.015604991
39	0xbbdddfdc	-0.006771071
40	0x3cacf24c	0.02111163
41	0xbd6ade9b	-0.0573412
42	0x3d8bedde	0.06832479
43	0xbde9bce7	-0.114129834
44	0xbcd48808	-0.025943771
45	0x39901f21	0.00027489013
46	0x3d63ca57	0.05561289
47	0x3d87cf4e	0.06631337
48	0x3d325026	0.043533467
49	0x3dcdb633	0.10044517
50	0x3ca52f00	0.020164013
51	0x3c448c66	0.011996364
52	0xbd098836	-0.033577166
53	0xbd18fbf4	-0.037349656
54	0x3d91a0dc	0.071107596
55	0x3be6c5e4	0.0070426334
56	0x3dda82eb	0.10669502
57	0x3d9da004	0.07696536
58	0x3c952c06	0.018209469
59	0x3d7ba0c0	0.0614326
60	0x3c8cbee1	0.017180862
61	0x3da71fec	0.081603855
62	0xbd566999	-0.0523468
63	0x3dc02c22	0.09383418
64	0xbd9dd28d	-0.07706175
65	0x3e06e20b	0.13172166
66	0x3d47058e	0.04858928
67	0xbaaecd80	-0.001333639
68	0xbdcc98f4	-0.09990111
69	0x3d4e52ee	0.050372057
70	0x3d6555ad	0.05598991
71	0xbdf26060	-0.11834788
72	0xbc0f0c54	-0.008730967
73	0x3d8e0d4a	0.069361284
74	0xbd8a9f96	-0.0676872
75	0x3cd30a23	0.02576167
76	0xbdbaa9c3	-0.09114411
77	0x3d46474a	0.04840783
78	0xbdfb9ead	-0.122861244
79	0xbda528fc	-0.08064458
80	0x3db05a99	0.0861103
81	0x3de36c8b	0.11104687
82	0x3dc7f6c3	0.09763863
83	0xbda9127b	-0.08255478
84	0x3da1d8ed	0.079027034
85	0x3ca19c07	0.01972772
86	0xbd3cd765	-0.046103854
87	0xbdf7fad0	-0.121083856
88	0x3c942d69	0.01808806
89	0xbdd19684	-0.10233787
90	0x3dd716de	0.105024084
91	0x3c159c00	0.009131432
92	0xbd4b61e5	-0.049653906
93	0x3daf7068	0.08566362
94	0xbd024674	-0.03180547
95	0xbd2f9d28	-0.042874485
96	0xbd26953f	-0.040669676
97	0x3dab0d96	0.08352201
98	0x3dcf7d29	0.10131294
99	0x3db52768	0.08845407
100	0x3d114f6d	0.035476137
101	0x3db16631	0.086620696
102	0x3d8c3fca	0.06848104
103	0xbda8069b	-0.08204385
104	0x3c9fb5fe	0.01949596
105	0xbd82ea11	-0.06392301
106	0x3d07e7ae	0.03317993
107	0xbc9fbc8c	-0.019499086
108	0xbd6b44f8	-0.05743882
109	0x3da8435b	0.08215972
110	0x3d43c973	0.04779954
111	0x3d892f26	0.06698446
112	0xbce89169	-0.02838965
113	0x3d26cadd	0.04072081
114	0xbe0cb951	-0.13742568
115	0xbded47b4	-0.11585942
116	0xbd943ec0	-0.07238531
117	0x3d8b4d66	0.06801872
118	0xbda6aefc	-0.08138844
119	0x3d9d9521	0.0769446
120	0xbb4fd1e1	-0.003171079
121	0xbd2cd400	-0.042194366
122	0x3deae261	0.114689596
123	0x3d2dea1c	0.042459592
124	0x3d5b080e	0.05347448
125	0xbcbfd994	-0.023419179
126	0xbda4307f	-0.080170624
127	0x3dfd27fc	0.12361142
128	0xbdfd9aa1	-0.12383009
129	0xbd7a99bb	-0.061181765
130	0xbdc9e994	-0.098590046
131	0xbd120c80	-0.035656452
132	0xbdc4bd93	-0.09606471
133	0xbd0e6f75	-0.034774262
134	0x3da9f976	0.08299534
135	0xbd9de542	-0.07709743
136	0x3cd95d00	0.026533604
137	0x3d18a30c	0.03726487
138	0xbdee613c	-0.1163964
139	0xbd55f4a2	-0.052235253
140	0x3cc3a2fc	0.023881428
141	0x3df2eb70	0.118613124
142	0xbd11bbc6	-0.035579465
143	0xbb069b1c	-0.002053923
144	0x3d0e652c	0.034764454
145	0x3db559e4	0.08855036
146	0x3cc0f4db	0.023554256
147	0x3c8584a3	0.016298598
148	0x3dbbfff6	0.0917968
149	0x3c54d843	0.012991014
150	0x3da37b0e	0.07982455
151	0x3d01bdee	0.03167527
152	0xbd84f87a	-0.06492706
153	0xbd639ebf	-0.055571314
154	0xbca1b284	-0.019738443
155	0xbd3b757c	-0.04576634
156	0xbdb5f15f	-0.088839285
157	0xbd612c62	-0.054973967
158	0xbcc1f538	-0.0236765
159	0xbde7a9a8	-0.11311656
160	0x3deec4f0	0.116586566
161	0x3d8fc752	0.07020439
162	0x3db0e70d	0.086378194
163	0x3de89c27	0.11357909
164	0xbd46be5f	-0.048521396
165	0xbdf0c716	-0.11756723
166	0xbd4bf86a	-0.049797453
167	0xbdce04a3	-0.10059478
168	0xbde520fd	-0.11187933
169	0xbdbf70f4	-0.09347716
170	0x3dbfd26a	0.09366305
171	0xbdc2c1cf	-0.09509622
172	0xbdd6b8d4	-0.10484472
173	0x3d28b80f	0.041191157
174	0x3db60536	0.08887713
175	0xbcbfdbb0	-0.023420185
176	0xbd82b922	-0.063829675
177	0x3dd680eb	0.10473808
178	0x3cae1b33	0.021253204
179	0xbda28762	-0.079359785
180	0x3df8c59d	0.12147067
181	0xbbcf20f5	-0.0063210675
182	0x3c1cd72f	0.009572788
183	0xbdce584c	-0.10075435
184	0xbcf7216f	-0.03016731
185	0x3dc20960	0.094744444
186	0x3d6e831d	0.058230508
187	0x3db0f968	0.086413205
188	0xbdb98704	-0.09058955
189	0xbd20ee28	-0.039289623
190	0x3d7e0917	0.062020388
191	0x3dbc1aff	0.091848366
192	0x3d9bf200	0.07614517
193	0xbdbfcecc	-0.09365615
194	0xbd19761a	-0.037466146
195	0x3da096e4	0.0784128
196	0xbddf0d90	-0.10891259
197	0xbd6bc397	-0.057559576
198	0xbd8470a4	-0.06466797
199	0xbdff04c4	-0.12452081
200	0x3d9cce39	0.07656521
201	0xbd857cab	-0.06517919
202	0x3d9f1252	0.07767166
203	0x3c1a00c2	0.009399595
204	0x3d7a7d43	0.061154615
205	0xbd9f6793	-0.07783427
206	0x3d49f54b	0.049306195
207	0xbdbc243f	-0.09186601
208	0x3da1b848	0.07896477
209	0x3cc06c30	0.023489088
210	0x3dda2fe9	0.106536694
211	0x3d9a60ce	0.07537995
212	0xbdc3a8ed	-0.095537044
213	0x3d3044b0	0.043034256
214	0x3de5f77f	0.11228847
215	0x3dbb72c3	0.091527484
216	0xbdcbbc24	-0.09947994
217	0x3dc94f49	0.098295756
218	0xb90e48ad	-0.00013569249
219	0xbd0aa27c	-0.033846363
220	0x3d8629d6	0.06550948
221	0x3ddf77e1	0.10911537
222	0x3d5c6694	0.053808764
223	0xbda97ab2	-0.082753554
224	0xbd5cf3ee	-0.053943567
225	0xbdb65fad	-0.089049675
226	0xbdd2e953	-0.10298409
227	0xbd974673	-0.07386484
228	0xbd532fb6	-0.051559173
229	0x3d592f2c	0.053023502
230	0xbdc108e2	-0.094255224
231	0x3d4ebc2a	0.050472416
232	0x3d677da6	0.056516312
233	0xbc2b76df	-0.010465353
234	0x3de2d750	0.11076224
235	0xbd8433cf	-0.06455194
236	0xbcd4c3e8	-0.025972322
237	0xbdbd4679	-0.09241957
238	0x3cb04cdf	0.02152103
239	0xbd08886d	-0.03333323
240	0x3df53232	0.119724646
241	0xbd072fd7	-0.033004608
242	0x3dbac1d2	0.091189995
243	0xbd8b5a2e	-0.0680431
244	0xbd869fd7	-0.06573456
245	0xbdd43799	-0.10362167
246	0xbd8f6d19	-0.070032306
247	0xbd8da4cb	-0.069161974
248	0x3dea1bb4	0.11431065
249	0x3de48dd6	0.111598656
250	0x3cfbec3c	0.030752294
251	0xbdfbc8f6	-0.1229419
252	0x3dee48c7	0.11634975
253	0x3deba2b2	0.11505641
254	0xbde1453d	-0.10999534
255	0x3d7a091f	0.061043855

fc3.bias f4 [6]
0	0xbc709cb4	-0.014685798
1	0x3deb6c09	0.114952154
2	0xbd3356c0	-0.043783903
3	0x3daee39f	0.08539509
4	0x3dfddf11	0.12396062
5	0x3db1d67b	0.08683487
