saved_models/dqn_best_model_episode_42.pt (torch, 87115 bytes, 24 tensors)

fc1.weight f4 [64, 4]
000000 16 a2 d2 3e 11 c9 a6 be fa 4a fa be 07 22 6e bd
       0.41139287 -0.32575276 -0.48885328 -0.05813792
000010 1e e9 ef be 60 6c 26 bd 5f 36 dc 3d 71 ba 8a 3d
       -0.46857542 -0.0406307 0.10752558 0.06773842
000020 91 e0 cf 3e e0 ba 3e be 2a a2 ee 3e c8 dd 87 be
       0.40601018 -0.18625975 0.46608096 -0.26536393
000030 3d b7 e8 3e 60 96 18 be ce b5 ae 3d bb 0c b8 be
       0.454523 -0.14901114 0.0853077 -0.35947213
000040 ef c6 e4 bd 8f 6f 77 3e 35 23 ad be 07 fe 92 3e
       -0.11170756 0.2416365 -0.33815923 0.28709432
000050 2f 7a c8 be 51 b6 bd bd ad 2b 97 3e c2 31 f4 bc
       -0.3915572 -0.0926329 0.2952551 -0.029808883
000060 0d 82 62 be dd f0 9a be f6 9b a0 be 10 81 af 3e
       -0.22119923 -0.3026189 -0.3136899 0.34278154
000070 aa a4 54 3d 54 a1 dd 3a c3 29 c4 bd 03 1f 3e be
       0.05191485 0.0016909041 -0.09578278 -0.18566518
000080 47 fd 89 be 52 88 b8 3d d5 01 e8 3d 7a ae 8b ba
       -0.26951048 0.09010376 0.113284744 -0.0010656856
000090 3b 2e 8a be 9b 39 d1 bd a4 46 e0 be 83 be 83 3d
       -0.26988396 -0.102160655 -0.43803895 0.064328216
0000a0 e2 a0 91 3e 91 72 c1 3d d6 d7 98 3e d7 eb fb 3e
       0.28443056 0.0944568 0.2985217 0.4920337
0000b0 bb 05 be 3e fb 9d ab be 28 de 01 be f1 c1 5a be
       0.37113747 -0.33518967 -0.12682402 -0.21363045
0000c0 f8 82 fc 3d 85 ae d0 be 7d 8a a0 3e 7f e1 db be
       0.12329668 -0.40758148 0.31355658 -0.42945477
0000d0 cf 60 91 3e 93 ce 85 3e b2 35 b6 3e 3f b8 14 be
       0.28394172 0.26134166 0.3558784 -0.1452341
0000e0 52 10 88 3e e3 7e 6d 3d cb b5 db be a9 6c b2 be
       0.2657495 0.057982337 -0.42912135 -0.34848526
0000f0 aa 03 db be 60 1e ea be 2c 89 16 be d8 6e 3f be
       -0.42776233 -0.457263 -0.14700764 -0.18694627
000100 01 12 a3 3e 2a 39 0d be 1e a3 4a 3a 6a a3 94 3e
       0.31849673 -0.13791338 0.0007729995 0.29030925
000110 54 25 0a 3e 46 da c8 3d fc 3e da 3e 81 de 93 be
       0.13490802 0.09807257 0.42626178 -0.28880695
000120 9e c7 b3 be 98 40 00 be 02 0d 99 be 2c d8 41 be
       -0.35113233 -0.1252464 -0.29892737 -0.1893012
000130 1a 16 84 be 80 35 86 bc 7a e4 c2 3e 0a 36 83 be
       -0.25798112 -0.016382933 0.3806494 -0.25627166
000140 17 32 2d bd f6 40 a2 bd 46 3f b9 3c 6c 4a ee 3e
       -0.042284098 -0.079225466 0.022613179 0.46541154
000150 cd a1 62 3e 07 32 70 3e 9b fb eb bd 1d 8c f8 be
       0.22132035 0.23456584 -0.11522599 -0.48544398
000160 15 ef b8 3e d3 d4 e4 be 42 ae 52 be 5f da c1 be
       0.36119905 -0.44693622 -0.20574287 -0.37861916
000170 62 66 a0 3e 31 74 eb be 81 29 c3 3e 17 74 80 bd
       0.31328112 -0.45987085 0.38117602 -0.062721424
000180 61 b5 92 3d 13 ca d1 3e 16 63 8f be 19 4e d2 3e
       0.071635015 0.40974483 -0.28005284 0.4107521
000190 83 30 a4 3e 98 47 b3 3e 9d d2 8b 3d ed 2e 88 3e
       0.32068262 0.3501556 0.06827281 0.26598302
0001a0 67 50 20 bd f6 2e 88 bb a0 49 56 bd e4 97 80 be
       -0.039139178 -0.004155989 -0.052316308 -0.25115883
0001b0 28 38 ce 3e d9 86 82 be 00 a5 3a bc 6f c9 8c be
       0.4027722 -0.25493506 -0.011391878 -0.27497432
0001c0 f0 bb 3b be 20 cd 9d be 40 0f 9b 3d 40 bf 53 bd
       -0.18333411 -0.3082056 0.07571268 -0.051696062
0001d0 2e bb fa 3e 26 ba 9a 3c f0 74 e8 bd d9 e6 f1 3e
       0.48970932 0.01888759 -0.11350429 0.47246435
0001e0 98 0b a1 3d ec 50 cd 3e 6a 96 95 be 3b 1a cd 3e
       0.078635395 0.401008 -0.2921632 0.40059075
0001f0 fb c8 e2 be dc 23 e7 be b9 ee 12 3e f4 9b b7 3d
       -0.4429396 -0.45144546 0.14348878 0.089652926
000200 72 1b be be 05 bf ab be 69 78 7d 3d cd d8 2d 3e
       -0.37130314 -0.33544174 0.06188241 0.16977234
000210 03 0b f2 3b 64 56 e4 3e 5e ea 46 3e 77 e8 42 3e
       0.0073865666 0.4459716 0.19425341 0.19033991
000220 28 45 65 be dc bb e5 be 00 44 59 ba 60 f1 29 be
       -0.22389662 -0.44869888 -0.0008288026 -0.16595984
000230 4c 77 45 be c8 74 e8 3e 91 ea ac 3e cf 5b 4c bd
       -0.1928379 0.45401597 0.3377271 -0.049892243
000240 9c 85 68 be 18 7c dd be 74 f7 76 3e 38 2f dc be
       -0.22707218 -0.4325874 0.24117833 -0.43004775
000250 1a 1f 79 3e 17 86 a9 bd c3 2e 29 3e 4d 02 c9 be
       0.2432827 -0.08277529 0.16521744 -0.39259568
000260 d5 b2 c7 be 0b 21 47 be b9 d4 39 3e aa 16 65 3e
       -0.39003626 -0.19446199 0.18147554 0.22371927
000270 b8 83 be bd 0d e8 de 3d 3e b9 88 be cc c4 a0 3b
       -0.09302467 0.10884104 -0.2670383 0.0049062725
000280 d2 b4 d0 be 1c b6 e9 be 9e a9 86 3e 5c 15 8a be
       -0.40762955 -0.4564675 0.26301283 -0.2696942
000290 27 04 ad be 74 e0 83 be d5 90 dd 3e 49 e9 63 be
       -0.3379223 -0.25757182 0.4327456 -0.2225696
0002a0 28 ec d2 be 3c 79 4e be bc 60 a0 3e cd d1 fe 3e
       -0.41195798 -0.20163435 0.31323802 0.4976944
0002b0 26 58 cc be 31 f6 ea 3d f1 2c b4 be 70 a9 4b 3e
       -0.39911002 0.114727385 -0.35190538 0.19888854
0002c0 f7 94 e7 bc 2b 99 8a 3d 98 04 df 3e 65 16 35 be
       -0.028269274 0.06767496 0.43558192 -0.17684324
0002d0 39 ce bf 3e f4 c1 dc 3d 1d f6 0c 3e 66 05 d3 3e
       0.37462023 0.10779181 0.1376576 0.41215056
0002e0 40 4a 07 3d 72 58 fb bd 95 23 75 be 55 ad fa 3e
       0.033029795 -0.12272729 -0.23939355 0.48960367
0002f0 b8 e9 b2 be d4 74 65 be 30 2f ce bd a0 8e b4 3c
       -0.34943938 -0.22407848 -0.10067594 0.022040665
000300 cd 0a 96 3e 23 59 90 be 75 1e b2 3e 70 1c cc bc
       0.29305115 -0.28193006 0.34788862 -0.024915904
000310 6b c6 31 3e 90 cd 8e 3e 64 1d 91 3c f5 55 c7 3e
       0.17360847 0.27891207 0.01771421 0.38932768
000320 1c f7 2f be cc 5f 8b be 28 19 d9 be e2 cc 8e be
       -0.17184108 -0.27221525 -0.42402005 -0.27890688
000330 a1 00 32 be 06 82 95 3e be 90 8f be d5 1b b8 3d
       -0.17383052 0.29200763 -0.28040117 0.089896835
000340 3e 2a a2 3e bf 5c 9f be 79 a0 f9 be f9 0c 73 3e
       0.31672853 -0.31125447 -0.48755243 0.23735417
000350 89 c8 ec 3e 6f a3 f1 3e 5d 91 88 3e 53 00 d2 3e
       0.46246746 0.47195002 0.26673403 0.41015872
000360 ba 45 39 3e a2 45 ac 3e e8 0c 0d 3e ee dd b7 3e
       0.18093005 0.33646876 0.13774455 0.35911506
000370 ae 15 f4 3c 5c 20 98 3e 85 b2 d0 be 37 e8 dd 3e
       0.029795494 0.29712188 -0.407612 0.43341228
000380 29 3a 9a 3e 47 20 b4 3e 91 5a 92 3e 47 3d c5 be
       0.30122498 0.35180876 0.28584722 -0.38523313
000390 23 c7 8b 3e 7b 2b b1 3e a6 6a c2 3c d0 d8 33 3e
       0.27300367 0.34603485 0.023732495 0.17563176
0003a0 e1 44 c7 3e 0d 0b dd be d2 0c 63 3e 0a 32 31 be
       0.38919738 -0.43172494 0.2217286 -0.17304245
0003b0 bd d4 92 bd 61 90 d6 3e 7d 82 1e 3d 8e 9c 84 3d
       -0.07169483 0.41907027 0.038698662 0.06475173
0003c0 04 aa 6b be 1c 6c bf 3e d5 06 a9 be 67 66 9a 3d
       -0.23014075 0.37387168 -0.33013025 0.07539063
0003d0 c5 d7 e2 3d fa 9f 8b bd 5d f3 d5 3e e6 ac a8 be
       0.11076311 -0.068176225 0.41787234 -0.3294441
0003e0 ab d9 e2 3e 24 83 ec 3e c2 99 de be 1e 86 38 3e
       0.44306692 0.46193802 -0.43476683 0.18019912
0003f0 61 98 71 be a3 48 cf 3e eb a9 57 3d 66 25 03 3e
       -0.23593284 0.40485105 0.05265228 0.12807235

fc1.bias f4 [64]
000000 e1 b4 9e be 35 16 da be 9f d6 8e bd b9 16 ad 3d
       -0.30997375 -0.42595068 -0.069745295 0.084516
000010 b8 d8 b4 3e e3 5a cb 3e 23 be e9 3e c3 a1 6b 3d
       0.35321593 0.3971778 0.45652875 0.057527315
000020 7f e2 5a bd bd 52 76 3d f7 c1 e5 3e c6 de 97 be
       -0.05343866 0.0601375 0.44874546 -0.2966215
000030 44 b7 76 3a 3e 24 86 3e c8 e1 9e be 98 96 5d 3e
       0.0009411464 0.26199526 -0.31031632 0.21639478
000040 dd 59 2e bd 2d 9a aa 3e fe ca d8 be c0 7f 22 bc
       -0.04256617 0.33320752 -0.4234237 -0.009918153
000050 97 0d 48 be 39 2d 60 be 9b 04 5e bd 94 cb fc 3d
       -0.19536434 -0.21892251 -0.05420361 0.12343517
000060 62 d7 30 be 3e ad 75 be 55 3c f5 3e bf ee ea 3d
       -0.17269662 -0.23991868 0.47897592 0.114713185
000070 72 59 a5 be 45 c3 de 3e c6 8f b0 3e 13 3a 8e be
       -0.32294804 0.43508354 0.3448469 -0.27778682
000080 a2 4f a3 be 27 f4 b6 be 50 5b ce bd 30 16 1d bd
       -0.31896693 -0.35733148 -0.1007601 -0.038351238
000090 c0 33 a3 3c 57 fa 42 3e 31 5a 88 bd c5 d1 45 be
       0.019922137 0.1904081 -0.06657828 -0.19318302
0000a0 e8 42 71 be 5f ee d7 3e 55 f2 8a 3d 1e f7 d9 3e
       -0.23560679 0.4217405 0.067845024 0.42571348
0000b0 61 56 1f be 26 66 d2 3d bc d5 9a be b8 dc a9 bd
       -0.15560295 0.102733895 -0.3024119 -0.08294052
0000c0 6c 8e b3 be 73 1a 91 be 48 9c 31 3e 42 eb 40 3e
       -0.35069597 -0.28340492 0.17344773 0.18839744
0000d0 f4 f2 c6 be e1 31 cd 3e 51 6c 3c 3e 0e 31 af 3e
       -0.38857234 0.40077117 0.18400694 0.34217113
0000e0 a9 19 8d be 29 e0 ac 3e 96 b4 ca 3e 23 da c1 be
       -0.2755864 0.3376477 0.395909 -0.37861738
0000f0 ce bf 1c 3e c4 7a 4e 3d 81 fe 56 3d 68 b2 c7 bd
       0.15307543 0.050410047 0.052488808 -0.09750825

fc2.weight f4 [64, 64]
000000 42 16 c7 3b f4 ce 8e 3d 69 1b ff bd 56 e5 b2 3c
       0.0060756514 0.06973067 -0.124564 0.021837872
000010 f2 cf 8b 3d c5 aa 7a bd 2f 15 ef bb 8c a1 77 bd
       0.06826772 -0.061198015 -0.0072962265 -0.060456797
000020 8c 8c 49 bd d4 3e fc 3d 34 90 49 bd b0 5e b4 3d
       -0.0492063 0.12316671 -0.04920979 0.08807123
000030 d8 e0 8f bc 9e 07 ad bd 3d 63 a0 bc 9c 64 09 3d
       -0.017563269 -0.084487185 -0.01957857 0.033543214
000040 e4 47 1e bd e0 e9 55 ba f4 16 34 bd f8 c1 86 bd
       -0.03864278 -0.0008160155 -0.043967202 -0.06579965
000050 02 1d 42 3d 98 a8 fa 3d 10 3f c0 bd 36 09 e3 bd
       0.047390945 0.12239188 -0.09387028 -0.11085741
000060 47 df ff 3d 52 56 53 bd 3e bd d0 bd e5 58 fc bd
       0.12493759 -0.051595993 -0.10192345 -0.12321643
000070 e2 91 cb bd ae ea f2 3d 10 bc d6 bd 4b 9a dd bd
       -0.09939934 0.11861168 -0.10485089 -0.10820445
000080 d8 6e ae 3a cc 04 94 bd b8 b7 9c bd dd 55 1f 3d
       0.001330818 -0.072274774 -0.07652229 0.038900245
000090 18 05 df 3d 1e 93 e0 3c f0 e9 13 3d d3 af 4d bd
       0.108896434 0.027413901 0.036111772 -0.050216507
0000a0 5e 1a ce 3d 6c 67 25 bc 1d 43 a9 3d 8f 5f 4c 3d
       0.10063623 -0.0100954585 0.08264754 0.04989582
0000b0 a4 63 6c bc c9 7b ea 3d ed dd 54 3d 98 5a aa bd
       -0.014428053 0.114493914 0.051969457 -0.08318061
0000c0 f1 fe 6e 3d ca 58 d5 bd 6c 97 71 bd 29 51 44 bd
       0.0583486 -0.10417326 -0.058982298 -0.047928963
0000d0 c0 ee f0 3d 6c 80 0f 3d 46 c7 71 3d 9e 7a 84 3d
       0.11764288 0.035034582 0.059027933 0.064687
0000e0 41 f1 c6 3d e0 2a c1 bd 69 ed c9 bc 62 12 7c 3d
       0.09713984 -0.09432006 -0.024649339 0.06154097
0000f0 d8 0c bf 3c f3 64 e4 bd d3 22 f5 bd b5 42 50 3c
       0.023321554 -0.11152067 -0.11969533 0.012711217
000100 18 26 89 3d 60 78 cb 3c 8c a4 b3 3d a4 81 1d bd
       0.06696719 0.024837673 0.08771619 -0.038453713
000110 e4 5e ad bd 90 55 28 bc 8e a6 aa bd a0 6f fa 3d
       -0.084653646 -0.010274306 -0.08332549 0.12228322
000120 48 99 2b bd 0c c1 7f 3d 30 d7 c2 bd e6 5a 8a bd
       -0.041894227 0.062439963 -0.095137 -0.06755619
000130 2c f1 ec bd 78 df f0 3d 60 d9 d6 bc 00 84 43 b9
       -0.115694374 0.11761373 -0.0262267 -0.00018645823
000140 00 c9 7c bd 48 a8 f0 3c d8 38 a1 bd d8 2f ce 3c
       -0.061715126 0.029377118 -0.0787217 0.025169298
000150 88 ba 4b bd 14 b5 10 bd 66 b8 f0 bd ae a9 fd 3d
       -0.049738437 -0.03532894 -0.11753921 0.123858795
000160 38 a7 f8 bd 90 4c d1 3c f8 83 37 3d 3e 0a 9e 3d
       -0.121412694 0.025549203 0.04480359 0.07716797
000170 fe 1f cb bd da 37 ae bd a4 6b eb bd 10 a8 8e 3d
       -0.099182114 -0.085067466 -0.1149514 0.06965649
000180 c8 e0 65 3d 40 01 6a 3d d8 c5 f0 3c 8a 4e a0 bd
       0.05612257 0.0571301 0.029391214 -0.0782748
000190 c0 f4 46 bc ce 3d d7 3d 38 9f b8 3d 40 3e 1c bd
       -0.012143314 0.10509835 0.090147436 -0.038145304
0001a0 7a 1f 90 3d 80 97 ba 3a 8a 79 c4 bd 70 9c 3e bd
       0.07037254 0.0014235824 -0.09593494 -0.04653591
0001b0 12 5b f8 bd ee 67 d8 bd 94 93 f1 3d 90 5d ec bc
       -0.12126745 -0.10566698 0.117957264 -0.028853208
0001c0 e0 6d 3c bd 24 83 32 bd 72 a2 8b bd 10 02 05 3c
       -0.046003222 -0.043582097 -0.06818093 0.0081181675
0001d0 b0 10 13 bd f4 49 fe bd 78 d0 02 3d 5c d7 55 3d
       -0.035904586 -0.12416449 0.031937093 0.052207336
0001e0 18 8b d6 3d e8 ad d0 3c fa f2 e3 bd a8 61 85 3d
       0.10475749 0.02547355 -0.111303285 0.06512767
0001f0 e4 f5 58 3d a0 1b 0b bd d2 ca a2 bd 64 1f 94 3d
       0.052968875 -0.033961892 -0.07948841 0.0723255
000200 7a 6f ec bd b4 7b 45 3d 79 07 dc bc 20 1c 19 bc
       -0.115447 0.048213676 -0.026859032 -0.009345084
000210 9c 23 09 bd 55 33 fe 3d b3 06 ea bb c2 2f f0 3d
       -0.033481225 0.124121346 -0.007141912 0.11727859
000220 55 7d 64 3d 8e 19 fa bd 89 54 9a bd ee 72 c7 bd
       0.05578359 -0.122119054 -0.07535655 -0.09738718
000230 d6 98 d0 3d 40 f7 c9 3d 68 82 a8 bd c0 59 6f bd
       0.10185401 0.09861612 -0.08227998 -0.0584352
000240 2b b9 cc 3d 96 dc 72 bd b0 0e ce bc 68 e2 a0 3d
       0.099962555 -0.0592924 -0.025153488 0.078556836
000250 17 34 b7 3d 30 3f 17 bd fc 60 d4 bd 0d 30 20 bd
       0.08945482 -0.036925495 -0.10370061 -0.039108325
000260 7b 72 13 bd f1 7d 8b bc e8 c4 bd bc e1 48 86 3d
       -0.03599785 -0.017027827 -0.023165181 0.06556869
000270 4c 9d 18 bd 61 41 a0 3d 80 27 7d bd f5 ce 67 3c
       -0.037259385 0.0782497 -0.06180525 0.0141484635
000280 31 3a fe 3d 97 e1 02 bd a2 e4 ce 3d 25 17 0c bd
       0.12413443 -0.03195342 0.10102202 -0.03420176
000290 c8 66 69 bd ca 05 10 bd 4b 5a 2e 3d 5b 24 91 3d
       -0.056982785 -0.03516177 0.04256658 0.070870124
0002a0 f6 24 8f bd a7 6b fd bd 3f 1a 71 3d d6 2a fd bb
       -0.069894716 -0.12374049 0.05886292 -0.0077260537
0002b0 65 85 7c bc 54 2a b4 3d c9 0a c8 bc 1e 88 f9 3d
       -0.015412663 0.08797136 -0.024419205 0.121841654
0002c0 1d 5a 83 3d 3e 5f b0 3d d8 b2 a6 3c 0d 3d f3 3d
       0.06413672 0.08611916 0.020348951 0.11876879
0002d0 0e f0 c3 bd b8 02 d2 bd 35 b8 ce 3d 49 96 26 bd
       -0.09567271 -0.10254425 0.100937285 -0.040670667
0002e0 d9 a8 ba bd 80 cc 3c bd 78 80 7a 3b a2 89 91 bd
       -0.091142364 -0.046093464 0.0038223546 -0.071063295
0002f0 a3 9a 4d bd a5 69 f4 bd cc 15 22 3b bc ed ee bc
       -0.0501963 -0.119342126 0.002473223 -0.029166095
000300 66 a3 a9 3d a0 6f 12 bd ef ff ba 3d 81 6c 5c 3d
       0.08283119 -0.035750985 0.09130847 0.053814415
000310 b0 78 e8 3c e0 91 96 bd a1 79 92 bd 15 2f 5a ba
       0.02837786 -0.07352042 -0.07152105 -0.0008323056
000320 c0 99 43 3b 70 69 c7 bd fa 13 9a bd a1 07 da 3d
       0.002984628 -0.097369075 -0.075233415 0.10645986
000330 fc fa a1 3d 11 53 82 bd f4 be a1 3d 26 6e 8d bd
       0.079091996 -0.063635 0.078977495 -0.06905775
000340 d3 72 3e 3d 99 7d df ba fa 9c e0 3d 90 62 8b bd
       0.046496224 -0.0017050981 0.10967441 -0.06805909
000350 a4 69 c7 bd e4 96 be bb 75 a8 66 bd 05 da e5 bc
       -0.09736946 -0.0058163274 -0.056312997 -0.028058061
000360 c6 83 de bd 41 cb 62 bd c0 a1 ea 3d 8f d3 1c bd
       -0.108649775 -0.05536962 0.114566326 -0.038287695
000370 28 40 dc bd 57 e9 90 3d 9a 96 a7 3d 70 99 66 bd
       -0.10754424 0.07075756 0.08183022 -0.056298673
000380 3c b4 d4 3d 2d ad 67 3d 54 3e 47 bd 26 12 89 bd
       0.103859395 0.056561638 -0.048643425 -0.06692915
000390 1a 5e c8 bd a6 ef c2 3d 00 98 e9 b9 31 a1 b4 bb
       -0.097835734 0.095183656 -0.00044554472 -0.0055123796
0003a0 b0 5c a8 bd e0 e1 d5 bb c0 6a 41 3c 34 72 1b bd
       -0.08220804 -0.0065271705 0.011805236 -0.03795071
0003b0 ef 90 45 bc 8f 8c 81 bd c9 6f d3 bd 10 31 a0 bc
       -0.012058481 -0.063256375 -0.10324056 -0.019554645
0003c0 21 9c 97 bd d7 e2 dd 3d ba 20 c6 3d 19 80 c0 bd
       -0.07402826 0.10834282 0.09674211 -0.09399433
0003d0 be 94 cf 3d 6c fd 0f 3d 5d 01 a0 3d f9 f0 a1 bd
       0.10135792 0.03515379 0.0781276 -0.0790729
0003e0 fa 9a 19 bd 93 fa 87 bd aa ed 4e 3c 92 91 c7 3c
       -0.037501313 -0.0663959 0.012629906 0.024361406
0003f0 03 75 64 bd bc 1a d1 3c 66 d8 4c 3d 3b 50 f6 3b
       -0.055775654 0.025525443 0.05001106 0.0075168884

fc2.bias f4 [64]
000000 4f 38 ff bd 94 07 e3 bd 49 db 4f 3d e6 dd 86 3d
       -0.12461912 -0.1108543 0.050746236 0.065852925
000010 61 6f ed 3d da 53 ce bd f2 61 bf 3d 48 06 ed bd
       0.115935095 -0.10074587 0.093448535 -0.11573464
000020 6e 75 c3 3d a1 4d 3a bd 12 57 a1 bd 89 5b c3 3d
       0.09543882 -0.04548419 -0.078779355 0.09538943
000030 da cc ac 3c 41 c2 e9 3d 89 6c 29 3b c1 7c 18 3d
       0.021093775 0.11414004 0.0025852046 0.03722835
000040 cb 22 a8 bd 84 5d 3a 3d fd d8 a3 3d 00 43 99 bd
       -0.08209761 0.04549934 0.080003716 -0.07483482
000050 70 19 04 bd d0 00 89 bc a5 02 c5 3d fd 76 e4 bd
       -0.03225082 -0.01672402 0.09619645 -0.11155508
000060 2b 73 d0 bd b2 3b 27 3c 70 59 e8 3c 26 71 8a bd
       -0.101782165 0.010207104 0.02836296 -0.067598626
000070 ae a8 c0 bd 70 d7 b6 bd 87 2d ff 3c d9 7e be 3d
       -0.09407173 -0.0892781 0.031149639 0.09301538
000080 49 d9 a9 bc 4c 72 9b 3c 98 1d 11 3d 5b 91 73 bc
       -0.020733492 0.0189754 0.035428613 -0.014866198
000090 8e 8e 58 bd ad 9b 9b bd d4 24 3c 3d ca 57 52 3d
       -0.052870326 -0.07598052 0.04593356 0.051353253
0000a0 db 98 b8 3d ae 06 e2 bd 12 f4 82 bc 6e 6b d8 bd
       0.0901353 -0.1103643 -0.015985522 -0.105673656
0000b0 3c 98 a9 bd 0c 89 87 bd a5 e8 20 bd 79 d7 48 bd
       -0.082809895 -0.066179365 -0.039284367 -0.049033616
0000c0 f1 67 94 3d 00 82 28 bc b8 15 f8 bd db 73 2f 3c
       0.07246388 -0.010284901 -0.121135175 0.010708774
0000d0 e4 f3 af bd 56 94 d4 3d c0 f3 d9 bd 9e 72 d4 bc
       -0.0859144 0.10379855 -0.10642195 -0.02593356
0000e0 b5 48 f4 bd af 5e aa bd 39 9d bd 3d d1 ac 17 bd
       -0.1192793 -0.08318841 0.092585035 -0.037030045
0000f0 85 71 40 3c df 6b 90 bc 1e 2f f7 3c 8a 1d 4c bd
       0.011745815 -0.017629562 0.030173834 -0.04983286

fc3.weight f4 [6, 64]
000000 4e 30 b9 bd 7c ef f9 3d 50 80 ef bc 46 00 ba bb
       -0.090424165 0.12203881 -0.029235989 -0.005676302
000010 0b 4e ef 3d 16 f3 e4 bd 06 2e d4 3d 4e d6 d7 bb
       0.116848074 -0.111791775 0.10360341 -0.0065868264
000020 2c 1c ab 3c 71 52 bd 3d 57 a8 8e 3d c8 19 d7 3d
       0.020887457 0.0924424 0.06965702 0.10502964
000030 98 bf fc 3a 54 e8 74 bd 43 cb 4c 3d 44 a0 e3 bd
       0.0019283174 -0.059791878 0.049998533 -0.111145526
000040 5c 11 5b bc 15 7b be bd 1b d8 e1 bd 96 92 e1 3d
       -0.013370838 -0.0930082 -0.11027547 0.11014287
000050 aa 1b 89 bd 59 5c fb 3d 40 88 da bd 04 4d 30 bd
       -0.066947296 0.12273473 -0.10670519 -0.043042198
000060 3e 22 69 bd c3 69 c1 3d fc 80 e4 3d 88 ad 63 3d
       -0.05691742 0.094440006 0.11157414 0.055585414
000070 58 52 96 bc e7 f9 b2 bd 74 c1 f4 3d b5 20 f8 3d
       -0.018349811 -0.08739071 0.11950961 0.12115613
000080 b0 f2 e1 bd c6 aa 6e 3d c0 08 76 bd 16 dc 0d bc
       -0.11032617 0.05826833 -0.06006694 -0.00865843
000090 37 cc f3 bd 64 51 cd bd 53 c0 c7 bc 2a ac cd bd
       -0.11904185 -0.1002529 -0.0243837 -0.10042603
0000a0 5d c0 93 bb 38 6f 34 3d 72 f3 93 3d e8 3c 99 bd
       -0.0045090155 0.04405138 0.07224168 -0.0748232
0000b0 9c 94 26 3d bf 83 0c bd 6e 5b eb bd 67 42 f4 3d
       0.04066907 -0.03430533 -0.11492048 0.11926728
0000c0 da a5 c5 bb 60 36 29 bc 4a 7f 97 3d a6 c5 e0 bd
       -0.006031734 -0.010327905 0.07397325 -0.109751984
0000d0 c6 ed fd bd 9c 64 84 bd f6 60 0d 3d fe 64 f3 3c
       -0.12398867 -0.06464502 0.034516297 0.029711243
0000e0 f9 ec 74 3b 4b 5f 0a 3d 5d 40 ad 3d b3 87 aa 3d
       0.0037372692 0.033782285 0.08459542 0.08326664
0000f0 fe 5e de 3d b6 57 bf 3d 3a 6f 26 bd 1e a7 f7 3c
       0.10857962 0.093429014 -0.040633418 0.030231055
000100 ac ab db 3d 16 4f d5 3d 4a b9 ea 3d 52 b3 42 bc
       0.10726103 0.10415475 0.11461122 -0.011883574
000110 d1 0b 83 bb 4b db b1 3d 40 e2 a7 bc ca 53 fe 3d
       -0.0039992114 0.08684405 -0.020493627 0.12418325
000120 0a 3b 83 3c 1f 48 c3 3d 15 2e c6 3d 64 20 de bd
       0.016019363 0.095352404 0.09676758 -0.10846022
000130 67 b1 51 bc b6 2d a9 3d cc 80 72 bd 54 bf e5 bd
       -0.012798644 0.08260672 -0.05920486 -0.112181336
000140 00 ec a5 3d fe 80 99 bd 40 1d c8 bb 96 92 f7 bd
       0.08101654 -0.074953064 -0.0061070025 -0.12088506
000150 70 68 ec 3c f0 2a 44 3d 48 ce d4 3d eb b1 a2 3b
       0.028858393 0.04789251 0.103909075 0.004965057
000160 da 7d 26 bd f6 4f 92 bd 9a 7b fa bd 0e 22 19 bd
       -0.040647365 -0.071441576 -0.122306064 -0.037385993
000170 fe 69 e1 bd 28 7c 63 3d 21 05 8b bc ab 16 13 bd
       -0.110065445 0.055538327 -0.01697022 -0.03591029
000180 65 54 a0 3c 86 b0 b3 bd ce 51 bf bd 71 62 13 bd
       0.019571492 -0.087739035 -0.09341775 -0.035982553
000190 2a 75 f0 bc fd 31 d6 bc 77 0f 70 3d 3f b2 9e bd
       -0.029352743 -0.026146883 0.0586085 -0.077488415
0001a0 91 a4 25 bc 70 8f b2 bd e8 0a 1f 3d 20 11 ff bb
       -0.0101100365 -0.08718765 0.03882876 -0.007784024
0001b0 32 e9 c2 3d a1 32 e6 3b 8d a7 ba bd cb 40 54 bc
       0.09517135 0.0070250784 -0.09113989 -0.012954901
0001c0 65 78 01 3d e0 78 a0 bc c4 1b 89 bd 5d 3f fe bc
       0.031608958 -0.019588888 -0.06694749 -0.031036073
0001d0 f8 25 3e 3d 28 fd b7 3c 49 e7 8c 3d 4f 5b 6d bd
       0.04642293 0.022459581 0.06880052 -0.057948407
0001e0 3c 79 aa bc c1 5f ca 3d 2d 5d 67 bd 7b 9a cb 3d
       -0.020809762 0.09881545 -0.056485344 0.09941574
0001f0 3c ad 91 bd b5 88 c5 bd e4 51 98 3d 39 40 b8 3c
       -0.0711312 -0.096452154 0.074374944 0.022491561
000200 85 af af bd ba 95 e6 bd e7 96 d8 bd 22 91 3f bc
       -0.085783996 -0.11259027 -0.10575657 -0.011692317
000210 69 dd ac 3d 89 03 55 bd 34 b9 58 bd bf d9 9b bd
       0.08440668 -0.052005325 -0.052911 -0.07609891
000220 43 be f0 3d ff 8b b5 bd 27 35 e7 bd 8f 67 cb 3d
       0.117550395 -0.08864593 -0.11289435 0.099318616
000230 26 60 38 3d 00 72 86 3d 8a ba 27 bd db 5d 11 bd
       0.04501357 0.065647125 -0.040949382 -0.0354899
000240 f5 92 fb bd 4a 29 0a bd d8 a2 64 bd 2e 46 bd bc
       -0.12283889 -0.033730783 -0.055819362 -0.023104753
000250 d4 5f e7 3d a7 eb 8d b8 af b8 95 bc 94 33 23 bd
       0.11297575 -6.7672976e-05 -0.01827654 -0.03984411
000260 37 ea b3 3d 70 0f 98 3d 69 f1 92 bd 45 5f eb 3d
       0.08784907 0.074248195 -0.071749516 0.114927806
000270 96 6a f5 3d 8e 50 83 3d f2 e3 8e bd 4c 71 64 ba
       0.1198322 0.06411849 -0.06977071 -0.00087143923
000280 da ea c2 bd 3e ac c3 3d 52 df c9 3d 77 33 15 bc
       -0.09517451 0.09554337 0.09857048 -0.009106508
000290 95 78 54 3c 23 e8 e8 bb 7d 78 cc 3c aa 20 9e bd
       0.012968202 -0.007107751 0.024959797 -0.07721074
0002a0 95 a0 59 bd 3c a8 bf bd 06 77 53 bd 5c 07 44 3d
       -0.05313166 -0.0935826 -0.05162718 0.04785858
0002b0 c0 b4 c0 bd 83 9c 40 bd 95 af 88 3c 60 ff 60 bd
       -0.09409475 -0.04702426 0.016685287 -0.054931045
0002c0 c3 c8 d3 bd 68 db e6 3c ca 27 c4 bd 5e bf 80 bc
       -0.10341027 0.028180793 -0.09577902 -0.015716251
0002d0 be c9 ca 3d a0 fb 88 3d 01 e6 b5 bc 33 8d 1c 3b
       0.099017605 0.06688619 -0.022204401 0.0023887872
0002e0 4d b8 77 bc a5 ee ee bd 3d 26 b9 3d 0f ca 9c bd
       -0.015119624 -0.116666116 0.090404965 -0.07655727
0002f0 cd 81 c0 bd 70 49 ee 3d 4f 8b c8 3d 4a e8 e1 bc
       -0.093997575 0.11635101 0.09792196 -0.027576584
000300 f3 3f 89 bd 80 e4 b1 3c 2c e1 af 3d 7e ca aa 3d
       -0.067016505 0.021715403 0.0858787 0.083394036
000310 5f de d9 3c e0 3c 43 bd 08 74 ef 3d 46 37 76 3d
       0.026595293 -0.047665477 0.11692053 0.060111307
000320 fa 3c 44 bd 1d c0 8b bd 52 e3 3d bd 9a a3 d3 bd
       -0.047909714 -0.06823752 -0.046359368 -0.10333939
000330 31 fa dc 3d 68 6e 04 bd 15 cc 43 bd d6 02 d8 bd
       0.10789908 -0.032331854 -0.04780205 -0.10547416
000340 e2 64 bb 3d 10 73 b5 3c 00 dc 79 3b 1c 35 96 3b
       0.09150101 0.022149593 0.0038125515 0.004583968
000350 18 4a f0 bc 05 20 67 bc 77 23 0b bc d2 92 e0 3d
       -0.029332206 -0.014106755 -0.008492342 0.10965504
000360 ce fb 54 3d 37 e6 92 3d f4 0f 89 3d 8e ed 72 3d
       0.051997952 0.07172816 0.06692496 0.05930858
000370 60 0c 0b 3c 4b 1b ce bb a3 e2 b6 bc 4b b0 df bc
       0.008486837 -0.0062898747 -0.022324866 -0.027305743
000380 d1 8f fe bd a4 f4 ed bc 04 13 7b bd f0 dc ac bd
       -0.124297746 -0.029047318 -0.06129743 -0.08440578
000390 6f 18 89 3c 70 20 43 bd e2 06 d3 bd 2e f6 b4 bd
       0.016735284 -0.047638357 -0.10304047 -0.088360175
0003a0 69 3f 95 3d e9 41 0b bd 95 67 9f 3d d6 19 90 bd
       0.07287485 -0.033998404 0.077834286 -0.07036178
0003b0 fa 78 bd bd bc 34 a2 bd b4 17 68 3c c9 4d ea 3d
       -0.0925159 -0.079202145 0.0141658075 0.114406176
0003c0 1c 65 15 bc 00 d1 12 3d f8 b0 e8 3d 2e 27 3d bd
       -0.009118345 0.03584385 0.11361879 -0.046179943
0003d0 10 b5 af 3c a0 9c c7 bc 1c 67 cb 3d 8e 0a fc 3b
       0.021448642 -0.024366677 0.09931776 0.007691688
0003e0 d2 42 10 bd f1 c9 58 bd 35 36 24 bd 01 53 b2 3d
       -0.035219975 -0.05292696 -0.04009076 0.08707238
0003f0 3e 4a ae 3d ac 4e 88 bd 74 e4 15 bd bc cd 89 3d
       0.08510254 -0.066556305 -0.036594823 0.06728694

fc3.bias f4 [6]
000000 8a 8e 7d bd ca e0 3d 3d e5 5e 32 3d dd 8f a8 3d
       -0.061903514 0.046356954 0.04354753 0.08230565
000010 a2 66 c8 bc ef 1f e7 bd
       -0.024463002 -0.11285388

fc1.weight f4 [64, 4]
000000 ca 6b d2 3e 56 fe a6 be 00 81 fa be e0 d4 6e bd
       0.41097862 -0.32615918 -0.48926544 -0.058308482
000010 1e e9 ef be 20 2e 26 bd 50 50 dc 3d b8 d8 8a 3d
       -0.46857542 -0.040571332 0.10757506 0.06779617
000020 54 17 d0 3e 10 4e 3e be 9a d7 ee 3e 2e ce 87 be
       0.40642798 -0.18584466 0.46648866 -0.2652449
000030 5a ed e8 3e 30 2a 18 be 58 7f af 3d 12 f6 b7 be
       0.45493585 -0.14859843 0.08569211 -0.35929924
000040 38 fb e3 bd 70 d5 77 3e 4a f0 ac be f8 e6 92 3e
       -0.111319005 0.24202514 -0.33777076 0.2869184
000050 b8 7f c8 be 90 c8 bd bd 74 23 97 3e 00 8d f4 bc
       -0.39159942 -0.0926677 0.29519236 -0.02985239
000060 ec 57 62 be 54 d8 9a be 64 7e a0 be 66 92 af 3e
       -0.22103852 -0.3024317 -0.31346428 0.3429138
000070 d0 06 53 3d 00 b6 a9 3a 30 d4 c4 bd dc 4b 3e be
       0.05152017 0.0012947917 -0.09610784 -0.18583626
000080 18 ee 89 be f8 8e b8 3d 58 32 e8 3d 00 bc 91 ba
       -0.26939464 0.09011644 0.11337727 -0.001111865
000090 c8 31 8a be 40 f8 d0 bd a4 46 e0 be e0 d0 83 3d
       -0.26991105 -0.102036 -0.43803895 0.06436324
0000a0 ce d1 91 3e 90 2d c2 3d 46 09 99 3e b6 da fb 3e
       0.2848038 0.094813466 0.29889888 0.491903
0000b0 fa 38 be 3e 96 6a ab be 10 83 01 be 2c 97 5a be
       0.37152845 -0.33479756 -0.12647653 -0.2134673
0000c0 80 af fc 3d 34 a3 d0 be 52 97 a0 3e b8 e4 db be
       0.123381615 -0.40749514 0.31365448 -0.42947936
0000d0 7a 88 91 3e 04 f6 85 3e 9e 56 b6 3e fc a2 14 be
       0.28424436 0.26164258 0.3561296 -0.14515299
0000e0 ec 37 88 3e 80 72 6e 3d b8 9e db be 28 5a b2 be
       0.26605165 0.058214664 -0.4289453 -0.3483441
0000f0 aa 03 db be 60 1e ea be 2c 89 16 be d8 6e 3f be
       -0.42776233 -0.457263 -0.14700764 -0.18694627
000100 c0 20 a3 3e 88 1f 0d be 00 cc 5a 3a f6 ae 94 3e
       0.31860924 -0.1378156 0.00083464384 0.29039735
000110 0c 8d 0a 3e d8 a8 c9 3d f8 71 da 3e 2e cf 93 be
       0.13530368 0.098466575 0.42665076 -0.28869003
000120 9e c7 b3 be 98 40 00 be 02 0d 99 be 2c d8 41 be
       -0.35113233 -0.1252464 -0.29892737 -0.1893012
000130 1a 16 84 be 80 35 86 bc 7a e4 c2 3e 0a 36 83 be
       -0.25798112 -0.016382933 0.3806494 -0.25627166
000140 80 98 2c bd f0 e6 a1 bd 20 cf ba 3c c8 63 ee 3e
       -0.042137623 -0.07905376 0.022803843 0.46560502
000150 cc dc 62 3e 94 59 70 3e 70 7c eb bd c8 8c f8 be
       0.2215454 0.23471671 -0.11498344 -0.48544908
000160 5e 19 b9 3e bc ab e4 be b0 6b 52 be 5c d2 c1 be
       0.36152166 -0.44662273 -0.20548892 -0.37855804
000170 76 6c a0 3e e8 6c eb be 92 29 c3 3e 90 b5 80 bd
       0.3133275 -0.45981526 0.38117653 -0.0628463
000180 50 6f 93 3d 98 fc d1 3e 68 3f 8f be 5c 6f d2 3e
       0.071989655 0.41013026 -0.27978063 0.41100585
000190 4a 0a a4 3e 92 1f b3 3e f8 4c 8b 3d c8 50 88 3e
       0.320391 0.34985024 0.0680179 0.2662413
0001a0 a0 64 21 bd 00 27 91 bb a0 49 56 bd e4 97 80 be
       -0.039402604 -0.004429698 -0.052316308 -0.25115883
0001b0 c6 6c ce 3e fa 51 82 be 80 90 34 bc c2 c8 8c be
       0.40317363 -0.25453168 -0.01102078 -0.27496916
0001c0 f0 bb 3b be 20 cd 9d be 40 0f 9b 3d 40 bf 53 bd
       -0.18333411 -0.3082056 0.07571268 -0.051696062
0001d0 4c 83 fa 3e 20 42 97 3c 78 52 e9 bd ac c2 f1 3e
       0.48928297 0.018464148 -0.11392683 0.47218835
0001e0 d8 c8 a1 3d d0 80 cd 3e 88 6d 95 be 50 05 cd 3e
       0.07899636 0.4013734 -0.29185128 0.40043116
0001f0 fa cf e2 be dc 23 e7 be 40 e0 12 3e 80 82 b7 3d
       -0.442993 -0.45144546 0.14343357 0.08960438
000200 f0 0c be be 0c c4 ab be c0 9f 7d 3d d4 ee 2d 3e
       -0.37119246 -0.3354801 0.061919928 0.16985637
000210 80 ad f1 3b fe 54 e4 3e f0 e4 46 3e c8 e4 42 3e
       0.007375419 0.44596094 0.1942327 0.19032586
000220 28 45 65 be dc bb e5 be 00 44 59 ba 60 f1 29 be
       -0.22389662 -0.44869888 -0.0008288026 -0.16595984
000230 9c da 45 be 0a 44 e8 3e 18 c0 ac 3e f0 13 4d bd
       -0.19321674 0.4536441 0.33740306 -0.050067842
000240 9c 85 68 be 18 7c dd be 74 f7 76 3e 38 2f dc be
       -0.22707218 -0.4325874 0.24117833 -0.43004775
000250 90 2d 79 3e d8 5e a9 bd 5c 21 29 3e 96 1c c9 be
       0.24333787 -0.08270043 0.16516632 -0.39279622
000260 cc c7 c7 be d8 4e 47 be fc ab 39 3e e0 dd 64 3e
       -0.3901962 -0.1946367 0.18132013 0.22350264
000270 38 3f bf bd a0 2b de 3d 60 d9 88 be 80 50 9f 3b
       -0.0933823 0.108481646 -0.26728344 0.0048618913
000280 d2 b4 d0 be 1c b6 e9 be 9e a9 86 3e 5c 15 8a be
       -0.40762955 -0.4564675 0.26301283 -0.2696942
000290 74 ff ac be 74 e0 83 be 88 95 dd 3e e4 df 63 be
       -0.33788645 -0.25757182 0.43278146 -0.22253376
0002a0 e8 dc d2 be cc 62 4e be 86 6a a0 3e 30 e9 fe 3e
       -0.41184163 -0.20154876 0.3133127 0.49787283
0002b0 9a 51 cc be 68 f8 ea 3d d2 20 b4 be ec bf 4b 3e
       -0.39906007 0.11473161 -0.3518129 0.19897431
0002c0 60 cd ea bc 38 ce 89 3d d8 d7 de 3e f8 48 35 be
       -0.028662384 0.06728786 0.4352405 -0.17703617
0002d0 74 99 bf 3e 30 ec db 3d 6c 99 0c 3e 80 03 d3 3e
       0.37421763 0.107384086 0.13730401 0.41213608
0002e0 90 a8 06 3d b8 cd fb bd 58 5e 75 be 96 8b fa 3e
       0.032875597 -0.12295097 -0.2396177 0.4893462
0002f0 b8 e9 b2 be d4 74 65 be 30 2f ce bd a0 8e b4 3c
       -0.34943938 -0.22407848 -0.10067594 0.022040665
000300 f4 da 95 3e d8 85 90 be 6c f6 b1 3e a0 16 cc bc
       0.2926861 -0.28227115 0.34758317 -0.024913132
000310 1c cc 31 3e 76 dd 8e 3e 00 d6 8e 3c 76 5d c7 3e
       0.17363018 0.27903336 0.017436028 0.38938493
000320 1c f7 2f be cc 5f 8b be 28 19 d9 be e2 cc 8e be
       -0.17184108 -0.27221525 -0.42402005 -0.27890688
000330 94 6d 32 be 8c 4b 95 3e 7c c6 8f be e8 b7 b7 3d
       -0.17424613 0.291592 -0.2808112 0.08970624
000340 9e 50 a2 3e da 35 9f be e6 81 f9 be 08 49 73 3e
       0.3170213 -0.31095773 -0.48731917 0.23758328
000350 60 fa ec 3e 06 d6 f1 3e 7c ba 88 3e 4a 1e d2 3e
       0.4628477 0.472336 0.26704776 0.41038734
000360 0c b4 39 3e 36 7d ac 3e e0 74 0d 3e 24 fc b7 3e
       0.18135089 0.33689278 0.13814116 0.35934556
000370 00 12 f7 3c de 51 98 3e d2 86 d0 be 0c fa dd 3e
       0.03015995 0.2974996 -0.4072786 0.43354833
000380 a0 6f 9a 3e e8 54 b4 3e 4c 8d 92 3e de 2f c5 be
       0.30163288 0.35221028 0.28623426 -0.38513082
000390 b6 ca 8b 3e 98 3b b1 3e a0 2b c3 3c 60 bb 33 3e
       0.27303094 0.3461578 0.023824513 0.17551947
0003a0 f4 19 c7 3e 6e 34 dd be 34 bb 62 3e 10 7b 31 be
       0.38886988 -0.43204063 0.22141725 -0.17332101
0003b0 a8 45 93 bd f8 75 d6 3e a0 db 1d 3d 08 b2 84 3d
       -0.0719102 0.41886878 0.03853953 0.06479269
0003c0 18 3e 6b be f8 a1 bf 3e 6e d3 a8 be c8 a8 9a 3d
       -0.22972906 0.3742826 -0.32973808 0.07551724
0003d0 48 96 e2 3d 98 dd 8b bd 60 e6 d5 3e 7c c2 a8 be
       0.1106382 -0.06829375 0.41777325 -0.3296088
0003e0 d8 0f e3 3e 0a b9 ec 3e 1e 65 de be 30 b6 38 3e
       0.44348025 0.46234924 -0.4343652 0.18038249
0003f0 9c c4 71 be 40 35 cf 3e e0 34 57 3d e8 3c 03 3e
       -0.23610157 0.40470314 0.05254066 0.12816203

fc1.bias f4 [64]
000000 50 eb 9e be a6 0e da be c0 fa 8d bd 48 ef ad 3d
       -0.31038904 -0.425893 -0.069325924 0.08492905
000010 38 0b b5 3e c0 5a cb 3e 4e d2 e9 3e e0 03 6a 3d
       0.35360122 0.39717674 0.45668262 0.0571326
000020 30 0c 5b bd f0 6d 76 3d 2e f1 e5 3e 0e ac 97 be
       -0.05347842 0.06016344 0.44910568 -0.29623455
000030 00 80 87 3a 1c 4c 86 3e 22 be 9e be 98 96 5d 3e
       0.001033783 0.26229942 -0.31004435 0.21639478
000040 e0 e4 2d bd f2 cd aa 3e fe ca d8 be c0 7f 22 bc
       -0.0424546 0.3336025 -0.4234237 -0.009918153
000050 20 da 47 be 8c 02 60 be d0 ad 5c bd 90 d4 fc 3d
       -0.19516802 -0.21875972 -0.053876698 0.123452306
000060 6c 71 30 be f0 fa 75 be 4e 1a f5 3e 28 c2 eb 3d
       -0.17230767 -0.24021506 0.4787163 0.11511642
000070 72 59 a5 be 5e 8b de 3e b6 bf b0 3e 82 40 8e be
       -0.32294804 0.43465704 0.34521264 -0.2778359
000080 f2 43 a3 be 8c f6 b6 be 50 5b ce bd 80 9c 1e bd
       -0.31887776 -0.35734975 -0.1007601 -0.03872347
000090 c0 33 a3 3c 90 04 43 3e d8 c4 88 bd e8 2f 46 be
       0.019922137 0.19044709 -0.0667817 -0.19354212
0000a0 e8 42 71 be 12 f3 d7 3e d8 46 8b 3d c0 00 da 3e
       -0.23560679 0.42177635 0.06800622 0.42578697
0000b0 a8 bc 1f be 68 90 d1 3d 42 f2 9a be b8 dc a9 bd
       -0.1559931 0.102326214 -0.30262953 -0.08294052
0000c0 94 be b3 be 98 0d 91 be 48 9c 31 3e d0 7d 40 3e
       -0.35106337 -0.28330684 0.17344773 0.18797994
0000d0 82 cb c6 be 94 65 cd 3e 24 db 3c 3e b2 62 af 3e
       -0.3882714 0.4011656 0.1844297 0.34254986
0000e0 6a e4 8c be c8 eb ac 3e 12 87 ca 3e 2a f5 c1 be
       -0.27518016 0.33773637 0.39556175 -0.37882358
0000f0 00 2c 1d 3e d0 f2 4d 3d 30 b0 58 3d 60 f7 c7 bd
       0.15348816 0.050280392 0.0529024 -0.0976398

fc2.weight f4 [64, 64]
000000 60 6e ca 3b 86 06 8f 3d 16 15 ff bd 38 1e b3 3c
       0.0061777085 0.06983666 -0.12455194 0.021864995
000010 80 f7 8b 3d a4 71 7a bd 60 ad e8 bb 9c 87 77 bd
       0.06834316 -0.061143532 -0.007100746 -0.06043206
000020 54 46 49 bd 1e 94 fc 3d 50 29 49 bd 26 79 b4 3d
       -0.049139336 0.123329386 -0.049111664 0.0881217
000030 d8 e0 8f bc 08 fa ac bd f0 2e a0 bc 9c 64 09 3d
       -0.017563269 -0.08446127 -0.019553632 0.033543214
000040 70 8f 1d bd 00 46 50 ba f4 16 34 bd f8 c1 86 bd
       -0.03846687 -0.0007945001 -0.043967202 -0.06579965
000050 34 d7 42 3d aa b5 fa 3d 10 3f c0 bd 6c c4 e2 bd
       0.047568515 0.12241681 -0.09387028 -0.11072621
000060 ba fd ff 3d d4 23 53 bd be c6 d0 bd c2 4c fc bd
       0.124995664 -0.05154784 -0.10194157 -0.12319328
000070 e2 91 cb bd b2 1b f3 3d 62 9c d6 bd c0 80 dd bd
       -0.09939934 0.11870517 -0.104790464 -0.10815573
000080 80 b3 ca 3a c6 ef 93 bd b8 b7 9c bd 84 6f 1f 3d
       0.0015464872 -0.072234675 -0.07652229 0.03892471
000090 18 05 df 3d 70 c7 e0 3c 30 b6 14 3d 74 94 4d bd
       0.108896434 0.02743885 0.03630656 -0.050190404
0000a0 5e 1a ce 3d 20 d1 24 bc 84 a2 a9 3d bc 31 4d 3d
       0.10063623 -0.010059625 0.082829505 0.05009626
0000b0 10 27 6c bc 28 a6 ea 3d e4 9c 55 3d 98 5a aa bd
       -0.01441361 0.11457473 0.052151576 -0.08318061
0000c0 60 6d 6f 3d f8 36 d5 bd 6c 97 71 bd 98 28 44 bd
       0.058453918 -0.10410875 -0.058982298 -0.047890276
0000d0 bc 48 f1 3d 94 b8 0f 3d 24 06 72 3d 74 a1 84 3d
       0.11781451 0.035088137 0.059087887 0.06476107
0000e0 66 fe c6 3d ca 12 c1 bd 10 24 c9 bc 24 30 7c 3d
       0.097164914 -0.09427412 -0.024553329 0.061569348
0000f0 38 53 bf 3c a8 4b e4 bd b0 0d f5 bd 80 dd 50 3c
       0.023355111 -0.11147243 -0.11965501 0.012748122
000100 18 26 89 3d 60 78 cb 3c 8c a4 b3 3d a4 81 1d bd
       0.06696719 0.024837673 0.08771619 -0.038453713
000110 e4 5e ad bd 90 55 28 bc 8e a6 aa bd a0 6f fa 3d
       -0.084653646 -0.010274306 -0.08332549 0.12228322
000120 48 99 2b bd 0c c1 7f 3d 30 d7 c2 bd e6 5a 8a bd
       -0.041894227 0.062439963 -0.095137 -0.06755619
000130 2c f1 ec bd 78 df f0 3d 60 d9 d6 bc 00 84 43 b9
       -0.115694374 0.11761373 -0.0262267 -0.00018645823
000140 00 c9 7c bd 48 a8 f0 3c d8 38 a1 bd d8 2f ce 3c
       -0.061715126 0.029377118 -0.0787217 0.025169298
000150 88 ba 4b bd 14 b5 10 bd 66 b8 f0 bd ae a9 fd 3d
       -0.049738437 -0.03532894 -0.11753921 0.123858795
000160 38 a7 f8 bd 90 4c d1 3c f8 83 37 3d 3e 0a 9e 3d
       -0.121412694 0.025549203 0.04480359 0.07716797
000170 fe 1f cb bd da 37 ae bd a4 6b eb bd 10 a8 8e 3d
       -0.099182114 -0.085067466 -0.1149514 0.06965649
000180 c8 e0 65 3d 40 01 6a 3d d8 c5 f0 3c 8a 4e a0 bd
       0.05612257 0.0571301 0.029391214 -0.0782748
000190 c0 f4 46 bc ce 3d d7 3d 38 9f b8 3d 40 3e 1c bd
       -0.012143314 0.10509835 0.090147436 -0.038145304
0001a0 7a 1f 90 3d 80 97 ba 3a 8a 79 c4 bd 70 9c 3e bd
       0.07037254 0.0014235824 -0.09593494 -0.04653591
0001b0 12 5b f8 bd ee 67 d8 bd 94 93 f1 3d 90 5d ec bc
       -0.12126745 -0.10566698 0.117957264 -0.028853208
0001c0 e0 6d 3c bd 24 83 32 bd 72 a2 8b bd 10 02 05 3c
       -0.046003222 -0.043582097 -0.06818093 0.0081181675
0001d0 b0 10 13 bd f4 49 fe bd 78 d0 02 3d 5c d7 55 3d
       -0.035904586 -0.12416449 0.031937093 0.052207336
0001e0 18 8b d6 3d e8 ad d0 3c fa f2 e3 bd a8 61 85 3d
       0.10475749 0.02547355 -0.111303285 0.06512767
0001f0 e4 f5 58 3d a0 1b 0b bd d2 ca a2 bd 64 1f 94 3d
       0.052968875 -0.033961892 -0.07948841 0.0723255
000200 98 30 ec bd c4 0f 45 3d 08 83 dc bc 50 17 1a bc
       -0.11532706 0.04811074 -0.02691795 -0.009404972
000210 cc 1d 09 bd 56 2f fe 3d 40 d2 e8 bb c2 2f f0 3d
       -0.033475682 0.12411372 -0.007105142 0.11727859
000220 e0 e2 63 3d 8c 22 fa bd 10 5a 9a bd de 6b c7 bd
       0.055636287 -0.122136205 -0.07536709 -0.09737371
000230 16 71 d0 3d 68 dd c9 3d 68 82 a8 bd c0 59 6f bd
       0.101778194 0.09856683 -0.08227998 -0.0584352
000240 58 b8 cc 3d 64 0c 73 bd b0 0e ce bc 68 e2 a0 3d
       0.09996098 -0.05933799 -0.025153488 0.078556836
000250 ba 32 b7 3d 30 3f 17 bd fc 60 d4 bd 40 4a 20 bd
       0.08945222 -0.036925495 -0.10370061 -0.03913331
000260 e4 74 13 bd 10 9b 8b bc e8 c4 bd bc 0e 29 86 3d
       -0.036000147 -0.017041713 -0.023165181 0.06550799
000270 4c 9d 18 bd f0 3f a0 3d f0 29 7d bd a0 30 68 3c
       -0.037259385 0.07824695 -0.061807573 0.014171749
000280 3e 4a fe 3d d8 fd 02 bd a2 e4 ce 3d 8c 37 0c bd
       0.12416504 -0.031980366 0.10102202 -0.03423266
000290 c8 66 69 bd a8 80 10 bd 74 68 2e 3d 32 ff 90 3d
       -0.056982785 -0.035278946 0.042580083 0.07079925
0002a0 f6 24 8f bd 70 7e fd bd 4c 1d 71 3d 80 89 fc bb
       -0.069894716 -0.12377632 0.05886583 -0.007706821
0002b0 b0 df 7c bc 9e 25 b4 3d 38 fa c7 bc 1e 88 f9 3d
       -0.015434191 0.087962374 -0.024411306 0.121841654
0002c0 ca 44 83 3d 0e 5a b0 3d d8 b2 a6 3c 7e 3c f3 3d
       0.06409605 0.086109266 0.020348951 0.11876772
0002d0 e6 d8 c3 bd 30 0a d2 bd 64 b1 ce 3d f4 91 26 bd
       -0.095628545 -0.10255849 0.10092428 -0.040666535
0002e0 78 aa ba bd 84 da 3c bd 40 38 77 3b 1a a7 91 bd
       -0.091145456 -0.04610683 0.0037722737 -0.0711195
0002f0 fc a8 4d bd 14 6f f4 bd 00 3b 22 3b 98 34 ef bc
       -0.050209984 -0.11935249 0.0024754405 -0.029199883
000300 08 23 aa 3d a0 6f 12 bd 46 c5 bb 3d bc ee 5d 3d
       0.08307463 -0.035750985 0.09168486 0.054182753
000310 00 47 eb 3c e0 91 96 bd 2c 5f 92 bd 00 16 fd b9
       0.028720379 -0.07352042 -0.07147059 -0.00048272312
000320 c0 99 43 3b 70 69 c7 bd ca 4d 99 bd 74 95 da 3d
       0.002984628 -0.097369075 -0.0748554 0.10673037
000330 b4 25 a2 3d da 8d 81 bd 08 78 a2 3d 26 6e 8d bd
       0.079173476 -0.06325884 0.079330504 -0.06905775
000340 70 f3 3f 3d 00 9f ad ba fa 9c e0 3d 90 62 8b bd
       0.04686302 -0.0013246238 0.10967441 -0.06805909
000350 8a 6b c7 bd e0 85 b2 bb e8 f8 65 bd 50 0b e4 bc
       -0.09737308 -0.005448088 -0.05614558 -0.027837425
000360 46 c3 dd bd 24 44 61 bd 82 de ea 3d cc 5f 1b bd
       -0.10828261 -0.054996625 0.11468221 -0.037933156
000370 28 40 dc bd 54 ab 91 3d 80 57 a8 3d 70 99 66 bd
       -0.10754424 0.07112756 0.08219814 -0.056298673
000380 3c b4 d4 3d 2c 37 69 3d 54 3e 47 bd fa 4a 88 bd
       0.103859395 0.05693738 -0.048643425 -0.06654926
000390 1a 5e c8 bd e6 b2 c3 3d 00 98 e9 b9 e0 ce ac bb
       -0.097835734 0.095556065 -0.00044554472 -0.005273685
0003a0 b0 5c a8 bd e0 e1 d5 bb a0 ce 41 3c 34 72 1b bd
       -0.08220804 -0.0065271705 0.011829048 -0.03795071
0003b0 40 2a 3f bc 48 c8 80 bd 56 83 d3 bd 10 31 a0 bc
       -0.011667788 -0.062882006 -0.10327785 -0.019554645
0003c0 52 e6 96 bd 6c a6 de 3d ba 20 c6 3d a4 cc bf bd
       -0.07368149 0.10871586 0.09674211 -0.09365204
0003d0 ac d8 cf 3d 40 86 11 3d f2 c5 a0 3d be 33 a1 bd
       0.10148749 0.03552842 0.07850255 -0.07871197
0003e0 94 12 18 bd 1e 37 87 bd 20 fb 53 3c 70 9f ca 3c
       -0.037127092 -0.0660231 0.012938291 0.024734229
0003f0 d0 0e 63 bd f8 3d d4 3c c0 59 4e 3d d0 3e 01 3c
       -0.05543405 0.025908455 0.05037856 0.007888511

fc2.bias f4 [64]
000000 7c 04 ff bd 94 07 e3 bd 64 d6 4f 3d e6 a3 87 3d
       -0.12452027 -0.1108543 0.05074157 0.06623058
000010 0a 91 ec 3d de 20 cf bd f2 61 bf 3d 3a 9f ec bd
       0.115511015 -0.10113691 0.093448535 -0.115538076
000020 fa b9 c3 3d 00 a7 38 bd ca 7d a0 bd 28 95 c2 3d
       0.095569566 -0.04508114 -0.07836492 0.095011055
000030 10 cb ae 3c e8 db e9 3d 00 41 2f 3b 38 3c 1a 3d
       0.021337062 0.11418897 0.0026741624 0.037655085
000040 de a6 a8 bd 6c 1b 3c 3d a4 f2 a3 3d d8 87 99 bd
       -0.082349524 0.04592459 0.080052644 -0.07496613
000050 70 19 04 bd 78 b1 85 bc 1c 2c c4 3d 44 46 e4 bd
       -0.03225082 -0.016319975 0.09578726 -0.111462146
000060 e2 3c d1 bd 70 68 20 3c 10 d4 eb 3c a6 84 8a bd
       -0.102166906 0.009790525 0.028787643 -0.06763582
000070 ae a8 c0 bd 04 b1 b6 bd 50 e3 fd 3c 3a 54 bf 3d
       -0.09407173 -0.08920482 0.03099218 0.09342237
000080 b0 b8 ab bc 00 95 9e 3c 04 1e 11 3d 50 ae 79 bc
       -0.02096209 0.019358158 0.035429016 -0.015239313
000090 44 60 57 bd b0 bf 9a bd a4 93 3d 3d 54 6b 53 3d
       -0.05258204 -0.07556093 0.04628338 0.051616028
0000a0 be 63 b9 3d 20 65 e1 bd e8 fe 82 bc 6e 6b d8 bd
       0.090522274 -0.11005616 -0.01599069 -0.105673656
0000b0 3c 98 a9 bd d2 b6 86 bd 60 3d 1f bd b4 d1 47 bd
       -0.082809895 -0.06577839 -0.03887689 -0.048783973
0000c0 92 92 94 3d 00 82 28 bc b8 15 f8 bd 70 0a 29 3c
       0.072545186 -0.010284901 -0.121135175 0.01031743
0000d0 e4 f3 af bd 56 94 d4 3d 2c c6 da bd 68 82 d5 bc
       -0.0859144 0.10379855 -0.106823295 -0.02606316
0000e0 c6 72 f3 bd 1a 8e a9 bd 0c 2a be 3d 80 41 19 bd
       -0.11887126 -0.08279057 0.092853636 -0.03741598
0000f0 c0 5b 47 3c c0 34 92 bc 50 ff f6 3c 40 cc 4d bd
       0.012167871 -0.017847419 0.03015104 -0.050243616

fc3.weight f4 [6, 64]
000000 4a a4 b9 bd 7c ef f9 3d 38 1d f1 bc 60 79 b1 bb
       -0.09064539 0.12203881 -0.029432878 -0.0054160804
000010 90 ce ef 3d 66 a7 e4 bd 06 2e d4 3d 20 08 d0 bb
       0.117093205 -0.11164741 0.10360341 -0.006348625
000020 c0 23 ac 3c 9e d4 bd 3d a2 f4 8e 3d 7a c6 d6 3d
       0.02101314 0.09269069 0.06980254 0.10487075
000030 00 29 0d 3b a4 1b 75 bd 60 97 4c 3d ae 39 e3 bd
       0.002153933 -0.059840813 0.04994905 -0.11094986
000040 e0 37 5f bc ca f5 bd bd c2 f1 e1 bd 64 f9 e1 3d
       -0.0136241615 -0.09275396 -0.1103244 0.110338956
000050 aa 1b 89 bd 2a c2 fb 3d f0 15 da bd 84 a8 30 bd
       -0.066947296 0.12292893 -0.106487155 -0.04312946
000060 04 2d 6a bd 22 e0 c1 3d 60 b3 e4 3d 2c fd 63 3d
       -0.057171836 0.09466578 0.111670256 0.055661365
000070 58 52 96 bc d8 13 b3 bd a6 2f f5 3d a2 8a f8 3d
       -0.018349811 -0.08744019 0.11971979 0.12135817
000080 88 bf e1 bd b8 79 6f 3d c0 08 76 bd 30 f9 0d bc
       -0.1102286 0.05846569 -0.06006694 -0.008665368
000090 90 89 f3 bd a0 d7 cc bd b8 a4 c8 bc 5c 33 ce bd
       -0.11891472 -0.10002065 -0.024492607 -0.1006839
0000a0 20 22 9d bb b8 3f 33 3d f0 5e 94 3d e8 3c 99 bd
       -0.004795328 0.04376194 0.072446704 -0.0748232
0000b0 9c 94 26 3d 78 66 0b bd ee 10 eb bd 1c b7 f4 3d
       0.04066907 -0.03403327 -0.114778385 0.11948988
0000c0 40 09 cc bb 60 36 29 bc 4a 7f 97 3d 72 74 e0 bd
       -0.0062266886 -0.010327905 0.07397325 -0.1095971
0000d0 c6 ed fd bd 9c 64 84 bd 30 35 0e 3d 48 8d f2 3c
       -0.12398867 -0.06464502 0.034718692 0.029608384
0000e0 00 6d 66 3b c8 37 0b 3d ca e8 ac 3d 9c d6 aa 3d
       0.0035160184 0.033988744 0.084428385 0.08341715
0000f0 ee d6 de 3d 4a 6c bf 3d 14 97 25 bd 18 95 f9 3c
       0.10880838 0.093468264 -0.040427282 0.030466601
000100 1a 2f db 3d 16 4f d5 3d 76 73 ea 3d 80 e5 48 bc
       0.10702343 0.10415475 0.11447804 -0.012261748
000110 a0 69 90 bb 72 09 b1 3d 40 e2 a7 bc 22 84 fd 3d
       -0.0044071227 0.0864438 -0.020493627 0.12378718
000120 20 fc 7f 3c 66 82 c2 3d f8 6e c5 3d 0e e1 de bd
       0.015624076 0.09497528 0.09640306 -0.108827695
000130 a0 2e 58 bc b6 2d a9 3d cc 80 72 bd 36 8f e6 bd
       -0.01319471 0.08260672 -0.05920486 -0.11257784
000140 a4 33 a5 3d ae 4e 9a bd 40 1d c8 bb 12 63 f8 bd
       0.0806649 -0.07534538 -0.0061070025 -0.12128271
000150 70 68 ec 3c 68 8a 42 3d 82 fc d3 3d 20 1d a1 3b
       0.028858393 0.047495276 0.103508964 0.004916802
000160 80 0a 28 bd 84 21 93 bd 3e 4b fb bd 7c a2 19 bd
       -0.04102564 -0.07184127 -0.12270211 -0.037508473
000170 fe 69 e1 bd 28 7c 63 3d f8 47 8e bc ac b8 14 bd
       -0.110065445 0.055538327 -0.017368302 -0.03630893
000180 e0 1b 9d 3c f6 79 b4 bd ce 51 bf bd 84 10 15 bd
       0.01917833 -0.08812325 -0.09341775 -0.036392704
000190 c0 b5 f3 bc c0 6f d9 bc d0 8a 6e 3d 82 61 9f bd
       -0.029749751 -0.026542544 0.05823785 -0.0778227
0001a0 50 80 2b bc c4 31 b3 bd 34 85 1d 3d 20 11 ff bb
       -0.010467604 -0.087497264 0.03845711 -0.007784024
0001b0 32 e9 c2 3d 60 fc da 3b aa 78 bb bd 00 bd 5a bc
       0.09517135 0.0066829175 -0.09153874 -0.013350725
0001c0 d4 dd 00 3d e0 78 a0 bc c4 1b 89 bd 48 c8 00 bd
       0.03146155 -0.019588888 -0.06694749 -0.031441003
0001d0 f8 25 3e 3d 28 fd b7 3c 96 15 8c 3d e8 8d 6d bd
       0.04642293 0.022459581 0.06840055 -0.05799666
0001e0 60 71 ad bc 58 8f c9 3d 34 97 68 bd 84 c5 ca 3d
       -0.021172225 0.09841794 -0.056784824 0.09900954
0001f0 8e 79 92 bd 60 58 c6 bd 34 80 97 3d 08 f6 b4 3c
       -0.07152091 -0.09684825 0.073975 0.022089973
000200 66 fd af bd ba 95 e6 bd 62 e1 d8 bd 60 e3 45 bc
       -0.08593254 -0.11259027 -0.10589863 -0.012078136
000210 1c 11 ac 3d 84 9e 56 bd 34 b9 58 bd 56 a5 9c bd
       0.08401701 -0.052397266 -0.052911 -0.07648723
000220 be f2 ef 3d 06 53 b6 bd 1c fa e7 bd 1a bc ca 3d
       0.11716221 -0.08902554 -0.113270015 0.09899159
000230 38 ca 36 3d 00 72 86 3d f8 0f 28 bd 48 f3 12 bd
       0.044626445 0.065647125 -0.041030854 -0.035876542
000240 3c 49 fc bd 5c b3 0b bd d8 a2 64 bd d8 78 c0 bc
       -0.12318656 -0.034106597 -0.055819362 -0.023495123
000250 d4 5f e7 3d 00 4e ee b9 08 e9 98 bc 14 8b 23 bd
       0.11297575 -0.00045453012 -0.018665805 -0.039927557
000260 f8 2b b3 3d 68 42 97 3d 84 b9 93 bd a2 34 eb 3d
       0.08748621 0.07385713 -0.07213119 0.11484648
000270 96 6a f5 3d 0e 4a 83 3d ec ae 8f bd 80 03 a5 ba
       0.1198322 0.06410609 -0.070157856 -0.0012589544
000280 c4 b4 c3 bd 66 e9 c2 3d c8 c4 c9 3d 30 7f 1b bc
       -0.09555963 0.095171735 0.09851986 -0.009490773
000290 10 21 4e 3c a0 90 f5 bb d8 80 c9 3c 50 cf 9e bd
       0.012581125 -0.0074940473 0.02459757 -0.077543855
0002a0 2c 06 5b bd 06 42 c0 bd 04 09 55 bd 5c 07 44 3d
       -0.053472683 -0.09387593 -0.05201055 0.04785858
0002b0 c0 b4 c0 bd c8 08 42 bd 10 83 85 3c 28 93 62 bd
       -0.09409475 -0.047371656 0.016297847 -0.05531612
0002c0 a6 15 d4 bd 68 db e6 3c ca 27 c4 bd b8 e3 83 bc
       -0.103556916 0.028180793 -0.09577902 -0.016099796
0002d0 be c9 ca 3d a0 fb 88 3d 48 14 b9 bc 00 ff 15 3b
       0.099017605 0.06688619 -0.022592679 0.0022887588
0002e0 90 7c 7d bc 1c ba ef bd 00 b4 b8 3d 74 9a 9d bd
       -0.015471593 -0.117054194 0.09018707 -0.07695475
0002f0 ee 4a c1 bd 00 7e ed 3d 98 c0 c7 3d 48 29 e5 bc
       -0.0943812 0.11596298 0.09753531 -0.027973786
000300 a4 98 89 bd 80 e4 b1 3c 16 7a af 3d 1a 6c aa 3d
       -0.06718567 0.021715403 0.08568208 0.083214
000310 c0 7a d8 3c bc 30 44 bd 08 74 ef 3d 14 58 75 3d
       0.02642572 -0.04789804 0.11692053 0.05989845
000320 fc 68 45 bd 92 fa 8b bd 78 f2 3e bd 60 f1 d3 bd
       -0.048195824 -0.06834902 -0.046617955 -0.10348773
000330 ae 80 dc 3d 68 6e 04 bd 24 18 44 bd 68 85 d8 bd
       0.10766731 -0.032331854 -0.047874585 -0.1057232
000340 14 c3 ba 3d e8 1c b5 3c 00 dc 79 3b 20 69 8e 3b
       0.091192394 0.02210851 0.0038125515 0.004346028
000350 18 4a f0 bc 50 39 6b bc 60 d9 0e bc c8 6c e0 3d
       -0.029332206 -0.014356926 -0.008718818 0.109582484
000360 6c 9d 53 3d 22 71 92 3d b4 7e 88 3d 1c db 72 3d
       0.0516638 0.071504846 0.06664792 0.05929099
000370 60 0c 0b 3c c0 7b d0 bb 58 d7 b8 bc a8 a2 e1 bc
       0.008486837 -0.0063624084 -0.022563621 -0.02754338
000380 94 2c ff bd 50 5d ef bc 04 13 7b bd 64 70 ad bd
       -0.124596745 -0.0292193 -0.06129743 -0.084687024
000390 b8 d4 86 3c 30 f9 43 bd 0c b7 d3 bd 80 9d b5 bd
       0.016458854 -0.047845066 -0.10337648 -0.08867931
0003a0 20 95 94 3d 8c 85 0c bd 7e fa 9e 3d d6 19 90 bd
       0.07255006 -0.034307048 0.07762621 -0.07036178
0003b0 fa 78 bd bd de 48 a2 bd 50 b1 63 3c e2 dd e9 3d
       -0.0925159 -0.079240546 0.013897255 0.11419274
0003c0 b0 b4 18 bc 00 d1 12 3d f8 b0 e8 3d 9c ed 3d bd
       -0.009320423 0.03584385 0.11361879 -0.04636918
0003d0 10 b5 af 3c a0 9c c7 bc d4 e9 ca 3d 80 ab f9 3b
       0.021448642 -0.024366677 0.099078804 0.0076193213
0003e0 24 a0 11 bd 18 c7 59 bd e0 67 24 bd e4 d2 b1 3d
       -0.035553113 -0.053168386 -0.040138125 0.08682802
0003f0 c4 db ad 3d a6 f1 88 bd 1c d3 16 bd 80 77 89 3d
       0.084891826 -0.06686716 -0.036822423 0.06712246

fc3.bias f4 [6]
000000 1c 57 7d bd f8 3b 3c 3d 0c c8 30 3d 62 f8 a7 3d
       -0.061850652 0.04595563 0.04315953 0.08201672
000010 58 8a cb bc 44 f9 e7 bd
       -0.02484624 -0.113268405
