saved_models/dqn_best_model_episode_951.pt (torch, 87147 bytes, 24 tensors)

fc1.weight f4 [64, 4]
00000000: 725b f5be 6ad6 24be 1059 f53e 18e4 e0be
00000010: 4ccd e8be 38a1 6dbe 483b 0fbe 30dc 36bd
00000020: 9f51 30be 27f0 073e 97d3 903e 1dbf cdbd
00000030: 034e 74be d378 f23e 70fa af3e 560a 90be
00000040: 4fd1 2e3e 96c3 2ebe 6dee 793d 3a50 09be
00000050: 2f2f 113b 8e51 e0bd bd2c e43e a30a 9a3e
00000060: 2e32 fbbe 7981 f23e 34b8 7b3e ba9e 8c3c
00000070: d2a6 833e 8299 92be 65dd 0fbd 3f72 dbbd
00000080: 225c a53e ea5a 37be 8873 d93e 7427 dabe
00000090: bcf2 17be 960a 96be 306e 283d 1c77 5bbe
000000a0: 02fa dcbe c600 00bf c792 883e 8a81 563c
000000b0: b04d 45be badc c4be 664d c6be 843c 33be
000000c0: ec3b fc3d 1ab6 fd3d d3b7 00bf 5a1f 64be
000000d0: ef15 37be d4b8 9ebe 49ce 84be 7bf7 bb3e
000000e0: 2c7d 033e 66ef 85be 17e9 fdbe 4d7b b33c
000000f0: 4000 e4bc 4418 5fbe 6484 4abe d007 16be
00000100: 0a6e 91be 083a 63be 41ab 53be acaa b13e
00000110: 517d 79be 9a4f c13e 8a31 bc3d 2bc9 e43e
00000120: b388 f93e f109 cebe 6904 e73e e319 cf3e
00000130: d08c de3e 59d4 bfbe 95a9 483e 823a 1cbe
00000140: 530c 443e 1187 d93d dfb9 d33e 98ec c6be
00000150: dc33 0dbe b0d9 50be 1c56 3ebe 82b1 dfbe
00000160: fc2f fbbe a34d 25be 4e63 6f3e d731 063e
00000170: cda1 e03e 70aa e4be a633 523e 608c 503e
00000180: 7fef 773e 8d96 bdbb 6a52 6b3e 0438 3cbd
00000190: 8cdd 05be 2063 d5bd 50c5 d03d 0e88 8dbe
000001a0: 3e32 dcbe 10bd 44be 941e f1be a0e2 09bd
000001b0: 50dc a43e c094 9bbe 7e21 f2bd 677d b13e
000001c0: f528 a5be 8a53 dd3e 9648 88be a5cc 953c
000001d0: ba1e a1be 3fad d73e 2e3c 8ebe 3e62 97be
000001e0: 2e4a 803c 5baa 863e c3d9 2bbd ea15 a83e
000001f0: 25d2 e6be d85c 75bd 689a 47be 1f8d 043e
00000200: a71c f53e 0865 ea3d 9e82 39be 7b73 c3be
00000210: 6b81 a3be baf8 09be 1823 ed3e fb29 963d
00000220: 200f 8dbe 3764 1a3e 64bd a53e 4e03 be3c
00000230: c11f b03e 4e9e b6be 2a78 88be e434 e93e
00000240: 4789 e93e edf4 5cbe 979d b7be d586 ecbe
00000250: 93e1 c9be 73ef 8e3c 0eda 543e eae9 973d
00000260: 346a 88be cb5f 373e 09be 3c3d 22b8 a93e
00000270: 9f7c ea3e 3640 103e bda5 c8be 4ae0 c93e
00000280: 6ae6 adbe 6529 323e 403d 5bbc f682 87be
00000290: d1a4 5fbe 7889 9c3e 8329 e53e 5e18 b63e
000002a0: 09dc e6be 5441 d43e 92c6 b23e 55c4 04be
000002b0: 0049 22be 7a3c 00bd 31a0 c5be a090 013e
000002c0: 6b5e 933d 191a fdbe 7a09 cf3e 8966 9cbe
000002d0: cd96 8b3e f0f2 003f 299c 963e 7b31 50be
000002e0: d2f7 79be 590e b3be 7f62 3f3e 8f7a af3e
000002f0: b65c 90bc 56da 7d3e 62ac fbbe b852 3ebe
00000300: 66c1 f9be 00a7 ab3c 44e2 64be 28ac b4bd
00000310: b787 cdbd 6fe4 903d 47d2 9ebd 815d 5ebe
00000320: 1851 833e 0dbe bc3e 1946 c23e 279e dbbe
00000330: 55dd b4bd 6a35 95be 5fe9 e23e 3a10 4a3c
00000340: 3dae 003f 8ff1 b6be d6f9 903e 0b19 963e
00000350: 99b6 2dbe 6c4a b43e 77b2 ecbd 66fe 9cbe
00000360: 95f1 803e 7aab a5be 635e 34be 56a6 173e
00000370: cd53 1abe d81c 903e 5d04 7b3d 6243 cbbe
00000380: 5895 ddbd f413 3c3e d521 673e df9f ba3e
00000390: 1102 04be 4e2b 56bd 10cf 72be b1c7 b13e
000003a0: 00eb 07be b78d aa3e e0c6 053e 69af dd3d
000003b0: 0d92 a73e d79b 7abe cb0f 1cbe 2d7c 83bd
000003c0: 13b5 7a3e 8272 dabe 4e5e 6bbe 27e9 b3be
000003d0: 7a80 edbe 2f0f 223e 897f 323e f670 4ebe
000003e0: de51 ed3e a910 4fbe 96c9 31be 923b a8be
000003f0: ec49 833e 2d36 46be 460e d6be 808b fabe
-0.4792133 -0.16097417 0.47919512 -0.43924022 -0.4546913 -0.23206031 -0.13987458 -0.04464358
-0.17218636 0.13275205 0.2828643 -0.100462176 -0.23857884 0.47357807 0.34370756 -0.28132886
0.17072032 -0.17066798 0.061018396 -0.1340951 0.0022153368 -0.10953055 0.44565383 0.3008624
-0.49061722 0.47364405 0.24581987 0.01716553 0.2571321 -0.28632742 -0.035123248 -0.1071515
0.32296854 -0.17905775 0.42470956 -0.42608225 -0.1483869 -0.2930495 0.041120708 -0.21432155
-0.4315949 -0.5000118 0.26674482 0.013092408 -0.19267917 -0.3844965 -0.38730925 -0.17503554
0.12316117 0.12388249 -0.50280493 -0.22277585 -0.17879461 -0.31000388 -0.25938633 0.3671225
0.12840718 -0.2615921 -0.49591896 0.02190938 -0.02783215 -0.217866 -0.19777066 -0.14651418
-0.28404266 -0.22190106 -0.20670797 0.34700525 -0.2436421 0.37756044 0.09189136 0.4468473
0.48737106 -0.4024196 0.45120552 0.40449437 0.43466806 -0.37466696 0.1959594 -0.15256694
0.19145326 0.10621465 0.41352746 -0.38852382 -0.13789314 -0.20395541 -0.18587536 -0.43690115
-0.49060047 -0.16142897 0.23377725 0.1310495 0.43873444 -0.44661283 0.20527515 0.20366049
0.24212454 -0.0057857693 0.22980657 -0.04595186 -0.13072795 -0.10419297 0.101938844 -0.27642864
-0.43007082 -0.19212747 -0.47093642 -0.033663392 0.32199335 -0.30386925 -0.118227944 0.34665987
-0.3225781 0.43227798 -0.2661788 0.018286059 -0.31468755 0.42124364 -0.27780288 -0.2956714
0.015660372 0.26301846 -0.04195572 0.3282922 -0.45082203 -0.059902996 -0.19492495 0.12944458
0.47873423 0.114450514 -0.18116233 -0.38174042 -0.31934676 -0.13473788 0.46315837 0.07332226
-0.27550602 0.15077291 0.32371056 0.023194935 0.34399226 -0.35667652 -0.26654178 0.45548165
0.45612547 -0.21577807 -0.3586242 -0.4619662 -0.39429912 0.017448163 0.20786306 0.074176624
-0.26643527 0.17907636 0.04607967 0.33148295 0.45798203 0.14086995 -0.39188948 0.3942893
-0.33964854 0.17398603 -0.013381302 -0.26467103 -0.21840216 0.3057363 0.44758233 0.35565466
-0.45089749 0.4145609 0.34917122 -0.1296552 -0.1584816 -0.031307675 -0.3859878 0.12652826
0.07195743 -0.49433973 0.40436918 -0.30546978 0.2726349 0.50370693 0.29416016 -0.20331375
-0.24410942 -0.34971884 0.18689917 0.34273192 -0.017622333 0.2479032 -0.49154955 -0.18586242
-0.48780364 0.020953655 -0.22351938 -0.08821899 -0.10035651 0.0707482 -0.07754951 -0.21715356
0.25647807 0.36863747 0.37944105 -0.42894098 -0.08831278 -0.29142314 0.44318673 0.01233297
0.50265867 -0.3573117 0.2831561 0.2931598 -0.16964187 0.3521303 -0.11557477 -0.3066284
0.25184312 -0.3235739 -0.1761413 0.14809546 -0.1507103 0.28147006 0.061283458 -0.39699847
-0.10819501 0.18366987 0.225715 0.36450097 -0.12891413 -0.052287392 -0.237118 0.34722665
-0.13273239 0.33311245 0.13064146 0.108244725 0.32728615 -0.2447351 -0.152404 -0.06420169
0.24483137 -0.42665488 -0.22985193 -0.3513882 -0.46387082 0.15826105 0.17431463 -0.20160279
0.46351522 -0.20221199 -0.17362055 -0.3285795 0.25642335 -0.19356604 -0.41807765 -0.48934555

fc1.bias f4 [64]
00000000: fafd ec3e d0ce c3bd 1025 18be 0120 c8bd
00000010: 3ca9 c73e ecba 24bd c06b a7bd b9bb dbbc
00000020: 193e adbe fa4f f63e 2f1a fa3e c09d a8bd
00000030: 9391 5fbe da52 1cbe 303a ab3e 402c 34bc
00000040: a12e 89bd 965c 2dbd 40b4 a6be 48fe 953e
00000050: f7ff e43d d698 e9be a7d2 88be f48e c3bc
00000060: ed92 94be a80a 463e 403f c7be 30d4 d3be
00000070: 71dd a13a b103 99be 73e7 c6be 7e54 45be
00000080: fa31 da3e 1619 6f3c d569 c7be 964d 153e
00000090: e9b3 9e3e 7123 dcbe fc5c ccbe becb 96be
000000a0: 33d4 973d 69b6 983e db5e 263e 9bd9 a1be
000000b0: 6ae1 3bbe d730 cabe 1520 8ebe e7f3 103e
000000c0: 9066 55bd bee4 a03d 86d3 1ebe a103 d03d
000000d0: e00a d3be dfe4 2fbe c73c 013e b391 463d
000000e0: 8797 debd 90c0 a9be 09ac 563e b344 47be
000000f0: 9566 8bbe 4c96 d23e 4a1a 6a3e 2a19 ab3b
0.4628752 -0.09560931 -0.14857888 -0.09771729 0.38996303 -0.040217325 -0.081748486 -0.026822912
-0.3383644 0.48107892 0.48848101 -0.082332134 -0.21832876 -0.1526598 0.3344283 -0.010996878
-0.06698347 -0.042324625 -0.32559395 0.29295564 0.11181634 -0.45624417 -0.26723215 -0.023871876
-0.29018345 0.19340003 -0.38915443 -0.41372824 0.001234932 -0.2988563 -0.38848457 -0.19270512
0.42616254 0.014593383 -0.3894793 0.14580378 0.30996636 -0.4299579 -0.3991469 -0.29452318
0.07413521 0.29826668 0.16247122 -0.31611332 -0.18347707 -0.39490387 -0.27758852 0.14155541
-0.052099764 0.07856129 -0.15510377 0.10156942 -0.41219234 -0.17177151 0.12620841 0.048478793
-0.10868745 -0.33154726 0.20964064 -0.194598 -0.272267 0.41130292 0.22861591 0.0052215056

fc2.weight f4 [64, 64]
00000000: ca17 80bd 20a7 c4bd 4da5 193c 91cf 6d3d
00000010: 0867 f9bd 32a3 9abc 5ff2 94bd 70a0 8d3d
00000020: 1ea9 c63d 368d ce3d 6cad c43d f6bd cc3d
00000030: 7f63 e63d a464 b33d 78c5 b33c 3222 993d
00000040: c06a d0bc b587 c5bd 0a45 bfbd de95 043d
00000050: a88f 8bbc 380c 90bc 00e5 cd3b 8d78 a4bd
00000060: b4d9 73bd ae78 9c3d b844 fcbd 1e9f f33d
00000070: 6aa6 fabd 31a1 da3d d8a3 353d 400d 44bb
00000080: c34d 83bd c8e1 693d f437 eabd a454 8bbd
00000090: 7af2 0abd f07d 813d ba22 cb3d 6de5 f7bd
000000a0: 6cec dabd e76b fc3d b9be 9fbd ce3f ccbd
000000b0: 68fa bbbd 4f76 1f3d 80d9 38bb 8e1e 11bc
000000c0: 28a4 f3bd 603d 9a3d c9bb 653d 6212 b3bd
000000d0: f270 4dbd af51 c4bc ba0b 8c3d 16c4 16bc
000000e0: 287c 9cbd c449 f23d dc69 083d 82ce b73d
000000f0: 9235 dfbd d07d 6c3c d1f6 f83d 21f1 b1bd
00000100: ebf1 ce3d 862e a23d b287 dfbb 945c 973d
00000110: 2532 f03d e2e9 143d 486f 61bd 4540 c23d
00000120: f0cf 433c 006c c039 4670 a9bd 34c2 98bd
00000130: 9e9c c63c b447 2a3d 6636 773d 6c3e e0bd
00000140: f453 b33d 1bf0 503d 5ff5 cbbc a90e 8f3d
00000150: 2ab4 c43d 80a7 50bd b49f 98bd 3d60 64bb
00000160: da92 aa3d c02a 24bb e0b3 cfbc d950 e93d
00000170: cbe8 7c3d b068 21bd e2f7 903d 5afd cbbd
00000180: 6ca3 a5bd 4801 2a3d fdc7 db3c 5a35 66bd
00000190: a239 893d e4c2 d2bd aed8 dabd 55f1 b7bd
000001a0: f178 833d 8815 7ebd b2b0 eb3d 84b7 d1bd
000001b0: ec5e cbbd a7a7 963d 9984 fcbd 31ea 7c3d
000001c0: 0648 b33d 8f01 cebc 3548 85bc d992 963d
000001d0: d3db 85bd 10d8 1bbc bb02 9fbd 0a35 b03d
000001e0: 9c21 9c3c 0835 dfbd 232e ad3b df2d 593d
000001f0: f5e8 9ebc a366 8a3d 3ee1 f13d d272 aa3d
00000200: c608 ac3d 343a bd3d bc8f 56bd 2c1d 69bd
00000210: b48f 863d 9f6e 37bd eebe a6bd 3466 c5bd
00000220: da89 f73d 102f 8c3c 79c4 a13d 5843 b33d
00000230: 6228 0ebd b8d3 703d cac2 c8bb 7497 f9bd
00000240: df64 e8bd 2d36 a2bd 79ed df3d 688d 5cbd
00000250: 479b 463c 407b 24bd 2f34 42bc d1ee 9abd
00000260: bd76 4f3d ae9d 8a3d 666b 8a3d e39a d73c
00000270: 6ae1 3ebd 70ef d3bd c551 963d f4c4 db3d
00000280: 393a b9bd 8e2b 203d ca05 a4bd debc d83d
00000290: 499c 863d 9ca6 b03d 7401 3cbd 9fca fcbd
000002a0: d0dc 613c fb80 753d 6e93 073d 1e65 3abd
000002b0: 1a32 b6ba ad45 50bd 3f28 ef3d b607 8a3d
000002c0: 04e7 48bd da5e b33d fb12 92bd 2818 f13d
000002d0: ddb7 50bd d8bb 92bd b4ba a1bd 0e33 fabd
000002e0: 6f5d dfbd b9e2 bb3d 6eb9 4a3d b8c6 413b
000002f0: f087 d23d 66df a1bd 141c 4b3d 0858 bc3d
00000300: 40ca a9bb 041d 8e3d bd8b a83d f0e8 70bd
00000310: beea 193d be7f 46bc d14a 8e3d f7a8 ad3d
00000320: a5c4 d3bd 203a 953c b0ba b93d cac0 acbd
00000330: de88 bc3d b4cf 3dbd 4e74 cabc 9c6f 41bd
00000340: 5c28 5d3d 3d20 e7bc 518c 89bd 392b b23c
00000350: df52 a23d 7c5f 823d 204f 0fbc c9cd 893d
00000360: d8fb 913d 805d c83d a08b 3fbd 6714 b83d
00000370: 93e0 a93c 3353 ef3c ce93 61bd 7895 dcbc
00000380: 370d 233d 50da 963d d2ef f53d 44a9 febb
00000390: dfbd 5c3d 084b 9ebd 9ff7 52bd ce0a abbd
000003a0: 7a3f bd3d b1ef 49bd d347 afbd 3050 06bc
000003b0: 15a8 0b3a 4693 8a3d 3280 84bd 1255 e6bd
000003c0: c602 f1bd a792 983d afb2 43bd 48a8 ba3d
000003d0: 32ef 583c 5122 1d3d 22b4 9dbd 2cc2 33bd
000003e0: 6689 15bd 14a3 aa3d b0e1 c83d f007 b9bd
000003f0: 21b2 e0bc c87c eb3c c98a 84bd bcfb 453d
-0.062545374 -0.09602189 0.00937779 0.05805928 -0.12177855 -0.018876646 -0.07272791 0.06915367
0.09700225 0.100855276 0.0960339 0.0999717 0.11249446 0.0875943 0.021944746 0.07477225
-0.025441527 -0.09645025 -0.0933934 0.032369487 -0.017036274 -0.017583951 0.0062834024 -0.08030806
-0.05953379 0.07640205 -0.123177946 0.118955836 -0.12238772 0.10675276 0.044345707 -0.0029915124
-0.06411316 0.057100087 -0.114364535 -0.06803253 -0.03392265 0.06322849 0.09918733 -0.12104306
-0.10689625 0.12325268 -0.07800049 -0.09973107 -0.091786206 0.038931187 -0.0028205812 -0.008857382
-0.11896545 0.075312376 0.05608729 -0.087437406 -0.05015654 -0.023964731 0.06838174 -0.009202024
-0.076408684 0.11830476 0.03330408 0.08974935 -0.108988896 0.014434293 0.121564515 -0.0868857
0.10104736 0.0791903 -0.006821596 0.07390705 0.11728314 0.03635586 -0.055037767 0.09484915
0.011951432 0.0003670156 -0.082733676 -0.07458916 0.024244603 0.041572288 0.060354613 -0.10949406
0.08756247 0.051010232 -0.024897275 0.06985218 0.09604676 -0.05094099 -0.07452336 -0.0034847402
0.08328791 -0.0025049895 -0.025354326 0.113923736 0.061745446 -0.03940648 0.0707853 -0.09960432
-0.08087811 0.04150513 0.02682876 -0.056203224 0.06700446 -0.10291079 -0.106858596 -0.08981577
0.06419552 -0.062032253 0.11508311 -0.10240081 -0.09930214 0.07356196 -0.123299785 0.06174678
0.08753972 -0.025147228 -0.016269783 0.07352228 -0.06536069 -0.0095119625 -0.07764193 0.086038664
0.019058995 -0.10898787 0.005285041 0.05302226 -0.019398192 0.06757858 0.1181054 0.083226815
0.08400111 0.09239617 -0.05238317 -0.056912586 0.06570378 -0.04478323 -0.08141886 -0.09638634
0.1208684 0.017112285 0.07898802 0.08753079 -0.03470648 0.05879566 -0.0061267363 -0.121870905
-0.11347365 -0.079204895 0.10933966 -0.053845793 0.012121982 -0.040156603 -0.011853262 -0.07565082
0.050650347 0.06768356 0.06758766 0.026318973 -0.04660169 -0.103484035 0.07339815 0.10730925
-0.09044308 0.039104037 -0.08008917 0.105828986 0.06572778 0.08625528 -0.045899823 -0.123433344
0.013785556 0.05993746 0.033099584 -0.04550659 -0.001390043 -0.050847698 0.11677598 0.06739752
-0.04904844 0.08758326 -0.071325265 0.117721856 -0.050956596 -0.071647346 -0.07896939 -0.12216769
-0.10906493 0.09174103 0.049493246 0.0029567908 0.10279834 -0.07903938 0.049587324 0.09196478
-0.005181581 0.06939128 0.08229778 -0.058815897 0.037577383 -0.012115417 0.06947864 0.08479493
-0.10340241 0.018216193 0.09068811 -0.08435209 0.09205793 -0.04634066 -0.024713662 -0.04722558
0.053993568 -0.028213615 -0.06716216 0.021749126 0.07925963 0.063658684 -0.008746892 0.067287035
0.071281135 0.09783459 -0.046764016 0.089882664 0.020736968 0.029214477 -0.0550726 -0.026926741
0.039807525 0.073658586 0.12008633 -0.007771643 0.053892013 -0.07729155 -0.05150568 -0.0835167
0.09240623 -0.049300853 -0.08558621 -0.008197829 0.00053274754 0.067663714 -0.06469764 -0.112466946
-0.11768107 0.07449847 -0.047777828 0.09114128 0.013240622 0.038362805 -0.07700373 -0.04388635
-0.036507986 0.08331886 0.098086715 -0.09034717 -0.027428688 0.028746024 -0.06471784 0.048335776

fc2.bias f4 [64]
00000000: ad23 f1bd 7057 96bd d15b e53d 8b99 e3bd
00000010: e239 f73d da3f 4e3c 8fc5 f7bc b013 48bd
00000020: f6ac 9fbc e5d0 d33d 7855 50bd 3458 f13d
00000030: 323c ac3d 583c 9b3c fd3b aa3d 86c2 a5bd
00000040: 94ab 27bd 9bf1 6bbd a01e d83d 3adc 7fbd
00000050: c95e 2fbd ece8 09bd b97b a43d 1836 093d
00000060: c7d5 233b 0a99 723b c926 ce3c 048b 163d
00000070: e47c f9bd e439 febd d7d1 78bd 61f4 f1bd
00000080: 2851 7abd 4fc7 f4bd d5ce d3bd 807e 7d3c
00000090: fd25 e7bd 9d9f 823b f747 95bd b86c 3ebd
000000a0: a6da f83c d177 31bd ed0c 1dbd 9cf1 3b3d
000000b0: 972a bc3b 446f d3bb 5d13 5bbc ae7a 81bb
000000c0: 7187 44bd 1f8b a53d 08f6 c83d b84c 5ebd
000000d0: e07b 9c3d a931 30bd 52b3 b0bd d9d0 a9bd
000000e0: 71cc 85bd be2b debd 8ea6 833d 82ff e0bd
000000f0: 1076 653c 2826 eb3b 26c5 c1bd a96c 84bd
-0.11774383 -0.07340896 0.11199153 -0.1111327 0.12071587 0.012588466 -0.03024557 -0.0488469
-0.019491654 0.10342578 -0.05086276 0.117844015 0.08409919 0.018949673 0.08312223 -0.08093743
-0.040935114 -0.05760346 0.10552716 -0.062465884 -0.042815004 -0.033669397 0.08031411 0.033498853
0.0024999247 0.0037017488 0.025164979 0.03675367 -0.12182024 -0.124133855 -0.060746994 -0.1181419
-0.061112553 -0.119520776 -0.103421845 0.0154720545 -0.112865426 0.0039863125 -0.07289117 -0.0464904
0.030377697 -0.043327156 -0.038342405 0.045884714 0.005742382 -0.006452473 -0.013371316 -0.003951392
-0.04798073 0.08083176 0.09812552 -0.054272383 0.07640815 -0.04301611 -0.08627953 -0.08291788
-0.06533135 -0.10848187 0.06428252 -0.10986234 0.014005199 0.0071761794 -0.09461431 -0.06466038

fc3.weight f4 [6, 64]
00000000: 9b09 d13c 795f 3c3c 2034 abbd 2e66 eb3c
00000010: 09fc d2bd 22d7 a1bd e9d8 8c3c bef8 f0bd
00000020: 7e8b c23d 30e3 003e be4d 95bd fe94 cd3d
00000030: c19a a53d c2bb 973d ff2a 3d3c d4b2 fe3d
00000040: c010 3bbd 7ac8 69bd 0627 8abd 0535 7abd
00000050: 38b8 a23d f414 c8bd 430b 1a3d a0e7 4cbc
00000060: 4ce7 ebbd cdb5 0cbd 35ff da3d 44dc a73d
00000070: 27e7 aabd cfad aabd 3dfc 9fbc a460 4dbd
00000080: bc86 98bd fcef f13d f2d6 af3d 7f71 0ebb
00000090: d8b9 ebbd 251f 163d 6633 22bd d4c2 803d
000000a0: af44 993d 3d86 af3c 035c a13d 4e32 2f3d
000000b0: 7ae1 fb3d 416f 933d 9e19 ccbc d807 e9bd
000000c0: bd47 6e3c a53c 5c3c 624f 463d b09d a83d
000000d0: eedc 9d3d 9547 60bd 4fa3 ea3d 1976 d5bd
000000e0: c7af 803c 9133 df3d 9a5f 54bb 2fad cfbc
000000f0: 38d3 6abd d36d b33d 7e94 75bd 10de cabc
00000100: cdab b5bd 8839 9abd 42f1 4c3d 621d ef3d
00000110: 8a84 c53d 7e27 d23c 82b1 983d 4aea e43d
00000120: 1e5f 94bd e523 41bd 23f4 ff3d 841d 2c3d
00000130: d099 c8bd 2090 5b3c 6647 e3bb 1111 a53d
00000140: 5851 c93d 4eb5 9f3d 4ef9 20bd 08c0 c9bd
00000150: 86ba dabc ec43 583d 3ad4 c1bd 7cd8 433c
00000160: 9e97 b7bd 0cbf f03b 3d9a 713d 44f1 d1bd
00000170: 5e9a 863d 7eb5 7abd 243d c33d de6f 273d
00000180: dab1 2d3d 0b2f ac3d 8a6f d03c 7a4f 79bd
00000190: 2d35 9e3d 517c ebbb ae15 7cbd 148d d7bd
000001a0: 3124 49bd a71e 9e3d 5b5a 4b3d 6741 e73b
000001b0: 6ba7 74bc 884a 913c 862b 0b3d 5f48 25bd
000001c0: 8917 f13d 1009 4d3d 1e59 383d 196c b7bd
000001d0: b0d2 41bd 5f9f a93d 1cfe 9cbd 73d1 f8bd
000001e0: fd71 acbd 6489 663d 95f0 d93d 6760 f03d
000001f0: 68ac a03d 74e6 583d 88ff 7d3d f028 23bd
00000200: e90b dfbd e89a f13d 4d49 b5bd 9f80 b3bd
00000210: 2f96 2b3d 83bb 3f3d 8984 cd3d 5897 b63d
00000220: 1264 c2bd ef44 a23c e262 bd3d 0e78 9f3d
00000230: 9701 353d c06e 243d 2b43 d43d 29f0 8dbd
00000240: b020 843c 9ef0 9e3d 1985 bb3c 3dde e1bc
00000250: 5a04 8d3d 7481 4b3d 9940 ba3d a852 ef3c
00000260: 7c0a 083c 2707 c0bd 5a91 573d 7c69 5bbd
00000270: da50 7abc 456a 7a3d 1790 2c3d 389c db3b
00000280: ce7b f03c a9ff e13d 56ea 343d 1745 df3d
00000290: fee7 d6bd dac7 37bd 9864 a7bc f6b8 82bd
000002a0: b564 d6bd 8e84 11bc 67fb fa3c 33cf 50bc
000002b0: 97f6 843b 8c94 733d c026 8abd 5bad c8bd
000002c0: dbc4 40ba b26c d03d d4ac 9abc f5d4 ebbd
000002d0: db8a 6cbd 97d4 a0bd 40de e63d 9f79 52bd
000002e0: 339e b2bd 3558 b53c cf3b ac3d e683 e43d
000002f0: 00f1 df3c 23bd 713d 0559 a43d b8c2 8bbc
00000300: fcda 073d 26c0 17bd 6f25 223d c5ba 8abd
00000310: a0b3 65bd d168 50bd e625 8dbc 747b db3d
00000320: 19b7 66bd a403 5a3d 5cbd 0e3d f4b7 fcbd
00000330: 7337 093d 3651 e33d 0307 f9bd baf2 bdbd
00000340: e812 58bd e50f 8a3d a3c2 84bc b464 a0bd
00000350: 655d a03d c05c d5bd 9a49 043c ba3b 7ebc
00000360: ccb4 823d c33d f33d 5d5a 17bd 50ae 90bc
00000370: 9d2c 933d e45f b43d b0b6 f6bc 411a 953d
00000380: edea cebc 206f f43c 7b86 2c3d 1b88 8b3d
00000390: 59ce d63d b8e0 cdbc faff f4bc 442a f7bd
000003a0: 9e1d 093d e55b 363c a67b 60bd 1174 8e3d
000003b0: 0547 b53d 7f8a d8bd 8342 87bd d83a a03a
000003c0: 3060 f5bd 7145 dc3d b52e a43d b679 cebd
000003d0: 4d65 bd3d 776b 823d 3b7d ef3d cdf5 eb3d
000003e0: 4930 7fbd 4540 72bc c9d2 8ebd 7f82 9abc
000003f0: b42a f1bd d0ab d4bd ccca 20bd d45d 2e3d
0.025517276 0.011497372 -0.083595514 0.028735247 -0.10301978 -0.079023615 0.017193275 -0.11766194
0.09499262 0.12586665 -0.07290219 0.10038184 0.080861576 0.07408859 0.011545896 0.124364525
-0.04567027 -0.057075955 -0.067457244 -0.06108572 0.07945293 -0.097696215 0.037608396 -0.012506396
-0.11518726 -0.034353066 0.10693208 0.08196309 -0.0834487 -0.083339326 -0.019529456 -0.05014099
-0.074475735 0.118133515 0.085859194 -0.002173513 -0.11510056 0.036650795 -0.0395998 0.062871605
0.074838035 0.021426314 0.07878878 0.042772584 0.122988656 0.071989544 -0.024914559 -0.11378449
0.014543471 0.013442193 0.04841555 0.082332015 0.077081546 -0.054755766 0.1145693 -0.10422916
0.015708817 0.108985074 -0.0032405616 -0.025351135 -0.05733034 0.08761182 -0.059956066 -0.02476409
-0.08870659 -0.075305045 0.05003477 0.11675526 0.096444204 0.025653597 0.07455732 0.111774996
-0.07244705 -0.047153372 0.12497737 0.042020336 -0.097949624 0.013401061 -0.0069360016 0.08059896
0.09829968 0.07798253 -0.039300255 -0.0985108 -0.02670027 0.05279915 -0.09464307 0.011953469
-0.089644656 0.0073469933 0.058984984 -0.10251096 0.06572412 -0.06120824 0.09533146 0.04087817
0.04240594 0.0840741 0.025443811 -0.06086681 0.07724986 -0.0071864505 -0.061544113 -0.105249554
-0.04910678 0.0772069 0.049646717 0.007057357 -0.014932494 0.017735735 0.033977054 -0.04035222
0.11772067 0.05005747 0.045006864 -0.08956165 -0.047320068 0.08282351 -0.07665655 -0.12149324
-0.08420179 0.05628337 0.106415905 0.11737137 0.07845384 0.052954152 0.06201127 -0.039833963
-0.108909436 0.11797124 -0.08851872 -0.08764767 0.041891273 0.046809684 0.10035045 0.08915585
-0.09491743 0.01980826 0.09247376 0.077865705 0.04419097 0.040144682 0.10364374 -0.069305725
0.016128868 0.07760738 0.022890614 -0.027571792 0.068855956 0.049684003 0.09094352 0.029214218
0.008303281 -0.09376364 0.052628852 -0.053567395 -0.015278066 0.061136503 0.042129602 0.0067019723
0.02935591 0.110350914 0.044168793 0.1090185 -0.10493468 -0.044868328 -0.020433709 -0.06382935
-0.10468427 -0.008881701 0.030637456 -0.012744713 0.004057716 0.059467837 -0.06745672 -0.0979869
-0.00073535525 0.10176982 -0.018881239 -0.11515228 -0.05774961 -0.07853048 0.112728596 -0.05138552
-0.0872158 0.022136787 0.08409845 0.1115797 0.027336597 0.059018265 0.08024792 -0.017060623
0.033167824 -0.03704848 0.03958648 -0.06773905 -0.056079507 -0.05088121 -0.017229985 0.10716906
-0.05632696 0.05322613 0.034848556 -0.12339774 0.033500146 0.11099474 -0.121595405 -0.09274812
-0.052752405 0.06741313 -0.016206091 -0.078317076 0.078303136 -0.10418081 0.008074189 -0.01551717
0.063821405 0.118770145 -0.03695141 -0.017661244 0.07186244 0.08807352 -0.030116409 0.07280398
-0.025258506 0.029838145 0.042120438 0.068130694 0.104885764 -0.025131568 -0.029907215 -0.120686084
0.03347551 0.011130308 -0.05480542 0.06955732 0.088514365 -0.10573291 -0.06604483 0.0012224568
-0.11981237 0.107554324 0.08016721 -0.10081808 0.09247837 0.063681535 0.11693808 0.11521492
-0.062301908 -0.014785831 -0.06973798 -0.018861054 -0.11775723 -0.10384333 -0.039255902 0.04256995

fc3.bias f4 [6]
00000000: 8519 4b3d e807 943d f2c1 d63d 41d1 84bd
00000010: 96c9 a13d 5956 233c
0.049584884 0.072280705 0.10486211 -0.064852245 0.078997776 0.009969317

fc1.weight f4 [64, 4]
00000000: 725b f5be fcc8 24be 1059 f53e 18e4 e0be
00000010: 4ccd e8be 38a1 6dbe 483b 0fbe 30dc 36bd
00000020: 4823 2dbe 3cd4 0a3e 8e57 923e b0e6 ccbd
00000030: 54c6 78be 4c17 f03e dc6f ae3e b46a 90be
00000040: 6ccb 303e 184e 2dbe d010 7d3d 0823 08be
00000050: 001e c4ba 38ad e8bd 3259 e23e 3eff 993e
00000060: 40f0 f8be 26cf f43e 983d 7e3e c024 943c
00000070: b2fa 843e 5253 91be 90c9 06bd 78ce d7bd
00000080: 26ea a43e 4803 38be 5628 da3e 7ab9 dabe
00000090: bcf2 17be 960a 96be 306e 283d 1c77 5bbe
000000a0: 0a5b dcbe 80cb ffbe 0037 893e 0081 6c3c
000000b0: b04d 45be badc c4be 664d c6be 843c 33be
000000c0: 7885 013e e40c 023e d4bf ffbe 1836 63be
000000d0: 9c48 38be aaf3 9ebe 4c31 85be 8e6b bb3e
000000e0: ac23 023e ccad 86be 7691 febe 6032 983c
000000f0: 4000 e4bc 4418 5fbe 6484 4abe d007 16be
00000100: 7017 92be fceb 63be e817 55be 74d4 b03e
00000110: a4d3 75be bc2d c33e 98f1 c33d 2a62 e53e
00000120: bc42 fb3e d025 ccbe 7680 e83e cecf cd3e
00000130: 3cf1 df3e ec84 bebe 5cbc 4c3e d8bb 1bbe
00000140: 8451 433e 58ec d73d 2e7a d43e b4a5 c7be
00000150: dc33 0dbe b0d9 50be 1c56 3ebe 82b1 dfbe
00000160: 30d4 fbbe 7c3a 26be 9019 6e3e c0af 043e
00000170: ae6e e13e 2007 e4be 4c95 523e d80f 513e
00000180: 682a 7a3e 00b0 7dbb 9870 6e3e 30c4 37bd
00000190: 8cdd 05be 2063 d5bd 50c5 d03d 0e88 8dbe
000001a0: 3e32 dcbe 10bd 44be 941e f1be a0e2 09bd
000001b0: 6267 a63e ae26 9abe d80e ecbd 7cca b23e
000001c0: e269 a6be 820d dc3e c890 89be a0d3 973c
000001d0: e863 a2be 3843 d73e 7ae3 8ebe 2a5b 97be
000001e0: 40a7 583c 3083 853e e06a 32bd 3296 a83e
000001f0: 68e8 e6be 301f 77bd c81b 48be 1c11 043e
00000200: 0e68 f33e 3059 e33d d48c 3cbe 0e2c c3be
00000210: 341d a3be a895 09be e670 ed3e 98ae 983d
00000220: fa13 8dbe e45c 1a3e 32cc a53e e01d c63c
00000230: 0a92 b13e 1632 b5be ac1b 87be 4805 ea3e
00000240: d243 e73e c8d8 61be 7a33 b9be 2e64 efbe
00000250: f401 cabe 209b 8c3c bc9d 543e d86f 963d
00000260: d4af 89be 7cce 343e b023 393d f451 a93e
00000270: b66a e83e fcf6 0c3e 329d cabe 0edf ca3e
00000280: 2289 adbe f4e2 323e 403d 5bbc 3c8d 87be
00000290: 489d 5bbe 2495 9e3e 5ee5 e63e 6a9f b63e
000002a0: 5ef9 e4be da32 d63e 2c9e b43e f864 04be
000002b0: 08b8 22be c09e ffbc 38a1 c5be d875 013e
000002c0: 782b 8e3d 1a18 febe 68f2 cd3e cc24 9dbe
000002d0: 3c78 893e 00c1 ff3e e25d 943e ec41 53be
000002e0: 3420 79be 40ba b2be a463 403e 2010 b03e
000002f0: c02a 9cbc 749f 7c3e 7acb fcbe 68f8 3dbe
00000300: 66c1 f9be 00a7 ab3c 44e2 64be 28ac b4bd
00000310: 2086 cebd c07b 8f3d f86a a0bd 504f 5ebe
00000320: 820a 823e aa72 bb3e b8cd c03e 781c dcbe
00000330: 0029 b0bd c4f6 94be a0d7 e33e 40c1 633c
00000340: 366f ff3e 74b8 b8be ca37 8f3e 0071 943e
00000350: 3c49 31be 9878 b23e 30ef efbd b664 9dbe
00000360: 2ad1 803e 1618 a5be dc02 35be 0c70 183e
00000370: b425 1bbe 1a28 8f3e 18f4 803d 9073 cbbe
00000380: f82a dabd c42c 3e3e c0a5 693e 14d3 bb3e
00000390: ac03 04be 608f 54bd 8ca5 72be 32f8 b13e
000003a0: 803a 0bbe d62a a93e f086 023e b094 dd3d
000003b0: 3864 a53e 1421 7fbe 7449 1fbe 283b 81bd
000003c0: 6055 7d3e 9686 d9be d457 68be 9e86 b4be
000003d0: 8a99 edbe 54ad 213e 3059 323e 84c9 4ebe
000003e0: d2fa ea3e 18b6 53be c4b0 35be a0e5 a9be
000003f0: 38d1 843e 9c7c 43be 8a80 d4be 2eed f9be
-0.4792133 -0.16092294 0.47919512 -0.43924022 -0.4546913 -0.23206031 -0.13987458 -0.04464358
-0.1690799 0.13557523 0.28582424 -0.10004938 -0.24294406 0.46892774 0.34069717 -0.28206408
0.172651 -0.16924322 0.06178361 -0.13294613 -0.0014962554 -0.11361164 0.44208676 0.30077547
-0.48620796 0.47814292 0.24828184 0.01808393 0.25972515 -0.2838388 -0.03290707 -0.10537428
0.3220989 -0.17970002 0.426089 -0.42719632 -0.1483869 -0.2930495 0.041120708 -0.21432155
-0.43038207 -0.49959946 0.26799774 0.014435053 -0.19267917 -0.3844965 -0.38730925 -0.17503554
0.1264857 0.1270023 -0.4995104 -0.22188604 -0.17996448 -0.31045276 -0.26014173 0.36605495
0.1270892 -0.26304471 -0.49720353 0.018578708 -0.02783215 -0.217866 -0.19777066 -0.14651418
-0.28533506 -0.2225799 -0.20809901 0.3453709 -0.24006516 0.3812083 0.09567565 0.44801456
0.49074352 -0.398726 0.45410508 0.40197605 0.43738735 -0.37210786 0.19993728 -0.15208375
0.19074064 0.10543126 0.41499466 -0.3899361 -0.13789314 -0.20395541 -0.18587536 -0.43690115
-0.49185324 -0.16233248 0.23251939 0.12957668 0.44029754 -0.44536686 0.20564765 0.204162
0.24430239 -0.003870964 0.23285139 -0.044864833 -0.13072795 -0.10419297 0.101938844 -0.27642864
-0.43007082 -0.19212747 -0.47093642 -0.033663392 0.3250075 -0.30107635 -0.11526269 0.34920108
-0.32502657 0.42979056 -0.26868272 0.018533528 -0.31716847 0.4204347 -0.27907926 -0.2956174
0.013223469 0.2607665 -0.043558955 0.3292709 -0.45099187 -0.060332477 -0.19541848 0.12897152
0.47540325 0.111009955 -0.18413097 -0.3811955 -0.31858218 -0.13435996 0.46375197 0.07455176
-0.27554303 0.15074497 0.3238235 0.024184167 0.3468173 -0.35389775 -0.263883 0.45707154
0.4516893 -0.22055352 -0.36172086 -0.4675612 -0.39454615 0.017163813 0.20763296 0.07345551
-0.2689196 0.17656893 0.04520005 0.33070338 0.45393914 0.13766092 -0.39573056 0.39623302
-0.33893687 0.17469388 -0.013381302 -0.2647494 -0.21446717 0.3097316 0.45096868 0.35668498
-0.44721502 0.41835672 0.35276926 -0.12929142 -0.15890515 -0.031203628 -0.38599563 0.1264261
0.06941885 -0.49627763 0.40224004 -0.30692136 0.26849544 0.49951935 0.28977877 -0.20630616
-0.24328691 -0.34907722 0.1878801 0.34387302 -0.019063354 0.24670202 -0.4937399 -0.1855179
-0.48780364 0.020953655 -0.22351938 -0.08821899 -0.10084176 0.07006025 -0.07832903 -0.21709943
0.25398642 0.3661092 0.3765695 -0.4299047 -0.0860157 -0.29094517 0.44500446 0.013901055
0.49889535 -0.36078227 0.2797225 0.28992462 -0.17313093 0.3485763 -0.11715543 -0.307409
0.2515958 -0.3224494 -0.17676872 0.14886492 -0.15151101 0.27960283 0.06296557 -0.39736605
-0.10652727 0.18571764 0.22817135 0.36684477 -0.12892026 -0.051894546 -0.23695964 0.3475967
-0.13596535 0.33040494 0.12746787 0.108193755 0.32303023 -0.24914962 -0.15555364 -0.06310111
0.24739599 -0.42485493 -0.22689754 -0.35258955 -0.46406204 0.15788776 0.17416835 -0.2019406
0.45894486 -0.20674932 -0.17743212 -0.33183002 0.2594087 -0.19090503 -0.41504318 -0.48813766

fc1.bias f4 [64]
00000000: ae04 ed3e d0ce c3bd 5c2d 15be 18b3 d1bd
00000010: 1ce2 c83e e054 30bd c80a 9ebd 60d1 c2bc
00000020: f8c4 adbe fa4f f63e a8ca fa3e c09d a8bd
00000030: 38a0 5bbe e486 1dbe 7a7e a93e 402c 34bc
00000040: 4086 8cbd 307a 1ebd e280 a5be 2093 973e
00000050: 38f2 e13d d698 e9be 2698 89be e0ec b2bc
00000060: 9a86 93be a80a 463e 403f c7be 8e06 d2be
00000070: 00e2 91ba 4e91 99be c803 c8be 14d1 45be
00000080: 6c73 d83e 408c 813c 5e29 c7be 8413 183e
00000090: 72cd 9b3e 507e dcbe 4ca0 cdbe a43a 98be
000000a0: 5046 993d d6a8 9a3e 143e 2a3e 6ceb a1be
000000b0: e89d 3ebe 8a80 ccbe da8d 8dbe 6407 0f3e
000000c0: 9066 55bd b89c 9f3d 40be 22be 08a2 d53d
000000d0: 8234 d5be dc59 33be 38ed 003e 7061 3d3d
000000e0: 6844 d8bd 4c9a a9be 8481 533e b84a 4bbe
000000f0: 9cd8 8abe 4a67 d23e a020 653e 80ef 093c
0.46292633 -0.09560931 -0.14568084 -0.102392375 0.39235008 -0.043049693 -0.077169 -0.023781478
-0.33939338 0.48107892 0.4898274 -0.082332134 -0.21447837 -0.15383488 0.33104306 -0.010996878
-0.06861544 -0.038690746 -0.32324892 0.29604435 0.11032528 -0.45624417 -0.26873893 -0.021841466
-0.2881363 0.19340003 -0.38915443 -0.41020626 -0.0011129975 -0.2999367 -0.39065385 -0.19318038
0.4227556 0.015813947 -0.38898748 0.14851195 0.3043018 -0.4306512 -0.4016136 -0.2973224
0.07484114 0.30206937 0.16625243 -0.31624925 -0.18614924 -0.39941818 -0.27647287 0.13967663
-0.052099764 0.077935636 -0.15892887 0.10431296 -0.41641623 -0.17514747 0.12590492 0.0462355
-0.105599225 -0.33125532 0.20654875 -0.19852722 -0.27118385 0.41094428 0.22375727 0.008418918

fc2.weight f4 [64, 64]
00000000: ca17 80bd 20a7 c4bd f0a9 1f3c 348e 6e3d
00000010: 4c24 f9bd c002 98bc 006e 94bd 70a0 8d3d
00000020: b007 c73d 368d ce3d 6cad c43d f6bd cc3d
00000030: 087f e63d a464 b33d 78c5 b33c 3222 993d
00000040: c06a d0bc 222e c5bd 14e8 bebd 802c 053d
00000050: 402e 8abc 380c 90bc 00e5 cd3b 5e57 a4bd
00000060: 5032 73bd ae78 9c3d b844 fcbd 24a4 f33d
00000070: 007d fabd 8ccb da3d 1c3b 363d 400d 44bb
00000080: c207 83bd c8e1 693d f437 eabd a454 8bbd
00000090: 14a3 0abd f07d 813d ba22 cb3d b0a5 f7bd
000000a0: 6cec dabd b8d6 fc3d 8c36 9fbd ce3f ccbd
000000b0: 68fa bbbd d017 203d 80d9 38bb b004 10bc
000000c0: 28a4 f3bd 603d 9a3d 5461 663d 6212 b3bd
000000d0: 48cd 4cbd c02b c3bc ba0b 8c3d a00a 14bc
000000e0: d014 9cbd c449 f23d 8017 093d ead3 b73d
000000f0: 9235 dfbd d07d 6c3c 5e31 f93d 720b b2bd
00000100: 14d7 ce3d 862e a23d c07a c3bb d40c 973d
00000110: 5cb5 f13d 98e6 103d d007 61bd f4ec c33d
00000120: 50f4 513c 006c c039 4670 a9bd 34c2 98bd
00000130: a873 c13c b447 2a3d 2c5e 773d 6c3e e0bd
00000140: f453 b33d 38b4 4f3d b845 c5bc f0b5 903d
00000150: 7cfa c43d 80a7 50bd b49f 98bd 00e1 2dbb
00000160: d2f6 aa3d c02a 24bb e0b3 cfbc 1ea2 ea3d
00000170: 449d 7a3d 70a1 23bd e03f 903d 5afd cbbd
00000180: 2ef1 a5bd 045f 2b3d 38fb e13c 209d 65bd
00000190: a23d 893d e89e d3bd d22d d8bd 6e80 b8bd
000001a0: 5eac 863d 107b 7ebd 30fa eb3d 84b7 d1bd
000001b0: 7cad cabd 4876 963d 10aa fbbd 181d 793d
000001c0: 0648 b33d 6841 c7bc 087b 85bc 9cd5 933d
000001d0: 384e 84bd d0b0 22bc 8438 9ebd 5ea5 af3d
000001e0: a8b6 9a3c c2e9 dfbd a04a a33b 00f2 5c3d
000001f0: 30ce 91bc c8dc 893d 0afc f13d aef9 ab3d
00000200: c608 ac3d 343a bd3d f48c 55bd 2c1d 69bd
00000210: cad5 853d fc80 36bd 7248 a6bd d230 c6bd
00000220: 90ce f63d 102f 8c3c 4ee6 a23d 5843 b33d
00000230: b0d9 11bd 2893 723d 601d d7bb 7497 f9bd
00000240: 4c81 e7bd 4ea7 a1bd 5ab5 df3d fc1a 5ebd
00000250: 20ef 403c 407b 24bd d099 3abc a44c 9bbd
00000260: 94d6 4d3d ae9d 8a3d 666b 8a3d 88cf d63c
00000270: c442 3fbd 70ef d3bd 86d1 963d f2b7 db3d
00000280: d806 babd eca5 213d e646 a3bd 04b3 d83d
00000290: debe 853d 7c9c b13d 48a2 3abd 1a1d fdbd
000002a0: d0dc 613c 847b 763d c0b0 093d cc83 3abd
000002b0: 0026 dbba b414 52bd bcf7 ef3d b607 8a3d
000002c0: 04e7 48bd da5e b33d 6ce0 92bd 4085 f13d
000002d0: 8c70 51bd d8bb 92bd 4e12 a2bd 0e33 fabd
000002e0: 74d5 debd a89c bc3d e098 4b3d c079 263b
000002f0: ba7e d13d 66df a1bd 087e 493d 5a3b bb3d
00000300: 40ca a9bb 041d 8e3d b678 a73d 0013 74bd
00000310: 5454 133d 6083 63bc 962d 8d3d 1211 aa3d
00000320: 607f d7bd 203a 953c b0ba b93d cac0 acbd
00000330: 94f5 bb3d b4cf 3dbd d804 cebc 9c6f 41bd
00000340: 5c28 5d3d d871 ebbc b455 8dbd 8850 a43c
00000350: da34 9f3d 7c5f 823d 204f 0fbc 1412 863d
00000360: 56b6 8e3d 805d c83d a08b 3fbd 9880 b43d
00000370: b840 a53c b0a3 ea3c 847f 64bd 7895 dcbc
00000380: f0f6 1d3d 50da 963d 16e6 f43d 8045 18bc
00000390: cc55 573d 084b 9ebd b846 55bd a275 adbd
000003a0: 7a3f bd3d a03f 4dbd f462 b0bd 3050 06bc
000003b0: 009c 3eba f604 883d 3280 84bd 8e46 e4bd
000003c0: c602 f1bd 7e0c 973d 5024 49bd e280 b93d
000003d0: b0db 3b3c 681e 1b3d 7a03 a1bd 1446 36bd
000003e0: c0d6 18bd 14a3 aa3d b0aa c73d bc49 bcbd
000003f0: 9025 efbc c87c eb3c 546e 87bd d020 413d
-0.062545374 -0.09602189 0.009745106 0.058241084 -0.12165126 -0.018555999 -0.07247543 0.06915367
0.09718263 0.100855276 0.0960339 0.0999717 0.11254698 0.0875943 0.021944746 0.07477225
-0.025441527 -0.0962794 -0.09321609 0.03251314 -0.016867757 -0.017583951 0.0062834024 -0.080244765
-0.059374154 0.07640205 -0.123177946 0.11896542 -0.12230873 0.10683355 0.044489965 -0.0029915124
-0.06397964 0.057100087 -0.114364535 -0.06803253 -0.03384693 0.06322849 0.09918733 -0.12092149
-0.10689625 0.12345642 -0.07774076 -0.09973107 -0.091786206 0.03908521 -0.0028205812 -0.00879018
-0.11896545 0.075312376 0.056245163 -0.087437406 -0.05000046 -0.023824573 0.06838174 -0.009035736
-0.07621157 0.11830476 0.033469677 0.08975966 -0.108988896 0.014434293 0.12167619 -0.08693589
0.10099617 0.0791903 -0.0059655607 0.07375494 0.1180217 0.03537616 -0.05493909 0.095666796
0.012814596 0.0003670156 -0.082733676 -0.07458916 0.02361472 0.041572288 0.060392544 -0.10949406
0.08756247 0.05070898 -0.024081096 0.07065952 0.096180886 -0.05094099 -0.07452336 -0.0026531816
0.083478585 -0.0025049895 -0.025354326 0.11456703 0.061185136 -0.03994888 0.07043433 -0.09960432
-0.08102642 0.04183866 0.02758561 -0.05605805 0.06701209 -0.10333043 -0.105556145 -0.09008871
0.06575845 -0.06212908 0.11522329 -0.10240081 -0.09896371 0.07346779 -0.12288296 0.06081876
0.08753972 -0.02432318 -0.016294017 0.07218477 -0.064602315 -0.009929851 -0.07725623 0.08576463
0.018885925 -0.10933258 0.004983261 0.053941727 -0.017798513 0.06731564 0.11815651 0.08397232
0.08400111 0.09239617 -0.052136377 -0.056912586 0.06534918 -0.044556603 -0.081192866 -0.096772805
0.120511174 0.017112285 0.079540834 0.08753079 -0.035607994 0.05922237 -0.006564781 -0.121870905
-0.11303958 -0.07893239 0.10923262 -0.054224953 0.011775762 -0.040156603 -0.011389211 -0.075829774
0.050253466 0.06768356 0.06758766 0.026222005 -0.046694532 -0.103484035 0.07364182 0.10728444
-0.090833366 0.039464876 -0.07972507 0.105810195 0.06530546 0.08672425 -0.04556492 -0.12359066
0.013785556 0.060176387 0.033615828 -0.045535848 -0.0016719699 -0.051289275 0.117171735 0.06739752
-0.04904844 0.08758326 -0.07171711 0.117929935 -0.051132724 -0.071647346 -0.079136476 -0.12216769
-0.10880557 0.09209567 0.04970634 0.0025402158 0.10229249 -0.07903938 0.04919246 0.0914218
-0.005181581 0.06939128 0.08177321 -0.059588432 0.035969093 -0.013886303 0.068934605 0.08304037
-0.10522342 0.018216193 0.09068811 -0.08435209 0.091777 -0.04634066 -0.025148794 -0.04722558
0.053993568 -0.028740808 -0.06901112 0.020057932 0.077737525 0.063658684 -0.008746892 0.06546417
0.069683716 0.09783459 -0.046764016 0.0881359 0.020172462 0.028642505 -0.05578567 -0.026926741
0.038565576 0.073658586 0.11957948 -0.009293914 0.052572057 -0.07729155 -0.052069396 -0.08469702
0.09240623 -0.050109506 -0.08612624 -0.008197829 -0.00072711706 0.06641571 -0.06469764 -0.1114627
-0.11768107 0.073754296 -0.049106896 0.090577856 0.011465952 0.037870795 -0.07861991 -0.044500425
-0.037314177 0.08331886 0.09749353 -0.09193751 -0.029192716 0.028746024 -0.0661284 0.047150433

fc2.bias f4 [64]
00000000: 36d7 f0bd 5480 98bd 0ccf e53d d6ec e4bd
00000010: da3f f73d 7072 7e3c 585d eebc b013 48bd
00000020: e0dd 83bc 7213 da3d 40cf 63bd 3458 f13d
00000030: 529b aa3d 583c 9b3c 4e4e b03d ea1f acbd
00000040: 94ab 27bd 9426 7fbd 8e72 d53d 4ce7 71bd
00000050: 5c92 33bd ece8 09bd 5622 a23d a0bd 093d
00000060: e024 b33b 0080 b5b7 c0cf ac3c c0c0 163d
00000070: e0e4 fabd 444e febd 280e 70bd 7ef3 f3bd
00000080: 8ebc 85bd 2cfe febd 1a5d dfbd b0d8 7e3c
00000090: cade efbd a050 a33b 842f 8ebd b86c 3ebd
000000a0: 50fa df3c 9087 42bd 4cde 0fbd 0c19 2b3d
000000b0: 0019 c93a c0f6 d4bb 10b9 21bc 8081 c43a
000000c0: 6445 45bd 3c9f 9d3d d428 c53d 440f 5abd
000000d0: 58e4 943d e05f 40bd c6ae adbd 224d a7bd
000000e0: 2865 83bd 8251 dfbd d6d0 883d 5664 eabd
000000f0: 1076 653c 8035 8f3b 6678 c9bd 8087 84bd
-0.11759798 -0.07446352 0.11221132 -0.11177985 0.120727256 0.015530214 -0.029097244 -0.0488469
-0.01609701 0.1064824 -0.05561757 0.117844015 0.08330406 0.018949673 0.086086854 -0.084045246
-0.040935114 -0.06229265 0.1042224 -0.059058473 -0.04384075 -0.033669397 0.07916705 0.033628106
0.0054670423 -2.1636486e-05 0.021095157 0.036804914 -0.12250686 -0.12417272 -0.05860725 -0.11911677
-0.065301046 -0.12450823 -0.109064296 0.015554592 -0.117124155 0.0049839765 -0.06942657 -0.0464904
0.027341038 -0.047492564 -0.03512411 0.041771933 0.0015342534 -0.0064991415 -0.0098707825 0.0014992207
-0.04816188 0.07696387 0.09626928 -0.053237215 0.072701156 -0.046966434 -0.08480601 -0.08169009
-0.064157784 -0.10904218 0.06680457 -0.11444919 0.014005199 0.0043703914 -0.09837417 -0.06471157

fc3.weight f4 [6, 64]
00000000: 808d cd3c 10c0 113c 0212 aebd a8aa d43c
00000010: f08b d4bd aabb a5bd a0c6 793c bef8 f0bd
00000020: 7a7c c03d a038 ff3d 3c63 9bbd fe94 cd3d
00000030: c4ca a13d c2bb 973d e008 113c 4a12 f93d
00000040: c010 3bbd 381e 73bd 0af7 8dbd 68dc 84bd
00000050: 8ed2 a03d f414 c8bd 5cc5 0e3d b028 6bbc
00000060: 9039 f1bd 4c5c 18bd 3230 d63d 44dc a73d
00000070: 6ac7 acbd a4bb afbd 0808 bfbc f087 4ebd
00000080: ea50 9cbd 9a87 eb3d daae aa3d 80f8 24bb
00000090: 7203 f2bd d403 153d 8495 2cbd d4c2 803d
000000a0: f0d4 933d 683b 913c 7a8d 9d3d ac87 243d
000000b0: 5694 f53d b221 933d 8843 e1bc 8473 eebd
000000c0: 200c 683c 9077 3d3c c45c 3e3d 20a0 9f3d
000000d0: c880 993d 68db 6cbd 6017 e53d 40e2 d8bd
000000e0: 4071 783c 30e0 db3d 201b d0bb 3009 e6bc
000000f0: 38d3 6abd 481b ad3d 2aad 81bd 10de cabc
00000100: 4814 b8bd aa44 a2bd 74e3 463d 206b e83d
00000110: 301c c33d 2812 b43c 963d 943d 4aea e43d
00000120: ce94 98bd d8fa 49bd d086 f73d 841d 2c3d
00000130: 587c d0bd 2090 5b3c e0dd 21bc f2b3 9c3d
00000140: 5851 c93d ec59 9a3d f491 29bd 2cbc d0bd
00000150: 4899 e3bc ec43 583d c880 c8bd 2053 223c
00000160: 72a6 bdbd c029 1f3b e82c 613d 44f1 d1bd
00000170: 0ae7 833d 803d 85bd ee3e bc3d 98c7 243d
00000180: dcb1 1c3d 64f8 a23d 509d b73c f070 7bbd
00000190: 9e02 963d b03e 02bc cca2 84bd 148d d7bd
000001a0: b418 5abd a427 963d 3c67 3c3d 40af 3a3b
000001b0: 383e 96bc 884a 913c f0e7 f93c f433 2ebd
000001c0: 26f5 ef3d d432 3c3d bcc6 283d 90af bfbd
000001d0: f027 52bd 6cb0 a03d ce0a a5bd b495 fcbd
000001e0: ae0d aebd ac5c 5c3d ee6a d23d 5814 e83d
000001f0: 68ac a03d ec5b 483d 685b 6c3d f028 23bd
00000200: 7cab debd 4075 f23d 4221 b8bd be58 b0bd
00000210: 64d0 333d 0887 433d 624b ce3d 5897 b63d
00000220: 300f c1bd 188a b63c d856 bd3d 0e78 9f3d
00000230: bc90 3a3d c06e 243d 2292 d23d 2abe 8cbd
00000240: b020 843c 1e10 9f3d f829 9e3c c0fc e4bc
00000250: aea2 8c3d 7481 4b3d 52d3 b33d 78a5 e53c
00000260: 30c8 493c 2cb0 bfbd 1090 593d 7c69 5bbd
00000270: 10b1 5abc 1469 7d3d 6013 253d 2028 e83b
00000280: b040 f23c 289a e23d 74dc 2b3d d00e df3d
00000290: c6c0 d5bd d814 32bd 00d0 a5bc f6b8 82bd
000002a0: 0a8d d5bd f0da 53bc 045d 013d b02e 48bc
000002b0: c08f 1a3b 8c94 733d ac1e 8ebd fc58 c9bd
000002c0: 803d a6ba 327e d33d b067 90bc 8a8e eebd
000002d0: a8cf 69bd f4d0 a0bd 1412 e73d 245e 53bd
000002e0: b4c0 b0bd c895 b13c 321d ac3d a230 e93d
000002f0: 00f1 df3c 9063 753d e244 a23d b8c2 8bbc
00000300: 144e 053d 8868 27bd ac71 1c3d 0a4c 92bd
00000310: e059 66bd c818 5fbd c0ab a1bc 747b db3d
00000320: f45d 6dbd 1494 523d 0068 fc3c f4b7 fcbd
00000330: a89f f33c 3651 e33d a018 febd d23a c6bd
00000340: e812 58bd 1a6f 843d 3866 92bc 6e25 a8bd
00000350: a4cc 9e3d c05c d5bd 4068 ab3b 3846 8dbc
00000360: 283a 7b3d 2cb7 e83d 3c49 27bd 50ae 90bc
00000370: 76ee 913d 34c4 ac3d 68a5 09bd 3c38 943d
00000380: a0d3 eebc 30f9 ce3c 48c2 203d ac67 8a3d
00000390: 0850 ce3d 58a6 d3bc c083 07bd 442a f7bd
000003a0: 4832 f03c 60ba f63b cc11 6fbd c6d2 853d
000003b0: 5015 ad3d b2b9 d8bd eee3 8dbd 0020 a2ba
000003c0: e416 f6bd b4eb d33d 5290 9c3d 08e1 d6bd
000003d0: 9c93 b53d 083f 733d 7caf e73d 4ce0 e83d
000003e0: 0a27 81bd 20b6 8bbc 907a 96bd e8e1 bcbc
000003f0: b42a f1bd 086a ddbd 1c16 32bd d45d 2e3d
0.025091887 0.008895889 -0.084995285 0.025960281 -0.103782535 -0.08092435 0.01524511 -0.11766194
0.09398742 0.12461972 -0.07587287 0.10038184 0.079000026 0.07408859 0.008852214 0.121616915
-0.04567027 -0.05935499 -0.069318846 -0.06487352 0.0785266 -0.097696215 0.034856185 -0.014352962
-0.11778557 -0.037197396 0.10458411 0.08196309 -0.08436473 -0.085807115 -0.02331926 -0.05042261
-0.07632621 0.11500473 0.083341315 -0.0025172532 -0.118170634 0.036380604 -0.042134777 0.062871605
0.07218349 0.017728522 0.07693 0.04016845 0.119911835 0.07184161 -0.027498022 -0.116431266
0.014163047 0.01156415 0.046475187 0.07794213 0.07495266 -0.05782643 0.11186099 -0.10590029
0.01516372 0.1073612 -0.00635089 -0.028080553 -0.05733034 0.08452469 -0.063318565 -0.02476409
-0.08988243 -0.07923253 0.04855676 0.113485575 0.09526861 0.021981314 0.07238309 0.111774996
-0.07450257 -0.04931149 0.1208626 0.042020336 -0.10179967 0.013401061 -0.009879559 0.07651509
0.09829968 0.075366825 -0.041398957 -0.10192141 -0.027783051 0.05279915 -0.09790188 0.009907514
-0.092602625 0.002428636 0.054974467 -0.10251096 0.064405516 -0.06505871 0.091916904 0.04022941
0.038255557 0.07957533 0.02241388 -0.061387002 0.07324718 -0.007949516 -0.064763635 -0.105249554
-0.053246215 0.073317796 0.04599689 0.0028485805 -0.018340215 0.017735735 0.030506104 -0.042530015
0.1171668 0.04594691 0.041205153 -0.09359658 -0.05130762 0.0784615 -0.080587015 -0.12333241
-0.08498703 0.053799316 0.102743015 0.11332005 0.07845384 0.04891579 0.05770436 -0.039833963
-0.10872552 0.1183877 -0.089907184 -0.08610676 0.04389991 0.047736198 0.10072972 0.08915585
-0.09426725 0.022282645 0.0924508 0.077865705 0.045548186 0.040144682 0.10281779 -0.068722084
0.016128868 0.07766746 0.019307122 -0.027952552 0.06866966 0.049684003 0.087805405 0.028033003
0.012315795 -0.09359774 0.053115904 -0.053567395 -0.013347879 0.06186779 0.04030168 0.0070848614
0.029571861 0.11064559 0.041958287 0.10891497 -0.10437159 -0.04347691 -0.020240784 -0.06382935
-0.10427292 -0.012930617 0.031582847 -0.012218162 0.0023584217 0.059467837 -0.06939444 -0.098314255
-0.0012683123 0.10326804 -0.017627567 -0.11648281 -0.057082802 -0.07852355 0.11282745 -0.05160345
-0.08630505 0.021677867 0.08404006 0.11386229 0.027336597 0.059909403 0.079232946 -0.017060623
0.032545164 -0.040871173 0.038194343 -0.071434096 -0.056238055 -0.054466993 -0.019735217 0.10716906
-0.05795093 0.05141075 0.03081131 -0.12339774 0.029739216 0.11099474 -0.124070406 -0.09679188
-0.052752405 0.064665034 -0.017871007 -0.08210264 0.07753876 -0.10418081 0.0052309334 -0.017245397
0.06133476 0.11363062 -0.040841326 -0.017661244 0.07125561 0.0843586 -0.03360501 0.07237288
-0.029153645 0.025265306 0.03924778 0.06758055 0.100738585 -0.025836155 -0.03308463 -0.120686084
0.029320851 0.007529542 -0.05836658 0.065343425 0.08451331 -0.105822936 -0.0692824 -0.0012369156
-0.12016085 0.10347691 0.076447144 -0.1049214 0.08866045 0.059386283 0.11312768 0.11370906
-0.06306274 -0.017054617 -0.07347596 -0.02305694 -0.11775723 -0.108112395 -0.043478116 0.04256995

fc3.bias f4 [6]
00000000: e423 3e3d dcbd 8b3d aefc d03d 66d4 8cbd
00000010: 127e 993d 20ec d73b
0.046420947 0.06823322 0.10204445 -0.06876449 0.07494749 0.0065894276
